GST-recon/checkpoints/best_ring_TopkPool.pth (torch, 17362 bytes, 11 tensors)

conv1.weight f4 [2, 32]
000000 f0 d1 20 bc cd b0 7e be 43 25 75 3e 35 ec 74 3e
       -0.009815678 -0.24872132 0.23939995 0.23918231
000010 5c 6c 62 be 77 f4 c4 bc 9d c1 97 be 44 42 f9 3d
       -0.22111648 -0.024042351 -0.29639903 0.12170842
000020 32 bb 11 bd 8e 89 a1 3e e8 2e 84 3e 4d 59 43 3e
       -0.035578914 0.31550258 0.25817037 0.19077034
000030 55 75 08 be 4d 93 81 be eb 96 88 bd 8e 9c 18 be
       -0.13326009 -0.25307694 -0.0666941 -0.14903471
000040 37 dd 89 3e da 59 d0 be ae 60 b2 3e de c3 82 be
       0.26926586 -0.4069355 0.34839386 -0.2554006
000050 e2 98 be 3e e4 2d 0d be eb 15 43 3e 36 cb 27 3e
       0.37226015 -0.13787037 0.1905133 0.16386113
000060 73 f0 03 3d 1b c6 80 3d 86 fa b2 3e ee 3b 99 3d
       0.032211732 0.062877856 0.3495676 0.07482134
000070 ca 59 90 3e db bd 8e be 20 ae a5 3e 37 eb 67 3d
       0.28193504 -0.27879223 0.3235941 0.056620803
000080 14 a8 fb 3d eb ba bf 3d 41 e3 33 3e f4 50 b5 3e
       0.12287918 0.09361824 0.17567159 0.35413325
000090 64 c8 ae bd 65 ac 2d be 5d d8 0b be 19 ad 94 be
       -0.08534315 -0.16960295 -0.13656755 -0.29038313
0000a0 98 63 78 3e bd f4 2e be be 1d 85 be 43 8c b2 3e
       0.24256742 -0.17085548 -0.25999254 0.34872636
0000b0 09 8a c6 3e 8e bb 5b 3d 13 d9 08 bd 22 a3 b2 bd
       0.38777187 0.053645663 -0.033410143 -0.08722521
0000c0 16 a5 23 3e a4 4a e0 be 4e fa c6 be 16 12 b2 3e
       0.15980944 -0.43806946 -0.38862842 0.34779423
0000d0 26 78 e3 3e b1 01 2e bd 11 d6 a4 be b6 0f 3b 3d
       0.44427603 -0.04248208 -0.3219457 0.04566928
0000e0 48 81 62 be f4 61 09 bd c2 eb 68 3e fc f0 05 3e
       -0.2211963 -0.03354068 0.22746184 0.1308021
0000f0 c4 6d b5 b9 86 18 ae 3d 07 ef 0c 3e 75 33 bb be
       -0.00034604792 0.08500771 0.13763057 -0.36562696

conv1.bias f4 [32]
000000 24 b6 a7 3a 03 bc 25 3c 03 bc be 3c 3a d3 8f 3d
       0.0012795371 0.010115626 0.02328301 0.0702271
000010 86 31 f1 bc 61 39 3f 3d d3 55 bd bd e4 0f 07 bd
       -0.02944256 0.04668558 -0.09244885 -0.03297414
000020 36 1a 2c 3d cc 20 d1 3d cd 55 0e bd 18 4a ac 3b
       0.042017184 0.10211334 -0.034749795 0.005257856
000030 af c8 1d 3c a6 ea e9 bc 77 9e 51 3c 3a 1f 97 bd
       0.009630366 -0.028554272 0.012794129 -0.07379003
000040 8a b3 20 3d 5e 9a a3 bd 73 71 1a bd 70 aa 24 3d
       0.03923372 -0.079884276 -0.03770585 0.040201604
000050 75 d4 71 3d 2a 03 c4 bc ba 22 ba bb 02 3f 67 3d
       0.059040505 -0.02392729 -0.0056804093 0.056456573
000060 93 33 f1 bc 38 7c 0d bd d4 dc 84 3d e2 31 f0 bc
       -0.029443538 -0.034542292 0.06487432 -0.029320661
000070 3a 1a 56 3d a6 71 f2 3c f2 12 23 3d f9 a2 83 bc
       0.052271105 0.029595207 0.03981299 -0.016068922

conv2.weight f4 [32, 32]
000000 ff 6b 99 bd 3e 4f 3d bd 92 b2 10 be 61 19 f6 bd
       -0.07491302 -0.04621815 -0.14130619 -0.120165594
000010 a4 4a 7e 3d c3 94 39 3e 81 5d 0f bd b1 59 23 be
       0.0620829 0.18123154 -0.03500128 -0.15952183
000020 df e3 44 3e 2a c2 50 be b5 95 bd bc 98 1a 9e 3e
       0.19227551 -0.20386568 -0.023142675 0.30879664
000030 af d0 10 3d a8 d1 55 3d 5b 2a 80 3d fd 21 e2 bd
       0.035355266 0.052201897 0.06258079 -0.11041639
000040 14 1c 55 3e e6 46 8d be da b8 d1 bd 5c d9 42 bc
       0.20811492 -0.27593154 -0.10240336 -0.011892643
000050 bd 26 30 be ed 25 b7 bc d6 ca 63 3e 2e b6 c5 3d
       -0.17202277 -0.022356952 0.22245345 0.09653889
000060 06 91 ba bc 4a 3c 30 3e ea 82 31 be 1a 55 f4 bd
       -0.02277423 0.17210498 -0.17335096 -0.11930294
000070 44 8f 28 3e a8 91 59 bd b3 58 a7 be 5c 6b 3c be
       0.16460901 -0.053117424 -0.3268486 -0.1840033
000080 3e 5a 66 be b1 e5 91 3e 1c 90 17 3e 0e 9d 69 3e
       -0.22495362 0.28495553 0.14801067 0.22813818
000090 e5 47 67 be 06 d4 7a be c1 7e 59 be 19 ee 91 bc
       -0.2258602 -0.24494943 -0.21239759 -0.01781373
0000a0 9b 92 df bd 1a 4d 41 be c3 fa 52 3e a9 ec c9 bd
       -0.10916635 -0.18877068 0.2060347 -0.098595925
0000b0 96 05 0c be e3 50 0c 3e 66 9e 60 bd e3 d7 48 3e
       -0.13674006 0.13702731 -0.05483856 0.19613604
0000c0 96 c6 ca 3d 01 76 f1 3c 94 e5 cf 3c a9 49 6d be
       0.099011585 0.029475214 0.025378026 -0.2317263
0000d0 be 47 27 be 35 24 47 be 59 18 34 be 6e 3b ca 3d
       -0.16335961 -0.19447406 -0.17587413 0.098746166
0000e0 af e2 dc 3d 29 a8 4a bd 00 84 42 3e f5 22 56 be
       0.10785424 -0.049476776 0.18995667 -0.20911773
0000f0 6b 0c a9 3d 43 c9 d0 bd 7c 45 83 be 61 4b 48 be
       0.08254322 -0.101946376 -0.2563895 -0.19560005
000100 62 65 1d 3e ba d0 02 3d 58 96 09 be 97 14 9b bd
       0.15370706 0.03193734 -0.13436258 -0.075722866
000110 76 aa c7 be b9 b1 df 3d c8 e1 3e 3e 90 48 86 3d
       -0.3899724 0.1092257 0.18640816 0.06556809
000120 60 38 df bd 00 81 bd 3d 02 f9 b7 3e 8c d4 c7 bc
       -0.108994246 0.092531204 0.35932165 -0.024393342
000130 ee 2a 99 bd f3 04 26 3e 29 6d 17 bd 5e a0 28 be
       -0.07478891 0.16212825 -0.036969338 -0.16467425
000140 21 80 c3 be 85 3a 8d be dd 4f 31 3b 89 79 82 3d
       -0.38183692 -0.2758371 0.002705566 0.06370837
000150 30 3c 44 3e a7 bc da 3d 9b 98 7e bc 84 97 c8 be
       0.19163585 0.10680514 -0.015539314 -0.39178097
000160 00 5e ad be ad e4 be bc e7 89 b5 3e 3b 0d 07 3e
       -0.3386078 -0.0233024 0.35456774 0.13188641
000170 1b 5e 7f be 31 e7 24 3d 20 0b 2c 3e 52 38 14 be
       -0.24938242 0.040259544 0.16801119 -0.1447461
000180 64 ca 52 bd 8b 79 48 bd 30 1c 08 be de 2a 89 be
       -0.051462546 -0.048944037 -0.13292003 -0.26790518
000190 84 e2 8b 3d 06 da 87 be dd 54 04 be b8 c1 50 be
       0.06830314 -0.26533526 -0.12922998 -0.20386398
0001a0 97 ed 8b 3e e2 3c 45 3c 56 12 57 3e fc 2c 38 be
       0.27329704 0.012038441 0.21003088 -0.1798591
0001b0 be e9 73 3e 9a 41 89 3d 61 13 6e be 91 ce 86 bd
       0.23819634 0.06701966 -0.2324958 -0.06582368
0001c0 41 05 94 be 95 19 5a bd b1 c6 1b 3e f0 63 ab bd
       -0.28910258 -0.053247053 0.15212514 -0.08368671
0001d0 d7 b2 51 3e 57 1b 2b 3e cb e1 1a bc 7f d2 43 3c
       0.20478378 0.16709648 -0.009453247 0.011952042
0001e0 80 5d dd bd 88 d9 52 be f3 c2 12 be 68 e1 8b 3e
       -0.10808849 -0.20590794 -0.1433218 0.2732041
0001f0 28 d5 5b 3e d3 d4 67 3d 45 db f5 3d 40 98 b1 3e
       0.21468031 0.05659945 0.12004713 0.3468647
000200 b7 bf 7a 3e 9a ba 48 be de f8 62 3c e4 11 5b bd
       0.24487196 -0.19602433 0.01385328 -0.05348386
000210 05 c9 2f 3e a2 a2 05 3c 47 2a 35 3e 5a 7d 89 be
       0.17166527 0.00815645 0.17691909 -0.26853448
000220 c6 cd 28 3d ec c0 b8 3e 33 5a 30 be c3 e7 7d be
       0.041211866 0.36084688 -0.17221908 -0.24795441
000230 7a a7 5e be f3 85 c0 bd 14 59 4d 3d c4 0a da 3d
       -0.21743575 -0.09400549 0.05013378 0.10646585
000240 69 92 16 3e 83 3a 91 3e b3 dd d2 bd 59 d8 98 b9
       0.14704289 0.28364953 -0.10296192 -0.0002915289
000250 45 cd fd bd 5c 6d 44 3e 07 87 0b 3d 9d 44 5f 3d
       -0.12392668 0.19182342 0.03406432 0.054508794
000260 00 83 8c 3e fa 84 6a 3e 7f a9 49 bd c7 f1 34 be
       0.27443695 0.22902289 -0.04923391 -0.17670356
000270 65 2f 51 3d 2e 36 a8 3d d0 32 be bd 5f d9 95 bc
       0.05107059 0.08213459 -0.092870355 -0.018292127
000280 4a b8 1b 3d e1 25 03 be 9c 24 55 3c 95 0b ea bd
       0.03801755 -0.12807418 0.013009217 -0.1142799
000290 16 a0 5b be aa c0 43 be a9 e8 4a be 03 97 f8 3d
       -0.21447787 -0.19116464 -0.19815315 0.12138178
0002a0 7d f4 24 3e 57 f9 a3 3e 88 9c 7f 3e 97 ca bf 3d
       0.1610889 0.3202617 0.24962056 0.09364813
0002b0 22 43 3d 3e 3e 3e b2 bd 52 74 96 3e d1 ce 96 bd
       0.1848264 -0.08703278 0.2938562 -0.07363666
0002c0 4e 07 ee bc a1 25 90 bd 79 8a 31 be 14 06 90 be
       -0.029056218 -0.07038427 -0.1733798 -0.28129637
0002d0 bd ab 20 bc 4d cc 47 3e d3 32 44 be 25 44 5a be
       -0.009806571 0.19511528 -0.19160013 -0.21315058
0002e0 77 55 06 bd 27 e6 b8 3e 5d cf e7 3c 5f 7a 9f bd
       -0.03279635 0.36113092 0.02829712 -0.07787012
0002f0 b6 d0 f0 bd ad 20 9f 3e a2 ac 74 be 5c 91 14 3e
       -0.117585585 0.31079617 -0.23893979 0.14508575
000300 57 ec 4e 3d 58 ff 95 3e 8f b4 61 be de 84 02 be
       0.05051836 0.29296374 -0.22041534 -0.12745997
000310 97 63 66 bd 79 c5 bf 3e 5c d8 d5 3c ff 5b 92 be
       -0.05624732 0.37455347 0.026104145 -0.28585812
000320 1c 2d 45 3d 8c 55 e6 3d 8f 97 8d bd 90 81 50 be
       0.048138723 0.112467855 -0.06913673 -0.20361924
000330 9e 8f 85 be 8e 18 7f 3e 8b d1 30 be 73 56 8f 3b
       -0.26086134 0.2491171 -0.17267434 0.004374319
000340 0f b1 6c 3d 08 9a 5e 3e 91 f8 9a be 2d 4d 78 be
       0.057786044 0.21738446 -0.30267766 -0.2424819
000350 6d 81 07 be 2a 5b 89 be 71 27 ea 3d 96 c8 93 3e
       -0.13232966 -0.26827365 0.11433304 0.28863972
000360 da 4e 5b 3e 8d 57 c7 3e 34 d5 99 be 2e fd c5 bd
       0.21416798 0.38933983 -0.30045474 -0.09667431
000370 72 98 6e be 1d e1 20 3d d0 1a 30 be fb 81 a0 be
       -0.23300341 0.039277185 -0.17197728 -0.31349167
000380 67 08 4c 3e 19 19 f6 bd f9 27 6c bd 18 0a a2 bd
       0.1992508 -0.12016506 -0.05765531 -0.079120815
000390 58 9d 58 be f7 40 75 bd d1 11 a3 3d 60 48 95 3e
       -0.21153772 -0.05987641 0.079623826 0.2915678
0003a0 fe cc 0d be 80 f0 a4 3e f9 ab 34 be f7 98 33 3e
       -0.1384773 0.32214737 -0.17643727 0.1753882
0003b0 7d 6b 7d 3e e8 67 96 3b f3 e1 c8 bd fc 0c 84 3e
       0.24748035 0.0045900233 -0.098087214 0.25791156
0003c0 30 63 86 bd 41 09 04 be 5d 13 9a bd 85 ca 91 be
       -0.06561887 -0.12894155 -0.075232245 -0.28474823
0003d0 72 37 c8 bb ad 9a 86 be 1f 6e 30 3e ee ef 86 be
       -0.006110125 -0.26289883 0.17229508 -0.26354927
0003e0 5e bf 67 be d8 b4 97 3d 1a 39 21 3e 99 d2 8e 3e
       -0.22631595 0.0740754 0.15744439 0.27895048
0003f0 f5 ed 8d be d8 32 92 3e 07 39 78 3e 76 66 63 be
       -0.2772061 0.28554416 0.24240504 -0.22207054

conv2.bias f4 [32]
000000 47 80 5b bb f4 1f 20 bd 5f 6a b6 3c 05 57 95 bc
       -0.0033493207 -0.039092973 0.022267519 -0.01822997
000010 f3 a0 82 bd 44 43 aa 3c 63 34 47 bd 23 ab a4 3b
       -0.06378355 0.020784028 -0.048633944 0.005025284
000020 e8 53 19 3d 2f 9a f1 bc 06 00 55 3d a9 d5 28 3c
       0.037433535 -0.029492466 0.052001975 0.010304847
000030 d2 37 35 3d b9 c4 dd 3c 5b 4e 3a bc 30 2c cb bc
       0.044242688 0.027071344 -0.01137122 -0.024801344
000040 a9 b7 6b bd e6 6d f1 bc ac 21 be 3c cc 15 2a 3d
       -0.0575482 -0.029471349 0.023209415 0.041524693
000050 0c 6b 1f bb 1d f5 6c 3d b1 0c 05 3d 85 ec 79 bd
       -0.002432528 0.057850946 0.032482807 -0.06101658
000060 f3 0b 0e bd 22 20 76 bd 80 2d 54 3d 24 d6 4b 3d
       -0.034679364 -0.060089238 0.051801205 0.049764767
000070 6b a9 2a 3d 88 5a 4a bd 80 f5 ce bc 13 1a 72 3d
       0.041665476 -0.049402744 -0.025263548 0.059106898

pool.weight f4 [1, 32]
000000 49 f9 aa 3d 90 13 cc bd ab 4e 9e 3d d4 0a e7 bb
       0.083483286 -0.09964669 0.077298485 -0.0070508514
000010 a8 0a 09 be fe ce ce bc e0 db e0 bd a8 7b 2d 3c
       -0.13382971 -0.025245186 -0.10979438 0.010588564
000020 13 75 a6 bd a0 25 27 be fa 6d 6f 3e 5d aa cc 3d
       -0.08127799 -0.16322947 0.23381796 0.09993432
000030 7a ca 85 3d 9c 73 d3 3d e5 02 03 be f9 77 76 bd
       0.0653276 0.10324785 -0.12794073 -0.06017301
000040 2b 86 31 be 24 2d fb bd 44 ee 10 3d 48 59 25 3e
       -0.17336337 -0.12264469 0.035383478 0.1614734
000050 37 f5 0c bd e5 fa e4 3d 55 fd 0e 3e ea 8a 14 be
       -0.034413543 0.11180667 0.13963826 -0.14506117
000060 c1 1f 2e bc a1 ba c5 bd 9c 81 cc 3d 3c 1c 68 3e
       -0.010627688 -0.09654737 0.099856585 0.2266702
000070 e9 21 af 3d b4 f3 03 be 78 97 20 bd 6a d4 0d 3e
       0.0855139 -0.12885934 -0.03920695 0.13850561

conv3.weight f4 [32, 32]
000000 35 2a 09 be 83 7b a6 3e ba 09 57 be 5f 9d 3c be
       -0.13395007 0.32516107 -0.20999804 -0.18419407
000010 55 0f 97 3e 96 ba 34 bd 20 c0 07 be 73 1e 94 ba
       0.29503885 -0.044123255 -0.13256884 -0.0011300578
000020 8f 02 fc bb 84 8d 9a be 13 b8 eb 3d af 97 e5 3d
       -0.0076907347 -0.30186093 0.11509719 0.11210572
000030 d7 ca 03 3d 15 ee 8c be 00 d1 9c bd 76 7b 21 3e
       0.032175865 -0.27525392 -0.07657051 0.15769753
000040 c6 53 01 be 94 47 8c 3e 32 47 82 bd 1f 07 24 bd
       -0.12629613 0.2739836 -0.06361236 -0.040045854
000050 e5 1f 5c 3e 60 7b 63 3c c3 eb 52 3e ac 09 7b be
       0.21496542 0.013884395 0.20597748 -0.24515408
000060 c7 cb 75 3e 76 8d af bd ad 70 6a bb 43 72 2d 3e
       0.24003516 -0.085719034 -0.0035772726 0.16938119
000070 12 cb db 3d 42 51 b0 bd e3 78 53 3e 81 f5 fa bc
       0.10732092 -0.08609249 0.20651583 -0.030634644
000080 33 38 e4 3d 31 92 a7 bd 58 d0 5a 3c 77 46 00 be
       0.11143532 -0.08182181 0.013355337 -0.1252688
000090 f0 bc 7c 3e e3 fd 7c 3e 2f 9f 8c 3d 78 8a 86 3e
       0.24681449 0.24706225 0.06866299 0.26277518
0000a0 9b 02 55 3e 4e f8 8e be 6d 66 1d be c4 04 44 3e
       0.20801775 -0.27923816 -0.15371104 0.19142443
0000b0 a6 ae 36 be e1 d7 b2 3d 33 f0 9c 3e 98 05 87 be
       -0.1784006 0.08732582 0.30652007 -0.26371455
0000c0 2e e4 e8 3c 6d bd 6e be ee 2e 1e 3d ff 58 6a bc
       0.028429117 -0.23314448 0.038618974 -0.014303445
0000d0 01 93 1b 3e 57 52 17 be f8 49 a5 be a9 cd 7c 3e
       0.15192796 -0.14777504 -0.32282996 0.24687828
0000e0 b3 3b c1 3e a3 ad 9a be cf 3b 2b be 05 e3 e4 bd
       0.3774086 -0.302106 -0.16722034 -0.11176113
0000f0 b2 f9 73 be 88 bc ac be e3 f4 84 3e d9 8f 5f 3e
       -0.2382572 -0.33737588 0.25968084 0.21832217
000100 56 0e 3d 3e d0 73 9c be 30 cf 9f bd b6 7f 3c 3e
       0.184625 -0.30557108 -0.0780319 0.18408093
000110 b2 75 14 3e d2 58 c5 bb 94 a8 02 bc 6d 26 0b 3e
       0.14498022 -0.006022551 -0.0079747625 0.13588877
000120 4f 79 81 3e 98 f5 9d 3e b5 8d 88 3e 0b 57 a3 3e
       0.25287864 0.30851436 0.26670614 0.31902346
000130 5c 8b 33 be 8a 79 9f 3e 07 64 00 bc 79 e5 0d be
       -0.1753363 0.31147414 -0.007836348 -0.13857068
000140 4e 36 90 3e 3a 4e 89 bd 1e 77 99 3c 07 cd 67 bd
       0.2816643 -0.06704374 0.018733557 -0.056592014
000150 38 fe 75 be 0b c7 60 be 8c 1b 7b 3e 98 50 a9 3e
       -0.24022758 -0.21950929 0.24522227 0.330693
000160 95 1b 11 bd 4e ff 2b be 5b 6f ac 3e ea 3e 10 3d
       -0.035426695 -0.1679661 0.33678707 0.03521625
000170 65 c8 f1 3d 44 7d 8f be 38 fd be 3d ea 21 b0 bb
       0.118058 -0.28025258 0.093256414 -0.0053751366
000180 7c ea 68 3e 57 bf 86 3e 95 b7 50 3e 01 94 62 3d
       0.22745699 0.26317856 0.20382531 0.05531693
000190 e9 2d eb 3d 13 65 35 3d 97 b1 a1 3e e0 5b 11 3e
       0.11483366 0.044285845 0.31580803 0.14195204
0001a0 be 28 d7 3c d1 c7 67 3d 7c 55 c0 bd c4 d1 6c 3e
       0.026264545 0.056587044 -0.09391305 0.23126894
0001b0 27 aa f7 bd fc 9a 82 3e cb 37 87 3e 0c da 59 be
       -0.12093001 0.2550887 0.26409754 -0.21274585
0001c0 0e 14 8d be 21 a0 9f 3c af d3 2a 3e 68 44 87 3e
       -0.27554363 0.019485535 0.16682313 0.26419377
0001d0 05 a9 6c be 46 3b d0 bd 95 e7 c1 3d 45 b4 0b be
       -0.23111351 -0.101675555 0.09467999 -0.13642986
0001e0 9c ab 61 be 02 da be 3d 27 0b 08 3e 6d 6b 00 bd
       -0.2203812 0.093189254 0.13285504 -0.03135245
0001f0 bc 74 1d 3e 1a f2 89 3d f6 2d 8e 3e 1f d0 98 3d
       0.15376562 0.0673563 0.2776944 0.07461571
000200 66 44 44 3d 11 1f 97 bd fb d4 05 be 54 2a b7 3d
       0.047916792 -0.07378972 -0.13069527 0.0894362
000210 df 8a a8 3e 55 ed 0c 3e 10 0e 47 be d0 85 2e 3e
       0.3291845 0.1376241 -0.19438958 0.17043233
000220 da 30 cf 3e eb db 0b bd 32 48 59 be f7 d6 bd 3d
       0.40466958 -0.034145277 -0.21218947 0.09269517
000230 6b 4a 73 3e 3e fb 1b 3e a7 7a f2 3c 47 a9 3b bd
       0.23758857 0.1523256 0.0295995 -0.045815732
000240 c8 27 e2 3d 00 52 91 be c3 17 39 3e b0 5c bc bd
       0.11042744 -0.28382874 0.1807547 -0.09197366
000250 ba 42 98 be 67 c7 08 3d 01 f4 cc 3d 92 a1 87 be
       -0.29738408 0.03339329 0.100074776 -0.26490456
000260 4a 19 48 3d 64 27 8e be f2 13 0d 3e 8c e6 ae bb
       0.048852243 -0.27764428 0.1377714 -0.005337542
000270 36 b1 55 3d e3 1f ee bd b8 ee 97 3e fe b8 9d be
       0.052170955 -0.11627176 0.29674315 -0.308052
000280 8a 83 f8 bd 64 b3 42 be fb 42 45 be fe ad 63 3e
       -0.12134464 -0.19013745 -0.19263832 0.22234342
000290 fb 86 38 3e 6a e4 45 3e 4b b9 32 3e b9 ee 50 be
       0.18020241 0.19325414 0.17453496 -0.20403565
0002a0 43 75 bb 3c a9 1f 9c be 01 5b 97 3e fe 0d f3 3c
       0.022883063 -0.30492905 0.29561618 0.029669758
0002b0 70 45 24 3d f1 7b ac 3d 7a 7e 02 3c 68 f9 6e be
       0.040105283 0.084220774 0.007964725 -0.23337328
0002c0 76 15 6a 3d 3e 3c 7b 3e 3f 2e 55 3e 23 ff 8c be
       0.057149373 0.245347 0.20818423 -0.27538404
0002d0 da 23 8d 3e 5b a9 a6 3d 70 9e 96 be 35 f6 a0 bd
       0.27566415 0.08137771 -0.29417753 -0.0785946
0002e0 a5 fc 0f be 6c eb da 3c f5 87 84 be 59 77 a3 bd
       -0.1406122 0.026723586 -0.25884977 -0.07981748
0002f0 96 5d 3d 3e f7 b8 57 bd 89 26 ce 3d b1 97 21 be
       0.18492731 -0.05266663 0.10065944 -0.15780522
000300 90 e0 81 3e 4e 24 56 3e ff 4f 51 bd 01 bc 83 3d
       0.2536664 0.20912287 -0.05110168 0.06432343
000310 4b 5a bc 3e 2a 65 96 be 24 48 ee 3d a4 9b 1e be
       0.36787638 -0.29374057 0.116348535 -0.1548906
000320 ba ec ec bd 66 d0 7a be 8f b4 4f 3d 0d 11 8d 3e
       -0.115685895 -0.2449356 0.050709303 0.2755207
000330 f9 26 2b bd 37 c2 2a 3e 9e ff bf bd d6 ed 81 be
       -0.041785214 0.1667565 -0.09374927 -0.25376767
000340 77 2b 65 be ed 3e c1 bc 65 c7 01 3e 24 f2 58 3e
       -0.22379862 -0.023589576 0.12673719 0.2118612
000350 f2 e6 72 be 46 14 bb 3d 4a b6 38 3e de 56 57 be
       -0.23720911 0.09134726 0.18038288 -0.21029231
000360 69 e6 ad be 1f 2b cc be 16 66 0e 3e 7c 76 5e be
       -0.33964851 -0.3987665 0.1390613 -0.21724886
000370 a7 8c 75 be 73 2d 80 3a 38 a9 1f 3e 18 9f 5f 3e
       -0.23979436 0.000977917 0.15591896 0.21838033
000380 55 ee 6d be 02 80 8c 3e 69 4b 3f 3e 0d 80 bb bd
       -0.23235448 0.27441412 0.1868111 -0.09155283
000390 df 69 51 be e7 54 22 be e1 3d 50 be 0c 24 72 be
       -0.20450543 -0.158527 -0.20336105 -0.23646563
0003a0 a1 49 d6 3d 18 14 5e 3e 0e 30 de 3d 40 21 3b 3e
       0.10463262 0.21687353 0.108490095 0.18274403
0003b0 b2 6c 32 be e8 3a 38 3e 79 7a 5e 3e 8b df 31 3e
       -0.17424276 0.17991221 0.21726407 0.17370431
0003c0 56 8b 8d 3e 0c a0 f5 bd 5b bf f0 3d 3d df d9 bd
       0.27645367 -0.11993417 0.11755248 -0.106382824
0003d0 71 f1 b6 bd c9 6a a7 3e 7e 96 cf bc 95 ad 78 3c
       -0.0893277 0.32698658 -0.025340315 0.015178104
0003e0 ee dd b3 bc 09 20 e3 bb c6 52 51 be d6 05 71 3e
       -0.02195641 -0.006931309 -0.20441732 0.23537382
0003f0 5d dc 9b 3e 53 d9 3e be 53 38 94 be 83 5d 3d bd
       0.3044156 -0.1863759 -0.28949222 -0.046231758

conv3.bias f4 [32]
000000 e8 3a d3 3a 5e b7 51 3c bc 2f dd 3c aa 1b 89 bc
       0.0016115578 0.012800066 0.0270003 -0.016736824
000010 8a 68 e9 bc 90 38 ac 39 89 aa 23 bd ed d4 7c bc
       -0.02849223 0.0003284854 -0.039957557 -0.015431625
000020 4a f0 54 3c e8 a3 6b bc 6a 5f 40 3c 67 29 e3 3c
       0.0129967425 -0.01438234 0.0117414985 0.027729703
000030 47 54 46 3c 9e c5 54 bc a3 02 9e 3c dc 42 ca bc
       0.012105054 -0.012986569 0.019288367 -0.024690084
000040 92 99 00 bc 4f 60 59 3c 12 07 a5 3c 30 ca 7e 3b
       -0.007849114 0.013267591 0.020144973 0.0038877837
000050 c8 e8 5a 3c 73 bf 99 bc e4 e6 dd 3b bd fe cc bb
       0.013361163 -0.018768048 0.006771909 -0.006255953
000060 db 59 12 bb 68 4e 06 3d ba c7 8e 3c 4a 91 a8 bc
       -0.002233139 0.032789618 0.017429221 -0.020577092
000070 3d 57 0e bd c8 fb 9f 3c 1d fd 37 3c 6e c3 c7 bc
       -0.034751166 0.019529238 0.0112297805 -0.02438518

conv4.weight f4 [32, 32]
000000 46 a6 ad 3e 86 63 78 3d 1a 70 b3 bd 03 f0 70 3d
       0.3391592 0.060641788 -0.08761616 0.058822643
000010 9c 72 25 be 44 1a f8 3d 02 36 24 3e 7a 8b b2 bd
       -0.16157001 0.12114385 0.16036227 -0.08718009
000020 66 fb ec bd 8c ed 32 3d 7c 4f 24 3e 8b fb 07 3d
       -0.11571388 0.043683574 0.16045946 0.033198874
000030 12 f2 8d be 6a 6f 27 be 31 cc 52 3c fe 96 1f 3e
       -0.27723747 -0.16351095 0.012866066 0.15584943
000040 b8 3c 06 3e c7 3d 4e 3e 96 45 80 3e 1c 1c 65 bd
       0.131091 0.20140754 0.2505309 -0.05593501
000050 d0 2c 1c be 47 f4 50 be d6 87 12 be 4c 27 95 3e
       -0.1525147 -0.20405684 -0.1430963 0.29131544
000060 4e 56 c7 3d 8f ea 07 3e c6 ce ec 3d 70 e8 7a be
       0.09733258 0.13273071 0.115628764 -0.2450273
000070 18 9c d6 bd 38 32 15 be af f4 89 be 46 67 36 3e
       -0.10478991 -0.14569938 -0.2694449 0.17812833
000080 65 5b 30 3e ed 4b e2 bb a2 44 53 be c8 68 a8 3d
       0.17222364 -0.0069060237 -0.2063165 0.082231104
000090 37 55 52 be b4 ec 8c be fa e0 cc 3d 59 05 56 3d
       -0.2054032 -0.2752434 0.100038484 0.052251194
0000a0 a3 59 e0 3d 48 0c 93 3e 61 ce 52 3e 74 df 6b bd
       0.10954597 0.28720307 0.2058654 -0.05758615
0000b0 1b 6d 3c 3e f7 9e 6e be 2d 2f 57 3e f9 83 84 be
       0.18400995 -0.23302828 0.2101409 -0.25881937
0000c0 0d e0 d5 bd bb 81 57 3e 20 76 51 bd 09 9a 57 be
       -0.10443125 0.21045582 -0.051138043 -0.21054853
0000d0 2c 72 a7 3d f9 4d 51 3e 2c af 9f 3d 54 10 40 3e
       0.081760734 0.204399 0.07797083 0.18756229
0000e0 82 90 bd bd d9 a4 00 3e f3 65 23 be 00 5e fd bc
       -0.09256078 0.12562884 -0.1595686 -0.030928612
0000f0 72 b6 77 3b ca 47 3b be 66 e4 bd 3c 38 fb 17 be
       0.0037797955 -0.18289104 0.023180198 -0.14841926
000100 b4 66 3b be c7 6f 9d be 2f e0 88 3d 48 a6 0f 3e
       -0.18300897 -0.30749342 0.066833846 0.14028275
000110 9e 5f a2 3e 97 0c 88 3e eb 51 7e be cc 01 31 3e
       0.31713575 0.26572105 -0.24835937 0.17285842
000120 53 be 79 3e e5 f8 f8 3d 53 0f 3b 3e 73 89 87 3e
       0.24389009 0.12156848 0.18267564 0.26472053
000130 3a 4d 61 3e 14 08 17 3d 77 02 69 be 65 25 d4 3c
       0.22002116 0.03687294 -0.22754847 0.025896737
000140 f0 99 7c be b3 57 99 3e 03 63 6e 3e 36 b8 9c bd
       -0.24668097 0.29949722 0.23279957 -0.07652323
000150 23 6f 85 3e 37 c7 c1 bd 41 9c a3 be 7a 47 0d 3e
       0.26061353 -0.09461825 -0.3195515 0.13796797
000160 0b 05 94 3e 22 22 8b 3e 8b da 49 3e 38 8f 2c 3e
       0.28910097 0.2717448 0.19712274 0.16851509
000170 dd 63 33 3e ed d6 0f 3e e6 59 83 be 50 03 b6 bd
       0.17518564 0.14046831 -0.25654525 -0.088873506
000180 5b 56 17 3d 4b 02 87 3e a3 85 48 bd e5 30 33 3e
       0.03694759 0.26368937 -0.04895557 0.1749912
000190 a0 df 91 be fc 1c 1a be 0e a3 c1 3d 3c 18 a2 3d
       -0.28490925 -0.15050119 0.09454928 0.079147786
0001a0 ef 46 cf 3c d0 eb 85 3c dd d8 27 3e 79 09 27 bd
       0.025302378 0.016347796 0.1639132 -0.04078052
0001b0 f6 a2 5b 3e 1a 76 aa 3e b4 19 47 bd 2e d1 69 be
       0.21448883 0.3329323 -0.048608497 -0.22833702
0001c0 d0 d8 80 3d c4 f6 26 3e 4b be 0b 3e ec 85 7d be
       0.06291354 0.16305071 0.1364681 -0.24758118
0001d0 66 10 59 bd f6 67 f8 bc 6c fe 31 3e 00 e6 81 bd
       -0.052994154 -0.03032301 0.1738221 -0.06342697
0001e0 9a 39 89 3e 26 64 98 bd ac 3d 4f 3e c1 02 9a be
       0.2680176 -0.07440977 0.2023837 -0.30080226
0001f0 0a 02 8a 3e 08 40 af 3d dc 69 3d be 6c 06 49 3e
       0.2695468 0.08557135 -0.18497413 0.19631356
000200 84 4a ae bd 5b 74 11 be a6 37 cb bd cc 0c ba 3e
       -0.085103065 -0.14204542 -0.099227235 0.36337888
000210 c2 8c 7f 3e 80 d5 b9 3d cf 36 90 bd 60 4d 1b be
       0.24956039 0.09073925 -0.07041704 -0.15166235
000220 c9 27 ad bd e6 d2 8e be 97 0d 8c be dd aa 0d bd
       -0.08454854 -0.27895278 -0.27354118 -0.034586776
000230 8e f9 7f 3e fb e5 57 3b 26 49 85 be 6d 83 e0 bd
       0.24997541 0.0032943476 -0.2603237 -0.109625675
000240 70 6c 4d 3e 48 64 30 3d a3 64 b8 3d 4a 0c 9c be
       0.20060897 0.043064386 0.0900357 -0.30478126
000250 fe ca 5b bd fd d3 92 3e 03 b6 11 bd b3 c8 02 be
       -0.053660385 0.2867736 -0.03557397 -0.12771873
000260 9d 6a 92 be b2 0b 17 3e 85 b4 2a 3d b7 8e b8 ba
       -0.28596964 0.14750555 0.041676063 -0.0014080618
000270 ac 63 7a 3e 86 9b 23 3e ee 68 3d 3e 00 cc 40 3e
       0.24452084 0.15977296 0.18497059 0.1882782
000280 f0 0d 58 3b a0 22 00 be 63 7c 01 be b8 1c 60 3d
       0.0032967292 -0.12513208 -0.12645106 0.05471489
000290 35 c9 75 be 88 69 e7 bd 23 dd 51 be ad d2 0f 3e
       -0.24002536 -0.11299425 -0.20494513 0.1404521
0002a0 a0 c6 11 3e d4 a6 22 be cb 5a e0 3d 27 7f 1a 3b
       0.14235926 -0.15883952 0.109548174 0.0023574324
0002b0 f7 88 54 3e 51 c4 4e 3e c5 f4 42 3e 11 e0 4b 3e
       0.20755373 0.20192076 0.19038685 0.19909693
0002c0 4e e3 9a 3c e8 a9 7a 3e b7 a2 8a be c3 1f 4e 3e
       0.018907215 0.24478877 -0.27077267 0.20129304
0002d0 bb 34 89 3e 1c ad 2c 3e 96 96 8a bd 11 d7 22 bd
       0.26798043 0.16862911 -0.06767003 -0.039755885
0002e0 a0 43 04 3e 04 87 a6 bc 16 e0 43 3e 18 92 02 3e
       0.12916422 -0.020328052 0.19128451 0.12751043
0002f0 3f fd 71 3d 92 ec c5 bd 79 39 88 be d5 f3 7a be
       0.059079405 -0.09664263 -0.26606348 -0.24507077
000300 1d 6c 82 be ef 89 8d be 98 85 17 be fc be 9d bd
       -0.2547311 -0.27644297 -0.14797056 -0.07702443
000310 1d 6d 1b 3e 04 97 c5 3d 4c cc cf 3d 62 c4 3c be
       0.15178342 0.096479446 0.101463884 -0.18434289
000320 29 fa 95 3e 57 2f 8b 3e 81 1c 98 3e 85 82 28 be
       0.2929242 0.27184555 0.29709247 -0.16456039
000330 db 6c df 3c ce 22 8a bc 14 db 11 be ba 0f 94 3d
       0.027273586 -0.0168623 -0.14243728 0.07229562
000340 9c 2a 38 bd 8a 51 9e be 9a f1 3c bd 44 50 81 3e
       -0.04496251 -0.30921584 -0.046128847 0.2525655
000350 0a 3d 47 3e 80 3e 54 3e 37 df df 3c ff 0e cf 3d
       0.19456878 0.20726967 0.027328117 0.10110282
000360 b8 8e 40 3d 2f 35 84 be 8d 6a 9f bb 4d 62 ad bc
       0.047011107 -0.25821826 -0.0048649968 -0.021165038
000370 82 ed 0f be 1e 21 a7 be 93 2a 21 3b 48 bf 7e be
       -0.14055446 -0.32642454 0.0024592027 -0.24877656
000380 0b e8 64 be 89 1a 3f 3e 2e 52 81 3d 27 ee 68 bd
       -0.22354142 0.18662466 0.06314503 -0.056867745
000390 57 21 1f be 7c e2 0a bd 4e 3c aa 3e 2c f3 a2 3e
       -0.15540062 -0.0339074 0.33249134 0.3182615
0003a0 cc de 43 be 3f 74 4e bd 76 1e 1f 3e 5b 00 84 3e
       -0.19127959 -0.05040383 0.15538964 0.2578152
0003b0 55 67 42 3e 94 f9 43 be 27 4d 1d be 88 f1 67 bd
       0.1898473 -0.19138175 -0.15361463 -0.056626827
0003c0 d3 86 37 3d 18 c2 95 be 5d 4e 9e 3d 25 9d 1a 3e
       0.044806313 -0.29249644 0.0772979 0.15099008
0003d0 f2 04 be 3d bb 13 2e bd 0e 26 f0 3d 55 96 ad 3d
       0.09278287 -0.042499285 0.11726008 0.08475939
0003e0 18 dc 0b 3e 65 ae c8 bd 4f 02 76 3e 24 e3 65 3d
       0.13658178 -0.09798888 0.24024318 0.05612482
0003f0 27 22 b0 be a5 b1 3a 3e 4e fe 9d be bb 18 1e 3e
       -0.34401056 0.18231829 -0.30858082 0.15439121

conv4.bias f4 [32]
000000 a8 0a 90 3c 47 36 79 bc 3f aa 88 3c b3 a7 f7 bc
       0.017583206 -0.015210695 0.016682742 -0.030231332
000010 39 28 0b 3d a8 25 0c bd 32 36 e5 3c 13 cf 1a 3c
       0.033973906 -0.0342156 0.027979944 0.009448784
000020 e9 c3 8a 3c dd c9 5b 3c 1c e6 1a bd 90 63 d9 bb
       0.01693912 0.013414827 -0.037817106 -0.006634183
000030 6e bf 8e bc 78 be 2a 3d 3c 13 b8 3c 59 29 f3 3c
       -0.017425265 0.04168555 0.02247011 0.029682802
000040 7b 41 ba bc c1 36 4a bc c3 82 58 3c c2 db 4d bc
       -0.022736302 -0.012342156 0.01321477 -0.012564601
000050 0e f0 20 3c 7e ee 2d 3c 74 27 12 bd f1 e4 5c 3c
       0.0098228585 0.010615943 -0.035682157 0.013482318
000060 61 29 33 bc 3a 2c 19 3d ef 2e 9f 3c 68 88 43 3c
       -0.0109351585 0.037395693 0.01943156 0.011934377
000070 c2 66 21 bd b9 e5 53 3d 32 e2 21 bd f3 8a c7 bc
       -0.039404638 0.051732752 -0.039522357 -0.024358248

conv5.weight f4 [32, 2]
000000 18 f1 e2 3c 8d be 1b be 55 fe 23 3e f0 d9 b4 3e
       0.027702853 -0.15209408 0.16014989 0.35322523
000010 38 69 2a 3d 80 dc 6a be 88 a6 81 3e d3 83 16 3e
       0.04160425 -0.22935677 0.25322366 0.14698724
000020 49 1e c6 bd 4b bd 90 bd 87 99 9d 3e 6a 5c 87 3e
       -0.09673745 -0.07067355 0.30781195 0.26437694
000030 bd 6d 24 be 2f b0 7a be 81 38 ac 3e 7b bf a6 be
       -0.16057487 -0.24481271 0.3363686 -0.32567963
000040 bc 11 fe 3c 91 5c 38 be 9e c0 ac 3d 7e 5b 87 be
       0.031014316 -0.18004061 0.08435176 -0.2643699
000050 23 9c 80 3e e4 8b 89 3e 8f 19 77 be 1b 1a 18 3e
       0.25119123 0.2686454 -0.24130844 0.14853708
000060 57 ac 88 3d 4b a2 c9 3e c3 c5 b5 be c1 9b 5d be
       0.06673496 0.39381632 -0.35502443 -0.21641447
000070 9c 39 8b bd 47 51 8c be 37 bc 25 be 62 bc 15 be
       -0.067980975 -0.2740576 -0.1618508 -0.14622644
000080 b2 a5 9e 3d 78 3b 19 3e a3 1f ac bd 55 63 29 3e
       0.077464476 0.14964092 -0.08404472 0.16541798
000090 5f 8a 5d 3e d1 1e a4 be 78 6d 04 be 45 39 cf 3e
       0.21634816 -0.3205476 -0.12932384 0.4047338
0000a0 a7 2d a0 3e fb a0 ad be 33 27 54 3e bf e3 c2 be
       0.3128483 -0.3391188 0.20718078 -0.3806438
0000b0 f5 87 e7 3e 20 28 62 3e c4 06 ca 3d 97 87 c6 be
       0.45220914 0.22085619 0.09864572 -0.38775322
0000c0 90 de 81 be 5b ab be 3e cc 05 b4 be 80 e9 ab be
       -0.25365114 0.3724011 -0.35160673 -0.33576584
0000d0 42 f9 cf be ca 59 09 bd a0 4b ef 3d f5 f6 66 be
       -0.40619856 -0.033532895 0.11684346 -0.22555144
0000e0 09 91 aa 3e 10 1f 83 3e 5f f7 be be 1f 6a 02 be
       0.33313778 0.25609636 -0.37298104 -0.12735794
0000f0 69 5f 98 3e 71 05 8a 3e 79 8d 23 3d a7 54 cb 3d
       0.29760292 0.26957276 0.03992984 0.099282555

conv5.bias f4 [2]
000000 dd e6 da bc d7 9c 8e bc
       -0.026721412 -0.017408771
