GST-recon/checkpoints/best_ring_MinCutPool.pth (torch, 24091 bytes, 12 tensors)

conv1.weight f4 [2, 32]
000000 f3 9f 2b 3f d8 76 58 3f 9d 73 c3 be c8 d4 53 3f
       0.6704094 0.8455634 -0.38174143 0.82746553
000010 27 90 3c bf f7 0e 83 3e 81 84 60 bf e8 ca 64 3f
       -0.7365746 0.25597355 -0.87702185 0.8937211
000020 71 ff 64 3f 90 1c 8f bf cc 2c 47 3f 74 9b 6e 3e
       0.8945227 -1.1180592 0.7780273 0.23301488
000030 37 2a 88 3f 71 92 8f 3e 8d 09 a2 3e d0 39 25 bf
       1.0637883 0.28041413 0.31647912 -0.6454134
000040 fb a6 44 3f 80 ae 74 3e f0 a1 f4 be 9c 5d 21 3f
       0.7681729 0.23894691 -0.47779799 0.6303346
000050 d9 98 e1 be 7a 75 aa be 43 33 21 bf 2e ba 7e 3d
       -0.44061926 -0.33292753 -0.62968844 0.062189274
000060 ac 46 8e bf 33 b2 2d bf 42 a0 98 be 57 b8 d9 be
       -1.1115317 -0.67850035 -0.29809767 -0.42523453
000070 ab f2 12 bf 87 73 db be da 12 31 3f e5 d6 5b bf
       -0.5740153 -0.42861578 0.6916939 -0.8587478
000080 6d 94 35 3f b4 bb 0f bd 3e 6d 3a bf 25 33 ea 3e
       0.70929605 -0.035091117 -0.7282294 0.45742145
000090 39 67 f4 bc 56 e9 4e 3f 4a 71 79 3e f2 5f c9 be
       -0.029834377 0.8082479 0.24359623 -0.39331013
0000a0 80 ef 9a be 92 b8 95 bd d6 58 0f 3f 26 dd 6d 3f
       -0.3026085 -0.073105946 0.5599493 0.9291557
0000b0 c9 35 25 3f cc d0 3d bf 40 88 59 3f 7e f1 cd 3e
       0.64535195 -0.74146724 0.84973526 0.40223306
0000c0 5a 49 02 3f cc 91 4e bf 37 4a 53 bf f5 69 d3 be
       0.50893176 -0.8069122 -0.8253512 -0.41291776
0000d0 ae da 50 bf d2 37 70 3f 5c f8 5e 3e 1e fe ad 3f
       -0.8158368 0.93835175 0.21774429 1.3593175
0000e0 6b bb de 3e 5a a4 49 3e 96 9b 4c 3f b8 ca 82 bf
       0.43502364 0.19691601 0.79924905 -1.0218115
0000f0 7b f2 a5 3f 2e f6 54 bf 15 1c 18 be e4 20 86 be
       1.2964624 -0.8318814 -0.14854462 -0.2619697

conv1.bias f4 [32]
000000 6f 5c 69 bd 4e 7c 84 3d 6c a0 10 be 81 53 a9 bc
       -0.056972917 0.06469022 -0.14123696 -0.0206697
000010 43 60 54 be 6e 38 16 be 24 82 e4 3d 50 78 0a be
       -0.20739846 -0.14669964 0.11157635 -0.13522458
000020 81 29 3a bd 38 79 6e be 31 fd c2 3d 31 10 ab bc
       -0.045449737 -0.23288429 0.09520949 -0.020881744
000030 5a 3e aa 3e 0b 81 c0 3d 81 46 6e 3e e4 39 0c bd
       0.33250695 0.09399613 0.23269083 -0.034234896
000040 d7 18 c5 3c 1e f4 86 bd c2 32 92 bd 89 9e 2e 3d
       0.024059696 -0.065895304 -0.071385875 0.04263166
000050 14 2e c1 bc cb 59 9d 3d 85 83 90 bd 2c 6c 27 be
       -0.023581542 0.07683142 -0.07056335 -0.16349858
000060 02 d8 e1 3c 5b 2c ec bd c8 29 f8 bc d6 8a 85 be
       0.02756882 -0.11531898 -0.03029336 -0.26082486
000070 6a fa e1 bb d6 48 94 bd 18 e2 5c 3c 5b 21 ff bd
       -0.0068963068 -0.07240455 0.013481639 -0.12457534

conv2.weight f4 [32, 32]
000000 cc 16 92 3d 85 82 25 3e 14 48 b5 bd f0 d5 fd be
       0.071332544 0.1616307 -0.088516384 -0.49577284
000010 0d fa 33 3e 7d f9 0a bf 6f b7 62 3d 2e ae 06 3e
       0.17575856 -0.5428694 0.055350717 0.13152382
000020 f1 3b 46 3f 6d aa 34 be 1a 16 3d bf ea 70 0d bf
       0.77435213 -0.17643137 -0.7386185 -0.5525042
000030 0d 5b c4 be a2 aa 00 3f 30 37 32 3d ab bf ba be
       -0.38350716 0.50260365 0.043509662 -0.36474356
000040 93 59 db bd 2b 1b 2b bf 6e 83 b0 3d ce 51 d4 be
       -0.10710444 -0.6683833 0.08618818 -0.41468662
000050 8a 89 d0 3e ae fd 61 be 15 83 ab 3e 0b cd a6 bd
       0.40729934 -0.22069427 0.33498445 -0.081445776
000060 87 47 bd be 86 1d 12 3f e9 f6 ac be d2 8f f1 3e
       -0.36968634 0.570763 -0.33782127 0.4718004
000070 60 fc b2 3e f0 71 d9 3e 33 df e0 be 12 d3 87 be
       0.34958172 0.4246974 -0.43920287 -0.2652822
000080 5e e0 10 3f 29 b3 bf 3d b6 44 52 be 47 6f 42 bf
       0.5659236 0.09360344 -0.20534024 -0.75951046
000090 7f 6a e9 bd 1c 98 01 bd 07 0f 22 bf 87 80 f2 be
       -0.11397266 -0.031639203 -0.6330418 -0.47363684
0000a0 03 f8 8f 3e c7 14 ce be ae a0 cb be b6 00 46 be
       0.28118905 -0.40250227 -0.39771026 -0.19336209
0000b0 99 8e ff be 23 98 ce bc 4b ec 60 be cf db 4a be
       -0.4991348 -0.025219029 -0.21965139 -0.19810413
0000c0 7d 8e 86 be 3c b9 a4 bf 87 78 f3 be 04 9d 4d be
       -0.26280585 -1.2869029 -0.47552893 -0.20079428
0000d0 83 60 b7 3e 01 d8 06 bf dc d9 e6 3e ab aa cd be
       0.3581582 -0.52673346 0.4508809 -0.40169272
0000e0 ea 95 f8 3d 9e 8c 0e 3d 2b 27 10 bf d5 23 ff 39
       0.12137969 0.03480207 -0.56309766 0.00048664087
0000f0 6d 43 93 be d1 12 88 be 71 45 93 be 54 c6 19 bf
       -0.2876238 -0.26576856 -0.28763917 -0.6006825
000100 18 ac bc 3e 1a 75 54 be af bf 8d 3f bc da 64 3e
       0.36850047 -0.20747796 1.1074122 0.22349066
000110 8c d3 65 bf 3b 65 20 3f 3b f8 63 3d 73 e5 6c be
       -0.8977592 0.62654465 0.055656653 -0.23134403
000120 db a7 67 bf 50 a3 02 bf d6 c0 13 3f 96 ff ec 3e
       -0.904905 -0.51030445 0.5771612 0.46288747
000130 ab 61 8f 3e 7d 55 0d bf 21 23 03 3e 78 5a d4 3e
       0.28004202 -0.5520857 0.1280637 0.41475272
000140 8f f1 7c be 2c 2b d3 3e 7d e8 e8 3d 48 aa 09 3f
       -0.24701522 0.41243875 0.113724686 0.53775454
000150 65 70 6a 3d 57 1a 09 be 35 f9 b8 bc f6 40 0b bf
       0.057236094 -0.13388954 -0.022579769 -0.54396
000160 c6 d6 8a 3e 53 71 4f bf f5 52 1c 3f d4 7f 72 bf
       0.27116984 -0.81032294 0.6106408 -0.947263
000170 bd 2e d5 bd 67 44 62 be e5 d4 8a 3e df 13 0a be
       -0.10409305 -0.22096406 0.2711555 -0.13484143
000180 c0 56 c8 3e 72 92 b5 3e 04 1e 3a be f7 e2 2d bf
       0.39128685 0.3546329 -0.18175513 -0.67924446
000190 a6 cc b3 3e 67 3c 88 be 1d cd ec be a4 52 43 3e
       0.35117072 -0.26608583 -0.4625024 0.19074494
0001a0 40 07 f2 3e 90 af 4c be 96 c8 db be c3 d5 5e be
       0.47271156 -0.19988847 -0.42926472 -0.21761231
0001b0 86 e4 5e bd 24 2e 93 3e 44 fd ca be fa 25 19 bf
       -0.054417156 0.2874614 -0.3964635 -0.5982357
0001c0 7a 01 bf be c4 4a 02 bf 66 32 ba 3d 4e e7 ed be
       -0.37305814 -0.50895333 0.09091644 -0.46465534
0001d0 e9 76 be 3e 2a 2c 4d bd f0 f5 a9 3e f4 a3 b4 bd
       0.37200096 -0.050090946 0.33195448 -0.08820334
0001e0 c8 a0 d9 3c 4e 1a d7 3e 9d fa 0b bf 78 e7 a1 3e
       0.026565924 0.42012256 -0.5467928 0.3162191
0001f0 27 93 46 bc 87 15 12 3e 4f 9c 89 be 56 dd 8f be
       -0.012120045 0.14266025 -0.26877066 -0.28098553
000200 aa 1d 0b be a6 8d 6e 3d a6 ca 80 3d c7 90 af 3e
       -0.13585535 0.058240555 0.06288652 0.34290144
000210 47 2c 1a bd 01 0c 82 3c c7 3d 69 3f 9d de bf 3e
       -0.037639882 0.015874865 0.9110989 0.37474528
000220 73 9e 2c bf 83 d5 d0 3d 0f f1 a0 3e 99 1a ec 3d
       -0.67429274 0.10196974 0.31433913 0.115285106
000230 0a 99 97 3e 34 d7 a5 be a2 66 a5 3e 3f cc 18 3c
       0.29608947 -0.3239075 0.32304865 0.00932604
000240 53 e3 b4 3e eb 52 ba 3f 87 4f fe 3e 9b c3 6b 3e
       0.35329685 1.4556555 0.4967005 0.23023836
000250 fa 38 47 bf ba 9d 1c 3e 28 00 61 bf 5a 21 0e 3f
       -0.77821314 0.15294543 -0.87890863 0.5551964
000260 59 d5 d0 bd 72 10 79 be 76 e3 4b 3f af cd ca be
       -0.10196943 -0.2432268 0.7964395 -0.3961005
000270 30 ec 48 bd 49 34 c1 3e 2a 45 dc 3d bf f5 c5 3e
       -0.04905337 0.37735203 0.107553795 0.38664052
000280 58 52 fb be 41 e6 ba 3e d8 2d a9 be a0 08 17 bd
       -0.4908626 0.36503795 -0.33042789 -0.03687346
000290 7b b4 c9 3e c9 5e 81 bf f0 15 a0 be 58 ef c6 3e
       0.39395508 -1.0107051 -0.31266737 0.3885448
0002a0 6b b6 f6 3e 8c fa f1 3e c2 f4 e9 be 25 18 d6 be
       0.4818605 0.47261465 -0.45694548 -0.41815296
0002b0 1f 03 ef bd ba 5e 1c bd d3 4e 24 be ec 14 2f bf
       -0.11670517 -0.038176276 -0.16045694 -0.683913
0002c0 d9 3f d2 3e 63 d7 ba be 56 46 35 3a 32 47 c0 be
       0.41064337 -0.36492452 0.0006915083 -0.37554318
0002d0 3a 2d 9e 3d 69 74 8c be 72 5b 58 be 40 36 0f 3f
       0.0772347 -0.27432564 -0.21128634 0.55942154
0002e0 49 f1 e5 be 47 97 0f 3f f4 63 96 be df f9 a8 3e
       -0.44910648 0.56090206 -0.29373133 0.33003137
0002f0 bb 43 94 3e f0 3e 72 3e 2b 12 93 be 24 d3 6c be
       0.28957924 0.23656821 -0.287248 -0.23127419
000300 fb 3d 39 be 86 e7 da be bf 9b 4d 3d 13 d4 4f 3f
       -0.1809005 -0.42754763 0.05019736 0.81182975
000310 a6 65 b6 3e b5 ca 61 be 9a a3 b6 3f 07 89 31 3e
       0.35624427 -0.22049983 1.4268677 0.17337428
000320 5d 90 95 bd 0a f6 18 3f 72 3e 87 3c 93 24 d5 bd
       -0.07302926 0.59750426 0.016509268 -0.104073666
000330 c3 5e fc 3d bd 27 b1 be 90 5b 75 3f 19 fb 62 be
       0.12322762 -0.3460063 0.9584284 -0.22166099
000340 ef ab 2c 3f a8 f2 29 3f c3 80 5a 3f 08 25 0b bd
       0.6744985 0.6638589 0.85352725 -0.033970863
000350 37 48 0c bf 53 7a b2 3e 1d 4b b7 be e2 ed 2b 3e
       -0.5479769 0.3485895 -0.35799494 0.16789964
000360 ba 33 7a be 28 55 87 be 9b cd cf 3e a0 9c 6c be
       -0.24433795 -0.26432157 0.40586552 -0.23106623
000370 ec e4 19 3d 2b f1 fd 3d bb a4 2e bd 5b 74 43 3f
       0.037571833 0.12399515 -0.042637568 0.7634942
000380 74 9e 1c 3f e6 dc 14 3e e1 ff e8 3d 29 9b 35 bf
       0.6117928 0.14537391 0.1137693 -0.7093988
000390 f9 2d e5 be 29 70 86 be 5e a7 92 bf c2 dd f5 be
       -0.44761637 -0.26257446 -1.1457326 -0.4802075
0003a0 30 fa 0f bd 29 24 af be 64 c2 f6 bd 0b 22 11 3d
       -0.035150707 -0.34207276 -0.12048796 0.035432857
0003b0 f2 c5 35 be 84 60 a9 3b bc e6 6d bf 24 a9 2f be
       -0.17751291 0.0051689763 -0.929302 -0.17154366
0003c0 72 f9 40 bf 04 5b 6a bd 21 73 4c bf 39 9a 71 3d
       -0.75380623 -0.057215706 -0.7986317 0.05898497
0003d0 06 76 33 3e 8e 4a 7a be df d5 40 3f 69 b2 c2 be
       0.17525491 -0.24442503 0.7532634 -0.3802674
0003e0 ad bb a7 bd b2 ce 39 3e b0 bb e4 bd 7a cb 05 3e
       -0.08190093 0.18145254 -0.11168611 0.13065901
0003f0 73 60 af 3c 1a 7e 4f 3d 91 61 8b be 1a 23 e8 be
       0.021408295 0.05065737 -0.27222875 -0.4533928

conv2.bias f4 [32]
000000 9d 3c b7 3d ab 6a 9e be 9e b8 cc be cc 60 8a 3e
       0.08947108 -0.30940756 -0.39984602 0.27026975
000010 95 df 43 3e 83 e0 93 3e e3 18 db 3d 9d e6 94 bd
       0.19128259 0.28882226 0.10698106 -0.072705485
000020 14 bb 57 3e 81 ab e8 3c e5 c1 b1 3e 18 14 8b bc
       0.21067458 0.028402092 0.34718242 -0.016977355
000030 49 05 a2 bd 8f f3 3e 3d 19 a5 72 3e 56 e3 d4 bd
       -0.07911164 0.046618994 0.23695792 -0.103949234
000040 b4 9c 0e be 87 88 b7 bd 2c 58 88 3e 83 60 2c bd
       -0.13926965 -0.089615874 0.2662977 -0.04208423
000050 7e 9a a2 3d 84 f4 e0 bc 29 71 a0 3e 34 13 58 3d
       0.07939623 -0.027460344 0.31336334 0.05275269
000060 8d 6b 20 3e b0 af d7 bc 54 bc 6a be 4a 23 d0 3d
       0.15666027 -0.026328892 -0.22923404 0.10162981
000070 22 df 28 be 00 4c 30 bd 45 cc 8b 3e ef 2e 6f 3b
       -0.16491368 -0.04304123 0.27304283 0.003649648

pool.weight f4 [50, 32]
000000 16 17 44 3f d8 48 34 bf 7f 66 a4 3e d7 18 54 3f
       0.76597726 -0.7042365 0.32109448 0.828504
000010 33 d1 11 bf ea 89 91 3e 61 37 60 3f 09 7c a3 bf
       -0.5695984 0.28425533 0.875845 -1.2772228
000020 11 d6 dd be 33 e9 6f bf 71 ac ba 3e a4 bc 16 3f
       -0.43327382 -0.9371521 0.36459687 0.5888159
000030 3c 88 08 3f 2d e7 2f bf 99 44 89 bf 41 de 28 3f
       0.5333288 -0.6871212 -1.0724059 0.6596413
000040 39 d3 b2 bf cd ce e6 3f bc d5 81 be ce ef a2 3e
       -1.397071 1.803186 -0.2535838 0.3182358
000050 ea 9d 11 bf ac 84 1c 3f 3f fa 2f bf 50 b0 47 bf
       -0.5688158 0.6113994 -0.6874122 -0.78003407
000060 0b eb 78 3f 17 f4 36 be ec f3 f7 3e 89 67 70 be
       0.9723365 -0.1786655 0.48428285 -0.23476996
000070 3d e1 36 bf 60 fe 1b bf fd da 2c 3f 60 59 00 3f
       -0.71437436 -0.6093502 0.6752165 0.50136375
000080 48 fb 11 be a5 f9 aa bd ee 8f 93 bd 22 e6 05 be
       -0.14256012 -0.08348397 -0.07205187 -0.1307607
000090 b0 f3 6e 3e 2c 45 79 be 56 8f 8e 3d f5 38 93 3e
       0.23335147 -0.24342793 0.06960933 0.28754392
0000a0 0f 37 18 3e 8b 51 22 3e cc 50 81 be 09 0c a8 3d
       0.14864753 0.15851419 -0.25256956 0.082054205
0000b0 db 4c b7 bd dc 07 21 be ca 5d 87 3e a8 2a e1 bd
       -0.08950206 -0.15725654 0.26438743 -0.10994464
0000c0 d4 92 8a 3d f8 ff 06 3e 81 e9 bb bd 1d 89 4d be
       0.067662865 0.13183582 -0.09175397 -0.20071836
0000d0 a3 cb b4 3d f4 b8 57 bd 8f a9 8f 3d 87 7d dd bd
       0.08827903 -0.05266662 0.070147626 -0.10814958
0000e0 b9 b6 fd bd dd ea eb bc ec 50 43 be 02 56 ae bd
       -0.12388367 -0.028798515 -0.19073838 -0.085124984
0000f0 9c 8f 3a 3e b0 03 f8 3d 0d a2 5a be 87 08 11 3e
       0.18218845 0.12110078 -0.2135088 0.14163409
000100 00 62 3b 3e fb 37 0a 3e 76 77 26 be 81 64 9f bd
       0.18299103 0.13497917 -0.16256508 -0.077828415
000110 6f ac 39 3e 0d 9c 3e 3d ef f8 90 be c1 d4 22 3d
       0.18132184 0.04653554 -0.2831492 0.03975368
000120 c8 4d da 3d 0f 65 a2 bc 7e c2 9d 3d 38 67 2f 3e
       0.10659367 -0.01982358 0.07703112 0.17129219
000130 b1 6e 6f be 5a 0d 93 3e f6 d8 3e be 9c c0 d8 bd
       -0.23382069 0.28721124 -0.18637452 -0.10583612
000140 bc 69 88 be cf 59 da be 95 14 01 be 94 47 b7 bd
       -0.2664317 -0.42646644 -0.12605508 -0.08949199
000150 1b 7b 80 3d 29 89 c2 bd 6e 18 93 3e c3 92 80 bc
       0.062734805 -0.094988175 0.28729576 -0.015694981
000160 88 e2 2a 3e 91 d1 2c 3e 52 f9 a5 bc 34 e7 88 3d
       0.16687977 0.16876818 -0.020260487 0.066847235
000170 fb 68 9c bc 5c bc 44 3c 9c 93 82 be fc b2 83 be
       -0.019093027 0.012007799 -0.25503242 -0.25722492
000180 5d 20 dc 3d 70 1e a3 bd 3a 21 8d 3d 1f 9f 7d bd
       0.1074836 -0.0796479 0.06891103 -0.061919328
000190 37 89 4d bd 57 7b 31 3e b7 6c 25 be 17 7d 77 b9
       -0.050179686 0.17332207 -0.16154753 -0.00023602355
0001a0 74 70 dd 3d 31 09 85 be f0 89 96 bd f9 b3 63 bd
       0.10812464 -0.25983575 -0.07350528 -0.055591557
0001b0 f5 db a0 bd f0 25 89 bc 9b c0 f4 bd 60 6a fa bc
       -0.078544535 -0.016741723 -0.11950799 -0.030568302
0001c0 0c a4 50 be a8 4c a4 be 63 83 07 be 19 03 61 3e
       -0.20375079 -0.32089734 -0.13233714 0.21973838
0001d0 ca ec b5 bd 69 b0 18 be 3a 85 cd 3d 75 29 ed bd
       -0.088830546 -0.14911045 0.100351766 -0.11580173
0001e0 4a b6 90 3e d0 5a af 3d d5 a7 36 3e 7f eb 43 be
       0.28264076 0.08562243 0.1783746 -0.19132803
0001f0 a1 b7 8a 3c 12 9f 09 3d f7 70 85 bd f2 16 e5 3d
       0.016933264 0.033598967 -0.06515687 0.11186017
000200 8f a2 5c 3e 7f ff 66 bd d1 09 3b 3e bf 01 77 bd
       0.21546386 -0.056396004 0.18265463 -0.0603044
000210 8b 8c 81 be cf 30 07 3e e3 9c 41 3c 5b 4c 7f be
       -0.25302538 0.13202213 0.01181719 -0.24931471
000220 ea 80 ac 3c 6d 15 8d be 00 17 7a 3e 33 26 8f 3e
       0.021057565 -0.2755541 0.24422836 0.2795883
000230 01 81 dd 3d 84 9b c0 bd 61 d0 a7 bc 1e b4 88 3d
       0.10815621 -0.09404662 -0.020485105 0.066749796
000240 87 38 91 bd 8a 22 07 3d 71 2e 87 3d b8 17 6e 3b
       -0.0709086 0.032991923 0.06600655 0.0036330055
000250 e2 9b ce bd 4f 44 5b 3d 89 27 6a 3c ed 19 73 3d
       -0.10088326 0.05353194 0.0142916525 0.059350897
000260 28 49 55 3d ee 17 7e bd 14 bb 05 3e 74 81 12 be
       0.05207172 -0.06203454 0.13059646 -0.14307195
000270 1b 1a 83 3c 5a 37 bf bd 35 d4 c0 bd 69 f6 64 bd
       0.016003659 -0.09336729 -0.09415475 -0.055899058
000280 07 72 70 be dd 55 1c 3e 2a 0b 4a be ac 6b 0b be
       -0.23480998 0.15267129 -0.19730821 -0.13615292
000290 06 11 03 3e bb 4c 3d be f0 9a 25 3e 4d 1c c0 3e
       0.12799463 -0.18486302 0.16172385 0.37521592
0002a0 f8 3f f5 3d 47 63 ab 3e 4e c9 16 be 39 9c ad be
       0.11975092 0.3347418 -0.14725229 -0.3390825
0002b0 2f b6 94 bd 8d 14 b5 3e 74 fc a8 3d 9e e6 c8 be
       -0.07261311 0.35367242 0.082512766 -0.39238447
0002c0 ee 91 b5 3e 20 60 fc 3b 32 fe 87 3d cc 88 31 bd
       0.35462898 0.0077018887 0.06640281 -0.04334335
0002d0 25 d5 af 3d 6c 9b 10 be 76 99 43 bd 17 6a b1 3e
       0.08585576 -0.14121789 -0.047753774 0.34651253
0002e0 12 81 a3 be 20 61 87 3e 88 12 e2 be d4 84 b4 3e
       -0.3193441 0.26441288 -0.44154763 0.3525759
0002f0 47 50 b8 3e f2 45 d1 3e 61 24 cb bd 49 ee 37 3e
       0.35998747 0.40873677 -0.09919048 0.17961992
000300 7e 47 bf bc 7a 0f f3 bd f2 6d a9 3d 66 3c 43 bd
       -0.02334952 -0.11868186 0.082729235 -0.047665022
000310 20 94 80 be c2 ea 55 3e 6c 88 20 3e 35 17 cb be
       -0.2511301 0.20890334 0.15677041 -0.39666143
000320 71 6c be bc b4 fe f5 bd c5 d7 8d 3e 09 fd 81 3e
       -0.023245068 -0.120114714 0.27703682 0.25388363
000330 77 fd 74 3e c0 65 09 be 43 43 b3 bc f5 62 7a 3e
       0.23924814 -0.13417721 -0.021882659 0.24451812
000340 bc 40 a3 be 07 83 61 3d 9e 6b d2 3c e6 34 42 3e
       -0.31885326 0.055056598 0.025686081 0.18965492
000350 7e de 27 be aa 81 93 3d 7a bb 7b bd 3f 2c 66 3a
       -0.16393468 0.07202466 -0.06145809 0.0008780397
000360 85 ed 2d 3e af 93 e1 3c 4c 29 85 3e 6a a9 5d be
       0.16985138 0.027536241 0.2600807 -0.21646658
000370 a3 17 09 be 55 7a 5a be 7a 6a 10 3e 03 9d 47 3e
       -0.13387923 -0.21335728 0.14103118 0.19493489
000380 d2 b9 06 3f dc 10 08 bf 22 72 ec 3e b8 9e 48 bf
       0.5262729 -0.53150725 0.46180826 -0.78367186
000390 c5 ea 9e be b3 63 09 3f 1f 1e b3 bf 69 6f db be
       -0.3103849 0.53667754 -1.3993567 -0.42858437
0003a0 7b e6 93 bf d5 9b ec be e5 56 f7 3e 8b 9a c1 3e
       -1.1554712 -0.4621264 0.48308483 0.3781322
0003b0 f2 42 d6 3d fc 2c 5b bf 1b 60 d4 be a1 de ad 3f
       0.104619876 -0.85615516 -0.41479573 1.3583566
0003c0 03 cf 10 bf 0f cd 8d bf c2 36 62 bf b6 06 3f 3f
       -0.56565875 -1.1078204 -0.88364804 0.74619615
0003d0 e2 e5 68 be 15 00 a1 be 0f 28 93 3e 5a 28 e6 be
       -0.22743943 -0.31445375 0.287415 -0.4495266
0003e0 a7 de f6 3e a6 39 6d bf e8 c7 bc 3f 2d 70 29 bf
       0.48216745 -0.9266609 1.4748507 -0.6618679
0003f0 2d 52 bb be 47 47 22 bf 96 c4 03 3f 79 09 57 bf
       -0.36586133 -0.6339001 0.5147184 -0.8399883

pool.bias f4 [50]
000000 ed cf 05 be 52 1f c2 3d 83 ae ac 3d d4 a1 ab 3d
       -0.13067599 0.0947863 0.08431723 0.08380476
000010 b4 cc 97 bc 13 c8 77 3d ad 82 5a 3e e9 90 0b 3c
       -0.018530227 0.06049354 0.21338911 0.008518436
000020 dc a1 13 3e a6 d6 14 be f2 ec dd bd c0 4f b1 bd
       0.14417213 -0.14535007 -0.10836209 -0.08657789
000030 54 22 ce 3d 8a a1 4e bd ad e5 a6 be 69 07 8b bd
       0.10065141 -0.050447024 -0.32597104 -0.06788523
000040 f7 d7 10 be 00 de 00 be 33 fe 8f 3d 49 39 f0 bd
       -0.14144884 -0.12584686 0.070309065 -0.11729676
000050 44 0b 1c bd e2 eb f9 bd 19 fd 5f bd a9 54 03 be
       -0.03809668 -0.12203194 -0.054684732 -0.12825264
000060 fc df b0 3d 6b 9b 69 3e 37 3b 78 3e 0c 48 08 3c
       0.08636472 0.22813194 0.24241339 0.008317959
000070 68 fb 11 bc 78 9d 8a 3d 28 07 59 3e 37 6a 24 ba
       -0.008910038 0.06768316 0.21194136 -0.0006271931
000080 84 e4 d3 3d 4d 2b 67 3e 92 47 aa 3d bb 5f 9e 3c
       0.1034632 0.22575112 0.08314432 0.019332757
000090 58 05 15 bd 08 ba 61 bd 47 1d 2e bd f4 cb 62 be
       -0.03638205 -0.055109054 -0.04250839 -0.22148114
0000a0 35 9e c3 3a 19 61 69 bd fb f3 04 3c b4 14 d1 bc
       0.0014924469 -0.056977365 0.00811481 -0.025522567
0000b0 38 c5 06 be 7f c4 a1 3d 80 27 9f bb b7 a1 31 be
       -0.1316117 0.07898807 -0.0048570037 -0.17346846
0000c0 cd e9 b5 3d df 7b b6 3e
       0.088824846 0.3564138

conv3.weight f4 [32, 32]
000000 af e1 3f 3e bd 51 2f 3e d3 e0 d8 bd 50 72 21 be
       0.18738435 0.17121024 -0.10589757 -0.15766263
000010 c5 15 51 bd e5 83 86 3d 0b 35 3a 3e b4 de 43 3e
       -0.05104615 0.06568126 0.18184297 0.19127923
000020 18 24 d0 be 60 af f2 3d 7c 96 c8 be d5 86 c2 3e
       -0.40652537 0.118498564 -0.3917731 0.37993494
000030 a5 60 38 3e f8 5f 2a be ca 75 91 3e 9b 86 58 3e
       0.18005617 -0.16638172 0.28410178 0.21145098
000040 d0 f0 50 3e 1b b2 a3 be 12 1c a7 3e 72 04 98 bd
       0.20404363 -0.3197182 0.32638603 -0.07422723
000050 0e b9 22 3e 3b 6a 1f bc 88 c8 35 3e e4 55 90 3e
       0.15890905 -0.009729917 0.17752278 0.2819053
000060 1e 5a c5 be a2 91 82 3e 45 05 4e bd 75 cf 56 be
       -0.38545316 0.25501734 -0.050297994 -0.20977576
000070 09 99 52 be 8d 98 32 bd 5a e1 6f be 98 9a 5a 3e
       -0.20566191 -0.043602515 -0.23425809 0.21348035
000080 c7 74 7a bd 5e 1f 0f 3e ee 13 cf be ba e7 2a be
       -0.061146524 0.1397681 -0.40444893 -0.16689959
000090 95 ef b9 3d 63 c2 fd 3c c2 a8 09 bd 0f 96 90 3d
       0.090789 0.03097648 -0.033608206 0.070598714
0000a0 14 67 42 be dc 7f 8c be 65 46 14 bd 65 c4 3c be
       -0.18984634 -0.274413 -0.036199946 -0.18434294
0000b0 00 dc da 3e 4a 48 70 be c8 63 bc 3e 17 7b 23 3e
       0.42745972 -0.23465076 0.36794877 0.15964924
0000c0 26 d3 da be d1 04 77 3e 1f 16 69 3d 62 66 e7 bd
       -0.42739218 0.24122931 0.056905862 -0.11298825
0000d0 a1 70 d3 be 3f c6 0f be cc 47 9f be 53 17 b1 be
       -0.41296867 -0.14040469 -0.31109464 -0.34588107
0000e0 6c 8c b7 3d d7 60 c3 3d 5f 6c ab 3e 26 92 91 3e
       0.0896233 0.09539955 0.33481118 0.28431815
0000f0 d0 a1 f8 3e 54 7d f4 3c 68 0c a8 3e 0b 58 b7 3e
       0.48560953 0.029844917 0.32821965 0.3580936
000100 5a c2 f9 3d 87 a3 49 be d4 51 86 bd 6e cc b3 be
       0.12195273 -0.19691287 -0.06558576 -0.35116905
000110 78 c9 32 3d 27 61 85 be cd 0e 70 be 1d e2 aa 3e
       0.043649167 -0.26050684 -0.23443146 0.33375636
000120 fa cf 19 bd 8e 58 96 be 10 9d 97 be c1 08 21 3e
       -0.037551858 -0.29364437 -0.29612017 0.15725996
000130 02 fc 18 be e5 81 36 be a6 aa 0d 3e a4 ed b4 bd
       -0.14939883 -0.17822988 0.13834628 -0.08834389
000140 f5 8b 0f be f5 b8 4b 3e c0 1d d2 3d 9c ea 30 be
       -0.14018233 0.19894774 0.102595806 -0.17276996
000150 af 00 2a 3e bf 0c 87 3e 2b 45 89 be bc 67 b0 3e
       0.16601823 0.26376912 -0.26810583 0.34454143
000160 6e 7b 85 3b 52 80 99 bd 2d b0 8d 3e ad d2 80 be
       0.004073552 -0.07495178 0.27673474 -0.25160733
000170 43 9d 17 3e 04 15 0f be 0b 5e b9 be 76 6d 41 3e
       0.14806084 -0.1397286 -0.36204562 0.18889412
000180 a9 b4 3f be 83 e9 3b be 07 16 c5 3e bd e7 b7 be
       -0.1872126 -0.18350796 0.38493368 -0.3591899
000190 3b 5d e5 be 80 0a f0 3d 62 e6 46 3e 8c 9f aa bc
       -0.44797692 0.11720753 0.19423822 -0.020828031
0001a0 ff 25 5b 3e 9a d9 5d 3e df ea cc 3d 12 9f 38 be
       0.21401213 0.2166504 0.100057356 -0.1802943
0001b0 5e 85 85 3e 8b 08 5b 3e 61 4e 2d bd 31 9e 40 3e
       0.26078314 0.21389978 -0.042311076 0.18810345
0001c0 de e4 8d be c4 ff b1 3d e4 00 7f be 29 fa ca 3c
       -0.27713674 0.086913615 -0.24902683 0.024777489
0001d0 ec f6 7e 3e f0 80 0a 3e ff 44 a4 3e 80 25 2f be
       0.2489888 0.13525748 0.3208389 -0.17104149
0001e0 4e 89 31 be e2 5a 9b bc dd 60 b9 bd 88 09 ad be
       -0.17337534 -0.018964235 -0.09051678 -0.33796334
0001f0 4a 96 4e 3e 93 50 30 3e 1d 5c 7b be c6 2a 84 3d
       0.20174518 0.17218237 -0.24546857 0.06453471
000200 18 59 5e 3e 7b e3 62 be 35 05 39 3e 64 70 14 be
       0.21713674 -0.2215709 0.18068393 -0.14495999
000210 91 0e 8f 3d d5 c2 12 3f 57 0d f2 3e db 2c 82 be
       0.069852 0.5732854 0.47275802 -0.25424847
000220 60 51 a8 3d 4a 7a 2c 3e b4 17 6e 3e fc a8 cc bd
       0.08218646 0.16843525 0.2325123 -0.09993169
000230 f8 7f a0 bd 2d ac 2d 3e 93 ac 99 bd fc 38 9b be
       -0.07836908 0.16960211 -0.07503619 -0.30316913
000240 07 1d 84 be 3e 57 10 be 5b 28 35 be a4 13 9d 3e
       -0.25803396 -0.1409578 -0.17691176 0.30679047
000250 8c 9a fd 3a 43 23 d3 be c2 1f 1f be 43 86 c0 bd
       0.0019348427 -0.4123784 -0.15539458 -0.094006084
000260 81 5d 2b 3d 57 44 d2 bc d5 e4 fc bd da 75 c7 bc
       0.04183722 -0.025667353 -0.12348334 -0.024348188
000270 08 88 97 3a 4e b3 89 3b 0d b0 71 3e 96 cf 08 3e
       0.0011560926 0.004202283 0.23602314 0.13360438
000280 2e ea 77 bd 23 7d 40 3c 76 8c f5 bd 4e 0a 84 bd
       -0.060526066 0.011748585 -0.119896814 -0.06447278
000290 07 80 2b be 27 86 bd 3c 45 f9 b5 be 37 63 cf 3d
       -0.16748057 0.023135258 -0.3554174 0.101263456
0002a0 c1 99 93 be 26 6a b8 3d 6f f7 11 3e 3a d0 b3 3e
       -0.28828242 0.09004621 0.14254545 0.35119802
0002b0 9e ad d0 bd ea b8 99 3d 55 0e 09 be db 14 32 be
       -0.10189365 0.07505973 -0.13384373 -0.17390768
0002c0 84 e3 24 be 70 29 0c 3e cc 7a 56 be 64 89 65 3e
       -0.16102415 0.13687682 -0.20945281 0.22415692
0002d0 41 33 59 3e 6b f5 35 3e b7 d0 72 3e 2c 90 b5 3e
       0.21210958 0.17769401 0.23712431 0.35461557
0002e0 23 5d c3 3d ea fc 83 bd 3e 01 14 be 93 8f 59 be
       0.09539249 -0.06444724 -0.14453599 -0.21246175
0002f0 14 bb b6 bd 3c 5a 4a 3e d5 78 04 3d 5f 7e 3f 3e
       -0.08922401 0.19760984 0.032341797 0.1870055
000300 8f de a3 bd 87 d5 09 bf c6 4b 04 3e 69 d8 05 3e
       -0.08001434 -0.5384144 0.1291953 0.13070835
000310 b2 0e 22 bf 70 1b 9f bd 47 95 24 3e 69 a9 dc 3d
       -0.63303673 -0.07768905 0.1607257 0.107745
000320 76 13 e6 bd 20 d1 d5 bc d5 d4 5c be 54 31 56 3e
       -0.11234181 -0.026100695 -0.21565564 0.20917255
000330 78 c7 fc be c9 68 c0 3e 24 63 49 3e d5 45 74 3b
       -0.49370933 0.37579945 0.19666725 0.0037273068
000340 52 a8 c3 bd 0e cb 7d 3e ae 70 8c 3d 3e 5f e2 3e
       -0.09553589 0.2478449 0.068574294 0.4421329
000350 a5 db ac 3e bb 8c 66 be 59 49 b1 3e 78 c3 35 3e
       0.33761325 -0.22514622 0.34626272 0.17750347
000360 06 bd 14 be b5 55 1a 3e 19 bc 92 be f1 35 82 be
       -0.14525232 0.15071757 -0.28659132 -0.2543178
000370 68 01 03 be d4 93 ee 3d 79 d1 f9 bc fa ef cb be
       -0.12793505 0.1164929 -0.030495392 -0.39831525
000380 18 5a 52 3e f4 7d 9b 3d 46 73 29 3e 95 45 51 be
       0.2054218 0.07592383 0.1654788 -0.204367
000390 3d 78 cc bd 3b 07 0e be 86 82 8c be 49 56 3a be
       -0.09983871 -0.13869946 -0.2744333 -0.18196978
0003a0 21 9b b0 3e ce 99 b6 bd d5 95 c6 3e 88 7a a3 be
       0.34493354 -0.08916055 0.38786188 -0.3192942
0003b0 ef a2 42 be 6a b2 5f 3e 7a 2e 8a 3c 94 fc 81 bd
       -0.19007467 0.21845403 0.016867865 -0.063470036
0003c0 9b a7 35 3e 04 92 bb 3e db f5 49 3e 01 63 85 3e
       0.17739718 0.3663484 0.19722693 0.26052096
0003d0 1e 0e dc 3c 65 3f 85 3c c5 94 3c be 50 f6 f8 3d
       0.0268622 0.01626558 -0.18416126 0.121563554
0003e0 fd 82 ab 3e 13 50 8e bd 4b 67 87 be a4 da 39 be
       0.33498374 -0.06948867 -0.26445994 -0.18149811
0003f0 ad 6b a4 be b7 02 b1 3d c1 4c c0 3d 2b cc bd be
       -0.321134 0.08643096 0.0938964 -0.3706983

conv3.bias f4 [32]
000000 7e 4e 86 3b a7 de 30 3d fe 85 b0 bc e0 0d 1c 3e
       0.0040987125 0.043181088 -0.021548267 0.15239668
000010 fd f1 b5 3b ba 51 8e 3c fa ce 4e 3d 4c fc cd bc
       0.005552529 0.017372955 0.050490357 -0.025144719
000020 fb 3c 9b ba 52 6f 07 3d 5e a1 0f bc f6 51 15 3c
       -0.0011843735 0.033065148 -0.0087665 0.009113779
000030 ac 23 85 be 8b 7c 16 3d bf ed 75 bd b2 0e 21 bc
       -0.26003778 0.036739867 -0.060041185 -0.009830164
000040 9d 92 9f 3d ea ec 92 ba 8c 3b d6 bc bb c9 1a bb
       0.07791636 -0.0011209522 -0.026151441 -0.0023618776
000050 d0 c7 e8 3c 5e 31 02 3e 25 36 b8 bc 76 f5 3c bd
       0.02841559 0.12714145 -0.022486756 -0.046132527
000060 1e 7e cc bc b1 d6 b2 bd 58 fd 9e 3b cb a2 0a bc
       -0.024962481 -0.087323554 0.0048519783 -0.008461664
000070 d5 81 64 bd ab ea 19 3d 28 ca 24 bd 6d e9 ba bc
       -0.05578788 0.037577312 -0.040231854 -0.022816384

conv4.weight f4 [32, 32]
000000 53 36 d5 3a 34 bc 03 3e cc 2b 97 3d 82 d3 e9 3d
       0.00162668 0.12864763 0.073814005 0.11417295
000010 90 12 69 3e cb 60 8c be 14 25 59 3e 72 fc 98 be
       0.22760987 -0.27417597 0.2120555 -0.298801
000020 54 bd 35 be a3 23 9f 3e 39 55 81 bd df 9b 34 3e
       -0.17748004 0.31081876 -0.06315083 0.17637585
000030 a7 cd 4b be 65 3f 4d 3e 0a 9f 7b 3e ae f3 07 3e
       -0.19902669 0.20043714 0.24572387 0.1327655
000040 27 cc 98 3e 95 e2 4a be 7a 01 95 bd 11 cc 75 3c
       0.29843256 -0.19812997 -0.07275672 0.0150022665
000050 b4 61 ae 3e 59 37 09 bf ce ea 83 3e 1f 04 88 bd
       0.34058917 -0.5360008 0.2576508 -0.06641411
000060 8f e3 24 be 59 f9 5c 3e 23 b4 0d be 07 0d 8b be
       -0.16102432 0.21579494 -0.13838248 -0.27158377
000070 b8 63 e1 3d 68 6b a7 3d 26 e5 48 3e cf 9f 2e 3d
       0.11005348 0.08174783 0.19618663 0.042632874
000080 e1 4c 7a be 2a 0a d8 be 94 c9 80 3e cb 1b 66 be
       -0.2444339 -0.42195255 0.25153792 -0.2247154
000090 c7 7d e7 3d 84 63 65 3e 2e e4 28 3e 59 8c 83 be
       0.11303287 0.22401243 0.16493294 -0.25693014
0000a0 bd cc cf bd 92 f3 4c be 79 b2 8b 3e dd 68 ac be
       -0.101464726 -0.2001479 0.272846 -0.33673754
0000b0 fb 46 d6 be a4 5e ff be 8f ce 2b 3e c7 16 81 3e
       -0.4185103 -0.49876893 0.16778015 0.2521269
0000c0 bd f0 86 3e fb 7c 74 3e 6c 8a 06 bd 89 09 7e be
       0.26355544 0.23875801 -0.032846853 -0.24808325
0000d0 70 74 4c be 3b 6a 84 3d 0c f3 32 3e 20 d9 fd 3b
       -0.19966292 0.06465574 0.17475528 0.0077468306
0000e0 90 e2 37 be 1e 72 c0 3d 29 3d 69 be 7e f0 15 be
       -0.1795752 0.09396766 -0.22777237 -0.14642522
0000f0 0f 9f 0c be 5f 0f a4 3d 4a 9e 2d be 9d ba 76 3e
       -0.13732551 0.08010744 -0.16954914 0.24094625
000100 c1 a5 19 bd 8f 63 83 3e ec 5b 89 3e a8 90 87 3d
       -0.03751159 0.25661895 0.26827943 0.06619388
000110 4b 63 6f 3e 59 fb 1f 3e e6 57 b8 3e ce a2 97 bc
       0.23377721 0.15623225 0.3600456 -0.018510249
000120 88 49 14 3e 2a 2c d5 bd eb 26 47 be f8 cf d1 3d
       0.14481175 -0.10408814 -0.1944844 0.10244745
000130 c9 fa 8b 3d 59 05 93 bc 3f 89 80 bd fb 4f b0 3d
       0.06834943 -0.017946886 -0.062761776 0.08609005
000140 1c 26 16 3e 0a 0d a6 bd 94 c1 8c 3b f4 3c 00 3e
       0.14662975 -0.08107956 0.0042955372 0.12523252
000150 ef 2c 9d be e3 a9 d3 bc ed cb 05 be c7 6e 01 be
       -0.30698344 -0.025837844 -0.13066073 -0.12639914
000160 71 f7 77 3e b2 3d 96 3e 82 4b c7 3d c3 b6 93 3e
       0.24215485 0.29343945 0.09731199 0.28850374
000170 5c 6e ac be 60 83 3d 3d ea c6 8f bc 53 ed 42 be
       -0.33677948 0.046267867 -0.017550904 -0.19035845
000180 9d d1 95 3d a3 8e 28 bd 76 9b 13 be 04 8d 3d 3e
       0.07315371 -0.041151654 -0.14414772 0.18510824
000190 8e 5f 73 3d b6 7e 70 3e 29 2b 6e 3d b3 39 1c bd
       0.0594173 0.23485836 0.05814663 -0.038140964
0001a0 df 07 72 3d 1d 9d 71 3c ea d1 0f be d3 86 89 bd
       0.059089538 0.014746931 -0.1404492 -0.06715169
0001b0 93 4c 42 be ab 7f 42 be 4a a6 a6 be 24 bd 55 3e
       -0.18974523 -0.18994014 -0.32548743 0.20872933
0001c0 ac 4d 31 be c4 0e 7c 3d b9 6c 9d 3d eb 58 99 3e
       -0.17314786 0.06153752 0.07686753 0.29950652
0001d0 66 27 2f 3e 95 39 70 be c8 e9 ad 3e 37 7b 7d be
       0.17104873 -0.23459466 0.33967423 -0.24754034
0001e0 82 97 c7 bd 35 38 8d 3e a9 59 77 3e 17 0f ef bd
       -0.09745695 0.27581945 0.24155296 -0.116728
0001f0 e6 94 8c be 11 08 e1 3d e1 bf b2 3e 63 fa f7 bd
       -0.2745735 0.10987867 0.34912017 -0.12108304
000200 d0 da db bc a6 4c 87 be e0 6a 9f 3d 0e 85 d8 3d
       -0.026837736 -0.26425666 0.07784057 0.10572253
000210 7e 92 28 3e d1 ad 32 be 53 95 d1 be 09 69 43 be
       0.16462132 -0.17449118 -0.40934238 -0.19083036
000220 8a 95 71 be 95 8b 92 bd bd 83 5b 3e ab 06 8b be
       -0.23592201 -0.071555294 0.21436973 -0.27153525
000230 d1 48 4a be 7e fc 9c be 71 7e 04 be 33 6e 1b be
       -0.1975434 -0.30661386 -0.12938859 -0.15178756
000240 ff ff d3 bd 84 2b 17 be b8 75 2a 3e 60 6f 23 3e
       -0.10351562 -0.14762694 0.16646469 0.15960455
000250 25 a2 59 3e 98 11 93 3d 79 e3 c4 3c 06 0f c5 bd
       0.2125326 0.0718109 0.024034249 -0.09622006
000260 7d bf 3c 3e 17 da 25 be 21 b0 28 3e 2f ca 96 be
       0.18432422 -0.16196476 0.16473438 -0.2945113
000270 9e 61 36 be 62 7a b8 3d 8c 8c 13 be 8a 87 84 3d
       -0.17810676 0.09007718 -0.14409083 0.064711645
000280 7a 59 3f 3e f2 10 f9 3d 85 1f 0c 3e 65 bd 88 bd
       0.18686476 0.12161435 0.13683899 -0.06676749
000290 39 b9 06 be b3 b5 b5 bd 21 e0 95 bd c4 54 0b be
       -0.13156594 -0.08872547 -0.0731814 -0.13606554
0002a0 ce 87 29 3c 52 ea 89 3e 77 ba 4c be 9c 94 c2 3d
       0.01034732 0.26936585 -0.19993006 0.09501001
0002b0 05 b4 03 3e 78 9b 23 3e 16 e6 9a 3d 84 92 95 bd
       0.12861641 0.15977275 0.07563417 -0.07303336
0002c0 51 da c3 3d 9b cb 77 bd 5a 12 54 be 06 fd 83 3e
       0.09563125 -0.060496908 -0.20710126 0.2577898
0002d0 5e 78 a9 3e aa aa 8e be 1c 70 83 3e d0 f8 21 3d
       0.33099645 -0.2786458 0.2567147 0.039543927
0002e0 67 47 9f 3d f4 ea b1 3e 86 3c ff 3d e4 22 df bd
       0.07777291 0.34749568 0.12462716 -0.10895327
0002f0 7f 7a 3e 3e 19 f5 54 bd a2 f1 88 bd c1 74 da bd
       0.18601416 -0.051991556 -0.06686713 -0.106668
000300 72 e2 23 3e ac 94 be 3d 29 01 52 be 3c 5e ee 3d
       0.16004351 0.09305701 -0.20508255 0.116390675
000310 03 25 87 3c 9f be 05 be bf 1e 13 3e 6c 0e 70 be
       0.01649714 -0.13060997 0.14367197 -0.23443002
000320 bd 89 44 3d 6b b4 8c bc 8e e1 0b be 93 70 92 3e
       0.04798292 -0.017175874 -0.13660261 0.28601512
000330 3e c5 dc 3d b2 4b eb 3d 06 76 6b be b0 e2 3a 3d
       0.107798085 0.11489047 -0.22994241 0.045626342
000340 a9 50 05 3e 1a 94 69 3e 20 32 c4 bd 1c 64 fa bc
       0.1301905 0.22810403 -0.09579873 -0.030565314
000350 14 78 7f be 07 dc 4d 3e d2 3f 0f 3e 61 0d de 3d
       -0.2494815 0.20103465 0.1398919 0.108423956
000360 2e b6 17 3e b1 77 5f 3e b0 2d d2 3e be e2 53 3d
       0.1481559 0.21823002 0.41050482 0.05172991
000370 ee 89 80 3d a3 e6 16 3e b2 8b 36 be 7d 2d 97 3d
       0.06276308 0.14736418 -0.17826727 0.07381723
000380 e1 42 6c 3e 43 4f 4f be a2 a9 d9 3d cf f0 88 be
       0.23072387 -0.2024508 0.10628058 -0.26746222
000390 61 06 4d be f1 b7 96 3e 61 b6 63 3e 29 b8 a4 bd
       -0.20021965 0.2943721 0.22237541 -0.08042938
0003a0 7e 67 62 3d e9 aa 00 be 2a 3d f7 3d ca 79 36 bd
       0.05527448 -0.12565197 0.12072213 -0.04454974
0003b0 bf e5 68 be d2 21 ed bd e2 a6 92 3e fe e8 8b 3d
       -0.22743891 -0.11578716 0.28642946 0.06831549
0003c0 5d bd ad be 80 9f e1 bd d5 9a 99 be e0 a0 a9 3c
       -0.33933535 -0.1101675 -0.3000094 0.020706594
0003d0 dd fd 4d 3e 00 80 04 3e 2b 89 20 3d 63 72 70 be
       0.20116372 0.12939453 0.039193314 -0.23481135
0003e0 5c 52 4b bd fd cc 8d 3d 36 9e 9d be 2e 43 eb bd
       -0.04963909 0.06923864 -0.30784768 -0.11487423
0003f0 7d 3a 7e 3e b3 58 20 3d 46 b5 94 3d 42 57 86 be
       0.24826999 0.03914709 0.07261138 -0.26238447

conv4.bias f4 [32]
000000 87 ef ec 3b 66 5e 0a be f3 3a dd 3c 09 74 5d be
       0.0072307023 -0.13512573 0.027005648 -0.21626295
000010 60 47 78 be b3 13 d6 3e bb e5 ca 3c 53 08 8b 3c
       -0.24245977 0.41811904 0.024767747 0.016971743
000020 6d 36 77 3d 57 3d 28 3d 1d ac 8a 3d 09 92 c0 3e
       0.06035464 0.041074123 0.06771109 0.37611416
000030 ae 2e 8a be d4 17 de 3e e1 d3 15 3e cc 12 28 bd
       -0.2698874 0.43377554 0.14631607 -0.04103355
000040 37 9a c4 be 8b 25 26 3e ef fa 91 be 84 93 c6 3e
       -0.38398907 0.16225259 -0.2851176 0.3878442
000050 84 60 7b 3e 44 6c 7c be dd 19 f1 bd 42 e0 e4 bd
       0.24548537 -0.24650675 -0.11772511 -0.11175586
000060 38 af c8 be 07 2b a2 be 42 f0 17 bf f3 c7 54 be
       -0.3919618 -0.31673452 -0.5935098 -0.207794
000070 dc 3b bd 3e 9e e5 d6 bd 54 3b 8b 3e c8 b2 27 be
       0.36959732 -0.10493015 0.271937 -0.16376793

conv5.weight f4 [32, 2]
000000 5c 37 fe b9 b5 b6 a8 3a 1f 60 4b 3e cc 5e a5 be
       -0.000484879 0.0012871834 0.19860886 -0.32298887
000010 cf 4f 7e 3b 8b b9 8d bb 4a 6b 9f bb 5d b4 6d 3e
       0.0038804894 -0.004325097 -0.004865085 0.23213334
000020 ee d3 20 3b 6c 39 4e ba 9d eb 1d be 41 9d 65 be
       0.0024540382 -0.0007866833 -0.1542191 -0.22423269
000030 c4 49 1b be cc 2d f0 3d a7 67 57 be 5a 06 47 3e
       -0.15164858 0.11727485 -0.21035634 0.19436017
000040 ad 47 ad ba 19 24 ca 39 bd 1a 57 3e a0 5f 04 3c
       -0.0013220214 0.00038555337 0.21006294 0.008079439
000050 5d 00 2d 3e 38 50 7e 3e 58 d9 93 bd 43 54 6b 3e
       0.1689467 0.24835289 -0.072191894 0.22981362
000060 6b a0 9e be 36 a8 a7 3e f2 71 0c be 66 f7 28 3d
       -0.30981764 0.32745522 -0.13715342 0.041251563
000070 67 89 f4 3d 06 be 92 3d a2 1d 96 3e 52 06 0b be
       0.1194027 0.0716515 0.29319483 -0.1357663
000080 36 39 22 be 3a f1 99 3e 2e d3 23 be ce 47 37 3e
       -0.15842137 0.30066854 -0.15998527 0.17898485
000090 ba e9 a5 3e b2 d8 7b 3e 84 1a 11 3c 1c d3 cb 3b
       0.32404882 0.24594381 0.0088564195 0.0062202346
0000a0 2d c6 5e be 89 5f 4a be 76 b9 62 bd 1e ae 35 be
       -0.21755286 -0.19763006 -0.05535265 -0.17742202
0000b0 22 4d 3d 3e 03 d3 23 3e 6f 5d 35 bb 0e 61 9e b9
       0.18486455 0.15998463 -0.00276741 -0.0003020842
0000c0 28 34 21 3e 38 78 cd bc 58 47 41 3e ba df 71 3e
       0.15742552 -0.025081739 0.18874872 0.23620501
0000d0 41 99 a0 bd 5d d9 78 be c9 ae 89 3e 69 2c 22 be
       -0.07841731 -0.24301668 0.26891163 -0.15837254
0000e0 ab 5f 9b 3e f3 de 8a be 79 ca d1 39 cb 77 0f 39
       0.30346426 -0.27123222 0.0004001444 0.00013682169
0000f0 71 6b ae bd 41 a7 33 3e a0 21 65 be 68 95 b5 bd
       -0.085165866 0.17544271 -0.22376108 -0.088663876

conv5.bias f4 [2]
000000 53 31 bf 3d f7 5b 1e 3d
       0.0933558 0.038661923
