GST-recon/checkpoints/best_ring_SAGPool.pth (torch, 18212 bytes, 12 tensors)

conv1.weight f4 [2, 32]
0.29576418 0.27487192 -0.08049399 0.40920547 -0.050997283 0.11203229 -0.23210405 0.25601217
0.3431293 -0.2645648 0.38868293 0.053143255 0.26284996 0.04580713 0.18262547 -0.02272413
0.348115 0.10362794 -0.22441968 0.08614254 -0.15848714 -0.089983836 -0.18344107 0.22354418
-0.3616984 -0.23152342 -0.08787936 -0.24399216 0.06932708 -0.45641273 0.40204695 -0.3034582
0.37291694 0.029434461 -0.086857885 0.295758 0.07988875 0.36232632 0.013227718 -0.09427256
0.06743937 -0.09529072 0.16218111 0.33123526 0.22188553 -0.21407571 0.20448661 0.07848313
0.2288569 -0.20775883 -0.43488514 -0.08522608 -0.2865516 0.34012473 0.0844136 0.13135517
0.1145698 6.387763e-05 0.3530736 -0.32626596 0.04450423 -0.23786902 0.15749392 -0.16872156
00000000: 676e 973e 03bc 8c3e 08da a4bd 6183 d13e
00000010: 87e2 50bd 2f71 e53d afac 6dbe 0714 833e
00000020: a5ae af3e 0a75 87be 7301 c73e beac 593d
00000030: 4594 863e 42a0 3b3d 2c02 3b3e f427 babc
00000040: 213c b23e e33a d43d 46ce 65be 806b b03d
00000050: 744a 22be 7249 b8bd fad7 3bbe c4e8 643e
00000060: 8830 b9be 7a14 6dbe 18fa b3bd 15d9 79be
00000070: 5bfb 8d3d eeae e9be 19d9 cd3e e05e 9bbe
00000080: f8ee be3e 8a20 f13c 8ce2 b1bd 986d 973e
00000090: b79c a33d d682 b93e 12b9 583c f911 c1bd
000000a0: a71d 8a3d c827 c3bd ce12 263e ab97 a93e
000000b0: f635 633e aa36 5bbe f064 513e c3bb a03d
000000c0: 7759 6a3e bbbe 54be 44a9 debe 038b aebd
000000d0: e4b6 92be d424 ae3e 0ae1 ac3d f881 063e
000000e0: 92a3 ea3d 0bf6 8538 10c6 b43e 550c a7be
000000f0: 114a 363d f093 73be 1646 213e 58c5 2cbe

conv1.bias f4 [32]
0.0036338686 0.0110518625 -0.007950205 -0.0037915558 0.0030557027 -0.006763018 0.001242817 0.007849007
0.0003646766 -0.014327785 -0.016723203 -0.005134056 0.00680812 0.007291595 -0.0008305158 -8.046873e-06
-0.009280393 -0.006003961 0.012929495 0.010527572 -0.004412144 0.0002857444 0.0038054339 0.016566789
0.009971144 -0.008822964 -0.0035838652 0.016794762 -0.010922583 0.015788479 0.008795079 -0.01698752
00000000: 3326 6e3b df12 353c 9441 02bc c07b 78bb
00000010: 2f42 483b 4f9c ddbb 05e6 a23a 1f99 003c
00000020: 1132 bf39 16bf 6abc 19ff 88bc 953b a8bb
00000030: a616 df3b 55ee ee3b f9b6 59ba 0e01 07b7
00000040: ca0c 18bc e0bc c4bb 3cd6 533c d67b 2c3c
00000050: bf93 90bb f7cf 9539 9664 793b 13b7 873c
00000060: 025e 233c 318e 10bc 48df 6abb 2b95 893c
00000070: a2f4 32bc d756 813c 3c19 103c 6929 8bbc

conv2.weight f4 [32, 32]
0.12275365 -0.036578603 0.2975193 -0.20016055 -0.2232199 -0.14007227 0.24168544 0.13198887
0.25131735 -0.29076448 -0.3402145 -0.20139802 -0.1595021 0.092604145 0.07257965 0.27582
-0.18985707 -0.18096326 0.19699074 -0.1527849 0.15821816 -0.101912126 0.2114391 -0.20786077
-0.18327923 0.06394725 0.029469065 -0.09970743 0.21706383 0.23291185 -0.18088548 -0.18268558
0.2941438 -0.07049366 -0.084744856 -0.3145941 -0.2101844 0.12484314 -0.08041311 -0.19230767
-0.042846523 -0.2391467 -0.28794575 -0.123714596 -0.20781344 -0.23272032 0.26982024 0.08845097
0.058106054 -0.24746591 -0.17396662 -0.1326063 -0.0017410114 -0.30468148 -0.11184117 -0.15615787
-0.02166383 -0.1579326 -0.06034121 -0.24420765 -0.17709099 -0.14212021 -0.06777434 -0.25046176
0.22592074 -0.085715316 0.21001247 0.11188561 -0.20841557 0.16269346 -0.05226211 -0.15022673
-0.20427656 -0.25775915 0.13134924 -0.105549075 0.08246313 -0.22126508 0.26620758 -0.24305224
-0.021124793 0.036483753 0.110890545 0.2745066 0.30564818 -0.21364401 0.037400246 -0.17364165
-0.00024270832 -0.19485055 0.31275287 -0.2018022 0.12827903 0.082959265 0.05393174 -0.14591329
0.301917 0.09581549 0.077275485 -0.28805137 0.0911212 -0.002988972 -0.17496125 0.29266033
0.02388568 -0.20343292 -0.18906976 0.024291912 0.22337693 -0.111240774 -0.21078664 -0.08100536
-0.26079473 0.13879171 0.27006245 -0.31781664 0.037652183 0.12810226 0.087401904 -0.08086373
0.13329583 0.12762606 0.07821911 -0.0797747 -0.047245365 0.059715047 -0.015253582 -0.10782797
0.2684386 0.21712619 0.026192259 -0.045984443 -0.02874971 -0.09276113 0.12532517 0.06993214
-0.19334547 -0.15580823 0.21787207 0.06108914 -0.074332714 -0.13010602 -0.1788443 -0.33045018
-0.048689462 0.043816015 0.22915426 0.16668111 -0.19910559 -0.12969472 0.023730168 0.3183805
0.000419578 0.0031315384 0.172696 -0.0415658 -0.19092615 0.16300854 -0.1250142 -0.13812812
-0.26769868 0.22722161 0.28629887 0.09383322 -0.25905728 -0.26461884 -0.27531534 0.25979143
0.108121134 0.21296985 0.11593996 0.10725505 0.012788128 -0.25869223 -0.30008632 -0.27219188
0.09811739 -0.13188204 -0.021296695 -0.2036552 -0.06425511 -0.23927814 -0.15239872 0.13702445
-0.12592213 0.17270966 -0.129969 -0.21844348 -0.018129744 -0.13465977 -0.049133826 -0.31864294
0.17803153 -0.24616212 0.16097234 0.15365879 0.23990542 -0.2814881 0.26083648 -0.1683233
0.1629596 0.29528144 -0.030258156 -0.046582438 -0.13333341 -0.21699612 0.1756416 -0.3373631
0.2242494 0.18971585 0.28350496 -0.043668333 -0.19570133 0.10324664 0.16580062 -0.3144605
-0.05904717 -0.13643801 0.011821221 -0.11142455 -0.15173428 -0.13562754 -0.31483006 0.23365363
0.20225911 -0.009578567 -0.08190038 -0.1377473 -0.274966 -0.24821876 0.067702144 -0.14898926
-0.25083965 -0.0018271534 -0.08816418 -0.050863955 0.07226014 -0.109760076 -0.12718615 -0.10332202
-0.28766218 0.30410966 -0.1498583 0.05295402 -0.17026947 -0.015519299 0.24889186 0.1344102
-0.2516976 0.06565964 0.24889438 0.035633057 0.22530581 0.34807897 -0.039476026 0.1031898
00000000: 4466 fb3d 72d3 15bd 7354 983e e3f6 4cbe
00000010: c293 64be 1b6f 0fbe 637c 773e 1728 073e
00000020: abac 803e 15df 94be 9830 aebe 483b 4ebe
00000030: 8554 23be 3ea7 bd3d a4a4 943d 4738 8d3e
00000040: e469 42be 6f4e 39be f1b7 493e a573 1cbe
00000050: f103 223e 4eb7 d0bd 7e83 583e 74d9 54be
00000060: 8dad 3bbe c7f6 823d 1c69 f13c 6933 ccbd
00000070: fb45 5e3e 7280 6e3e 0b3a 39be ee11 3bbe
00000080: 049a 963e fb5e 90bd b68e adbd 7a12 a1be
00000090: 943a 57be c3ad ff3d a1af a4bd 4dec 44be
000000a0: d67f 2fbd dfe2 74be a06d 93be 145e fdbd
000000b0: 0ccd 54be 3c4e 6ebe e125 8a3e c825 b53d
000000c0: 9d00 6e3d b467 7dbe 4e24 32be f2c9 07be
000000d0: a632 e4ba 36ff 9bbe fc0c e5bd d9e7 1fbe
000000e0: 5878 b1bc 15b9 21be 5828 77bd 9211 7abe
000000f0: 5757 35be f687 11be 46cd 8abd 863c 80be
00000100: c457 673e 838b afbd 820d 573e 4824 e53d
00000110: e46a 55be 1d99 263e cb10 56bd 09d5 19be
00000120: e02d 51be 02f9 83be 6a80 063e 1d2a d8bd
00000130: 6ee2 a83d 5093 62be 5c4c 883e b0e2 78be
00000140: e70d adbc fd6f 153d 951a e33d 218c 8c3e
00000150: eb7d 9c3e 7fc5 5abe 0031 193d 1ecf 31be
00000160: 857f 7eb9 e786 47be 2521 a03e 3ca5 4ebe
00000170: 945b 033e 8ce6 a93d 87e7 5c3d 4b6a 15be
00000180: dd94 9a3e e93a c43d 9c42 9e3d 787b 93be
00000190: c09d ba3d a1e2 43bb 0b29 33be 93d7 953e
000001a0: e7ab c33c b850 50be 819b 41be d5ff c63c
000001b0: ecbc 643e 34d2 e3bd 74d8 57be 23e6 a5bd
000001c0: e386 85be 6a1f 0e3e a045 8a3e ddb8 a2be
000001d0: 2d39 1a3d 3d2d 033e c5ff b23d e29b a5bd
000001e0: b47e 083e 68b0 023e 5731 a03d eb60 a3bd
000001f0: 5b84 41bd c497 743d 29ea 79bc e9d4 dcbd
00000200: c970 893e 5456 5e3e 2691 d63c 2f5a 3cbd
00000210: 8384 ebbc 8cf9 bdbd 3e55 003e 9538 8f3d
00000220: 5bfc 45be 318c 1fbe db19 5f3e 9b38 7a3d
00000230: c03b 98bd 833a 05be f622 37be c430 a9be
00000240: 9a6e 47bd 6c78 333d 6aa7 6a3e 74ae 2a3e
00000250: 56e2 4bbe b1ce 04be c565 c23c c502 a33e
00000260: cefa db39 7f3a 4d3b 38d7 303e e640 2abd
00000270: 2582 43be b6eb 263e b903 00be 7571 0dbe
00000280: cd0f 89be c8ac 683e c495 923e a22b c03d
00000290: 28a3 84be 1f7c 87be 22f6 8cbe 6203 853e
000002a0: 9d6e dd3d c514 5a3e ee71 ed3d 89a8 db3d
000002b0: 4c85 513c 4f73 84be eaa4 99be bc5c 8bbe
000002c0: c5f1 c83d 160c 07be 6876 aebc fd8a 50be
000002d0: 2f98 83bd 5405 75be 690e 1cbe 2350 0c3e
000002e0: bbf1 00be cdda 303e 9816 05be a6af 5fbe
000002f0: d484 94bc 40e4 09be 8d40 49bd 2b25 a3be
00000300: e64d 363e ec11 7cbe efd5 243e bb58 1d3e
00000310: c4a9 753e 351f 90be 5c8c 853e f15c 2cbe
00000320: e2de 263e 212f 973e f4df f7bc 3acd 3ebd
00000330: 8e88 08be 3b34 5ebe 64db 333e dbba acbe
00000340: a2a1 653e df44 423e 9027 913e 91dd 32bd
00000350: ee65 48be f972 d33d a3c7 293e f700 a1be
00000360: 72db 71bd 68b6 0bbe cbad 413c 8e32 e4bd
00000370: 3b60 1bbe f2e1 0abe 6831 a1be e642 6f3e
00000380: 031d 4f3e 6cef 1cbc 63bb a7bd a10d 0dbe
00000390: 58c8 8cbe 0f2d 7ebe 6ca7 8a3d a490 18be
000003a0: 0e6e 80be 187d efba 6c8f b4bd b956 50bd
000003b0: 20fd 933d e4c9 e0bd 163d 02be 7f9a d3bd
000003c0: 7548 93be 43b4 9b3e 7474 19be 51e6 583d
000003d0: 1f5b 2ebe a844 7ebc 82dd 7e3e d4a2 093e
000003e0: 82de 80be 9078 863d 2bde 7e3e f8f3 113d
000003f0: 91b6 663e 6837 b23e 9db1 21bd 2d55 d33d

conv2.bias f4 [32]
0.017479245 -0.005461485 -0.003062057 0.0022056068 0.005197012 -0.017478524 0.01532138 -0.014459968
0.016073518 0.0007009301 0.014345635 -0.011907837 -0.0016596148 0.011473756 -0.0020272648 0.002441012
0.010558492 -0.007690552 -0.0062415903 0.006542472 -0.0044813254 0.010057011 -0.008776297 0.010395304
0.0031199567 0.0022467372 0.0141365575 0.010755189 -0.007931174 -0.0031762726 7.444589e-05 -0.002088059
00000000: a230 8f3c 42f6 b2bb cbac 48bb f18b 103b
00000010: b24b aa3b 1f2f 8fbc 8706 7b3c 80e9 6cbc
00000020: 9cac 833c 9fbe 373a f409 6b3c 1719 43bc
00000030: 6f87 d9ba 6cfc 3b3c dcdb 04bb 63f9 1f3b
00000040: 86fd 2c3c 0701 fcbb 4186 ccbb 3c62 d63b
00000050: 15d8 92bb 29c6 243c 75ca 0fbc 1151 2a3c
00000060: 3078 4c3b ff3d 133b 059d 673c 8836 303c
00000070: c1f1 01bc 0329 50bb d51f 9c38 d1d7 08bb

pool.gnn.lin_l.weight f4 [1, 32]
0.08019351 -0.099063225 -0.10897408 0.08387059 0.0067291027 -0.070616744 0.0923069 -0.18909626
0.10504171 0.11969898 0.08584497 -0.057318926 0.13222411 0.0520835 -0.00546997 0.030938234
0.13856404 -0.10677002 0.00635437 0.08888813 -0.02539777 0.17667454 -0.13007736 0.03910994
0.071093425 -0.09790514 0.15873758 -0.0297918 -0.19710454 -0.023445403 -0.030247735 0.05546273
00000000: 7f3c a43d a9e1 cabd cd2d dfbd 58c4 ab3d
00000010: ce7f dc3b 839f 90bd 660b bd3d 73a2 41be
00000020: 1c20 d73d bd24 f53d 7dcf af3d 40c7 6abd
00000030: c265 073e 8255 553d 6f3d b3bb 2e72 fd3c
00000040: bbe3 0d3e 3eaa dabd 5238 d03b fb0a b63d
00000050: fc0e d0bc 2cea 343e 0033 05be bf31 203d
00000060: 6e99 913d 7d82 c8bd 1b8c 223e ef0d f4bc
00000070: c6d5 49be 9310 c0bc 19ca f7bc e32c 633d

pool.gnn.lin_r.weight f4 [1, 32]
-0.18039198 -0.069472395 0.028276293 -0.012941725 0.116446234 0.0063445885 0.12013712 0.005700482
-0.1963199 -0.009949647 0.18421762 -0.06203374 -0.068072155 0.19499764 0.08850245 -0.12578425
0.11035177 -0.05340167 -0.12816945 0.05396236 0.012455964 -0.018898992 0.024269514 -0.1056185
0.1605721 0.0997525 0.1357133 -0.019165741 0.02449802 -0.13220291 0.005758416 0.021409377
00000000: adb8 38be 8b47 8ebd afa3 e73c 8709 54bc
00000010: 5d7b ee3d 44e6 cf3b 730a f63d 1ccb ba3b
00000020: 1508 49be d803 23bc 8ba3 3c3e 1717 7ebd
00000030: 6a69 8bbd 76ad 473e c640 b53d 96cd 00be
00000040: 1c00 e23d b6bb 5abd da3e 03be a307 5d3d
00000050: 1a14 4c3c 0fd2 9abc dcd0 c63c 834e d8bd
00000060: 036d 243e 0a4b cc3d 6df8 0a3e 7901 9dbc
00000070: 12b0 c83c 3360 07be 18b1 bc3b b862 af3c

conv3.weight f4 [32, 32]
-0.081154995 -0.20961878 0.11142801 0.20647323 -0.21167994 0.039017208 0.06617308 0.2637909
0.17617302 0.3063066 -0.15981501 0.26500875 0.21699259 -0.31045523 -0.22317208 0.0036656854
0.16597529 -0.10842508 0.0142184505 0.049538963 0.1568655 -0.20358516 0.20968649 0.25182003
-0.23403654 -0.039929375 0.058571182 0.08604456 0.24535082 0.025249504 -0.011868385 0.21736307
-0.093938135 -0.07857587 -0.03875212 -0.25334242 -0.02231636 -0.22632904 0.019212017 0.055503678
0.0596981 -0.27413878 -0.31699482 0.15892377 0.2802467 -0.29518327 0.087327026 -0.16672912
-0.0030140537 0.23242426 0.2197327 -0.26562706 0.1807865 0.12212523 -0.021743584 0.31709322
-0.096365154 -0.087343 -0.1389767 0.015518825 0.095126376 0.01800978 -0.14915282 -0.16349131
0.10571046 -0.28002948 0.021090584 0.015307367 -0.07600859 0.1332048 0.01865515 0.18430273
-0.048076358 -0.174069 0.24032894 0.018199256 -0.11230629 -0.17592134 0.100605115 -0.34563613
0.107829265 0.20066941 -0.25072435 -0.15744725 -0.18769588 0.3017807 0.30649748 -0.0015360463
0.2523315 -0.08399172 -0.30824295 0.13729748 0.091615 0.29115278 -0.022611251 0.2522722
0.16264804 0.20964512 -0.23557283 0.27406424 -0.20960228 0.29863766 0.023039918 -0.29815587
0.06618032 -0.04597115 -0.24070132 -0.13578767 0.014349108 0.26498002 -0.06788017 0.13423918
0.06275246 0.057081472 0.07406166 -0.16129923 -0.25399727 -0.054769892 -0.26363707 -0.1671552
-0.010721364 -0.18199733 -0.15495197 -0.024717007 -0.048755802 -0.15084255 -0.017969921 -0.013698855
0.034517262 -0.0014791824 -0.12377973 -0.11703728 -0.06445081 -0.17593354 0.06883254 0.012980538
0.12732859 0.05524245 0.23973909 -0.01018093 -0.19974221 0.12657046 -0.23787464 0.022198489
-0.1153369 -0.17085144 -0.11371169 0.23289382 0.11503399 0.064362556 0.2466988 -0.28167263
0.085456036 0.20830128 0.15662472 -0.26045376 0.13659294 -0.12296707 -0.0233425 -0.033645708
-0.25461105 -0.294629 -0.13764231 0.15768294 0.18918262 -0.24578255 -0.087098 -0.024345668
-0.28041926 0.1853345 0.31177485 0.024514621 -0.24085748 0.09654174 0.13517036 0.19882269
-0.13940777 -0.23289695 0.14934283 0.058663405 -0.068350405 -0.090124555 -0.11954311 0.2272261
-0.07544623 0.23479919 0.23735178 0.064629756 0.05408297 -0.015845276 0.17074515 -0.25679946
0.041450936 -0.059103422 0.2215903 -0.0030936224 -0.13650703 -0.009147996 0.20682548 -0.20396541
-0.19051328 -0.07925852 -0.078816995 0.10597871 0.2165723 -0.029843517 0.2855566 -0.11586084
-0.1739078 -0.143543 -0.21571133 -0.22928828 -0.34619415 -0.25218078 0.062185008 0.16635232
0.28969303 0.2783861 -0.05146797 0.066926256 -0.16797139 0.15916054 -0.32508528 0.17598121
0.040290516 0.098722756 0.12258332 -0.15902004 0.1970823 0.14789852 0.24259493 0.07314343
0.20763803 0.18578346 0.14020684 0.23360187 -0.029875647 0.18480434 0.03832148 0.25828025
0.2788944 0.0035927673 -0.11996684 -0.08199667 0.04515096 0.027484844 -0.100842394 0.24807847
0.21749054 -0.1938998 -0.07365431 -0.054615945 -0.16763517 0.08094551 -0.10335519 -0.15018423
00000000: 9734 a6bd 4ea6 56be 5e34 e43d b86d 533e
00000010: a0c2 58be 82d0 1f3d c085 873d 9a0f 873e
00000020: b366 343e 38d4 9c3e 8ca6 23be 3aaf 873e
00000030: 4e33 5e3e fdf3 9ebe 3987 64be ff3b 703b
00000040: 6df5 293e f80d debd 81f4 683c 5ee9 4a3d
00000050: 5aa1 203e a178 50be 0eb8 563e 8eee 803e
00000060: 46a7 6fbe fc8c 23bd 56e8 6f3d 2138 b03d
00000070: 3f3d 7b3e 0cd8 ce3c 9d73 42bc 6d94 5e3e
00000080: a362 c0bd 63ec a0bd 8bba 1ebd 19b6 81be
00000090: cdd0 b6bc cdc2 67be 8562 9d3c d357 633d
000000a0: ff85 743d eb5b 8cbe 254d a2be eabc 223e
000000b0: 7f7c 8f3e 4322 97be 83d8 b23d 0abb 2abe
000000c0: 6e87 45bb a000 6e3e 9c01 613e 4500 88be
000000d0: 1920 393e cb1c fa3d 9a1f b2bc 0b5a a23e
000000e0: 185b c5bd e3e0 b2bd e84f 0ebe ab42 7e3c
000000f0: 9ed1 c23d 3f89 933c 84bb 18be 446a 27be
00000100: ba7e d83d 0660 8fbe 29c6 ac3c c0cb 7a3c
00000110: 64aa 9bbd d766 083e afd2 983c dbb9 3c3e
00000120: b7eb 44bd 253f 32be ca18 763e 9b16 953c
00000130: d700 e6bd b924 34be 0e0a ce3d 38f7 b0be
00000140: 97d5 dc3d 487c 4d3e f15e 80be da39 21be
00000150: 5933 40be 0083 9a3e 3ded 9c3e 2955 c9ba
00000160: 9831 813e da03 acbd 05d2 9dbe b697 0c3e
00000170: a5a0 bb3d fa11 953e 3b3b b9bc d229 813e
00000180: 358d 263e 36ad 563e 013a 71be 2652 8c3e
00000190: fba1 56be 09e7 983e 36be bc3c e3a7 98be
000001a0: 8c89 873d 3f4c 3cbd 687a 76be ec0b 0bbe
000001b0: 8518 6b3c 76ab 873e c204 8bbd ff75 093e
000001c0: 5d84 803d 43ce 693d a4ad 973d a02b 25be
000001d0: ee0b 82be 6556 60bd 70fb 86be bc2a 2bbe
000001e0: a9a8 2fbc 825d 3abe bbab 1ebe 527b cabc
000001f0: 2ab4 47bd 7876 1abe a835 93bc 2a71 60bc
00000200: f961 0d3d 20e1 c1ba 3a80 fdbd 3eb1 efbd
00000210: c9fe 83bd ec27 34be 13f8 8c3d 53ac 543c
00000220: 6d62 023e e845 623d 2a7e 753e eacd 26bc
00000230: 3989 4cbe b09b 013e 6995 73be 9bd9 b53c
00000240: c135 ecbd aef3 2ebe ade1 e8bd b87b 6e3e
00000250: f196 eb3d 84d0 833d 9c9e 7c3e 6537 90be
00000260: 9303 af3d ee4c 553e 3b62 203e 325a 85be
00000270: 05df 0b3e 29d6 fbbd c538 bfbc 15d0 09bd
00000280: 615c 82be 9dd9 96be 1bf2 0cbe a377 213e
00000290: 17b9 413e 6cae 7bbe 7060 b2bd 9170 c7bc
000002a0: 1d93 8fbe 54c8 3d3e f4a0 9f3e e3d2 c83c
000002b0: 58a3 76be adb7 c53d 196a 0a3e 2d98 4b3e
000002c0: e9c0 0ebe 8a7c 6ebe 54ed 183e 0a49 703d
000002d0: 4cfb 8bbd 3993 b8bd 05d3 f4bd f5ad 683e
000002e0: 8e83 9abd 336f 703e 580c 733e 9b5c 843d
000002f0: 1b86 5d3d f4cd 81bc d1d7 2e3e 387b 83be
00000300: 75c8 293d 6e16 72bd 91e8 623e 5fbe 4abb
00000310: 80c8 0bbe 7ae1 15bc 0fca 533e 4fdc 50be
00000320: ea15 43be 4a52 a2bd ce6a a1bd 5e0b d93d
00000330: 21c5 5d3e 647a f4bc 7a34 923e 7348 edbd
00000340: e314 32be f0fc 12be 6ee3 5cbe 8cca 6abe
00000350: 5c40 b1be d71d 81be b5b5 7e3d 4358 2a3e
00000360: a552 943e 9f88 8e3e 14d0 52bd a210 893d
00000370: b100 2cbe fbfa 223e 9471 a6be 6b34 343e
00000380: ab07 253d 282f ca3d f70c fb3d 26d6 22be
00000390: f1cf 493e b672 173e ce6a 783e 39cc 953d
000003a0: 109f 543e 053e 3e3e 6292 0f3e 5435 6f3e
000003b0: c6bd f4bc 593d 3d3e fcf6 1c3d 4f3d 843e
000003c0: 3fcb 8e3e a274 6b3b 2db1 f5bd dfed a7bd
000003d0: 37f0 383d e527 e13c 7586 cebd 4808 7e3e
000003e0: d7b5 5e3e ab8d 46be 12d8 96bd f8b4 5fbd
000003f0: 8ea8 2bbe c2c6 a53d e3ab d3bd e5c9 19be

conv3.bias f4 [32]
-0.04057718 0.030413756 -0.00042977053 -0.032436233 0.01871577 -0.029685512 -0.010868586 0.03246473
0.03344139 -0.034059998 -0.022340063 0.030375674 0.0378325 -0.032912422 -0.03560547 -0.025281757
-0.03177657 -0.019041168 -0.033555288 -0.018231763 0.0052096145 -0.016942354 -0.014013242 0.03116542
0.035579927 -0.031157654 0.008263879 -0.033061933 0.030419933 -0.018263478 0.01930464 -0.018154174
00000000: 4234 26bd 4526 f93c d352 e1b9 dbdb 04bd
00000010: d151 993c 082f f3bc 2712 32bc bdf9 043d
00000020: d7f9 083d 7f82 0bbd 8202 b7bc 68d6 f83c
00000030: 40f6 1a3d 2dcf 06bd 0bd7 11bd b01b cfbc
00000040: 2628 02bd 39fc 9bbc 4571 09bd c75a 95bc
00000050: 6ab5 aa3b b1ca 8abc cc97 65bc 9f4e ff3c
00000060: 42bc 113d 563e ffbc 3965 073c f36b 07bd
00000070: 3933 f93c 4a9d 95bc c424 9e3c 10b8 94bc

conv4.weight f4 [32, 32]
-0.23587984 -0.06941371 0.2607424 0.12886421 -0.058162376 0.057324238 0.1279288 -0.025366252
-0.23824045 -0.14292014 -0.21159436 -0.033163108 -0.30374736 -0.026928427 -0.091555364 0.32831496
0.19966139 0.1652409 0.06643575 -0.10784811 0.08873891 -0.17573683 -0.1704786 -0.07837339
-0.031522617 -0.24939644 0.0851978 0.2718615 -0.19122016 0.094796285 -0.011323614 -0.0131983105
0.01086321 0.24739747 0.054846853 -0.20249158 -0.10579662 0.1609631 0.082029276 -0.030123739
-0.047764383 -0.083419874 -0.09272222 -0.19263513 0.054386366 0.111511365 0.23715389 -0.061542902
-0.013549105 0.20249532 0.1698954 0.04949371 0.07937236 0.038675737 -0.3008172 0.026441434
-0.02089537 0.30180642 0.23650259 0.050973542 0.24295232 -0.16240545 0.3181096 0.2790904
-0.03335373 -0.2620214 -0.08754034 -0.09723677 0.038287167 -0.2705618 0.046181075 -0.08041051
-0.091961734 -0.18217355 -0.056105502 -0.27461246 -0.12651344 0.013024428 0.16171883 0.23140572
-0.20249279 0.14904433 -0.2088218 -0.22127688 -0.026478967 -0.23108864 -0.24413812 -0.26456225
-0.24605331 0.19552484 0.22416353 -0.14890052 -0.19470094 -0.25907016 -0.20690374 -0.114877135
0.19336328 0.11535415 -0.12999995 0.21929032 -0.203402 -0.25793022 0.07556617 -0.15898186
0.09551331 0.24416068 -0.15377764 -0.20066613 0.10135907 -0.2855591 0.280441 -0.13433154
0.157926 -0.25192 -0.21509266 0.024167778 0.121815786 0.25316593 0.2757925 -0.033630975
-0.0513958 0.06781609 -0.065329105 0.02570876 -0.27794912 -0.24346204 0.18083191 -0.18697704
0.23522149 0.013736964 0.09353444 0.2672726 -0.17291886 -0.030086316 0.03682845 0.052208807
-0.30926928 0.16171089 -0.15802644 -0.0034794367 0.20523523 0.009399332 0.0036537095 0.017769935
0.20438786 0.17789638 0.10492135 -0.17073129 -0.18507317 0.29000214 0.1677583 0.19234921
-0.17886335 0.28777722 -0.08418264 0.21882851 0.2239349 0.030988822 -0.06498748 0.30751333
-0.21712801 0.19669718 -0.2959523 -0.13756017 -0.20024486 -0.144714 0.1264462 -0.1447516
-0.30098504 0.14679591 0.15145935 0.060633834 -0.14719446 -0.14133371 -0.17308062 0.11462673
-0.031589728 -0.029548643 -0.2913906 -0.10943328 0.16521911 0.12402844 0.11795551 -0.07771645
0.21778637 -0.014251673 -0.042838607 -0.16369715 0.01766525 0.08249488 0.033462886 0.22081067
-0.046747036 0.220817 -0.10257353 -0.16778792 -0.06772101 -0.27170527 -0.22287722 -0.26488099
-0.039280467 0.019143082 -0.06029194 -0.22998193 0.32079178 -0.081431046 0.10852795 0.1797374
-0.22075614 -0.0055883145 0.19069107 0.321943 -0.0630423 0.18990354 -0.26259977 -0.16230452
0.2577823 -0.0577327 0.30829322 -0.021261364 -0.14979194 0.2536074 0.27545807 0.047601197
-0.13961025 0.044819687 -0.205782 0.2764093 -0.018623602 0.005942846 0.24466859 0.12576921
-0.13818714 0.18780187 0.12593545 -0.12650777 0.20018853 0.021903511 -0.058290195 -0.23333345
0.012293187 -0.34378603 0.11382135 0.16649947 -0.029190652 0.26327223 -0.045820653 -0.0010954262
-0.25765237 -0.04350166 0.15786725 0.17605253 0.051198266 -0.11055652 0.17446616 0.14179493
00000000: 7c8a 71be c628 8ebd 0780 853e fbf4 033e
00000010: ac3b 6ebd d2cc 6a3d c4ff 023e e3cc cfbc
00000020: 4ef5 73be a859 12be 31ac 58be 0ad6 07bd
00000030: c684 9bbe 0199 dcbc 6181 bbbd e618 a83e
00000040: 0974 4c3e e934 293e 770f 883d 78df dcbd
00000050: bfbc b53d 5bf4 33be f191 2ebe 3a82 a0bd
00000060: dc1d 01bd c861 7fbe 2f7c ae3d 6e31 8b3e
00000070: 38cf 43be 8e24 c23d ae86 39bc ba3d 58bc
00000080: 9bfb 313c c355 7d3e 18a7 603d f459 4fbe
00000090: e6ab d8bd 83d3 243e f7fe a73d 0fc6 f6bc
000000a0: 96a4 43bd 0ad8 aabd 26e5 bdbd 2542 45be
000000b0: 3dc4 5e3d 1260 e43d 78d8 723e 6914 7cbd
000000c0: 11fd 5dbc ef5a 4f3e 0ff9 2d3e ebb9 4a3d
000000d0: fa8d a23d 736a 1e3d b604 9abe b59b d83c
000000e0: c42c abbc 5f86 9a3e bc2d 723e a2c9 503d
000000f0: 7ec8 783e 9d4d 26be 43df a23e f0e4 8e3e
00000100: ec9d 08bd ab27 86be 5a48 b3bd 1224 c7bd
00000110: 01d3 1c3d 1487 8abe 5e28 3d3d 44ae a4bd
00000120: 6f56 bcbd b48b 3abe e2ce 65bd 019a 8cbe
00000130: bd8c 01be 6964 553c 9f99 253e 9ff5 6c3e
00000140: 455a 4fbe 149f 183e 62d5 55be 6896 62be
00000150: 6bea d8bc 80a2 6cbe 58ff 79be b474 87be
00000160: 66f5 7bbe aa37 483e 208b 653e 6179 18be
00000170: af5f 47be d8a4 84be 93de 53be b444 ebbd
00000180: 0601 463e cc3e ec3d b51e 05be a48d 603e
00000190: 9d48 50be 6e0f 84be 70c2 9a3d 24cc 22be
000001a0: 7b9c c33d 4205 7a3e e377 1dbe 6c7b 4dbe
000001b0: 5895 cf3d cd34 92be f695 8f3e 358e 09be
000001c0: 5ab7 213e a9fb 80be 4041 5cbe 81fb c53c
000001d0: 8e7a f93d f79e 813e ad34 8d3e a2c0 09bd
000001e0: 6784 52bd 2ae3 8a3d 44cb 85bd 2d9b d23c
000001f0: 594f 8ebe 1d4e 79be 002c 393e e976 3fbe
00000200: e7dd 703e 0111 613c fc8e bf3d f4d7 883e
00000210: a411 31be 9477 f6bc 6ed9 163d e7d8 553d
00000220: 8b58 9ebe 8a97 253e afd1 21be 4307 64bb
00000230: 2f29 523e a8ff 193c 1373 6f3b 4192 913c
00000240: 0d4b 513e 782a 363e 01e1 d63d 2fd4 2ebe
00000250: d283 3dbe 297b 943e d5c8 2b3e 31f7 443e
00000260: f427 37be 8957 933e f367 acbd 9514 603e
00000270: 314f 653e 45dc fd3c 2818 85bd 6372 9d3e
00000280: ce56 5ebe fc6a 493e 0f87 97be 93dc 0cbe
00000290: fd0c 4dbe e82f 14be 1d7b 013e c339 14be
000002a0: b61a 9abe ab51 163e 2918 1b3e 2f5b 783d
000002b0: 25ba 16be c9b9 10be 0c3c 31be 6bc1 ea3d
000002c0: 3b64 01bd ff0f f2bc 2631 95be 8e1e e0bd
000002d0: 332f 293e 9f02 fe3d a992 f13d cd29 9fbd
000002e0: 6403 5f3e d97f 69bc 8977 2fbd 3aa0 27be
000002f0: b7b6 903c 13f3 a83d 6110 093d 311c 623e
00000300: d279 3fbd da1d 623e 1212 d2bd 99d0 2bbe
00000310: 50b1 8abd f41c 8bbe ed39 64be 7b9e 87be
00000320: 8ee4 20bd f4d1 9c3c aef4 76bd 6280 6bbe
00000330: d23e a43e 52c5 a6bd e743 de3d 150d 383e
00000340: e60d 62be 2e1e b7bb 8544 433e b7d5 a43e
00000350: 521c 81bd 1376 423e 7a73 86be 2833 26be
00000360: 0bfc 833e 2079 6cbd 9cd8 9d3e 502c aebc
00000370: 0f63 19be d4d8 813e d708 8d3e 79f9 423d
00000380: fdf5 0ebe d994 373d 84b8 52be 8585 8d3e
00000390: 8690 98bc 35bc c23b 678a 7a3e a5c9 003e
000003a0: ee80 0dbe 224f 403e 39f5 003e 418b 01be
000003b0: 39fe 4c3e fe6e b33c b3c1 6ebd f7ee 6ebe
000003c0: 5d69 493c b904 b0be 2b1b e93d d67e 2a3e
000003d0: 3c21 efbc 9ecb 863e 70ae 3bbd 6794 8fba
000003e0: 03eb 83be cc2e 32bd f4a7 213e 1d47 343e
000003f0: 46b5 513d 756b e2bd 42a7 323e b132 113e

conv4.bias f4 [32]
-0.032144688 -0.03474321 0.035084583 -0.03306633 0.028709168 0.03606697 -0.036122914 0.02009638
-0.033094727 0.03608242 0.037470475 -0.03934848 0.027442796 0.036313128 -0.027015924 -0.02400365
-0.03488106 0.031645812 0.027128724 0.03325003 -0.03500534 -0.017577527 -0.033961017 0.03226026
-0.014034662 -0.01888582 0.016846105 -0.030429222 -0.03988541 -0.030600123 -0.021391692 0.036319956
00000000: 26aa 03bd e54e 0ebd dab4 0f3d 8f70 07bd
00000010: 7d2f eb3c f6ba 133d 9ff5 13bd 2aa1 a43c
00000020: 568e 07bd 29cb 133d a47a 193d df2b 21bd
00000030: b7cf e03c 13bd 143d 8050 ddbc 4da3 c4bc
00000040: 71df 0ebd 0a9f 013d 0f3d de3c 2f31 083d
00000050: c261 0fbd bffe 8fbc b51a 0bbd 5623 043d
00000060: a4f1 65bc 6fb6 9abc d800 8a3c b446 f9bc
00000070: e25e 23bd 1cad fabc a13d afbc 3cc4 143d

conv5.weight f4 [32, 2]
-0.29662132 -0.07440262 -0.17327154 -0.22310664 0.13713758 0.25904357 -0.23734316 -0.13134351
0.22012419 -0.044674683 0.07273051 0.2266098 -0.101249896 -0.16521479 0.12973937 -0.15400818
-0.23065853 -0.19477826 -0.18391721 0.42571136 0.023489848 0.1130872 0.11649553 -0.22907187
0.26071608 -0.07832348 -0.102694005 0.32659146 -0.17318222 0.12112447 -0.31860662 0.25034925
0.13599318 -0.29279855 0.23991418 0.05413158 -0.22088692 0.36711413 0.103418246 0.08412637
-0.14804246 -0.23949558 -0.13852932 0.18152009 0.103929006 -0.2572544 0.38522768 0.25302273
-0.15840697 0.19702417 -0.14970195 0.14612092 0.32004115 -0.3792418 -0.21451904 -0.035856303
0.07184548 -0.32166988 -0.22653103 0.028909048 -0.08566651 0.07099799 -0.010981075 0.03854098
00000000: c0de 97be 6760 98bd 186e 31be 1176 64be
00000010: cb6d 0c3e 5ca1 843e 160a 73be ea7e 06be
00000020: 3c68 613e cdfc 36bd bcf3 943d 660c 683e
00000030: 1b5c cfbd 112e 29be 66da 043e 52b4 1dbe
00000040: c031 6cbe f473 47be cb54 3cbe d7f6 d93e
00000050: c86d c03c 439a e73d 3595 ee3d d191 6abe
00000060: 947c 853e 1068 a0bd 3c51 d2bd ff36 a73e
00000070: ae56 31be 1b10 f83d 6820 a3be c72d 803e
00000080: cc41 0b3e b1e9 95be 10ac 753e 13b9 5d3d
00000090: 2e30 62be 62f6 bb3e f2cc d33d 724a ac3d
000000a0: 7198 17be 543e 75be a1da 0dbe 67e0 393e
000000b0: bbd8 d43d d9b6 83be 903c c53e 328c 813e
000000c0: 7035 22be b4c0 493e 784b 19be b9a0 153e
000000d0: 6fdc a33e fb2b c2be e1aa 5bbe 0fde 12bd
000000e0: b923 933d eab1 a4be c0f7 67be abd2 ec3c
000000f0: ec71 afbd 6567 913d f7e9 33bc 26dd 1d3d

conv5.bias f4 [2]
0.029309386 0.051075872
00000000: 3d1a f03c ef34 513d
