GST-recon/checkpoints/best_grid_SAGPool_0.5.pth (torch, 18212 bytes, 12 tensors)

conv1.weight f4 [2, 32]
0	0xbd2ad6c5	-0.041708726
1	0xbe8a12ad	-0.26967373
2	0x3e0e2804	0.13882452
3	0x3e1bb613	0.15206175
4	0xbe70486b	-0.23465125
5	0xbd0f655b	-0.03500877
6	0xbe9f7295	-0.31142107
7	0x3e1b1b46	0.15147123
8	0xbdc804cf	-0.09766542
9	0x3e843e29	0.25828674
10	0x3e347f6f	0.17626737
11	0x3e07b5fa	0.13253012
12	0xbe484483	-0.19557385
13	0xbe84337c	-0.2582053
14	0x3d879550	0.06620276
15	0xbdbe44c3	-0.09290459
16	0x3e1b02c9	0.15137781
17	0xbeb845be	-0.3599071
18	0x3ec1f191	0.37879613
19	0xbe974846	-0.29547328
20	0x3eb3e0af	0.35132357
21	0xbc8fc394	-0.017549314
22	0x3e5d641c	0.2162022
23	0x3e0253a8	0.12727225
24	0x3d9e9f0f	0.07745182
25	0xbc86f248	-0.01647295
26	0x3e7dc0b6	0.24780545
27	0x3d8fcb89	0.07021243
28	0x3e8a56bf	0.27019307
29	0xbea69e79	-0.3254278
30	0x3e9f4596	0.31107777
31	0x3e45b62b	0.19307773
32	0x3e4ded0e	0.2010996
33	0x3e051085	0.12994583
34	0x3e6aaf8e	0.22918531
35	0x3ecb9913	0.39765224
36	0xbdfd578a	-0.123702124
37	0xbe98dab4	-0.29854357
38	0xbe29411b	-0.16528742
39	0xbeb46a0d	-0.3523716
40	0x3eb71a5a	0.35762292
41	0xbe6b0c79	-0.22953977
42	0xbeb0d33a	-0.34536153
43	0x3ed739be	0.4203624
44	0x3ee740eb	0.45166716
45	0x3daad999	0.08342285
46	0x3d26076c	0.04053442
47	0xbde56cc2	-0.112023845
48	0x3e3b6abb	0.18302433
49	0xbed4fcbf	-0.4159908
50	0xbee5e558	-0.44901538
51	0x3ec0ae70	0.37633085
52	0x3ed7d743	0.4215642
53	0xbe5851bf	-0.21124934
54	0xbee1ebdd	-0.44125262
55	0x3e390bbd	0.18070884
56	0xbe5f6f89	-0.21819891
57	0xbd9734b0	-0.07383096
58	0x3dfba26f	0.12286841
59	0x3eb59374	0.3546406
60	0x3d820248	0.06348091
61	0x3e5e0aa1	0.21683742
62	0x3e73fdf0	0.23827338
63	0xbea6d3a1	-0.32583335

conv1.bias f4 [32]
0	0xbd30cb0a	-0.043162383
1	0x3e15673a	0.14590159
2	0xbd4ab700	-0.04949093
3	0xbcaa83ee	-0.020814862
4	0x3e11f123	0.14252143
5	0x3e39453d	0.18092819
6	0x3d580578	0.05273959
7	0xbdd67d4a	-0.10473116
8	0xbdaa271f	-0.08308243
9	0xbe44eb99	-0.19230498
10	0xbca8365d	-0.020533735
11	0x3e03c501	0.1286812
12	0xbe28e5a4	-0.16493851
13	0xbe3621cf	-0.17786334
14	0x3e952c62	0.29135424
15	0x3c95444e	0.018221047
16	0xbdf8e910	-0.12153828
17	0x3d00731f	0.031359788
18	0xbc67c8b1	-0.01414697
19	0xbd7d8d9a	-0.06190262
20	0xbcec0cf6	-0.028814774
21	0x3df03070	0.11727989
22	0x3b19a5a0	0.0023444667
23	0x3d344c7d	0.044018257
24	0x3e184485	0.14869888
25	0xbe2c4b80	-0.16825676
26	0xbe621ac1	-0.22080518
27	0xbd940990	-0.072283864
28	0xbcdb12ee	-0.026742425
29	0x3a467cef	0.0007571717
30	0x3e79753a	0.24361125
31	0x3da484f9	0.08033175

conv2.weight f4 [32, 32]
0	0xbde9f541	-0.114237316
1	0xbce86214	-0.02836708
2	0xbe17f697	-0.1484016
3	0xbe8e7270	-0.27821684
4	0x3c584685	0.013200407
5	0x3e0c00ee	0.1367223
6	0x3e3476d4	0.17623454
7	0x3ce0b8a9	0.027431803
8	0x3ea0b7ad	0.31390134
9	0xbeae4722	-0.34038645
10	0xbd83c749	-0.06434495
11	0x3ead8e79	0.3389776
12	0x3ce0795d	0.02740162
13	0x3d3ad086	0.04560902
14	0x3e2b04fc	0.1670112
15	0xbdd89214	-0.10574737
16	0x3e1aecec	0.15129441
17	0xbe4a0fd2	-0.19732597
18	0xbb96b31e	-0.004598989
19	0xbd72eb37	-0.05930635
20	0xbd6fc88d	-0.05854087
21	0x3bbc86bd	0.0057533667
22	0x3e943853	0.28949222
23	0x3e8adc65	0.27121273
24	0xbdac49b6	-0.08412497
25	0x3e87747d	0.2645606
26	0xbbd5a7f2	-0.006520265
27	0xbe6fdc90	-0.23423982
28	0x3e954d41	0.29160503
29	0xbe2f4c54	-0.1711896
30	0xbe77f5cd	-0.2421486
31	0xbe3d03cc	-0.1845848
32	0xbe5abd65	-0.21361311
33	0x3e69cee1	0.22832824
34	0x3d9bcd58	0.076075256
35	0x3e890c05	0.26766983
36	0xbe7e8ad3	-0.24857645
37	0xbea3bc17	-0.3197944
38	0xbea45689	-0.3209727
39	0xbde6a4d0	-0.11261904
40	0x3d895b87	0.067069106
41	0xbe81891a	-0.25299913
42	0x3e85b2e9	0.2611306
43	0xbdf520fc	-0.11969182
44	0xbe495351	-0.19660689
45	0x3e1e8a6a	0.15482488
46	0xbc6ae32b	-0.014336388
47	0x3e49e0c0	0.19714642
48	0x3da85dda	0.08221026
49	0x3da72f01	0.08163262
50	0x3cd9f5a8	0.026606396
51	0xbe992f0e	-0.29918712
52	0xbe1f63ef	-0.15565465
53	0xbdbf419d	-0.093386866
54	0xbe382461	-0.17982627
55	0x3bdc86e1	0.006729946
56	0x3dbbb6d3	0.0916573
57	0xbe2fa2fb	-0.17152016
58	0x3e567753	0.20943956
59	0xbea7404f	-0.3266625
60	0x3dc829c8	0.09773594
61	0xbe8f68ca	-0.28009635
62	0xbed2ceb6	-0.41173333
63	0xbe628cbc	-0.22123998
64	0x3dc18e18	0.0945093
65	0x3c7df60f	0.0155005595
66	0xbdab713c	-0.08371207
67	0xbe6246a4	-0.2209726
68	0xbea2b3a2	-0.31777674
69	0x3e0feb73	0.1405466
70	0x3ecba904	0.39777386
71	0x3e808c54	0.25107062
72	0xbdeed2e5	-0.11661319
73	0x3dc02857	0.09382694
74	0x3e8291c9	0.2550185
75	0x3b49d8f6	0.0030799485
76	0xbd5cb56b	-0.05388395
77	0x3dde7738	0.10862583
78	0x3d615f1b	0.05502234
79	0xbe6a8f2b	-0.22906177
80	0xbe9d8a16	-0.30769414
81	0xbe1f4237	-0.15552603
82	0x3d089e92	0.03335435
83	0xbc8e5229	-0.017373161
84	0x3ea529c4	0.32258427
85	0xbcb838e9	-0.022488074
86	0xbcdf4ec3	-0.027259236
87	0xbe6f90b1	-0.23395039
88	0xbead66d5	-0.33867517
89	0xbcad0b82	-0.021123651
90	0x3ec3da3e	0.38252443
91	0xbca0f37c	-0.019647352
92	0xbe41e9fe	-0.18936917
93	0x3d38e54f	0.04514056
94	0x3e94e5be	0.2908153
95	0xbe4aad56	-0.19792685
96	0xbdfe90ce	-0.12429963
97	0xbdb7ae6f	-0.089688174
98	0xbdc7ad0d	-0.09749804
99	0xbeba690e	-0.36408275
100	0x3db40c8f	0.08791458
101	0xbe943d59	-0.28953055
102	0x3c71119c	0.014713671
103	0xbd899294	-0.06717411
104	0x3ea436ed	0.32073155
105	0xbca53fa1	-0.020171942
106	0x3e1b42e9	0.15162243
107	0xbe28591d	-0.16440244
108	0x3e6f2327	0.23353253
109	0x3d49dd05	0.049283046
110	0xbdfd613b	-0.12372061
111	0xbe18b14c	-0.14911383
112	0xbe74a8ef	-0.23892568
113	0x3d5014e9	0.05080119
114	0x3e3a7b2f	0.18211053
115	0xbe1dce60	-0.15410757
116	0x3ea101da	0.31446725
117	0x3d946f4b	0.0724779
118	0xbc0dfffa	-0.008666987
119	0x3e0c9d8d	0.13731976
120	0xbdcdd06d	-0.1004952
121	0xbe7d3528	-0.24727309
122	0xbde53af5	-0.11192886
123	0x3e00ec90	0.12590241
124	0x3e822828	0.25421262
125	0x3caa4e61	0.020789327
126	0x3e4c4d50	0.19951367
127	0x3e9fffd1	0.3124986
128	0x3e8f16c2	0.2794705
129	0xbe827cf2	-0.2548595
130	0xbb07b4ed	-0.0020707205
131	0x3db5d40a	0.08878334
132	0x3dcdadd2	0.10042919
133	0xbd8e0bd2	-0.06935848
134	0xbd859dec	-0.06524262
135	0xbefb17d8	-0.4904163
136	0x3e2f0635	0.17092212
137	0x3e950ff5	0.29113737
138	0xbd0e9f8f	-0.034820136
139	0xbe93e70e	-0.28887218
140	0xbe8a4eb5	-0.27013174
141	0xbd63b7f7	-0.055595364
142	0x3d0a0aa8	0.03370157
143	0x3dbdf107	0.09274488
144	0x3d42d416	0.047565542
145	0x3e843500	0.25821686
146	0xbda23481	-0.079201706
147	0x3cf2d6e5	0.029643485
148	0xbe2fa13b	-0.17151348
149	0x3eacdfe6	0.3376457
150	0x3db91ec1	0.09039069
151	0xbdcfe483	-0.10151007
152	0x3e76f6ae	0.24117538
153	0x3e01a7f3	0.12661724
154	0x3c10cd81	0.008838058
155	0xbe3c9176	-0.18414864
156	0x3d3d7b16	0.046259962
157	0xbce442de	-0.027863916
158	0xbe82c75c	-0.25542724
159	0xbb2a88d2	-0.0026021493
160	0x3d0cd9a6	0.034387253
161	0xbe2596c7	-0.16170798
162	0xbcbc356d	-0.022974694
163	0x3e686a04	0.22696692
164	0xbe8441b6	-0.25831383
165	0xbe679613	-0.22615843
166	0xbeeceea9	-0.46275833
167	0xbe783b7b	-0.2424144
168	0x3d2a573c	0.0415871
169	0x3ecfa17e	0.40552896
170	0x3e8f45cc	0.27982938
171	0x3aa02db9	0.0012220658
172	0x3dc4349c	0.09580347
173	0xbd698740	-0.05701375
174	0x3e9a672d	0.30156842
175	0xbdbeb40e	-0.093116865
176	0xbd738f98	-0.059463114
177	0xbd9e8e21	-0.07741953
178	0xbe702046	-0.23449811
179	0xbeb9b279	-0.36268976
180	0xbcd29157	-0.025704069
181	0x3e50b8b5	0.2038296
182	0xbe86c39f	-0.26321122
183	0xbee8f91b	-0.45502552
184	0x3c6a8002	0.014312746
185	0x3e23f133	0.16009979
186	0xbe362aca	-0.1778976
187	0xbd9f2815	-0.07771317
188	0xbe4f0c63	-0.20219569
189	0x3ed742da	0.4204319
190	0xbe9cf965	-0.30659023
191	0x3e59f509	0.2128488
192	0x3ddbe069	0.10736162
193	0x3e8a766d	0.27043477
194	0xbe88075b	-0.26568112
195	0xbd1a1d0f	-0.03762537
196	0xbdea274e	-0.11433278
197	0x3ea06b4a	0.31331855
198	0xbe153eb3	-0.14574699
199	0xbed69a05	-0.41914383
200	0x3e2a357a	0.16621962
201	0x3d74bb1b	0.05974875
202	0x3d4614a7	0.04835954
203	0xbe77a197	-0.24182735
204	0xbe914dd6	-0.28379697
205	0x3e8b6203	0.27223215
206	0xbe636ff4	-0.22210675
207	0x3d60573a	0.054770686
208	0xbd2f1842	-0.042747743
209	0x3e2e25a5	0.17006548
210	0xbe8fee87	-0.2811167
211	0xbe44613a	-0.19177714
212	0xbe510e5f	-0.20415638
213	0xbdd8e2aa	-0.10590108
214	0x3e2ab1a5	0.16669329
215	0x3e1c286b	0.15249793
216	0x3e3947d7	0.18093811
217	0x3eb44982	0.35212332
218	0xbe6219fc	-0.22080225
219	0xbd34b3d0	-0.044116795
220	0xbe7e9e5a	-0.24865094
221	0xbd1e8592	-0.0387016
222	0xbea59475	-0.32339826
223	0xbe9fe204	-0.31227124
224	0x3e594816	0.21218905
225	0xbd0946fa	-0.033514954
226	0x3bef5204	0.007303478
227	0xbd03e081	-0.032196525
228	0xbe0e2a2e	-0.13883278
229	0x3cb9d23e	0.02268326
230	0x3d824fa7	0.06362849
231	0x3e8d11bf	0.27552602
232	0xbea028ba	-0.31281072
233	0x3eeadfea	0.45873958
234	0xbe2441f9	-0.16040792
235	0x3e3f8459	0.1870283
236	0x3e9cc5bd	0.30619612
237	0x3c6ddf07	0.014518506
238	0xbe6e435e	-0.23267886
239	0x3ea409bf	0.32038686
240	0xbd0fd382	-0.03511382
241	0xbeab1f86	-0.33422488
242	0xbd0886de	-0.033331744
243	0xbe2cb090	-0.16864228
244	0xbd846274	-0.06464091
245	0xbe9ab5a4	-0.30216706
246	0x3e38218b	0.17981546
247	0xbe94ed21	-0.29087165
248	0xbe6afd74	-0.22948247
249	0x3eb02dd7	0.34409973
250	0x3dd12156	0.102114365
251	0x3eee7cae	0.46579498
252	0xbeb2447d	-0.34817877
253	0x3ee4ca5f	0.44685647
254	0x3e9da1de	0.30787557
255	0xbe2ea40a	-0.17054763

conv2.bias f4 [32]
0	0xbdca9616	-0.09891908
1	0xbe0592d8	-0.13044298
2	0xbc96b498	-0.01839666
3	0x3e6626de	0.22475764
4	0xbd754901	-0.059884075
5	0xbddcfbd2	-0.107902184
6	0xbdca9516	-0.09891717
7	0xbe0145d1	-0.12624289
8	0x3d0cdb48	0.03438881
9	0xbc945fdb	-0.018112114
10	0xbb830f18	-0.003999602
11	0xbd81553f	-0.063150875
12	0xbdbba7ef	-0.0916289
13	0x3d94c81a	0.07264729
14	0x3dd4fa53	0.10399308
15	0xbe1d686b	-0.15371864
16	0xbb05e37a	-0.0020429776
17	0x3d198fde	0.037490718
18	0xbbac53a9	-0.0052589965
19	0xbd94c323	-0.07263782
20	0x3c0b5290	0.008503571
21	0xbc66cc6d	-0.014086825
22	0xbb76a759	-0.0037636368
23	0xbd972cd8	-0.073816
24	0x3c966073	0.018356537
25	0xbe98eb58	-0.29867053
26	0xbdd8b439	-0.1058125
27	0xbde7a80b	-0.113113485
28	0xbd93c91c	-0.07216093
29	0xbc7c1e89	-0.0153881395
30	0xbc03b87b	-0.008039589
31	0x3d518ab5	0.051157672

pool.gnn.lin_l.weight f4 [1, 32]
0	0x3df195be	0.11796139
1	0x3d9d2ed5	0.07674948
2	0x3d0f26ea	0.03494922
3	0x3d62a11e	0.055329435
4	0x3e1dc01a	0.15405312
5	0x3daee0be	0.0853896
6	0x38fc6c10	0.000120364246
7	0x3d1df6ba	0.038565375
8	0xbd7b1367	-0.0612978
9	0x3dc89fe0	0.09796119
10	0xbdec3ead	-0.11535392
11	0x3e1a0c67	0.15043794
12	0x3e00f7b4	0.12594491
13	0xbe18431d	-0.14869352
14	0xbe1aaa00	-0.15103912
15	0x3d198138	0.03747675
16	0x3d996ea2	0.07491805
17	0x3dc08283	0.09399893
18	0xbe19fc3c	-0.15037626
19	0xbd443d6f	-0.04791015
20	0x3d5f6da9	0.05454794
21	0xbc6db4dc	-0.014508452
22	0xbe034d3e	-0.12822434
23	0x3c3b2e22	0.011424573
24	0x3d8c019c	0.068362445
25	0x3c881138	0.016609773
26	0x3d963271	0.0733384
27	0x3cf550c3	0.029945737
28	0x3e0144a1	0.12623836
29	0x3d8ed309	0.069738455
30	0x3d466b39	0.0484421
31	0xbcf39f6d	-0.029739106

pool.gnn.lin_r.weight f4 [1, 32]
0	0x3e5b0c16	0.21391329
1	0x3ebfe4b1	0.37479165
2	0x3ca503d9	0.020143436
3	0xbe5f9892	-0.21835545
4	0x3e8d7ce5	0.2763435
5	0x3ec15f9a	0.3776825
6	0x3d182387	0.037143257
7	0xbdcc156a	-0.09965022
8	0xbd296f28	-0.041365772
9	0x3d3ed52f	0.046590026
10	0xbbc88457	-0.0061192918
11	0x3cc0a277	0.02351497
12	0x3d07aa8e	0.033121638
13	0xbd392062	-0.0451969
14	0xbeb2a30c	-0.3489002
15	0x3eaaa1ab	0.33326468
16	0xbc9de164	-0.019272514
17	0xbe71f538	-0.236287
18	0xbb8a71a2	-0.004224972
19	0x3d9139cb	0.07091101
20	0xbe1a2ec0	-0.15056896
21	0x3d5da256	0.054109894
22	0xbe1d0be7	-0.15336572
23	0x3da01b3a	0.07817693
24	0x3cc293b8	0.023752078
25	0x3e8145bf	0.25248525
26	0x3b901bec	0.00439786
27	0x3eb04bcf	0.34432837
28	0xbe1884dd	-0.14894433
29	0xbaa75f37	-0.0012769465
30	0xbe04f46c	-0.12983865
31	0xbe300dbf	-0.17192744

conv3.weight f4 [32, 32]
0	0x3e02a423	0.12757926
1	0x3dd4a772	0.103835
2	0x3eb3a4ae	0.35086578
3	0x3dcd316b	0.10019191
4	0xbeb64c0b	-0.3560489
5	0xbdcc2a9d	-0.09969065
6	0xbe8089b6	-0.25105065
7	0x3ef7c955	0.48395792
8	0x3df44b97	0.1192848
9	0x3cdd3bc8	0.027006045
10	0xbd5de123	-0.054169785
11	0xbd3edc2d	-0.046596695
12	0xbd144ce2	-0.036206134
13	0x3e15cbe9	0.14628567
14	0x3ecbf456	0.3983485
15	0x3e7b8157	0.24561058
16	0xbe4aa1cb	-0.19788282
17	0x3e1461a7	0.14490376
18	0xbc45643a	-0.012047822
19	0xbea1b0b5	-0.3158013
20	0xbcef456a	-0.029207904
21	0xbddff840	-0.10936022
22	0x3eca0616	0.39457768
23	0xbe56fd67	-0.20995103
24	0xbec38c63	-0.38193044
25	0x3e50222f	0.2032554
26	0x3dae39ce	0.08507119
27	0x3c0d9bf6	0.008643141
28	0xbdd39701	-0.10331536
29	0x3e4b2a32	0.19840315
30	0x3ef8f37b	0.4862326
31	0xbd8a6d22	-0.06759097
32	0xbefe269c	-0.49638832
33	0x3e544fae	0.2073352
34	0xbe4ea88e	-0.20181486
35	0x3e21d4f1	0.15803887
36	0xbf0380a0	-0.5136814
37	0xbe1081e4	-0.1411205
38	0xbe85c701	-0.2612839
39	0x3eccc798	0.39996028
40	0x3e95167c	0.29118717
41	0x3d90db44	0.070730716
42	0xbd2483d1	-0.040164772
43	0xbd43a881	-0.04776812
44	0xbd070ecb	-0.032973092
45	0xbd8938d4	-0.06700292
46	0x3dde152e	0.108438835
47	0x3e6aabb6	0.22917065
48	0x3e9fb269	0.31190804
49	0xbdf74304	-0.12073329
50	0xbeb53aca	-0.35396415
51	0x3e86f121	0.26355842
52	0xbeb3999b	-0.3507813
53	0xbea92774	-0.33037913
54	0x3e39cfe0	0.18145704
55	0x3e5f6813	0.21817045
56	0xbf4efc07	-0.80853313
57	0xbe9e5d1e	-0.30930418
58	0x3e73bd8d	0.23802777
59	0x3e3e5115	0.18585618
60	0xbc994cbb	-0.018713346
61	0xbe033b9f	-0.12815712
62	0x3ef0acb5	0.47006765
63	0x3e3c420f	0.18384574
64	0x3e2f1e60	0.17101431
65	0xbe44ed7a	-0.19231215
66	0xbe638b30	-0.22221065
67	0xbe38068b	-0.17971246
68	0x3d89c034	0.06726113
69	0x3e0f76f7	0.14010225
70	0x3e5aca20	0.21366167
71	0x3c2c71f0	0.010525212
72	0x3d94185a	0.07231207
73	0xbe449fd6	-0.19201598
74	0x3e816408	0.2527163
75	0x3e824d5d	0.25449648
76	0x3dc777cd	0.09739647
77	0x3e44389e	0.19162223
78	0xbea7874a	-0.32720405
79	0x3dc562a7	0.09637957
80	0xbe1f0edb	-0.1553301
81	0xbc1dd0ab	-0.00963227
82	0x3ecf41fd	0.40480033
83	0xbce06fbb	-0.027397027
84	0x3d3103c1	0.04321647
85	0xbd940a07	-0.07228475
86	0xbe25026c	-0.16114205
87	0xbe15c981	-0.14627649
88	0x3ea77833	0.32708892
89	0x3e87d991	0.26533177
90	0xbe94e962	-0.29084307
91	0xbe8ef568	-0.27921605
92	0xbdbb67e6	-0.091506764
93	0xbe2cb171	-0.16864564
94	0xbd014b88	-0.031566173
95	0xbd9cc7fd	-0.07655332
96	0x3f1ffd02	0.62495434
97	0x3d236f2f	0.039900955
98	0x3c4611ac	0.012089174
99	0xbeb42c26	-0.35189933
100	0x3ec896d3	0.3917757
101	0xbecddc47	-0.4020712
102	0x3d180749	0.037116323
103	0xbf036d5f	-0.5133876
104	0xbe8e95b9	-0.27848604
105	0xbeb04518	-0.34427714
106	0x3e12e2fd	0.14344402
107	0xbec27cb5	-0.3798577
108	0x3e832075	0.256107
109	0xbebd4727	-0.36968347
110	0xbe6ce0af	-0.23132585
111	0x3e9cf393	0.30654582
112	0x3dbca04a	0.0921026
113	0x3d84558f	0.064616315
114	0x3e8c7db6	0.2743966
115	0x3d1b17e0	0.037864566
116	0x3e8e83ad	0.27834836
117	0xbd38e426	-0.045139454
118	0xbeb179cd	-0.3466324
119	0x3ec4bcbc	0.38425243
120	0x3f16f18e	0.58962333
121	0xbda17e8d	-0.07885466
122	0x3e4c8531	0.19972683
123	0xbea0a297	-0.31374046
124	0x3efc8b8c	0.49325216
125	0xbe86bba5	-0.26315036
126	0x3e84d7f9	0.25946024
127	0xbe758b8a	-0.23979011
128	0xbf19624e	-0.59915626
129	0xbda76b77	-0.08174794
130	0x3d02c062	0.03192175
131	0x3d8fd1a8	0.07022411
132	0xbd37ad54	-0.044843033
133	0xbe7432e1	-0.23847534
134	0xbe2937a0	-0.16525126
135	0x3df2614e	0.11834966
136	0x3e09a3a6	0.13441333
137	0xbc3f61aa	-0.011681
138	0x3e2928fd	0.16519542
139	0xbdd2609d	-0.10272334
140	0x3ee0f603	0.43937692
141	0x3e020551	0.1269734
142	0x3e8f2d93	0.27964458
143	0xbdd651c2	-0.10464813
144	0x3e4b83f4	0.19874555
145	0xbe058e06	-0.13042459
146	0xbe8c8ebc	-0.27452648
147	0x3e797b14	0.24363357
148	0xbdd1bfb6	-0.10241644
149	0xbd938d0c	-0.07204637
150	0x3f12f462	0.5740415
151	0xbe1a56cd	-0.15072174
152	0xbf0fc827	-0.56164783
153	0xbd687016	-0.05674752
154	0x3dcac344	0.09900525
155	0x3e91a64e	0.28447193
156	0xbda272bf	-0.07932042
157	0x3d1ab84d	0.03777342
158	0x3e8e13eb	0.2774957
159	0x3da901b6	0.082522795
160	0xbe81fb00	-0.2538681
161	0x3d8fc1b0	0.07019365
162	0x3ed4b3d6	0.41543454
163	0xbde096bd	-0.10966251
164	0xbeb2b4d4	-0.34903586
165	0xbcd3b585	-0.025843391
166	0x3e80a8e0	0.2512884
167	0x3eb46f9e	0.35241407
168	0xbdac5361	-0.08414341
169	0x3ea35031	0.3189712
170	0x3de63899	0.11241264
171	0x3e8f07b8	0.27935576
172	0x3e84616a	0.2585557
173	0xbdff476f	-0.12464797
174	0x3e854bfb	0.2603453
175	0x3c7cab7c	0.015421744
176	0xbe142e15	-0.14470704
177	0xbe9c93dc	-0.30581558
178	0xbe68943c	-0.22712797
179	0x3e82cef2	0.25548512
180	0x3de9221d	0.1138346
181	0x3dd3eff3	0.10348501
182	0x3f094015	0.53613406
183	0xbe794d48	-0.24345887
184	0xbe959c7c	-0.2922095
185	0x3dbc56ed	0.09196267
186	0xbcc6e1ae	-0.024277534
187	0xbea4914f	-0.32142112
188	0xbe2c39c2	-0.16818908
189	0x3dae485f	0.085098974
190	0x3ec96989	0.3933833
191	0x3cc2a71d	0.023761326
192	0xbdef21c2	-0.11676361
193	0x3e037a41	0.12839605
194	0xbea9d697	-0.33171532
195	0x3eb80268	0.35939336
196	0xbf047af3	-0.51750106
197	0x3d4456cb	0.047934335
198	0xbee63249	-0.4496024
199	0x3e0ffa64	0.1406036
200	0xbd1354c1	-0.0359695
201	0x3eb43d4c	0.35203016
202	0x3eb5e8c7	0.35529158
203	0x3e1b4087	0.15161334
204	0xbb158f7b	-0.0022821117
205	0x3ed0ae41	0.40757945
206	0x3d99a4b8	0.07502121
207	0xbf0bf595	-0.54671603
208	0xbecbee66	-0.3983032
209	0xbc258bb8	-0.010104112
210	0x3e2b6ce9	0.16740765
211	0x3cfa2a2f	0.030537693
212	0x3e842382	0.2580834
213	0x3bec3b55	0.0072092214
214	0xbce093de	-0.027414259
215	0x3d8152cf	0.063146226
216	0xbdf4a82a	-0.11946137
217	0xbccf5866	-0.025310706
218	0xbec829cc	-0.39094388
219	0xbd501787	-0.050803687
220	0x3dfa8820	0.12232995
221	0xbd29b8ae	-0.04143589
222	0xbebcc0be	-0.368658
223	0xbe5fc81f	-0.21853684
224	0xbec1356a	-0.37736064
225	0xbe1a8d0a	-0.15092865
226	0xbde19851	-0.1101538
227	0x3e62da41	0.2215357
228	0xbf38fafb	-0.72257966
229	0x3e3a30b4	0.18182641
230	0xbec75199	-0.38929442
231	0x3e79ee7e	0.24407384
232	0x3ecd4b6c	0.40096605
233	0x3e3d43ad	0.18482848
234	0x3d8e58df	0.069505446
235	0x3e7c5841	0.24643041
236	0x3d343587	0.04399636
237	0x3ee09086	0.43860263
238	0xbdb89729	-0.090132065
239	0xbf0cb114	-0.549577
240	0xbe640620	-0.22267962
241	0x3e1c05e1	0.15236618
242	0xbe0c30e9	-0.13690533
243	0x3ef2f3f9	0.4745176
244	0x3eba3816	0.36370915
245	0xbd87b0c6	-0.06625514
246	0x3e6edbb4	0.23325998
247	0x3c07d363	0.008290145
248	0xbebd5f83	-0.36986932
249	0x3c8bf3b6	0.017083984
250	0xbe04eec6	-0.1298171
251	0xbd911939	-0.07084889
252	0xbe60c437	-0.2194985
253	0xbe3aec27	-0.18254147
254	0x3e3b3d77	0.18285166
255	0xbd9a66ba	-0.07539125

conv3.bias f4 [32]
0	0xbcf6dc3a	-0.03013431
1	0xbd3934d7	-0.045216408
2	0x3d3166e5	0.04331102
3	0xbd0510e6	-0.03248682
4	0x3cb7ca8b	0.022435447
5	0xbc912e3d	-0.017722243
6	0x3d5a5750	0.053305924
7	0x3d455741	0.048178915
8	0xbd617305	-0.05504133
9	0xbd397d81	-0.045285705
10	0xbcc98009	-0.024597185
11	0xbd1feabe	-0.039042227
12	0x3d4a5c31	0.049404327
13	0x3d56cdbf	0.05244231
14	0x3c83ef70	0.016105384
15	0x3ca7814e	0.0204474
16	0x3d6b8ad7	0.057505455
17	0xbd1ed3ef	-0.038776334
18	0xbce87793	-0.02837733
19	0xbd1dd047	-0.038528707
20	0xbd57b002	-0.05265809
21	0x3d2b2561	0.041783694
22	0xbdf752af	-0.120763175
23	0x3ca81dc5	0.020522008
24	0xbcb6cea1	-0.022315325
25	0xbd3719d9	-0.044702385
26	0x3b7c99c1	0.0038543793
27	0xbd00eaeb	-0.031474035
28	0xbd8ef9f7	-0.06981271
29	0x3cdb6408	0.026781097
30	0xbdb5fb02	-0.088857666
31	0xbd38b154	-0.04509099

conv4.weight f4 [32, 32]
0	0x3d53c2f7	0.051699605
1	0xbe57e240	-0.21082401
2	0xbe2d6490	-0.16932893
3	0xbe493d0e	-0.19652197
4	0x3dcd7ee2	0.100339666
5	0x3e32571d	0.17416044
6	0xbe959b4c	-0.29220045
7	0x3db63c50	0.088982224
8	0x3d64d5a3	0.055867802
9	0x3f13e9e6	0.57778776
10	0x3e689f99	0.22717132
11	0x3e2924c1	0.16517927
12	0x3e81d048	0.25354218
13	0x3d63fb20	0.055659413
14	0x3e9c60ac	0.30542505
15	0xbed33b5f	-0.41256234
16	0x3e4b8d9b	0.19878237
17	0x3e78e15a	0.24304715
18	0x3db21d62	0.086970106
19	0x3cc7c713	0.024386918
20	0xbdcc0fc3	-0.09963944
21	0x3e7519b0	0.2393558
22	0x3d16729b	0.03673039
23	0x3e4326b5	0.19057734
24	0x3ddcde63	0.107846044
25	0x3d50e663	0.051000964
26	0xbdb9f7f9	-0.090805
27	0xbe95085e	-0.29107946
28	0xbe26c15f	-0.16284703
29	0xbe6696a6	-0.22518405
30	0xbe9fced7	-0.31212494
31	0xbe25c78f	-0.16189407
32	0xbdf5edaa	-0.120082214
33	0x3e509264	0.20368344
34	0x3d3c731f	0.046008226
35	0x3e21d164	0.15802532
36	0xbe201b0e	-0.1563532
37	0x3ea1d6a8	0.31609082
38	0x3e528d42	0.20561698
39	0x3e57c1b1	0.21069981
40	0xbdd30f17	-0.103056125
41	0x3de119ec	0.10991272
42	0x3db93965	0.0904415
43	0xbd65c12e	-0.056092434
44	0x3e046c57	0.12931953
45	0xbdc8e916	-0.098100826
46	0xbe0b03cd	-0.13575669
47	0xbe3538fa	-0.17697516
48	0x3e3d8341	0.185071
49	0x3d841a3e	0.06450318
50	0x3e1935bb	0.14961903
51	0x3e831ddf	0.25608727
52	0x3df357a2	0.11881949
53	0x3e11703a	0.14202967
54	0xbe5da477	-0.2164477
55	0x3e0b09ca	0.13577953
56	0xbdd0f76a	-0.102034405
57	0xbdc3cb2e	-0.09560238
58	0xbdfec738	-0.12440342
59	0xbe228940	-0.15872669
60	0xbdcdf37b	-0.10056206
61	0xbe815796	-0.25262135
62	0x3e56f1d5	0.20990689
63	0x3ba3ee92	0.005002805
64	0x3c71cb9e	0.014758019
65	0xbe684030	-0.22680736
66	0x3da4ce2e	0.08047138
67	0x3e3a8c97	0.18217693
68	0x3e7ad332	0.24494627
69	0xbe8435d4	-0.25822318
70	0xbd9b2763	-0.07575872
71	0x3ea1b4a3	0.31583127
72	0x3e42aa9d	0.19010396
73	0x3ea9d3b8	0.3316934
74	0xbe9ec9ea	-0.31013423
75	0xbe98c5b0	-0.29838324
76	0xbe57f5b7	-0.21089827
77	0x3e4673fb	0.1938018
78	0xbe876009	-0.26440457
79	0x3dd3cb0c	0.103414625
80	0x3e2fdb74	0.17173558
81	0x3d95f110	0.0732137
82	0xbe907eef	-0.28221843
83	0x3d6a05e6	0.05713453
84	0x3ce7b0c4	0.02828253
85	0x3ee8dabc	0.4547938
86	0xbe4991f6	-0.19684586
87	0x3e37c07e	0.17944524
88	0xbd49c030	-0.04925555
89	0xbe8c7b63	-0.27437887
90	0x3e1f7286	0.15571031
91	0xbe0ac426	-0.13551387
92	0x3e9132be	0.28359026
93	0x3e4e8674	0.20168477
94	0xbe7ea2e3	-0.24866824
95	0x3d4c05c0	0.04981017
96	0xbd374bb5	-0.044749934
97	0xbe082b53	-0.13297777
98	0xbe84d773	-0.25945625
99	0xbe62bcae	-0.22142288
100	0xbe8712c8	-0.26381516
101	0x3d336a6e	0.04380267
102	0x3cf9f873	0.030513978
103	0x3d773ca6	0.060360573
104	0xbea36c53	-0.31918582
105	0xbed32d0c	-0.41245306
106	0xbe44a54d	-0.19203682
107	0x3cddd316	0.027078193
108	0xbe8bf7d0	-0.27337503
109	0x3e5ba77e	0.21450612
110	0xbe23e6bc	-0.16005987
111	0x3e763e8d	0.24047299
112	0x3e7896ed	0.24276324
113	0xbdf141c3	-0.11780121
114	0x3e8d6527	0.27616236
115	0xbea5ec1a	-0.32406694
116	0x3d0b2056	0.033966385
117	0xbebb0693	-0.36528453
118	0xbd6c884b	-0.057747167
119	0x3e8e5901	0.2780228
120	0x3e657249	0.22406878
121	0x3d405555	0.04695638
122	0xbdedc832	-0.1161045
123	0x3e360c08	0.17778027
124	0xbe3ff3a8	-0.18745291
125	0x3e4379d7	0.19089447
126	0xbe5aac3c	-0.21354765
127	0xbe6078d9	-0.219211
128	0x3e842c85	0.25815216
129	0xbe7d9d4f	-0.2476704
130	0xbe273965	-0.16330488
131	0x3dfb9964	0.12285116
132	0x3cb711c7	0.022347344
133	0x3ce10d12	0.027472053
134	0xbe86f4de	-0.26358694
135	0xbe44783a	-0.19186488
136	0x3ec92ec4	0.39293492
137	0x3f83bbb6	1.029166
138	0xbe23c016	-0.15991244
139	0x3ce6e0ee	0.028183427
140	0xbe62328f	-0.22089599
141	0x3e2c8426	0.16847286
142	0x3c12a6e0	0.008950919
143	0xbf4287ec	-0.7598865
144	0x3e8d2464	0.27566826
145	0x3e272cc2	0.16325668
146	0xbc830f9b	-0.015998652
147	0x3e139417	0.1441196
148	0x3d7fc55f	0.062444087
149	0xbe2f5728	-0.17123091
150	0xbbee46c0	-0.0072716177
151	0xbda17f26	-0.0788558
152	0xbe1d9849	-0.15390123
153	0x3e7e5864	0.24838406
154	0xbe619a39	-0.22031488
155	0xbe56dbbb	-0.20982258
156	0xbe2046f4	-0.15652066
157	0x3d5a899c	0.05335389
158	0x3e4bee52	0.1991513
159	0x3daf90a3	0.08572509
160	0xbd406a80	-0.046976566
161	0x3d759a7f	0.059961792
162	0xbe8b448a	-0.2720073
163	0xbe9d559d	-0.3072938
164	0xbe08f2c1	-0.13373853
165	0xbe4ec101	-0.20190813
166	0xbe136921	-0.14395572
167	0x3eaf58ab	0.34247336
168	0xbe84cb5b	-0.25936398
169	0xbedf7dda	-0.43650705
170	0x3dde56e7	0.10856419
171	0xbe400a0d	-0.18753834
172	0x3e785f49	0.24255098
173	0x3c2c2421	0.010506661
174	0xbe68d97a	-0.2273921
175	0x3ec3da5e	0.38252538
176	0xbd2eacf7	-0.04264542
177	0xbe1e1ca5	-0.15440615
178	0x3ec44af4	0.38338435
179	0xbdc76e3b	-0.09737822
180	0x3d6653da	0.05623231
181	0xbea07c50	-0.31344843
182	0xbe1eb062	-0.15496972
183	0xbcaf81f1	-0.021424266
184	0x3e00cbeb	0.12577789
185	0xbdb6dd94	-0.089289814
186	0xbd3340b8	-0.043762892
187	0x3e191bec	0.14952058
188	0x3e1546c0	0.1457777
189	0xbdb276bf	-0.08714055
190	0xbd017cdd	-0.03161322
191	0xbe061775	-0.13094886
192	0xbe05728c	-0.13031977
193	0xbe1c51f5	-0.15265639
194	0xbddd57c9	-0.10807759
195	0xbe2fd986	-0.17172822
196	0x3d22aa0f	0.03971296
197	0xbe7a70f6	-0.24457154
198	0x3ddbb1e7	0.107272916
199	0x3c4d020d	0.012512696
200	0x3e96fcee	0.29489845
201	0x3d13cc99	0.03608379
202	0x3e853830	0.2601943
203	0xbe3cee3d	-0.18450256
204	0xbe009a3d	-0.12558837
205	0xbe1eca62	-0.1550689
206	0xbe2dfc8e	-0.16990873
207	0xbeaaae3e	-0.3333606
208	0xbe42d3a0	-0.19026041
209	0xbe5826ec	-0.21108598
210	0x3eb5c97e	0.3550529
211	0xbdf13534	-0.11777726
212	0x3e279c07	0.16368113
213	0x3d31d2d5	0.043413956
214	0x3c5a89b0	0.013338491
215	0x3d8b7e5c	0.068112105
216	0x3d017989	0.031610046
217	0xbdd855a7	-0.10563212
218	0xbce7c07d	-0.028290028
219	0xbe9f959d	-0.31168833
220	0x3d0f5207	0.034990337
221	0xbde0a70a	-0.1096936
222	0xbe2dafea	-0.16961637
223	0x3e5ade39	0.21373834
224	0xbe56bab5	-0.2096966
225	0xbda2d9ee	-0.07951723
226	0x3d887e8f	0.06664764
227	0x3ddba49e	0.107247576
228	0xbdc675a1	-0.09690405
229	0xbcc2ea72	-0.023793433
230	0x3e8450d8	0.2584293
231	0x3eae6a79	0.34065607
232	0xbde48a95	-0.11159245
233	0xbe995baa	-0.29952747
234	0xbe93081b	-0.2871712
235	0x3d92d062	0.07168652
236	0xbe72d1f4	-0.23712903
237	0x3e0d7393	0.1381362
238	0x3ca9ec5b	0.020742586
239	0x3eb9d410	0.36294603
240	0xbe693a23	-0.22776084
241	0xbe818576	-0.25297135
242	0xbe9cb4dc	-0.30606735
243	0xbe9a29d9	-0.30110052
244	0x3e8f0ec3	0.2794095
245	0x3e234b35	0.15946658
246	0xbda038c5	-0.07823328
247	0xbe3b67f1	-0.18301369
248	0xbe326ab1	-0.17423512
249	0x3d317a7e	0.04332971
250	0xbdcc3218	-0.09970492
251	0x3eac8fda	0.337035
252	0xbe4cc196	-0.19995722
253	0xbe38fc5a	-0.18065014
254	0x3e026c08	0.12736523
255	0x3e67a20e	0.22620413

conv4.bias f4 [32]
0	0xbd9e9893	-0.07743945
1	0xbd9c6915	-0.0763723
2	0x3dab65d6	0.08369033
3	0x3d6873bc	0.056750998
4	0x3d943add	0.0723779
5	0xbd92f1fd	-0.07175062
6	0x3d83f5a4	0.064433366
7	0xbd82a20c	-0.06378564
8	0x3d60818d	0.05481105
9	0x3d9300c1	0.07177878
10	0x3d8fcc2c	0.070213646
11	0x3da1bbd5	0.07897154
12	0xbdb7cad9	-0.08974237
13	0xbdc5c6ee	-0.096570835
14	0x3d28b22d	0.041185547
15	0xbdb4a361	-0.088202246
16	0xbd9f88a9	-0.07789738
17	0xbda7e528	-0.08198005
18	0xbd9a1c2b	-0.07524904
19	0x3d9d7a81	0.076893814
20	0x3da47a46	0.08031134
21	0x3d4c56c5	0.049887437
22	0xbdadbd3c	-0.08483359
23	0x3dadaaca	0.08479841
24	0x3ca7ab43	0.020467406
25	0x3da33f12	0.07971014
26	0x3dbb4d02	0.091455474
27	0xbd9572dd	-0.07297299
28	0x3d86a6db	0.06574794
29	0x3da9981e	0.08280967
30	0x3d5e22b6	0.05423232
31	0xbd927d86	-0.07152848

conv5.weight f4 [32, 2]
0	0xbe266ab0	-0.16251636
1	0xbe57451b	-0.21022455
2	0xbe7e9663	-0.24862055
3	0xbdf14ea5	-0.117825784
4	0x3ede85cd	0.43461457
5	0x3ece1c15	0.402558
6	0x3caba5b8	0.020953044
7	0x3d108f1c	0.03529273
8	0x3e3a7c5f	0.18211506
9	0x3e25155b	0.16121428
10	0xbebcf9b7	-0.36909267
11	0x3b91473c	0.0044335406
12	0x3e74a675	0.23891623
13	0xbd60eccc	-0.054913327
14	0xbeca811c	-0.39551628
15	0xbd9959a7	-0.07487803
16	0x3e9c6b2c	0.30550516
17	0xbd73ac39	-0.059490416
18	0xbed157ec	-0.40887392
19	0x3f0c1518	0.54719687
20	0x3dc109a5	0.09425668
21	0x3d13b331	0.036059562
22	0x3c9dc8cf	0.019260792
23	0x3ddb302b	0.10702547
24	0xbe8972e1	-0.26845458
25	0xbef95ecc	-0.48705137
26	0xbd6e1f7a	-0.058135487
27	0xbdcfa814	-0.1013948
28	0xbea0022d	-0.3125166
29	0x3ecc1233	0.39857635
30	0xbe76281a	-0.24038735
31	0xbf258f6c	-0.6467197
32	0x3cbea90a	0.023273963
33	0xbd606427	-0.054783013
34	0xbd60d9e5	-0.0548953
35	0xbe91747a	-0.28409177
36	0x3e93a24d	0.28834763
37	0xbe9a8216	-0.30177373
38	0x3c20e11d	0.009819296
39	0x3eb13974	0.34614146
40	0x3e854804	0.26031506
41	0x3eafdde1	0.34348968
42	0xbe5d58e0	-0.21615934
43	0x3ed63ddb	0.41844067
44	0xbe6298ee	-0.2212865
45	0xbec17bba	-0.37789708
46	0xbb440406	-0.0029909625
47	0x3d8d83cd	0.06909905
48	0x3e8c11d1	0.27357343
49	0xbe3727aa	-0.17886224
50	0x3be0218b	0.006839936
51	0x3cf36d8b	0.02971532
52	0xbe211037	-0.15728842
53	0x3e8c8e7f	0.27452466
54	0xbea0a28b	-0.3137401
55	0xbed39796	-0.41326588
56	0xbc81e6be	-0.015857097
57	0x3d1da991	0.03849179
58	0xbe96b9fb	-0.29438767
59	0x3eca328a	0.39491683
60	0x3e83ab3c	0.2571658
61	0xbe052e3d	-0.1300592
62	0xbe1d4c47	-0.15361129
63	0xbd8906be	-0.06690739

conv5.bias f4 [2]
0	0x3da2b8af	0.07945382
1	0x3e45d228	0.1931845
