GST-recon/checkpoints/best_grid_CapsulePool_0.25.pth (torch, 24666 bytes, 17 tensors)

conv1.weight f4 [2, 32]
0	0xbb789219	-0.0037928878
1	0xbe2df965	-0.16989668
2	0x3d3476fc	0.044058785
3	0xbc4ff1b9	-0.0126919085
4	0xbdff893a	-0.12477346
5	0x3d39416c	0.045228407
6	0xbe3dd3d9	-0.18537845
7	0x3da66a76	0.081257746
8	0xbd86c571	-0.06580628
9	0x3e5d7f3e	0.2163057
10	0x3e813d58	0.25242114
11	0xbcfe91f8	-0.031075463
12	0xbe097ad5	-0.13425763
13	0xbe24d728	-0.160977
14	0x3d6bddd6	0.057584606
15	0x3b98519d	0.004648401
16	0x3cfeaa15	0.03108696
17	0xbe938631	-0.28813317
18	0x3f083516	0.53206
19	0xbe8ee44a	-0.27908546
20	0x3e4c3bf8	0.19944751
21	0xbcbfcf84	-0.02341438
22	0x3f4b0829	0.79309326
23	0xbbae915d	-0.0053273872
24	0x3d8224e1	0.0635469
25	0x3a51d7cd	0.0008004874
26	0x3e3cfbde	0.18455455
27	0x3de8cc18	0.11367053
28	0x3e2d85cd	0.16945572
29	0xbe6fe675	-0.23427756
30	0x3e7bd086	0.24591264
31	0xbe083d9e	-0.13304755
32	0xb9929460	-0.00027957838
33	0x3dcc4731	0.09974516
34	0x3de36a47	0.11104255
35	0x3e5812ec	0.21100968
36	0xbcaf450b	-0.021395227
37	0xbe34c739	-0.17654122
38	0x3d1f7b0c	0.038935706
39	0xbe1c26ce	-0.15249178
40	0x3e057bb9	0.13035478
41	0xbe062e21	-0.13103534
42	0xbe39235e	-0.18079898
43	0x3e932cda	0.28745157
44	0x3e8a5dfb	0.27024826
45	0x3d2f1ab4	0.042750075
46	0xbe2d992e	-0.16952965
47	0x3c58e123	0.0132372705
48	0x3e156657	0.14589821
49	0xbf407c29	-0.75189453
50	0xbec75321	-0.3893061
51	0x3e4e2e6b	0.20134895
52	0x3cf51eb1	0.029921861
53	0xbbb24498	-0.005440306
54	0xbf8e470e	-1.1115434
55	0x3d3abaa2	0.045588143
56	0xbe0431d4	-0.12909633
57	0xbc506332	-0.0127189625
58	0x3dac0b28	0.084005654
59	0x3d3ac746	0.0456002
60	0xbde83e3f	-0.113399975
61	0x3dd9db89	0.10637576
62	0x3cdc7360	0.026910484
63	0xbf0ab604	-0.54183984

conv1.bias f4 [32]
0	0xbd90e331	-0.07074583
1	0x3d935d4a	0.07195528
2	0xba8d0d08	-0.001076133
3	0xbe1e4ac4	-0.15458208
4	0x3daab0de	0.08334516
5	0x3dea8b7e	0.11452387
6	0xbd3153f4	-0.043292955
7	0xbca4349b	-0.020044615
8	0xbe11431d	-0.14185758
9	0x3d3f942a	0.04677216
10	0xbc41deb1	-0.011832879
11	0x3d109fcf	0.035308655
12	0x3dc90d00	0.09816933
13	0x3e2f2a22	0.17105916
14	0x3e9a5a33	0.30146942
15	0x3c63d286	0.013905173
16	0xbdf2512d	-0.11831889
17	0x3eebe811	0.4607549
18	0x3e912868	0.2835114
19	0x3e9b998f	0.30390593
20	0xbe8edc30	-0.27902365
21	0x3cbe318f	0.02321699
22	0x3dd6c181	0.10486127
23	0xbd2177f8	-0.03942105
24	0x3de6ed11	0.112756856
25	0xbd7a1a02	-0.06105996
26	0xbd96dbd5	-0.073661484
27	0xbd94f12b	-0.07272562
28	0xbd7be531	-0.06149787
29	0x3cbe91b0	0.023262829
30	0xbde37e77	-0.11108106
31	0xbf176478	-0.5913768

conv2.weight f4 [32, 32]
0	0x3dae02f7	0.08496659
1	0x3d857079	0.06515593
2	0xbdb2aa55	-0.087238945
3	0xbd3d6dc2	-0.04624725
4	0x3db020e7	0.086000256
5	0x3e06ba07	0.13156901
6	0x3d8b720f	0.06808864
7	0xbdabc7f2	-0.08387746
8	0x3cc81b75	0.024427155
9	0xbd0536f5	-0.032523114
10	0xbe6b0294	-0.22950202
11	0x3e3fe9f1	0.18741585
12	0x3bd2c61d	0.0064323083
13	0xbde7cc72	-0.11318292
14	0x3d2de8f6	0.042458497
15	0xbc616eb5	-0.013759305
16	0x3e02125a	0.12702313
17	0xbe5e1a1b	-0.21689646
18	0xbdfd1300	-0.123571396
19	0xbe0281c4	-0.12744814
20	0xbdf6ecd9	-0.12056894
21	0xbc99d220	-0.018776953
22	0x3d8a835f	0.06763338
23	0x3e1eb9d0	0.1550057
24	0x3c459105	0.012058501
25	0x3e80c8ac	0.251531
26	0xbe1ec1b0	-0.15503573
27	0xbe5b6017	-0.21423374
28	0x3d88ecd8	0.06685799
29	0x3bf2be3a	0.0074079307
30	0xbe0cd681	-0.13753702
31	0xbdeddfe9	-0.11614973
32	0xbe04d8d5	-0.1297334
33	0x3e588cd4	0.21147472
34	0xbe0db03c	-0.1383676
35	0x3e6d1a68	0.23154604
36	0xbe8aadc5	-0.270857
37	0xbe72b4aa	-0.2370173
38	0xbe804329	-0.2505124
39	0x3db3fb04	0.08788112
40	0xbe4479ec	-0.19187135
41	0xbd989002	-0.07449342
42	0x3e503b1e	0.20335051
43	0xbe23b514	-0.15987045
44	0xbd8d4a5c	-0.068989486
45	0x3df5c8b4	0.12001172
46	0xbe73be67	-0.23803101
47	0x3e904017	0.28173897
48	0xbd48cc4d	-0.04902296
49	0xbd5c37e4	-0.05376424
50	0x3e434fe8	0.1907345
51	0xbe17bc40	-0.14817905
52	0xbd8211ba	-0.06351037
53	0x3c294b68	0.01033292
54	0xbe742b64	-0.23844677
55	0x3d96e220	0.07367349
56	0x3dd98f4b	0.10623034
57	0xbe18f931	-0.14938809
58	0x3e50d874	0.2039507
59	0xbe1bdd1c	-0.15221065
60	0x3de4ec7a	0.11177917
61	0xbdc9ad65	-0.098475255
62	0xbe290be5	-0.16508444
63	0xbe5abaa6	-0.21360263
64	0x3d9d6e75	0.07687084
65	0x3e54d59b	0.20784609
66	0xbde39179	-0.11111731
67	0xbcec98cd	-0.028881455
68	0xbe8a954f	-0.27067038
69	0x3e3f80e0	0.18701506
70	0x3e57b317	0.21064411
71	0x3db24a09	0.08705527
72	0xbe492167	-0.19641648
73	0x3df69cab	0.12041601
74	0x3e43f0ea	0.1913487
75	0xbd6a1b96	-0.057155214
76	0xbdf7b5fb	-0.12095257
77	0x3e131995	0.14365228
78	0x3d2452f7	0.040118184
79	0xbe6a2c2c	-0.22868413
80	0xbe870cb2	-0.26376873
81	0xbe0b0b3c	-0.13578504
82	0xbe355620	-0.17708635
83	0xbda0c2bf	-0.07849645
84	0x3e5275af	0.20552705
85	0xbce40bb0	-0.027837604
86	0xbde02dc8	-0.10946232
87	0xbe807153	-0.2508646
88	0xbe97526a	-0.29555064
89	0x3e80257d	0.250286
90	0x3e912748	0.28350282
91	0x3c83657a	0.016039599
92	0xbe81e118	-0.25367045
93	0x3e352c21	0.17692615
94	0x3e238c5c	0.15971512
95	0xbe61ae05	-0.2203904
96	0xbdce92db	-0.10086604
97	0x3df290d6	0.118440315
98	0xbe386739	-0.18008126
99	0xbe3a3153	-0.18182878
100	0x3da0bb77	0.07848256
101	0xbe3e9a1e	-0.18613479
102	0xbe4d9611	-0.20076777
103	0xbe03adeb	-0.12859313
104	0x3e3c8644	0.18410593
105	0x3d95b5ed	0.0731009
106	0x3d7e9ab6	0.062159263
107	0xbe47e1f7	-0.19519792
108	0x3e346221	0.17615558
109	0x3e035e53	0.1282895
110	0xbe293c2a	-0.16526857
111	0xbcc61979	-0.024182068
112	0xbe6da612	-0.23207882
113	0xbbe528fa	-0.00699341
114	0x3d4f4d5f	0.050610896
115	0xbe3c3016	-0.18377718
116	0x3e5c7f36	0.21532902
117	0x3da337fb	0.07969662
118	0xbe1d721e	-0.15375564
119	0x3dfba9f8	0.12288278
120	0xbd20a474	-0.039219335
121	0xbb45adbc	-0.0030163368
122	0xbe399f99	-0.18127288
123	0x3e2602c7	0.16211997
124	0x3e909216	0.28236455
125	0x3e334e05	0.17510231
126	0x3d350b39	0.044200156
127	0x3e9115f2	0.28337055
128	0x3e9bb62d	0.30412427
129	0xbea972c2	-0.33095366
130	0xbd359e49	-0.044340406
131	0xbd7ad7a4	-0.061240807
132	0x3db4f9f8	0.0883674
133	0xbd4382f7	-0.04773232
134	0x3cf2143d	0.029550666
135	0xbe3e35c8	-0.18575203
136	0x3e0156f9	0.12630834
137	0x3ea22a8a	0.3167308
138	0x3c3a3f34	0.011367608
139	0xbe78c5aa	-0.24294153
140	0xbe31d7a7	-0.17367421
141	0xbd33bc9e	-0.04388105
142	0xbd58aeb9	-0.052901004
143	0x3df1a788	0.11799532
144	0x3cfaedcd	0.03063097
145	0x3e342659	0.17592753
146	0x3e31de1e	0.17369887
147	0x3e84e803	0.2595826
148	0xbda5f243	-0.081028484
149	0x3e9f122d	0.31068555
150	0x3e1ea8fb	0.15494148
151	0xbdafde28	-0.08587295
152	0x3e213a33	0.15744857
153	0x3d92557c	0.07145211
154	0x3d42f56e	0.04759734
155	0xbd9422cf	-0.07233202
156	0x3db573a8	0.0885995
157	0xbd19c817	-0.037544336
158	0xbe0a4945	-0.13504513
159	0x3cc2a236	0.023758989
160	0x39a5dd73	0.00031636245
161	0xbe8c423e	-0.2739429
162	0x3dfc9d42	0.12334682
163	0xbe8bc860	-0.27301311
164	0xbe232cd2	-0.15935066
165	0xbe53cff8	-0.20684803
166	0xbdcb53b7	-0.09928077
167	0xbc4c24b0	-0.012459919
168	0x3e8b8e61	0.27257064
169	0x3e161781	0.14657404
170	0x3ede3c2b	0.4340528
171	0x3dd7dc16	0.10540025
172	0x3e5d83c8	0.21632302
173	0xbeafab30	-0.34310293
174	0x3e92e1d5	0.2868792
175	0xbe3bba32	-0.18332747
176	0xba9b5f42	-0.001185395
177	0xbd10e4f5	-0.0353746
178	0xbd9422af	-0.07233178
179	0xbe1a80ae	-0.1508815
180	0xbd96f459	-0.07370824
181	0x3e54eac2	0.20792678
182	0xbd5f0fed	-0.054458547
183	0xbe9367db	-0.28790173
184	0xbe14fcc8	-0.14549553
185	0x3e500bc4	0.20316988
186	0x3c4189e6	0.011812663
187	0xbe0174bf	-0.12642191
188	0xbe414e57	-0.1887754
189	0x3e19c67d	0.15017124
190	0xbdc17bda	-0.09447451
191	0x3e338206	0.17530069
192	0x3e0ebe95	0.13939889
193	0x3e0d023c	0.13770384
194	0xbe96736f	-0.29384944
195	0xbe000cdc	-0.12504905
196	0xbdf19ef5	-0.11797897
197	0x3e98d4c3	0.29849824
198	0xbde1df80	-0.11028957
199	0xbe3bff1c	-0.18359035
200	0x3e1e00c1	0.15429975
201	0x3ddebbd5	0.1087567
202	0x3db0a884	0.08625892
203	0xbe573552	-0.21016434
204	0xbe8c9da9	-0.27464035
205	0x3e92c9c6	0.28669566
206	0xbe9e74b6	-0.30948418
207	0x3bbdc525	0.0057913237
208	0xbdaef9c9	-0.085437365
209	0x3e1cfc38	0.15330589
210	0xbd250cc0	-0.040295362
211	0xbd93e969	-0.07222254
212	0xbdc716fc	-0.09721181
213	0xbdf4eacc	-0.119588464
214	0x3e27cf49	0.16387667
215	0x3e232c18	0.15934789
216	0x3dde9d85	0.10869888
217	0x3e56d153	0.20978288
218	0xbe532e74	-0.20623189
219	0x3c51a698	0.012796067
220	0xbe3cf3f2	-0.18452433
221	0xbd36c8e8	-0.044625193
222	0xbe7a9df6	-0.2447432
223	0xbe7c238e	-0.24622938
224	0x3df44aff	0.11928367
225	0xbe478622	-0.19484761
226	0x3da7cc5f	0.081932776
227	0xbe4b7bd7	-0.1987146
228	0xbdb5cf30	-0.088774085
229	0xbdbd8bf4	-0.092552096
230	0x3d92bb69	0.07164652
231	0x3e2da6c0	0.16958141
232	0x3cae78f0	0.021297902
233	0x3deae5df	0.11469626
234	0xbd8b187f	-0.06791782
235	0x3e362ba8	0.17790091
236	0x3e9b9fa1	0.30395225
237	0xbd9d1e51	-0.07671798
238	0xbc723ff5	-0.014785756
239	0x3dcd7248	0.10031563
240	0x3d613393	0.054980826
241	0xbcfa0b2a	-0.030522902
242	0xbe0b8ffc	-0.13629144
243	0xbe29e2d4	-0.16590434
244	0xbd843382	-0.06455137
245	0xbe8faa47	-0.280596
246	0x3e697a9f	0.22800682
247	0xbe9d36b2	-0.30705792
248	0xbe85de22	-0.26146036
249	0xbc518d6a	-0.012790063
250	0x3e2f9d42	0.17149833
251	0x3e2d369f	0.16915368
252	0xbead5b77	-0.33858845
253	0x3e58d7d8	0.21176088
254	0x3e887738	0.26653457
255	0xbe57945f	-0.21052693

conv2.bias f4 [32]
0	0xbcd5c626	-0.026095461
1	0x3daf9a0c	0.08574304
2	0x3c1371c6	0.008999294
3	0x3d7795ea	0.060445704
4	0xbdcb4d2b	-0.09926828
5	0x3d4e7165	0.05040111
6	0x3cb8cc08	0.022558227
7	0xbdde972e	-0.10868679
8	0xbe101790	-0.14071488
9	0xbdf3eb12	-0.119100705
10	0x3d868095	0.06567494
11	0x3bfa5ae0	0.0076402277
12	0x3d9925ca	0.07477911
13	0xbdf0acd7	-0.117517166
14	0x3cc296fa	0.023753632
15	0xbe07da45	-0.13266857
16	0xbe0bfde1	-0.13671066
17	0x3dd7617e	0.10516642
18	0xbc2b0b79	-0.010439747
19	0x3def2a29	0.11677963
20	0x3cb7990e	0.02241185
21	0x3ca87b94	0.02056674
22	0x3ddd3567	0.10801201
23	0x3d531644	0.051534906
24	0xbd817bb3	-0.06322422
25	0xb8a16410	-7.695716e-05
26	0xbd21745c	-0.03941761
27	0xbdb183c9	-0.08667714
28	0x3d96cf9a	0.073638156
29	0x3cd0e706	0.025500786
30	0x3d01b859	0.03166995
31	0xbd4fe6c7	-0.050757196

pool.gcn_transform.weight f4 [32, 32]
0	0xbca74dc7	-0.02042283
1	0x3d059182	0.03260947
2	0x3dda5335	0.10660402
3	0xbe8a977f	-0.27068707
4	0x3b04a217	0.0020238215
5	0x3d11b687	0.035574462
6	0x3d54b1d2	0.051927395
7	0xbcb235c2	-0.02175415
8	0x3d9f8798	0.07789534
9	0x3de7a1e6	0.113101766
10	0x3ddd5fdc	0.10809299
11	0xbe437766	-0.19088516
12	0xbe6e478d	-0.23269482
13	0x3d8dc43e	0.06922196
14	0x3e07542a	0.132157
15	0x3df4ec65	0.11959151
16	0x3e74296f	0.2384393
17	0x3e3cb842	0.18429664
18	0x3b9e6edf	0.004834994
19	0xbe3d46c7	-0.1848403
20	0xbebe8e33	-0.37217864
21	0xbe41a526	-0.18910655
22	0x3e994b15	0.29940096
23	0x3d869910	0.06572163
24	0x3af82ed9	0.001893486
25	0x3e01ecb6	0.12687954
26	0xbe79e7a5	-0.24404772
27	0x3d16837e	0.036746494
28	0xbe0562bf	-0.1302595
29	0xbe951fb6	-0.29125756
30	0x3e8f79c6	0.28022593
31	0x3c85b5b9	0.016322004
32	0x3d7f4c0c	0.062328383
33	0xbe920b1e	-0.28524107
34	0x3db72710	0.089429975
35	0xbe8619c8	-0.26191545
36	0xbe514ce6	-0.2043949
37	0x3e0132b4	0.12616998
38	0xbdca2f4b	-0.09872302
39	0xbc29d465	-0.01036558
40	0x3e87d70a	0.2653125
41	0x3e563499	0.20918502
42	0xbce85100	-0.028358936
43	0x3e5b1d0f	0.21397804
44	0xbe865232	-0.26234585
45	0x3e0dbd42	0.13841727
46	0xbe9ee06e	-0.310306
47	0xbe5ee846	-0.21768293
48	0x3e60eb28	0.21964705
49	0xba96090c	-0.0011446788
50	0xbdcee947	-0.10103088
51	0x3e7b7588	0.24556553
52	0x3e0500c6	0.12988576
53	0x3d9fc9ee	0.07802187
54	0x3e43e7e0	0.19131422
55	0xbdd7a24d	-0.10529003
56	0x3e423dfd	0.18968959
57	0xbed03c3d	-0.40670958
58	0x3d7406af	0.059576686
59	0xbcd104c7	-0.025514973
60	0xbeb299ae	-0.34882873
61	0x3da2902c	0.07937655
62	0xbe6ff3d1	-0.23432852
63	0xbd861fdc	-0.065490454
64	0xbed8984b	-0.4230369
65	0x3dc85f08	0.09783751
66	0xbec316e4	-0.38103402
67	0x3ea01fd6	0.3127429
68	0x3e9ef9dc	0.31050003
69	0xbed448fc	-0.41461933
70	0xbe162505	-0.1466256
71	0x3e85d793	0.26141033
72	0xbd2f7a6c	-0.04284136
73	0x3d813324	0.063085824
74	0x3d90e48e	0.07074843
75	0x3e1c440f	0.15260337
76	0x3da622cd	0.081121065
77	0xbd67b8c4	-0.05657269
78	0x3e93be4d	0.28856125
79	0xbe6b90ce	-0.23004457
80	0x3ebbad1c	0.3665551
81	0x3f01676f	0.5054845
82	0xbf0666e9	-0.5250078
83	0x3e8825ea	0.26591426
84	0x3e2ddcfb	0.16978829
85	0xbea24843	-0.31695756
86	0x3d3d96dc	0.04628645
87	0x3e508711	0.20364024
88	0x3d1ed84e	0.038780503
89	0x3f05e814	0.5230725
90	0x3eb536c2	0.3539334
91	0x3f52f0db	0.82398766
92	0x3dccb8d0	0.09996188
93	0xbeca25d4	-0.39481986
94	0xbf1372cc	-0.5759704
95	0xbdcd2aed	-0.10017953
96	0x3dd938cc	0.10606536
97	0x3e133442	0.14375404
98	0x3e22bc4b	0.1589214
99	0xbed30168	-0.4121201
100	0xbe87f253	-0.26552066
101	0x3d4911cb	0.049089234
102	0x3e5cdec0	0.21569347
103	0x3e349462	0.17634729
104	0x3dad79db	0.08470508
105	0x3e456dd5	0.19280179
106	0x3e1d07a7	0.1533495
107	0x3ecd4466	0.40091246
108	0x3d784a7b	0.060617905
109	0x3d1d24c5	0.038365144
110	0xbe8daea2	-0.27672297
111	0x3e223381	0.1583996
112	0x3dadbfb1	0.08483828
113	0xbcf62b67	-0.030049993
114	0xbe6e8854	-0.23294193
115	0xbdc87009	-0.09786994
116	0xbe82272e	-0.25420517
117	0x3de5692d	0.11201701
118	0x3d95e8f1	0.07319821
119	0x3e42fc83	0.19041638
120	0xbe1ed0be	-0.15509316
121	0x3e6ae1b1	0.22937657
122	0xbef9e7dd	-0.4880971
123	0x3e9c74d5	0.30557886
124	0x3d93e434	0.07221261
125	0xbe32f3ac	-0.17475766
126	0x3e7d831f	0.2475705
127	0xbe62fe57	-0.22167335
128	0xbe55860a	-0.20851913
129	0x3c255786	0.010091668
130	0x3e4a3833	0.19748001
131	0x3e9cb970	0.30610228
132	0x3d271f28	0.040801197
133	0xbe4c6260	-0.19959402
134	0xbe3af7cc	-0.1825859
135	0x3e2b1d47	0.16710387
136	0xbe326d32	-0.17424467
137	0xbeb7c0b1	-0.358892
138	0xbcb4dbf1	-0.022077532
139	0x3e8b09f3	0.27156028
140	0xbc919c60	-0.01777476
141	0xbbe07373	-0.0068497
142	0x3c8c8587	0.017153515
143	0x3eace3b8	0.33767486
144	0x3e1c8a1c	0.1528706
145	0x3d91eeec	0.07125649
146	0xbf2de8ad	-0.6793316
147	0xbed77148	-0.42078614
148	0x3ead5d24	0.33860123
149	0xbde126e2	-0.109937444
150	0xbdaa9ff8	-0.08331293
151	0xbea153d5	-0.3150927
152	0x3d06ad73	0.032880258
153	0x3f174c58	0.59100866
154	0xbd073ba6	-0.03301587
155	0x3f1b18d4	0.6058476
156	0x3ea1dee7	0.31615373
157	0x3d15407d	0.036438454
158	0x3b51f5ee	0.0032037455
159	0xbdbb78a9	-0.091538735
160	0xbdb862b0	-0.09003198
161	0xbdcabc94	-0.0989925
162	0x3ddddf4b	0.108336054
163	0xbeabab99	-0.33529356
164	0xbe590adb	-0.21195547
165	0xbf00a91b	-0.50258034
166	0x3d6c63de	0.05771243
167	0x3e7df88c	0.24801844
168	0xbe601735	-0.21883853
169	0x3e176374	0.14784032
170	0x3e2bf5b0	0.16792941
171	0x3ec61552	0.3868814
172	0x3ec86877	0.391422
173	0x3e5ece6e	0.21758434
174	0x3ebb5d2a	0.36594516
175	0x3e88d8ab	0.26727805
176	0x3d5fa947	0.054604795
177	0xbf07f283	-0.5310442
178	0x3da1877c	0.0788717
179	0xbe81854b	-0.25297007
180	0x3e75edb9	0.24016465
181	0x3dc4d4f4	0.0961093
182	0xbe0c2a69	-0.13688053
183	0xbdc70c6a	-0.09719165
184	0x3c3bbe04	0.0114588775
185	0x3e679d01	0.22618486
186	0x3df56752	0.119825974
187	0xbd965052	-0.07339539
188	0xbdc7a1f4	-0.09747687
189	0xbd8285f5	-0.063732065
190	0xbdda70fb	-0.106660806
191	0xbe2b2f42	-0.16717246
192	0xbe51579a	-0.20443574
193	0xbe892276	-0.26784104
194	0xbe4988fd	-0.19681163
195	0x3e6b37e5	0.22970541
196	0x3ea6f550	0.32609034
197	0x3eb1bb06	0.34713
198	0xbedf9173	-0.43665656
199	0x3e207d9f	0.1567292
200	0x3e6185a9	0.22023644
201	0x3e97aa7b	0.29622254
202	0xbe5c8a42	-0.21537116
203	0xbd84a302	-0.06476404
204	0xbd6f750f	-0.058461245
205	0xbe74fedb	-0.23925345
206	0x3dffcc04	0.12490085
207	0xbea9cb66	-0.33162993
208	0xbe0f395c	-0.13986725
209	0x3e50ac23	0.20378165
210	0x3ed353d3	0.4127489
211	0x3e8c9403	0.27456674
212	0x3de8b39f	0.11362385
213	0xbd531bdf	-0.05154025
214	0x3e708af7	0.23490511
215	0x3e327fbf	0.17431544
216	0xbe2cb8e7	-0.1686741
217	0xbd909817	-0.07060259
218	0x3dfce71f	0.1234877
219	0xbe62e010	-0.22155786
220	0xbeb83873	-0.35980567
221	0xbde49076	-0.11160366
222	0xbecc0a8d	-0.398518
223	0xbe4e17f2	-0.20126322
224	0x3ebeaa95	0.3723952
225	0xbce4272e	-0.027850714
226	0x3e3a9468	0.18220675
227	0xbe7163cc	-0.23573226
228	0x3e50f846	0.20407209
229	0x3ee65cc7	0.44992658
230	0x3f01f463	0.5076353
231	0xbeed1c4b	-0.46310648
232	0xbe31bd75	-0.17357428
233	0xbd89d169	-0.06729395
234	0x3dfee765	0.12446479
235	0x3e22ff16	0.1591762
236	0xbe9fd5ab	-0.31217703
237	0xbed7d918	-0.42157817
238	0xbe95b510	-0.29239702
239	0x3e76e97c	0.24112505
240	0xbe9eb9a7	-0.31001016
241	0x3d5a1a1c	0.053247556
242	0x3f3812cb	0.71903676
243	0x3eb6d26a	0.35707408
244	0xbe8cdf3d	-0.27514067
245	0x3e271771	0.16317536
246	0xbd926409	-0.071479864
247	0x3e979c11	0.29611257
248	0xbda7bcb4	-0.08190289
249	0xbe5e72b2	-0.2172344
250	0xbc7865c9	-0.015160986
251	0xbeefd4cd	-0.46842042
252	0x3d8f7cd1	0.07006229
253	0xbd2db7ef	-0.04241174
254	0x3ecbe328	0.39821744
255	0x3e0f7794	0.14010459

pool.gcn_transform.bias f4 [32]
0	0xbe0a462f	-0.13503335
1	0x3e507219	0.20356025
2	0x3e17faf4	0.14841825
3	0xbe32de22	-0.1746755
4	0x3ec3ff9b	0.3828095
5	0xbbd292fb	-0.006426213
6	0xbd9cb0ae	-0.076508865
7	0x3d8e2740	0.0694108
8	0xbe24e019	-0.16101111
9	0xbedcf98e	-0.43159145
10	0xbd29ebb4	-0.04148455
11	0xbddce22c	-0.10785326
12	0x3c6cca49	0.014452525
13	0xbef05f2c	-0.4694761
14	0x3c57fea7	0.013183272
15	0x3e4ae857	0.19815193
16	0xbe0653bd	-0.13117881
17	0x3dfd0fcd	0.123565294
18	0x3e4e033a	0.20118418
19	0xbe5cef3e	-0.21575639
20	0x3d39e03e	0.04537987
21	0x3d1ed23e	0.03877472
22	0xbe0c8fba	-0.13726702
23	0xbe06cfd5	-0.13165219
24	0x3e37b18e	0.17938825
25	0x3dd14b8e	0.10219489
26	0x3cce4135	0.025177578
27	0xbeb3507e	-0.35022348
28	0xbe4c0d3b	-0.19926922
29	0x3e5d54d0	0.21614385
30	0xbd0d213b	-0.03445552
31	0xbd8d9a38	-0.069141805

pool.bn_feat.weight f4 [32]
0	0x3f48471a	0.7823349
1	0x3f8048e2	1.0022242
2	0x3fa04f1d	1.2524143
3	0x3f73f2dd	0.95292455
4	0x3f9b7fb8	1.2148352
5	0x3f8c5947	1.0964745
6	0x3f8dfc77	1.1092671
7	0x3f9f6f23	1.2455791
8	0x3f8eb8e8	1.1150179
9	0x3f7bc99a	0.98354495
10	0x3f91d67e	1.1393583
11	0x3f572e80	0.8405533
12	0x3f974209	1.1817027
13	0x3f8e9c42	1.1141436
14	0x3fb0120c	1.3755507
15	0x3f9f42ee	1.24423
16	0x3f8a07f3	1.0783676
17	0x3f893e08	1.0722055
18	0x3f743ead	0.95408136
19	0x3f8776af	1.0583094
20	0x3f8fafd2	1.1225531
21	0x3f47d48c	0.78058696
22	0x3f936859	1.1516219
23	0x3f8403b6	1.0313632
24	0x3f84731d	1.034763
25	0x3f607bdc	0.87688994
26	0x3f65d8bb	0.8978383
27	0x3f7a890a	0.97865355
28	0x3fa59f43	1.2939228
29	0x3f8f00ef	1.117216
30	0x3f978a1f	1.1839026
31	0x3f82c7a4	1.0217175

pool.bn_feat.bias f4 [32]
0	0xbddc06db	-0.10743495
1	0xbdb34d8a	-0.08755024
2	0xbd80f6f9	-0.06297106
3	0x3cd68f64	0.02619142
4	0x3c24745c	0.010037508
5	0x3e75d583	0.2400723
6	0xbd056f66	-0.03257694
7	0x3d40156f	0.04689544
8	0xbd8dfaee	-0.06932627
9	0x3e08c048	0.133546
10	0x3bed95fb	0.007250545
11	0x3df3704d	0.11886654
12	0xbd8d273e	-0.068922505
13	0x3d85453c	0.06507346
14	0x3e6a6b05	0.22892387
15	0x3cb853a4	0.02250082
16	0xbd4c8550	-0.049931824
17	0xbbf50f28	-0.0074786134
18	0x3ddd14eb	0.107950054
19	0x3d6e1a07	0.05813029
20	0xbd7e683c	-0.062111124
21	0xbdc7e249	-0.09759957
22	0x3e59edde	0.21282145
23	0x3cf36698	0.029712006
24	0x3e35ae5f	0.17742299
25	0xbe9fbd60	-0.3119917
26	0xbd802699	-0.06257362
27	0xbc97ed13	-0.018545663
28	0xbe0298ab	-0.1275355
29	0xbe38ea07	-0.18058024
30	0xbd72572d	-0.05916517
31	0xbec9aff5	-0.39392057

pool.bn_feat.running_mean f4 [32]
0	0xbcb23290	-0.021752626
1	0x3c90677a	0.017627466
2	0xbba5c712	-0.0050591314
3	0xbb4a6e82	-0.0030888622
4	0xbc05c33a	-0.008164221
5	0xba73e9a3	-0.0009304529
6	0xbb65be06	-0.003505589
7	0x3c53cc31	0.012927101
8	0x3c2c75d6	0.010526141
9	0xbb56d990	-0.0032783486
10	0x3c4236e2	0.011853905
11	0x3c1275ce	0.00893922
12	0xbc4f2dcc	-0.012645196
13	0x3c430492	0.011902945
14	0xbbd2b090	-0.0064297393
15	0xb9bd8a8c	-0.00036152115
16	0x3c96989d	0.018383319
17	0x3b10a91b	0.002207345
18	0xbc884482	-0.01663423
19	0x3be93e34	0.007118011
20	0xbc1d7183	-0.009609583
21	0xbca3bb05	-0.019986639
22	0x3c15aba0	0.009135157
23	0x3bee6389	0.007275049
24	0xbc5ba10c	-0.013405096
25	0x3c78fb97	0.015196702
26	0x38eb0a04	0.00011207539
27	0x3cfc8484	0.030824907
28	0x3c351b0d	0.011053813
29	0xbc864b0e	-0.01639321
30	0xbc23a88f	-0.009988918
31	0xbcda141d	-0.026620919

pool.bn_feat.running_var f4 [32]
0	0x3aa66ffc	0.0012698169
1	0x3b0cad15	0.002146547
2	0x3a351213	0.00069072953
3	0x3a749d57	0.0009331307
4	0x3ad00a00	0.0015872121
5	0x3b93b046	0.0045070974
6	0x3b0a21a1	0.0021077173
7	0x3b02e2c6	0.0019971593
8	0x3a4bdb14	0.00077764806
9	0x39384a21	0.00017575223
10	0x3b096937	0.0020967254
11	0x3a97c79c	0.0011579874
12	0x3af0e39d	0.0018378381
13	0x3ab4de3b	0.001379914
14	0x3ad95495	0.0016580994
15	0x3b4769fe	0.0030428167
16	0x39d763ef	0.00041082452
17	0x3b0d3b17	0.0021550113
18	0x3b943862	0.004523323
19	0x3c46c16b	0.012131075
20	0x3aa79f28	0.0012788521
21	0x3a8136b4	0.0009858222
22	0x39ee6564	0.0004547044
23	0x3b138547	0.002250986
24	0x3956caba	0.00020484152
25	0x3ae84732	0.0017721413
26	0x3aafb5ca	0.0013405618
27	0x3a9b8834	0.0011866153
28	0x3acbc76a	0.0015547101
29	0x3aa57107	0.0012622186
30	0x3ad44079	0.0016193531
31	0x3b1d1b65	0.0023972627

pool.score_add.weight f4 [1, 32]
0	0xbda92839	-0.08259625
1	0x3d4771dc	0.04869257
2	0x3e2a2e08	0.16619122
3	0x3d4cf9b0	0.050042808
4	0xbdfccd92	-0.12343897
5	0x3dc21f1c	0.0947859
6	0x3d706aba	0.058695532
7	0xbd4d0ea8	-0.050062805
8	0xbd80a5e2	-0.0628164
9	0x3dbc4b75	0.0919408
10	0x3e13d05f	0.14434956
11	0xbd8f6dd3	-0.07003369
12	0xbdec9543	-0.11551907
13	0x3e286566	0.1644493
14	0xbe09d8bd	-0.13461585
15	0x3b999d64	0.004687952
16	0xbd9fda7a	-0.07805343
17	0x3cfb4e1f	0.0306769
18	0xbde5416e	-0.1119412
19	0x3ddfcf6d	0.10928235
20	0x3e012d7c	0.12615007
21	0xbe02dbc9	-0.12779154
22	0x3d6e9278	0.058245152
23	0x3cc37242	0.023858193
24	0x3e2c7546	0.16841611
25	0xbe0a59b7	-0.13510786
26	0xbde4d82c	-0.11174044
27	0xbd1ff110	-0.039048254
28	0xbe05dab0	-0.13071704
29	0xbd772302	-0.06033612
30	0xbdc9e173	-0.09857454
31	0x3c9c196f	0.019055096

conv3.weight f4 [32, 32]
0	0x3f6bfcf5	0.92182857
1	0x3eb157ba	0.34637243
2	0x3f3a700b	0.72827214
3	0xbe9a1aaf	-0.30098483
4	0xbe3a15b0	-0.18172336
5	0x3f627139	0.88454014
6	0x3f5fa3a8	0.87359095
7	0xbecb8394	-0.39748824
8	0x3f3a7139	0.72829014
9	0xbf715a2f	-0.94278234
10	0xbed86924	-0.42267716
11	0xbe131dfd	-0.14366908
12	0x3d8730e4	0.06601122
13	0xbf04eda5	-0.51925117
14	0xbe9c4fb8	-0.3052957
15	0x404098b0	3.0093193
16	0xc0876d1f	-4.2320704
17	0xbeaef1b6	-0.34168786
18	0xbfa15283	-1.2603306
19	0x3cf1357d	0.02944445
20	0x3ebe2edd	0.3714513
21	0xbe5e2c4b	-0.21696584
22	0x3e543610	0.20723748
23	0x3fa6ca4b	1.3030485
24	0xbf0808d6	-0.5313848
25	0x4081ec7e	4.0601187
26	0xbf0024e0	-0.50056267
27	0x3ec8c30b	0.39211306
28	0x3f00f04e	0.50366676
29	0xbe3ece2f	-0.1863334
30	0x3e50c381	0.20387079
31	0xbef2131e	-0.4728021
32	0xbfb9f66f	-1.452833
33	0xbe9ad2b1	-0.3023887
34	0xbf07d387	-0.5305714
35	0xbe986525	-0.29764667
36	0xbddec71c	-0.10877821
37	0x3ecc2bd9	0.39877203
38	0xbfadf452	-1.3590186
39	0x3e5595fd	0.20857997
40	0xbfaa2184	-1.3291478
41	0x3e33f48c	0.17573756
42	0x3e9a358b	0.30118975
43	0x3e8954f7	0.26822636
44	0xbea83383	-0.328518
45	0x3ed7d06e	0.42151207
46	0x3cebf9aa	0.028805573
47	0xc06946ae	-3.644939
48	0x40f35569	7.604176
49	0xbe4b9c8a	-0.19883934
50	0x3fe0c403	1.7559818
51	0xbed32b95	-0.41244188
52	0xbe2c2b20	-0.16813326
53	0x3eb43ad2	0.35201126
54	0xbe2ee82b	-0.17080753
55	0xbfe31893	-1.7741874
56	0x3f1eed66	0.6208099
57	0xc0849544	-4.143221
58	0x3fcd36af	1.6032313
59	0xbef0bb13	-0.47017726
60	0xbea29399	-0.31753233
61	0x3eecfb5a	0.46285516
62	0xbeaa00cd	-0.33203736
63	0xbece3ebb	-0.40282235
64	0xbfd193ca	-1.6373227
65	0x3ef2dd7e	0.4743461
66	0x3ef5a90d	0.47980538
67	0x3ec62365	0.3869888
68	0xbdc83972	-0.09776582
69	0x3d347f3a	0.044066645
70	0xbf030d7d	-0.51192456
71	0xbecdf898	-0.40228724
72	0xbf4490fd	-0.76783735
73	0x3ea41f84	0.32055295
74	0x3f0fc4ea	0.5615984
75	0x3da4af0e	0.080412015
76	0xbe6616ba	-0.22469607
77	0xbe61331c	-0.21992153
78	0x3e8234b1	0.25430825
79	0xc03bb65a	-2.9330049
80	0x40b2b7fc	5.584959
81	0xbe00cd9f	-0.12578438
82	0x3fd45be0	1.6590538
83	0xbe8e6eb8	-0.27818847
84	0x3e8e644d	0.27810898
85	0xbf7313e9	-0.94952255
86	0x3d1cbc53	0.038265537
87	0xbf541280	-0.8284073
88	0x3d4396fa	0.047751404
89	0xc08c8876	-4.391658
90	0x3f229b0d	0.6351784
91	0xbe9ae994	-0.3025633
92	0x3e8f298b	0.27961382
93	0x3cb0b239	0.021569358
94	0x3d259aa2	0.040430672
95	0xbf01d0e5	-0.5070937
96	0x3fb60aa3	1.4221996
97	0xbd05e546	-0.032689355
98	0x3d092311	0.033480708
99	0xbe5534b9	-0.20820893
100	0xbe006b0a	-0.12540832
101	0xbd8d994f	-0.06914007
102	0x3f4cb973	0.79970473
103	0x3ef80714	0.484429
104	0x3f913675	1.1344744
105	0xbe8fe8c8	-0.28107285
106	0xbf30ec6b	-0.69110745
107	0x3d4e52d0	0.050371945
108	0x3f2d5ee7	0.67722934
109	0x3e009e35	0.12560351
110	0xbd4ff70e	-0.05077272
111	0x40303dc5	2.75377
112	0xc0a8c210	-5.2736893
113	0x3eb23d66	0.34812468
114	0xbf9cfad8	-1.2264051
115	0x3f032e6e	0.5124272
116	0xbcc2a2ce	-0.023759272
117	0x3f237774	0.63854146
118	0x3e565ecb	0.20934598
119	0x3fafb1d2	1.3726141
120	0xbce11093	-0.027473724
121	0x40846089	4.136784
122	0xbf39b4f7	-0.72541755
123	0x3f253faf	0.645503
124	0x3e043c76	0.12913689
125	0xbe4881a1	-0.195807
126	0x3ed1b941	0.4096165
127	0x3ed3dd4a	0.41379768
128	0x3f4d1cb7	0.8012194
129	0x3df62d9f	0.1202042
130	0xbf062d1e	-0.52412593
131	0x3f0bef33	0.54661864
132	0xbf126a1e	-0.5719317
133	0xc02cfa7d	-2.7027886
134	0x3f3c041e	0.7344378
135	0x3ec00370	0.37502623
136	0x3fdeb97c	1.7400355
137	0x3fa0d67f	1.2565459
138	0x3e03fcee	0.12889454
139	0xbe4fa590	-0.20278001
140	0xbe341e38	-0.17589653
141	0x3e9cae98	0.30601954
142	0xbeb3c61a	-0.35112077
143	0x3fa41dba	1.2821572
144	0xc135e3f7	-11.3681555
145	0x3f01f56e	0.5076512
146	0xbfa54894	-1.2912774
147	0x3d65da66	0.056116484
148	0x3e28a456	0.16468939
149	0xbf779083	-0.9670488
150	0x3eb64b0f	0.3560414
151	0x402ff797	2.7494867
152	0xbeb57ff1	-0.35449174
153	0x3faedef2	1.3661788
154	0xc063f607	-3.5618913
155	0xbd3fa921	-0.046792153
156	0xbdb5d5eb	-0.08878692
157	0xbefe93ef	-0.4972224
158	0xbcfa8b0b	-0.030583879
159	0x3e6a3941	0.22873403
160	0xbfe79fbe	-1.8095624
161	0x3f3a7f4f	0.7285051
162	0xbeb9c327	-0.36281702
163	0x3fa90888	1.3205729
164	0xbfc3d1a2	-1.529835
165	0xc0c88458	-6.2661552
166	0xbe0cc967	-0.13748704
167	0x3d202ede	0.039107196
168	0x3f9cc750	1.2248325
169	0x3fecc5ad	1.8497826
170	0x3fa26fae	1.2690332
171	0xbc338e98	-0.01095929
172	0xbefa07f1	-0.48834184
173	0xbdf213c4	-0.11820176
174	0xbf94e1ca	-1.1631405
175	0xc05862db	-3.3810337
176	0xc028b96e	-2.6363177
177	0x3e66573e	0.22494218
178	0xbee2e18a	-0.44312698
179	0x3e583bf5	0.21116622
180	0xbe3c157d	-0.18367572
181	0xc058e22e	-3.388805
182	0x3e91facb	0.28511652
183	0x401976e5	2.3978817
184	0xbfba7d25	-1.4569441
185	0xc089f170	-4.3107224
186	0xc0ea5e15	-7.3239846
187	0xbf6d0774	-0.925895
188	0x3e20b5e8	0.15694392
189	0x3e11905c	0.14215225
190	0xbf55309a	-0.83277285
191	0x3d136493	0.035984587
192	0xbf7aa361	-0.97905546
193	0x3ecba4e5	0.39774242
194	0x3e84243d	0.25808898
195	0x3e2ab940	0.1667223
196	0xbe38f2d4	-0.18061382
197	0x3fc4f98c	1.5388656
198	0xbd06f9f4	-0.032953218
199	0xbdcd64b5	-0.10028974
200	0xbf55db5b	-0.83537835
201	0xbeb58b48	-0.35457826
202	0x3ecae4a5	0.39627567
203	0x3eee4ca8	0.4654286
204	0xbec52edc	-0.38512313
205	0xbdca18c9	-0.09868009
206	0x3ef9c538	0.48783278
207	0xc02631e4	-2.596795
208	0x412923ec	10.57127
209	0xbead7904	-0.3388139
210	0x4004a314	2.0724535
211	0xbe35f573	-0.17769413
212	0x3effd4b7	0.49966976
213	0xbe75d338	-0.24006355
214	0xbe0b159c	-0.13582462
215	0xbfae1155	-1.3599039
216	0x3efea909	0.4973834
217	0xc0176b08	-2.3659077
218	0x3ff0ffd4	1.8828073
219	0xbe4df3b6	-0.201125
220	0x3ec86272	0.39137608
221	0x3e25e8a5	0.16202028
222	0xbe2390b8	-0.15973175
223	0xbefd579a	-0.49480897
224	0xbe073cb9	-0.13206758
225	0xbec4c0b7	-0.3842828
226	0xbe5e9911	-0.21738078
227	0xbfa78f09	-1.3090526
228	0x3f2c0617	0.6719679
229	0x4048b816	3.1362357
230	0xbf246880	-0.64221954
231	0x3e839166	0.25696868
232	0xbfa5e9d4	-1.2961984
233	0xbfa05862	-1.2526972
234	0x3d9199e8	0.071094334
235	0x3e35487d	0.17703433
236	0x3e2b5762	0.16732553
237	0x3edb1b74	0.42794383
238	0x3ed9f5a4	0.4257022
239	0xbf017920	-0.5057545
240	0x40d90c3f	6.782745
241	0x3e76a6a7	0.2408701
242	0x3f4f0664	0.80869126
243	0xbeff4cdf	-0.49863335
244	0x3b30cb68	0.0026976708
245	0x3fbcbb97	1.4744748
246	0xbe581cd0	-0.21104741
247	0xc025dc59	-2.591574
248	0x3f80bfd4	1.0058541
249	0xbe5bcfc4	-0.21465975
250	0x40825423	4.0727706
251	0x3eb16ace	0.34651798
252	0xbe5af28b	-0.21381585
253	0x3f049515	0.5178998
254	0x3e83cc9f	0.2574205
255	0x3e4e3694	0.20138007

conv3.bias f4 [32]
0	0x3df5fd2e	0.12011181
1	0xbd10f169	-0.035386477
2	0x3c243a7d	0.01002371
3	0xbd99dbec	-0.0751265
4	0xbd76eb46	-0.060282968
5	0x3c09a69f	0.008401542
6	0x3d8d6e4e	0.069058046
7	0xbd3be78f	-0.04587513
8	0xbc78899e	-0.015169529
9	0x3e3d9438	0.18513572
10	0xbd5fcac5	-0.054636735
11	0xbc5e5534	-0.013570119
12	0x3cac8aac	0.021062218
13	0xbbeb09f4	-0.0071728174
14	0x3c1daae8	0.009623267
15	0xbcea752d	-0.028620327
16	0x3c8d9ae1	0.017285766
17	0xbcaec808	-0.021335617
18	0x3d10eb9f	0.035380956
19	0xbcd5ff05	-0.02612258
20	0x3b83892b	0.0040141544
21	0x3d23f7ff	0.04003143
22	0x3b831a65	0.004000949
23	0xbb439208	-0.002984168
24	0xbcdbb008	-0.026817337
25	0xbd26600e	-0.04061895
26	0x3d0fb41e	0.035083883
27	0x3caf61ee	0.021409001
28	0xbc6c904c	-0.0144387
29	0x39d016bb	0.00039689787
30	0x3c3ed06c	0.011646371
31	0x3c649e32	0.013953732

conv4.weight f4 [32, 32]
0	0xbda0a9d0	-0.07844889
1	0xbf40ec98	-0.75361013
2	0x3e7aa592	0.24477223
3	0x3eedcefd	0.46446982
4	0xbe28d71f	-0.16488312
5	0xbe8072ac	-0.25087488
6	0xbde4df46	-0.111753985
7	0x3f846d8a	1.0345929
8	0x3d50b51d	0.050953973
9	0x3f6f163e	0.93393314
10	0xbc3f12c2	-0.011662187
11	0xbec840ca	-0.3911193
12	0xbe7e5a19	-0.24839057
13	0x3ef858dd	0.48505297
14	0xbe457cd8	-0.19285905
15	0x3ec2075a	0.37896234
16	0x3e34beab	0.17650859
17	0x3f0a0a69	0.53922135
18	0x3e3cd7f0	0.18441749
19	0xbec16a69	-0.37776497
20	0xbed83fc2	-0.42236143
21	0x3e2d3c3c	0.16917509
22	0xbea80739	-0.3281801
23	0xbee54e03	-0.4478608
24	0x3fe6d01c	1.803226
25	0xbeffc840	-0.49957466
26	0x3e289eb6	0.16466793
27	0x3eb160eb	0.34644255
28	0xbd869afa	-0.06572528
29	0x3f016e03	0.5055849
30	0x3f1e1560	0.61751366
31	0xbeb60d53	-0.3555704
32	0xbee18e12	-0.44053704
33	0x3d68c85f	0.056831714
34	0xbcfadbe7	-0.030622436
35	0xbcfbcbc9	-0.03073682
36	0xbef64ae7	-0.4810402
37	0x3eea2a5a	0.45735437
38	0x3ee775d4	0.45207083
39	0xbbdc117c	-0.0067159515
40	0x3dbfd286	0.09366326
41	0xbf09ec82	-0.5387651
42	0x3f0410dd	0.5158823
43	0xbe8c75e7	-0.27433702
44	0x3db08712	0.086195126
45	0xbef75a39	-0.48311022
46	0xbd221653	-0.03957207
47	0x3db93170	0.090426326
48	0x3eb2dfc2	0.3493634
49	0xbe2b122b	-0.1670615
50	0x3de42878	0.11140531
51	0x3f2432d9	0.6414009
52	0x3cc40f02	0.023932938
53	0xbe80f2e7	-0.2518532
54	0xbe77b9a8	-0.24191916
55	0xbeeadc5f	-0.45871255
56	0xbdb200cd	-0.08691559
57	0x3ee0f31e	0.43935484
58	0x3f2f4bc6	0.68474996
59	0x3cf15db1	0.02946362
60	0x3ec9ef7c	0.39440525
61	0x3e08963f	0.13338564
62	0xbd8781d9	-0.06616563
63	0xbec95b77	-0.39327595
64	0xbddc894e	-0.10768376
65	0xbdc4c866	-0.096085355
66	0xbf074d13	-0.5285198
67	0x3e9fbf07	0.3120043
68	0x3e9256f1	0.28581956
69	0x3e3a5b9e	0.18199012
70	0xbda38b7d	-0.0798559
71	0xbf064ccf	-0.5246095
72	0x3e743358	0.23847711
73	0xbec2dc4a	-0.38058692
74	0xbe55139a	-0.20808259
75	0x3e2544cd	0.16139527
76	0x3e6ca8a9	0.23111214
77	0x3dfa4e34	0.12221947
78	0xbcd479fa	-0.02593707
79	0xbee8777f	-0.45403668
80	0xbd4111d0	-0.047136128
81	0x3eb8bb3d	0.3608035
82	0x3f20c8dc	0.6280649
83	0x3f372614	0.7154248
84	0x3ebd3cc8	0.36960435
85	0x3ea1b286	0.31581515
86	0x3e6365f6	0.22206864
87	0xbcddde63	-0.027083581
88	0x3e6591ea	0.22418943
89	0xbe383e09	-0.17992415
90	0x3da0c4be	0.078500256
91	0x3d31e1bd	0.04342817
92	0x3f04f241	0.5193215
93	0xbe989348	-0.29799867
94	0x3d901117	0.0703451
95	0xbeac26ac	-0.33623254
96	0x3e3d65c4	0.18495852
97	0x3ea965ce	0.33085483
98	0x3f631242	0.88699734
99	0xbe0a3756	-0.13497671
100	0x3ceedbdd	0.029157573
101	0x3f373502	0.7156526
102	0xbd8c5049	-0.06851251
103	0xbea0544d	-0.31314316
104	0xbecd9a6b	-0.40156874
105	0xbe8c7672	-0.27434117
106	0x3a8bddb0	0.0010670926
107	0xbe595150	-0.21222425
108	0xbec3fcbc	-0.3827876
109	0xbf7d7789	-0.9901052
110	0xbdf2e6d3	-0.118604325
111	0xbe5dba84	-0.21653181
112	0xbe0007de	-0.12503001
113	0xbf867f33	-1.0507568
114	0xbea23c28	-0.3168652
115	0x3f4de6d4	0.8043034
116	0x3de2777d	0.11057947
117	0x3dcb41fb	0.09924694
118	0xbd93e6ae	-0.07221733
119	0x3e7520bd	0.2393827
120	0xbf6008e6	-0.8751358
121	0x3f1ef23f	0.6208839
122	0x3e07f1a0	0.13275766
123	0xbddfa51f	-0.10920166
124	0xbe1b980d	-0.15194722
125	0x3c83b7c2	0.016078833
126	0xbd666196	-0.05624541
127	0x3d876696	0.066113636
128	0x3e8e5127	0.2779629
129	0xbf0c3528	-0.5476861
130	0xbec74512	-0.38919884
131	0xbb41079c	-0.0029453998
132	0x3e95709d	0.2918748
133	0xbf8321bf	-1.0244673
134	0x3e04ea9f	0.12980126
135	0x3ea49d3a	0.32151204
136	0x3d81a6c5	0.06330637
137	0x3e929761	0.28631118
138	0xbe8396d7	-0.2570102
139	0x3df122ac	0.11774191
140	0x3ec9ff91	0.39452794
141	0x3f7d44fe	0.989334
142	0xbe0bf5e0	-0.13668013
143	0xbdcfd127	-0.101473145
144	0xbdcbcac4	-0.09950784
145	0x3f8e29a0	1.1106453
146	0xbc241805	-0.010015492
147	0xbf900582	-1.1251681
148	0x3daebdce	0.08532296
149	0x3e0c3868	0.13693392
150	0x3e90487a	0.28180295
151	0xbd29b5c2	-0.041433103
152	0x3f457fc1	0.7714806
153	0xbe8bb41d	-0.27285853
154	0xbd316e9b	-0.043318372
155	0xbe84ae91	-0.25914434
156	0x3e68009e	0.22656485
157	0x3e9ba37d	0.3039817
158	0xbcb7b77c	-0.02242636
159	0x3df0463d	0.11732147
160	0xbded0b74	-0.1157445
161	0x3e9fab98	0.31185603
162	0xbf88c18c	-1.0684066
163	0xbd51a3e6	-0.051181696
164	0xbe8831aa	-0.2660039
165	0xbfd1ac8c	-1.6380782
166	0x3e12329c	0.14277118
167	0x3fea67b8	1.8312902
168	0x3e262fdd	0.16229196
169	0xbe6c258b	-0.23061197
170	0xbcdc8b02	-0.026921753
171	0xbe9155b5	-0.28385702
172	0xbeb2e83c	-0.34942806
173	0x3f31f9b8	0.69521666
174	0x3e842cfc	0.2581557
175	0x3e6511e2	0.22370103
176	0xbd8a9e2d	-0.06768451
177	0x4007090f	2.109928
178	0x3da95ef7	0.08270066
179	0xbfde2726	-1.7355697
180	0x3d0c9eea	0.03433124
181	0x3e49f3ae	0.19721863
182	0xbeaf7a8d	-0.34273186
183	0x3e3648b6	0.17801175
184	0x3e62bdd6	0.22142729
185	0xbfc86cfb	-1.5658258
186	0xbe9d1466	-0.30679625
187	0xbe1a65c5	-0.15077884
188	0x3ef0839b	0.46975407
189	0x3d984019	0.07434101
190	0x3e3bf867	0.18356477
191	0xbea23102	-0.31678015
192	0xbdd85b3f	-0.10564279
193	0xbe2b8204	-0.16748816
194	0xbab16806	-0.001353503
195	0x3ddff1a4	0.10934761
196	0xbdc30358	-0.09522122
197	0x3e8cc680	0.27495193
198	0xbe99f3b7	-0.30068752
199	0x3f5b1bc7	0.8558926
200	0x3e2692bc	0.16266912
201	0x3f07644a	0.52887404
202	0x3e5566db	0.20840017
203	0xbebb6bff	-0.36605832
204	0xbb181140	-0.0023203641
205	0xbd7913aa	-0.06080977
206	0x3e206c16	0.15666232
207	0x3e28a1d6	0.16467986
208	0x3dee272e	0.11628567
209	0xbf0bf66e	-0.54672897
210	0x3e847a25	0.2587444
211	0x3e7e5fe5	0.24841268
212	0xbd071cd7	-0.03298649
213	0x3ea37f0e	0.31932873
214	0x3ebd52fb	0.36977372
215	0xbf1672b7	-0.5876879
216	0x3f607588	0.8767934
217	0xbf3e67cc	-0.7437713
218	0x3e186916	0.14883837
219	0xbd9b7bfa	-0.07592006
220	0x3edbed2f	0.42954394
221	0x3e7d760f	0.24752067
222	0x3f0c4432	0.5479156
223	0xbedbf7a6	-0.42962378
224	0xbded9298	-0.11600226
225	0xbe76477d	-0.24050708
226	0x3e9c8b2e	0.30574936
227	0x3db8fd34	0.0903267
228	0xbe9f45da	-0.3110798
229	0x3e5d6ad0	0.21622777
230	0x3ebbedeb	0.36704955
231	0x3cd1f1a7	0.025627924
232	0xbeb0fbaa	-0.34567004
233	0x3e70aef9	0.23504247
234	0xbe3596c2	-0.17733291
235	0x3e36f46c	0.17866677
236	0xbd3ea28e	-0.046541743
237	0x3e0106cf	0.12600254
238	0x3e193cfe	0.14964673
239	0x3f1a4957	0.6026816
240	0x3e88d284	0.2672311
241	0xbf1a7b4d	-0.6034439
242	0xbe1ef098	-0.15521467
243	0xbe4643fc	-0.19361871
244	0xbe3991a4	-0.18121964
245	0xbe1e24f3	-0.15443783
246	0x3e02ce45	0.12773998
247	0x3e1bcee0	0.15215635
248	0x3ed1e28b	0.4099315
249	0xbee25143	-0.44202623
250	0x3d1fc73c	0.039008364
251	0x3e3c3701	0.18380357
252	0xbd9e3dfb	-0.077266656
253	0x3ed570b6	0.41687554
254	0x3ea05f8c	0.31322896
255	0xbe74a610	-0.23891473

conv4.bias f4 [32]
0	0x3dc22ca0	0.09481168
1	0x3d4176ac	0.047232315
2	0x3bcaf16b	0.00619333
3	0xbd89cb25	-0.067282
4	0x3e11b0a2	0.14227536
5	0xbd93a6d1	-0.07209552
6	0xbe521ece	-0.20519564
7	0xbcdbc3a5	-0.026826689
8	0xbd9a18ab	-0.07524236
9	0x3c330535	0.010926534
10	0xbdb1fec4	-0.08691171
11	0xbd1150da	-0.035477497
12	0x3e24a0c0	0.16076946
13	0xbc6fd98d	-0.0146392705
14	0xbd72656f	-0.059178766
15	0xbd8be6e5	-0.06831149
16	0xbe0305cd	-0.12795182
17	0x3ad26a5b	0.0016053425
18	0x3d2f0f61	0.042739276
19	0xbd4751d6	-0.04866203
20	0x3d860d9d	0.06545565
21	0xbd96572a	-0.07340844
22	0x3e11b0ba	0.14227572
23	0x3d14b689	0.03630689
24	0xbd158cf4	-0.036511377
25	0xbd94b9b5	-0.07261983
26	0x3a85df43	0.0010213632
27	0xbdcacb73	-0.09902086
28	0x3d09e432	0.03366489
29	0xbd41d4a1	-0.04732192
30	0x3c91d6b6	0.017802577
31	0xbda5dca6	-0.08098726

conv5.weight f4 [32, 2]
0	0xbd60b839	-0.05486319
1	0x3d0b645e	0.034031264
2	0xbf07f038	-0.5310092
3	0x3e461255	0.1934293
4	0x3c8c67d9	0.017139362
5	0xbf2b675e	-0.669546
6	0xbdef2e62	-0.11678769
7	0xbe2bf0a7	-0.1679102
8	0x3e746a98	0.23868787
9	0x3e326c21	0.1742406
10	0xbf0e51bd	-0.5559347
11	0xbf193c40	-0.5985756
12	0x3d14104f	0.036148366
13	0xbdfff2f3	-0.12497511
14	0xbf139f90	-0.5766535
15	0x3d1448d3	0.036202263
16	0xbe799577	-0.24373423
17	0xbd7db4f7	-0.06194016
18	0x3e76b6c9	0.24093165
19	0xbedbc6bb	-0.42925057
20	0xbd98a162	-0.07452656
21	0xbe7e02c3	-0.24805741
22	0x3d4775e6	0.04869642
23	0xbe6c0d35	-0.23051913
24	0x3d34a945	0.04410674
25	0xbdcc5efc	-0.09979054
26	0xbf50ba84	-0.815346
27	0xbf25536f	-0.64580435
28	0xbd9fcf0d	-0.07803164
29	0xbddce678	-0.10786146
30	0x3e5bc76f	0.21462797
31	0xbe52dad9	-0.20591296
32	0xbe886db7	-0.26646206
33	0xbe9dce51	-0.3082147
34	0xbe9d0784	-0.30669796
35	0xbf4b10a2	-0.79322255
36	0xbe076348	-0.13221467
37	0x3e9d4b27	0.307214
38	0xbf22e921	-0.63636976
39	0xbec8be74	-0.39207804
40	0x3dbc048f	0.09180557
41	0x3ee59e92	0.44847542
42	0xbe8dfc3b	-0.277315
43	0x3de21176	0.11038487
44	0x3e305399	0.1721939
45	0xbbf99263	-0.0076163276
46	0x3e873636	0.26408547
47	0x3ea872ad	0.3289999
48	0x3f01b6b2	0.50669396
49	0x3d6a2acf	0.05716973
50	0x3f3f8fa1	0.74828535
51	0xbef335b3	-0.47501907
52	0xbd95b2a5	-0.07309464
53	0x3ebb9158	0.36634326
54	0xbdffd69c	-0.12492105
55	0xbe893329	-0.26796845
56	0x3d484898	0.048897356
57	0x3ee304c6	0.4433958
58	0xbe990c17	-0.29892036
59	0xbeabd06e	-0.33557457
60	0x3eb186a0	0.34673023
61	0x3c90d979	0.017681824
62	0x3d42a2ef	0.047518667
63	0xbe423d03	-0.18968587

conv5.bias f4 [2]
0	0x3ed3d1bb	0.4137095
1	0x3ebc1ce6	0.36740798
