GST-recon/checkpoints/best_ring_ASAP.pth (torch, 29548 bytes, 18 tensors)

conv1.weight f4 [2, 32]
0	0x3e444aaf	0.19169115
1	0xbebb27ad	-0.36553708
2	0x3da11658	0.0786559
3	0xbe1cef96	-0.1532577
4	0xbdc6d042	-0.09707691
5	0x3e426a75	0.18985923
6	0xbdf87401	-0.12131501
7	0x3e78713c	0.24261945
8	0xbea70cc2	-0.3262692
9	0x3ed4fdc8	0.4159987
10	0x3f1987e9	0.5997301
11	0xbe21c133	-0.15796356
12	0xbebc8ae7	-0.36824724
13	0xbeb41778	-0.35174155
14	0xbd801344	-0.062536746
15	0x3d333df3	0.04376025
16	0xbe203cea	-0.15648237
17	0xbb30804c	-0.002693194
18	0x3f2442ca	0.6416441
19	0xbf2ae011	-0.6674815
20	0xbd463ca0	-0.04839766
21	0x3dea753a	0.114481404
22	0x3f13951b	0.5764939
23	0x3e1debcc	0.1542198
24	0xbd20ce0f	-0.039259013
25	0x3e377425	0.179154
26	0x3eb8c6de	0.36089224
27	0xbe6db824	-0.23214775
28	0x3e005aca	0.12534633
29	0xbefd34b2	-0.49454266
30	0x3f30f329	0.6912103
31	0x3f240326	0.64067304
32	0x3f295730	0.6614866
33	0xbee9fa2b	-0.45698676
34	0x3f59103e	0.8479041
35	0x3f36c60e	0.7139596
36	0xbef96888	-0.48712564
37	0xbed3130a	-0.41225463
38	0xbee5de6a	-0.4489625
39	0x3c90d455	0.017679373
40	0x3e13bd02	0.1442757
41	0x3e727cfb	0.23680489
42	0x3f132652	0.5748035
43	0x3e850b94	0.25985396
44	0x3e9e5602	0.30924994
45	0xbf6dcfa2	-0.9289495
46	0xbf392401	-0.7232056
47	0xbeb1693d	-0.34650603
48	0x3f0d4c0b	0.5519416
49	0xbf5e5d05	-0.86860687
50	0x3e4b3815	0.19845612
51	0xbf09185f	-0.5355281
52	0x3f2107bc	0.62902427
53	0xbf03744a	-0.5134932
54	0xbe86a600	-0.26298523
55	0x3f4d8873	0.8028633
56	0xbecde788	-0.40215707
57	0x3f4794d4	0.7796147
58	0x3f413cd7	0.7548346
59	0x3ed985ca	0.42484885
60	0x3f6df161	0.9294644
61	0xbf0a4acc	-0.5402038
62	0x3f68cdca	0.9093901
63	0xbe9ba891	-0.30402043

conv1.bias f4 [32]
0	0xbedbd98f	-0.42939422
1	0xbd60b3a6	-0.054858826
2	0x3e28c900	0.16482925
3	0x3e963914	0.29340422
4	0xbd26e1f3	-0.040742826
5	0xbed468db	-0.41486248
6	0xbe5f3323	-0.21796851
7	0xbe33e352	-0.17567185
8	0x3ebbef80	0.36706161
9	0x3e1b982e	0.1519477
10	0xbdc9d9e1	-0.0985601
11	0x3c0bdc53	0.008536416
12	0x3e7f0db8	0.24907577
13	0x3daebc45	0.08532003
14	0xbe56b690	-0.2096808
15	0xbe909a0f	-0.28242537
16	0x3ec46508	0.3835833
17	0xbea27945	-0.31733146
18	0xbd88f3a4	-0.06687096
19	0x3e79d40b	0.24397294
20	0x3ef45428	0.47720456
21	0xbe6d8d1b	-0.23198359
22	0xbdf8fc21	-0.12157465
23	0xbcde2536	-0.027117353
24	0xbd55a4eb	-0.05215923
25	0x3de35c87	0.111016326
26	0x3dd52d1c	0.104089946
27	0x3dfef383	0.1244879
28	0xbac4ba19	-0.0015009075
29	0xbd2a6be9	-0.041606817
30	0xbe0430ef	-0.12909292
31	0xbe67f60d	-0.22652455

conv2.weight f4 [32, 32]
0	0xbcedd075	-0.029030064
1	0x3e8830e7	0.2659981
2	0x3d7223f7	0.05911633
3	0x3f9c8ffc	1.223144
4	0x3e377b0e	0.17918035
5	0x3ea45eed	0.32103673
6	0x3f34b12e	0.70582855
7	0xbe66ff14	-0.22558242
8	0x3de5b45f	0.11216044
9	0x3f2eb226	0.6824058
10	0xbe6bf01f	-0.23040818
11	0x3e7c6380	0.24647331
12	0x3e806724	0.2507869
13	0xbcc60857	-0.024173899
14	0x3f2d30b1	0.6765242
15	0xbf6a20f9	-0.9145656
16	0x3f667ce6	0.9003433
17	0xbf014580	-0.50496674
18	0xbec16997	-0.3777587
19	0xbe08070b	-0.13283937
20	0xbf7e1ca8	-0.99262476
21	0xc0046106	-2.0684218
22	0xbec8f722	-0.39251047
23	0x3e78fb7b	0.24314682
24	0x3e9e446c	0.30911577
25	0x3e5a5d84	0.21324736
26	0xbf87fb8b	-1.062364
27	0xbfaad274	-1.3345475
28	0xbf7749ca	-0.9659697
29	0x3ef100b8	0.4707086
30	0xbefb3a41	-0.49067882
31	0xbf00abbc	-0.50262046
32	0xbe305146	-0.17218503
33	0x3d8bcf86	0.06826691
34	0x3ef66ea3	0.48131284
35	0x3e49c59f	0.19704293
36	0xbf010298	-0.5039458
37	0xbf11221f	-0.5669269
38	0xbe9d27d1	-0.3069444
39	0x3dd87b8d	0.105704404
40	0x3e4711de	0.1944041
41	0xbe5caa2b	-0.21549289
42	0x3eccc073	0.39990577
43	0x3e6be8c1	0.23038007
44	0xbebdd24a	-0.370745
45	0x3ebfbabe	0.3744716
46	0xbe70645c	-0.23475784
47	0x3e842d88	0.25815988
48	0x3ce88a26	0.028386187
49	0x3e028f1d	0.12749906
50	0x3e37ea9e	0.17960593
51	0xbd2a7471	-0.041614953
52	0xbd63be3f	-0.055601355
53	0xbdc7991d	-0.09746001
54	0xbe173cc6	-0.14769277
55	0x3eb00478	0.3437841
56	0x3b25a328	0.002527425
57	0xbeee7192	-0.46571022
58	0x3e89b85f	0.26898476
59	0xbe0b90fd	-0.13629527
60	0x3e25b19e	0.16181037
61	0xbd1f2116	-0.038849913
62	0xbe5b4cfc	-0.21416086
63	0xbdbe04d9	-0.09278268
64	0x3f0beb0a	0.54655516
65	0x3ea5b06c	0.32361162
66	0xbf9c0e31	-1.2191831
67	0x3dd2455e	0.10267137
68	0x3eef10c9	0.46692494
69	0x3f4bd204	0.79617333
70	0x3f3b01a9	0.7304941
71	0xbed729c4	-0.42024052
72	0xbf8f0bb7	-1.117545
73	0x3ea253ec	0.31704652
74	0x3e13d975	0.14438422
75	0xbee153de	-0.44009298
76	0x3e14a9e9	0.1451794
77	0xbe68bd5c	-0.22728485
78	0x3e3bc38b	0.18336312
79	0xbe37e26e	-0.1795747
80	0xbe6ab9fb	-0.22922508
81	0xbf02f977	-0.51161903
82	0x3e138114	0.14404708
83	0xbeebe105	-0.46070114
84	0x3dcec9b4	0.100970656
85	0xbe5c16dd	-0.21493097
86	0xbed6cfa9	-0.41955307
87	0xbf7174e6	-0.94319
88	0xbe842eea	-0.25817043
89	0x3f9e9d5b	1.2391771
90	0x3e1be909	0.15225615
91	0xbe4e3818	-0.20138586
92	0xbed59418	-0.4171455
93	0x3f063a3b	0.524326
94	0x3ed7d309	0.42153195
95	0xbdf4a2b6	-0.11945097
96	0x3f02fede	0.51170146
97	0x3d9ab6ce	0.075543985
98	0xbeebf82a	-0.46087772
99	0xbeabbbd7	-0.33541748
100	0x3e7332d3	0.23749857
101	0x3cc60f72	0.024177287
102	0x3d91df30	0.07122648
103	0xbf0dd96b	-0.5540988
104	0xbd2b36c7	-0.041800287
105	0xbd971719	-0.073774524
106	0x3e644e71	0.22295548
107	0xbe510f5a	-0.20416012
108	0x3e4888b5	0.195834
109	0xbe2d8034	-0.16943437
110	0xbe75a24e	-0.23987696
111	0x3ddc3048	0.107513964
112	0xbeb47cc4	-0.3525144
113	0xbe2bd200	-0.16779327
114	0x3ef78168	0.48340917
115	0xbe5629d0	-0.20914388
116	0x3ebdfa5e	0.37105078
117	0x3e585579	0.21126355
118	0xbe2aede6	-0.16692314
119	0xbccc4571	-0.024935456
120	0xbe516f79	-0.2045268
121	0x3e596129	0.2122847
122	0xbd8ad685	-0.067791976
123	0x3e8336f6	0.2562787
124	0x3e8667ac	0.2625097
125	0x3eb8dc7e	0.36105722
126	0x3f0def06	0.55442846
127	0x3f1912dd	0.5979441
128	0x3e3f071c	0.18655056
129	0xbeeebb5b	-0.46627316
130	0x3ef747b6	0.482969
131	0xbd897192	-0.06711115
132	0xbe6a8966	-0.22903976
133	0xbea9107b	-0.33020386
134	0xbe1de9a8	-0.15421164
135	0xbe2f81a3	-0.17139296
136	0x3ef270f5	0.47351804
137	0x3e8ec1a2	0.27882105
138	0x3c2c17c9	0.010503718
139	0x3da6f3de	0.08151983
140	0xbec8f89d	-0.39252177
141	0x3e30d134	0.17267305
142	0xbdc23fdc	-0.094848365
143	0x3d77ffc3	0.060546648
144	0x3ccd1e5c	0.02503889
145	0x3ec4f4ed	0.38468114
146	0xbd87b7d2	-0.06626858
147	0x3f083477	0.53205055
148	0xbd985593	-0.07438197
149	0x3eb3b51e	0.3509912
150	0x3e74229e	0.2384133
151	0x3ed34e5a	0.41270715
152	0x3e5005b3	0.20314674
153	0xbf088e74	-0.53342366
154	0x3dc93932	0.09825362
155	0xbd83b6dc	-0.06431362
156	0x3dbd6c55	0.09249178
157	0xbd04811f	-0.032349702
158	0xbe8d411c	-0.27588737
159	0x3d179a57	0.037012424
160	0xbe8a96ac	-0.2706808
161	0xbddebcf4	-0.10875884
162	0x3ea2ac37	0.31772014
163	0x3e9945df	0.2993612
164	0xbeabc9e9	-0.33552483
165	0xbe9ee0b3	-0.31030807
166	0xbe38ac39	-0.18034448
167	0x3ecabcfe	0.39597315
168	0x3ed46546	0.41483516
169	0x3f3c7188	0.73610735
170	0x3ea753d3	0.3268114
171	0x3dff9537	0.12479632
172	0x3e7986ed	0.24367876
173	0x3dd650b7	0.10464614
174	0x3efae653	0.49003848
175	0xbee72c28	-0.45150876
176	0x3e977be0	0.29586697
177	0xbd598382	-0.05310393
178	0xbf333c06	-0.70013463
179	0xbe21f418	-0.1581577
180	0xbeb4e4ba	-0.35330755
181	0xbe7b4609	-0.24538435
182	0xbe3a67dd	-0.18203683
183	0xbe14f2bf	-0.14545725
184	0x3e2d790a	0.16940704
185	0xbc38b74b	-0.011274169
186	0xbeb2a040	-0.34887886
187	0xbe8bd9b2	-0.27314526
188	0xbec29ed4	-0.380118
189	0x3e516123	0.20447211
190	0xbf284fa9	-0.6574655
191	0xbe94ffcb	-0.29101405
192	0xbd63d93c	-0.055627093
193	0x3e1a9007	0.15094005
194	0x3e31be89	0.1735784
195	0x3cc5f6e2	0.024165574
196	0xbe9d95d3	-0.3077837
197	0x3cd620ac	0.026138626
198	0xbe900402	-0.28128058
199	0xbe368fb8	-0.17828262
200	0x3ece1d06	0.40256518
201	0x3e36e34c	0.17860144
202	0x3d9e152a	0.077188805
203	0xbd8aba2e	-0.06773792
204	0xbe661c46	-0.22471723
205	0x3f01a0be	0.506359
206	0xbe1269ca	-0.14298168
207	0xbe365a0a	-0.17807785
208	0xbb949238	-0.004534032
209	0x3eb1992f	0.34687182
210	0xbe8bcd05	-0.27304855
211	0x3cdd4c40	0.027013898
212	0xbe2cf289	-0.16889395
213	0xbe83ee09	-0.25767544
214	0x3e8af89b	0.27142796
215	0x3efb81b1	0.49122384
216	0x3e1fd2f0	0.1560781
217	0xbe7e5181	-0.24835779
218	0xbee0bc67	-0.4389374
219	0xbd2cbc2f	-0.042171653
220	0xbea8d9f3	-0.32978782
221	0xbe0254af	-0.12727617
222	0xbed182f6	-0.40920228
223	0xbe9a48bf	-0.30133626
224	0x3d219998	0.03945312
225	0xbde755c7	-0.112956576
226	0x3ab11b52	0.001351217
227	0x3e50611d	0.20349546
228	0xbdffcd9b	-0.12490388
229	0x3dcfd0dd	0.101472594
230	0x3d60e0bb	0.05490182
231	0x3eb644a9	0.3559926
232	0xbe4a3aaf	-0.19748949
233	0x3edba572	0.42899662
234	0xbe81d783	-0.25359735
235	0x3d5f40ed	0.054505277
236	0x3eca4cfa	0.39511853
237	0x3db7b355	0.08969752
238	0x3da439e2	0.08018853
239	0xbd3ccc42	-0.046093233
240	0x3dfc191e	0.12309478
241	0xbdca366c	-0.098736614
242	0xbeb590cf	-0.35462043
243	0xbe8ffc99	-0.28122404
244	0xbe8da619	-0.27665785
245	0xbf163a6f	-0.5868291
246	0x3e35b984	0.1774655
247	0xbeb0fdee	-0.34568733
248	0xbe046036	-0.12927327
249	0x3c5ef1be	0.0136074405
250	0xbde51576	-0.11185734
251	0x3e07c922	0.1326032
252	0xbf0c8db1	-0.54903704
253	0x3e36e081	0.17859079
254	0x3d87da53	0.06633439
255	0xbef2ccb0	-0.4742179

conv2.bias f4 [32]
0	0x3ce8e9f9	0.02843188
1	0xbc86fca9	-0.0164779
2	0x3d6c61b9	0.057710383
3	0xbe9a5735	-0.3014466
4	0xbd91bd14	-0.07116142
5	0xbc099bcc	-0.008398961
6	0x3cfebde3	0.031096404
7	0x3cb2a673	0.021807885
8	0x3ce61d05	0.02809001
9	0xbe7c2d07	-0.24626552
10	0xbd42ff17	-0.047606554
11	0x3de36583	0.11103346
12	0xbe104f92	-0.14092854
13	0xbe0b878f	-0.1362593
14	0xbe487ace	-0.19578096
15	0x3e859ad4	0.26094687
16	0xbe39b91c	-0.1813702
17	0xbd982686	-0.07429223
18	0x3e064aef	0.13114522
19	0x3e7b8dd1	0.24565817
20	0x3e399a7d	0.18125339
21	0x3e96da30	0.2946334
22	0x3e1599cc	0.1460945
23	0x3d7a2e73	0.061079454
24	0xbe155a59	-0.14585246
25	0xbdc39a9e	-0.09550975
26	0x3eb31af5	0.34981504
27	0x3e34549d	0.17610402
28	0x3e92269e	0.28545088
29	0xbddb5387	-0.10709291
30	0x3d5b41ee	0.053529672
31	0x3ddccdda	0.107814506

pool.lin_q.weight f4 [32, 32]
0	0x3da919f4	0.08256903
1	0xbe5c9c32	-0.21543959
2	0xbdfec796	-0.12440412
3	0x3d101119	0.035172556
4	0x3e50a748	0.20376313
5	0xbdaad22a	-0.08340867
6	0x3d093ea7	0.033507016
7	0x3de3c6d6	0.11121909
8	0x3db01e67	0.08599549
9	0x3d7c1841	0.061546568
10	0x3dba4cb1	0.09096659
11	0x3e8561c7	0.2605116
12	0x3dea58c5	0.11442713
13	0x3e8619a0	0.26191425
14	0x3de5ade5	0.112148084
15	0x3e596169	0.21228565
16	0x3e37c98d	0.1794798
17	0x3cbfa4f5	0.023394087
18	0xbe1a797a	-0.15085402
19	0xbbd44281	-0.0064776544
20	0xbca06d86	-0.019583475
21	0x3e95db44	0.2926885
22	0x3e92fb84	0.28707516
23	0x3d410e66	0.047132872
24	0xbc7b02c0	-0.01532048
25	0x3b4e1914	0.0031448053
26	0xbe2b336d	-0.16718836
27	0xbe5a4fe3	-0.21319537
28	0xbe0d0bb5	-0.13773997
29	0x3dd1eda9	0.10250408
30	0xbd84b474	-0.06479731
31	0xbe3f7dc8	-0.18700325
32	0xbe2b9ac4	-0.16758257
33	0x3e5908ab	0.21194713
34	0x3ea89b3b	0.3293093
35	0x3d7136bd	0.058890093
36	0xbe00dbd4	-0.12583858
37	0x3db1d568	0.08683282
38	0xbe905cf8	-0.2819593
39	0xbe17e8b9	-0.1483487
40	0x3e0cef86	0.13763246
41	0xbe3f6362	-0.18690255
42	0xbd520e9d	-0.051283468
43	0xbe532e1a	-0.20623055
44	0xbda57363	-0.08078649
45	0xbe048d27	-0.1294447
46	0x3d4a253d	0.04935192
47	0xbe869496	-0.26285237
48	0xbe5e59c9	-0.21713938
49	0x3e941e15	0.289292
50	0x3d297f5a	0.041381218
51	0x3ca8032b	0.020509323
52	0xbe720959	-0.23636378
53	0xbe39ec44	-0.18156534
54	0xbde1b650	-0.110211015
55	0x3d25f1e7	0.0405139
56	0x3e75e2a0	0.24012232
57	0x3e699a40	0.22812748
58	0x3e8b95ce	0.2726273
59	0x3e98e5f9	0.29862955
60	0x3ec5940c	0.38589513
61	0xbe222a40	-0.1583643
62	0x3e9d46de	0.3071813
63	0x3ea7d863	0.32782277
64	0x3df8cf9d	0.12148974
65	0xbe4afe16	-0.19823489
66	0xbe82a335	-0.25515142
67	0xbda73b9a	-0.08165665
68	0x3dfaa56d	0.12238584
69	0xbeb74aa7	-0.35799143
70	0x3d80a1bc	0.062808484
71	0x3ca51e1e	0.020155963
72	0xbe65ddb6	-0.22447857
73	0x3de01dcf	0.109431855
74	0x3e50eb73	0.20402317
75	0x3d8fc4f1	0.070199855
76	0x3dfff9db	0.12498828
77	0x3e6f3822	0.23361257
78	0x3da20b3a	0.079122975
79	0x3e674b45	0.22587307
80	0x3d311391	0.04323155
81	0xbec50adf	-0.38484856
82	0xbe3fef47	-0.18743621
83	0xbd92c37c	-0.07166192
84	0x3e426685	0.1898442
85	0x3e9c6c64	0.30551445
86	0x3e2e8c4e	0.1704571
87	0x3d650dba	0.055921294
88	0xbe7abb50	-0.24485517
89	0xbeac2219	-0.33619764
90	0xbe905ebb	-0.28197274
91	0xbe187fc8	-0.14892495
92	0xbe9ded67	-0.30845186
93	0x3e65ba69	0.22434391
94	0xbec4d2b1	-0.38441995
95	0xbe8a5fa1	-0.27026084
96	0x3daaaeac	0.08334097
97	0xbe1a66ac	-0.15078229
98	0xbe2f58a2	-0.17123654
99	0x3d9332b9	0.07187409
100	0xbc9118fb	-0.017712107
101	0xbceccba7	-0.028905703
102	0xbd8c46ad	-0.06849418
103	0x3e65a3df	0.22425793
104	0xbd942580	-0.07233715
105	0xbc8df2bd	-0.01732766
106	0x3cf0d07e	0.029396292
107	0x3a0a0f80	0.0005266592
108	0x3d751241	0.05983186
109	0x3e3bc36a	0.18336263
110	0x3d522ea7	0.051314022
111	0x3e4282de	0.18995234
112	0x3b8078c6	0.0039206473
113	0xbdf8eea6	-0.121548936
114	0x3d19a851	0.037514035
115	0x3dd82012	0.10552992
116	0xbe450411	-0.19239832
117	0x3d762313	0.060092043
118	0x3cd28e2c	0.025702558
119	0x3cdfd38b	0.027322551
120	0x3dff9233	0.12479057
121	0xbddf4eba	-0.10903688
122	0xbd8bffb9	-0.068358846
123	0xbc9fb4e8	-0.019495443
124	0xbbbdd52e	-0.0057932353
125	0x3ded0088	0.11572367
126	0xbe147715	-0.14498551
127	0xbcdbe24b	-0.026841303
128	0x3d20e9a8	0.039285332
129	0x3e99fccb	0.30075678
130	0xbd303a58	-0.04302439
131	0x3cda554d	0.026652003
132	0xbeb249df	-0.34821984
133	0x3e49bdd1	0.19701315
134	0xbe77399b	-0.24143068
135	0xbd8e6183	-0.06952193
136	0xbdcb1f8c	-0.099181265
137	0xbdb84aca	-0.0899864
138	0xbe6151ef	-0.22003911
139	0xbe87761f	-0.26457307
140	0xbe3c7f7f	-0.18408011
141	0xbe1d0a46	-0.1533595
142	0xbe423a8e	-0.1896765
143	0xbe46b15c	-0.19403595
144	0xbe6c4719	-0.23073997
145	0x3e262d7a	0.16228285
146	0xbde38cf1	-0.11110867
147	0x3e216f45	0.15765102
148	0xbdeb2a89	-0.11482722
149	0xbdc8f206	-0.09811787
150	0xbea2ab7e	-0.31771463
151	0x3c41d3ba	0.011830265
152	0x3e43dc53	0.19127016
153	0x3d8aa186	0.067690894
154	0x3ead5cb1	0.3385978
155	0x3e129d1a	0.14317742
156	0x3e18367c	0.14864534
157	0xbe156583	-0.14589505
158	0x3cfd6e92	0.030936513
159	0x3d0f062e	0.034918003
160	0x3d8b3430	0.06797063
161	0x3e075632	0.13216475
162	0x3e275a6f	0.16343091
163	0xbd2ed516	-0.042683683
164	0xbe907d22	-0.2822047
165	0xbc72dd1f	-0.014823227
166	0xbe71c896	-0.23611674
167	0xbd270c1a	-0.040783025
168	0xbdb77788	-0.08958346
169	0xbe4f8bc3	-0.20268159
170	0xbe01fede	-0.1269488
171	0xbe424587	-0.18971835
172	0xbd342b3b	-0.04398654
173	0x3dc20452	0.0947348
174	0xbe47fcc1	-0.19530012
175	0xbde0b96b	-0.10972866
176	0xbdc1ff0a	-0.09472473
177	0x3db419de	0.08793996
178	0x3df00c10	0.11721051
179	0x3e00b911	0.12570597
180	0xbd8ce252	-0.06879105
181	0xbe7da809	-0.24771132
182	0xbdc3b9ec	-0.09556946
183	0xbd54e3ce	-0.051975064
184	0x3e0ab57a	0.1354579
185	0x3daab9c2	0.08336212
186	0x3e712f9c	0.23553318
187	0x3e9d5824	0.30731308
188	0x3db276ce	0.087140664
189	0xbdc9aded	-0.09847627
190	0x3e418281	0.1889744
191	0xbd1761d7	-0.03695854
192	0xbe1b649a	-0.15175095
193	0x3bd575c4	0.006514283
194	0xbd0a323d	-0.033739317
195	0x3d8de3be	0.06928204
196	0x3e87cdc4	0.26524174
197	0x3cfab979	0.030606018
198	0x3bc846fa	0.0061119767
199	0xb7dd61f7	-2.6390871e-05
200	0xbe2a1566	-0.16609725
201	0xbd845350	-0.06461203
202	0x3d87d260	0.06631923
203	0xbd8e6605	-0.069530524
204	0x3e33e026	0.17565975
205	0xbd872819	-0.06599445
206	0xbd264921	-0.040597085
207	0xbcc131fc	-0.023583405
208	0x3d98412f	0.07434308
209	0x3c7d1b99	0.015448474
210	0xbd0caa57	-0.034342136
211	0xbe2ed7b9	-0.17074479
212	0xbcb4d8c6	-0.022076022
213	0x3dc00348	0.09375626
214	0xbdb03ecc	-0.086057276
215	0x3dab1526	0.08353643
216	0x3de29708	0.11063963
217	0xbe8f6285	-0.28004852
218	0xbcacd6d8	-0.02109854
219	0xbdeb0ac3	-0.11476662
220	0xbe8b6317	-0.27224037
221	0x3e8312f1	0.2560039
222	0xbe89615f	-0.268321
223	0xbe52fbed	-0.20603915
224	0xbd672d5d	-0.056439746
225	0x3e7f858c	0.24953288
226	0x3e0441ea	0.12915769
227	0xbbe395ce	-0.0069453483
228	0xbe9455f2	-0.2897182
229	0xbcfd9db5	-0.03095899
230	0xbe0ecd3c	-0.13945478
231	0xbdcc48fa	-0.09974857
232	0xbd45bfb1	-0.048278514
233	0xbc9c5159	-0.019081758
234	0x3d04c395	0.032413084
235	0x3dc1bec4	0.09460214
236	0xbe73d7e0	-0.23812819
237	0x3d846596	0.064646885
238	0x3d8ab83f	0.067734234
239	0xbd9b0e92	-0.075711384
240	0x3dbcf6a5	0.09226731
241	0x3e92fa69	0.28706673
242	0xbc607e6b	-0.013702015
243	0xbe3b9525	-0.18318613
244	0xbd01f5f1	-0.03172869
245	0x3d819681	0.063275345
246	0x3db06dba	0.08614679
247	0xbbcc16e8	-0.0062283166
248	0x3dbd526a	0.09244235
249	0xbd80599e	-0.06267093
250	0x3e7d2009	0.24719252
251	0x3e8f2f59	0.2796581
252	0x3da5030b	0.08057221
253	0xbd9ff3f2	-0.07810201
254	0x3e7a696b	0.24454276
255	0x3e87e7fd	0.2654418

pool.lin_q.bias f4 [32]
0	0xbdcdb69c	-0.100445956
1	0x3d945873	0.07243433
2	0xbc3e1f31	-0.011604116
3	0x3de01feb	0.10943588
4	0x3e5cdee9	0.21569408
5	0x3e66d6ff	0.22542952
6	0x3d43549a	0.047688104
7	0xbddaaab2	-0.10677089
8	0xbe60905d	-0.2193007
9	0x3dff5948	0.12468201
10	0xbdc6c438	-0.097053945
11	0x3bf962b5	0.0076106437
12	0x3d8e645a	0.06952734
13	0xbd7859be	-0.06063246
14	0xbd628464	-0.05530204
15	0x3e8052bf	0.2506313
16	0xbdb0ea80	-0.08638477
17	0x3e0050a1	0.12530757
18	0x3e9810d9	0.29700354
19	0x3d251493	0.040302824
20	0xbe59f59d	-0.212851
21	0x3e07b6e7	0.13253365
22	0xbd28eeb1	-0.04124326
23	0xbdfaf8f9	-0.12254519
24	0xbe23a231	-0.1597984
25	0x3c0ab86c	0.008466821
26	0xbd830636	-0.06397669
27	0xbd5d2feb	-0.054000776
28	0x3d2eba4d	0.04265814
29	0x3db9df0d	0.09075747
30	0xbe260204	-0.16211706
31	0xbd07f0e4	-0.033188716

pool.gat_att.weight f4 [1, 64]
0	0x3e3e9e27	0.18615018
1	0xbef76c7e	-0.4832496
2	0x3eb1044b	0.34573588
3	0xbe66d65c	-0.22542709
4	0xbed254e0	-0.4108038
5	0xbe0fe966	-0.14053878
6	0xbcebdbc9	-0.028791325
7	0x3e56e97b	0.20987503
8	0x3e30fb69	0.17283405
9	0xbddc6093	-0.107606076
10	0x3d1a9808	0.037742645
11	0x3ec1092d	0.37702313
12	0xbe7c751d	-0.2465405
13	0x3f150a28	0.5821862
14	0xbf142fa7	-0.5788521
15	0xbe08ae57	-0.13347755
16	0x3d08bb92	0.033382006
17	0xbe023f32	-0.1271942
18	0xbe0dcaac	-0.13846844
19	0x3d6a28ed	0.057167936
20	0x3f2b1a84	0.66837335
21	0xbf3354ae	-0.70051086
22	0xbeea4411	-0.45755056
23	0x3e460a60	0.19339895
24	0x3c515cbf	0.01277846
25	0x3e2f8005	0.1713868
26	0x3f0f6de8	0.5602708
27	0x3ef35966	0.47529143
28	0xbdb706d4	-0.08936849
29	0xbe760cab	-0.2402827
30	0x3e1c9f65	0.15295179
31	0x3ea605c9	0.3242629
32	0xbe7ff413	-0.2499545
33	0x3f76384c	0.9617965
34	0x3f6d8f85	0.9279712
35	0x3f8d5106	1.1040351
36	0xbf73a538	-0.9517398
37	0x3f7c4429	0.98541504
38	0xbf91be53	-1.1386207
39	0xbf341941	-0.70351034
40	0x3f7a2092	0.9770595
41	0xbf5d84e7	-0.8653092
42	0xbf8e8468	-1.1134157
43	0xbf20e3a0	-0.6284733
44	0xbf216024	-0.63037324
45	0xbf290310	-0.660203
46	0xbf7abec8	-0.9794736
47	0xbf26eb22	-0.65202534
48	0xbf86f66b	-1.0543951
49	0x3f8147af	1.0100001
50	0x3f82b48d	1.021135
51	0x3d439352	0.047747917
52	0xbf74a9b5	-0.9557145
53	0xbfac1c16	-1.3446071
54	0xbf85d731	-1.0456296
55	0x3f8c8c43	1.0980304
56	0x3f45f8cb	0.7733275
57	0x3f95433e	1.1661146
58	0x3f850607	1.0392464
59	0x3f972760	1.1808891
60	0x3f6be9a3	0.92153376
61	0xbf8257f1	-1.0183088
62	0x3f941129	1.1567737
63	0x3f6fbf9b	0.9365174

pool.gnn_score.weight f4 [32, 1]
0	0x3e1d2a54	0.15348178
1	0xbcfb27e9	-0.03065868
2	0x3e355d11	0.17711283
3	0x3cec561e	0.028849658
4	0x3e14f92a	0.14548174
5	0x3e0c02f9	0.13673009
6	0xbdec0d35	-0.115259565
7	0x3dcd2a4a	0.100178316
8	0x3e01663b	0.12636654
9	0xbe19c128	-0.1501509
10	0xbdc5435d	-0.09631989
11	0x3d537383	0.051623832
12	0xbde98777	-0.11402791
13	0xbe162339	-0.14661874
14	0xbe6d79a9	-0.23190941
15	0x3e23c5c3	0.15993409
16	0xbe51b274	-0.2047823
17	0xbd696833	-0.056984138
18	0x3e099bd6	0.13438353
19	0xbc155bb1	-0.009116099
20	0x3e2537e5	0.16134603
21	0x3e816031	0.252687
22	0x3e4b5724	0.1985746
23	0xbd60b0ac	-0.054855987
24	0xbc9ecb0a	-0.019383926
25	0xbd71df96	-0.05905112
26	0x3e1da401	0.15394594
27	0x3e55f638	0.20894706
28	0x3d21ea13	0.03952987
29	0x3b2fd97d	0.0026832514
30	0x3e325613	0.17415647
31	0x3cf7beac	0.030242287

pool.gnn_score.lin1.weight f4 [1, 32]
0	0x3d14ab6d	0.036296297
1	0x3d2b3557	0.041798916
2	0x3e29fb62	0.16599801
3	0xbe891bcf	-0.2677903
4	0xbe45be9a	-0.1931099
5	0xbe49479c	-0.19656223
6	0xbe085e18	-0.13317144
7	0xbc1ff7c7	-0.009763665
8	0x3e1dbc87	0.15403949
9	0xbce89b24	-0.02839429
10	0xbe2d9cd2	-0.16954353
11	0x3db1e53e	0.086863026
12	0x3e259941	0.16171743
13	0xbdd822e4	-0.1055353
14	0xbcf3086a	-0.029667098
15	0x3cce81c8	0.025208369
16	0x3d339e38	0.04385206
17	0xbde61724	-0.112348825
18	0xbc1c3c94	-0.009535927
19	0x3e33c8b8	0.17557037
20	0x3daa0267	0.083012395
21	0x3e1b6c56	0.15178046
22	0x3e571b7b	0.21006577
23	0x3e2611e8	0.16217768
24	0xbdd071bc	-0.10177943
25	0xbe2078ee	-0.15671131
26	0xbacc7b0d	-0.0015600637
27	0x3e242c51	0.1603253
28	0x3dabbfc7	0.08386188
29	0x3d5b97ca	0.053611554
30	0xbd971756	-0.07377498
31	0x3d53bc40	0.0516932

pool.gnn_score.lin2.weight f4 [1, 32]
0	0x3b88d871	0.0041761925
1	0xbdd8a542	-0.105783954
2	0x3d9de672	0.077099696
3	0xbdd1e40d	-0.10248575
4	0xbd9a064d	-0.07520733
5	0x3d057761	0.03258455
6	0xbe368e65	-0.17827757
7	0xbc3b3dd5	-0.011428316
8	0xbb5b8121	-0.0033493715
9	0x3de4bfb0	0.11169374
10	0x3d3fd93d	0.046838034
11	0x3e389f9b	0.18029635
12	0x3dd3d5d7	0.10343521
13	0xbe27852b	-0.16359393
14	0xbe5eb915	-0.2175029
15	0x3d518142	0.05114866
16	0xbe23e1e7	-0.16004144
17	0xbd51975a	-0.05116973
18	0x3decb485	0.11557869
19	0x3e61007b	0.2197284
20	0x3e7dafc5	0.24774082
21	0xbdb88976	-0.090105936
22	0x3dc968d8	0.098344505
23	0xbdf24146	-0.11828856
24	0xbcadcff1	-0.021217318
25	0xbe105291	-0.14093997
26	0xbd83bf0e	-0.06432925
27	0x3dc7afe1	0.09750343
28	0x3e87a991	0.26496556
29	0xbde7b21a	-0.11313267
30	0xbd215688	-0.039389163
31	0x3deafc9c	0.11473963

pool.gnn_intra_cluster.weight f4 [32, 32]
0	0xbc6f3ada	-0.014601434
1	0x3f3b243b	0.7310216
2	0x3ee60cdc	0.44931686
3	0x3f04f78f	0.51940244
4	0xbeb4137d	-0.35171118
5	0x3f2e335e	0.6804713
6	0xbf1d0b2e	-0.61345184
7	0xbeadf882	-0.3397866
8	0x3f3c5d00	0.73579407
9	0xbe3511b8	-0.1768254
10	0xbe114176	-0.14185128
11	0x3e8b85dd	0.27250567
12	0xbe192ba2	-0.14958051
13	0x3cfc2034	0.030777074
14	0xbf2de0ab	-0.6792094
15	0xbeff185f	-0.4982328
16	0xbdf79bb5	-0.12090246
17	0x3f0ffa80	0.5624161
18	0x3ed6770c	0.418877
19	0xbf0c0f79	-0.5471111
20	0xbea84242	-0.3286305
21	0xbf6558fc	-0.89588904
22	0xbd27337d	-0.040820587
23	0x3f577a9e	0.84171474
24	0x3ef22a0e	0.4729771
25	0x3f13c18f	0.5771722
26	0x3e0cc9be	0.13748834
27	0x3effd6b5	0.49968496
28	0x3f5642a9	0.83695465
29	0xbe8da053	-0.2766138
30	0xbcbc6ce9	-0.023001151
31	0x3e25c7c4	0.16189486
32	0x3ea1b814	0.31585753
33	0xbf0fb86e	-0.5614079
34	0xbef20180	-0.4726677
35	0xbefbcf7c	-0.49181736
36	0x3f33b3f2	0.7019645
37	0xbf04afb7	-0.5183062
38	0x3f173810	0.5906992
39	0x3ef53b3d	0.47896758
40	0xbf1efc48	-0.621037
41	0x3f086f32	0.5329467
42	0x3f1201c6	0.57033956
43	0x3f00384c	0.500859
44	0x3df4e42d	0.119575836
45	0x3eea18cd	0.45722046
46	0x3ee1344e	0.43985218
47	0x3efc2972	0.4925037
48	0x3ef6fb2d	0.48238507
49	0xbf2d8dac	-0.677943
50	0xbf02a064	-0.51025987
51	0xbddb7771	-0.10716141
52	0x3f26a3cb	0.6509368
53	0x3f1aaa0b	0.60415715
54	0x3e8d87da	0.2764271
55	0xbef0420d	-0.46925393
56	0xbf2b6a20	-0.6695881
57	0xbf131d83	-0.57466906
58	0xbec668fd	-0.38751975
59	0xbf3e3d1d	-0.74312
60	0xbf192986	-0.59828985
61	0x3e67f4c2	0.22651961
62	0xbf41eeff	-0.75755304
63	0xbf1fa0ad	-0.62354547
64	0x3d667f68	0.056273848
65	0xbf3909e1	-0.722807
66	0xbecb5372	-0.397121
67	0xbf1ea181	-0.61965185
68	0x3f3e8626	0.74423444
69	0xbeeaf1bf	-0.45887563
70	0x3f054aa7	0.52067035
71	0x3f4fa3a0	0.81109047
72	0xbee7d358	-0.4527843
73	0x3f1cb554	0.61214185
74	0x3ebee12c	0.37281168
75	0x3f0d3ae3	0.5516798
76	0x3eb63f22	0.35595042
77	0x3f1c978a	0.6116873
78	0x3e811718	0.25212932
79	0x3f3de114	0.74171567
80	0x3ef618cf	0.48065802
81	0xbf85db4d	-1.045755
82	0xbf432800	-0.7623291
83	0x3ddb3e24	0.10705212
84	0x3efb2d4a	0.4905799
85	0x3f8bf084	1.0932775
86	0x3f53731f	0.82597536
87	0xbeae61f1	-0.34059098
88	0xbeca3fde	-0.39501852
89	0xbefd3160	-0.49451733
90	0xbba35884	-0.004984917
91	0xbf8f186c	-1.1179328
92	0xbf74d1ea	-0.95632803
93	0x3f5c79e6	0.861235
94	0xbe9bad7c	-0.30405796
95	0xbf274cb3	-0.6535141
96	0xbea98990	-0.33112764
97	0xbef7eadf	-0.4842138
98	0xbf1b39b7	-0.6063494
99	0xbee10d1c	-0.43955314
100	0x3f1e9d7e	0.61959064
101	0xbf202a6a	-0.6256472
102	0x3ee9a5e9	0.45634392
103	0x3ea018e4	0.3126899
104	0xbed56ed4	-0.41686118
105	0x3e9136e3	0.28362188
106	0x3e1a0fdb	0.15045111
107	0x3e85faa9	0.261678
108	0x3f1e40ca	0.6181761
109	0x3dbe23cd	0.09284172
110	0xbd413174	-0.047166303
111	0x3ec56799	0.385556
112	0x3efe7fc1	0.49706843
113	0xbf4b9bef	-0.7953481
114	0xbeaa4a69	-0.33259895
115	0xbe1de0dc	-0.15417808
116	0x3e0834dd	0.13301416
117	0x3f0d4042	0.55176175
118	0x3f687045	0.9079631
119	0xbf305d4f	-0.6889238
120	0xbe226eac	-0.1586253
121	0xbf77d812	-0.9681407
122	0xbf228320	-0.6348133
123	0xbedb661b	-0.42851338
124	0xbea2ee3a	-0.31822377
125	0x3f5057bd	0.8138388
126	0xbe4da2c1	-0.20081617
127	0xbf13e60f	-0.57772917
128	0xbdb59b34	-0.08867493
129	0x3f1f12cb	0.6213805
130	0x3f40a88c	0.7525718
131	0x3e5ec7ca	0.21755901
132	0xbf24e08e	-0.64405143
133	0x3e174e1d	0.14775892
134	0xbe449d4e	-0.19200632
135	0xbec81a4a	-0.39082557
136	0xbca517b3	-0.020152902
137	0xbddd8b73	-0.108176135
138	0xbf0d80d0	-0.5527468
139	0xbe36e08c	-0.17859095
140	0xbef89a50	-0.4855523
141	0xbf3133cc	-0.6921966
142	0xbe895b9e	-0.2682771
143	0xbe5b9a91	-0.21445681
144	0xbe589970	-0.21152282
145	0x3f090ee4	0.53538346
146	0x3e78b9b3	0.24289589
147	0x3e1efdaf	0.1552646
148	0xbe58de4a	-0.21178547
149	0xbf955f2c	-1.1669669
150	0xbf2d6a20	-0.6774006
151	0x3f1d1ef7	0.61375374
152	0x3e4c086d	0.19925089
153	0x3ee7f170	0.4530139
154	0x3f2a07e8	0.66418314
155	0x3ef9212e	0.48658127
156	0x3f0f57d1	0.5599337
157	0xbf204ffd	-0.6262205
158	0x3d914746	0.070936725
159	0x3f247b6b	0.6425082
160	0x3e361b1a	0.17783776
161	0x3f207057	0.62671417
162	0x3ee068b9	0.43829897
163	0x3f126d73	0.57198256
164	0xbf5296b6	-0.82261217
165	0x3f23b6c0	0.6395073
166	0xbea16e31	-0.31529382
167	0xbf1ea101	-0.6196442
168	0x3e3aaf49	0.18230928
169	0xbe56e1a4	-0.20984513
170	0xbec9cedb	-0.3941563
171	0xbd76a0fb	-0.060212117
172	0xbf03975f	-0.5140285
173	0xbe44bb29	-0.19212021
174	0xbf05f536	-0.5232729
175	0xbf144bf4	-0.57928395
176	0xbee07a35	-0.43843237
177	0x3edc3e8b	0.43016466
178	0x3e5ba938	0.2145127
179	0xbe1ecb10	-0.1550715
180	0xbeb3ab21	-0.35091498
181	0xbf6baa7b	-0.9205701
182	0xbf4370e8	-0.76344156
183	0x3dab25f4	0.08356848
184	0x3f0df605	0.5545352
185	0x3edb1e44	0.42796528
186	0x3f6b414a	0.918965
187	0x3f505850	0.81384754
188	0x3ec101e5	0.37696758
189	0xbf6fe228	-0.9370446
190	0x3e48c603	0.19606785
191	0x3ecd9ce7	0.4015877
192	0xbe536ee2	-0.20647767
193	0xbece2543	-0.40262803
194	0xbe9de7ad	-0.30840817
195	0xbf1211b9	-0.5705829
196	0x3ec72119	0.3889244
197	0xbe8b27d5	-0.27178827
198	0x3eae318d	0.3402218
199	0x3e108295	0.14112313
200	0xbe32e595	-0.17470391
201	0x3d8b3e64	0.067990094
202	0x3d366f3d	0.04453968
203	0x3ea32b4a	0.31868964
204	0x3e996a09	0.2996371
205	0x3d1d7678	0.03844306
206	0x3ea5c842	0.32379347
207	0x3eaf6189	0.342541
208	0x3edf806a	0.4365266
209	0xbf0a377b	-0.53990906
210	0xbf0f94aa	-0.5608622
211	0x3e7bc2ed	0.24586077
212	0x3e16d612	0.14730099
213	0x3ecdc34a	0.40188056
214	0xbc9d4622	-0.019198481
215	0xbe683896	-0.22677836
216	0xbde78c5b	-0.113060676
217	0xbe89d896	-0.26923054
218	0xbecdac0d	-0.40170327
219	0xbd5ae351	-0.053439442
220	0xbea18a66	-0.31550902
221	0x3e86edff	0.26353452
222	0xbeb336cf	-0.35002753
223	0xbdacc2fe	-0.08435629
224	0x3d1c344e	0.03813582
225	0xbf2fcf20	-0.6867542
226	0xbe5143ed	-0.20436068
227	0xbf5e7bcb	-0.86907643
228	0x3f452cd2	0.77021515
229	0xbf43372e	-0.7625607
230	0x3f0616cc	0.52378535
231	0x3ec4780a	0.38372833
232	0xbf46525f	-0.7746944
233	0x3f016480	0.50543976
234	0x3ecc5f58	0.39916492
235	0xbe041a19	-0.1290058
236	0x3f17efa5	0.59350044
237	0x3e2e47c2	0.17019561
238	0x3f140cba	0.5783192
239	0x3f037581	0.5135117
240	0x3e58d77a	0.21175948
241	0xbf692289	-0.9106832
242	0xbf43f1cf	-0.76540846
243	0xbcabe559	-0.020983385
244	0x3f3d9079	0.7404857
245	0x3f5a545d	0.8528498
246	0x3ed846ee	0.42241615
247	0xbf7a3259	-0.97733074
248	0xbf4c5f50	-0.79832935
249	0xbf2aae98	-0.6667266
250	0xbf1bade1	-0.60812193
251	0xbf2557cf	-0.6458711
252	0xbf9d41c4	-1.2285695
253	0x3ed8858f	0.42289397
254	0xbec0c01e	-0.37646574
255	0xbf55e39d	-0.83550435

pool.gnn_intra_cluster.bias f4 [32]
0	0xbe18260e	-0.14858267
1	0x3e5259a3	0.20542006
2	0x3e2404be	0.16017434
3	0xbd770d11	-0.060315195
4	0xbe1699d2	-0.14707115
5	0x3e7419ea	0.2383801
6	0xbe20aff6	-0.15692124
7	0xbe4a651f	-0.19765137
8	0x3e7c32bc	0.24628729
9	0xbe7a5ab0	-0.24448657
10	0xbe6be460	-0.23036337
11	0xbe700ea5	-0.23443086
12	0xbe6bd8e5	-0.23031957
13	0xbe715b32	-0.23569945
14	0xbe7e6595	-0.24843438
15	0xbe6431b8	-0.22284591
16	0xbe6ac99b	-0.22928469
17	0x3e5a3f57	0.21313225
18	0xbd9c330d	-0.07626925
19	0x3e2672ea	0.16254774
20	0xbe73ee57	-0.23821388
21	0xbe49a86d	-0.19693156
22	0xbe6d6e5c	-0.2318663
23	0xbdda765e	-0.10667108
24	0x3e7b8bb0	0.24565005
25	0x3e6b88c6	0.23001394
26	0x3e6d33fc	0.23164362
27	0x3e56d533	0.20979767
28	0x3e38d8a2	0.18051389
29	0xbe41a827	-0.18911801
30	0x3e72b080	0.23700142
31	0x3e687a86	0.22702989

conv3.weight f4 [32, 32]
0	0x3e594984	0.2121945
1	0xbdacee3a	-0.084438756
2	0xbbf06a04	-0.007336857
3	0xbe176afa	-0.14786902
4	0x3e340904	0.17581564
5	0xbf01902e	-0.50610626
6	0x3f99937c	1.1998134
7	0xbf09fd2a	-0.5390192
8	0xbe05ef47	-0.13079558
9	0xbe04257d	-0.12904926
10	0x3ee98000	0.4560547
11	0x3cd15a54	0.025555767
12	0xbd908c24	-0.0705798
13	0xbf14bb0d	-0.58097917
14	0x3e6bfd66	0.23045883
15	0x3f649eaf	0.8930463
16	0x3ee45776	0.44597977
17	0xbee8adf6	-0.45445222
18	0xbe3b4322	-0.18287328
19	0x3bc7dde8	0.0060994513
20	0xbd6b5610	-0.057455122
21	0x3da11f9a	0.07867356
22	0xbf816bc6	-1.0111015
23	0x3e7405b5	0.23830302
24	0xbed1a19c	-0.4094361
25	0xbe951172	-0.29114872
26	0xbe699767	-0.22811662
27	0xbeac1126	-0.33606833
28	0x3f49c4ed	0.7881611
29	0x3e3c884d	0.1841137
30	0x3d558eb2	0.052138038
31	0x3e428fa4	0.19000107
32	0xbf53fcdb	-0.828077
33	0xbeba1944	-0.363474
34	0x3ee6eaae	0.4510092
35	0x3d644f5f	0.055739757
36	0xbe8b3821	-0.2719126
37	0x3d876993	0.066119336
38	0x3ed65349	0.41860417
39	0x3e22624d	0.15857811
40	0x3ec10588	0.37699533
41	0x3db2b901	0.08726693
42	0xbea0b619	-0.3138893
43	0x3e4c95f9	0.19979085
44	0x3e1a6e01	0.15081026
45	0x3d303393	0.043017935
46	0xbedd0e0a	-0.43174773
47	0x408b0c34	4.3452396
48	0x3e973157	0.2952983
49	0xbf2c5a32	-0.6732513
50	0xbe47f655	-0.19527562
51	0xbf564a62	-0.8370725
52	0xbeb6334f	-0.3558602
53	0xbde21e2c	-0.11040911
54	0xbf6df2ef	-0.9294881
55	0x3ed9576e	0.42449516
56	0xbe7e9fd1	-0.24865653
57	0xbd24ff67	-0.040282633
58	0xbf0381c4	-0.5136988
59	0xbf2c3d8b	-0.6728141
60	0x3fb2a693	1.3957084
61	0xbcccec41	-0.025014998
62	0x3d2cbc09	0.04217151
63	0x3e58df38	0.21178901
64	0x3e39e98d	0.18155499
65	0xbd0a8c48	-0.03382519
66	0xbf0d4199	-0.5517822
67	0x3f168021	0.5878926
68	0x3d9c3a0f	0.07628261
69	0xbe319266	-0.17341003
70	0xbf9900dd	-1.1953388
71	0x3d30d349	0.043170247
72	0xbe1129a0	-0.14176035
73	0x3eb454eb	0.35221037
74	0xbe464f31	-0.19366147
75	0xbf1561a7	-0.5835213
76	0xbf21657e	-0.6304549
77	0x3e86fc30	0.2636428
78	0x3da4546a	0.08023913
79	0xbfd8e7fd	-1.6945797
80	0xbea553a4	-0.32290375
81	0x3f8614ef	1.0475138
82	0x3f6f1e75	0.9340585
83	0x3ba61482	0.0050683627
84	0x3ee55ce5	0.44797435
85	0x3dc9de13	0.098568104
86	0x3fca2e6a	1.5795414
87	0xbf464c74	-0.7746041
88	0x3ee28a91	0.44246343
89	0x3ee02d21	0.4378443
90	0xbbf2c3dc	-0.007408602
91	0x3e86facc	0.26363218
92	0xbf480962	-0.7813932
93	0x3eac588f	0.33661315
94	0x3f3fee3e	0.74972904
95	0x3ef914fb	0.4864882
96	0xbe3356b6	-0.17513546
97	0x3d1f1a52	0.03884346
98	0x3db2da9c	0.08733103
99	0xbe2fc183	-0.17163663
100	0xbed5bee9	-0.41747215
101	0xbecc7290	-0.39931154
102	0x3dd84883	0.105607055
103	0xbe6f46d7	-0.23366867
104	0x3e2e19b8	0.17001998
105	0xbdf4631b	-0.11932965
106	0xbd556ca8	-0.052105576
107	0x3dbf2865	0.093338765
108	0xbeba3773	-0.3637043
109	0x3e7a6768	0.24453509
110	0xbe999fc8	-0.30004716
111	0x3fd4816b	1.6601995
112	0x3e285608	0.16439068
113	0xbd695d83	-0.056973945
114	0xbd834178	-0.064089715
115	0xbf0ae66f	-0.54257864
116	0xbeb58218	-0.35450816
117	0xbd288e1c	-0.04115115
118	0xbf115acc	-0.5677917
119	0x3e8267f7	0.25469944
120	0xbe35e9f5	-0.17765029
121	0x3e626c3e	0.22111604
122	0xbe996f9a	-0.29967958
123	0xbe8a5581	-0.2701836
124	0x3f3446da	0.7042061
125	0x3e062ac3	0.1310225
126	0xbdb4994b	-0.08818301
127	0xbe1617e5	-0.14657553
128	0xbf625d2f	-0.88423437
129	0x3e6add7d	0.22936054
130	0x3f20c1ed	0.6279591
131	0xbf1fbfd2	-0.6240207
132	0xbe9d1bd4	-0.30685294
133	0x3d57fc16	0.052730642
134	0x3f9ce234	1.2256532
135	0x3e4b8e53	0.19878511
136	0x3f018a35	0.5060151
137	0x3befa2cd	0.0073131085
138	0x3ecc0a3e	0.39851564
139	0x3f64eb02	0.89421093
140	0x3db1c597	0.086802654
141	0xbed4c549	-0.41556767
142	0x3dec0528	0.11524421
143	0x406223d2	3.5334363
144	0x3f1df888	0.61707354
145	0xbf2a3a49	-0.66495186
146	0xbf3262ad	-0.6968182
147	0xbe8a815d	-0.2705182
148	0xbdbe81e2	-0.09302117
149	0xbee5e1c2	-0.44898802
150	0xbf99cae2	-1.201504
151	0x3edb039c	0.4277619
152	0xbe81b3c4	-0.25332463
153	0xbe4d201f	-0.20031784
154	0xbe84611f	-0.25855348
155	0xbf8fe8e6	-1.124295
156	0x3ed5104e	0.41614002
157	0xbdc1122c	-0.09427294
158	0x3e1b2dd5	0.15154202
159	0xbec5c59d	-0.3862733
160	0xbf09f2f3	-0.53886336
161	0x3e34d175	0.17658027
162	0x3ed48c99	0.41513517
163	0xbedaffd1	-0.42773297
164	0x3e6d948e	0.232012
165	0x3e8a2f40	0.26989174
166	0x3f30274a	0.6880995
167	0x3e58b29b	0.21161883
168	0x3e5c7451	0.21528746
169	0x3cef4fe0	0.029212892
170	0x3ed3a7e4	0.41339028
171	0x3ec6f3b6	0.38857812
172	0xbebe7a98	-0.37202907
173	0x3dc2ecb8	0.09517807
174	0xbc85b705	-0.016322622
175	0x3ffc0206	1.9688118
176	0x3f010ef2	0.5041343
177	0xbef5f60a	-0.48039275
178	0xbded9bed	-0.11602006
179	0x3e20e275	0.15711387
180	0xbdddabad	-0.1082376
181	0xbf01142a	-0.5042139
182	0xbf50566d	-0.81381875
183	0x3edf6dc0	0.4363842
184	0x3d65012b	0.055909317
185	0xbebd2154	-0.3693949
186	0xbc3482df	-0.01101753
187	0xbee2df35	-0.44310918
188	0x3f187953	0.59560126
189	0xbe202e2f	-0.15642618
190	0xbf02eab9	-0.5113941
191	0xbee1ceaa	-0.44102985
192	0xbe3a53df	-0.18196057
193	0xbdb46242	-0.08807804
194	0x3e63c8f2	0.22244623
195	0x3cccff3b	0.025024047
196	0xbe13adaa	-0.14421716
197	0xbec6f5e2	-0.3885947
198	0x3f7c16d6	0.98472345
199	0xbe241f23	-0.16027503
200	0xbdcf099e	-0.10109256
201	0xbf0befde	-0.54662883
202	0xbc73e471	-0.014886008
203	0x3e68d6c1	0.22738172
204	0xbe794af9	-0.24345006
205	0xbe143ed2	-0.14477089
206	0x3e524553	0.20534258
207	0x4080f6e9	4.0301404
208	0xbe587b3a	-0.21140757
209	0xbe530124	-0.20605904
210	0xbe5ae3ec	-0.21376008
211	0xbeced246	-0.403948
212	0xbcad4700	-0.02115202
213	0xbdb81ac0	-0.08989477
214	0xc01fdd0c	-2.4978666
215	0x3e9c916c	0.30579698
216	0xbf8ea547	-1.1144189
217	0x3cd84b80	0.026403189
218	0xbe30ce7b	-0.17266266
219	0xbf655475	-0.89581996
220	0x3fa92b9e	1.3216436
221	0x3e39d8ee	0.18149158
222	0xbe3b256b	-0.18275993
223	0x3e513a40	0.20432377
224	0x3e428d6e	0.18999264
225	0x3ecc7aac	0.3993734
226	0x3e4c6c20	0.19963121
227	0x3f9e8932	1.2385619
228	0x3e322f09	0.17400755
229	0x3f3e3aa5	0.74308234
230	0xbffb624e	-1.9639375
231	0x3ef1a885	0.47198883
232	0xbd55883c	-0.052131876
233	0x3f9980fc	1.1992488
234	0xbefe6186	-0.4968378
235	0xbda0a58f	-0.07844078
236	0x3f51d0bf	0.81959146
237	0x3e08da2a	0.13364473
238	0xbe8088f1	-0.25104478
239	0xc0381219	-2.8761046
240	0xbc28ff30	-0.010314748
241	0x3ed6a937	0.41925976
242	0x3f06ef4d	0.52708894
243	0x3dc30eb8	0.09524292
244	0x3f0e9b83	0.5570604
245	0xbd086bd4	-0.033305958
246	0x4060adc0	3.5106049
247	0xbebefbfa	-0.37301618
248	0x3fa676dd	1.3005024
249	0x3ef2227a	0.4729193
250	0x3f30fb8c	0.6913383
251	0x3f9d4585	1.2286841
252	0xbfd0b02c	-1.6303763
253	0xbf207d44	-0.6269114
254	0x3f2b2501	0.6685334
255	0x3e1e4ef9	0.15459813

conv3.bias f4 [32]
0	0xbea09085	-0.3136026
1	0xbe175ab0	-0.14780688
2	0x3c32327d	0.010876295
3	0xbdebc8da	-0.11512919
4	0x392e2cc6	0.00016610613
5	0xbde07c69	-0.10961229
6	0x3dd7835f	0.10523104
7	0xbd87ae95	-0.06625096
8	0x3e862e12	0.26207024
9	0xbe70688e	-0.23477384
10	0x3d9af413	0.07566085
11	0xbb7de9f2	-0.0038744179
12	0xbed39d77	-0.41331074
13	0x3e9957ab	0.29949698
14	0xbe905a39	-0.28193834
15	0x3ced23ea	0.02894779
16	0x3c13f190	0.009029761
17	0xbda0e28e	-0.07855712
18	0xbe141fb0	-0.14465213
19	0xbdd950c1	-0.10611106
20	0xbe4dd776	-0.20101723
21	0xbe684e26	-0.22686061
22	0xbe42d3d1	-0.19026114
23	0x3df8e8e1	0.12153793
24	0xbeafaec0	-0.3431301
25	0xbe07b2af	-0.13251756
26	0xbce282a6	-0.027650189
27	0xbdd465ce	-0.1037098
28	0x3df5b10e	0.11996661
29	0x3dcb1ed7	0.099179916
30	0xbe61567b	-0.22005646
31	0xbea42759	-0.3206127

conv4.weight f4 [32, 32]
0	0x3f16934d	0.58818513
1	0xbf42c534	-0.7608216
2	0x3c10e3b2	0.008843349
3	0x3f117d9f	0.5683231
4	0xbd4389fd	-0.047739018
5	0xbf32bfbf	-0.6982383
6	0x3e86798e	0.26264614
7	0xbf3ce5f4	-0.7378838
8	0xbf3a6df0	-0.72824
9	0xbf07ed30	-0.53096294
10	0xbe2defe0	-0.16986036
11	0xbe39f2da	-0.18159047
12	0x3d82cf9f	0.06387257
13	0xbf33dc94	-0.7025845
14	0xbf41a8c7	-0.7564816
15	0x3ec329e1	0.3811789
16	0xbf09b628	-0.53793573
17	0xbf784e9d	-0.96994954
18	0xbe5fb454	-0.21846133
19	0x3e884064	0.26611626
20	0xbe1c95e6	-0.15291557
21	0x3e8254c9	0.2545531
22	0xbc12baac	-0.008955639
23	0x3f20d289	0.6282125
24	0x3e2d1916	0.16904101
25	0x3eeea2a4	0.4660846
26	0xbefee473	-0.49783668
27	0x3de64db4	0.112452894
28	0x3cbdc63f	0.02316582
29	0xbe8a1a3b	-0.26973137
30	0x3eb37c82	0.3505593
31	0xbe5f2271	-0.21790482
32	0x3efe6c67	0.4969208
33	0x3d3aee61	0.045637492
34	0x3f09490c	0.53627086
35	0xbee82bde	-0.45345968
36	0xbec6b1f0	-0.3880763
37	0xbeaf1e27	-0.34202692
38	0x3e6fc540	0.23415089
39	0x3eae1c72	0.34006077
40	0xbd83adfe	-0.06429671
41	0x3ecc4d81	0.3990288
42	0xbe27d52f	-0.16389917
43	0x3b72ceac	0.0037049456
44	0xbd19c6e4	-0.037543193
45	0xbefdc619	-0.495652
46	0xbe4ec0a2	-0.20190671
47	0x3efa5e12	0.48899895
48	0xbed07f3c	-0.40722072
49	0xbe72e3e2	-0.23719743
50	0xbebbcd81	-0.36680225
51	0xbf155276	-0.5832895
52	0xbdeff15a	-0.11715956
53	0x3c16d346	0.009205645
54	0x3d1b7f71	0.037963334
55	0x3e0dc484	0.13844496
56	0x3dc26a4b	0.0949293
57	0x3dec039e	0.115241274
58	0x3ed888e6	0.42291945
59	0x3be6642c	0.0070309844
60	0xbc87a997	-0.016560359
61	0x3edaffc7	0.42773268
62	0xbe14c537	-0.14528356
63	0xbe36772c	-0.17818898
64	0xbea91bd7	-0.33029053
65	0x3e8923f3	0.2678524
66	0xbe370837	-0.17874227
67	0xbec256c4	-0.37956822
68	0x3d113461	0.035450343
69	0x3ed89329	0.42299774
70	0x3db54a42	0.08852054
71	0x3e8f9f7f	0.28051373
72	0x3eddb3af	0.4330115
73	0x3f2b79dc	0.6698282
74	0x3e654c63	0.2239242
75	0x3d66e43d	0.05637001
76	0xbda0fb81	-0.078604706
77	0x3ec8e318	0.3923576
78	0xbdc71dae	-0.09722458
79	0x3e85e51d	0.26151362
80	0xbe9d8131	-0.30762628
81	0x3f347fd6	0.7050756
82	0xbca9e587	-0.02073933
83	0x3c3a53c4	0.01137251
84	0x3e9a63a2	0.3015414
85	0xbe976f5c	-0.29577148
86	0xbe1f9133	-0.15582733
87	0xbdb9a390	-0.090644
88	0x3e81e73c	0.2537173
89	0xbf3864bd	-0.72028714
90	0xbc10b015	-0.008831044
91	0x3da30cd0	0.07961428
92	0x3ce91cc6	0.028456103
93	0x3eae035c	0.33986938
94	0xbf270774	-0.6524575
95	0x3edd7e6a	0.4326051
96	0x3c75f628	0.0150123015
97	0xbf3fdd9d	-0.7494753
98	0x3d730363	0.0593294
99	0xbe95caed	-0.29256383
100	0xbe728b18	-0.23685873
101	0x3df84f94	0.12124553
102	0x3e1c587d	0.1526813
103	0xbeb6504a	-0.3560813
104	0xbe738aa9	-0.23783363
105	0xbf03e87c	-0.5152662
106	0xbe1e973d	-0.1548738
107	0xbf1b6493	-0.6070034
108	0x3ea3fa09	0.320267
109	0xbe7f6f03	-0.24944691
110	0xbebfd360	-0.37465954
111	0x3e99fab5	0.30074087
112	0xbf1627b0	-0.5865431
113	0xbf06d063	-0.5266172
114	0x3de97fa1	0.114012964
115	0x3d987ca8	0.07445651
116	0xbe4d063c	-0.2002191
117	0xbc620362	-0.013794752
118	0x3b0c0abf	0.002136871
119	0x3ed65047	0.41858122
120	0xbd9c573d	-0.07633827
121	0x3d8a42e3	0.06751039
122	0xbf0fd891	-0.5618983
123	0xbf5072bd	-0.81425077
124	0x3ec0a4f9	0.37625864
125	0xbf1c505f	-0.61060137
126	0x3e488c4e	0.19584772
127	0xbd27aef9	-0.04093835
128	0x3e03045d	0.12794633
129	0x3f1dbfd6	0.61620843
130	0xbe5413d4	-0.20710689
131	0xbe9db970	-0.3080554
132	0xbe51fd8b	-0.20506875
133	0xbe328110	-0.17432046
134	0xbdc8c699	-0.098035045
135	0xbe70267f	-0.23452185
136	0xbed21381	-0.41030505
137	0xbf0e172a	-0.55504096
138	0xbda656d2	-0.081220284
139	0xbea9dbc1	-0.3317547
140	0xbcdc84f9	-0.026918875
141	0xbea9936d	-0.3312029
142	0x3c41107c	0.011783715
143	0xbdb83f20	-0.08996415
144	0xbe30c293	-0.17261724
145	0xbe5a9201	-0.21344759
146	0xbd34b8b5	-0.044121463
147	0xbf2e44d4	-0.68073773
148	0xbde46343	-0.11151745
149	0xbe088b14	-0.13334304
150	0x3eb0b252	0.34511048
151	0xbefe678b	-0.49688372
152	0xbeb0d83e	-0.3453998
153	0x3e766e85	0.24065597
154	0xbf0fa0f8	-0.56104994
155	0xbe83762e	-0.256761
156	0xbe632866	-0.2218338
157	0xbe85cd91	-0.26133397
158	0x3e8e7434	0.2782303
159	0xbceed070	-0.029152125
160	0x3ef04e3d	0.4693469
161	0x3d466e5d	0.048445094
162	0xbed48c4c	-0.41513288
163	0xbeb46f06	-0.35240954
164	0xbf114dc8	-0.5675931
165	0xbf39186b	-0.72302884
166	0xbd91405b	-0.07092353
167	0x3dbf4f39	0.093412824
168	0xbd747b24	-0.05968775
169	0xbde0dbb6	-0.109794065
170	0x3da76a41	0.08174563
171	0xbe8df6a5	-0.27727237
172	0xbe0b6c0b	-0.13615434
173	0xbec0bba2	-0.37643152
174	0xbcd419ca	-0.025891203
175	0x3eea14d0	0.45719004
176	0xbed4a60b	-0.4153293
177	0xbf09fb37	-0.5389895
178	0xbcd3e443	-0.02586568
179	0xbf4c9657	-0.799169
180	0x3d03a8d5	0.032143433
181	0xbeb1141e	-0.3458566
182	0x3f0d8878	0.5528636
183	0xbe60f278	-0.21967494
184	0xbd58442c	-0.05279939
185	0xbdab3dfd	-0.08361433
186	0xbe613980	-0.21994591
187	0xbe2d6532	-0.16933134
188	0x3d2f9642	0.042867906
189	0x3cb102c6	0.021607768
190	0x3e9eecc4	0.31040013
191	0x3e7cb7fb	0.24679558
192	0x3db59f33	0.088682555
193	0x3e514126	0.20435008
194	0x3d46507c	0.0484166
195	0x3e6cfdc9	0.23143686
196	0xbe286aae	-0.16446945
197	0xbe413385	-0.1886731
198	0x3e3e0f96	0.18560633
199	0x3f1997dd	0.5999735
200	0x3f65802a	0.8964869
201	0x3f0aa8c4	0.54163766
202	0x3f1abc71	0.6044379
203	0x3f8d0903	1.1018375
204	0xbeca62e4	-0.39528573
205	0x3f133895	0.5750821
206	0x3f087c7e	0.5331496
207	0xbe122f3d	-0.14275832
208	0x3e541c6e	0.2071397
209	0x3f6e79df	0.9315471
210	0xbee7ce52	-0.45274597
211	0x3d5a27ad	0.053260494
212	0x3e1f2a84	0.15543562
213	0xbef9efcb	-0.4881576
214	0xbeea7cb8	-0.45798278
215	0xbda12b9b	-0.07869645
216	0x3e016978	0.1263789
217	0xbf6d114e	-0.9260453
218	0x3f57858d	0.8418816
219	0x3f8e791b	1.1130708
220	0x3ea10b09	0.31453732
221	0x3ededa8a	0.43526107
222	0xbee741e2	-0.45167452
223	0x3f1406f0	0.57823086
224	0x3eb3cfb7	0.3511941
225	0xbf156710	-0.58360386
226	0x3f4734f7	0.7781519
227	0x3e84b10d	0.2591633
228	0x3d03ccec	0.03217785
229	0xbed3853c	-0.41312587
230	0x3e8daeee	0.27672523
231	0xbe4269be	-0.1898565
232	0xbe879fe5	-0.26489177
233	0xbcb72f9b	-0.022361567
234	0xbebde6ba	-0.37090093
235	0x3d63e75c	0.055640563
236	0x3d00fda2	0.031491883
237	0x3e854b3a	0.26033956
238	0xbf31d3a9	-0.6946359
239	0x3ee2b887	0.44281408
240	0xbf67fc84	-0.90619683
241	0xbe0dc941	-0.13846304
242	0xbb8847bd	-0.0041589425
243	0x3e5b14cf	0.21394657
244	0x3f32395e	0.69618785
245	0x3ec937b8	0.39300323
246	0xbf015de1	-0.5053387
247	0x3f213a7f	0.6297988
248	0x3e811f5f	0.25219247
249	0xbd68be63	-0.056822192
250	0xbd85c709	-0.065321036
251	0xbe3eb2a7	-0.18622838
252	0x3f6340db	0.88770837
253	0xbd87fbca	-0.06639822
254	0xbeea51d1	-0.45765546
255	0xbed8b7a4	-0.42327607

conv4.bias f4 [32]
0	0x3d3e9578	0.046529263
1	0x3e53ba27	0.2067648
2	0x3d3ce28f	0.0461145
3	0x3deb51cb	0.1149021
4	0x3e719f41	0.23595907
5	0xbca1c13e	-0.019745465
6	0x3c03ee06	0.008052355
7	0xbd4ad3bc	-0.049518332
8	0x3b77c157	0.0037804449
9	0xbc0076b1	-0.007840798
10	0xbd3e3de2	-0.046445735
11	0x3c8d28c9	0.017231362
12	0xbd586877	-0.052834
13	0x3d2ddc00	0.042446136
14	0x3e1d87d4	0.15383846
15	0xbe119ce4	-0.14220005
16	0x3e3dfe07	0.18553935
17	0x3dc5c995	0.09657589
18	0x3d06707c	0.032822117
19	0xbc51e81d	-0.012811688
20	0xbd946658	-0.07246083
21	0xbd847656	-0.06467883
22	0x3d264a97	0.04059848
23	0xbe102b17	-0.14078937
24	0x3d8fff48	0.07031113
25	0x3c379516	0.011204978
26	0x3c3a3090	0.011364117
27	0x3d09295f	0.03348672
28	0xbd6840de	-0.056702487
29	0x3d521e6b	0.05129854
30	0x3c079a3c	0.008276518
31	0xbd6e8916	-0.058236204

conv5.weight f4 [32, 2]
0	0x3e74c51e	0.23903319
1	0x3eefff26	0.4687435
2	0xbebe4a1d	-0.3716592
3	0x3f0a9fdc	0.54150176
4	0x3ed76e1e	0.420762
5	0x3e53da6e	0.20688793
6	0x3eeba07b	0.46020874
7	0xbf3e81f0	-0.7441702
8	0xbe20a843	-0.15689187
9	0x3f590ec8	0.8478818
10	0xbe2c5b87	-0.1683179
11	0xbf3c6e23	-0.73605555
12	0x3eb86cc1	0.36020473
13	0x3e3911ce	0.18073198
14	0x3e4b6921	0.19864322
15	0x3e8ffdad	0.28123227
16	0x3f4f9b3b	0.8109624
17	0xbe88267d	-0.26591864
18	0x3eb33965	0.35004726
19	0x3de8bd34	0.11364213
20	0x3dddf369	0.108374424
21	0x3ee0f0d6	0.43933743
22	0xbd83c372	-0.064337626
23	0x3f052c0d	0.5202034
24	0x3e409557	0.18806969
25	0xbee29d40	-0.44260597
26	0x3e79d7fe	0.243988
27	0xbf5cd26c	-0.8625858
28	0xbf0e2d33	-0.5553772
29	0x3ae66e6b	0.0017580515
30	0x3f0ec59d	0.55770284
31	0x3e5e1c87	0.2169057
32	0xbefcaf66	-0.49352568
33	0xbd4e9c7c	-0.050442204
34	0x3f71d991	0.94472605
35	0xbefab948	-0.48969483
36	0xbe82c1c4	-0.25538456
37	0xbf2839ea	-0.6571337
38	0x3f8837ce	1.064203
39	0x3db82021	0.08990503
40	0x3defd236	0.117100164
41	0xbe73ce2b	-0.23809116
42	0x3ec0eab7	0.37679073
43	0xbea6c206	-0.32569903
44	0xbdc3a91c	-0.095537394
45	0x3ebff8be	0.37494463
46	0x3f14d726	0.5814079
47	0xbebb8c62	-0.3663054
48	0xbe0959d3	-0.13413171
49	0x3e2d5032	0.16925123
50	0xbed5ef9c	-0.4178437
51	0xbe2df4f3	-0.16987972
52	0xbcca2a16	-0.024678271
53	0x3ebfa7e9	0.37432793
54	0x3ca569c6	0.020192038
55	0x3f19fe27	0.6015343
56	0x3e8199a1	0.25312522
57	0x3b2e816d	0.0026627437
58	0xbdbb0d8d	-0.09133444
59	0x3ec93546	0.39298457
60	0xbece5f66	-0.40307158
61	0x3e3e3d84	0.18578154
62	0xbe81eb61	-0.25374892
63	0x3dd104ae	0.10205971

conv5.bias f4 [2]
0	0x3d102a6c	0.035196707
1	0x3da2176b	0.07914623
