GST-recon/checkpoints/best_grid_ASAP.pth (torch, 29548 bytes, 18 tensors)

conv1.weight f4 [2, 32]
0	0xbe21fc8f	-0.15819
1	0xbe834fa9	-0.25646713
2	0x3e35508d	0.17706509
3	0x3df5ce57	0.12002247
4	0xbdb99d5d	-0.09063218
5	0x3e1010cb	0.14068906
6	0xbe79b6d4	-0.2438615
7	0x3e3bd14f	0.18341564
8	0xbd7dd8e4	-0.06197442
9	0x3e70f868	0.2353226
10	0x3ed3bbfd	0.4135436
11	0x3d0be330	0.03415221
12	0xbea9df74	-0.33178294
13	0xbeaf7379	-0.34267786
14	0x3da9930d	0.08280001
15	0x3b6ad1e5	0.0035830673
16	0xbd38062e	-0.04492777
17	0xbed88ce6	-0.42294997
18	0x3ecacfdc	0.3961171
19	0xbeab6f67	-0.3348343
20	0x3e89bff3	0.26904258
21	0xbe0ad30a	-0.13557068
22	0x3ea11f57	0.31469223
23	0x3e4164ed	0.18886156
24	0x3e1e6957	0.15469871
25	0xbce9eafd	-0.028554434
26	0x3e8c48cb	0.27399287
27	0x3deeb8ed	0.116563655
28	0x3e8fbedd	0.28075305
29	0xbec9e014	-0.3942877
30	0x3e8e166b	0.2775148
31	0x3e83fd33	0.25779113
32	0x3d9d17e0	0.076705694
33	0x3e32d3a3	0.17463546
34	0x3e30727f	0.17231177
35	0x3eb78dcb	0.35850367
36	0x3bdcda16	0.006739865
37	0xbd5d0694	-0.05396135
38	0x3b8099f3	0.003924602
39	0xbe15ef3c	-0.14642042
40	0x3e85ebbd	0.26156417
41	0xbeb65cf3	-0.3561779
42	0xbe87f0e1	-0.26550964
43	0x3eff19ef	0.49824473
44	0x3e897578	0.26847434
45	0x3dcbb61a	0.099468425
46	0x3db8e718	0.09028453
47	0x3d8b1a7f	0.06792163
48	0x3d1453fe	0.036212914
49	0xbed7c778	-0.4214437
50	0xbf0163a8	-0.5054269
51	0x3ec2869b	0.3799332
52	0x3eb6361a	0.3558815
53	0xbd5d0d7c	-0.053967938
54	0xbe5d197b	-0.21591751
55	0x3e071a2a	0.13193575
56	0xbd8e9abb	-0.06963106
57	0xbe16d764	-0.14730603
58	0x3d2ef16b	0.042710703
59	0x3e8b0857	0.271548
60	0x3d6d0ad1	0.057871643
61	0x3df023a0	0.11725545
62	0xbc9c0d42	-0.01904929
63	0xbebd7fda	-0.37011606

conv1.bias f4 [32]
0	0x3c5fb6a5	0.013654386
1	0x3cc71fb3	0.024307108
2	0xbdcc5814	-0.09977737
3	0xbe1230cd	-0.14276429
4	0xbcc37cee	-0.023863282
5	0xbd824f82	-0.06362821
6	0x3d58de38	0.0529463
7	0xbbadd759	-0.0053052125
8	0xbda31550	-0.079630494
9	0x3d30a24e	0.043123536
10	0xbda5e6e8	-0.081006825
11	0xbdcd5540	-0.10026026
12	0x3d449dd9	0.048002098
13	0x3d6a333f	0.05717778
14	0xbd01ff58	-0.031737655
15	0x3b9edd5d	0.004848166
16	0x3d09305a	0.033493377
17	0x3e65a771	0.22427155
18	0x3d7bf25b	0.061510425
19	0xbce3cac9	-0.027806656
20	0xbe14f3ee	-0.14546177
21	0x3dc012d1	0.09378589
22	0xbc88b585	-0.016688118
23	0xbdb1dbbd	-0.0868449
24	0xbdfd6627	-0.12373
25	0x3d3e65fb	0.046483975
26	0xbd5acb1f	-0.053416368
27	0xbe0b5708	-0.13607419
28	0xbde4a2d7	-0.11163872
29	0x3d9f1a27	0.0776866
30	0x3ac8c489	0.0015317361
31	0x3d696f0a	0.05699066

conv2.weight f4 [32, 32]
0	0xbe157f43	-0.14599328
1	0xbd1965c6	-0.037450574
2	0xbe48fbbe	-0.19627282
3	0xbe3dc2e8	-0.18531382
4	0x3d9783d3	0.0739819
5	0x3e178b6b	0.14799277
6	0xbcac48e6	-0.021030854
7	0xbe586ac9	-0.21134485
8	0x3e3555d2	0.17708519
9	0xbded4fdc	-0.115874976
10	0xbd96ee21	-0.07369638
11	0x3ea6d1a3	0.32581815
12	0x3c4fa568	0.012673713
13	0x3da1bbe8	0.078971684
14	0x3d74b005	0.059738178
15	0x3d7be006	0.061492942
16	0x3e7f2d97	0.24919735
17	0xbe4f0609	-0.20217146
18	0xbe1432f8	-0.14472568
19	0xbd574dd8	-0.052564472
20	0xbde126f6	-0.10993759
21	0xbe084122	-0.13306096
22	0x3e33c5a6	0.17555866
23	0x3e67b6b2	0.22628286
24	0x3d3c7474	0.046009496
25	0x3e86601b	0.26245198
26	0xbe309030	-0.17242503
27	0xbe557f3a	-0.20849314
28	0x3e482929	0.19546951
29	0xbc8d1244	-0.017220624
30	0xbe8e10f7	-0.27747318
31	0xbe85c7c5	-0.26128975
32	0xbe5d3cb1	-0.21605183
33	0x3e8cbbb9	0.2748697
34	0x3e29a607	0.1656724
35	0x3e140670	0.1445558
36	0xbe818be9	-0.25302055
37	0xbebd53ca	-0.36977988
38	0xbe81c0c5	-0.25342384
39	0x3d814256	0.06311481
40	0x3d09254a	0.033482827
41	0xbe791247	-0.24323379
42	0x3e231682	0.15926555
43	0x3c9ccd25	0.01914079
44	0xbe211ecf	-0.15734409
45	0x3e3b30a5	0.18280275
46	0xbdcb9cab	-0.099419914
47	0x3e7add57	0.24498497
48	0x3da88534	0.082285315
49	0x3cc8060a	0.024416942
50	0xbd6b3c76	-0.057430707
51	0xbe2cccab	-0.1687495
52	0xbdee7210	-0.116428494
53	0xbe0a21b7	-0.13489424
54	0xbe1e3756	-0.15450796
55	0x3e2a0760	0.16604376
56	0x3d89ef36	0.06735079
57	0xbe684a5f	-0.2268462
58	0x3e59ac78	0.21257198
59	0xbe0c78ad	-0.13717909
60	0x3dc3b11e	0.09555267
61	0xbe65739e	-0.22407386
62	0xbe846bde	-0.25863546
63	0xbe913b9f	-0.283658
64	0x3e3f8f61	0.18707038
65	0x3c3c4e58	0.011493288
66	0xbe17f31f	-0.14838837
67	0x3a847165	0.0010104595
68	0xbedfee80	-0.4373665
69	0x3db3f009	0.087860174
70	0x3e9459ac	0.28974664
71	0xbb4df253	-0.0031424954
72	0xbe20361c	-0.15645641
73	0x3e935912	0.28778893
74	0x3ea2f946	0.31830806
75	0x3cea50a0	0.028602898
76	0xbe2cb7ea	-0.16867033
77	0x3db89f46	0.09014754
78	0x3c94c5dd	0.018160755
79	0xbd9174bf	-0.07102346
80	0xbe9dd54e	-0.308268
81	0xbe6eb44a	-0.23310962
82	0x3d4f21fa	0.050569512
83	0xbe214af9	-0.15751256
84	0x3e2f614a	0.17126957
85	0xbc010559	-0.00787481
86	0xbda28a76	-0.079365656
87	0xbe871875	-0.26385847
88	0xbe084bab	-0.13310115
89	0x3df8b1e9	0.12143309
90	0x3e6c38a3	0.2306848
91	0xbcb25373	-0.021768307
92	0xbe7e9472	-0.24861315
93	0x3ea2b399	0.31777647
94	0x3e5b9b3f	0.2144594
95	0xbe17eb01	-0.1483574
96	0xbd5afd35	-0.053464133
97	0xbe011765	-0.1260658
98	0xbe3190a7	-0.17340337
99	0xbe48987b	-0.19589417
100	0xbda4f776	-0.08055012
101	0xbecc5a91	-0.39912847
102	0xbab021ae	-0.0013437772
103	0xbe857283	-0.26063928
104	0x3e82aebd	0.2552394
105	0x3e64100e	0.2227175
106	0x3e8aaa71	0.2708316
107	0xbde75b53	-0.112967156
108	0x3ddc61dd	0.107608534
109	0x3dca3984	0.098742515
110	0xbe2e6a63	-0.17032771
111	0x3ccb341b	0.02480512
112	0xbe610ec4	-0.21978289
113	0x3c16badd	0.009199825
114	0x3e2cc4c1	0.1687193
115	0xbe98b535	-0.2982575
116	0x3e60fe96	0.21972117
117	0x3d63e4ef	0.05563825
118	0xbd650949	-0.05591706
119	0x3e200e35	0.1563042
120	0x3df88ab0	0.121358275
121	0xbdb48a01	-0.08815385
122	0xbe6c4b93	-0.23075704
123	0x3e025e53	0.12731294
124	0x3e838e78	0.25694633
125	0x3ea83617	0.32853767
126	0x3e3af11f	0.18256043
127	0x3ea50138	0.32227492
128	0x3e7e334d	0.24824257
129	0xbe7e1b69	-0.24815144
130	0x3d8fdf67	0.070250325
131	0xbdcac68d	-0.09901152
132	0x3e06f2d0	0.13178563
133	0xbdb396e9	-0.08769018
134	0x3d8e7fae	0.06957947
135	0xbe54bfe1	-0.20776321
136	0x3e2abb19	0.16672935
137	0x3e63c13d	0.22241683
138	0xbdae59e7	-0.08513241
139	0xbe7c0089	-0.24609579
140	0xbe5b5d1b	-0.21422236
141	0xbcc23a2e	-0.023709383
142	0x3ca43a3d	0.020047301
143	0x3cc801d0	0.024414927
144	0x3da9818a	0.08276661
145	0x3e6ff6b1	0.23433949
146	0xbde41576	-0.11136906
147	0x3e072463	0.13197474
148	0xbdfa4bd7	-0.122214966
149	0x3ea109f7	0.31452915
150	0x3e04342a	0.12910524
151	0xbb67eadd	-0.0035387792
152	0x3e1b7055	0.1517957
153	0x3da3ffad	0.08007751
154	0x3d9d8e06	0.076931044
155	0xbd8dc0d6	-0.06921546
156	0x3cf10f0c	0.02942612
157	0xbdb28d8f	-0.087184064
158	0xbe239183	-0.15973477
159	0xbd61f3c7	-0.055164125
160	0x3daa66cc	0.08320388
161	0xbe44a571	-0.19203736
162	0x3d421b27	0.047389176
163	0xbdb859c5	-0.09001497
164	0xbe551fec	-0.20812958
165	0xbddd3df1	-0.1080283
166	0xbe639eff	-0.22228621
167	0x3df339d4	0.11876264
168	0x3dfb25de	0.12263082
169	0x3e4e5448	0.20149338
170	0x3e9bd0cd	0.3043274
171	0x3d78a47b	0.060703736
172	0x3e4dda88	0.20102894
173	0xbdc2f854	-0.09520021
174	0x3e7088d8	0.23489702
175	0xbde651a8	-0.112460434
176	0xbdd7a0af	-0.10528695
177	0xbdd18966	-0.10231285
178	0xbdf5940c	-0.11991128
179	0xbe7fab82	-0.24967769
180	0xbd91cdcc	-0.07119331
181	0x3e8c76c2	0.27434355
182	0xbe0fa368	-0.14027178
183	0xbea7e2e0	-0.3279028
184	0xbe193959	-0.14963283
185	0x3eb22a42	0.34797865
186	0x3dc436ff	0.09580802
187	0x3be728c8	0.007054422
188	0xbdd5dc84	-0.10442451
189	0x3e78a42f	0.24281381
190	0xbe7380a7	-0.23779546
191	0x3e7a285d	0.2442946
192	0x3d8b5267	0.068028264
193	0x3e97478e	0.2954678
194	0xbe038d92	-0.12846974
195	0xbe3f0a5c	-0.18656296
196	0xbd5d2105	-0.053986568
197	0x3e95db38	0.29268813
198	0xbdfd8898	-0.12379569
199	0xbe80a1a7	-0.2512333
200	0x3e8102cc	0.25197446
201	0xbcf83f32	-0.030303571
202	0xbd92b566	-0.07163505
203	0xbe0b50ce	-0.13605043
204	0xbe680399	-0.22657622
205	0x3e8c6284	0.2741891
206	0xbe71a498	-0.23597944
207	0xbd0f1288	-0.034929782
208	0xbd4fe7b3	-0.050758075
209	0x3e20463f	0.15651797
210	0xbeb0e1e0	-0.3454733
211	0xbd61740c	-0.05504231
212	0xbe09d5cc	-0.13460463
213	0xbdfb7fc4	-0.12280229
214	0x3e537a41	0.20652105
215	0x3e8ee926	0.27912253
216	0x3d8b6eda	0.06808253
217	0x3ddcf0c8	0.10788113
218	0xbe3ca34e	-0.18421671
219	0x3d574630	0.05255717
220	0xbe84cf33	-0.2593933
221	0xbe317076	-0.17328057
222	0xbe94cec6	-0.29064006
223	0xbeb8648e	-0.36014217
224	0x3e805391	0.25063756
225	0xbdee0837	-0.116226606
226	0xbd04e677	-0.03244635
227	0xbcf765a1	-0.030199828
228	0xbe09ade7	-0.13445245
229	0x3db29b4c	0.08721027
230	0x3da63532	0.08115615
231	0x3e9a25fe	0.3010711
232	0xbe74e8e3	-0.23916964
233	0x3e2f9052	0.17144898
234	0xbe1ad34d	-0.15119667
235	0x3dc51031	0.09622229
236	0x3e86c056	0.26318616
237	0xbd2c2cbc	-0.04203485
238	0xbdda5dfa	-0.10662456
239	0x3e36dd40	0.17857838
240	0xbe16d3a4	-0.14729172
241	0xbe07b010	-0.13250756
242	0x3cdf162e	0.027232256
243	0xbe5420b1	-0.20715596
244	0xbe06efaa	-0.13177362
245	0xbe18c035	-0.14917071
246	0x3e36863a	0.17824641
247	0xbec25437	-0.37954876
248	0xbe9f0b93	-0.31063518
249	0x3de9c9b7	0.11415427
250	0x3e30a984	0.17252165
251	0x3eac0069	0.33594063
252	0xbe8a7885	-0.27045074
253	0x3e514356	0.20435843
254	0x3e67f603	0.2265244
255	0xbe1259b7	-0.14292036

conv2.bias f4 [32]
0	0xbd92a605	-0.07160572
1	0x3db393de	0.08768438
2	0xbd6a0505	-0.057133693
3	0xbd7789f6	-0.060434304
4	0x3e01342f	0.12617563
5	0x3d13d1a4	0.0360886
6	0xbda0c25a	-0.078495696
7	0x3d2d9b53	0.042384457
8	0xbce289c2	-0.027653579
9	0xbd3998f7	-0.045311894
10	0xbd8325cc	-0.064036936
11	0xbd5f840c	-0.05456929
12	0x3d73edcb	0.05955295
13	0xbcc53867	-0.024074746
14	0x3b70a997	0.0036722177
15	0xbd3d388a	-0.046196498
16	0x3cdd0469	0.026979642
17	0xbbbca57d	-0.0057570324
18	0xbda070a2	-0.07833983
19	0x3e29e613	0.16591673
20	0x3d2e89b6	0.0426118
21	0xbdc031fc	-0.09384534
22	0xbcdcd358	-0.026956245
23	0xbdcc7544	-0.09983304
24	0xbdb257e9	-0.08708174
25	0xbd86d787	-0.06584077
26	0xbd02df97	-0.031951513
27	0xbbd0ffb4	-0.0063781384
28	0x3bc116dd	0.005892618
29	0xbe4ac510	-0.19801736
30	0xbdd9defd	-0.10638235
31	0xbd9ea7c9	-0.07746846

pool.lin_q.weight f4 [32, 32]
0	0x3d8e8017	0.06958025
1	0xbe7f3a0a	-0.24924484
2	0x3dd0a02e	0.10186802
3	0x3eaab0cc	0.3333801
4	0x3e189fc9	0.14904703
5	0xbd7b5c47	-0.0613673
6	0xbd147a4a	-0.036249436
7	0x3dc28136	0.09497301
8	0x3b784a90	0.003788624
9	0xbe10bfad	-0.14135619
10	0x3dc35a2a	0.09538682
11	0x3e48fb1c	0.1962704
12	0x3e0dcc6a	0.13847509
13	0x3e533942	0.20627311
14	0x3e43f30e	0.19135687
15	0x3e6bdac9	0.23032679
16	0x3b773587	0.0037721114
17	0x3d488cc2	0.048962362
18	0xbe1ee246	-0.15516004
19	0x3e4ff279	0.2030734
20	0xbe49c5c1	-0.19704343
21	0xbc169086	-0.0091897305
22	0xbb8db1a2	-0.004324154
23	0x3e7b4eaa	0.24541727
24	0xbd76d064	-0.06025733
25	0x3e97e810	0.29669237
26	0xbe244fdb	-0.16046087
27	0xbe05f0e8	-0.1308018
28	0xbb9c53e2	-0.004770742
29	0x3dab6bc4	0.08370164
30	0xbd3c5e48	-0.04598835
31	0xbe48c475	-0.19606192
32	0xbe2f5907	-0.17123805
33	0x3e4a5ecf	0.19762729
34	0x3d53aa4f	0.05167609
35	0xbe9bb6df	-0.30412957
36	0x3d7e533d	0.0620911
37	0x3cbbfa6e	0.022946563
38	0xbe401d25	-0.18761118
39	0xbc64def6	-0.013969174
40	0x3e3c311e	0.18378112
41	0x3d1df2fe	0.038561814
42	0x3a97cafc	0.001158088
43	0xbd1b71cc	-0.037950322
44	0xbd22fc13	-0.039791178
45	0xbd879a54	-0.06621233
46	0x3b3c717b	0.0028754163
47	0xbe8a2955	-0.2698466
48	0xbd0169f4	-0.031595185
49	0x3e48dfa9	0.1961657
50	0x3ce6631c	0.02812343
51	0xbe36398e	-0.17795393
52	0xbd5110ec	-0.05104153
53	0x3e79132f	0.24323724
54	0x3e839461	0.25699142
55	0xbe4d155e	-0.20027682
56	0x3e84cb2d	0.2593626
57	0xbe23a588	-0.15981114
58	0x3e595e93	0.21227483
59	0x3d5b2665	0.053503413
60	0x3e5228c9	0.20523371
61	0xbd92897e	-0.07155131
62	0x3e71d1e7	0.23615228
63	0x3e76a2e2	0.24085572
64	0x3deda89f	0.116044275
65	0xbe40a4bc	-0.18812841
66	0x3c6271be	0.013821064
67	0x3e89a599	0.26884153
68	0xbcb71f68	-0.022353843
69	0xbe94495c	-0.2896222
70	0xbd4717b5	-0.048606593
71	0xbd920cc7	-0.07131343
72	0xbe89aaea	-0.2688821
73	0xbdf7bf0c	-0.12096986
74	0x3e1d0453	0.15333681
75	0xbd8cfbd9	-0.06883974
76	0x3dacaa2a	0.08430894
77	0x3e1c4099	0.15259017
78	0x3dfb6f9a	0.12277146
79	0x3e62dfd3	0.22155695
80	0xbe1e61bf	-0.15466975
81	0xbe99acd6	-0.30014676
82	0xbe2a1648	-0.16610062
83	0x3e0703e7	0.13185082
84	0xbbdff2da	-0.00683437
85	0xbda0b8cf	-0.078477494
86	0xbe444735	-0.19167788
87	0x3e96ae79	0.29429987
88	0xbe85c797	-0.26128837
89	0x3cabafbb	0.020957818
90	0xbe64b534	-0.22334749
91	0x3d293faa	0.04132048
92	0xbe0ab86d	-0.13546915
93	0x3e19116b	0.1494805
94	0xbea05a9a	-0.31319124
95	0xbe55d742	-0.20882896
96	0x3db1af90	0.08676064
97	0xbe401641	-0.18758489
98	0xbcf32898	-0.029682443
99	0x3e6c1b68	0.2305733
100	0xbc5fe413	-0.013665217
101	0xbda2b071	-0.0794381
102	0xbd73477a	-0.059394337
103	0x3e8ecb02	0.27889258
104	0xbe608363	-0.2192512
105	0xbe0e7d27	-0.1391493
106	0x3debda83	0.11516287
107	0x3de86560	0.11347461
108	0x3d82eff6	0.06393425
109	0x3e0e1572	0.13875368
110	0x3e4054eb	0.18782394
111	0x3e2f3b4d	0.17112465
112	0xbda863a9	-0.08222134
113	0xbe02d95e	-0.12778232
114	0xbcd4a9fc	-0.025959961
115	0x3e78bc34	0.24290544
116	0xbe904dd2	-0.28184372
117	0xbe30efbf	-0.17278956
118	0xbe2fa8e4	-0.1715427
119	0x3de88df5	0.11355201
120	0x3c9a651d	0.018847043
121	0x3debbb5a	0.11510344
122	0xbe020710	-0.12698007
123	0x3c1326e1	0.008981437
124	0x3df560e4	0.11981371
125	0x3e19af11	0.15008189
126	0xbe4157b4	-0.18881112
127	0xbce8aa2a	-0.028401453
128	0x3db59c8d	0.0886775
129	0x3ea51bc9	0.3224776
130	0xbe921344	-0.28530324
131	0xbe868d47	-0.2627966
132	0xbe8535e4	-0.26017678
133	0x3e2d151f	0.16902588
134	0xbe1fbd98	-0.15599668
135	0xbcac5c23	-0.021040028
136	0xbcb6b208	-0.022301689
137	0x3de894c4	0.113565
138	0xbe43b21b	-0.1911091
139	0xbe484b89	-0.19560064
140	0xbe36a303	-0.17835622
141	0xbdaac8ae	-0.08339058
142	0xbe892515	-0.26786104
143	0xbe522512	-0.20521954
144	0xbcea85df	-0.028628288
145	0x3e00016b	0.12500541
146	0xbdf6d858	-0.12052983
147	0xbd6c9597	-0.057759847
148	0x3d898ffe	0.067169175
149	0x3e822f11	0.25426534
150	0x3aa5cc7a	0.001264944
151	0xbe3bf781	-0.18356134
152	0x3e7447b5	0.23855479
153	0xbe837858	-0.25677752
154	0x3ea712e8	0.32631612
155	0x394964be	0.00019206383
156	0xbbcddaa6	-0.0062821684
157	0xbde0851c	-0.109628886
158	0xbc1fdd6f	-0.009757384
159	0x3bd8e1f2	0.0066187317
160	0x3dc571c4	0.0964084
161	0x3e4aa867	0.19790803
162	0xbd17044a	-0.036869325
163	0xbe98660c	-0.29765356
164	0xbe72cc91	-0.23710848
165	0xba38d8e8	-0.00070513645
166	0xbe4d34fc	-0.20039743
167	0xbd381927	-0.044945862
168	0x3c844a27	0.01614864
169	0xbd03fd72	-0.032224126
170	0xbe1e23b9	-0.15443315
171	0xbe37a525	-0.17934091
172	0xbdac8b70	-0.08425033
173	0x3e01d460	0.12678671
174	0xbe992732	-0.29912716
175	0xbe20cbbe	-0.15702721
176	0x3d4b0e9e	0.049574487
177	0x3dc4d305	0.09610561
178	0x3e03f8ba	0.1288785
179	0xbd98e4ce	-0.07465516
180	0x3d9d5d35	0.076837935
181	0x3d41716b	0.047227304
182	0x3e180c4c	0.14848441
183	0xbe58bae3	-0.21165042
184	0x3e53a9db	0.20670263
185	0xbe57151a	-0.21004143
186	0x3e896144	0.2683202
187	0x3e6464f4	0.22304136
188	0xbc8a8816	-0.016910594
189	0xbdee1239	-0.116245694
190	0x3e41f5cf	0.18941425
191	0xbc09a1d2	-0.008400397
192	0xbde9915b	-0.114046775
193	0xbd30caac	-0.043162033
194	0x3e1e2148	0.15442383
195	0x3eb75932	0.35810238
196	0x3e43b97b	0.19113724
197	0x3d257882	0.04039813
198	0xbc05ca36	-0.008165887
199	0xbc9f463b	-0.019442668
200	0xbe88427b	-0.2661322
201	0xbe6b087f	-0.2295246
202	0x3dd7d856	0.1053931
203	0xbe09d69b	-0.13460772
204	0x3e5cd558	0.21565759
205	0xbd9c6158	-0.07635754
206	0x3d555733	0.052085113
207	0x3ca39bc3	0.019971734
208	0xbd1cbcea	-0.0382661
209	0x3d09ce15	0.0336438
210	0xbd7f719a	-0.0623642
211	0x3bea4088	0.007148806
212	0xbe1b5da7	-0.15172444
213	0xbe464f4a	-0.19366184
214	0xbea7d4d0	-0.3277955
215	0x3e870520	0.26371098
216	0x3d5b3cd6	0.053524815
217	0x3c19d4e3	0.009389135
218	0xbcebeeaf	-0.028800337
219	0xbcb5fda0	-0.022215664
220	0xbe39ef82	-0.18157771
221	0x3e823b89	0.25436047
222	0xbe8b1cd9	-0.27170447
223	0xbe68587b	-0.22690003
224	0x3d0c12ae	0.0341975
225	0x3dcd393e	0.10020684
226	0xbd3c5cbd	-0.04598688
227	0xba015e3c	-0.00049350015
228	0xbe54774e	-0.20748636
229	0xbafd2d45	-0.001931586
230	0xbd50735e	-0.050891273
231	0xbe1b9efa	-0.15197363
232	0xbc24f994	-0.01006927
233	0x3db7b075	0.089692034
234	0x3b99f112	0.0046979273
235	0xbddab17f	-0.10678386
236	0xbdb04ccc	-0.08608398
237	0x3e92a471	0.28641084
238	0x3c5fe597	0.013665578
239	0x3e3adefb	0.18249123
240	0x3e6cc230	0.23120952
241	0x3e47dea9	0.19518532
242	0x3c849891	0.01618603
243	0xbe894ae8	-0.2681496
244	0x3d01e2b0	0.031710327
245	0x3e8de6c5	0.27715126
246	0x3e64c730	0.22341609
247	0x3d849ba1	0.06474996
248	0x3d9ee911	0.07759298
249	0xbe8de5ea	-0.27714473
250	0x3e05dc78	0.13072383
251	0x3e60437d	0.21900745
252	0xbe5a2956	-0.21304831
253	0xbd9d42e1	-0.07678772
254	0x3e6463ba	0.22303668
255	0x3da140e7	0.07873707

pool.lin_q.bias f4 [32]
0	0x3e13ddcd	0.14440079
1	0xbe296bd8	-0.16545045
2	0x3e65ec6b	0.22453468
3	0xbc3609f0	-0.011110768
4	0xbced317b	-0.028954258
5	0xbcb32386	-0.021867525
6	0x3e846b99	0.2586334
7	0x3d1f5fb0	0.038909614
8	0xbdb3555e	-0.08756517
9	0xbd86a7be	-0.06574963
10	0x3e03177b	0.12801926
11	0x3e7a9c3d	0.24473663
12	0xbe2bb309	-0.16767515
13	0x3e2d54c7	0.16926871
14	0xbe8c397b	-0.27387604
15	0x3e0e323e	0.13886353
16	0x3e063f37	0.13110052
17	0xbdd20ed3	-0.10256734
18	0x3e2a90b7	0.16656767
19	0x3e8b4c75	0.2720677
20	0x3cbc35a7	0.022974802
21	0xbdb2abe2	-0.0872419
22	0xbe8b36de	-0.27190298
23	0x3dea6425	0.11444882
24	0x3d90c140	0.070681095
25	0x3e7fa0ee	0.24963734
26	0x3e2adc90	0.166857
27	0x3e5b8fe5	0.2144161
28	0xbe41def0	-0.189327
29	0xbe1a69d5	-0.15079434
30	0xbbabd41b	-0.005243791
31	0x3e4bbe28	0.19896758

pool.gat_att.weight f4 [1, 64]
0	0x3e802c29	0.25033692
1	0xbebe1470	-0.37124968
2	0x3e8c651b	0.27420887
3	0x3e351c3a	0.17686549
4	0xbe5ef23f	-0.21772097
5	0xbe54c136	-0.20776829
6	0x3e6620a2	0.22473386
7	0xbdec919a	-0.11551209
8	0xbe27fabe	-0.16404244
9	0xbe3d2294	-0.18470222
10	0x3e2e2bd7	0.17008911
11	0x3e92f1c6	0.28700083
12	0xbe7cd427	-0.24690305
13	0x3eab8056	0.3349635
14	0xbe7a514e	-0.24445078
15	0x3e44a884	0.19204909
16	0x3e050852	0.12991455
17	0xbdfbc4cb	-0.12293395
18	0x3e182485	0.14857681
19	0x3e408b02	0.18803027
20	0x3e75cbb0	0.24003482
21	0xbe551c92	-0.2081168
22	0xbe7f0acc	-0.24906462
23	0x3e746cfd	0.238697
24	0x3e5ae580	0.2137661
25	0x3e87e871	0.26544526
26	0x3e98f004	0.29870617
27	0x3e6194d8	0.22029436
28	0xbe4698de	-0.19394252
29	0xbe42eec5	-0.19036396
30	0x3df0da5f	0.11760401
31	0x3e6dc0eb	0.23218124
32	0x3ecdfed5	0.40233484
33	0x3ec2ac11	0.380219
34	0xbedd2233	-0.43190154
35	0xbec8601a	-0.3913582
36	0xbf037f02	-0.51365674
37	0x3ed4a9cf	0.41535804
38	0x3c360eab	0.011111896
39	0xbeefd7a1	-0.468442
40	0x3f0d6777	0.55236
41	0x3eefd81b	0.46844563
42	0xbf01359c	-0.50472426
43	0xbe83ca99	-0.25740507
44	0xbe9669a7	-0.2937748
45	0x3d77a6ca	0.060461797
46	0xbf1181d4	-0.56838727
47	0xbe547e42	-0.20751289
48	0x3ec0aa43	0.376299
49	0x3f09f754	0.5389302
50	0x3ee1bb68	0.44088292
51	0xbf1b4ce9	-0.6066423
52	0x3f051501	0.51985174
53	0x3f090552	0.53523743
54	0x3f05a13e	0.5219916
55	0xbc595440	-0.013264716
56	0x3eb4e85b	0.35333523
57	0xbee03ad7	-0.4379489
58	0x3ef1f777	0.47259113
59	0x3f022517	0.50837845
60	0xbe232dbc	-0.15935415
61	0xbef6c8c2	-0.4820004
62	0x3f0897bb	0.5335652
63	0x3ecf1653	0.4044672

pool.gnn_score.weight f4 [32, 1]
0	0x3dcfc3e6	0.101447865
1	0xbca02f53	-0.019553816
2	0x3da4db41	0.08049632
3	0x3e1d3a69	0.15354313
4	0x3e151156	0.14557394
5	0x3e222dcc	0.15837783
6	0x3c49552f	0.012288376
7	0x3d585356	0.05281385
8	0x3d4c8506	0.04993155
9	0xbd92a263	-0.07159879
10	0xbcab7c5e	-0.020933326
11	0x3c0db81d	0.008649853
12	0xbe16b006	-0.14715585
13	0xbd9a204b	-0.07525691
14	0xbdde3412	-0.108497754
15	0x3d968640	0.07349825
16	0xbe083656	-0.13301978
17	0x3ab56651	0.0013839697
18	0x3d9afe22	0.07568003
19	0xbddcd38b	-0.10782536
20	0x3cee69db	0.02910321
21	0x3dbca667	0.09211426
22	0x3c37c45c	0.011216249
23	0xbda1f181	-0.07907391
24	0x3d31ac1f	0.043377038
25	0x3d1cf45d	0.03831898
26	0x3dac8c06	0.08425145
27	0x3d1fdea8	0.0390307
28	0xbd0e905f	-0.03480565
29	0x3c5d8356	0.013520082
30	0x3e02f158	0.12787378
31	0xbc39687f	-0.011316418

pool.gnn_score.lin1.weight f4 [1, 32]
0	0xbc506978	-0.012720458
1	0x3d80af64	0.06283453
2	0x3d9151a1	0.070956476
3	0xbe167e1f	-0.14696549
4	0xbe39f9de	-0.18161723
5	0xbe2aee50	-0.16692472
6	0xbcb46f2c	-0.022025667
7	0xbd512c1c	-0.051067457
8	0x3d9d8ec6	0.076932475
9	0x3d17b4be	0.037037604
10	0xbddc3be4	-0.10753611
11	0x3d2774c9	0.04088286
12	0x3e05ed79	0.1307887
13	0xbd1f6771	-0.03891701
14	0x3dbb7dc2	0.09154846
15	0xbd768dee	-0.06019395
16	0x3dfc3ffb	0.12316891
17	0xbd768bb6	-0.060191832
18	0xbd96944c	-0.07352504
19	0x3dacbb3a	0.08434148
20	0xbd792e7d	-0.06083535
21	0xbc031cec	-0.008002501
22	0x3c6fd0cf	0.014637186
23	0x3e0d76e2	0.13814881
24	0xbd1fbfc5	-0.039001245
25	0xbd7674b3	-0.060169887
26	0xbd9891ce	-0.07449685
27	0x3a93fc5d	0.001129042
28	0x3a96b97d	0.0011499372
29	0x3d5a00c3	0.053223383
30	0xbe02d5f6	-0.12776932
31	0x3bbc4aa4	0.0057462025

pool.gnn_score.lin2.weight f4 [1, 32]
0	0xbe1c5785	-0.15267761
1	0xbd79f0e4	-0.061020747
2	0xbe1f2ace	-0.15543672
3	0x3d558a4b	0.05213384
4	0xbd5d1d9c	-0.053983316
5	0x3d21a896	0.039467417
6	0xbcaa793c	-0.020809762
7	0xbcca90bc	-0.024727218
8	0xbe00dd0e	-0.12584326
9	0x3e8a7794	0.27044356
10	0x3e3579a0	0.17722178
11	0x3d83f48a	0.064431265
12	0x3dfdd59e	0.1239426
13	0xbdb30463	-0.08741071
14	0xbcdf3dbe	-0.02725112
15	0xbdfc70b6	-0.123261854
16	0xbd5ca6b6	-0.053869925
17	0xbc3d89d3	-0.011568504
18	0x3daa1893	0.083054684
19	0x3e5f7b9b	0.21824495
20	0x3e7698a9	0.24081673
21	0xbec9bbe4	-0.39401162
22	0xbdd8e382	-0.10590269
23	0xbe8bea5a	-0.27327234
24	0xbda112ce	-0.07864915
25	0xbdbf5771	-0.0934285
26	0xbe222306	-0.15833673
27	0xbe1b0716	-0.15139422
28	0x3e474b52	0.19462326
29	0xbe029b59	-0.12754573
30	0xbdc4907e	-0.09597872
31	0x3d6b3246	0.05742099

pool.gnn_intra_cluster.weight f4 [32, 32]
0	0xbd0213f9	-0.03175733
1	0x3f508261	0.8144894
2	0xbdf73f90	-0.120726705
3	0xbf371cfe	-0.71528614
4	0xbdebf5e3	-0.115215085
5	0x3f323571	0.69612795
6	0xbe5fa1c1	-0.21839048
7	0xbec110d9	-0.37708166
8	0x3f3e05b7	0.7422747
9	0x3f381147	0.71901363
10	0xbefb3fd1	-0.49072126
11	0xbe51e319	-0.20496787
12	0xbed437ff	-0.41448972
13	0x3cb8f60d	0.022578264
14	0xbf2df1d8	-0.6794715
15	0xbf0c028d	-0.5469139
16	0x3ef40b95	0.47665086
17	0x3f05f6b3	0.5232956
18	0x3ef7db22	0.48409373
19	0xbf214648	-0.62997866
20	0x3f241c6a	0.64105856
21	0x3e1bd6ca	0.15218654
22	0x3f34d790	0.7064142
23	0xbd25514e	-0.04036074
24	0x3f34e1ef	0.7065725
25	0xbe65cab2	-0.22440603
26	0x3ebc68da	0.36798745
27	0x3e85a209	0.26100186
28	0x3d0e5c58	0.034756035
29	0xbe41aa34	-0.18912584
30	0x3e412c8e	0.18864653
31	0x3e6029c9	0.2189094
32	0x3e970d65	0.29502407
33	0xbe4aabc8	-0.19792092
34	0x3e7d7ca9	0.24754585
35	0x3e8489f3	0.25886497
36	0x3eab5791	0.33465245
37	0x3e0b5200	0.136055
38	0x3ce48041	0.027893187
39	0x3e5d9071	0.21637131
40	0xbd6a4664	-0.057196036
41	0xbc4e00c8	-0.012573428
42	0x3e178fcb	0.14800946
43	0x3e85fa92	0.26167732
44	0xbe37f833	-0.17965774
45	0x3deb01fb	0.11474987
46	0xbd3b38da	-0.045708515
47	0x3e23638b	0.15955941
48	0xbdc94b7e	-0.09828852
49	0xbe39189c	-0.18075794
50	0x3d8b749a	0.06809349
51	0xbd9284ec	-0.07154259
52	0x3ce66379	0.028123604
53	0xbdd32e4c	-0.10311565
54	0xbe9ecbdd	-0.3101491
55	0x3e88cbf5	0.26718107
56	0xbe3e32db	-0.18574087
57	0x3e4589d6	0.19290861
58	0x3e593b13	0.21213941
59	0xbe103672	-0.14083269
60	0xbd138a3e	-0.03602051
61	0xbe6bc5b1	-0.23024632
62	0xbe7dc899	-0.24783553
63	0xbe9bd0ca	-0.3043273
64	0x3ef72aaa	0.48274738
65	0x3f010050	0.503911
66	0xbf2fa75a	-0.68614733
67	0xbeff2c97	-0.49838707
68	0xbf2d18e7	-0.6761612
69	0x3f59c217	0.8506178
70	0x3d88d678	0.06681532
71	0xbf04bb92	-0.5184871
72	0x3f206d70	0.6266699
73	0x3f52e73e	0.823841
74	0xbf53c27b	-0.8271863
75	0xbea241c9	-0.31690815
76	0xbf6e878a	-0.93175566
77	0x3e866e51	0.2625604
78	0xbf52fcb7	-0.8241686
79	0xbea742a4	-0.3266803
80	0x3f0574c6	0.5213131
81	0x3eb02e74	0.3441044
82	0x3e299b34	0.16563112
83	0xbf17388a	-0.59070647
84	0x3f191be8	0.59808207
85	0x3f51e10a	0.8198401
86	0x3f34e6c4	0.7066462
87	0x3e838027	0.2568371
88	0x3ef06237	0.46949932
89	0xbf37b7c5	-0.71764785
90	0x3f5151aa	0.81765234
91	0x3e659d21	0.22423221
92	0xbec903c5	-0.39260688
93	0xbf1646c8	-0.58701754
94	0x3f3f0258	0.7461295
95	0x3f171bdf	0.590269
96	0xbe64c1f5	-0.22339614
97	0xbd88698f	-0.06660759
98	0x3e3532de	0.17695186
99	0x3def96b3	0.116986655
100	0x3e2b8990	0.16751695
101	0xbe97ba69	-0.29634407
102	0xbddc24d7	-0.10749214
103	0x3dada1c2	0.084781185
104	0xbe1fda56	-0.15610632
105	0xbe88f8be	-0.26752275
106	0xbe4ee53c	-0.20204633
107	0x3cfceddd	0.03087514
108	0x3ea47148	0.32117677
109	0xbe6721e4	-0.22571522
110	0xbe6b4ac4	-0.2297774
111	0xbce4c76a	-0.02792712
112	0xbe53e8be	-0.20694253
113	0xbe8ecbde	-0.27889913
114	0x3e349ef1	0.17638756
115	0xbe668ecb	-0.22515409
116	0xbea2d9ba	-0.31806737
117	0xbebd6847	-0.3699362
118	0x3e0b9ca8	0.13633978
119	0x3c905461	0.01761836
120	0x3ea71c7f	0.32638928
121	0xbe147146	-0.14496335
122	0xbdcfc891	-0.10145677
123	0x3dee0bef	0.1162337
124	0x3ebc342f	0.36758563
125	0x3eb2d90c	0.3493122
126	0x3e169916	0.14706835
127	0xbea9dcc4	-0.33176243
128	0xbd1be44f	-0.03805953
129	0x3dcbe1d5	0.099551834
130	0x3e64de6a	0.22350469
131	0xbe69dc95	-0.22838052
132	0xbda7c1f4	-0.081912905
133	0xbe763845	-0.24044903
134	0x3dd66c67	0.10469895
135	0x3deb6c3f	0.11495256
136	0xbe2ae048	-0.16687119
137	0x3e374b4e	0.1789982
138	0xbd82eea8	-0.06393176
139	0x3e232bfc	0.15934747
140	0x3d8f4dd3	0.06997266
141	0xbea18c7a	-0.31552488
142	0xbde948f4	-0.11390868
143	0x3e661e0e	0.22472402
144	0x3e601870	0.21884322
145	0xbd3af470	-0.04564327
146	0xbc692091	-0.014228956
147	0x3e483708	0.19552243
148	0x3dff36d4	0.124616295
149	0xbe68fe19	-0.2275318
150	0x3e270a8b	0.16312616
151	0x3e6c538b	0.23078744
152	0xbd741f7b	-0.059600335
153	0xbdc3da09	-0.09563071
154	0x3e364248	0.17798722
155	0xbe0ed4e3	-0.13948397
156	0x3c84f3a2	0.016229454
157	0x3cb13e66	0.0216362
158	0xbe5462f1	-0.20740868
159	0x3e42b930	0.19015956
160	0x3e1c1a1f	0.1524434
161	0x3e078ba9	0.1323687
162	0xbe37d7d6	-0.17953429
163	0x3d7006ef	0.058600362
164	0xbe6c875c	-0.2309851
165	0x3e27e84d	0.1639721
166	0xbd2a370f	-0.041556414
167	0xbdc92790	-0.09821999
168	0xbb6dfe2a	-0.0036314824
169	0x3ded3909	0.11583144
170	0x3cf4985f	0.029857812
171	0x3e64acdf	0.2233157
172	0x3d8f6787	0.07002168
173	0x3d73d2ef	0.059527334
174	0xbea92a7a	-0.3304022
175	0xbe123067	-0.14276277
176	0xbd93853f	-0.07203149
177	0xbe2d5541	-0.16927053
178	0xb9cd4d78	-0.00039158366
179	0xbd44ba46	-0.048029207
180	0xbc889230	-0.01667127
181	0x3d876aa4	0.06612137
182	0xbdcd941a	-0.10038014
183	0xbec19fe7	-0.37817308
184	0x3ea51cb7	0.3224847
185	0xbe0d96a4	-0.13826996
186	0x3e21daf5	0.15806182
187	0x3e0af3fe	0.13569638
188	0xbe2d3fac	-0.1691882
189	0xbe623ab7	-0.2209271
190	0xbdea12ae	-0.11429344
191	0xbdad29ec	-0.084552616
192	0xbf117cbf	-0.5683097
193	0xbee57396	-0.44814748
194	0x3ec71c37	0.38888714
195	0x3e937b88	0.28805184
196	0x3f07ea7f	0.5309219
197	0xbd746226	-0.059663914
198	0x3e10fbfe	0.14158627
199	0x3ea82682	0.3284188
200	0xbe7aa814	-0.24478179
201	0xbed9c148	-0.42530274
202	0x3e437270	0.19086623
203	0x3ebb03a6	0.3652622
204	0x3e9f9661	0.31169418
205	0xbd5dd5e8	-0.054159075
206	0x3edb2373	0.42800483
207	0x3ee5bbed	0.44869938
208	0xbc8662d8	-0.016404554
209	0xbf133b07	-0.57511944
210	0xbebda050	-0.3703637
211	0x3f2b1f18	0.6684432
212	0xbf0ab38c	-0.54180217
213	0xbead9d75	-0.33909193
214	0xbf35c2c4	-0.71000314
215	0x3e2e0de6	0.1699749
216	0x3d843ab0	0.06456506
217	0x3f1cb31b	0.61210793
218	0xbef93ca4	-0.48679078
219	0xbd27c570	-0.040959775
220	0x3c8cdb62	0.017194454
221	0x3ed28b0a	0.41121703
222	0xbee4b7fd	-0.44671622
223	0xbe800dc4	-0.25010502
224	0xbcb76610	-0.022387534
225	0xb8803f86	-6.115348e-05
226	0x3e79e82a	0.2440497
227	0x3e71520f	0.23566459
228	0xbdccc0db	-0.09997722
229	0xbe0f50e4	-0.13995701
230	0xbe11d51b	-0.1424145
231	0xbdcc98a0	-0.099900484
232	0xbdcd8db1	-0.10036791
233	0xbe9d4e72	-0.30723912
234	0x3e8583d0	0.26077127
235	0xbc1597c8	-0.009130426
236	0x3e076762	0.13223031
237	0x3cbd68e0	0.023121297
238	0xbde88b3e	-0.11354683
239	0xbddfddd7	-0.109309845
240	0xbeb9c77a	-0.36285
241	0xbe89dd7e	-0.26926798
242	0xbde03681	-0.10947896
243	0xbd32134a	-0.043475427
244	0xbe4190ed	-0.18902941
245	0xbe27bd48	-0.16380799
246	0xbd10dea8	-0.03536859
247	0x3a9addd2	0.0011815375
248	0xbec35036	-0.38147134
249	0x3be0702d	0.00684931
250	0xbec3039f	-0.380887
251	0x3dcfa1fd	0.10138319
252	0xbe3a6ecd	-0.1820633
253	0xbe29556a	-0.16536489
254	0x3c9ae032	0.018905733
255	0xbe3117c2	-0.17294219

pool.gnn_intra_cluster.bias f4 [32]
0	0x3ddfa6b5	0.10920469
1	0xbe0610d0	-0.13092351
2	0xbdcf636a	-0.101263836
3	0x3dfe93ac	0.1243051
4	0x3d9026fa	0.07038684
5	0x3c3649e5	0.011126016
6	0x3db59526	0.088663384
7	0xbdacce6c	-0.08437809
8	0xbc48e0ec	-0.012260657
9	0xbd15707a	-0.03648422
10	0xbd60dfa5	-0.054900784
11	0xbdede6c7	-0.11616283
12	0x3dc0f056	0.094208404
13	0x3de3fcec	0.111322254
14	0xbab2d63e	-0.0013644171
15	0x3dd1fb59	0.10253019
16	0x3dc92768	0.09821969
17	0xbd1a804c	-0.03772001
18	0xbd85e930	-0.065386176
19	0xbda631a9	-0.08114941
20	0xbc355809	-0.0110683525
21	0x3d46b2e2	0.04851044
22	0xbd98eb76	-0.074667856
23	0x3e03acbc	0.12858862
24	0xbe0a3dc1	-0.1350012
25	0x3c85e6f4	0.016345479
26	0x3c33a4d3	0.01096459
27	0x3db49ccc	0.08818969
28	0xbde47a56	-0.11156146
29	0xbd9bfaf7	-0.07616227
30	0x3bb653cd	0.005564189
31	0xbd268527	-0.040654328

conv3.weight f4 [32, 32]
0	0x3e86df71	0.26342347
1	0x3d86b0d7	0.06576698
2	0xbc351fcb	-0.011054943
3	0xbcd74c64	-0.026281543
4	0x3e85e09a	0.2614792
5	0xbe6797f7	-0.22616564
6	0x3e95bd42	0.29245955
7	0xbed93f1d	-0.42430964
8	0x3ce9e51d	0.028551633
9	0xbd8c191d	-0.068407275
10	0x3e9e4131	0.30909112
11	0x3d134f1c	0.035964116
12	0xbe5e1214	-0.21686584
13	0xbebf9d51	-0.3742471
14	0x3e9a5469	0.30142525
15	0xbd9725c1	-0.07380248
16	0x3ec2e306	0.3806383
17	0xbe61db35	-0.22056277
18	0x3e4f11b3	0.20221595
19	0x3d1122e2	0.035433657
20	0x3e53678b	0.20644967
21	0xbda20300	-0.079107285
22	0x3d974b40	0.073874
23	0xbc6eb952	-0.014570551
24	0x3e55d07c	0.20880312
25	0x3e2fe692	0.171778
26	0x3cedf82b	0.029049
27	0xbe81ffb7	-0.25390407
28	0xbe1358b1	-0.14389302
29	0x3e1a2993	0.15054922
30	0x3e18b4c5	0.14912708
31	0x3e4b6787	0.19863711
32	0xbea92fb3	-0.33044204
33	0xbed3e293	-0.413838
34	0x3e7de087	0.24792682
35	0x3dc4f03e	0.09616135
36	0xbe64a15a	-0.22327176
37	0x3e8962dd	0.2683324
38	0x3e52d90b	0.20590608
39	0x3e9954ff	0.2994766
40	0x3e1d1181	0.15338708
41	0x3e1ed282	0.1550999
42	0xbea3d011	-0.3199468
43	0xbdbe1204	-0.0928078
44	0xbd266808	-0.040626556
45	0x3eb5d884	0.3551675
46	0xbee6bbad	-0.4506506
47	0x3de9d071	0.1141671
48	0x3e9ca44d	0.30594102
49	0xbea439d3	-0.32075366
50	0xbeabb8bc	-0.3353938
51	0xbed90cfb	-0.42392716
52	0xbe5f6bcc	-0.21818465
53	0xbea789cc	-0.32722318
54	0x3e6bde04	0.23033911
55	0x3ea7542a	0.326814
56	0xbd8dcae6	-0.069234654
57	0xbe20acb9	-0.15690888
58	0xbed6ad55	-0.41929117
59	0xbdd5d4fe	-0.10441016
60	0x3ebae819	0.365052
61	0xbdc90451	-0.098152764
62	0x3e51a2c1	0.20472242
63	0x3cd1a796	0.025592607
64	0xbe4f81d2	-0.20264366
65	0x3e3c2b70	0.18375945
66	0xbe8b22dc	-0.27175033
67	0x3db0b8e3	0.08629014
68	0x3d06e6e9	0.032935057
69	0xbe8ae636	-0.27128762
70	0xbe39eaf4	-0.18156034
71	0xbd651980	-0.05593252
72	0x3ab161f0	0.0013533216
73	0x3e046b7b	0.12931626
74	0xbd872995	-0.06599728
75	0xbe8ccb37	-0.2749879
76	0xbe7419ed	-0.23838015
77	0x3e3b367e	0.18282506
78	0x3dc95d3f	0.098322384
79	0x3de40004	0.111328155
80	0xbe449dbb	-0.19200794
81	0x3e47bf9a	0.19506684
82	0x3ec20743	0.37896165
83	0xbcc5a57f	-0.024126766
84	0x3d701745	0.05861594
85	0xbd20c0fa	-0.039246537
86	0x3d9483f1	0.07251728
87	0xbea95734	-0.33074343
88	0x3ca58ce0	0.020208776
89	0x3dc8ae33	0.09798851
90	0xbe651283	-0.22370343
91	0xbddbdfba	-0.10736032
92	0xbdbf7f32	-0.093504325
93	0x3e83efe4	0.2576896
94	0x3ec23e8a	0.3793834
95	0x3e855908	0.26044488
96	0x3e2875c7	0.16451178
97	0x3e9db768	0.3080399
98	0xbe2f24db	-0.17103903
99	0xbeae4282	-0.34035116
100	0xbe1e4810	-0.15457177
101	0xbe033b98	-0.12815702
102	0xbe071fba	-0.13195696
103	0xbf07626c	-0.52884555
104	0xbe8404d2	-0.25784928
105	0xbdf3aca4	-0.11898163
106	0x3e53ccb4	0.20683557
107	0xbcfbe5da	-0.03074925
108	0xbe593a26	-0.21213588
109	0xb8218ae8	-3.8514758e-05
110	0x3da0de47	0.07854896
111	0xbc0da353	-0.008644897
112	0x3e9f2898	0.31085658
113	0x3e08c1fa	0.13355246
114	0x3c397834	0.011320163
115	0xb9572e5f	-0.00020521272
116	0xbe0c6ae0	-0.13712645
117	0xbe458b1f	-0.19291352
118	0xbe6c1a22	-0.23056844
119	0xbdd5745e	-0.10422586
120	0xbc211fcf	-0.009834244
121	0xbd82ebe2	-0.06392647
122	0x3eda6a70	0.4265933
123	0xbeae1b1c	-0.34005058
124	0xbe7bfcf3	-0.24608211
125	0xbd20aa1c	-0.03922473
126	0x3cb67432	0.022272203
127	0xbe18f447	-0.14936934
128	0xbe991a22	-0.2990275
129	0x3b271c33	0.0025498986
130	0x3eb06b5e	0.34456915
131	0x3d2bc900	0.041939735
132	0xbee73f59	-0.45165518
133	0x3e3f907f	0.18707465
134	0x3ecba66e	0.39775413
135	0x3f0bcfce	0.5461396
136	0xbc36cb81	-0.011156918
137	0x3d78fc2c	0.060787365
138	0x3d9c08e8	0.07618886
139	0x3eab8531	0.33500054
140	0xbd9c856e	-0.07642637
141	0x3be732dc	0.0070556235
142	0xbe661291	-0.2246802
143	0x3e47285e	0.19448993
144	0x3f0b0fa4	0.5432074
145	0x3da9ba2e	0.08287464
146	0xbe84cdf2	-0.25938374
147	0xbeb01110	-0.34388018
148	0xbecb807f	-0.39746472
149	0xbec849b4	-0.3911873
150	0x3d15519d	0.036454786
151	0x3d655740	0.05599141
152	0xbe8165b0	-0.25272894
153	0x3dd136c1	0.102155216
154	0xbdade0e1	-0.08490158
155	0xbe18c3a0	-0.14918375
156	0xbe03df6d	-0.12878199
157	0x3e10e011	0.14147975
158	0xbe921e97	-0.28538963
159	0xbea0f43b	-0.31436333
160	0xbe92fae6	-0.28707045
161	0x3d8626cb	0.06550368
162	0x3e8d33de	0.27578634
163	0xbe5445e9	-0.20729794
164	0x3d74ad68	0.059735686
165	0x3e345b28	0.17612898
166	0x3d10097a	0.035165288
167	0x3e812489	0.25223187
168	0xbe0c6fd7	-0.13714539
169	0x3d83a8a5	0.06428651
170	0x3ec2bf80	0.38036728
171	0x3d772a31	0.06034297
172	0xbebc6ef8	-0.36803412
173	0x3e66445b	0.22487013
174	0xbe01989d	-0.12655874
175	0x3ee04492	0.43802315
176	0x3ef931c3	0.48670778
177	0x3bcaf781	0.0061940555
178	0x3e41c9d1	0.18924643
179	0x3e026fe4	0.12737995
180	0x3e0ae9fb	0.13565819
181	0xbef0195f	-0.46894357
182	0xbde722e2	-0.1128595
183	0x3da9235f	0.082586996
184	0x3de383a4	0.11109093
185	0xbe96209d	-0.29321757
186	0x3ed8f41a	0.42373735
187	0xbd6c3b1a	-0.05767355
188	0x3df28519	0.118417926
189	0x3de9f611	0.114238866
190	0xbe56924e	-0.20954248
191	0xbee6ebe0	-0.45101833
192	0x3d971a6d	0.07378087
193	0x3d2b8382	0.041873462
194	0xbd544fac	-0.051833794
195	0xbde2c8e4	-0.11073473
196	0x3e26c804	0.16287237
197	0xbea758fa	-0.3268507
198	0x3e2b0212	0.16700009
199	0xbef79811	-0.48358205
200	0xbe5bf87c	-0.21481508
201	0xbe71cc30	-0.23613048
202	0x3e38016e	0.17969295
203	0x3df6b169	0.12045557
204	0xbe1f19e8	-0.15537226
205	0xbe8f3468	-0.2796967
206	0x3f048f98	0.51781607
207	0xbccda66e	-0.025103774
208	0xbede41b2	-0.43409497
209	0x3e3cc922	0.18436101
210	0xbdcd2385	-0.100165404
211	0x3e2adaeb	0.16685073
212	0x3e64be0c	0.22338122
213	0x3b9f3d84	0.004859628
214	0x3d5820f9	0.05276582
215	0xbd0da5a3	-0.03458179
216	0xbe103902	-0.14084247
217	0xbd85495d	-0.065081336
218	0x3e538295	0.20655282
219	0xbed1a7ee	-0.40948433
220	0xbea8bd52	-0.3295694
221	0xbe2c5a1c	-0.16831249
222	0x3dffcf64	0.124907285
223	0x3e777abf	0.24167918
224	0xbd37ca06	-0.0448704
225	0xbe8bbe07	-0.27293417
226	0x3e82aee1	0.25524047
227	0x3e869956	0.2628886
228	0xbe35a669	-0.17739262
229	0xbe068443	-0.13136391
230	0x3e837b57	0.25680038
231	0x3e8be388	0.2732203
232	0x3eac267b	0.33623108
233	0x3d18710b	0.03721718
234	0xbe9110a5	-0.2833301
235	0xbd906b8a	-0.070517614
236	0xbe4c0072	-0.19922045
237	0x3eeeb5d6	0.46623105
238	0xbedd2544	-0.43192494
239	0xbcc0615f	-0.02348393
240	0x3e23766d	0.15963145
241	0x3d76711b	0.06016646
242	0xbe8813a9	-0.265775
243	0xbe6cf1f1	-0.23139168
244	0xbce3e4c6	-0.027819049
245	0xbc1a2ca2	-0.009410055
246	0xbbe0db7c	-0.006862102
247	0xbd11fe67	-0.035643008
248	0xbdea68e0	-0.114457846
249	0x3d95d36d	0.07315717
250	0xbc965911	-0.018353017
251	0xbccf79d4	-0.025326647
252	0x3de6e57b	0.11274239
253	0xbdd3fafc	-0.10350606
254	0x3e8e7eec	0.2783121
255	0x3c61e9d8	0.013788663

conv3.bias f4 [32]
0	0x3cdaa004	0.02668763
1	0x3c42c7f6	0.011888495
2	0xbd485b54	-0.048915222
3	0xbcacc18d	-0.021088386
4	0x3d1e9f29	0.038726006
5	0x396b52e0	0.0002244222
6	0xb8c07fb8	-9.179063e-05
7	0xbd41d52f	-0.04732245
8	0x3bbb5f97	0.0057181823
9	0x3ad1334d	0.0015960723
10	0x3cddf9d7	0.027096672
11	0xbc2af737	-0.010434917
12	0x3c543b2c	0.012953561
13	0xbd1607a4	-0.03662838
14	0x3d568c29	0.05237976
15	0x3bc245b4	0.0059287194
16	0xbd371a04	-0.044702545
17	0xbb50454f	-0.0031779592
18	0x3d113353	0.035449337
19	0x3d014513	0.031560015
20	0x3d09e9f1	0.03367037
21	0x3d1359c6	0.035974286
22	0x3a21b1dd	0.00061681663
23	0xbcad05db	-0.021120956
24	0x3c5c3917	0.013441346
25	0xbce9a3a7	-0.028520418
26	0x3cb36980	0.021900892
27	0xbc19a635	-0.009378006
28	0xbb930361	-0.004486487
29	0xbc33c46d	-0.0109721245
30	0x3bcb8507	0.0062109265
31	0x3cdc78a9	0.026913004

conv4.weight f4 [32, 32]
0	0x3d189961	0.03725565
1	0xbe86cb1d	-0.26326838
2	0xbd929313	-0.071569584
3	0x3e857564	0.26066124
4	0xbcb79f5d	-0.022414858
5	0xbdcb7e97	-0.099362545
6	0xbea15df6	-0.31517
7	0xbea379d9	-0.319289
8	0xbddff2a9	-0.109349556
9	0x3d1fc9da	0.03901086
10	0xbb8b9f54	-0.0042609368
11	0x3c552c42	0.01301104
12	0xbe845e58	-0.2585323
13	0xbe8b77da	-0.27239877
14	0xbe864e74	-0.2623173
15	0xbe18152f	-0.14851831
16	0x3d30947b	0.043110352
17	0xbe5125e1	-0.20424606
18	0x3dcff28c	0.10153684
19	0x3e857481	0.26065448
20	0xbe1850b7	-0.1487454
21	0xbddc5a7b	-0.10759445
22	0xbd45322e	-0.04814356
23	0x3dde79f4	0.108631045
24	0x3e853bfd	0.2602233
25	0xbcce01b8	-0.025147304
26	0xbea3011c	-0.31836784
27	0x3e9f06ec	0.31059968
28	0x3e07196f	0.13193296
29	0xbd6b429f	-0.05743658
30	0xbe405136	-0.1878098
31	0xbe0f6401	-0.14002992
32	0x3e5c34fd	0.21504588
33	0x3e0a2d3a	0.13493815
34	0x3e804b10	0.25057268
35	0xbe85ca24	-0.26130784
36	0xbe65c00d	-0.22436543
37	0x3c469d45	0.012122457
38	0x3c64619b	0.013939287
39	0x3e56bb37	0.20969854
40	0x3e049820	0.12948656
41	0x3e90dbf5	0.28292814
42	0xbe6e9219	-0.2329792
43	0xbe913929	-0.28363922
44	0x3badb455	0.0053010383
45	0xbe8fc3b7	-0.28079006
46	0xbd25a171	-0.040437166
47	0x3e54c1ee	0.20777103
48	0xbe438654	-0.19094211
49	0xbe1952b2	-0.14972952
50	0xbd7141aa	-0.058900513
51	0xbe283544	-0.16426569
52	0xbdbe54b1	-0.09293497
53	0xbd281f5c	-0.04104553
54	0xbe2aee42	-0.1669245
55	0xb92dd934	-0.0001657948
56	0x3ddd2c49	0.10799462
57	0x3eac0083	0.3359414
58	0x3e39dd9c	0.18150944
59	0xbe84baa6	-0.2592365
60	0x3e021dd7	0.12706695
61	0x3e5e8bd2	0.21733025
62	0xbe768f96	-0.24078211
63	0xbe797830	-0.24362254
64	0xbea3a0a3	-0.31958494
65	0x3e093a78	0.1340121
66	0xbe2492ff	-0.160717
67	0xbc1b2278	-0.009468667
68	0x3e0b60c7	0.13611136
69	0x3ea38070	0.31933928
70	0x3e8465b6	0.2585885
71	0xbd9e22d1	-0.077214845
72	0x3e079340	0.13239765
73	0x3e446263	0.19178157
74	0x3e461746	0.19344816
75	0xbe91d945	-0.28486076
76	0x3e1ceef1	0.15325524
77	0x3ec53b4e	0.38521808
78	0x3ce5c790	0.02804926
79	0x3e85670b	0.26055178
80	0xbe03450f	-0.12819313
81	0x3ea9c803	0.3316041
82	0x3e326211	0.17420222
83	0xbe07aa93	-0.13248663
84	0x3d1eb05c	0.03874241
85	0xbe01cfef	-0.12676977
86	0x3d546a51	0.051859204
87	0x3df4f4e5	0.119607724
88	0x3e15c3ec	0.1462552
89	0xbe8bee91	-0.2733045
90	0xbe7993e7	-0.24372827
91	0xbebfda2d	-0.37471142
92	0xbe57b48d	-0.21064968
93	0xbc0b8928	-0.008516587
94	0xbbca7c40	-0.0061793625
95	0x3caecdcf	0.021338372
96	0xbc35d7a0	-0.011098772
97	0x3cbf4b26	0.023351263
98	0x3e8e7b43	0.27828416
99	0x3db44061	0.08801342
100	0x3e0aef3d	0.13567825
101	0x3e31d5de	0.1736674
102	0xbc03eb32	-0.00805168
103	0xbd734b6d	-0.059398104
104	0xbe590b0e	-0.21195623
105	0xbe7e142b	-0.24812381
106	0x3d580cea	0.05274669
107	0xbda7ad56	-0.08187358
108	0xbe5aeff0	-0.21380591
109	0xbe083e3d	-0.13304992
110	0xbcdbf83c	-0.026851766
111	0xbd77c863	-0.060493838
112	0xbd5205d0	-0.051275074
113	0xbe95b9b4	-0.29243243
114	0x3ea41c14	0.32052672
115	0x3c9db87f	0.019253014
116	0xbe422ed5	-0.18963178
117	0xbe963e3f	-0.29344365
118	0xbe2b5a88	-0.16733754
119	0x3d9209b0	0.07130754
120	0x3e16a89a	0.14712754
121	0xbe97c8ed	-0.29645482
122	0xbe0b8844	-0.136262
123	0xbe5ccf51	-0.2156346
124	0x3e78ba5c	0.2428984
125	0x3e0f7116	0.14007983
126	0x3dbd30f7	0.09237855
127	0x3e615b06	0.22007379
128	0x3d2e93a6	0.042621277
129	0x3e49a4b3	0.19691734
130	0xbc714160	-0.014725059
131	0xbe3e8763	-0.18606333
132	0x3e6cc6d5	0.23122723
133	0x3c86ef5f	0.016471563
134	0xbddf21f7	-0.1089515
135	0x3db9568f	0.09049713
136	0x3d9f7a21	0.07786966
137	0xbdfc81d5	-0.12329451
138	0x3e0af770	0.13570952
139	0xbcce71e5	-0.025200794
140	0x3e063209	0.13105024
141	0xbecbce29	-0.39805725
142	0xbc8d64b2	-0.01725993
143	0xbe134842	-0.14383033
144	0xbe408485	-0.18800552
145	0x3dd6c9c0	0.104876995
146	0xbea5d5b8	-0.32389617
147	0xbd604198	-0.054750055
148	0x3cb8cc5b	0.022558382
149	0x3d6cc0af	0.057800945
150	0xbcac2ddf	-0.021017967
151	0xbe0477f5	-0.12936385
152	0x3d96ecbf	0.073693745
153	0xbe065b68	-0.13120806
154	0xbdf95eb7	-0.121762685
155	0x3e04e8fb	0.129795
156	0xbdfaa6b7	-0.122388296
157	0xbea89097	-0.32922813
158	0xbd2d71eb	-0.04234497
159	0xbe016341	-0.12635519
160	0xbcdc4585	-0.026888618
161	0x3d972da6	0.073817536
162	0xbd9dba6b	-0.07701572
163	0xbe5960fc	-0.21228403
164	0xbd4ab3e5	-0.049487967
165	0xbe594227	-0.21216641
166	0xbe02eca3	-0.12785582
167	0x3db1ba44	0.086781055
168	0x3ea4d719	0.32195356
169	0x3c719fb5	0.01474755
170	0x3e6da161	0.23206092
171	0xbe8ca0b3	-0.27466354
172	0x3d43595c	0.04769264
173	0x3da306ee	0.07960306
174	0x3cf8c854	0.030368961
175	0x3e9e6bac	0.30941522
176	0xbe4ca74f	-0.19985698
177	0xbd904557	-0.070444755
178	0x3ed68411	0.41897634
179	0xbe9a287d	-0.30109015
180	0x3dfe5599	0.1241867
181	0xbe2d4cba	-0.169238
182	0x3e9807e8	0.29693532
183	0xbe3cdb07	-0.18442927
184	0x3e9602c3	0.29298982
185	0xbd597431	-0.053089324
186	0xbdb72b70	-0.08943832
187	0xbe5ff0d7	-0.21869217
188	0x3e5bd0a0	0.21466303
189	0xbe87f2a6	-0.26552314
190	0x3e04cb81	0.12968256
191	0xbe507667	-0.20357667
192	0xbe64e21d	-0.2235188
193	0xbe0fc485	-0.1403981
194	0xbe279833	-0.16366653
195	0x3e68f5d4	0.22750026
196	0xbe3a95e4	-0.18221241
197	0x3de5a129	0.112123795
198	0x3e5d95a4	0.21639115
199	0x3d30dfe6	0.043182276
200	0x3f031cf1	0.51216036
201	0xbdec1bc2	-0.11528732
202	0x3e80b791	0.2514005
203	0x3e37eb14	0.17960769
204	0xbe098cbb	-0.1343259
205	0x3ea56643	0.32304582
206	0x3e9dc8b2	0.3081718
207	0x3e0fca4f	0.14042018
208	0xbd942932	-0.0723442
209	0x3da4a70c	0.08039674
210	0xbe47e168	-0.1951958
211	0xbda3306d	-0.07968221
212	0xbe2e9170	-0.17047668
213	0xbe9e1ffe	-0.30883783
214	0xbe1421de	-0.14466044
215	0x3df3e822	0.1190951
216	0xbe2e37c1	-0.17013456
217	0xbe6bf4df	-0.2304263
218	0x3cf1d377	0.02951978
219	0x3e3b7482	0.18306163
220	0x3e328699	0.17434157
221	0xbdd90eff	-0.105985634
222	0x3d8d5827	0.06901579
223	0x3def6be8	0.11690503
224	0xbd7aec9b	-0.0612608
225	0xbb350d74	-0.0027626427
226	0x3e434c02	0.19071963
227	0x3ead5d20	0.3386011
228	0x3c5a2893	0.013315338
229	0xbd2aa83c	-0.041664347
230	0xbe260a2e	-0.1621482
231	0xbe64d58b	-0.22347085
232	0xbefb99d7	-0.49140808
233	0xbdd2511f	-0.10269379
234	0xbeb11b83	-0.34591302
235	0x3e170265	0.14747007
236	0xbe67fa59	-0.22654094
237	0x3f187ff2	0.5957023
238	0x3de0358d	0.10947714
239	0xbe241597	-0.16023861
240	0x3ce75b4c	0.028241776
241	0x3d252d66	0.0403265
242	0x3f0d047e	0.5508498
243	0xbeb6a6f8	-0.35674262
244	0x3e9390ca	0.28821403
245	0xbce5cd88	-0.028052106
246	0xbe9476ba	-0.2899683
247	0x3e36e6ec	0.17861527
248	0x3e5933da	0.21211186
249	0xbdafc27e	-0.08582018
250	0x3cb6019a	0.02221756
251	0xbe49d20b	-0.19709031
252	0xbe5305b2	-0.20607641
253	0x3e177252	0.14789703
254	0xbe75f617	-0.24019657
255	0xbe9d79f2	-0.307571

conv4.bias f4 [32]
0	0x3d9cc889	0.076554365
1	0x3d5c32ff	0.05375957
2	0x3d12c0c9	0.035828386
3	0xbd85d28d	-0.065343
4	0x3d96a289	0.0735522
5	0xbd9dfabc	-0.077138394
6	0x3d800487	0.062508635
7	0x3d2dd44b	0.042438786
8	0xbd04e407	-0.032444026
9	0x3cfabccc	0.030607603
10	0x3d9b3865	0.07579116
11	0x3d96c0b1	0.07360972
12	0xbd832d6b	-0.06405147
13	0xbd86907e	-0.065705284
14	0xbd66f23e	-0.056383364
15	0x3d88c645	0.06678442
16	0xbd3046d0	-0.043036282
17	0xbd65f841	-0.056144956
18	0xbd8b0f87	-0.06790071
19	0xbd32db88	-0.043666393
20	0xbd76b2c4	-0.060229078
21	0xbcb4fe5b	-0.022093942
22	0x3d7f7138	0.062363833
23	0x3c70672b	0.014673035
24	0x3d8895c6	0.06669192
25	0xbd8528f9	-0.065019555
26	0x3d8c6371	0.068549044
27	0x3d945ee4	0.072446615
28	0x3d3e2c70	0.046429098
29	0x3d34c0a4	0.04412903
30	0x3d0ee2ae	0.034884147
31	0x3cdeb750	0.02718702

conv5.weight f4 [32, 2]
0	0x3eb1beea	0.34715968
1	0x3e6bbb6e	0.23020718
2	0x3dce410e	0.10071002
3	0x3df990ad	0.12185798
4	0x3d834865	0.064102925
5	0xbc339f57	-0.010963283
6	0xbd59906a	-0.05311624
7	0xbe36a5fd	-0.17836757
8	0x3e980085	0.29687896
9	0x3e7e21bb	0.24817555
10	0xbea48758	-0.3213451
11	0xbe3873f8	-0.18012989
12	0x3e861642	0.26188856
13	0x3d0420aa	0.032257713
14	0x3dcafd36	0.099115774
15	0x3b8a0cf4	0.00421297
16	0x3e8ed808	0.27899194
17	0xbeb2cd8e	-0.3492245
18	0x3ded203f	0.11578416
19	0x3b5a951b	0.0033353034
20	0x3e84d4dd	0.25943652
21	0x3e83d95a	0.25751764
22	0x3e4493c2	0.1919699
23	0x3e91e6a1	0.28496268
24	0xbd450a28	-0.04810539
25	0xbe676cba	-0.2260007
26	0xbe581b5a	-0.21104184
27	0xbe7089ec	-0.23490113
28	0xbea1a5b6	-0.3157174
29	0x3ddbb8ee	0.10728632
30	0x3e94d23b	0.29066643
31	0x3d7b68fb	0.061379414
32	0xbde21bb3	-0.110404395
33	0x3c9c9ff3	0.019119238
34	0x3d433ff7	0.047668424
35	0xbe23e795	-0.1600631
36	0xbe5eb9f6	-0.21750626
37	0xbe836af2	-0.2566753
38	0x3e225235	0.15851672
39	0xbe5e618b	-0.21716897
40	0x3d2775d1	0.040883843
41	0xbe5ecf70	-0.21758819
42	0x3d9896dc	0.07450649
43	0xbde94dc1	-0.113917835
44	0x3d4c6e09	0.049909625
45	0x3e22bad0	0.15891576
46	0x3e6a4fc3	0.22881989
47	0xbdf8ec8f	-0.12154495
48	0x3e047833	0.12936477
49	0x3e3c2fa2	0.18377545
50	0xbe32d3c8	-0.174636
51	0xbd69b20b	-0.05705456
52	0x3e4a8cc3	0.19780259
53	0x3dd77b4e	0.105215654
54	0x3df3a792	0.11897196
55	0x3e9ae3b4	0.3025185
56	0x3e454203	0.19263463
57	0xbd942596	-0.072337314
58	0x3d555136	0.052079402
59	0x3d906dff	0.0705223
60	0xbdfdb12c	-0.123873085
61	0x3e157d8f	0.14598678
62	0x3d3016d7	0.04299053
63	0x3ca0e2c5	0.019639382

conv5.bias f4 [2]
0	0x3db1f9cb	0.08690222
1	0x3db2f5aa	0.08738263
