GST-recon/checkpoints/best_grid_SAGPool_0.25.pth (torch, 18212 bytes, 12 tensors)

conv1.weight f4 [2, 32]
00000000: b1cc fb3b 7c2e 32be bb8a 9d3d 6c39 833d
00000010: 7d19 f7bd 7891 a9bd 1471 21be e673 e43d
00000020: f919 f0bc 2539 8f3e 18a6 693e 78a6 433c
00000030: 326b d9bd 5636 33be 4e19 50bd 2d93 2ebd
00000040: ac0e 0b3e 093a 6cbe 6056 b23e a0c1 62be
00000050: 78f8 833e 6f70 cebd 1248 773e eade 0a3d
00000060: 9f3c e4bb c90c ab3d 91a6 9a3e ee29 c23d
00000070: 4753 793d 0d80 75be 9d61 7c3e f5b6 b53d
00000080: 4319 fb3d 21d3 083e bc4f 2e3e 8eb4 a13e
00000090: 4110 e5bb fe6a 7bbe a186 fdbb ff49 7dbe
000000a0: 41c1 6d3e 439b 09be 84b5 33be 76fb 8c3e
000000b0: 9e63 d33e ba82 fc3d 9730 26be a2c9 6cbc
000000c0: 2760 253e 01c4 a7be 48bc b8be cf98 963e
000000d0: 45dc ae3e 5952 13be f39c 86be cebc ac3c
000000e0: c696 7ebe debd 3d3d 3b3a 7d3e 845d 613e
000000f0: 6160 80bd 4da8 0e3e b84d bc3d 94e3 c8be
0.007684313 -0.17400545 0.07692476 0.06407437 -0.120654084 -0.08279699 -0.15765792 0.111549184
-0.02930926 0.27973285 0.22817266 0.011941545 -0.10616149 -0.17501196 -0.050805382 -0.042620827
0.13579816 -0.23069014 0.34831524 -0.22144175 0.25775504 -0.10080039 0.24148586 0.033903994
-0.0069652344 0.08352048 0.30205205 0.09480654 0.060870435 -0.23974629 0.24646612 0.08872787
0.12260678 0.1336179 0.17022604 0.31583065 -0.006990463 -0.24552533 -0.0077369963 -0.24735259
0.23218252 -0.13438134 -0.17549711 0.275356 0.4128694 0.123296216 -0.16229473 -0.01445237
0.1614996 -0.32766727 -0.36081147 0.2941346 0.34152427 -0.14386882 -0.26291618 0.021086123
-0.24862203 0.04632365 0.24729244 0.2200833 -0.06268383 0.13931389 0.09194511 -0.39236128

conv1.bias f4 [32]
00000000: 0fbb 953c 82dd 333d 2d2b 41bd 8532 65bd
00000010: df4e f43d 4d07 423d df6d 0c3e 999f 94bc
00000020: 5489 0fbd a07c aabd ddc3 37bd aab0 503d
00000030: b440 abbd 99b5 47bc 22f8 b83d 3825 873b
00000040: 2002 cfbd 43a4 263d 76b5 05ba ab95 823d
00000050: 3922 983a 43f4 58bc d0f7 b5bc e666 00be
00000060: 9327 083d 79cc 8ebd b353 f6bd d6a7 31bd
00000070: 4df6 37bd cb74 69bc 5c8c 483d 7e07 e03c
0.018277673 0.04391242 -0.047160316 -0.055956382 0.11929106 0.047370244 0.13713787 -0.018142508
-0.035043076 -0.083245516 -0.044864524 0.05094973 -0.083619505 -0.012189292 0.090317026 0.00412431
-0.10107827 0.040683996 -0.0005100587 0.06376203 0.0011606879 -0.01324183 -0.022212893 -0.12539253
0.033240866 -0.06972594 -0.12027683 -0.04337295 -0.044912625 -0.014249037 0.048961982 0.027347323

conv2.weight f4 [32, 32]
00000000: 89bd 88bd 4e85 5e3d 2792 48be d937 e4bd
00000010: 760f d33d a4ac 4e3e 015f 7c3b 376b 36be
00000020: 7ad9 4f3e c8a6 60be 9253 20be f173 903e
00000030: 36ad bebc f0af 7d3b d6b7 ef3d 4fdd 51bc
00000040: 0f17 283e 7bad 70be e963 93bd 274d 3cbe
00000050: 6757 56be 22d1 09be b738 3d3e 289b 5a3e
00000060: ee59 703c 1505 c13e b9c6 22be 000d 59be
00000070: ce61 193e c98e b3bc b88c 9dbe d739 20be
00000080: 6d4a 37be 4ec0 453e 6ab7 643d bcf8 573e
00000090: b40a 7bbe 977f 8fbe 684e 6cbe b10e 373d
000000a0: e6d8 c1bd 4dca 43be b860 913e 0e16 a9bd
000000b0: f7ac f6bd 9ac0 ee3d dd07 8bbd c8b2 1b3e
000000c0: 279f e23d 5873 ae3c bc8c 4d3d a163 58be
000000d0: b6b5 56bd ea06 88bd f482 12be 4bb8 6d3b
000000e0: c8be 533c 201b 18be 8e81 723e b805 63be
000000f0: 4da3 ec3d c1e8 24be 9544 88be 1ad9 5ebe
00000100: 93e0 333e d5bb 283e 851d 32be 50b8 0abe
00000110: 5870 6abe e458 683e 1bd6 8b3e a61a d53d
00000120: 2bc0 14be c375 063e 206e 2e3e 31a7 45bb
00000130: 8298 9bbd dd1f 8b3d 67d7 3bba f4ee 9bbd
00000140: c528 a9be c0df 3abe 8c37 a6bc c597 f2bd
00000150: 8f34 3d3e 4c1e 42bd 9b31 dabd 0bbe 58be
00000160: b398 84be 2a60 543e b0ee bb3e 41aa 303c
00000170: 3c56 62be b575 fa3d dec3 523e 67f8 5ebe
00000180: f319 47bd 3a59 513d 3fd0 35be 698b a1be
00000190: 3e13 353e a1d4 4abe 2574 99bd c1c2 27be
000001a0: 503e 8b3e b451 da3c 4cf7 a93d 67e5 27be
000001b0: 6b2a 6c3e 8cc3 b23b a104 42be 051e faba
000001c0: fc90 80be 99e6 f53b 66eb 0a3e eabf 60be
000001d0: 28a5 443e 7ac4 443d b280 7ebd db30 2d3e
000001e0: d0b3 21bd f623 54ba 29d9 f4bd f411 3b3e
000001f0: 8e16 663e 5757 cb3d 513f 0a3e 8171 943e
00000200: c141 883e 1980 9cbe b765 bc3a ab9a 803c
00000210: 96bb 4b3d fde6 b5bd 29c6 ba3d a68b 94be
00000220: 2d07 e13d 5d38 8e3e 4571 32bc d984 90be
00000230: e732 82be dd72 6dbd 7cea 463d 3139 cb3c
00000240: 0a17 333d 9e2f 793e 2828 9cbc cfdf fb3d
00000250: a8d0 64bd 554e bb3e 42fa 0f3e 866f d8bd
00000260: a8f3 123e 90e1 713d 2305 ad3c 3b15 1cbe
00000270: b004 5d3d 73cc 96bd 27b3 13be 9c19 fb3c
00000280: 33b8 a63c 7f33 4ebe 5663 e93d bfaa 36bc
00000290: dc9b 9bbe 74c6 86be 3e9a 4bbe 321d aa3c
000002a0: 3b74 1f3e f667 af3e 5fd2 b53e aca2 e93c
000002b0: 6763 073e 041e dd3b 24c9 8f3e d262 b3bd
000002c0: 0b38 b1bc da8d 05be 59bc 2ebe de03 00be
000002d0: b14d 45bc ca9a 803e 929d 1bbe e685 aabe
000002e0: 18dd 69bd 5910 7f3e 6850 63bd 6040 35bd
000002f0: 66fe 4bbe 4a14 9f3e 688d 8fbe ae8c 403e
00000300: 7a9c 663d ef25 393e 35c8 79be 7209 27bd
00000310: 5aa6 40be 5003 863e ddf4 13bd 4089 a0be
00000320: e0fc f53d eb84 363d 0960 ad3d bf8c 82be
00000330: fb2d 98be c647 923e f929 2ebe 8135 6fbd
00000340: 9edf 40bd 29a0 3c3e 854a 60be da7c 0dbe
00000350: d93d 7bbd f446 cbbd 4d20 5b3e a0fa f93d
00000360: 34d1 b03d b7f6 563e e189 7abe ac0d 92bd
00000370: 1832 7bbe 0e6f b9bd b158 6ebe fe6e 87be
00000380: f4e5 273e 52b6 bfbd bcc7 283d 6e09 3abc
00000390: a4eb 9abe 3dc3 e5bd 59f7 c43d 69d0 2e3e
000003a0: 194f 14be f87e 973e edfd 29be 8695 f03d
000003b0: 220d 393e c315 9d3d 8bd4 9bbd 6284 903e
000003c0: b700 e7bd 1956 17be 57fa c5bc 3571 5cbe
000003d0: 880b c93c fb6b 80be f1be 3d3e b09c adbe
000003e0: 6309 71be 9ade 793d 90ec bf3d 4e4b 8f3e
000003f0: ae34 a8be a309 933e 82d2 853e 15d6 fcbd
-0.06676776 0.054326348 -0.19587003 -0.111434646 0.10305683 0.20183045 0.0038508775 -0.17814337
0.20297804 -0.21938622 -0.1565688 0.28213456 -0.023275953 0.0038709603 0.11704986 -0.012809112
0.16415046 -0.23503678 -0.07196791 -0.18388806 -0.20931779 -0.13458684 0.18478666 0.2134825
0.014669878 0.3769919 -0.15896119 -0.21196365 0.14978716 -0.021918671 -0.30771422 -0.15647064
-0.17899485 0.1931164 0.05583898 0.21090978 -0.24515802 -0.2802703 -0.23076785 0.044691745
-0.09465198 -0.1912014 0.28394103 -0.0825616 -0.12044709 0.116578296 -0.06788609 0.15204918
0.11065512 0.021295235 0.050183043 -0.21131755 -0.052419387 -0.06641944 -0.14307767 0.0036273177
0.012923904 -0.14854097 0.23682234 -0.2217015 0.11554585 -0.16104414 -0.26614824 -0.21762505
0.17566137 0.16477902 -0.17394073 -0.13546872 -0.22894418 0.22690159 0.27311787 0.104054734
-0.14526431 0.1313086 0.17034197 -0.0030159468 -0.07597448 0.06793187 -0.00071655813 -0.07613936
-0.33038917 -0.18249416 -0.020290159 -0.11845354 0.18477081 -0.047392175 -0.10653993 -0.21166246
-0.2589775 0.20739809 0.36705542 0.010782779 -0.22103208 0.12229482 0.2058253 -0.21774445
-0.04860873 0.051110484 -0.17755221 -0.31551674 0.17683122 -0.19807674 -0.07492856 -0.16382886
0.27195978 0.026650287 0.08299121 -0.16396104 0.23063056 0.00545544 -0.18947078 -0.0019082433
-0.25110614 0.007504296 0.1356636 -0.2194821 0.19203627 0.048038937 -0.062134452 0.16913168
-0.039478123 -0.0008092517 -0.119554825 0.18268567 0.22469541 0.09928768 0.13500716 0.28992847
0.26612666 -0.3056648 0.0014373575 0.015698751 0.049739443 -0.08881948 0.09119827 -0.29012793
0.10987697 0.27777377 -0.010891263 -0.28226355 -0.2542946 -0.05797087 0.048563465 0.024807544
0.043723144 0.24334571 -0.019062117 0.122985475 -0.055863053 0.365832 0.1406031 -0.105681464
0.1435076 0.059053004 0.021120613 -0.15242474 0.05395955 -0.07363214 -0.1442381 0.03065186
0.020351505 -0.20136832 0.113959 -0.0111491075 -0.3039235 -0.26323283 -0.19883057 0.020765875
0.15571682 0.34259003 0.35512063 0.02851995 0.13221513 0.006747963 0.28083146 -0.08759083
-0.021633169 -0.13042393 -0.17064036 -0.12501475 -0.012042449 0.25118095 -0.15196827 -0.3330528
-0.057095617 0.2490858 -0.055496603 -0.044250846 -0.19921264 0.31070167 -0.28037572 0.18803665
0.05630157 0.18080877 -0.24392779 -0.040780492 -0.18813458 0.26174402 -0.03612219 -0.31354713
0.12011123 0.044560354 0.08465583 -0.25498006 -0.2972258 0.28570384 -0.17008199 -0.058400635
-0.047088258 0.18420471 -0.21903427 -0.13817158 -0.06133828 -0.099256426 0.2139904 0.12206006
0.08633652 0.20992552 -0.24466659 -0.07131514 -0.24530828 -0.09054385 -0.2327602 -0.26451868
0.16396314 -0.09360947 0.041206107 -0.011354787 -0.30257905 -0.11218879 0.0961749 0.1707169
-0.14483298 0.29589057 -0.16600771 0.11747269 0.18071416 0.07670166 -0.07608899 0.28226
-0.11279433 -0.14778937 -0.024167223 -0.2152756 0.024541631 -0.25082383 0.1852987 -0.33908606
-0.23538737 0.061003305 0.093712926 0.2798714 -0.3285269 0.2871829 0.26137167 -0.123455204

conv2.bias f4 [32]
00000000: 7a46 97bd 8ff1 41bd d998 59bc 9055 843d
00000010: 085d c6bc 5580 90bd 6c56 20bc caa2 0ebd
00000020: 3733 af3c 2c5c e3bb aecc 933b 882a aebd
00000030: b704 c6bd 7b6c bf3d 66b3 593d bfd7 06bc
00000040: 938e 283d 58cc 86bd a550 4b3c 6526 0c3d
00000050: 4fb8 c6bd 7e4c d3bc 5052 5a3d eacd b13c
00000060: 3915 ae3c 1395 bd3c 8424 a3bd 1ae2 24ba
00000070: 5960 f8bd 8d48 733d 2112 59bd 6eb0 8d3c
-0.07386489 -0.04734951 -0.013281071 0.06461632 -0.024214283 -0.070557274 -0.00978623 -0.034823216
0.021386726 -0.006938478 0.0045104837 -0.08504206 -0.09668868 0.09346863 0.053149603 -0.008230149
0.041151594 -0.06581944 0.012409364 0.034216303 -0.09703123 -0.02579331 0.053301156 0.021704633
0.021250354 0.023142373 -0.07965949 -0.0006289795 -0.12127752 0.05939536 -0.052995805 0.017296042

pool.gnn.lin_l.weight f4 [1, 32]
00000000: 088e 863d 28d9 733d 5822 2e3c be54 9c3d
00000010: de1c 653d 8636 233d ae19 c0bc d3af be3c
00000020: 8dc9 8abd 3a97 9e3d 0da9 98bd 1b9e 083e
00000030: 4df1 f83d a1f4 e1bd 155a 97bd be54 0abd
00000040: 38b9 503d dc54 fe3d 8630 edbd 6ba3 e3bc
00000050: ace4 d53d 1c44 1b3b fcea 28be e8ca 21bd
00000060: 35c4 1c3d 0167 a5bd 2dc1 913d 33db d5bc
00000070: 24ff 013e af1e 81bc ba14 8a3d 5180 333c
0.06570059 0.05953327 0.010628305 0.07633351 0.055935733 0.03984692 -0.023449745 0.023277199
-0.06776724 0.07743688 -0.07454119 0.13341562 0.121553995 -0.110329874 -0.07390229 -0.033772223
0.05095789 0.124185294 -0.11581521 -0.027787885 0.10444006 0.002369172 -0.1649589 -0.039500147
0.038273055 -0.08076287 0.071169235 -0.026105499 0.12694985 -0.015761701 0.067422345 0.010955886

pool.gnn.lin_r.weight f4 [1, 32]
00000000: 9143 373d d0ab 483e 6a3e 19bc 0cf1 01be
00000010: a3cb 653b 5323 f73d 1ddc 27bd 37f5 23be
00000020: 1948 96bd ab6f 953d d4f3 ce3d 54ec 50bd
00000030: abe2 9f3c 6196 343c 9f90 9abd 4718 ad3d
00000040: 6c15 38bd 2668 30be 652f 993d 6e35 e63d
00000050: 643b 8cbd 6ac4 7b3d b666 46be 4af7 81bd
00000060: bebc 16bc c12d d63c ef24 61bd 97bc d83d
00000070: a9a1 44be 981c edbd 4692 c5bd f444 93bd
0.04474217 0.19596791 -0.00935326 -0.12689608 0.0035064004 0.120672844 -0.0409814 -0.16011511
-0.0733797 0.072966896 0.101051 -0.05100663 0.019517263 0.011022181 -0.075471155 0.08451896
-0.044942304 -0.1722723 0.07479743 0.1124066 -0.06847265 0.061466612 -0.19375119 -0.06345995
-0.009200273 0.026144864 -0.054966863 0.10582846 -0.19202293 -0.115777194 -0.0964704 -0.07190886

conv3.weight f4 [32, 32]
00000000: 27f7 9c3e 5ff3 083e 2736 653e d036 f43d
00000010: 2f9d b8bd 4a6b 5ebd b6aa 9ebe 7b9b 613e
00000020: 7502 e03b f709 24bd afd7 ba3d 276f d8bc
00000030: b334 85be e8a8 423d f3da 813e 47ef 513e
00000040: af5b a0be bcfd 543e a6eb 063e b1f7 97be
00000050: c916 a53c 516c 23be eca3 1d3d f682 81be
00000060: 47a9 53bd 9c22 8a3e e022 36bd e32d 003d
00000070: 38b6 e6bd 7b85 2d3e 8f6e 823e f11c 703c
00000080: 1bb6 90bd b36f 813e a899 a1be 5510 013e
00000090: e3e3 7ebd e4f6 cebd 5f5b 89be f7bf 303e
000000a0: b75c 503e c42c 6bbd a638 1d3d 9d5d 45bd
000000b0: 6c51 40be 538f 66be 8abc e0bc ba8e 5f3e
000000c0: a917 823e 53a4 1fbe 3acd cabd af49 943e
000000d0: 2368 91be 6739 95be 56d0 01be 533d 663e
000000e0: 63ab 9dbe 5b08 88be 57e5 273d 78ee 473e
000000f0: ddf2 833d 0e19 36be 0364 393e 5338 b73d
00000100: 2e19 6dbc 0c3f 54be dfc2 14be aba0 30be
00000110: 1277 43be c225 043e 4c30 823e 12ff 023e
00000120: 95c0 a03d 630d 26be 4d43 253e 5345 623e
00000130: 57d9 383e 79af 743e b289 2abe f808 f03d
00000140: 2c45 79bd 0f4a b9bd 0947 8f3e f8fa 8bbc
00000150: ff04 1ebd 2168 743b 2c14 68ba b8d6 dbbd
00000160: 00d9 2d3e ee38 473e f66a 33be 333f 91be
00000170: faf4 b7bd ee5c 00be d758 fc3d 465a cabd
00000180: b38a 493e 9bbc 95bc f37d 47bd 390f 74be
00000190: 2d22 403d 8822 95be f054 a83c 1c36 86be
000001a0: da68 61be 1076 8bbe 609f a63d 6a63 94be
000001b0: 49bd b23e 1a87 43be fb12 4ebe 1c60 593e
000001c0: 5b8c 443d 637c 243e 6cda c4bd a535 563d
000001d0: 12cb 7f3e 5e5f e6bd 53f7 10be e7d4 b43e
000001e0: c3fa 553e cdce 5bbd e780 673e e384 9cbe
000001f0: f836 8c3e 75de e5bd 7bb2 3b3e 4934 3dbe
00000200: 9e81 51be 5539 4abc bc34 0dbe 3ecd cf3d
00000210: 2d9f 783e bd0c 49be 5f1f 86be d626 27be
00000220: 6ceb cc3d 49f0 abbd 9207 ab3e fa6b 81bd
00000230: 47db 3a3e ff10 2fbb c871 af3d 1a0b 4ebe
00000240: 5027 763d 8195 0fbe 574d c83c b63c a43e
00000250: a8ef 5f3d fd10 f9bd 6190 0bbd 8c20 83be
00000260: 0189 2dbe d01a 183d 98ee 8ebd edc0 af3e
00000270: 8af8 813c 4d93 9ebd cfa3 a93d 528d 173e
00000280: 30c4 b13c 6a94 eb3d e583 8c3e ee17 ecbd
00000290: 6c39 85bd 55b9 f8b9 ae64 673e ba53 523d
000002a0: dafa 3fbe f42c 5a3e 8f63 7b3e d3f1 913e
000002b0: 8b6c 3a3d c943 89be cac5 d53d 8c09 51bc
000002c0: 02db 6bbe 2337 8fbe 7a28 06bc ba37 8d3e
000002d0: 5f68 303e 29c1 793d 8401 dc3d b45e 8bbe
000002e0: ede7 4d3e 2ede 0b3e 7f39 31be 8af4 94be
000002f0: 4c2a 03be 3d1c d43c 7b9c 0c3e 75cd 953d
00000300: 7b25 1cbd 4c1c 073e 4404 3fbe 43df 1c3e
00000310: e3c1 f2bd 53de 31be 4eff 82be 2a87 713d
00000320: 489d 03be b62c 343e bb58 373e 3a9a 64bc
00000330: 5542 0e3e e0e4 273e 1825 253e 81d6 5ebe
00000340: d79c a1bd 682a aabd 581b 4b3e 7157 dfbd
00000350: 6c2b 033e 1460 f73d 890b 0b3e 59f2 743e
00000360: 58ec 1abd c6e6 4ebe ced5 61be 50e4 aebd
00000370: 8ac7 833e 5935 ecbd 3a87 4dbe fa58 3fbe
00000380: 0d3a 4bbe 2110 f9bd 881c a93b c5cf 1f3b
00000390: 19dc 64be 5967 41bd 88dc 5bbe 4fa8 21bd
000003a0: 4ebd 363e 545d c83b eccb 043c 4d71 b93d
000003b0: 83eb 183e b853 4b3e d6a6 dbbd 2ce1 8fbe
000003c0: f672 90bb fb59 303e d7d0 ab3d 1f29 a93e
000003d0: 0100 513e 74f1 b0bc 4c38 1f3e 8104 013e
000003e0: 4b62 bebd bace 18be 1319 313b 32c8 8ebd
000003f0: 07ad 1abe 0db2 89be 1698 863e fc89 82bd
0.30657312 0.13374089 0.22383939 0.11924517 -0.090143554 -0.054301538 -0.30989617 0.22031967
0.0068362304 -0.040048566 0.0912317 -0.026420189 -0.2601677 0.047524363 0.25362357 0.20501433
-0.3131995 0.20799917 0.1317583 -0.2968116 0.020152466 -0.15959288 0.038486406 -0.25295228
-0.051675107 0.2697953 -0.044466853 0.03129376 -0.11265224 0.1694545 0.25474975 0.014655338
-0.07065984 0.25280532 -0.31562543 0.12603886 -0.06222905 -0.101056844 -0.26827523 0.17260729
0.20347868 -0.05741574 0.038384102 -0.04818498 -0.1878106 -0.22515611 -0.027433652 0.2183179
0.25408676 -0.15590028 -0.09902425 0.28962466 -0.28399763 -0.29145357 -0.1267713 0.22484331
-0.3079482 -0.26568875 0.0409902 0.19524562 0.06442807 -0.17782995 0.18104558 0.0894629
-0.014471335 -0.20727175 -0.14527462 -0.1724879 -0.1908839 0.12905028 0.25427473 0.12792614
0.07849232 -0.16216044 0.16138954 0.22096758 0.18051659 0.23895063 -0.16654089 0.11720461
-0.060856983 -0.09047329 0.27983883 -0.017087445 -0.038578983 0.003729351 -0.00088531035 -0.10734314
0.1697731 0.1945531 -0.17521271 -0.2836853 -0.089822724 -0.1253545 0.12321632 -0.098804995
0.19681816 -0.01827841 -0.0487041 -0.23833932 0.046907593 -0.29127908 0.020548314 -0.26213157
-0.22012654 -0.27238512 0.08135867 -0.28982097 0.34910038 -0.19094506 -0.20124428 0.21228069
0.047985416 0.16063075 -0.09611973 0.052297253 0.24979809 -0.112486586 -0.14156847 0.35318682
0.20896439 -0.053664017 0.22607766 -0.30570135 0.27385688 -0.11224071 0.18329804 -0.18476976
-0.20459601 -0.012342771 -0.13789648 0.10146569 0.2427947 -0.19633766 -0.2619581 -0.16323408
0.10005841 -0.0839544 0.33404213 -0.06319423 0.1824771 -0.0026713011 0.08566624 -0.20121422
0.060096085 -0.14021875 0.024450941 0.3207757 0.054671913 -0.121614434 -0.034073237 -0.2561077
-0.16946794 0.037134945 -0.06979102 0.34326878 0.015865583 -0.07742939 0.08283197 0.14800003
0.021699995 0.11502917 0.27444378 -0.11528002 -0.06505093 -0.0004744033 0.22597 0.05134938
-0.18748036 0.21306211 0.24549697 0.2850481 0.04551367 -0.26809528 0.10438116 -0.012758624
-0.23032764 -0.27971753 -0.008188361 0.27581578 0.17227314 0.060975228 0.107424766 -0.2722069
0.20108004 0.13658974 -0.1730709 -0.29092818 -0.12809104 0.025892371 0.13731568 0.073145784
-0.03812168 0.13194388 -0.18653971 0.15319543 -0.11853387 -0.17369966 -0.25585407 0.058966793
-0.12852967 0.17595181 0.17904942 -0.013952786 0.13892491 0.16395903 0.16127431 -0.21761514
-0.07891243 -0.083088696 0.1983465 -0.1090535 0.12809533 0.12078872 0.13578619 0.23920573
-0.03782305 -0.2020522 -0.22054216 -0.08539641 0.25738174 -0.11533613 -0.20071116 -0.18686286
-0.19846363 -0.121612795 0.005160872 0.0024385315 -0.22349586 -0.0472177 -0.21470845 -0.039467152
0.17845652 0.006114641 0.008105259 0.090548135 0.1493359 0.19856155 -0.10725181 -0.2810148
-0.0044082357 0.17221825 0.083894424 0.33039185 0.20410158 -0.021599509 0.1554882 0.12599374
-0.09296092 -0.1492261 0.0027023002 -0.06971778 -0.15105067 -0.26893654 0.26287907 -0.06373975

conv3.bias f4 [32]
00000000: 04d2 da3c 0176 f3bc 6a9f 2d3d 5a25 14bd
00000010: 3208 b43c 229f 35bd e2ae 203d 23b4 e53c
00000020: 8447 2abd 5e25 02bd 39b7 40bc f900 1ebd
00000030: f099 033d ce25 f33c 7e88 953c ffac 083d
00000040: 011a 363d dd4c 8fbb 3576 27bc ab61 2bbd
00000050: e06b e0bc 8286 d13c 1461 5fbc 6b7b cc3c
00000060: 4600 03bd 34aa 2fbd 1099 0a3d d89d 10bd
00000070: 8f46 0fbd 3aac 163c 3ab7 8dbc b7f6 c5bc
0.026711471 -0.029719355 0.042388357 -0.036168434 0.021976564 -0.044341214 0.03922928 0.028039997
-0.04157211 -0.031773917 -0.011762434 -0.038575146 0.032129228 0.029681113 0.018253561 0.033368107
0.044458393 -0.0043731765 -0.010221054 -0.04184119 -0.027395189 0.025576834 -0.013633985 0.024961194
-0.031982683 -0.042886928 0.033837378 -0.03530678 -0.0349794 0.009196335 -0.017299283 -0.024165494

conv4.weight f4 [32, 32]
00000000: 444a 7d3d 7e5e 6bbe 9fd3 07be 0bc3 32be
00000010: 704d ad3d b642 fd3d a806 3fbe 978b db3d
00000020: f457 193d f44b 653e 066b 523e b821 263e
00000030: 264a 693e 3d78 fe3d 2dcf 7c3e 5c5b 8ebe
00000040: b4c8 693e 0800 853e 5a09 223e 1a43 e6bd
00000050: bc23 c1bd 5345 123e 44b1 c03c 738f 173e
00000060: 347e d33d fac0 c93d 732a d3bd af1c 83be
00000070: 60a8 66be ed12 8bbe a7d9 82be 0c06 29be
00000080: f5ec a5bd 3817 4c3e f114 6a3d 6d11 073e
00000090: 2012 65be 344c 923e bf52 863e 8dc7 7b3e
000000a0: c303 dfbd b4fb 1a3d 759d 9c3d 63de d9bd
000000b0: 7c37 fa3d efa0 3cbd fc31 58be 8358 bdbd
000000c0: 0fce 813e fb17 ff3d fcab b83d adf6 9b3d
000000d0: 2258 ca3d 8abb 243e 7043 4ebe b08d 0a3d
000000e0: 3b4b e0bd 82b4 35be 12d1 3fbe 4dd2 97bd
000000f0: 0068 66be b7e0 81be c076 853e 70f2 e53c
00000100: f71c 4b3d be1c 37be 5efd 563c a1f1 213e
00000110: 71b3 743e 5446 39be e680 3bbe b234 9c3e
00000120: 70e3 383e 51af ba3e d83c a9be a0ba 97be
00000130: 9535 e3bd 3fe9 4c3e 0e76 48be 448c bc3d
00000140: 4af9 4c3e ecc6 d13d 934b e5bd 8ee0 123e
00000150: ec73 49bc bd76 573e 365f 19be 7a8c 523e
00000160: 6dee 53bd fd65 74be c4e3 f03d 9300 22be
00000170: 3847 7a3e 02d2 e73d b7cc a7be e9d1 733d
00000180: ba16 e7bc b40c dcbd 0983 9abe 22c0 5abe
00000190: dad2 86be 8084 963d 916e 863b ad92 5d3d
000001a0: a14f a2be 55f3 35be 0a2c 3fbe c557 0a3d
000001b0: b67b 85be 41da 6e3e c582 2abe ec55 a73d
000001c0: d1ec 6e3e 40c7 d8bd 93c9 683e cbb2 85be
000001d0: 3b64 923c a77d 7fbe a793 09bd 6999 8a3e
000001e0: 162f 5c3e 4650 653d dbf9 d6bd 3192 343e
000001f0: 3316 36be 1afa 663e 9c8e 75be 0e71 5ebe
00000200: c47d 883e 1c3d 6cbe cae8 0fbe acf4 4d3d
00000210: 8c2e 70bc de88 d43c 19e2 30be 46a8 d9bd
00000220: de1b 923e 8bdb 703e c63e 84be 8158 47bc
00000230: 4e90 83be 2e7c 123e a63d b53c 964c 2bbe
00000240: 4dda 7d3e dbdd 203e 6686 afbd 6112 b0bd
00000250: a7b4 453d 7f9b 28be f4fd d3bb 73a6 99bd
00000260: 98ee 85be 099a eb3d 3a44 1abe 681b 10be
00000270: 2445 4bbe f9bf c03d 2f1f 0c3e e8b5 133e
00000280: 9579 9cbd 7781 473d 7a7a 7cbe 3c43 9bbe
00000290: 3164 babd e2fd 60be d5f3 b9bd 5812 993e
000002a0: 0771 88be a93f 62be 4703 453e f2f8 14be
000002b0: 86de fd3d 6a9c d3bd 8b64 85be 9d78 c23d
000002c0: 4bad d2bd bd3f 3dbe ae16 603e 15d7 c1bc
000002d0: ee85 c03d a57a b73b 1470 46be 8640 213d
000002e0: f22f 0d3e 303c aebc afc0 0f3d 2582 e13d
000002f0: a4e9 573e 86f0 9f3c 16e8 9ebc 48ad 38be
00000300: 0a36 c2bd 8097 f8bd 8ce0 19be 8649 62be
00000310: 3497 babc c3ec 3bbe e048 043d 42a8 ab3d
00000320: cfb4 793e 553c bfba 0950 553e 604c 48be
00000330: 7057 93bd a55d 0fbe a39d f8bd c163 66be
00000340: 41dc 52be 0ce4 4bbe 121e 953e 5e28 1ebe
00000350: 7afc f73d 8270 943d 28a5 6a3d e19d af3d
00000360: 72f4 49bd abde e1bd 467d 6e3c c68f 8abe
00000370: 4928 a93d bb72 46bd 44b5 60be bcab 8e3e
00000380: 6a53 50be 504c 5cbd 8c92 0d3c e98f cb3d
00000390: a3b6 9fbd dcdf 0b3d 5b21 113e db6a 9e3e
000003a0: 1687 c7bd 957d d4bd 94a4 8bbe 0049 a43d
000003b0: b4ce 2dbe f0a4 f53d 3cd7 993d 4347 1e3e
000003c0: 2a19 61be 164b 7fbe 47cc 42be 4140 fbbd
000003d0: c9b9 873e 46a8 113d 3154 34bd 4197 2bbe
000003e0: 3a67 30be 62f1 8f3d 798e fbbd 6cc0 8c3e
000003f0: 9a6e 52be d3ec 6dbe f859 6c3d 2672 613e
0.061838403 -0.22985265 -0.13264321 -0.17457215 0.08462036 0.1236624 -0.18654883 0.10719984
0.037437394 0.22392255 0.20548639 0.162238 0.22782192 0.124252774 0.24688406 -0.27804077
0.22830468 0.25976586 0.1582388 -0.11243267 -0.09430644 0.14284258 0.023522027 0.14800815
0.10326806 0.098512605 -0.10310831 -0.2560782 -0.22525167 -0.27162877 -0.2555668 -0.16506213
-0.081018366 0.19930732 0.057148878 0.13190241 -0.22370195 0.28573763 0.26235005 0.24587841
-0.10889389 0.0378377 0.0764722 -0.1063812 0.12217614 -0.046051916 -0.21112818 -0.09245398
0.25352523 0.12455746 0.090171784 0.07615409 0.09880091 0.16087165 -0.20142913 0.03382653
-0.10951849 -0.1774464 -0.18732098 -0.074131586 -0.2250061 -0.25366756 0.26067162 0.028069705
0.04958817 -0.17882058 0.013121931 0.1581483 0.23896576 -0.18093234 -0.1831089 0.30508953
0.1805551 0.3646188 -0.33054233 -0.2963457 -0.11094204 0.20010851 -0.19576284 0.09206441
0.20016971 0.102430195 -0.11196055 0.14343473 -0.012295704 0.21041389 -0.14977726 0.205614
-0.051741052 -0.2386703 0.11762193 -0.15820532 0.2444123 0.11319353 -0.32773373 0.059526358
-0.028209079 -0.107446104 -0.30178097 -0.21362355 -0.26332742 0.07349491 0.004102536 0.05409496
-0.31701377 -0.17768605 -0.18669143 0.03377511 -0.26070946 0.23325445 -0.16651447 0.08170685
0.23332526 -0.10584879 0.22733144 -0.2611297 0.01787006 -0.24950276 -0.033588078 0.27070168
0.21502337 0.055984758 -0.10496875 0.17633893 -0.17781906 0.22556344 -0.23980182 -0.21722814
0.26658452 -0.23070186 -0.14053646 0.050282165 -0.014659535 0.02594417 -0.1727375 -0.10627799
0.28536886 0.23521249 -0.25829142 -0.012167097 -0.25696033 0.14305183 0.022124123 -0.16728434
0.24790306 0.15709631 -0.08570556 -0.085972555 0.048267987 -0.16465567 -0.0064694826 -0.07502451
-0.26158595 0.11503989 -0.15065089 -0.14072955 -0.19850594 0.09411616 0.1368377 0.1442486
-0.076403774 0.04870745 -0.24656096 -0.30324733 -0.09101141 -0.21971849 -0.090797104 0.29896808
-0.26648733 -0.22094597 0.19239531 -0.1454809 0.123959586 -0.10332568 -0.2605327 0.094956614
-0.10286959 -0.18481345 0.21883652 -0.02366213 0.09400545 0.005599337 -0.19378692 0.039368175
0.13787821 -0.021268934 0.035095867 0.11011151 0.2108522 0.01952387 -0.019397777 -0.18034852
-0.094829634 -0.12138271 -0.15027064 -0.2209836 -0.022777177 -0.18352036 0.03229606 0.08381702
0.24385379 -0.0014590124 0.20831312 -0.19560385 -0.07194412 -0.14000566 -0.12139442 -0.2249899
-0.20591833 -0.19911212 0.29124504 -0.15445086 0.12108703 0.07248022 0.05728641 0.08575035
-0.049305387 -0.11028799 0.014556235 -0.27062815 0.08259637 -0.04844926 -0.21944147 0.27865398
-0.2034432 -0.053783715 0.0086408965 0.09939558 -0.07798507 0.034149036 0.1417288 0.309409
-0.097425625 -0.10375515 -0.27274 0.08021736 -0.16973382 0.1199435 0.07511756 0.15456872
-0.21982256 -0.24930987 -0.19023238 -0.12268115 0.2650893 0.03556087 -0.044025604 -0.16756918
-0.17226878 0.07028462 -0.12283034 0.27490556 -0.20550004 -0.23234873 0.05770299 0.220162

conv4.bias f4 [32]
00000000: 5aa1 6dbd 211a 66bd 7a8f 703d 66df 3c3d
00000010: 1815 643d 2033 5ebd 4ffc 483d 3140 6cbd
00000020: 29f1 523d 7cd2 9dbc d615 5e3d b833 6f3d
00000030: 295d 6ebd 5fa5 5abd 3293 cc3c 08f1 71bd
00000040: cc66 32bd 4a40 6bbd ced9 c2bc 9254 693d
00000050: bc70 6e3d ab52 993c 4077 6fbd 3ce9 583d
00000060: 8182 2a3d 889b 563d a168 443d ed10 71bd
00000070: 1d08 153d 003b 073d 8d8a 2d3d bc4b 76bd
-0.058015205 -0.056177262 0.05873058 0.046111487 0.05568418 -0.054247975 0.049068745 -0.057678405
0.05149952 -0.019265406 0.054220043 0.058398932 -0.058194313 -0.053380366 0.024972532 -0.059067756
-0.043555066 -0.057434358 -0.023785498 0.05696542 0.05821298 0.018716177 -0.058463335 0.052956805
0.041628364 0.05239442 0.047951344 -0.058854032 0.03638469 0.03301525 0.04236846 -0.06013082

conv5.weight f4 [32, 2]
00000000: 0c2d 73be 8d43 8cbe a6f4 81be 3b0a fdbd
00000010: dcca cd3e 0184 b23e 183b 913d a77b 82bc
00000020: d3f8 303e 2bda 183e 741f c4be cab4 b3bb
00000030: e997 4e3e 13e7 07bd ab3d cbbe 28ce 7cbd
00000040: 15d8 9f3e d784 b2bd e346 a7be 8d84 aa3e
00000050: 9756 c83d 7ac4 753c 5f44 0e3d 4440 aa3d
00000060: f136 8abe cbde c3be 8103 00bc f6dd 433c
00000070: f253 85be dbcc b93e 27d7 8fbe b996 bcbe
00000080: 0fd2 943b cc10 95bd 9c0d eebd 2e74 9cbe
00000090: 162d 3f3e 2f23 7fbe 889b f13b 6ce9 833e
000000a0: 644c 8c3e d8bf bc3e c2d9 3bbe 50a1 633e
000000b0: e36d 40be dffc a8be 48c8 10bd e29c 463d
000000c0: 3af6 a03e 50fe 66be c1d1 cbbb 11b9 de3c
000000d0: 7da6 0bbe cf88 953e ecd9 99be ca64 c4be
000000e0: 3a06 ecbc 9f52 883d b77d 99be 5bfc c23e
000000f0: 78db 823e 0d88 02be 1e2f 20be b1e2 c1bc
-0.23747653 -0.27395287 -0.25381964 -0.12355467 0.40193832 0.34866336 0.07091349 -0.015928103
0.17282419 0.14926974 -0.38305247 -0.005484198 0.20175137 -0.033179354 -0.39695486 -0.061720043
0.31219545 -0.087167434 -0.3267127 0.33304253 0.09782141 0.015000457 0.034733173 0.08313039
-0.26995042 -0.38255915 -0.007813335 0.011954775 -0.26040608 0.36289105 -0.28093836 -0.36833742
0.0045416425 -0.072785944 -0.116236895 -0.30557388 0.18669543 -0.24915765 0.007373277 0.25764024
0.2740203 0.36865115 -0.18344787 0.22229505 -0.18791918 -0.33005425 -0.035347253 0.04848946
0.31437856 -0.2255795 -0.006220073 0.027187856 -0.13637729 0.2920594 -0.30049074 -0.38358146
-0.028811563 0.06656384 -0.29978725 0.38083157 0.25558066 -0.12747212 -0.15642974 -0.023667665

conv5.bias f4 [2]
00000000: 0da2 6f3d 0840 813d
0.058504153 0.06311041
