GST-recon/checkpoints/best_grid_ASAPPool_0.5.pth (torch, 99244 bytes, 21 tensors)

conv1.weight f4 [2, 32]
-0.017982287 -0.2428673 0.09983131 0.09169582 -0.16731422 -0.00095434685 -0.17856534 0.18480153
-0.12088404 0.284031 0.29433927 -0.060917437 -0.21872713 -0.21634464 -0.043738194 -0.12357248
0.12788829 -0.27453348 0.37286398 -0.34772128 0.24823259 -0.029330326 0.2476714 0.12901726
0.058479615 0.08541916 0.233119 0.032189555 0.18825154 -0.31851962 0.2511786 0.21174094
0.0765936 0.099736534 0.1745892 0.31310657 -0.034364898 -0.21037588 -0.019232066 -0.20482664
0.17882553 -0.21674547 -0.21578613 0.26711977 0.32997555 0.09308741 -0.046997484 -0.009206742
0.13950379 -0.30940834 -0.34270158 0.2954583 0.3065688 -0.030999511 -0.2669593 0.009277348
-0.18082966 -0.037258916 0.16619408 0.11707918 -0.07265681 0.064463526 0.07365984 -0.27601883
00000000: 974f 93bc 35b2 78be 5c74 cc3d 05cb bb3d
00000010: 6b54 2bbe 222d 7aba d5d9 36be 9d3c 3d3e
00000020: 0d92 f7bd 836c 913e a3b3 963e 9084 79bd
00000030: 01fa 5fbe 7389 5dbe d226 33bd 9213 fdbd
00000040: 26f5 023e a78f 8cbe 07e8 be3e 8608 b2be
00000050: af30 7e3e 2746 f0bc 929d 7d3e 1a1d 043e
00000060: 5288 6f3d 3ef0 ae3d bfb6 6e3e 32d9 033d
00000070: 03c5 403e 0115 a3be 7b9a 803e 9ed2 583e
00000080: 1bdd 9c3d ab42 cc3d 83c7 323e 814f a03e
00000090: 35c2 0cbd c66c 57be 918c 9dbc 13be 51be
000000a0: 0a1e 373e 86f2 5dbe 0af7 5cbe ecc3 883e
000000b0: 8ef2 a83e 9da4 be3d 6f80 40bd e0d7 16bc
000000c0: 15da 0e3e c56a 9ebe 9576 afbe 4f46 973e
000000d0: 96f6 9c3e b0f2 fdbc e4ae 88be 0500 183c
000000e0: 692b 39be ce9c 18bd c82e 2a3e 36c7 ef3d
000000f0: 18cd 94bd 7405 843d f8da 963d 5752 8dbe

conv1.bias f4 [32]
-0.023354959 0.07237451 -0.09979161 -0.107836284 0.09901232 0.07757559 0.11125858 0.023153644
-0.042844042 -0.056021046 -0.03217192 -0.07727317 -0.06950648 0.054501638 0.03195161 0.07822407
-0.13651404 0.14665692 -0.04258868 -0.044232752 -0.17543238 0.06018599 0.11320976 -0.071853876
0.061931964 -0.028738966 -0.11224999 -0.10109977 -0.060832974 0.060960766 -0.029036826 0.035200328
00000000: e652 bfbc 1639 943d 8b5f ccbd 45d9 dcbd
00000010: f9c6 ca3d f3df 9e3d 8adb e33d b6ac bd3c
00000020: 3c7d 2fbd 5376 65bd b4c6 03bd 6541 9ebd
00000030: 6a59 8ebd 1c3d 5f3d b1df 023d f133 a03d
00000040: 56ca 0bbe 3b2d 163e 7871 2ebd 672d 35bd
00000050: 8ca4 33be 9685 763d 85da e73d 2028 93bd
00000060: 5fac 7d3d fb6d ebbc 53e3 e5bd 650d cfbd
00000070: ff2b 79bd ffb1 793d a3de edbc 382e 103d

conv2.weight f4 [32, 32]
-0.07758665 0.05707506 -0.2292638 -0.08224374 0.122250356 0.18701577 -0.0025958489 -0.16555914
0.12487547 -0.13793635 -0.02936004 0.2280344 0.1205779 -0.05220783 -0.012334414 -0.0043186373
0.18858671 -0.25292504 -0.07733684 -0.0038448698 -0.053624935 -0.12548229 0.17790748 0.16710429
0.06278619 0.29985082 -0.1951023 -0.16203582 0.08671125 -0.006845797 -0.2082407 -0.19331
-0.19597703 0.2503185 0.15076396 0.25802162 -0.14247695 -0.23250002 -0.21966499 0.12133244
-0.057625934 -0.1369656 -0.011734188 -0.05888266 -0.10581943 0.15538703 -0.07304598 0.16224362
0.10604527 0.00834372 0.12102607 -0.36602753 -0.20260958 -0.20422503 -0.17737325 0.04285981
-0.0040196427 -0.11941468 0.24126773 -0.3410142 0.16574746 -0.12694217 -0.2822745 -0.1883859
0.13511784 0.15067771 -0.20615955 -0.09711666 -0.2675629 0.17091398 0.24413835 0.08306831
-0.18720597 0.15830104 0.28046253 -0.08505457 -0.045751624 0.071384236 -3.795606e-05 -0.07158009
-0.30725744 -0.19981888 0.0027485406 0.009708124 0.26855868 -0.019388001 -0.09835431 -0.2696222
-0.22762452 0.12688312 0.27740484 0.026964929 -0.31979087 0.10643759 0.25905982 -0.21445483
-0.0969402 0.08968344 -0.205673 -0.2542459 0.19002928 -0.20426795 -0.066105515 -0.13642615
0.21665472 0.08481779 0.13681996 -0.22758467 0.27379453 -0.025302753 -0.24897344 0.026318567
-0.25688863 -0.043464802 0.1792445 -0.097895935 0.28056213 0.025295248 -0.029036531 0.10121998
-0.039358318 -0.03825561 -0.14364986 0.14879262 0.16045554 0.06682331 0.20244892 0.25954446
0.23361944 -0.24822766 0.07654898 0.0031678767 0.16083716 -0.010905516 0.15566164 -0.18927649
0.104898095 0.35005584 -0.21455447 -0.17285219 -0.21318634 -0.03498501 0.005258066 -0.0039379527
0.07028727 0.21028118 0.03096986 0.0052919243 -0.22824289 0.2388944 0.12567794 -0.08258771
0.12648317 0.1446399 0.09781394 -0.27960467 0.1557424 -0.034683425 -0.18954426 -0.009858898
0.04424004 -0.2050863 0.071943685 -0.09257552 -0.26997015 -0.18614365 -0.21563382 0.10109901
0.18238404 0.28327945 0.26883465 0.1406513 0.14635195 -0.019326476 0.283372 -0.14702258
-0.0592142 -0.12428939 -0.18463425 -0.25612733 -0.08660264 0.27259025 -0.12697072 -0.30817953
-0.13146318 0.2847385 0.07933815 -0.053751286 -0.041159127 0.26146585 -0.30473006 0.17543963
0.043493733 0.22496065 -0.165233 -0.08341168 -0.08098207 0.33703455 0.021356948 -0.22551559
0.1287906 0.09936375 -0.10840822 -0.13079076 -0.2476663 0.3081514 -0.18410392 -0.11041476
-0.016874755 0.1739748 -0.1814848 -0.27227604 -0.22858632 -0.18007661 0.17729162 0.15502903
0.068609685 0.2721675 -0.18978883 -0.15140174 -0.12255876 -0.03382974 -0.27784967 -0.29805687
0.20429167 -0.21433145 0.03299455 -0.17648773 -0.3664421 -0.15718693 0.021290142 0.1619775
-0.088759564 0.17735423 -0.096647754 0.21605456 0.20464845 0.10985237 0.053089827 0.14349991
-0.02310565 -0.045722038 -0.14082567 -0.29918477 -0.09156645 -0.09265938 0.061356653 -0.24441971
-0.20259742 -0.0028168792 0.04385013 0.42146477 -0.24032393 0.3561004 0.16834037 -0.12768722
00000000: c0e5 9ebd 8ac7 693d 21c4 6abe 686f a8bd
00000010: 655e fa3d 1081 3f3e 1e1f 2abb 5688 29be
00000020: b6be ff3d 303f 0dbe 7784 f0bc da81 693e
00000030: 8cf1 f63d e1d7 55bd 4816 4abc 5b83 8dbb
00000040: e01c 413e 647f 81be c762 9ebd 36fa 7bbb
00000050: d2a5 5bbd 6e7e 00be 612d 363e 631d 2b3e
00000060: 0c96 803d 0c86 993e e6c8 47be b8ec 25be
00000070: ab95 b13d b552 e0bb 0d3d 55be 0ef3 45be
00000080: 34ae 48be bf29 803e de61 1a3e 691b 843e
00000090: 7ae5 11be 7c14 6ebe dcef 60be 247d f83d
000000a0: 2c09 6cbd b640 0cbe c040 40bc f22e 71bd
000000b0: dbb7 d8bd c71d 1f3e 2199 95bd 3123 263e
000000c0: 432e d93d 19b4 083c 84dc f73d f667 bbbe
000000d0: e378 4fbe 5e20 51be 55a1 35be c58d 2f3d
000000e0: 35b7 83bb af8f f4bd e30e 773e 6a99 aebe
000000f0: b4b9 293e 21fd 01be 4986 90be 3ce8 40be
00000100: 555c 0a3e 424b 1a3e 7d1b 53be 19e5 c6bd
00000110: 01fe 88be 1304 2f3e 67ff 793e b81f aa3d
00000120: ecb2 3fbe ab19 223e c998 8f3e 1731 aebd
00000130: 0e66 3bbd e631 923d 0233 1fb8 9598 92bd
00000140: d950 9dbe 529d 4cbe dc20 343b d30e 1f3c
00000150: 8680 893e 96d3 9ebc fc6d c9bd ec0b 8abe
00000160: 6716 69be a6ed 013e 0208 8e3e 8ee5 dc3c
00000170: a1bb a3be f4fb d93d 7da3 843e 0c9a 5bbe
00000180: 9588 c6bd f4ab b73d f19b 52be 852c 82be
00000190: 0997 423e 9e2b 51be 5462 87bd 4cb3 0bbe
000001a0: bcda 5d3e f3b4 ad3d 881a 0c3e f50b 69be
000001b0: cc2e 8c3e b847 cfbc e5f2 7ebe 099a d73c
000001c0: e886 83be 2608 32bd df8b 373e aa7d c8bd
000001d0: d7a5 8f3e fb37 cf3c 05de edbc 6c4c cf3d
000001e0: 3036 21bd eab1 1cbd f318 13be 185d 183e
000001f0: 754e 243e a9da 883d c54e 4f3e 03e3 843e
00000200: ef39 6f3e 642f 7ebe b6c5 9c3d 279c 4f3b
00000210: 7fb2 243e 0dad 32bc c465 1f3e b2d1 41be
00000220: d0d4 d63d 853a b33e 2bb4 5bbe 2a00 31be
00000230: 854d 5abe 714c 0fbd db4b ac3b f109 81bb
00000240: c6f2 8f3d f353 573e 81b4 fd3c e167 ad3b
00000250: 81b8 69be bca0 743e b8b1 003e bf23 a9bd
00000260: ce84 013e 7b1c 143e ad52 c83d 5828 8fbe
00000270: f07a 1f3e 3510 0ebd e417 42be 3787 21bc
00000280: 0b35 353d 2502 52be 3657 933d 3c98 bdbd
00000290: 8739 8abe 719c 3ebe 1dcf 5cbe ff0c cf3d
000002a0: e2c2 3a3e 010a 913e b2a4 893e e506 103e
000002b0: 49dd 153e 8f52 9ebc 2316 913e 168d 16be
000002c0: 978a 72bd 708b febd c310 3dbe 1f23 83be
000002d0: ba5c b1bd f390 8b3e 9d04 02be b5c9 9dbe
000002e0: 499e 06be 3fc9 913e 0a7c a23d 4f2a 5cbd
000002f0: 7996 28bd dade 853e 9405 9cbe 72a6 333e
00000300: 7c26 323d 165c 663e d732 29be bed3 aabd
00000310: edd9 a5bd cb8f ac3e c4f4 ae3c 8fed 66be
00000320: afe1 033e 397f cb3d 2105 debd 03ee 05be
00000330: 3c9c 7dbe 05c6 9d3e bd85 3cbe 2221 e2bd
00000340: ed3c 8abc 7326 323e 27d7 39be c467 8bbe
00000350: 8812 6abe 0166 38be ef8b 353e eebf 1e3e
00000360: 3c83 8c3d 8a59 8b3e 0158 42be 0f09 1bbe
00000370: 1600 fbbd 0e91 0abd 5042 8ebe e99a 98be
00000380: d631 513e b479 5bbe 4b25 073d 33b9 34be
00000390: 4d9e bbbe 9cf5 20be aa68 ae3c 6edd 253e
000003a0: 93c7 b5bd 599c 353e 42ef c5bd 683d 5d3e
000003b0: 5d8f 513e 48fa e03d b874 593d a4f1 123e
000003c0: 0f48 bdbc 0847 3bbd 9b34 10be bf2e 99be
000003d0: 3187 bbbd 33c4 bdbd 1d51 7b3d 2949 7abe
000003e0: b375 4fbe 649b 38bb 329c 333d 3bca d73e
000003f0: 7a17 76be cb52 b63e 6b61 2c3e 70c0 02be

conv2.bias f4 [32]
0.0031969142 0.026946913 -0.0023312655 -0.016088158 0.014824982 0.007430588 -0.025214339 -0.0040716357
0.021221705 -0.032610506 -0.030313484 0.014281359 -0.0209998 -0.02345805 0.011743691 0.012471098
-0.003242681 0.014608784 -0.03694613 0.0033675176 0.0035758696 -0.010817662 -0.03211224 0.041196108
0.046995983 -0.005965029 0.0024053024 -0.009165977 -0.031062495 0.0020502885 -0.011509047 -0.015045313
00000000: 5283 513b c6bf dc3c 25c8 18bb 50cb 83bc
00000010: 7be4 723c 4a7c f33b 4d8e cebc 5b6b 85bb
00000020: 24d9 ad3c 9892 05bd fc53 f8bc 5cfc 693c
00000030: c607 acbc 192b c0bc 9c68 403c 9453 4c3c
00000040: 2983 54bb ae59 6f3c d354 17bd 92b1 5c3b
00000050: 2359 6a3b 903c 31bc 2088 03bd 40bd 283d
00000060: dc7e 403d 4a76 c3bb 47a2 1d3b e52c 16bc
00000070: c676 febc 225e 063b 7190 3cbc 9e80 76bc

pool.pma.S f4 [1, 450, 32]
-0.093089856 -0.15570877 0.17320243 0.047697615 0.14986706 -0.1829578 0.12094072 -0.0006809469
-0.18376867 0.1443315 0.20307553 -0.04906502 -0.07122948 -0.12951998 -0.04994874 -0.19877899
-0.15940298 0.12283804 0.08868588 0.10862142 -0.008886368 -0.19252788 -0.22362271 0.02783897
-0.032427598 0.10011986 0.16714358 0.13185707 0.05327837 -0.07785065 0.13279882 -0.028444504
0.18553849 0.1619754 -0.09877778 -0.17666917 0.039469752 -0.10640731 -0.0038361994 -0.10973529
-0.04073588 -0.09226126 -0.024055656 0.14666213 0.13108662 0.09212192 0.13153215 0.018628443
0.1680056 -0.07068493 -0.20273663 0.07971618 -0.098924644 -0.25142404 -0.21614769 0.009611303
0.20627376 0.006130175 0.07022448 -0.04837948 0.1966517 0.08730204 0.027510105 0.20913629
-0.014763073 0.1040707 -0.24425596 -0.03561672 -0.17647846 0.17676331 -0.24449576 -0.16210389
0.16881865 -0.30073914 -0.24063365 -0.02302694 -0.0073903427 0.2941918 -0.08242268 0.13944015
0.35664862 -0.29443052 -0.002105716 -0.18064709 0.083627686 0.2635841 0.16937698 -0.09930839
0.0155965965 -0.27853414 -0.19209132 -0.24240889 -0.09271055 0.1369115 -0.12767234 0.07028875
-0.11264346 -0.16563459 0.166162 0.07410096 0.17516112 -0.18036643 0.15966761 0.019257722
-0.14734656 0.20348838 0.22940104 -0.055472527 -0.100858465 -0.1454575 -0.04156342 -0.25887057
-0.1964708 0.16013303 0.110575676 0.08910218 0.0051481943 -0.20475464 -0.19289432 0.0812598
-0.061058514 0.08182227 0.1915438 0.15492168 0.05042496 -0.09700095 0.18178944 -0.06938532
0.12750901 0.0819694 -0.03655074 -0.1250132 0.019534847 -0.08416425 0.007934097 -0.092473514
-0.021035727 -0.04514506 -0.057321798 0.10069532 0.07980849 0.13715039 0.11789777 0.00051710417
0.14314808 -0.072345816 -0.11126182 0.057751432 -0.11017427 -0.21730588 -0.25656775 0.015277363
0.11562983 -0.010449362 0.061156113 -0.07345883 0.1837093 0.08129852 0.00032580816 0.1681561
-0.06597252 0.04469555 -0.19476287 -0.013024653 -0.10889223 0.122329354 -0.20614678 -0.12577477
0.13686055 -0.20481421 -0.1878093 -0.035002638 0.011008857 0.26331562 -0.10222697 0.12696503
0.30358452 -0.22768703 0.018459158 -0.17246963 0.023467347 0.23974647 0.15456976 -0.102583736
-0.024239095 -0.24056575 -0.12269987 -0.1915791 -0.053684182 0.078814924 -0.086010166 0.03141468
-0.19957186 -0.20603237 0.08972219 0.21825077 -0.0038824384 0.14947219 -0.0022190197 0.07658474
0.022079352 0.057891406 0.11856041 -0.15348595 -0.18802726 -0.062700026 -0.17049398 0.04444442
-0.10121262 0.1239792 0.20485343 -0.16001262 0.18920301 0.17857184 0.12587197 -0.10869637
-0.20975026 -0.11018155 -0.0991825 0.102465495 -0.18038832 -0.11537488 -0.06923329 -0.21210834
-0.068656415 -0.08989753 0.08322322 0.061442345 0.060599536 -0.018905811 0.027381726 -0.01498741
-0.057003986 0.03585301 0.07021733 -0.029266287 -0.07447435 -0.019673834 -0.048957657 -0.037736718
-0.038769297 0.043665115 0.08689951 0.014932393 0.03341074 -0.013621367 -0.033173855 -0.034139257
-0.07001632 -0.04847395 -0.005606401 0.014470258 -0.056487583 -0.030167373 0.016628308 -0.046354394
00000000: e5a5 bebd 1f72 1fbe fa5b 313e 935e 433d
00000010: c076 193e 4a59 3bbe c5af f73d 9381 32ba
00000020: db2d 3cbe a3cb 133e 08f3 4f3e 67f8 48bd
00000030: c3e0 91bd e3a0 04be 0d97 4cbd b88c 4bbe
00000040: 893a 23be 8392 fb3d f1a0 b53d e874 de3d
00000050: 2198 11bc 0726 45be 5afd 64be 8d0e e43c
00000060: cdd2 04bd a40b cd3d b027 2b3e 8a05 073e
00000070: 6c3a 5a3d 2970 9fbd 6afc 073e 7304 e9bc
00000080: cdfd 3d3e e1dc 253e 014c cabd c3e8 34be
00000090: 09ab 213d 13ec d9bd bf68 7bbb e5bc e0bd
000000a0: abda 26bd 79f3 bcbd 5e10 c5bc 992e 163e
000000b0: 923b 063e 6baa bc3d 5db0 063e ad9a 983c
000000c0: a909 2c3e 43c3 90bd 319a 4fbe 3d42 a33d
000000d0: 0199 cabd a7ba 80be d255 5dbe ba78 1d3c
000000e0: 6e39 533e a3df c83b dad1 8f3d 9029 46bd
000000f0: 105f 493e 69cb b23d df5c e13c d327 563e
00000100: d1e0 71bc 0523 d53d 3c1e 7abe d6e2 11bd
00000110: c5b6 34be 7101 353e 195d 7abe 90fe 25be
00000120: ccde 2c3e 7bfa 99be ab68 76be fea2 bcbc
00000130: b02a f2bb 4fa0 963e 39cd a8bd 66c9 0e3e
00000140: a69a b63e 99bf 96be 0d00 0abb 8dfb 38be
00000150: fe44 ab3d 7ff4 863e 2971 2d3e 3262 cbbd
00000160: de88 7f3c 079c 8ebe 96b3 44be 093a 78be
00000170: 07df bdbd 8732 0c3e 8abc 02be 8cf3 8f3d
00000180: 9db1 e6bd 1d9c 29be 5f26 2a3e 3ec2 973d
00000190: 705d 333e fab1 38be e87f 233e 5fc2 9d3c
000001a0: 04e2 16be 425f 503e 1be8 6a3e 2937 63bd
000001b0: e28e cebd d0f2 14be 683e 2abd af8a 84be
000001c0: a42f 49be eaf9 233e 8075 e23d 347b b63d
000001d0: 2fb2 a83b 33ab 51be 1786 45be 8a6b a63d
000001e0: 7e18 7abd 6f92 a73d 0f24 443e caa3 1e3e
000001f0: 678a 4e3d 6fa8 c6bd 0327 3a3e e419 8ebd
00000200: b991 023e 93df a73d 3bb6 15bd 7603 00be
00000210: 8b07 a03c 4e5e acbd 04fe 013c c162 bdbd
00000220: 1e53 acbc 07ea 38bd 43ca 6abd 5939 ce3d
00000230: a272 a33d 2771 0c3e 6374 f13d 468e 073a
00000240: 6995 123e 0b2a 94bd 3ddd e3bd c48c 6c3d
00000250: 0ca3 e1bd 6f85 5ebe d95c 83be e84d 7a3c
00000260: 55cf ec3d cd33 2bbc d57e 7a3d 9571 96bd
00000270: 4a1e 3c3e d77f a63d 3bd1 aa39 1d31 2c3e
00000280: 9a1c 87bd ae12 373d eb6f 47be 5b65 55bc
00000290: e402 dfbd d087 fa3d 2418 53be 1acb 00be
000002a0: 2c25 0c3e d1ba 51be 1551 40be ed5e 0fbd
000002b0: 7e5e 343c 4ed1 863e 605c d1bd 1f03 023e
000002c0: 6e6f 9b3e ca26 69be a937 973c e19b 30be
000002d0: 983e c03c 1980 753e 8947 1e3e 6c17 d2bd
000002e0: 1191 c6bc de56 76be 124a fbbd 502d 44be
000002f0: f2e3 5bbd b869 a13d 1926 b0bd aeac 003d
00000300: 915c 4cbe 26fa 52be 44c0 b73d 217d 5f3e
00000310: 8270 7ebb 3d0f 193e f96c 11bb 76d8 9c3d
00000320: c2df b43c 8a1f 6d3d cdcf f23d 6c2b 1dbe
00000330: 388a 40be df68 80bd f995 2ebe 5a0b 363d
00000340: 9048 cfbd cfe8 fd3d 19c5 513e 59da 23be
00000350: 6fbe 413e 89db 363e 95e4 003e 349c debd
00000360: c6c8 56be dda6 e1bd 3220 cbbd 6ed9 d13d
00000370: b7b7 38be aa49 ecbd 2fca 8dbd ee32 59be
00000380: bc9b 8cbd 321c b8bd f070 aa3d f8aa 7b3d
00000390: 3837 783d 5ce0 9abc a44f e03c c18d 75bc
000003a0: 037d 69bd 9bda 123d 1ace 8f3d dabf efbc
000003b0: 0286 98bd 052b a1bc d387 48bd d191 1abd
000003c0: 8ecc 1ebd 31da 323d 5ff8 b13d ffa6 743c
000003d0: b3d9 083d 272c 5fbc 4fe1 07bd 9bd5 0bbd
000003e0: b764 8fbd 9f8c 46bd e6b5 b7bb a914 6d3c
000003f0: 865f 67bd 9121 f7bc 1738 883c 1bde 3dbd

pool.pma.mab.fc_q.weight f4 [32, 32]
0.098985605 0.32772848 -0.23738688 -0.15373549 -0.30946738 0.2748351 -0.35286817 -0.015232157
0.17962092 -0.24504513 -0.03185896 0.115145154 -0.12628293 0.27759334 0.12212528 0.27578938
0.3230808 -0.23509088 -0.08934183 0.025847875 0.14149478 0.34338787 0.29758608 -0.20488699
-0.08989421 -0.023112528 -0.36052918 -0.02863106 -0.30783606 0.092467375 -0.3612991 0.1750793
-0.17096263 -0.20300205 0.26400918 -0.15584965 0.03747544 -0.26578605 0.17160352 0.059056114
-0.084353946 0.12347638 0.10802128 0.21964967 0.07860634 -0.115712844 -0.01368579 -0.15773983
-0.31416392 0.41189033 0.07250919 0.08943158 -0.06155266 -0.28036037 -0.048426244 0.19338237
0.051679086 0.25961524 0.10547053 0.32303828 0.26009104 -0.19547884 0.25861943 0.10842551
-0.13446121 0.12409368 -0.32135054 -0.072125316 -0.16119836 0.28552076 -0.17767514 -0.018048994
0.13277884 -0.41336605 -0.046635058 -0.0029645073 0.02667073 0.20143545 -0.10661572 0.093484014
0.3317422 -0.123775505 -0.045645602 -0.2021015 0.020510599 0.23102733 0.2088741 -0.05372063
0.019905522 -0.19478191 -0.22833787 -0.06589203 -0.11369708 0.0118983155 -0.249623 0.24657147
-0.15084466 0.00076249655 0.18833093 0.11090076 0.14949681 -0.0039113476 0.09391124 0.13966882
0.053085577 0.16622058 0.32336852 -0.10935247 -0.18055476 -0.2540758 0.22378807 -0.25151643
-0.36560953 0.1686025 0.13771676 0.29442453 0.09611461 -0.074212365 0.15010707 0.03549451
-0.025707638 0.06205431 0.037373383 0.19369866 -0.09573038 -0.13685478 0.18829975 -0.23668809
-0.20878577 0.21076575 -0.39229095 0.13006637 -0.33224466 0.38222352 -0.0996772 -0.056724515
0.06338631 -0.37656543 -0.06330758 0.07100715 -0.08647636 0.03038711 0.12777373 0.2116935
0.025203038 -0.1773042 0.02716732 -0.15865617 0.18147291 0.05562424 0.33443627 -0.12857719
-0.17797527 -0.027855504 -0.29635876 -0.11743743 -0.12664808 0.2937701 -0.20528428 0.13202477
-0.18164203 0.10222774 -0.0013433519 -0.020047888 0.15085487 -0.16928379 -0.038801927 -0.06914912
0.05298629 0.084849045 -0.023974448 0.099683516 -0.14040369 -0.16943866 0.053130712 -0.21045071
-0.11236667 0.20018752 0.24721959 0.11474915 -0.081357405 0.1261278 0.11065298 0.04905019
-0.16247691 -0.06981746 0.08309276 0.21418919 -0.021958143 -0.21243177 -0.098346084 -0.05703927
0.0970067 0.0817139 -0.102111 0.016452238 -0.10398019 -0.043654338 -0.07498325 -0.23017435
0.08358482 -0.13673352 0.014558109 -0.019764706 -0.08205702 -0.00045226645 0.07866825 0.012829185
-0.0113151325 -0.28033903 0.020794285 -0.07770435 0.005192539 0.13863288 0.08412102 -0.056011204
0.12346841 0.09500515 0.072269395 0.005735567 0.089308806 0.013480393 -0.01858921 0.20357428
-0.06632042 -0.2388192 0.10400455 0.26480985 -0.07230843 -0.018592922 -0.05346899 0.20684014
0.08462273 0.0044060326 -0.06757902 -0.2750241 -0.23124829 0.17996661 -0.09868826 0.16458184
0.1071496 -0.12322944 0.09280544 0.036924522 0.16614822 0.30701813 0.04617976 0.058497507
-0.21420284 0.07388979 -0.20317489 0.05050034 -0.15678775 -0.19759215 -0.042481206 -0.40358377
00000000: f7b8 ca3d 07cc a73e 8c15 73be d66c 1dbe
00000010: 8272 9ebe 30b7 8c3e 23ab b4be 4c90 79bc
00000020: 8cee 373e 1ced 7abe 8a7e 02bd 39d1 eb3d
00000030: 5050 01be b720 8e3e d21c fa3d 4434 8d3e
00000040: d96a a53e aabb 70be d9f8 b6bd ecbe d33c
00000050: 02e4 103e 89d0 af3e 345d 983e e5cd 51be
00000060: 751a b8bd 7c56 bdbc 4897 b8be af8b eabc
00000070: b09c 9dbe 895f bd3d 32fc b8be fd47 333e
00000080: d410 2fbe c5df 4fbe 362c 873e 0d97 1fbe
00000090: d97f 193d 1c15 88be d5b8 2f3e d3e4 713d
000000a0: c3c1 acbd 2fe1 fc3d 433a dd3d d8eb 603e
000000b0: 5cfc a03d dbfa ecbd 5d3a 60bc 8d86 21be
000000c0: 18da a0be 4ae3 d23e b37f 943d e727 b73d
000000d0: a41e 7cbd 658b 8fbe 995a 46bd 0706 463e
000000e0: 73ad 533d 4aec 843e ef00 d83d 4665 a53e
000000f0: a72a 853e 9b2b 48be c469 843e 320e de3d
00000100: 33b0 09be d424 fe3d 0f88 a4be 70b6 93bd
00000110: 2f11 25be c72f 923e 79f0 35be 7cdb 93bc
00000120: 2df7 073e b7a4 d3be 6704 3fbd 2e48 42bb
00000130: 937c da3c 1845 4e3e 5859 dabd 8c74 bf3d
00000140: 1dda a93e 037e fdbd e2f6 3abd b2f3 4ebe
00000150: d805 a83c 6e92 6c3e 18e3 553e 2a0a 5cbd
00000160: e810 a33c e974 47be 67d1 69be 67f2 86bd
00000170: 04da e8bd 27f1 423c 2c9d 7fbe 3b7d 7c3e
00000180: 0677 1abe 47e2 473a d3d9 403e f01f e33d
00000190: b115 193e c32a 80bb 8954 c03d 5805 0f3e
000001a0: 4370 593d ba35 2a3e 8f90 a53e 30f4 dfbd
000001b0: 59e3 38be 3916 82be b328 653e c3c6 80be
000001c0: 2c31 bbbe 22a6 2c3e 9f05 0d3e d0be 963e
000001d0: bdd7 c43d a7fc 97bd abb5 193e b162 113d
000001e0: d398 d2bc a92c 7e3d d514 193d f158 463e
000001f0: 4a0e c4bd a923 0cbe a6d1 403e 5d5e 72be
00000200: f0cb 55be fad2 573e 5cda c8be 1e30 053e
00000210: f91b aabe cdb2 c33e 8f23 ccbd f757 68bd
00000220: afd0 813d 2fcd c0be 68a7 81bd 326c 913d
00000230: 851a b1bd 63ee f83c 1ed7 023e 2ec6 583e
00000240: 9a76 ce3c 3b8f 35be 008e de3c c376 22be
00000250: 09d4 393e 3ed6 633d 3b3b ab3e bda9 03be
00000260: 263f 36be 3a31 e4bc 56bc 97be 0983 f0bd
00000270: 09b0 01be 0969 963e 0b36 52be 8031 073e
00000280: 5e00 3abe c75c d13d 6913 b0ba 783b a4bc
00000290: b379 1a3e bb58 2dbe c5ee 1ebd 0e9e 8dbd
000002a0: 2708 593d 56c5 ad3d 1066 c4bc df26 cc3d
000002b0: fcc5 0fbe 5481 2dbe 979f 593d 6480 57be
000002c0: 7f20 e6bd f5fd 4c3e 2227 7d3e 9a01 eb3d
000002d0: b69e a6bd a527 013e 089e e23d dae8 483d
000002e0: 5960 26be 75fc 8ebd 892c aa3d 6954 5b3e
000002f0: 90e1 b3bc b787 59be ac69 c9bd 02a2 69bd
00000300: 73ab c63d 9e59 a73d 921f d1bd d8c6 863c
00000310: 91f3 d4bd e4ce 32bd d190 99bd d3b2 6bbe
00000320: 852e ab3d df03 0cbe 2385 6e3c 98e9 a1bc
00000330: 830d a8bd 2d1e edb9 d21c a13d 8131 523c
00000340: 1b63 39bc 9988 8fbe c758 aa3c 7523 9fbd
00000350: 2d26 aa3b c7f5 0d3e a447 ac3d 016c 65bd
00000360: 01dd fc3d 0f92 c23d fa01 943d 6cf1 bb3b
00000370: 89e7 b63d dedc 5c3c 6648 98bc c775 503e
00000380: 00d3 87bd 058d 74be 5600 d53d 2895 873e
00000390: 7116 94bd 2f50 98bc 4d02 5bbd e7cd 533e
000003a0: af4e ad3d 7b60 903b df66 8abd f5cf 8cbe
000003b0: 5acc 6cbe 2b49 383e 121d cabd 2488 283e
000003c0: 4071 db3d b75f fcbd c710 be3d 2b3e 173d
000003d0: c222 2a3e 7b31 9d3e fd26 3d3d 159b 6f3d
000003e0: fd57 5bbe 8853 973d 140d 50be 72d9 4e3d
000003f0: f88c 20be 9955 4abe c600 2ebd 88a2 cebe

pool.pma.mab.fc_q.bias f4 [32]
-0.1056739 -0.11194636 0.05697955 -0.1459564 0.1323011 0.07830378 0.07564472 -0.06377438
0.0053771143 0.039051652 0.05536135 -0.033899236 0.22359002 0.051398505 -0.037608076 0.06846044
0.18623947 -0.14852607 0.014018219 -0.024229936 -0.061184086 -0.062688485 -0.039983723 0.15003887
0.003797207 -0.08118741 0.047915068 -0.07598579 0.10067186 0.12563132 -0.15931633 0.024914369
00000000: 8f6b d8bd 2244 e5bd 6363 693d 9875 15be
00000010: f179 073e bb5d a03d 9eeb 9a3d 249c 82bd
00000020: 8132 b03b a0f4 1f3d 95c2 623d edd9 0abd
00000030: c8f4 643e 3d87 523d ed0a 1abd fd34 8c3d
00000040: 8fb5 3e3e 3817 18be acac 653c dc7d c6bc
00000050: 2a9c 7abd d262 80bd f9c5 23bd caa3 193e
00000060: 90da 783b 9645 a6bd 9742 443d 709e 9bbd
00000070: 0c2d ce3d 7fa5 003e d223 23be 3819 cc3c

pool.pma.mab.fc_k.weight f4 [32, 32]
-0.02783536 0.012521091 0.048978504 -0.05163504 0.2178543 0.011744724 0.15264341 -0.030777339
-0.034028772 0.041952964 -0.08251692 0.07751885 0.3715268 0.20224573 0.086809374 0.108227834
0.077905826 0.17273621 -0.052929003 0.019631052 0.11888472 -0.013936961 0.320277 0.10610033
0.0051434585 -0.09535004 -0.087096766 -0.60740083 0.28551552 -0.040245768 -0.17200498 -0.08247821
0.3738243 -0.07144686 -0.44677803 0.21602555 -0.5085482 0.080501765 -0.25083214 -0.3512363
-0.26739728 0.046443325 0.2556622 -0.3019997 0.80436385 -0.4238951 -0.066913985 0.2547571
-0.31993255 0.16069604 0.44522375 0.09986295 0.11246164 0.45638254 0.14189623 -0.08450552
0.11512781 0.12415675 -0.20934838 0.92026216 -0.08762833 0.130429 0.20894727 0.4766055
-0.21496445 0.1565118 -0.36029083 0.0024530126 0.3449427 0.07037137 0.34281984 0.44131228
-0.08416226 0.20475852 0.097111546 -0.067905985 0.21049398 0.014303709 -0.230879 0.43897864
-0.55162704 -0.36310932 0.28596994 0.17469415 0.4758306 -0.2686672 0.37688443 -0.44474018
-0.36104578 0.08144047 0.4029846 -0.5115601 0.37308222 -0.45605677 0.5192382 -0.6130305
-0.12519571 0.21929613 -0.31693023 0.24138193 0.28621513 0.046794064 0.19579303 0.11547427
-0.21918961 0.07945065 0.35708457 -0.099704176 0.22768316 -0.3104992 -0.27368537 0.30453354
-0.032174814 -0.38638988 0.40362936 0.018019697 0.17891109 -0.13286869 0.0999127 -0.35794273
-0.01439602 0.264498 0.33804145 0.5440428 0.173194 -0.20976527 0.32555357 -0.2470585
-0.3839413 0.13754812 0.058460075 -0.06344857 0.5118115 -0.09472334 0.15682003 0.08217338
0.33871225 0.1034576 0.2593485 0.1964571 0.14774342 0.31619364 -0.4417171 0.21236485
-0.27608392 0.07336449 -0.09359217 0.18853688 -0.0025640302 -0.34646237 0.36870527 0.023917018
-0.4062142 -0.09130898 0.49463567 -0.040156722 0.21166734 -0.3898282 0.2015999 -0.24521524
-0.13169105 0.324477 -0.30465904 0.041382242 0.03610283 0.15666439 0.41968197 0.20642488
-0.35112384 0.13204335 0.5144471 -0.14103834 0.5078851 -0.4466914 -0.17370777 0.56778836
-0.29714885 -0.2974537 0.35276717 0.265068 0.2554007 -0.16290388 0.16404837 -0.285414
-0.2646538 0.21545516 0.29242745 0.37718603 0.07959148 -0.38975632 0.47156626 -0.07654107
-0.38294902 0.25543028 -0.5112023 0.25633654 0.33002347 0.5182175 0.31725213 0.24263977
-0.5643845 0.5419934 0.124205865 -0.21799502 0.3383488 -0.39214405 -0.2767165 0.37231562
-0.5057594 -0.5759428 0.34160012 0.3958992 0.35396743 -0.13211267 0.5710109 -0.5846214
-0.18877226 0.45683804 0.38184676 0.05325691 0.09228852 -0.46687323 0.24115202 -0.14418429
-0.27257672 0.22114266 -0.0465609 -0.13128816 0.11580876 -0.094778255 0.23897304 0.47438234
-0.25849205 0.1349384 0.298341 0.0013113298 0.2250623 -0.31920615 -0.36491522 0.28389367
-0.40478048 -0.21414216 0.32794905 0.20845868 0.45969224 -0.19242151 0.28627154 -0.32331887
-0.43899092 0.05624647 0.31056556 0.18852864 0.3387438 -0.32848525 0.33807716 -0.10211443
00000000: fb06 e4bc 4325 4d3c af9d 483d 447f 53bd
00000010: 3315 5f3e f16c 403c 8e4e 1c3e c220 fcbc
00000020: c161 0bbd dfd6 2b3d a2fe a8bd 34c2 9e3d
00000030: c338 be3e 8119 4f3e 1dc9 b13d 8ea6 dd3d
00000040: 178d 9f3d c3e1 303e 15cc 58bd 4dd1 a03c
00000050: d579 f33d da57 64bc 59fb a33e 214b d93d
00000060: 758a a83b e246 c3bd ca5f b2bd 9f7e 1bbf
00000070: 172f 923e bfd8 24bd 1322 30be 56ea a8bd
00000080: e665 bf3e bb52 92bd 17c0 e4be cd35 5d3e
00000090: 3730 02bf 1cde a43d 126d 80be 3fd5 b3be
000000a0: 4ce8 88be 5b3b 3e3d 28e6 823e b49f 9abe
000000b0: caea 4d3f c708 d9be 330a 89bd 866f 823e
000000c0: 33ce a3be 818d 243e 5ef4 e33e f284 cc3d
000000d0: 4a52 e63d f9aa e93e 3f4d 113e 3b11 adbd
000000e0: 21c8 eb3d e545 fe3d 6c5f 56be 4d96 6b3f
000000f0: 7b76 b3bd 2e8f 053e 46f6 553e a305 f43e
00000100: a41f 5cbe a144 203e 0a78 b8be b9c2 203b
00000110: 549c b03e dd1e 903d 1586 af3e aff3 e13e
00000120: 435d acbd 38ac 513e 6be2 c63d 4b12 8bbd
00000130: bc8b 573e 1b5a 6a3c 8b6b 6cbe cfc1 e03e
00000140: 6e37 0dbf 77e9 b9be a76a 923e 06e3 323e
00000150: 12a0 f33e bf8e 89be fff6 c03e fcb4 e3be
00000160: feda b8be 43ca a63d ff53 ce3e 9af5 02bf
00000170: a204 bf3e 4680 e9be cbec 043f 91ef 1cbf
00000180: 4e33 00be 2a8f 603e ae44 a2be d32c 773e
00000190: ca8a 923e 22ab 3f3d f87d 483e c67d ec3d
000001a0: 3e73 60be 06b7 a23d cad3 b63e b431 ccbd
000001b0: c625 693e c0f9 9ebe 7d20 8cbe d2eb 9b3e
000001c0: bdc9 03bd e5d4 c5be 82a8 ce3e 0b9e 933c
000001d0: 7834 373e bb0e 08be 089f cc3d 4544 b7be
000001e0: 49dd 6bbc 486c 873e c513 ad3e 6446 0b3f
000001f0: c559 313e b5cc 56be f5ae a63e e7fc 7cbe
00000200: f493 c4be 6ad9 0c3e d573 6f3d 53f1 81bd
00000210: 1406 033f 4ffe c1bd 6e95 203e 844a a83d
00000220: b16b ad3e 94e1 d33d 54c9 843e 0d2c 493e
00000230: 0d4a 173e 22e4 a13e be28 e2be 2c76 593e
00000240: df5a 8dbe 1f40 963d 40ad bfbd d00f 413e
00000250: 4a09 28bb 8463 b1be f0c6 bc3e 9fed c33c
00000260: 4ffb cfbe 3400 bbbd e340 fd3e 607b 24bd
00000270: 53bf 583e 9097 c7be 3470 4e3e b419 7bbe
00000280: 05da 06be d921 a63e 45fc 9bbe 6d80 293d
00000290: 90e0 133d a16c 203e 8ee0 d63e 0b61 533e
000002a0: 81c6 b3be 5f36 073e ceb2 033f 5b6c 10be
000002b0: c204 023f bcb4 e4be 73e0 31be 945a 113f
000002c0: e523 98be da4b 98be e69d b43e feb6 873e
000002d0: e1c3 823e 46d0 26be 4cfc 273e c921 92be
000002e0: b480 87be 47a0 5c3e 0db9 953e 871e c13e
000002f0: dc00 a33d 248e c7be 2271 f13e 91c1 9cbd
00000300: e511 c4be c2c7 823e 27de 02bf 8b3e 833e
00000310: d6f8 a83e e7a9 043f df6e a23e 8f76 783e
00000320: 817b 10bf 14c0 0a3f a55f fe3d 163a 5fbe
00000330: 0e3c ad3e 1bc7 c8be c9ad 8dbe 27a0 be3e
00000340: 7379 01bf fd70 13bf 36e6 ae3e 4db3 ca3e
00000350: 383b b53e 8b48 07be c52d 123f c0a9 15bf
00000360: 844d 41be ade6 e93e 6b81 c33e eb23 5a3d
00000370: c301 bd3d 020a efbe 8ef0 763e 0ca5 13be
00000380: 2d8f 8bbe 3973 623e a4b6 3ebd 6770 06be
00000390: 252d ed3d 1a1b c2bd 59b5 743e 3ee2 f23e
000003a0: 1259 84be 4b2d 0a3e 27c0 983e ede0 ab3a
000003b0: bb76 663e fd6e a3be 2bd6 babe 835a 913e
000003c0: 633f cfbe 1548 5bbe f0e8 a73e 3176 553e
000003d0: c85c eb3e 250a 45be 2f92 923e 0d8a a5be
000003e0: 6bc3 e0be b362 663d 7302 9f3e a70d 413e
000003f0: d46f ad3e 382f a8be 7318 ad3e 5f21 d1bd

pool.pma.mab.fc_k.bias f4 [32]
0.20037246 -0.12616538 0.24775422 -0.055068497 0.019904053 -0.07001063 0.095438465 0.22952566
-0.33993903 -0.35814098 0.099360086 0.20250092 0.22386824 -0.1762732 0.11392333 -0.013567824
0.22629502 0.025453173 -0.3375394 0.19058397 -0.21487045 0.2307894 0.058109738 0.3874452
0.02510038 -0.110644035 -0.023119383 -0.046834845 -0.25576267 -0.05135192 0.022395382 -0.02651675
00000000: 702e 4d3e 7f31 01be 48b3 7d3e 818f 61bd
00000010: d30d a33c bc61 8fbd 3e75 c33d c608 6b3e
00000020: 7d0c aebe 415e b7be 4d7d cb3d 675c 4f3e
00000030: b73d 653e f680 34be a350 e93d 944b 5ebc
00000040: e2b9 673e 2c83 d03c f7d1 acbe 7228 433e
00000050: 0007 5cbe 0e54 6c3e 7a04 6e3d 385f c63e
00000060: 509f cd3c 5799 e2bd dc64 bdbc e5d5 3fbd
00000070: 53f3 82be 6456 52bd 8576 b73c a839 d9bc

pool.pma.mab.fc_v.weight f4 [32, 32]
0.06985861 0.006702577 0.02266881 -0.04744166 -0.17253374 -0.13238807 0.10597337 0.06881644
-0.09520634 0.047367875 0.10819296 -0.10055529 -0.08633983 -0.0322621 -0.048575055 0.13328609
-0.1561616 -0.010171878 0.06419099 0.13764563 0.06817285 0.20609331 0.120955706 0.035348475
-0.11162146 -0.14421 -0.09505565 -0.05749281 0.04712831 -0.026195016 0.16648161 -0.1146164
0.029663198 0.04795307 -0.104711875 0.04338873 -0.045805726 0.10570406 -0.083511956 0.054520268
0.039369743 -0.07355751 0.10343188 0.16083945 0.060909387 0.035470366 -0.12625282 0.11841267
0.008013439 0.128191 0.068065666 -0.057526328 0.13506931 0.11311273 -0.048346557 -0.1440603
-0.18017247 0.16028172 0.061766792 -0.24183424 0.0011203283 -0.02132726 -5.0274808e-05 -0.09146069
0.04049108 0.1442584 -0.20225915 0.0021669387 -0.13544592 0.0010464385 0.010282181 0.13728906
-0.034269158 -0.13941145 -0.08499645 0.08792759 0.066683225 -0.18470004 0.046155408 0.22046636
-0.16073373 0.0099525945 0.15039076 0.11051903 -0.012813359 0.18298495 -0.017708655 0.062140815
-0.037915688 0.18245427 0.12808405 0.02457978 -0.1373863 -0.07738138 0.20327912 0.09595062
0.056368165 0.076533005 0.13207889 -0.08194573 0.07153136 -0.034549296 -0.09405633 0.08235808
-0.14469713 0.05033862 -0.14445238 0.2400486 0.028519372 0.041054096 -0.19456574 -0.021081017
0.16749333 -0.019188222 -0.120912015 -0.09942347 -0.12772427 0.031844895 -0.10753291 0.087384745
-0.11245183 0.14779936 -0.041958164 -0.05271943 -0.062606804 0.031179523 -0.0006060882 -0.18165931
-0.16882412 0.10620399 0.13434687 0.087595865 -0.0308625 0.113997936 -0.07053039 -0.019763269
0.028354745 -0.061046496 0.065382816 0.14945292 0.009016774 0.0024572914 0.15180264 -0.14071864
0.11927808 -0.1037853 -0.03550724 0.030736243 -0.07685319 -0.023559457 0.012347507 -0.104557574
-0.12130417 -0.0022448322 -0.17404966 0.077341914 -0.03556904 0.16730632 -0.008551343 0.10770924
-0.043875594 0.20525089 -0.12618577 -0.110383675 -0.0641233 -0.10582167 0.18231331 -0.06690659
-0.09349615 0.069454834 -0.21107821 0.028293515 -0.06165051 -0.067454435 0.037896812 -0.11889696
0.080053456 -0.1302636 0.098901115 0.029575374 0.14718519 0.11450096 0.08351456 0.038477767
-0.03486339 -0.089494444 -0.1309742 0.014874764 0.06015696 -0.05681396 -0.14673577 -0.13743104
-0.043648217 0.026264554 0.058831327 -0.13913323 -0.10221969 -0.11247173 -0.0028900914 -0.16811182
-0.12468355 -0.018510884 -0.023110183 -0.12134285 -0.030578999 -0.058733422 -0.049545415 0.19185871
-0.08989791 0.21332023 0.0649429 0.046394225 0.077386215 0.087032706 0.04674323 -0.03913034
0.030114872 0.09208704 -0.14848079 0.12082514 -0.058594335 -0.09316425 0.10658297 -0.048150975
0.06951596 -0.17998792 -0.023221467 0.10935264 0.023164112 0.015353774 0.1347261 -0.07987286
-0.00040070975 -0.06252012 -0.15478262 0.08396509 -0.17878968 -0.04086658 0.15061341 0.080653995
-0.12734886 0.16594206 -0.13025402 0.081984796 0.09222814 0.075186074 0.031253 0.016731914
-0.032320254 0.02146879 0.13510163 0.098086834 -0.2236716 -0.043421954 -0.0650113 -0.023836577
00000000: 0812 8f3d 4ba1 db3b f1b3 b93c 3052 42bd
00000010: afac 30be bd90 07be 9108 d93d a2ef 8c3d
00000020: 8bfb c2bd d104 423d 4594 dd3d efef cdbd
00000030: f0d2 b0bd 4425 04bd a3f6 46bd 267c 083e
00000040: d4e8 1fbe f3a7 26bc 9176 833d faf2 0c3e
00000050: 359e 8b3d 200a 533e a0b7 f73d 90c9 103d
00000060: cb99 e4bd c9ab 13be 89ac c2bd 957d 6bbd
00000070: 9d09 413d ee96 d6bc 287a 2a3e 01bc eabd
00000080: 3c00 f33c 706a 443d 2e73 d6bd 62b8 313d
00000090: c99e 3bbd 5f7b d83d 5108 abbd a550 5f3d
000000a0: 2b42 213d 52a5 96bd 18d4 d33d 19b3 243e
000000b0: 1f7c 793d 6049 113d 6b48 01be 5882 f23d
000000c0: cd4a 033c 8044 033e 0366 8b3d baa0 6bbd
000000d0: 9c4f 0a3e a6a7 e73d 0a07 46bd 8b84 13be
000000e0: 227f 38be e420 243e 2dff 7c3d 65a3 77be
000000f0: fbd7 923a 82b6 aebc 2ade 52b8 be4f bbbd
00000100: fad9 253d 79b8 133e 061d 4fbe 3303 0e3b
00000110: 56b2 0abe a628 893a 9876 283c 8195 0c3e
00000120: d15d 0cbd e0c1 0ebe 9e12 aebd 6113 b43d
00000130: 3791 883d 0222 3dbe 740d 3d3d efc1 613e
00000140: 6297 24be 3510 233c 0900 1a3e cd57 e23d
00000150: 1fef 51bc 6860 3b3e be11 91bc 5e87 7e3d
00000160: 7b4d 1bbd 4bd5 3a3e 7728 033e 895b c93c
00000170: ffae 0cbe 217a 9ebd 6728 503e c281 c43d
00000180: 4ee2 663d 56bd 9c3d b03f 073e 2ad3 a7bd
00000190: 097f 923d 9083 0dbd 9ba0 c0bd 5aab a83d
000001a0: 7c2b 14be de2f 4e3d 53eb 13be 4dcf 753e
000001b0: 75a1 e93c 5728 283d 3e3c 47be 19b2 acbc
000001c0: 5f83 2b3e 9e30 9dbc b8a0 f7bd 889e cbbd
000001d0: 27ca 02be cb6f 023d 373a dcbd c6f6 b23d
000001e0: 254d e6bd b758 173e 53dc 2bbd 54f0 57bd
000001f0: ff37 80bd 336c ff3c e4e1 1eba e604 3abe
00000200: 3be0 2cbe 7a81 d93d 3a92 093e 7665 b33d
00000210: 5bd3 fcbc c077 e93d 3d72 90bd 94e6 a1bc
00000220: 3648 e83c e40b 7abd 6de7 853d 300a 193e
00000230: 17bb 133c 820a 213b 2772 1b3e 8c18 10be
00000240: 1148 f43d 638d d4bd 0a70 11bd 93ca fb3c
00000250: 3565 9dbd c3ff c0bc 334d 4a3c 4822 d6bd
00000260: 526e f8bd 091e 13bb 133a 32be 7065 9e3d
00000270: d7b0 11bd 5952 2b3e ef1a 0cbc a996 dc3d
00000280: e5b6 33bd 4a2d 523e d836 01be d610 e2bd
00000290: 1453 83bd 08b9 d8bd 57b0 3a3e 5206 89bd
000002a0: e97a bfbd 563e 8e3d e324 58be cdc7 e73c
000002b0: 3f85 7cbd 8d25 8abd b039 1b3d 4080 f3bd
000002c0: 11f3 a33d d263 05be ab8c ca3d 0e48 f23c
000002d0: b7b7 163e 7b7f ea3d ae09 ab3d dd9a 1d3d
000002e0: eacc 0ebd dd48 b7bd 1a1e 06be 48b5 733c
000002f0: 2567 763d c1b5 68bd e741 16be b9ba 0cbe
00000300: 79c8 32bd c328 d73c 1ef9 703d f178 0ebe
00000310: 8f58 d1bd 9457 e6bd b067 3dbb 8125 2cbe
00000320: 175a ffbd 23a4 97bc 9151 bdbc 9a82 f8bd
00000330: cf80 fabc 7592 70bd 22f0 4abd 9c76 443e
00000340: 651c b8bd 9e70 5a3e c800 853d df07 3e3d
00000350: aa7c 9e3d 343e b23d d475 3f3d 2347 20bd
00000360: 77b3 f63c 2198 bc3d 590b 18be 2c73 f73d
00000370: 9d00 70bd e6cc bebd 2c48 da3d f539 45bd
00000380: 625e 8e3d c14e 38be f23a bebc 47f4 df3d
00000390: aac2 bd3c 658e 7b3c a4f5 093e 6294 a3bd
000003a0: 5a16 d2b9 8c0a 80bd 567f 1ebe e4f5 ab3d
000003b0: a414 37be b763 27bd 673a 1a3e ec2d a53d
000003c0: bd67 02be b7ec 293e 4f61 05be a5e7 a73d
000003d0: 1be2 bc3d 28fb 993d 2503 003d 5e11 893c
000003e0: 3e62 04bd 51df af3c 1558 0a3e c0e1 c83d
000003f0: 2b0a 65be 38db 31bd a524 85bd ed44 c3bc

pool.pma.mab.fc_v.bias f4 [32]
-0.02326328 -0.03298019 -0.062117178 0.117249735 -0.003674887 0.13394175 -0.08004998 -0.038760126
-0.037160978 -0.05883579 -0.15394677 -0.066459395 -0.067122824 -0.09297019 0.0789825 0.16166326
-0.08750438 0.072394796 -0.023734557 -0.0006189227 -0.01443292 -0.023776956 -0.12832221 -0.13488261
0.06672783 0.032091614 -0.061994273 -0.030580226 -0.12966906 -0.06076267 0.045955416 -0.14285277
00000000: a292 bebc 3c16 07bd 956e 7ebd a120 f03d
00000010: 5fd6 70bb 0728 093e 3ef1 a3bd f0c2 1ebd
00000020: 1c36 18bd ccfd 70bd 39a4 1dbe dd1b 88bd
00000030: b177 89bd 2867 bebd 94c1 a13d 0e8b 253e
00000040: 7f35 b3bd b943 943d f96e c2bc 333f 22ba
00000050: 0e78 6cbc e4c7 c2bc e666 03be ab1e 0abe
00000060: 9aa8 883d 7f72 033d b5ed 7dbd 6283 fabc
00000070: f7c7 04be 47e2 78bd bf3b 3c3d ff47 12be

pool.pma.mab.fc_o.weight f4 [32, 32]
-0.1426992 -0.017934872 0.0688879 0.028671263 0.112561196 -0.08104221 0.063576 0.19395576
0.11365453 0.16906007 -0.020639319 -0.07321873 0.07130443 -0.06238658 -0.1757745 -0.1333053
0.2139261 0.0930554 0.14940971 0.25734705 -0.018871509 -0.13857314 -0.026988545 -0.22038424
-0.077974394 0.056481764 -0.010354183 0.081046306 -0.05526637 0.19535992 0.13986193 0.14630467
-0.2818421 0.19541438 -0.026672965 -0.09626367 -0.22543542 -0.061692897 -0.17269224 -0.032791622
0.091719806 0.18633537 -0.11681877 -0.17777798 0.12808558 0.062269997 -0.0459899 -0.051102746
-0.089830354 0.097201735 -0.14102407 0.022755781 0.0065834527 0.11342565 0.056136496 -0.004387054
0.13508412 0.00040912576 0.089667134 -0.034576163 -0.029188203 0.11548081 -0.06050264 -0.008533166
-0.024509966 0.009136859 -0.019249411 -0.1560241 0.0070739463 0.037884273 0.19521546 -0.15169701
0.069092944 0.10841835 -0.07278113 -0.22046763 0.10890715 0.06673839 -0.023945112 0.11783897
0.0053756684 0.15104821 0.06334488 -0.06803225 0.027451664 0.109067105 0.18384707 0.028993364
0.03006446 -0.05865726 0.14256041 -0.07837513 0.015819393 0.07556267 0.10677242 -0.086243525
0.11328886 0.24502183 -0.13875988 -0.03150543 -0.03516402 -0.17055272 -0.12259407 0.086858936
0.124018066 0.00508007 -0.0044145538 -0.06841645 0.027320111 -0.0666949 0.13139363 0.07627601
0.03200887 -0.15702206 0.15264814 0.1010058 0.1181849 0.07151148 -0.13156858 0.05481572
-0.10060698 0.012517971 0.083348185 0.07214534 0.14887051 0.030897595 0.12924065 0.042119317
0.27706644 0.319044 -0.001627182 0.12530982 -0.066252746 -0.32885036 0.0632288 0.14824562
0.30333844 0.280106 0.06377305 0.083512664 0.011715498 -0.31094173 0.0053901705 -0.054578196
-0.015980404 0.14417191 -0.045995824 0.060657285 -0.031907685 0.28074276 0.19264175 0.1100675
-0.106043406 -0.1079341 0.1854552 0.23553772 0.1401916 0.21047355 0.19441915 -0.16406852
0.044826057 0.14349507 -0.17885682 0.008886049 0.026477212 -0.1748475 -0.18668695 -0.082096025
-0.093222015 -0.196512 -0.1830312 -0.026342142 -0.31642452 0.23032072 -0.022739802 -0.15258354
-0.24931242 -0.098787926 -0.065917715 0.0076769474 0.2474135 0.0434477 -0.044289324 0.099824354
-0.00067660847 -0.15613814 -0.4326992 -0.09802576 0.16383697 -0.27923247 -0.0019811755 0.13168752
-0.105081365 0.20964026 0.08625146 0.1531544 -0.0029244123 -0.18643999 0.17887254 -0.022168867
0.052138634 0.087707624 -0.026699137 -0.28065014 -0.28306365 -0.17987213 0.018220866 -0.17783421
0.15504354 0.04137126 -0.09532299 -0.03900857 -0.091110505 0.11923509 0.15649955 -0.030134004
-0.051839903 0.07241138 -0.08490588 0.043095227 -0.14412224 0.22104882 -0.031839922 0.0212133
-0.23109414 0.33217555 0.021618819 -0.013820809 -0.20486219 0.08652942 -0.18554725 -0.27344877
0.13632351 0.087067656 0.1794133 -0.024870757 -0.085815325 -0.1860882 -0.1193134 -0.091623105
-0.014986897 0.12736656 0.19020069 0.22231767 -0.10591717 0.1484372 0.05128968 -0.09865368
-0.068065345 0.12949267 -0.0827375 -0.016503938 -0.06353908 0.116181314 -0.024534239 0.15830827
00000000: bd1f 12be 27ec 92bc 1915 8d3d ffdf ea3c
00000010: 7c86 e63d 75f9 a5bd 2234 823d 579c 463e
00000020: b5c3 e83d 151e 2d3e ca13 a9bc b4f3 95bd
00000030: 0f08 923d 1289 7fbd 3bfe 33be 2f81 08be
00000040: 720f 5b3e d493 be3d dcfe 183e fec2 833e
00000050: 6c98 9abc 1ee6 0dbe 1517 ddbc 68ac 61be
00000060: 0ab1 9fbd 6c59 673d 97a4 29bc 9bfb a53d
00000070: fd5e 62bd 6e0c 483e f737 0f3e e4d0 153e
00000080: 9c4d 90be b51a 483e 4381 dabc e325 c5bd
00000090: 8bd8 66be b1b1 7cbd 3cd6 30be 8250 06bd
000000a0: 98d7 bb3d b3ce 3e3e ae3e efbd 6e0b 36be
000000b0: de28 033e d30e 7f3d e85f 3cbd 1d51 51bd
000000c0: faf8 b7bd b411 c73d 9d68 10be 556a ba3c
000000d0: 01ba d73b b54b e83d 62ef 653d 47c1 8fbb
000000e0: 7e53 0a3e ee7f d639 67a3 b73d bc9f 0dbd
000000f0: 191c efbc 3481 ec3d 9ed1 77bd b1ce 0bbc
00000100: 20c9 c8bc c4b2 153c f1b0 9dbc c8c4 1fbe
00000110: 90cc e73b 8a2c 1b3d 90e6 473e 7656 1bbe
00000120: 9a80 8d3d 710a de3d 460e 95bd 44c2 61be
00000130: b60a df3d 23ae 883d 8a28 c4bc 8f55 f13d
00000140: 6026 b03b 62ac 1a3e f6ba 813d 7e54 8bbd
00000150: 50e2 e03c 935e df3d 6842 3c3e 7e83 ed3c
00000160: be49 f63c 9842 70bd 5bfb 113e 2483 a0bd
00000170: ac97 813c 9ac0 9a3d 80ab da3d 72a0 b0bd
00000180: fd03 e83d 01e7 7a3e 1217 0ebe d60b 01bd
00000190: 2608 10bd 5fa5 2ebe 9a12 fbbd 19e3 b13d
000001a0: 2ffd fd3d b776 a63b f6a7 90bb ec1d 8cbd
000001b0: 6dce df3c 5697 88bd 0d8c 063e 9936 9c3d
000001c0: bc1b 033d 64ca 20be cb4f 1c3e 21dc ce3d
000001d0: ed0a f23d 9c74 923d eab9 06be 7386 603d
000001e0: 080b cebd 2d18 4d3c 74b2 aa3d f0c0 933d
000001f0: 8371 183e f41c fd3c a957 043e 4e85 2c3d
00000200: a7db 8d3e bc59 a33e 2b47 d5ba 3851 003e
00000210: 85af 87bd 135f a8be 1a7e 813d b3cd 173e
00000220: 2d4f 9b3e 0e6a 8f3e 729b 823d b008 ab3d
00000230: 5cf2 3f3c c133 9fbe 07a0 b03b 638d 5fbd
00000240: 56e9 82bc cda1 133e 1e66 3cbd c673 783d
00000250: a2b1 02bd 84bd 8f3e e143 453e 126b e13d
00000260: 492d d9bd 8e0c ddbd f8e7 3d3e cd30 713e
00000270: 638e 0f3e 6186 573e d015 473e 9401 28be
00000280: 879b 373d 5ff0 123e 3e26 37be ca96 113c
00000290: bde6 d83c 390b 33be dd2a 3fbe f621 a8bd
000002a0: 2feb bebd 713a 49be 886c 3bbe 7acb d7bc
000002b0: 6502 a2be 32d9 6b3e d248 babc dc3e 1cbe
000002c0: c14b 7fbe 5351 cabd deff 86bd e78e fb3b
000002d0: f759 7d3e 37f6 313d b968 35bd b670 cc3d
000002e0: 6d5e 31ba ade2 1fbe c08a ddbe bbc1 c8bd
000002f0: e1c4 273e 8ff7 8ebe 9cd6 01bb 18d9 063e
00000300: e634 d7bd f0ab 563e 9ba4 b03d 82d4 1c3e
00000310: 7fa7 3fbb 20ea 3ebe 5d2a 373e 7c9b b5bc
00000320: 528f 553d 0ea0 b33d 26b8 dabc 60b1 8fbe
00000330: b8ed 90be 6630 38be ed43 953c 2c1a 36be
00000340: bcc3 1e3e e974 293d b338 c3bd 73c7 1fbd
00000350: 2598 babd 8731 f43d 6b41 203e 96db f6bc
00000360: 1456 54bd 6b4c 943d 22e3 adbd 9f84 303d
00000370: c894 13be 9f5a 623e 946a 02bd 84c7 ad3c
00000380: f1a3 6cbe ea12 aa3e f319 b13c ad70 62bc
00000390: 65c7 51be 5636 b13d 1900 3ebe 7a01 8cbe
000003a0: 6498 0b3e 8750 b23d 1fb8 373e c2bd cbbc
000003b0: f2bf afbd e88d 3ebe 955a f4bd e5a4 bbbd
000003c0: 9a8b 75bc 616c 023e f8c3 423e 3ea7 633e
000003d0: 1aeb d8bd ecff 173e 2115 523d f10a cabd
000003e0: d865 8bbd ba99 043e 4772 a9bd 4433 87bc
000003f0: c720 82bd 78f0 ed3d 07fc c8bc 901b 223e

pool.pma.mab.fc_o.bias f4 [32]
-0.0062060137 0.12662059 -0.059396055 0.0816687 -0.13969223 0.0022763694 -0.22493938 -0.15658659
0.070696644 0.14364989 0.35133487 -0.12105946 -0.017906042 -0.15416421 -0.13465896 -0.04098472
0.16011848 -0.13852152 0.07117067 -0.13792016 -0.33673072 -0.28522563 0.1056047 -0.0004731105
-0.080027856 -0.056104228 -0.38337237 0.051300984 0.10861676 0.04745436 0.0038351216 0.07619078
00000000: d15b cbbb d4a8 013e 4749 73bd eb41 a73d
00000010: 7b0b 0fbe 242f 153b 8256 66be 3c58 20be
00000020: 67c9 903d f518 133e 2ae2 b33e 06ee f7bd
00000030: b1af 92bc 39dd 1dbe 0ae4 09be 98df 27bd
00000040: 19f6 233e 96d8 0dbe eec1 913d f13a 0dbe
00000050: f867 acbe 1809 92be 4747 d83d d10b f8b9
00000060: a5e5 a3bd 8ccd 65bd 6249 c4be fb20 523d
00000070: 7772 de3d 815f 423d aa56 7b3b e909 9c3d

pool.lin.weight f4 [32, 32]
0.050874475 -0.11297561 0.0031552748 0.15704645 0.21663557 0.08849266 -0.04092282 -0.080285735
0.09861404 -0.035673726 0.078453645 -0.0436253 0.019042268 -0.076871485 0.24991669 0.25733888
0.16699423 0.032604292 0.09779509 -0.005335801 0.04380653 0.0878601 0.07789939 -0.10567322
0.1479914 -0.1690162 0.09956001 -0.09925842 -0.21381322 0.007628733 0.21840952 0.0548634
0.16048695 0.16003911 -0.02754785 0.077033676 -0.018512398 -0.07113945 -0.024049703 0.0606271
-0.06713692 0.04280455 -0.0015506846 0.11644622 -0.10095447 0.035322897 -0.058646828 -0.14290401
0.08441964 0.09359309 0.03359263 -0.05343879 -0.10014848 -0.015078339 -0.14937939 -0.062746696
0.091335475 -0.20485796 0.18957217 0.011093637 -0.03915985 -0.06887336 -0.16486298 0.11668363
0.13847132 0.013914958 0.09362647 0.010956729 0.17041938 0.06671851 -0.017718839 -0.19836074
0.18614644 0.071389504 0.21828057 -0.04447177 0.18610296 -0.20746946 -0.06171348 -0.10166539
-0.08948613 0.119574785 -0.20781076 -0.2286571 0.019639814 -0.048304796 0.058368586 0.065589644
-0.26583976 -0.06420572 0.12494557 0.073665544 0.03707063 -0.10728239 -0.035254635 0.08219189
-0.137301 0.15354396 -0.029418886 0.13426596 0.066968605 0.06429129 0.009269443 0.06332996
0.12554519 -0.083803505 0.017364275 0.0127905905 -0.082008876 0.0036418913 -0.11779409 0.073491275
-0.14033674 -0.16746306 0.04880459 -0.092652515 0.069847174 -0.11006341 0.08318919 -0.13986546
0.19121231 0.14103521 -0.17360272 0.03220536 -0.09004545 0.20161456 -0.15092728 0.04944634
-0.15050173 0.11221243 -0.1242186 -0.019145874 -0.040055025 0.0831352 0.068378985 -0.049248926
-0.016448068 0.031881668 0.060919523 -0.08506277 -0.12671529 0.1022568 -0.2329489 0.08509512
-0.035670444 -0.10048736 -0.053047586 -0.040823467 -0.011066963 0.019634154 0.16786309 -0.07889851
-0.025661929 0.06757507 -0.14948711 -0.067632265 -0.014119371 0.11480485 -0.06356105 0.10258085
-0.06267014 0.07951906 -0.03143458 0.04372135 -0.03202843 0.0034335428 0.015393452 -0.13327111
0.027227843 -0.092309065 -0.06176031 0.22871728 -0.010101078 0.18851206 0.07810934 0.13365082
0.086620316 -0.15925078 -0.25282508 0.025883159 0.17130864 0.14365321 0.059180677 0.18238465
0.20705245 0.0073890192 -0.057855446 0.20387048 -0.021706603 -0.08114587 0.061172005 -0.06585475
0.035092097 0.028081628 -0.037189715 -0.14394794 -0.11574695 0.026593644 0.09879041 0.22166434
0.17405319 0.11524281 0.10290424 0.13247359 -0.044401456 0.15724441 -0.18279973 0.0072734035
-0.15864843 -0.04734822 0.15880631 0.10704611 0.035150245 0.09111557 0.15596806 0.009052979
-0.13787858 0.008012512 0.017519096 0.012795831 0.11999632 -0.019305762 -0.09960344 0.1597069
-0.27469558 0.053303618 -0.0874977 -0.0383561 -0.0027125573 0.16852807 -0.1039821 0.05730369
-0.08285329 0.05347584 0.037709173 0.08911377 0.05184661 -0.14095475 0.02344754 0.067435935
-0.1438675 -0.050165918 -0.09454758 -0.07451437 -0.13080792 -0.01705362 -0.110619605 -0.14789164
-0.14665063 -0.067501254 0.054715045 -0.07591955 -0.16461095 -0.037843417 -0.03875495 -0.123661965
00000000: c161 503d c25f e7bd bac8 4e3b c9d0 203e
00000010: b7d5 5d3e a43b b53d b09e 27bd d96c a4bd
00000020: 28f6 c93d 9d1e 12bd 4eac a03d 71b0 32bd
00000030: 88fe 9b3c cc6e 9dbd 29ea 7f3e ecc1 833e
00000040: 8900 2b3e 148c 053d cb48 c83d f1d7 aebb
00000050: 7a6e 333d ffef b33d b789 9f3d 336b d8bd
00000060: 0f8b 173e 9512 2dbe 1ee6 cb3d 0048 cbbd
00000070: daf1 5abe 73fa f93b bfa6 5f3e 72b8 603d
00000080: b156 243e 4be1 233e 07ac e1bc d5c3 9d3d
00000090: 50a7 97bc 8fb1 91bd e203 c5bc 1f54 783d
000000a0: 157f 89bd d353 2f3d 5740 cbba 5b7b ee3d
000000b0: 38c1 cebd beae 103d a837 70bd 6e55 12be
000000c0: 34e4 ac3d bcad bf3d 6d98 093d a2e2 5abd
000000d0: a51a cdbd 230b 77bc e9f6 18be 5781 80bd
000000e0: 180e bb3d 49c6 51be 351f 423e 16c2 353c
000000f0: 1466 20bd 7a0d 8dbd d7d1 28be d4f7 ee3d
00000100: 6dcb 0d3e 90fb 633c 3cbf bf3d da83 333c
00000110: 6b82 2e3e b7a3 883d 1927 91bc 141f 4bbe
00000120: 2c9d 3e3e a934 923d f184 5f3e 0828 36bd
00000130: c691 3e3e e072 54be 46c7 7cbd f235 d0bd
00000140: 8144 b7bd a0e3 f43d 58cc 54be 1625 6abe
00000150: ade3 a03c 40db 45bd e613 6f3d dd53 863d
00000160: 261c 88be 4a7e 83bd 77e3 ff3d f6dd 963d
00000170: 5fd7 173d dfb6 dbbd 2a67 10bd 3954 a83d
00000180: a298 0cbe a13a 1d3e e0ff f0bc 047d 093e
00000190: d626 893d 27ab 833d ddde 173c 23b3 813d
000001a0: eb8e 003e 2ca1 abbd 863f 8e3c a08f 513c
000001b0: 45f4 a7bd ccac 6e3b 073e f1bd 9882 963d
000001c0: 6fb4 0fbe 707b 2bbe 52e7 473d 9ac0 bdbd
000001d0: 090c 8f3d ed68 e1bd 185f aa3d e438 0fbe
000001e0: 29cd 433e 896b 103e e9c4 31be c4e9 033d
000001f0: c069 b8bd 0c74 4e3e ae8c 1abe 3f88 4a3d
00000200: 201d 1abe a1cf e53d 5266 febd cfd7 9cbc
00000210: bd10 24bd ca42 aa3d 480a 8c3d 3eb9 49bd
00000220: 19be 86bc 5a96 023d c086 793d 6435 aebd
00000230: a7c1 01be 036c d13d 288a 6ebe 5a46 ae3d
00000240: 2c1b 12bd 51cc cdbd 6d48 59bd 8236 27bd
00000250: 3552 35bc ced7 a03c 4de4 2b3e 8b95 a1bd
00000260: f738 d2bc cc64 8a3d 2613 19be c982 8abd
00000270: ef54 67bc ce1e eb3d 4c2c 82bd e915 d23d
00000280: 3459 80bd e4da a23d 8cc1 00bd 2915 333d
00000290: 3e30 03bd 4a05 613b d134 7c3c 3978 08be
000002a0: ed0c df3c 890c bdbd 61f8 7cbd dd34 6a3e
000002b0: fe7e 25bc 4e09 413e caf7 9f3d c3db 083e
000002c0: fe65 b13d a312 23be 4a72 81be eb08 d43c
000002d0: 886b 2f3e d419 133e 7067 723d 0bc3 3a3e
000002e0: 8f05 543e 961f f23b d5f9 6cbd 6cc3 503e
000002f0: 0cd2 b1bc ce2f a6bd 7f8f 7a3d dbde 86bd
00000300: bbbc 0f3d 710b e63c 3e54 18bd 1767 13be
00000310: bd0c edbd eada d93c a052 ca3d fafb 623e
00000320: 003b 323e 6c04 ec3d 75bf d23d 28a7 073e
00000330: 4dde 35bd ae04 213e da2f 3bbe bb55 ee3b
00000340: bc74 22be 35f0 41bd 1f9e 223e fe3a db3d
00000350: b4f9 0f3d cd9a ba3d 17b6 1f3e f252 143c
00000360: 0b30 0dbe e946 033c 3584 8f3c 9ba5 513c
00000370: a1c0 f53d 1e27 9ebc e3fc cbbd 358a 233e
00000380: e6a4 8cbe e554 5a3d fe31 b3bd 491b 1dbd
00000390: 29c5 31bb 9f92 2c3e 91f4 d4bd 46b7 6a3d
000003a0: fcae a9bd 7b09 5b3d ef74 1a3d 4881 b63d
000003b0: 1c5d 543d 7156 10be 0e15 c03c da1b 8a3d
000003c0: 0052 13be c77a 4dbd 29a2 c1bd fd9a 98bd
000003d0: 83f2 05be 09b4 8bbc 888c e2bd e870 17be
000003e0: 952b 16be 193e 8abd e21c 603d b67b 9bbd
000003f0: c68f 28be b301 1bbd 83bd 1ebd 7c42 fdbd
