GST-recon/checkpoints/best_grid_MinCutPool_0.25.pth (torch, 47195 bytes, 12 tensors)

conv1.weight f4 [2, 32]
00000000: 69e2 b0bd bf55 7abf 0927 c83e d8fa b83e
00000010: 58ff c6be e958 00bd c383 2abf aa63 ca3e
00000020: f053 3ebe cece 573f e668 3d3f 15e5 c0bd
00000030: 873a 2fbe 37d3 2bbf e5a8 36be 300e a8be
00000040: 9852 1f3e eadd 38bf c8a0 1f3f 9b0a 15bf
00000050: 211f 813e e29a fdbe fedd 6a3e 4ee7 993e
00000060: 5621 e1be fc56 f03e 9333 7f3f 2231 8e3e
00000070: 33e8 403f d701 16bf 0fe4 043f 835c bd3e
00000080: c175 f83e 9c91 05be b671 0d3f 0070 6e3f
00000090: ac2b 23bf 3255 d9be 7efb a4be 1353 e5be
000000a0: a38a 243f 83a4 4cbd 2ee5 18bf 635d 0e3f
000000b0: 5249 933f edb6 15bc 3052 9fbe f4ef cdbe
000000c0: 3529 893e 997e 2ebf e55f 22bf c0dc 443f
000000d0: 1fb3 4f3f b602 9b3d 8a58 92bf b81a 213d
000000e0: ef0a 6bbf e7ae 5abd 23e1 953e d852 143f
000000f0: 7447 1c3e d0d8 ebbd fc6c d9bc 9206 d7be
-0.08636934 -0.9778709 0.3909228 0.3612888 -0.38866687 -0.03133479 -0.666073 0.39529163
-0.18586707 0.84299934 0.7398819 -0.09418694 -0.1711217 -0.67119163 -0.17837866 -0.32823324
0.15558851 -0.72213614 0.6235471 -0.5821931 0.25219062 -0.4953223 0.22936246 0.30059284
-0.43970746 0.46941364 0.9968807 0.2777186 0.7535431 -0.5859656 0.5191049 0.36984643
0.4852734 -0.13043827 0.55251634 0.9313965 -0.63738513 -0.4244781 -0.32223123 -0.44789943
0.6427404 -0.049961578 -0.597247 0.55611247 1.150675 -0.009137851 -0.31117392 -0.40222132
0.2678925 -0.6816192 -0.63427573 0.7689934 0.8113269 0.075688764 -1.143327 0.03933212
-0.9181356 -0.053389456 0.29273328 0.5793891 0.15261632 -0.11515963 -0.026541226 -0.419972

conv1.bias f4 [32]
00000000: ab18 edbd de06 213d eb5c 96be fd16 84bd
00000010: b635 663f 0bc4 bf3d b85e a63d df60 04be
00000020: e81a 8fbe 2d28 12bf d485 553e 0e4f a7ba
00000030: 9e01 a5be 7f9b 913d 07d5 083e 27ef b13e
00000040: 0752 e7be b8ad 0f3e 42db 61be b4f5 b8bd
00000050: f5bc 08bf c0f3 8bbe aa21 d4bd a5d2 af3c
00000060: 047e 19be 7dbf 19bd d812 b23d b7b0 42bf
00000070: c9e0 6e3e 5fbc db3e 6c44 1f3e 01a8 1abf
-0.11576971 0.03931319 -0.29367766 -0.06449697 0.89925706 0.09363564 0.08123535 -0.12927578
-0.27950215 -0.57092553 0.20851833 -0.0012764649 -0.32227796 0.07109737 0.13362513 0.3475277
-0.4517977 0.14031112 -0.22056296 -0.09031239 -0.53413326 -0.27334404 -0.103579834 0.021462748
-0.14989477 -0.037536133 0.086950004 -0.76050895 0.23327936 0.42917153 0.15553445 -0.60412604

conv2.weight f4 [32, 32]
00000000: d68b bebe 66dd e53c 69f2 92be 344e f6be
00000010: dec1 a0bc bb87 a73e a1a5 173f 44cb 223d
00000020: 0894 103e 2abb 0bbe 785c c33e 89e8 8d3e
00000030: fdec 4b3e b65f 573d fd6f 8a3f e460 883d
00000040: eb6b 3cbe b94a acbe 8fb6 b13d 0f02 283e
00000050: 407c 443e 279a da3f b229 6d3f bcbf 4d3e
00000060: 39f4 92bf 591e 843e 1b28 92be 41eb 163e
00000070: 0fc6 bd3e 13be c43d 204c b8be 2554 7cbe
00000080: b0dd 37be 33d1 0c3f ed2a bc3e 2729 933e
00000090: a1d8 e6be 1402 cabe a948 84be ee99 7e3e
000000a0: 3304 54bd 1d7d e3be 4084 eb3c afd6 31bd
000000b0: 066a b5be edf0 063f 8a28 bbbd d935 f33c
000000c0: 4026 84bb 65f0 bc3d 49f1 5d3d 0e42 32be
000000d0: 8cd2 81be 9a18 0abf 9e04 13bf ac32 f53f
000000e0: 4c06 603e ec22 a6bd 3676 2c3e a71e 5cbe
000000f0: 6a4a 803e 0656 c63c 0719 3fbf 7253 88be
00000100: 92f6 193d 80f6 62bd 33d8 d6be d12a bdbe
00000110: 66a3 b2be 83d6 b53e 2b5e 113f 4ed3 163e
00000120: d5b2 85be af68 783e c0c8 fb3e 4a96 00be
00000130: bb53 173e 31ab 17be b18b 163f 32dc 143e
00000140: 278f 01bf 2184 cdbe 604f 6c3e 8a0e b63d
00000150: a060 263f 59e3 583f bdc6 163f f3e3 92bf
00000160: b2f4 52bf 0012 073e ac99 3c3e 61a0 963e
00000170: 7d69 43be 0a40 483e 2718 283f 84e6 6abe
00000180: ef39 6dbe 08a7 fabc 0a68 8fbe 6eb1 f2be
00000190: 588c 333e 4e6b 98be 27c9 0e3e 4a61 53be
000001a0: 2cc8 813e 0467 0b3e d40e ee3e 32e3 46be
000001b0: c023 bd3e 8de9 2a3d a729 043e 7303 b33d
000001c0: 92bd 89be 02c7 a3bd 45f5 3f3e ae75 81bd
000001d0: 3c89 f63e cb90 9b3f 8773 073f 933c cfbe
000001e0: 5021 fcbe b9cb 4cbe 06df 65be 213f 9c3e
000001f0: c835 513e 15f3 e53d e8ef ca3e c0c0 703e
00000200: 4ebe a7bc 19bd 1fbe 0a45 f43e 0c89 5e3e
00000210: 9286 633f b96b 64bf 6a4c c0be 3567 3ebf
00000220: bd47 323f 08b0 dd3e 8912 da3d 6d48 883d
00000230: 5d7c ddbe 5ad5 343f e242 3cbf c0dd 4ebf
00000240: b78b cd3f 04c2 4e3f 6e4d 95bf 5b0d 83be
00000250: a7f7 4dbf 4dbe 643e 6872 41be 18af 9d3d
00000260: 78cc ae3f 2154 27bf bef5 cf3e 4044 57bf
00000270: cd67 6dbf 08d6 25bf 0a51 05bf 5aa9 c4bd
00000280: 95d4 6f3e 89fa d7bd 3f2e 0f3e ca44 b73d
00000290: 2f60 62be 5bbb 8bbe be80 00bf 0c97 b43b
000002a0: 9dee 463e a1fe 613e bf12 523d 3984 0c3e
000002b0: 5e88 273d debd 21bd f205 35be f14e 5dbe
000002c0: 2d4f e73d 3530 0dbd 8415 97be ca03 aabe
000002d0: 6c2e bebe 83cf 23bf f26a 12bf c748 cdbd
000002e0: f883 d73e 3756 a33e 660f 003e de7e 45be
000002f0: 9528 2dbe 5737 4b3e f7a1 c1be 04c2 4f3e
00000300: e91e fd3d d3b4 d43e 1980 4b3c 60b8 8d3c
00000310: fe71 61be 5e67 4e3e fbe2 21be 044f 44be
00000320: d822 313e a47a a5bd da47 2dbe 38a3 29be
00000330: 1dee dcbe ab38 0c3f a718 c7be df37 6dbe
00000340: 1e46 20bd ca0c 903e c0fc a9be 9868 3bbe
00000350: aa84 a8be 16fc 3dbf ce03 99be 35b2 aa3f
00000360: 86a7 d53e e311 973e 6226 3fbe ff0d eebd
00000370: ecb9 48be 835e e53c c593 2cbf bca3 92be
00000380: 7399 583f 8dca e8be 0c54 5cbe c16a 383e
00000390: 3efc 2ebe b92a 783e d799 cdbe 9a78 b93d
000003a0: 9b0e aabe 5072 b33e 1cfe 32bf 50d1 ea3c
000003b0: e36c 843e c6dd 25bf 4bf1 29bf c397 a33e
000003c0: cbd9 023e 74ce 50be c2b2 3d3a f53a 01bf
000003d0: 1608 66be 28de d5bf 2814 87be e9ee 1bbf
000003e0: dbc1 d03e 003f c43e 565d 4f3e c3b2 2b3e
000003f0: 1597 fdbe bfbe 413e f74b 243f 2793 a0bd
-0.3721606 0.028059673 -0.2870057 -0.4810654 -0.019623693 0.32720742 0.59237105 0.03974463
0.1411897 -0.13645616 0.38156486 0.27716473 0.19914623 0.05258151 1.0815426 0.066591054
-0.18400542 -0.3365076 0.086773984 0.16407035 0.19188023 1.7078294 0.92641747 0.20092672
-1.1480781 0.25804403 -0.28546223 0.1473818 0.3706517 0.09606566 -0.3599558 -0.24641474
-0.17955661 0.5500671 0.367515 0.28742334 -0.4508715 -0.3945471 -0.25836685 0.24863407
-0.051761817 -0.4443139 0.028749585 -0.04341763 -0.35432452 0.52711374 -0.091385916 0.029688763
-0.00403288 0.09225539 0.054185186 -0.1740801 -0.25355947 -0.5394379 -0.5742892 1.9156089
0.21877402 -0.081121296 0.16841969 -0.21496068 0.25056773 0.024210941 -0.74647564 -0.26626164
0.037588663 -0.055410862 -0.41961822 -0.3694673 -0.34890288 0.35515222 0.56784314 0.14729044
-0.26113 0.24258684 0.49176598 -0.1255733 0.14778034 -0.14811398 0.588069 0.14537123
-0.5060906 -0.4013987 0.23077154 0.08889492 0.6499119 0.84721905 0.58897 -1.1475815
-0.82404625 0.1319046 0.18417996 0.29419234 -0.1908321 0.19555679 0.65661854 -0.22939497
-0.23166631 -0.030597225 -0.28009063 -0.47400993 0.17534006 -0.29769367 0.13943921 -0.20642582
0.25348032 0.13613516 0.46495688 -0.19422606 0.36941338 0.041726638 0.12906514 0.08740892
-0.26902443 -0.07996942 0.18745907 -0.06321274 0.48151577 1.2153562 0.52910656 -0.40475902
-0.49244165 -0.19999589 -0.22448358 0.30516914 0.20430672 0.11228005 0.3963616 0.23511028
-0.020476487 -0.15599479 0.47708923 0.21731967 0.88877213 -0.8922687 -0.375583 -0.7437623
0.69640714 0.43298364 0.106480666 0.06654439 -0.43258944 0.7063805 -0.73539555 -0.80807114
1.6058263 0.80764794 -1.1664255 -0.25596127 -0.8045601 0.22338219 -0.18891299 0.07699412
1.3656149 -0.65362746 0.40617174 -0.84088516 -0.9273651 -0.6477971 -0.5207678 -0.09602614
0.23420937 -0.10545833 0.13982485 0.08948667 -0.22107004 -0.27291378 -0.50196445 0.0055111703
0.19426961 0.2206979 0.05128741 0.13722314 0.040901534 -0.039487712 -0.17678049 -0.21612145
0.112943985 -0.034469802 -0.29508603 -0.33206016 -0.37144792 -0.6398851 -0.57194436 -0.10023647
0.42092872 0.31901714 0.12505874 -0.19286677 -0.16910012 0.19845329 -0.37818882 0.20288855
0.12359411 0.41544208 0.012420678 0.01729983 -0.22016141 0.20156619 -0.15809242 -0.19170767
0.17298448 -0.080800325 -0.1692194 -0.1656617 -0.43150416 0.5477397 -0.38885996 -0.23165844
-0.03912937 0.28134757 -0.33200645 -0.18301618 -0.32913715 -0.7421278 -0.29885715 1.3335634
0.41729373 0.29505834 -0.18666986 -0.11623763 -0.19602174 0.027999168 -0.6741298 -0.28640544
0.84609145 -0.45467034 -0.21516436 0.18009473 -0.1708841 0.24235047 -0.40156433 0.09056206
-0.33214268 0.3504815 -0.6991899 0.028664261 0.25864324 -0.64791524 -0.6638381 0.31951723
0.12778394 -0.20391256 0.0007236415 -0.50480586 -0.22464022 -1.6708422 -0.26382565 -0.6091142
0.407729 0.38329315 0.20250449 0.16767411 -0.4952933 0.1892042 0.64178413 -0.07840567

conv2.bias f4 [32]
00000000: 947a f3bd 7a37 4abe e666 50be c774 0cbe
00000010: a569 68be 64d6 db3e f7f7 303e d5dc af3e
00000020: 5571 1bbe baeb f0bc e2b3 db3c 8df3 24be
00000030: 9ef1 1b3e 3240 87be c470 81bd d5ae 9d3e
00000040: 91ec bcbe b954 dabe 169f d33e 130c ee3d
00000050: e87f d83e 823f 533e 46ea 543e f01f 64be
00000060: 0b61 a0bd 33fd c43e e2bf 36be 01aa c03e
00000070: 8207 b83e 54bb ec3e 0e73 7a3e b2b5 a03d
-0.11888614 -0.19747725 -0.20351753 -0.13716422 -0.2269655 0.42937005 0.17282091 0.3434817
-0.15179951 -0.029409278 0.026819173 -0.16108532 0.15228888 -0.26416165 -0.063203365 0.3079745
-0.36899236 -0.42642763 0.4133231 0.11623397 0.42285085 0.20629695 0.20792493 -0.22277808
-0.078310095 0.38474426 -0.17846635 0.37629703 0.35943228 0.4623667 0.24457952 0.07847156

pool.weight f4 [225, 32]
00000000: 26ad cb3c a227 e2bd 7bbd dc3e fb22 e43d
00000010: 9ee8 b03e 5ef0 dabd 0794 c1be 2876 bcbd
00000020: 41f7 8f3e 4aeb 00be 5002 723d 3c64 ce3e
00000030: 0a8a 91be 2796 943e 1c0a 6cbe 2b03 eebe
00000040: 3701 cd3c 4da4 3f3e 9bb0 b2be 4c7b 6fbc
00000050: c121 b5be eb9f 1abe 5270 1dbe 57c5 333e
00000060: c4ed 913e ad18 dcbd ccce ce3d 3738 0ebc
00000070: c55a a2bd db67 1bbd fb5a c3be 3166 2cbe
00000080: 942c bdbd 7e14 603d c8f8 49bf d618 0cbf
00000090: 2ea1 fdbd cad1 403e df62 da3e 5bc4 5f3e
000000a0: 82eb afbd 4c30 40be 3fd3 0d3f 53ef 483e
000000b0: 7804 233f ce6f c4bd f7d2 e83e bad0 233f
000000c0: d74a f6be ed9c 29bf 99b7 243f 75db c83e
000000d0: 7655 1c3f d8ff 0b3f 630a 463f 9c1a 47bf
000000e0: 6627 fabe 2013 53bd de16 22be 714a 233f
000000f0: f0e1 f13e 1f08 a83e 0949 2e3f c409 b53e
00000100: 2308 a73e 8342 90be 2b81 9c3e 997d 7a3e
00000110: 8349 093f ba6d 833e 5e13 86be d5e4 2abd
00000120: 5fa1 d63a 5733 0a3b 10bf cbbe 602d 9fbd
00000130: a094 efbe 1f95 febd 3ce7 2bbe 268f b3be
00000140: fd18 703e 94c3 9a3d b5ee 7dbe 8e65 b7be
00000150: 6040 3fbe d64b b9be 56b3 10bf 3f8b d63e
00000160: 1eac 073f e4d2 593d 827f 4fbc cd77 babe
00000170: 369b e7be 386d 4ebe a090 26be c10b 1e3d
00000180: ce58 11be 9caf 923a 87bc fd3d 31a8 673d
00000190: 099d 813e 2569 78be bf5c 35bd ac1a 443e
000001a0: 6b3b f33e eaff b73d 1d5e 753e e7e1 aa3e
000001b0: 0b0d 4bbe 5ba4 ab3e e86d 70bd d98b f9bd
000001c0: 2e56 813d 1164 043c 1a7d 0ebd e9d9 8f3a
000001d0: 3c65 35be a926 18be cd49 523e 8468 683e
000001e0: 9ac8 67bd c4c2 9bbe f74f 0d3e 885f bb3d
000001f0: a4c9 0f3e 3750 1cbe 8b3c 27bb ebd8 79be
00000200: cdbc 4cbe 7cbc f43e f1ce ab3e fa3f 83bc
00000210: b878 a53e a6b2 3ebe 259a d23d 4044 3a3e
00000220: cbf6 003f 43d4 e1ba 66ac 74bc 85e2 073f
00000230: 4878 84be 8da1 1f3f 1640 483e 0781 adbe
00000240: a2b6 45be a719 093e d59c 47bd b6d8 4d3e
00000250: c5fc 67be 4a1d 8ebd 9bbc 633d 4eb2 733d
00000260: a972 0dbe 093e 7abe 8cce fb3d 2628 89bc
00000270: 3fb6 fe3d af8e e13d 2e90 943c 8dad b6be
00000280: 6a65 c33e 1d1e 84be 4590 283d e225 d43e
00000290: b7f2 c13e b5ed 943e 5afe d4be aabf cfbd
000002a0: a6fc 1fbe edc9 533e 7749 e0be a175 bfbe
000002b0: bfd6 aebd f05b 9abe ac79 adbe 3f52 27bc
000002c0: f066 7f3e 417c f5bd 1d5e 13bd 270a c6be
000002d0: 0a4e c8be c7da 65be 4f59 6cbe f645 da3c
000002e0: 7fbb 9a3e 29b8 fe3d 41b0 853d de98 85be
000002f0: cdfd 6ebe ecfe 04be 7b2a 1fbd 9b39 213d
00000300: 1dd3 28be 00bc 9c3d 135c 233d b39f 2f3e
00000310: 3572 843e c859 703d dd7e 77bc 45a8 9abd
00000320: a43b 303e 0fdf 28be 25d1 0e3e 1632 3b3e
00000330: 6414 12be 9827 623e e1de eebd 7751 52be
00000340: 6743 f93c 04f8 4f3e 0608 ab3c f744 5dbe
00000350: 0644 663d d000 dc3b b2a5 5abe b5e8 9b3d
00000360: 9e37 84bd 675b a4bd bd11 fcbd 54f7 99bd
00000370: c23e c53d d067 9d3c 7e46 9fbd 8166 a7be
00000380: 3fee 9ebe 06b3 c73e ea1d 813e b867 9bbd
00000390: 9fde c43e bebf f6be ce5c 4e3c 0dc6 dabb
000003a0: aa31 073f 0ddd 75be 3b4a 003e 9f5c 0e3f
000003b0: 5151 62be e53d 0b3f 1213 a03d 67af c8be
000003c0: 1049 63be e5a4 143e 036c 57bc 444d 563e
000003d0: 0c3c 19be e75b 0f3c d24f 473e 1392 a7bc
000003e0: 9583 49be 609d 01bf ca02 103e bccd debd
000003f0: 9469 c9bd 1e11 203e 91f9 c8bc e0d1 c8be
0.024862837 -0.110427156 0.43113312 0.111394845 0.34552473 -0.10690378 -0.37808248 -0.09202224
0.28118327 -0.12589756 0.059084237 0.40310848 -0.28425628 0.29020807 -0.23050731 -0.46486792
0.025024993 0.1871502 -0.34900364 -0.014616799 -0.35377315 -0.15100066 -0.15374878 0.17555748
0.28501713 -0.10746894 0.10098037 -0.008680395 -0.07927469 -0.03794084 -0.3815535 -0.16835858
-0.09237018 0.054707043 -0.78895235 -0.54725397 -0.12384258 0.18830028 0.42653558 0.21852247
-0.085898414 -0.18768424 0.5540046 0.19622545 0.63678694 -0.095916376 0.45473453 0.63990366
-0.48103973 -0.66255075 0.6434265 0.39229932 0.61067903 0.5468726 0.773596 -0.7777498
-0.48858184 -0.05153191 -0.15829036 0.63785464 0.4724269 0.32818696 0.6808019 0.35359013
0.32623395 -0.28175744 0.30567297 0.24461974 0.53627795 0.25669652 -0.2618665 -0.041722137
0.0016374997 0.002108773 -0.39794207 -0.077723265 -0.4679308 -0.12430786 -0.16787428 -0.3507015
0.23447032 0.07556835 -0.24798091 -0.35819668 -0.18676901 -0.3619067 -0.56523645 0.4190311
0.52997005 0.053179637 -0.012664678 -0.36419526 -0.45235604 -0.20158851 -0.16266108 0.03858543
-0.14194033 0.0011191252 0.12389474 0.056556884 0.2531512 -0.2425886 -0.044277903 0.191508
0.4750627 0.089843586 0.23961683 0.33375475 -0.19829194 0.3352383 -0.058698565 -0.12184877
0.063152656 0.008080498 -0.034787275 0.0010974976 -0.17714399 -0.14858498 0.20535965 0.2269612
-0.056587793 -0.30422032 0.13800035 0.091490805 0.14041764 -0.15264975 -0.0025518264 -0.24399154
-0.19993897 0.47800052 0.3355632 -0.016021717 0.32318664 -0.18622836 0.10283307 0.18190098
0.50376576 -0.0017229397 -0.014933681 0.53080016 -0.25873017 0.6235588 0.19555697 -0.33887503
-0.1930795 0.13388692 -0.04873355 0.201022 -0.22655018 -0.0693918 0.05559979 0.059496216
-0.1381327 -0.24437727 0.12295255 -0.016742777 0.124371044 0.11013543 0.018135156 -0.35679284
0.3816331 -0.25804225 0.04115321 0.41435152 0.3788049 0.29087606 -0.41600305 -0.10143979
-0.15623721 0.20682497 -0.4380605 -0.3739443 -0.08537053 -0.30148268 -0.3388189 -0.01021248
0.24941611 -0.1198659 -0.035978425 -0.3867962 -0.3912204 -0.22446738 -0.23080944 0.026644688
0.30221173 0.124374695 0.065277584 -0.2609319 -0.23339005 -0.1298787 -0.038858872 0.039361577
-0.16486783 0.07653046 0.03988273 0.17150764 0.25868383 0.058679372 -0.01510593 -0.07551626
0.17210251 -0.1649134 0.1394697 0.18280825 -0.14265591 0.22085416 -0.116636045 -0.20538889
0.030427648 0.20309454 0.02087785 -0.21608339 0.056217216 0.006713964 -0.2135227 0.07612745
-0.06455921 -0.08025246 -0.12308071 -0.07517877 0.09631111 0.01921454 -0.07777117 -0.32695392
-0.31041142 0.39003772 0.25218135 -0.07588142 0.38451096 -0.48193163 0.012595369 -0.0066764415
0.52810156 -0.24010105 0.12528317 0.5561008 -0.22101332 0.5439132 0.078161374 -0.3919632
-0.2219584 0.14516027 -0.013148311 0.20927912 -0.14964312 0.008749939 0.19464043 -0.020455396
-0.19679101 -0.5063076 0.14063564 -0.108790845 -0.098345906 0.1563153 -0.024533065 -0.39222622

pool.bias f4 [225]
00000000: 884c 833e 2258 e53d 8e46 4e3e 9a6b 0ebd
00000010: 53ff 063e ea3b fd39 d593 7a3d c472 c33c
00000020: d601 4d3f f06f 0f3e a3c8 80be 4866 493d
00000030: 4868 b83d b481 7b3d f2c7 e0bd ace5 a53f
00000040: d969 f8bd 9b30 a13d 1217 023e 0001 363e
00000050: 8a35 4e3e 3717 e53c 5e83 2cbd 24dd 1a3d
00000060: 4c98 c53d 108e 693e 3b31 75bd e539 3cbd
00000070: dd71 f93e 9580 183e a9cf 8e3d 2197 423d
00000080: 5bfd e83d 95d4 813d fd9c 41be 7d96 203e
00000090: 1a87 1f3f 7e95 b3bd c005 d63d cfd6 373e
000000a0: 5403 d03c fa28 b3bd 8a6d 173e d335 473e
000000b0: ab6c a13d 613e e7bd a2dc 6a3f f7fe 433e
000000c0: 58a9 ff3d 5684 383e 2c7f e13d fb64 6f3e
000000d0: 05f1 01be 92c5 bd3e d486 4e3e 80ec 01be
000000e0: 46d9 bb3d d00d 4e3e c91c 223e 2006 843e
000000f0: 783f b93e 9579 98bd 253c 74bc 3593 3abe
00000100: f66a a5bd d370 323e c26d a5bd 6f24 6b3d
00000110: 978d 8cbd 5ef3 fd3e 7ed2 d53f 2b35 b73d
00000120: a5aa f7bd c564 333e a8b3 303e 8479 0f3e
00000130: 3da5 e7bd a4bc 6e3e 4689 163e cd66 ca3d
00000140: 45a2 f3bc 06b0 da3e d26d 81bd 5ecb cbbd
00000150: 38e9 963e 4c06 aebd 17cc 7e3d ccf4 473d
00000160: 476e bf3e c297 8e3d 05b7 663e 552a 05be
00000170: 23a6 97bd 3cfb 8f3f 30ae a8bc 534d 143e
00000180: 5ae8 0e3e 152b be3c 4ae9 92b9 f4e7 f13d
00000190: 5af4 843e 3796 303d e562 82be 3d3a 5a3d
000001a0: 2c29 d53d daab 693e 2a32 883e e07e 8c3e
000001b0: a32f 0c3d df09 a8bd 27e3 a3bd f057 98bd
000001c0: e960 4e3f fa27 c03d f6d2 f5bd a228 8a3e
000001d0: 418d 053e 0206 b4bd b481 d23d 4370 0a3e
000001e0: 73b1 473e 8c5e f8bc 4f72 263f b46a f2bd
000001f0: 51a6 363e 67b7 fe3c c385 783d cabb 643e
00000200: 3a51 8a3e 87a0 7b3f c348 b73e cd55 2a3d
00000210: f9d4 6fbd 6bd1 01bd c949 58bd 90e0 803e
00000220: 4e2a 0abe 41b4 97bd 4c42 bb3c ee96 403e
00000230: 2838 e23f dd14 bd3e dac9 b7bd e8c6 913e
00000240: b22f b83e 1708 04be c1b4 103e 20e2 d7bc
00000250: 624c d8bd a799 12bf cd9f 283e 70d8 083f
00000260: 43f7 d33e 645b d73e 6cee b9bd b59b 10bd
00000270: 81f6 823e dfff 183d 1b83 84bd 2730 d63c
00000280: 653e e03c 8540 063e ff24 ecbd b4bc c13d
00000290: 3cec 6b3e 565e ac3f 4c50 5bbd 8b8b dcbd
000002a0: 0db2 f1ba a971 203e 9622 c73d 5691 933d
000002b0: 1bfc 06be e8f8 623c d45f b03e b3fb b93e
000002c0: 7512 18be dfa3 f4bb d788 2bbd 0212 1d3d
000002d0: fb92 d1bd 2c07 bdbd 1555 e4bd 88bb 563e
000002e0: ba93 a23d 174a 3f3e 81ac 543e dba6 1cbc
000002f0: b080 053e 9b6b 88bb d019 6cbd 7c2b d6bd
00000300: 6593 e83d ea30 0f3e 8b32 1b3e ebd4 03be
00000310: eda3 4a3e 1d81 a2bd 33b7 04bc b004 f53d
00000320: b6ed 5c3e 3ab7 aa3f 55a2 d5bd c6de 9abd
00000330: 2abf 99bd bbd1 2b3e f215 6d3e 21e5 123d
00000340: 1148 4d3e 4df9 d93b 26c9 a3bd 104d e2bb
00000350: 2cc0 0c3e b78e 89bc c3b4 063d b9de 013e
00000360: 5a42 473d a38b d23e c1f5 973d da07 57ba
00000370: c88b e3bd 6d20 a23c 08c8 0cbe 59dc 833f
00000380: c3ff f83d
0.25644326 0.111984506 0.20144102 -0.034770586 0.13183336 0.0004830056 0.06117614 0.023858435
0.80080926 0.14007545 -0.25153074 0.04916981 0.09004265 0.06140299 -0.109756365 1.2960715
-0.12129564 0.07870599 0.12704113 0.17773819 0.20137611 0.027965171 -0.04211747 0.037808552
0.09648189 0.22808099 -0.059861403 -0.04595365 0.48719683 0.148928 0.06973202 0.04750741
0.11376449 0.06339375 -0.18907543 0.15682407 0.62315524 -0.08768748 0.104503155 0.17953037
0.025392212 -0.0874805 0.1478788 0.19454126 0.07882055 -0.11291195 0.9174291 0.1914023
0.12483472 0.18019232 0.11010584 0.23378365 -0.12689598 0.37064797 0.2016862 -0.12687874
0.09172301 0.20122457 0.15831293 0.25785923 0.36181235 -0.07445065 -0.014906918 -0.18220218
-0.08077042 0.17425852 -0.08077575 0.057407793 -0.068629436 0.49599737 1.6704862 0.08945688
-0.12093095 0.1751891 0.17256033 0.14011198 -0.113108136 0.23314148 0.14700803 0.09882889
-0.029740462 0.4271242 -0.06319775 -0.099508986 0.29474807 -0.08497295 0.062206354 0.04881744
0.37388822 0.06962539 0.22530754 -0.1300443 -0.07404735 1.1248546 -0.020590872 0.14482622
0.13955823 0.023213902 -0.00028021104 0.1181182 0.25967675 0.043112006 -0.25466076 0.053278197
0.104082435 0.22819462 0.26600772 0.27440548 0.034225117 -0.08205008 -0.0800231 -0.07438648
0.80616623 0.09382625 -0.12003128 0.26984125 0.13042165 -0.087902084 0.10278645 0.13519387
0.19501285 -0.030318521 0.6501817 -0.11836758 0.17836882 0.031093312 0.06067444 0.22337261
0.27015096 0.9829182 0.357977 0.041585732 -0.058552716 -0.031693857 -0.052804742 0.25171328
-0.134927 -0.074074276 0.022858761 0.18807575 1.7673388 0.3692998 -0.08974047 0.28472066
0.3597389 -0.12893711 0.14131452 -0.026352942 -0.10561444 -0.57265705 0.16467209 0.5345526
0.41399583 0.42061913 -0.090786785 -0.035304744 0.25578693 0.037353393 -0.06470319 0.026146008
0.027373502 0.1311055 -0.11530494 0.094598204 0.23039335 1.3466289 -0.053543374 -0.10768803
-0.0018439904 0.15668358 0.097233936 0.07205455 -0.13182108 0.013853289 0.3444811 0.36324844
-0.14850791 -0.007465824 -0.041878548 0.03834725 -0.102331124 -0.092298836 -0.111490406 0.20969975
0.07938333 0.18680607 0.2076893 -0.009561266 0.13037372 -0.004163218 -0.057641804 -0.10457513
0.11356238 0.13983503 0.15156 -0.1287419 0.19789095 -0.07934783 -0.008100319 0.11963785
0.21575055 1.3337166 -0.10431353 -0.07562022 -0.07507165 0.16779225 0.23152903 0.035863046
0.20047022 0.0066520334 -0.079973504 -0.006906159 0.13745183 -0.016791685 0.03288723 0.12682618
0.048647262 0.4112216 0.07419921 -0.0008202769 -0.111106455 0.019790852 -0.13748181 1.030162
0.12158158

conv3.weight f4 [32, 32]
00000000: 38e4 a0bd eed5 873e 48b7 8abe ec15 a53d
00000010: 9a92 0ebe 297f a53c 97a7 23be 7e2b 7bbd
00000020: 7e20 64be 3f15 52be f423 00bd d8fd 5ebe
00000030: 2fca 85be ba60 513e f047 40be d778 55be
00000040: e8a5 0e3e aa35 49be 04fa 263e a3f7 8bbe
00000050: 7832 173d 6a46 663d c97c 533e f612 f13d
00000060: a344 57be a8ca dfbd 55c7 7abd 75b8 5abe
00000070: 25df 173d 969b 503e 7dab e03c e62d 22be
00000080: fcb5 95bb 8a80 493e 9fb5 813e cac3 61bc
00000090: 133d f43b 2196 a53d 0218 953d 7b87 16bd
000000a0: 9305 563c 1cbe 11be 59e0 3ebe 81c1 ea3d
000000b0: d406 cb3d 5fe3 d8be 0e2f 33be cda6 813e
000000c0: 04f7 893e e3ce 9e3e d627 e43d b0b7 3d3f
000000d0: 11d2 8e3d 89b3 4b3e 3cc4 00be 71b8 e0bd
000000e0: cfef 84be d373 5bbe 7840 40be 6949 92be
000000f0: 1818 663e 89bf 3c3e 92f7 343e 32be e0bd
00000100: 2f79 953e f08b d0bb dd82 79be b132 e3bd
00000110: a519 913e 42aa 1b3e 98aa 603d edb2 b5be
00000120: 3b5a 07bd b1fd 38be 2b25 183e 4d5d 92bd
00000130: 7170 8e3e 47fe 1cbd 3d4f fdbd d1c0 95bd
00000140: 22c4 ce3d a0cd 263e 9d88 2fbe 6f72 a03e
00000150: 8959 8c3d 6c05 ec3a d2ae cebd 7ad3 593e
00000160: 1f41 8e3e c1c5 28bd e3a0 55be ad66 eebd
00000170: af47 4e3d a8b5 f43c e3c9 c2bd 4ed8 113e
00000180: 7379 a63d 0a24 1abd eb3e ef3c 491b 183e
00000190: c71f d73e 7ccf 983e 7957 a83d 3652 81be
000001a0: 7451 7cbe aa71 683e 693e a23d 4e16 913d
000001b0: 2d36 7c3d 3b52 e53d d260 6a3e 7a8b 93bd
000001c0: 7f11 7a3e f8fd 983d 2097 883d c461 283e
000001d0: 9cc4 f8bd fba8 703e 4c13 b8ba f637 64be
000001e0: 1c13 79be 2b07 0f3e 9f62 4abd 1fea 9ebe
000001f0: d198 a33e b83f a0bd e717 e7bd 8e2d b0bd
00000200: 0871 d9bd 7f32 59be 6547 9abe b830 3abe
00000210: 2793 c93d 8bcb 95be 4dbd 183e 7476 f7bd
00000220: d368 713e a233 9cbe f2e7 8bbe 33cc 88be
00000230: 7cd9 483e f3b3 07be cb81 1d3f 8c1b 623d
00000240: fcef c3be b858 85bc 1d16 9ebe db18 913d
00000250: a978 ce3d 2ae9 b9be 37d7 863e 6080 32be
00000260: 683a 873e 8288 9e3e 535a 1e3e 4bcd a33e
00000270: ba59 233d d743 773e 92ea f4be d2f2 903d
00000280: 52af b6bb f7ec f23d c37c 57bd 7dcb 4c3e
00000290: 105a 973e 8c95 363e 8469 b4be b34d 503e
000002a0: eaa6 5d3d 81c3 3d3c 6ba4 e5bd cca7 9abc
000002b0: 39dd a93d 8dea 57be f8c1 56be 459d 13be
000002c0: bd8d 9d3e 5a94 d7bd 7b73 993d ae0e 26be
000002d0: 61eb ee3d 19ca 3bbe ad23 1fbe 8956 cebe
000002e0: 80b9 0f3d 2427 f8bd 7e16 763d a9cc 463d
000002f0: d1c3 2d3d 339c 2fbe 890a 483e 4e82 73be
00000300: 0d8a 11be d917 a5bd e2fa 90be 0894 5cbd
00000310: 07f3 423e 2645 89be 05b6 9ebe 4e15 8c3c
00000320: 6ee9 6d3e d9a5 38be 9e30 48be c396 7e3c
00000330: 3be1 793e b382 a23d 8c9d cbbd a90b 9f3c
00000340: ba63 9fbe 8e91 14be 6c79 753d e04b a6be
00000350: eecc 04be d5ca 17be b145 8e3e 59b6 c7bd
00000360: 972b 04bd 04a9 973d a6ae 103e 59b7 64be
00000370: e43b 2f3e e63a ae3d 962b 34bd 5e60 833d
00000380: b92c 183e d745 bfbd e5d1 08bd 0718 87be
00000390: 09f9 8fbe 4e63 e9be c720 c7bd d8ea 96bd
000003a0: eb4b 0c3e 3794 0e3c ad35 1e3e 5559 3bbe
000003b0: 3ea6 00be 51f0 0fbe ad83 adbe 5d16 753d
000003c0: cd3b e3bd f03d 2b3e 64ca b33e f783 443d
000003d0: 3ae4 333e e505 a23e 4c77 bb3d d63b 2cbe
000003e0: 3dbb 873e ecb3 0cbe f2a7 94be 4e18 83be
000003f0: d910 85be d42a 0cb9 db0f 21be 9745 7bbe
-0.07856029 0.26530403 -0.27092957 0.08060822 -0.13923112 0.020202236 -0.15981899 -0.061320774
-0.2227802 -0.20515917 -0.031284288 -0.21776521 -0.26130816 0.20447055 -0.18777442 -0.20846878
0.13930476 -0.19649377 0.16306311 -0.2733737 0.036913365 0.056219496 0.2065307 0.11771195
-0.21022277 -0.109273255 -0.061225254 -0.21359427 0.03707804 0.20371851 0.027425522 -0.15837821
-0.0045688134 0.1967794 0.25333878 -0.01377959 0.0074535697 0.080852754 0.0727997 -0.036750298
0.013062852 -0.14232677 -0.1864027 0.11462689 0.09913412 -0.4236097 -0.17498419 0.2532257
0.2694627 0.31017217 0.111404106 0.7410841 0.06973661 0.19892706 -0.12574857 -0.109726794
-0.2596421 -0.21430902 -0.18774593 -0.28571633 0.22470129 0.1843244 0.17672566 -0.10973777
0.29194018 -0.006364338 -0.24366327 -0.11093653 0.28339878 0.15201667 0.05485019 -0.35488072
-0.033045035 -0.18065526 0.14857928 -0.07146702 0.2782016 -0.038328435 -0.12368629 -0.073121674
0.10096003 0.16289377 -0.17141958 0.31337306 0.06853015 0.0018006987 -0.10091938 0.21272078
0.27784058 -0.041204218 -0.20862155 -0.116406776 0.05036133 0.029871777 -0.09511163 0.1424267
0.08128633 -0.037632026 0.029204806 0.14854158 0.42016432 0.29845798 0.08219809 -0.25258034
-0.24640447 0.2269961 0.0792206 0.070843324 0.061575104 0.11197325 0.22888497 -0.072043374
0.24420737 0.07470316 0.0666945 0.16443545 -0.12146875 0.23501961 -0.0014043837 -0.22286972
-0.24323696 0.13967578 -0.04941046 -0.31037995 0.31952527 -0.078246534 -0.11283856 -0.08602439
-0.10617262 -0.21210669 -0.30132595 -0.18182647 0.0984252 -0.29256853 0.14915963 -0.1208314
0.23575144 -0.30508143 -0.27325398 -0.26718292 0.19614214 -0.13252239 0.61526173 0.055202052
-0.3826903 -0.016277656 -0.30876246 0.07084819 0.10081608 -0.36310703 0.2633607 -0.17431784
0.26411748 0.30963522 0.15464143 0.31992564 0.03988049 0.24146973 -0.47835213 0.07077564
-0.005575099 0.11861604 -0.052609216 0.199995 0.295609 0.17830485 -0.35236752 0.2034214
0.05411426 0.011582256 -0.11213001 -0.01887884 0.08294148 -0.21085568 -0.2097243 -0.14415462
0.307722 -0.10526343 0.07492729 -0.16216537 0.11665989 -0.18338813 -0.15540953 -0.40300396
0.035089016 -0.121168405 0.060080044 0.048535023 0.042423073 -0.17149429 0.19535269 -0.23780176
-0.14212818 -0.08061189 -0.28316408 -0.05385211 0.1903802 -0.2681057 -0.30998245 0.017100003
0.23233578 -0.18032016 -0.19549796 0.015538874 0.24402325 0.07935085 -0.09942159 0.01941474
-0.31130773 -0.1450865 0.05993025 -0.32479763 -0.129688 -0.14823468 0.27787545 -0.09751577
-0.032268133 0.07405284 0.14129123 -0.22335567 0.1711269 0.08507328 -0.04398688 0.06414865
0.1486081 -0.09339493 -0.033403296 -0.2638552 -0.28119686 -0.45583576 -0.09723049 -0.07369012
0.13700835 0.008702329 0.15450163 -0.18295796 -0.12563416 -0.14056517 -0.33889523 0.05983578
-0.110953905 0.16722846 0.3511535 0.047977414 0.1756753 0.31645122 0.091536134 -0.168197
0.2651004 -0.1374051 -0.29034382 -0.2560448 -0.25989416 -0.00013367395 -0.15728705 -0.24538265

conv3.bias f4 [32]
00000000: fe6c a73a f8df 683d 8f75 00bc d197 bc3c
00000010: bd7b a5bb 4bff dc3c a684 45bc ee7d 65bc
00000020: de68 bd3a b147 043a 9912 803d 7dde 433d
00000030: 1486 8bbd 79de 4dbc f058 1fbd 5a48 0c3a
00000040: 3550 d1bc ed1b 72bd 00a9 8e3d 85d6 8d3d
00000050: 2a40 13bd 5423 623b f116 ebba 47b1 c5bc
00000060: d05b 133b 5ad8 023c 32a0 d73c 258f 323d
00000070: 2343 5cbd 85bc ae3d 2d80 243d 70cf bcbb
0.0012773571 0.05685422 -0.007840528 0.02302161 -0.005050151 0.026977202 -0.012055552 -0.014007075
0.0014450809 0.0005046083 0.06253547 0.047819603 -0.06812683 -0.012565249 -0.038903177 0.00053513574
-0.025550941 -0.059108663 0.06965828 0.06925682 -0.035949863 0.003450592 -0.0017935914 -0.024132384
0.0022485144 0.007986153 0.026321504 0.043593545 -0.053774964 0.08532051 0.0401613 -0.005762033

conv4.weight f4 [32, 32]
00000000: 62f4 6d3e 0c3d 0a3e ae80 91be 1bbd e53c
00000010: 780f 583e 18fb c0bb 7ebd 8fbe fce9 a23d
00000020: a09e c63d cd11 09bd 8666 84bc d063 bebc
00000030: 4d38 9cbd 6e79 c73e a0f7 1e3e 96c5 85bd
00000040: 2488 df3d 8078 03be fcde c13c be3d d23d
00000050: 6578 09be 6cc4 8d3d 44cb 53bd ba3e 7abe
00000060: 2ffc 943d e018 62be c290 033e 03c7 31be
00000070: 0f4b 32bc 601d 843e 4311 d83d c08e c13d
00000080: 58f2 e03c 4f46 f7be 39bc c9bd 967a 9dbd
00000090: e62e 093e f232 c2bc 6ddc 083d 3c70 c4bd
000000a0: bf63 09be f910 66bc f527 b93c 8a86 1abe
000000b0: e5c3 403e 6570 95be c2b7 07bf ff7f 5a3e
000000c0: 3172 12bc 7524 49bf 331a 543d ba2d 173e
000000d0: 5702 38bd 89eb 253e b1b9 a23e a00a e0bd
000000e0: 1a74 873d 7cd2 63bd 7872 3ebc af16 c0be
000000f0: 0496 453e d907 083e 5900 033d cc77 0ebe
00000100: e68b 9fbe e433 043e 0990 e03d 8334 573c
00000110: d139 4b3e 8e68 5cbe 9b6f 16be 4679 e93d
00000120: 603d 403d a72a 6c3d 631c 9fbe 0edf c73e
00000130: 05a8 a53e 32f1 9ebd a90c 10be 9bef d63e
00000140: 1c74 e43d 0bf2 31be 78d7 6f3c 3fab dbbd
00000150: f68e b23e cc7d 66bd eaab 5c3e 3432 60be
00000160: 6cbc 1bbe a140 88be ef7e 3a3e e724 3bbe
00000170: 5223 7e3e ef14 283e 41d4 35be 3896 3f3d
00000180: f4c9 2d3e e946 953e 4e81 a4be c503 8e3e
00000190: 510e 06be 352b b63d 4530 cdbe c036 8cbd
000001a0: c53c 323e 6786 4c3e 8741 853e 151e 47be
000001b0: ad03 70be fa24 1e3e 7633 5c3e b9cf 0a3e
000001c0: 2d6c b4be cecd 473e c9bc 7d3e 75e4 b83d
000001d0: 1827 71be 7f21 75be 3765 a6bd fd76 183e
000001e0: fb7c 6e3e 877e 6ebe ac31 26be 50e4 383e
000001f0: 3421 873e 090e 773e 42b3 d93d e96d 153e
00000200: ac2e a73d 230f aa3d 79b3 4dbe d586 6c3e
00000210: 50aa 46be 0df5 f5bd 404a 0abe a07f d5bd
00000220: 5f63 8ebd 7028 303e 0d45 b4bb 0ef0 4ebe
00000230: e1fc d4bb 5bda f23d 668a 083c 98df 09bd
00000240: ba05 b5be 1662 8abd 7109 773d c408 373e
00000250: 866f 833d 5785 1a3e 8f6a 813e 0650 25be
00000260: 2b0c 223e c69b aabe 541f 19be 6c00 0a3d
00000270: 4428 913e 63e1 703e 01ed 8bbe a4a8 b73d
00000280: 4d57 1ebd cf04 a1be 5c66 843c 3104 a4be
00000290: 2cee c5bc 3777 953e 102d b93b cfbf 88bd
000002a0: 21f7 f23e 53dd a03d 3197 7ebc 70e3 76be
000002b0: bafd e6be bd8a 373e 37dd 47bf 8dca ffbd
000002c0: 965a a33d 5b92 053e cc3a c23d 8001 3e3e
000002d0: d6c2 883e a228 4cbe 4941 273e b0cb f2be
000002e0: 3ced c63c 55a4 033d c125 11be c769 6dbd
000002f0: aa4c 973d f232 443d a252 03be 43ed af3d
00000300: 2fca 01bf dcdc 2a3f 16b7 8f3e da4e 8b3e
00000310: 3b90 c83e a4d2 2fbe 150c 2c3e 2cd8 1abe
00000320: 8c62 4bbe ade8 aa3d 10a6 643e 7bf6 f3bd
00000330: 3044 acbe edb0 f33d 69e7 3d3e ecb9 29be
00000340: f935 00bd cafe 903d 414e 75be 2aa4 263e
00000350: 1f27 87be d1f6 4bbe 2d11 963e 6923 dc3d
00000360: ff44 93be 12db 3ebe 9805 4ebe 0357 b43d
00000370: 5578 0dbe 00e1 d9bd 37d8 cb3e 0edc d2bd
00000380: af83 0c3e cba2 00be c132 823e 290c 813e
00000390: d492 34be 63b3 d43e 1c3f eb3d 25c3 b3be
000003a0: 11d4 8cbe 8996 8e3e e332 cb3d bcc0 09be
000003b0: b642 58be 9b0e 3bbe 84cd 65be 51b6 65be
000003c0: 4119 d23e cf9d 6a3e 6ebc 463e 601d 903d
000003d0: ff54 63be dd5a 23be db8f a53e e857 f8bc
000003e0: cd9c 5abd b6f0 b33b f4fc 293e c2d8 a5be
000003f0: c573 873d 4bdb 0fbe 3a8c 7dbe 172f 413e
0.23237756 0.1349985 -0.28418487 0.028044274 0.21099651 -0.0058893077 -0.2807426 0.07954785
0.09698224 -0.03346424 -0.016162168 -0.023240954 -0.07627926 0.3895983 0.15524149 -0.06531827
0.10914639 -0.12838936 0.023665898 0.10265683 -0.13424833 0.0692223 -0.05170752 -0.24437991
0.07274663 -0.22079802 0.1284819 -0.17361073 -0.010882153 0.2580366 0.105501674 0.094510555
0.027459309 -0.4829583 -0.09850354 -0.07689397 0.13396797 -0.023705933 0.03341334 -0.095917195
-0.13416956 -0.0140421325 0.02260206 -0.15090385 0.18824728 -0.29187313 -0.5301477 0.21337889
-0.008938358 -0.78571254 0.051782798 0.14763537 -0.044924106 0.16203131 0.31782296 -0.109395266
0.066139415 -0.055620655 -0.011623971 -0.37517306 0.19295508 0.13284244 0.031982753 -0.13912886
-0.31161422 0.1291042 0.109649725 0.013135078 0.19846274 -0.2152426 -0.14691012 0.11400084
0.04693353 0.057657864 -0.31076345 0.39037365 0.3235475 -0.07760848 -0.1406733 0.4197968
0.111549586 -0.17377488 0.014638774 -0.10726022 0.34874696 -0.056272313 0.21549955 -0.21894151
-0.15208596 -0.26611808 0.18212484 -0.18275796 0.24818161 0.16414236 -0.1775675 0.04677412
0.1697157 0.29155663 -0.32129902 0.2773725 -0.13091399 0.0889496 -0.4007589 -0.0684638
0.17405994 0.19973145 0.26026556 -0.19445069 -0.23438902 0.15443793 0.21504006 0.13555802
-0.35238782 0.19512102 0.24779047 0.0902795 -0.2355007 -0.23938559 -0.08124774 0.1488914
0.23289864 -0.23290454 -0.16229886 0.18055844 0.2639252 0.24126448 0.10629894 0.14592709
0.08163199 0.08303668 -0.20087995 0.2309831 -0.19400907 -0.1200963 -0.13504887 -0.10424733
-0.06952547 0.17202926 -0.0055013956 -0.20208761 -0.006499872 0.11858054 0.008333778 -0.0336605
-0.35355932 -0.0675699 0.06031174 0.17874438 0.06417756 0.15089928 0.2527661 -0.16143808
0.15824954 -0.3332197 -0.14953357 0.03369181 0.28351033 0.23523478 -0.27329257 0.089677125
-0.038657475 -0.3144898 0.01616209 -0.32034448 -0.02416142 0.29192516 0.005651124 -0.066772096
0.4745417 0.07854714 -0.0155389765 -0.24110198 -0.45115453 0.17924018 -0.7807192 -0.12489805
0.07976262 0.13044111 0.09483871 0.1855526 0.26711148 -0.19937375 0.16333498 -0.47421026
0.024283044 0.03213914 -0.14174558 -0.057962205 0.073876694 0.047900148 -0.1282449 0.08590176
-0.5069913 0.66743255 0.2806937 0.27208596 0.3917254 -0.17170197 0.16801484 -0.15121526
-0.19861811 0.08345161 0.22328973 -0.11912247 -0.33645773 0.1189898 0.18545307 -0.1657483
-0.031301472 0.07079847 -0.23955633 0.16273561 -0.26397035 -0.19918372 0.2930998 0.107489415
-0.28763577 -0.18638256 -0.20119321 0.08805659 -0.13815434 -0.106386185 0.39813396 -0.10295878
0.13722108 -0.125621 0.25429347 0.2520459 -0.17634135 0.4154311 0.114866465 -0.3510982
-0.27505544 0.27849224 0.09921815 -0.13452429 -0.21119198 -0.1826729 -0.22441679 -0.2243283
0.41034892 0.22911762 0.19407818 0.07036853 -0.22200392 -0.1595263 0.32336316 -0.030315354
-0.053372193 0.0054913415 0.166004 -0.32391936 0.06613878 -0.14048497 -0.24760523 0.1886562

conv4.bias f4 [32]
00000000: a0e7 953c ae2f a8bc 7a60 8bbd a362 033d
00000010: 9e74 253d b5aa 083d 8552 633d 1b07 fc3d
00000020: 86d4 8abd c119 93bd 90ee 9fbe 4fce 823d
00000030: de97 023c c48a 4c3c 80c3 15bc 45b3 553d
00000040: 892d 803d 045c 9bbe dea1 bf3d 6ee9 19be
00000050: 43cd 163d bb4a b1bc b612 073e c506 12bd
00000060: c28b e13c f438 0dbd b1ce 10be 9ad9 003d
00000070: 9cd7 2e3d f8d7 cd3b 3bda ca3c ac80 933d
0.018298924 -0.020530548 -0.06805511 0.03207649 0.040394418 0.033365924 0.05549862 0.12306043
-0.06778817 -0.071826465 -0.31236696 0.063870065 0.007970778 0.012484256 -0.009140849 0.052172918
0.06258685 -0.3034364 0.093570456 -0.15030453 0.036816847 -0.02164208 0.13190731 -0.035650987
0.027532462 -0.034478143 -0.14141347 0.03145752 0.04268609 0.006281849 0.024762264 0.072022766

conv5.weight f4 [32, 2]
00000000: 230e 163e 6447 b13e 3da9 16be fa03 11bd
00000010: f0ce 463b 8bb6 2fbe 748f bdbc 1c1d ef3d
00000020: c2b8 7e3e de4e 8abd e0f2 c83d bbc1 5d3d
00000030: 269a 003e 69d2 b33e dd7b 493d 3941 3fbc
00000040: 6096 b1bc c681 03bd 0f58 ba3e c36f a9be
00000050: 1282 e3be 1749 adbe 3eeb b7bd 6a31 823e
00000060: 9de7 9dbd 3610 1e3d e00f 3dbe 34c3 1abe
00000070: 35b3 4fbd 77c6 cfba ee2c c1bd a0c9 843d
00000080: 5753 983e d1de 2f3e 2ea9 1bbe bf9e a9bd
00000090: 47dd cbba 88ab 11ba fa34 49be a8ec 8abd
000000a0: 8c5d 2d3d 139d 993e 95fa 97bb aff5 91bd
000000b0: 4c97 353e 808f ad3d 15d3 6cbe 288c a83e
000000c0: 2fa8 3bbd 8210 f33d 9b61 8ebe 2185 fd3d
000000d0: c5f5 d7bd ff1a bcbd 609c ae3c 21cd a83c
000000e0: 14b8 ff3d f3ec 6c3e 9018 98be 8df2 19be
000000f0: 5411 0ebd 4caf 023e 65bc 82be ae8d 663e
0.1465383 0.3462478 -0.14712997 -0.035404183 0.0030335747 -0.17159478 -0.023139693 0.11675474
0.24875167 -0.06753324 0.0981195 0.054139834 0.12558803 0.35121468 0.04919039 -0.011673265
-0.02167815 -0.032106183 0.36395308 -0.3309308 -0.44435173 -0.33844826 -0.08980416 0.25428325
-0.07710192 0.03858968 -0.18463087 -0.15113527 -0.050708015 -0.0015851994 -0.09432398 0.064837694
0.29751083 0.17174841 -0.15201256 -0.082822315 -0.0015553617 -0.0005556871 -0.19649115 -0.0678342
0.04232554 0.3000265 -0.004638026 -0.071269386 0.17733496 0.08474636 -0.23127396 0.3291943
-0.04581469 0.11868383 -0.27808842 0.12378908 -0.10544924 -0.091848366 0.0213148 0.020605626
0.12486282 0.23137264 -0.2970624 -0.15033932 -0.034684494 0.12762183 -0.2553436 0.22514984

conv5.bias f4 [2]
00000000: f224 913e ae7a 813e
0.283485 0.2528891
