GST-recon/checkpoints/best_smallgrid_DiffPool.pth (torch, 20763 bytes, 12 tensors)

conv1.weight f4 [2, 32]
000000 da 04 ad 3e 67 af c3 3e b2 5c 56 be 1f 19 ca 3e
       0.33792764 0.3821976 -0.20933798 0.3947229
000010 c7 4f 4c be 36 a3 2b 3e 46 59 53 be f6 4c 3c 3e
       -0.19952308 0.16761479 -0.20639524 0.18388733
000020 38 f4 ad 3e a9 ff e1 be 8c 40 c6 3e b0 f6 69 3e
       0.33975387 -0.44140366 0.3872112 0.2284801
000030 24 20 b5 3e 96 d0 d3 3d e3 c6 91 3e 09 03 db 3c
       0.35376084 0.10342519 0.2847205 0.026734846
000040 c4 31 f8 3e c0 95 3a bd 23 4b 87 be 3c b4 b7 3d
       0.48475468 -0.04555297 -0.26424512 0.08969924
000050 f8 2c ad be ce 64 0c bd a0 f3 81 be 01 0f 8b 3e
       -0.3382337 -0.034275822 -0.25381184 0.27159885
000060 d3 33 94 be fb bc a2 bd 99 6b 9f bd 4d cc 85 be
       -0.2894579 -0.079462014 -0.077841945 -0.26132432
000070 39 7c 66 3d 53 c6 cd be bf 33 a3 3e bd 5d db be
       0.05627081 -0.40190372 0.31875417 -0.42844954
000080 1e 13 ae 3e ac 11 c7 3d 35 9c 83 be 01 b2 85 3e
       0.3399896 0.097201675 -0.25705114 0.2611237
000090 0c 24 70 bd 14 0b da 3e 2e b6 37 3d 9f e0 4e be
       -0.058628127 0.42586577 0.044851474 -0.20202874
0000a0 4f a5 9b 3d cc b2 84 be 19 4a 4b 3e e2 55 0a 3f
       0.075998895 -0.2591766 0.19852485 0.54037297
0000b0 77 d7 95 3e 04 06 08 be 29 2b a8 3e 78 23 2b 3e
       0.2926595 -0.13283545 0.3284543 0.16712749
0000c0 04 88 c7 3e a0 e6 bd be f1 28 f9 be 0b 5f 37 be
       0.3897096 -0.37090015 -0.48664048 -0.1790735
0000d0 ab b4 f2 be a0 b1 b7 3e 96 71 1d 3d 08 57 27 3e
       -0.47403464 0.35877705 0.038438402 0.16341794
0000e0 98 1f 38 3e d0 18 eb 3d 02 79 c2 3e 33 59 9d be
       0.17980802 0.11479342 0.37982947 -0.30732116
0000f0 f3 17 32 3d 1e d5 8b be 3a a0 78 3d df 40 5f be
       0.04347987 -0.27311033 0.06069968 -0.2180209

conv1.bias f4 [32]
000000 ec 81 51 3d 11 dc a9 3d f7 d6 28 be ac da fa 3c
       0.051149294 0.082939275 -0.16488253 0.030621849
000010 cc 2d 2f be bf 1c fc 3d cb a6 e5 bc 56 96 bf bd
       -0.17107314 0.123101704 -0.028033635 -0.09354846
000020 91 79 23 bd 4e 48 34 be 40 42 45 3d 24 b9 62 3e
       -0.039910857 -0.17605707 0.048158884 0.22140938
000030 6e ac 80 3d eb 54 98 3d b9 3a fc 3d 33 7d 1a 3e
       0.06282888 0.07438072 0.12315888 0.15086822
000040 2e 10 80 3e fc 51 36 be 03 c1 dc bd b1 f9 10 bd
       0.25012344 -0.17804712 -0.107790016 -0.035394374
000050 34 35 6a be fd 5a df 3c 75 75 09 be 84 19 dc 3c
       -0.22871858 0.027265066 -0.13423713 0.026867636
000060 47 55 49 3d 01 a4 1c 3e 7e 49 9e 3d db 06 d2 bc
       0.049153592 0.15296938 0.07728861 -0.025638035
000070 8c c2 27 3d d2 26 b0 bb d1 48 87 bd a4 7d da bd
       0.04095702 -0.0053757215 -0.066056855 -0.10668495

conv2.weight f4 [32, 32]
000000 5e 5c 5a 3d 42 ac 0a bd 18 6f 80 3e 30 42 7a be
       0.053310744 -0.033855684 0.25084758 -0.24439311
000010 59 24 00 be 33 40 75 be d7 b3 51 3e 5f 29 1a 3e
       -0.12513866 -0.23950271 0.2047876 0.15054844
000020 4a 8e a2 3e 02 9d 3c be 20 d3 a2 be e9 25 a2 be
       0.31749183 -0.18419269 -0.318017 -0.31669548
000030 79 63 7f be 6a ec a4 3d 64 24 15 3e a9 4b 7e 3e
       -0.2494029 0.08052905 0.14564663 0.2483355
000040 07 50 08 be a5 77 27 be 6a 74 f2 3d 38 95 18 be
       -0.13311778 -0.16354235 0.118386105 -0.14900672
000050 b5 00 4f 3e e9 db 96 bd 07 a2 68 3e 69 32 4b be
       0.20215113 -0.07366163 0.22718059 -0.19843449
000060 36 52 4e be 3f 7b 0c 3e 1d 3d 7e 3c f8 75 21 bd
       -0.20148548 0.1371889 0.0155175 -0.039419144
000070 4d 77 24 3e 30 86 20 3e 61 45 7e be 3d f9 6f be
       0.16061135 0.15676188 -0.24831153 -0.2343492
000080 dc 96 75 3e c4 36 92 bd ff 86 fb bd 9c db b9 be
       0.2398333 -0.07139352 -0.12281608 -0.3630036
000090 a6 c9 fe bd 32 88 ac 3c 01 2f d9 bd 28 95 2f be
       -0.12440805 0.021061037 -0.106046684 -0.17146742
0000a0 3a 71 0c 3d 01 f8 10 be be 86 8b be 0b fd 7b be
       0.03428767 -0.14157106 -0.27251238 -0.24608247
0000b0 f5 f6 9e be ed 92 74 be d7 71 ae 3e f8 6c 5d 3d
       -0.31047788 -0.23884173 0.34071228 0.054059
0000c0 d1 cf f2 3d a6 77 73 be 65 98 7c be 53 5a 03 be
       0.11856044 -0.23776111 -0.24667509 -0.12827425
0000d0 f0 e1 88 3d 43 ef 8a be 32 b9 9f bd 2e b2 11 be
       0.06683719 -0.27135667 -0.07798995 -0.14228126
0000e0 e6 de 3e bd 45 49 8b bd 9b fc 85 bd 7d 4d 2c be
       -0.04659929 -0.068010844 -0.06542321 -0.16826434
0000f0 77 1d 70 be 80 2f 6d be 97 77 0d be bb 5f 9f be
       -0.2344874 -0.23162651 -0.13815151 -0.31127724
000100 e5 74 a1 3e 7d b2 da bd 83 5e 94 3e 65 88 3d 3e
       0.31534496 -0.10678575 0.28978357 0.18509062
000110 c3 7d b0 be a9 e7 8c 3e 94 71 6b 3c be cd 3d be
       -0.3447095 0.27520493 0.014370341 -0.18535516
000120 36 1d 96 be 68 e2 cc be 22 73 ee 3d 3f 9c 12 3d
       -0.2931916 -0.40016484 0.116430536 0.03579354
000130 9d 5a 37 3e bd c8 42 be 9c 58 31 3e 0f d1 63 be
       0.1790566 -0.19021888 0.17318958 -0.22247718
000140 db cc ac bd ea 91 b4 bb d4 8f 60 3e d3 19 98 3e
       -0.084375106 -0.0055105584 0.21929866 0.29707202
000150 23 8f 79 3e d9 08 6f be bd 75 28 3c 30 e6 4d be
       0.24371009 -0.23343219 0.010281977 -0.20107341
000160 37 45 65 3d 87 77 95 be d5 ef b1 3e c7 47 8f be
       0.05597421 -0.29192755 0.3475329 -0.2798445
000170 4a 51 45 3e 06 39 38 3e d9 67 0e 3e 57 e8 9f bd
       0.1926929 0.17990503 0.13906802 -0.07807987
000180 e2 2a 79 3e ad 80 bc 3d c6 b9 19 3d 67 2e a6 be
       0.24332765 0.092042305 0.037530683 -0.32457277
000190 3c 68 34 3e 36 b6 ce bd 46 06 4e be 24 d5 9c 3e
       0.17617887 -0.10093348 -0.2011958 0.30631363
0001a0 48 b3 b9 3d 7f 61 dc bd f1 7c 2a be 60 1f ad bd
       0.09067398 -0.107607834 -0.16649224 -0.0845325
0001b0 1b 34 09 3e c6 4c ef bd 14 df 12 be 79 2b e2 bd
       0.13398783 -0.11684565 -0.1434291 -0.11043448
0001c0 a6 d8 51 be 69 b8 1a 3e 4d e7 48 3e 0e 66 9d be
       -0.20492801 0.1510941 0.19619484 -0.30741924
0001d0 df e9 b0 3d 3f f3 1f 3e 0a 9e d1 3d cb 34 96 bd
       0.08638357 0.15620135 0.10235222 -0.07334288
0001e0 46 78 fe 3d 60 89 4e 3e be 99 94 3d 79 f0 9a bc
       0.12425284 0.20169592 0.072558865 -0.018913494
0001f0 6f 79 cf bd e8 41 6b bc a3 12 a6 bd 2f 0c 1f be
       -0.101305835 -0.014358975 -0.081090234 -0.15531991
000200 ba 4c 9d 3e b5 ed ee 3d ab 84 ba 3d 95 a7 cc 3d
       0.307226 0.11666433 0.09107336 0.09992901
000210 88 09 ae bd 50 aa 6e 3c 47 e2 3d 3e 7b 71 b3 bc
       -0.08497912 0.014566973 0.18543349 -0.021904698
000220 3e 22 aa be 1b e0 3e be ac cb 96 3e 29 31 67 3e
       -0.3322925 -0.18640177 0.29452264 0.22577347
000230 ae 80 8a 3d 07 94 11 be bf 52 85 be b5 aa 97 be
       0.06762825 -0.14216624 -0.26039693 -0.29622427
000240 02 1b e2 bd 24 89 bb 3b aa e3 83 3e a8 76 9a 3e
       -0.110403076 0.0057231355 0.2575963 0.30168653
000250 36 33 93 be 1b c3 3b be dd 30 2a be b3 3f 64 3e
       -0.28750008 -0.18336146 -0.16620202 0.22289924
000260 95 d7 67 3e 7f 52 2f be f5 80 6a 3e 7a fc 3a be
       0.22640832 -0.17121314 0.22900756 -0.18260375
000270 cf 8c d5 bd ec e9 85 3e 93 0c 84 bd c5 99 26 3d
       -0.10427248 0.2615503 -0.06447711 0.04067399
000280 56 8f b6 be 55 f4 78 3e c2 f2 5b 3e b4 ce 07 3d
       -0.35656232 0.24311955 0.21479324 0.03315611
000290 f0 11 11 be 49 29 bb be 7f 5b a6 be 9a bf 91 3e
       -0.14166999 -0.36554936 -0.3249168 0.28466493
0002a0 55 d2 3a 3e 65 36 af 3e 66 eb 0e 3e ee 39 55 bc
       0.18244298 0.34221187 0.13956985 -0.0130143
0002b0 63 0d 4f bd 98 30 90 be 0c 08 5e be 53 7e 92 be
       -0.050549876 -0.28162074 -0.21682757 -0.28612003
0002c0 08 6c 1e 3e 8d 9a bf bd d6 a0 de bd 76 74 56 be
       0.15470898 -0.0935565 -0.10870521 -0.20942864
0002d0 0d 55 fc bc a3 d9 61 be b2 4d 0e be 8d b4 1b 3e
       -0.030802274 -0.22055678 -0.13896826 0.15205593
0002e0 7c 5a 19 be 9d 1c 75 3e 57 96 1c be 7b 85 36 be
       -0.14975923 0.23936696 -0.15291725 -0.17824356
0002f0 5b d6 a6 bd 96 81 59 be 03 65 04 be 13 10 be be
       -0.08146354 -0.2124084 -0.12929158 -0.3712164
000300 fd b0 4a 3e 97 23 69 be a8 1c 20 3e 79 fe 41 3e
       0.19794078 -0.22767483 0.15635931 0.1894473
000310 d0 1b 47 3e da 0c 3e be c3 4a 88 3e 17 40 39 be
       0.19444203 -0.1855959 0.2661954 -0.18090855
000320 21 48 b6 3d e1 02 6c 3e 11 09 19 bd cf 32 60 3d
       0.08900476 0.23047973 -0.037362162 0.054735955
000330 d1 4b 0c bd a8 f9 60 be f5 68 ff 3d f9 0e 96 be
       -0.03425199 -0.21970236 0.12471191 -0.29308298
000340 f8 65 33 3e 48 20 4e 3e 97 81 a8 3e 9b 3e 60 bd
       0.17519367 0.20129502 0.3291137 -0.054747205
000350 f6 d0 86 be f3 45 8c 3d 56 ff ff 3d 23 dd a6 be
       -0.263313 0.06849279 0.12499873 -0.3259059
000360 e9 77 25 bd c5 d5 5a be 5e 54 c5 3b 48 32 3f be
       -0.04039756 -0.21370609 0.0060220202 -0.18671525
000370 0a 97 d0 bd c0 a3 56 bd b2 2e 85 be a6 8a 96 3e
       -0.101850584 -0.052402258 -0.26012188 0.29402655
000380 3a 05 9b 3e db 33 ab bd c3 e7 9e 3c bf 45 b9 3c
       0.30277425 -0.083595 0.019397622 0.022616265
000390 89 50 db be ee f2 8b be 89 74 2f 3e 0f b0 82 be
       -0.4283488 -0.27333778 0.17134298 -0.25524947
0003a0 73 3d 69 be 42 cc 02 be 71 9a 8b bd 0a 2d 10 3c
       -0.22777347 -0.1277323 -0.06816567 0.008799801
0003b0 2d f4 88 3d 3a f2 11 3c 1c cb 22 be e1 00 1e be
       0.06687198 0.008907849 -0.15897793 -0.15430023
0003c0 c2 a0 81 be 97 61 3a 3e ee 1a 65 bd e5 82 09 3e
       -0.2531796 0.1820129 -0.055933885 0.13428839
0003d0 c6 b7 f4 bd 1d 63 e0 3c 0d ea 4c 3e 2e af b0 3d
       -0.119491145 0.02739101 0.20011158 0.08627163
0003e0 98 3d c5 bd 5e b2 ad 3d 41 27 ac 3e 3f 3c fa 3c
       -0.09630889 0.084812865 0.33623698 0.030546306
0003f0 9e d4 4d 3e d7 92 c0 3e 70 8d 74 bd 85 5d 0a 3e
       0.20100638 0.3761203 -0.059705198 0.13512237

conv2.bias f4 [32]
000000 e5 eb 4f bd 6a f8 28 3d eb be d7 bc 67 b4 9e bd
       -0.050762076 0.04125253 -0.026336154 -0.07749253
000010 1f 0c 8b 3d 5f bb 6b bd 6e 5d ab bd ce 08 62 3d
       0.06789421 -0.057551738 -0.0836743 0.055184178
000020 08 cd 13 3d 47 24 a2 3d 4a c5 b9 bc b5 56 ad bd
       0.036084205 0.079170756 -0.022677083 -0.08463804
000030 a4 a6 3b bd 6e 9c 3b bd 61 20 41 3d d6 72 86 3b
       -0.045813218 -0.04580348 0.04715002 0.004103045
000040 d4 ed f6 3c 6a 1f 6a 3d ae d3 49 bd 9b cb ff bc
       0.030142702 0.057158865 -0.04927414 -0.031225016
000050 d8 5e ee 3c b9 99 06 bc e8 0a 71 3d fd 72 5c 3d
       0.02909796 -0.008215361 0.05884829 0.0538206
000060 73 07 7b bd 21 d0 57 3d 2c c9 50 bd e7 eb 34 3d
       -0.0612864 0.05268872 -0.050973102 0.044170287
000070 bb 1a f2 bc 60 cc 83 bd 4c 5a 37 bd fd d0 a1 bd
       -0.029553762 -0.06435466 -0.04476385 -0.079011895

pool.weight f4 [32, 25]
000000 23 c3 97 3e 12 d0 ad bd 2b 53 0f 3f 67 5f 26 3f
       0.29641065 -0.08486952 0.5598628 0.6498932
000010 25 96 a2 bf e0 0f 11 3f 37 7a 38 3f bc a2 fa 3e
       -1.270207 0.5666485 0.72061485 0.4895228
000020 ef 74 7f 3e ef 0b 33 3f d0 7d 40 3e af c4 39 3f
       0.2494695 0.69940084 0.18797994 0.7256574
000030 a1 7b 2d 3e 62 4c 29 3f 12 0a 38 3e f3 0a 41 3f
       0.16941692 0.66132176 0.17972592 0.7540733
000040 17 c1 99 3e fd 36 25 3f f4 8c 6e 3e 50 e2 1d 3f
       0.30030128 0.6453703 0.23295957 0.6167345
000050 fe 8d 71 3e 9c d2 15 3f ce 50 03 3e 22 91 af be
       0.23589322 0.5852449 0.12823793 -0.34290415
000060 72 5f 92 be 45 bd e5 bc 86 1f 36 be af 96 28 be
       -0.28588444 -0.028044352 -0.17785463 -0.16463731
000070 82 81 e1 be 78 e9 8c 3f 3c d1 69 bc 60 78 e3 bd
       -0.4404412 1.1008749 -0.014271077 -0.11106944
000080 17 f5 d3 be c5 67 f3 be 8c 1f 43 be dc 3d 94 be
       -0.41397926 -0.47540107 -0.19055003 -0.28953445
000090 78 92 d2 3d 43 a6 0b bf 81 de c2 bd 8f fc be 3d
       0.10281843 -0.5455057 -0.095150955 0.093255155
0000a0 b1 c0 3d bd 81 e3 7d be af 3c 04 bf 85 71 6d 3e
       -0.046326343 -0.24793817 -0.51655096 0.23187836
0000b0 44 af 0f be f3 5f 01 bf e2 78 f4 3d e3 e5 b8 be
       -0.14031702 -0.5053703 0.11937119 -0.3611289
0000c0 27 41 21 3c b5 c8 01 3f 71 ef 6d 3c 30 ae 21 be
       0.009842194 0.5069688 0.014522419 -0.15789104
0000d0 47 ae 8b 3e 24 8a 79 3e 8f d3 5d bf c4 88 f6 bd
       0.272814 0.24369103 -0.8665094 -0.12037805
0000e0 9d 46 39 3e b1 4e 56 3d 58 3a ce bb f6 42 1a be
       0.18093343 0.05232114 -0.006293576 -0.15064606
0000f0 31 3f a3 3e 30 46 71 3e 96 1a c7 bd d9 e6 e4 3e
       0.3188415 0.2356193 -0.09721868 0.44707373
000100 74 3d 8a 3e df 2d 59 3e b4 9c 20 3e eb 3b 4b 3e
       0.2700001 0.21208905 0.15684777 0.19847076
000110 9b 40 e3 3e 47 e0 b6 3e 2e 57 ba bd d0 17 e2 3e
       0.44385228 0.35717985 -0.090986595 0.44158792
000120 85 e4 5a 3e 0f 9c 37 3e 02 94 c4 3d e4 27 06 3f
       0.21376236 0.17930625 0.09598543 0.5240462
000130 99 10 29 be a4 b4 03 3f 80 b4 a2 3d f7 7e 71 bf
       -0.16510238 0.5144751 0.07944584 -0.9433436
000140 fe 0f 8e bd 16 e8 ca 3d 09 db 3f 3e 1a 90 fa 3d
       -0.06936644 0.09907548 0.18735899 0.122345164
000150 03 82 d0 3d 38 a1 6e 3e 88 9f f5 3e 10 d2 c1 3e
       0.10181048 0.23303688 0.47973275 0.37855577
000160 45 d8 bf 3e e3 e9 a0 3e 25 5c d2 3e c5 75 ad 3e
       0.37469688 0.3142844 0.41085926 0.33878914
000170 d3 de 33 3e 97 da 68 3e 6e 1a 20 be 66 67 a2 bd
       0.1756547 0.22739635 -0.15635082 -0.07929878
000180 c1 f5 3f 3e 36 0b a8 3d 07 b0 8e 3d c0 30 51 be
       0.18746091 0.08205263 0.06967168 -0.20428753
000190 25 66 73 be 2c 39 93 3d b0 b4 bd be 6e 7b 6e bd
       -0.23769434 0.07188639 -0.37051916 -0.05822318
0001a0 ac ef 9f 3f db 09 e2 be 81 c2 f8 be 29 04 05 bf
       1.2495017 -0.44148144 -0.48585895 -0.5195947
0001b0 24 2e bc be 67 6c 9c be 0e c1 51 be 08 d2 cc be
       -0.36753953 -0.30551454 -0.20483801 -0.4000399
0001c0 00 5e c2 be 8b 53 b7 be 1c 96 a6 be 1d 63 07 3e
       -0.3796234 -0.35805926 -0.325364 0.13221402
0001d0 4a 3d 06 bf ff 6f e1 be 46 f0 d2 bd d2 c9 c7 be
       -0.5243727 -0.4403076 -0.10299735 -0.39021164
0001e0 96 b7 84 3c ac be 16 3c 48 f2 56 3d d1 3b a5 be
       0.016200822 0.009200733 0.05247715 -0.322722
0001f0 fe 12 a7 3e 8b d6 12 3f bf e0 84 bd 99 48 16 3f
       0.32631677 0.57358617 -0.064881794 0.58704525
000200 5b f2 10 3f 77 c3 5f bf 54 4d ce 3e 43 de 16 3e
       0.56619805 -0.8740763 0.40293372 0.14733224
000210 62 63 a9 bb a5 1a a9 3e 65 c8 ac 3e 90 e4 03 be
       -0.005169318 0.3302814 0.3374664 -0.12880158
000220 86 9d a1 3e e4 0f 19 bc 1b f9 0c 3f 7d 6b 14 3f
       0.31565493 -0.0093421675 0.55067605 0.57976514
000230 45 30 ab 3e 73 6d 0e 3e 61 c5 cd 3e e9 38 f7 3d
       0.33435264 0.13908939 0.4018965 0.120714016
000240 9e 5e 31 3e bc ea a6 3e 67 95 f9 3e 51 f8 dd 3d
       0.1732125 0.32600963 0.48746797 0.10838378
000250 fd 68 fa bd 74 30 e9 bd dd c6 ca 3e dd 77 07 3f
       -0.12227056 -0.11386195 0.39604846 0.5291727
000260 e9 0a 3c 3e d8 d3 d3 3e cc 70 63 bf bc 06 6c 3e
       0.18363537 0.4137256 -0.8884399 0.23049444
000270 86 96 08 3f 90 bf bf 3e d1 bf c5 3c ba e4 8d 3e
       0.5335468 0.37450838 0.024139317 0.27713567
000280 38 c9 38 bb 81 8e 21 3e 7d eb 9e 3e 61 8b a1 3a
       -0.0028196108 0.15777017 0.31039038 0.0012324863
000290 61 da 93 3e b1 a2 94 3e 45 1f 95 3e 8e 6b 19 3f
       0.28877547 0.29030374 0.2912542 0.5992974
0002a0 3c 95 2b 3d 24 84 91 3e a7 3a ca 3e ce 1b 02 3d
       0.041890368 0.28421128 0.39497873 0.031764798
0002b0 09 d9 d0 3e 0f 13 ae 3e 92 1f 89 be cc cf f8 be
       0.40790585 0.33998916 -0.267819 -0.48596036
0002c0 a1 72 63 3e 73 b0 d4 3b e0 2c ff be a6 f9 98 3f
       0.22211696 0.006490761 -0.49838924 1.1951187
0002d0 c4 7d 72 be 15 6e 0c bf c9 c0 62 be 1d 85 b5 bd
       -0.23680788 -0.5485547 -0.22143854 -0.0886328
0002e0 f3 d3 90 be 2b 4b 2b bd 47 6f 0d bf 9e a3 5d 3c
       -0.28286704 -0.041819733 -0.5524792 0.013527779
0002f0 48 8b 0d 3d b9 5b e5 bc 4d 6c 0a be 3c f6 7c be
       0.034556657 -0.027997838 -0.13517876 -0.24703306
000300 85 f8 e0 be 43 29 8f be 66 78 9f be d3 1e c4 be
       -0.43939605 -0.27961168 -0.31146544 -0.38304767
000310 70 a2 de be 5e 74 3f bb 32 45 35 3e 91 3c 33 be
       -0.43483305 -0.0029213647 0.17702177 -0.17503573
000320 05 71 73 be 97 23 b1 bc cc 24 af bc 81 40 27 be
       -0.23773582 -0.021623416 -0.02137985 -0.163332
000330 32 79 9b 3f 2b d0 cb be 44 fd 9a bd 1e 39 69 bd
       1.2146361 -0.39807257 -0.07567838 -0.056939237
000340 4b e5 19 bf b9 8d 0b bf 69 f6 04 bd d1 d5 b4 bb
       -0.601155 -0.54513127 -0.032461558 -0.005518653
000350 c5 21 f4 be 86 94 8d be d8 ff a0 be ff 95 56 be
       -0.47682014 -0.27652377 -0.31445193 -0.20955656
000360 8b 31 0c bf da 15 d8 bd ec 35 0f 3e 2d bb a6 be
       -0.54763097 -0.10551043 0.13985413 -0.3256468
000370 32 9b 83 be 62 68 91 be 7a cd 39 be fd 7e a8 3e
       -0.25704342 -0.2839995 -0.1814479 0.32909384
000380 86 b2 93 3e 9a d8 ee be 3c db 78 3d a5 30 00 bf
       0.2884714 -0.4664963 0.060755953 -0.50074226
000390 f6 c3 f7 be e9 66 84 3f 2c e9 1a bf ac 7d ad be
       -0.48391694 1.0343906 -0.6051204 -0.33884943
0003a0 fa cd 1a bf 2c 2b a7 be 66 ba a1 be 12 fe 85 bd
       -0.60470545 -0.32650125 -0.31587523 -0.06542601
0003b0 00 a5 13 bf a3 00 2d bf 16 fc 69 be ae 0c ba bd
       -0.57673645 -0.67579097 -0.2285007 -0.0908445
0003c0 e3 64 24 bf 85 ec 8f be 8c d3 19 bf e2 0a cf bd
       -0.6421644 -0.28110138 -0.6008842 -0.101094976
0003d0 9c bc bd 3d d4 1b 78 bd 03 25 18 bf 53 56 ed bd
       0.0926449 -0.060573414 -0.59431475 -0.11588731
0003e0 4d 9c 20 3e aa f0 09 3e 89 8e 24 3f 01 e1 71 3c
       0.15684624 0.13470712 0.6427999 0.014763118
0003f0 d9 c7 6e 3e 81 04 31 3e f9 7f 6c bf 01 41 aa 3e
       0.23318423 0.17286874 -0.9238277 0.3325272

pool.bias f4 [25]
000000 b8 f0 93 be 14 52 96 bd e5 94 8c be f1 05 a2 be
       -0.2889459 -0.07339874 -0.27457348 -0.31645158
000010 9c 3e 5d 3f e6 e8 58 be ba 42 6c be 5c f7 82 be
       0.8642366 -0.21182594 -0.23072329 -0.25579345
000020 4b ff 5a be 1f c8 53 be a0 dd bd bd 38 2d 1f be
       -0.21386449 -0.20681809 -0.09270787 -0.15544593
000030 24 3f 72 be cb f9 78 be db 89 6e be b1 08 5b be
       -0.23656899 -0.24314038 -0.23294775 -0.21390034
000040 e3 8c b6 be 0b 1b 53 be ca 46 9e bd d7 7a a2 bd
       -0.35654363 -0.20615785 -0.07728346 -0.07933586
000050 62 97 45 be 0e 7f 4e be 22 ba 64 be b3 26 44 3d
       -0.19296029 -0.20165655 -0.22336629 0.04788847
000060 7b 9e 3e 3e
       0.18615143

conv3.weight f4 [32, 32]
000000 1d 3c 20 3e 5f e0 69 be d4 22 af 3d ea 7a 7f 3e
       0.15647931 -0.22839497 0.08551565 0.24949232
000010 15 e6 ab be c7 21 16 3d 04 67 d7 bd 81 b6 2c be
       -0.33573976 0.036653306 -0.105176955 -0.16866495
000020 f7 11 d9 3d 37 d7 d0 3c dd 81 80 3e 7c e7 06 be
       0.1059913 0.025493247 0.25099078 -0.13174242
000030 21 72 23 3e 52 73 60 be 9e d9 e9 bd 59 b1 d6 bc
       0.15961505 -0.21918991 -0.1141846 -0.026207613
000040 fb ff 88 3e bb 1d e5 3d 13 7c 99 be b4 6d 47 bc
       0.26757798 0.11187311 -0.29977474 -0.012172151
000050 17 70 14 be 40 c5 43 bd 86 86 30 be 53 56 2d be
       -0.14495884 -0.047795534 -0.17238817 -0.16927461
000060 45 c7 2e 3e 73 5b ae be 1a 35 78 be c9 b3 c5 3d
       0.17068203 -0.34054145 -0.24239007 0.09653432
000070 98 95 f5 3d 25 37 1d 3c fb 21 72 3e 42 3a 37 be
       0.11991423 0.009595667 0.23645775 -0.17893317
000080 71 4e 25 be a2 03 4b be 2e cb 43 bd 3a 0e 35 bd
       -0.16143204 -0.19825605 -0.04780119 -0.04420302
000090 aa 5b 4b 3e b6 f2 c5 3b 8f 84 c4 3d 52 7c ce bd
       0.19859186 0.0060408963 0.09595596 -0.10082306
0000a0 8a a9 89 3e 06 0c 7f 3e 1d 0d 8c be b1 1a 8d bd
       0.2688716 0.2490693 -0.27353755 -0.068898566
0000b0 51 2e 82 be ef cd 15 3e 4d 70 8e be d7 75 0b be
       -0.25425962 0.14629339 -0.27820054 -0.13619171
0000c0 ae 29 97 3e 59 bf 90 be 50 a6 59 3e e4 7b f3 3c
       0.29523987 -0.28270987 0.2125485 0.029722162
0000d0 90 16 51 3e 65 04 13 be dd 33 55 3e 8c d2 44 3d
       0.20418763 -0.14357145 0.20820566 0.048052356
0000e0 25 82 58 3d 16 e9 70 3e d4 da 8e be 4b 0a 87 be
       0.05285849 0.23526415 -0.27901328 -0.2637504
0000f0 d8 d6 8a 3e e3 2d 3a be 58 0e 67 be 93 78 bf bb
       0.27117038 -0.18181567 -0.22564065 -0.005843231
000100 0e d3 e4 bd 80 fe 88 bd b9 83 59 be f6 f6 9b 3d
       -0.11173068 -0.06689167 -0.21241654 0.076154634
000110 b4 ec 89 be a8 a1 b6 bb ef 7b 35 3e cd 91 14 3d
       -0.26938403 -0.00557347 0.17723058 0.03627186
000120 ad 0b a8 3c 7d a5 51 3d 53 0e c2 bd f7 4f 9e bd
       0.02051338 0.051183213 -0.094753884 -0.07730096
000130 09 d6 05 be b1 c4 60 be ab d6 1a be 95 48 97 3e
       -0.13069929 -0.21950032 -0.15120952 0.29547563
000140 34 1e 2d bd 6e 42 d6 3d 07 28 64 3e 43 a1 ec bc
       -0.042265132 0.10461889 0.22280894 -0.02888549
000150 13 be ea bd 0d c1 5c be 1e 7f 02 be 4b 0a cf 3d
       -0.11462035 -0.21558018 -0.12743804 0.10109385
000160 eb 42 94 be 80 e3 62 bd 68 fe da 3d 47 51 87 3e
       -0.28957304 -0.055392742 0.106930554 0.26429197
000170 0d b4 de 3d a6 1e 6c 3d 89 1a 56 3e 10 76 0b 3e
       0.10874186 0.057646416 0.2090856 0.13619256
000180 e1 8b b4 3d d9 3c f2 bd b6 b1 80 be 5c 8e cc bd
       0.08815742 -0.11828012 -0.25135583 -0.099880904
000190 0d 78 84 bd db be 34 bb de 87 11 bd 9f 04 d4 3d
       -0.0646821 -0.002757958 -0.035529964 0.10352444
0001a0 e0 9f 39 3e cc fa ec bd 63 d4 96 be da 69 30 be
       0.18127394 -0.11571273 -0.29458913 -0.17227879
0001b0 3c f6 18 be 1b 79 24 3e 61 63 3e be 54 ff 17 bd
       -0.14937681 0.16061823 -0.18592598 -0.037108734
0001c0 ca de 5f bd f7 35 43 be b3 fe 18 3e ff c2 08 be
       -0.054655828 -0.19063555 0.1494091 -0.13355635
0001d0 1a 5e 03 3d 4e 4e 66 be 4a 50 32 bd 3c 1d 04 3d
       0.032072164 -0.22490808 -0.0435336 0.032254443
0001e0 7c 30 32 bd da 49 09 be d3 91 a7 3d e5 02 81 bd
       -0.04350327 -0.13407078 0.08182111 -0.0629938
0001f0 d0 06 1f be 9d 08 68 be 7a cf 84 bd 68 f5 95 be
       -0.15529943 -0.22659536 -0.064848855 -0.29288793
000200 ca 27 89 3e be 75 d4 bd 6d be dd bd dc b5 87 3d
       0.2678817 -0.1037402 -0.108273365 0.06626484
000210 1a 64 96 3d 9d f8 32 3c 9b f5 56 3e d2 a4 18 be
       0.073433116 0.010923532 0.20992129 -0.14906624
000220 81 44 06 3e c9 59 7f bb 43 d6 77 be 06 5d c0 bd
       0.1311207 -0.0038963428 -0.24202828 -0.09392743
000230 61 20 a2 3d 74 28 92 3d 09 42 5b 3e e2 e3 55 3e
       0.07916332 0.07136622 0.21411909 0.20887712
000240 30 ab 2f be 85 98 0a be 47 e4 9a bd 41 ea 5d be
       -0.17155147 -0.13534744 -0.07563072 -0.21671392
000250 34 10 0d be c8 bf 79 be 6a e9 05 3e 22 7a 65 3e
       -0.13775712 -0.24389565 0.13077322 0.22409871
000260 f5 3b 82 3d 5b 42 48 be 81 55 62 be 7c 22 02 be
       0.06359092 -0.19556563 -0.2210293 -0.12708467
000270 1f 39 8c 3d 0b 50 79 3c 4b 46 6d 3d 2a ab 94 3e
       0.068468325 0.015216838 0.057928365 0.29036838
000280 5e d2 fa 3d 16 1d 37 3d 87 8b 92 bd 1f a2 ec 3d
       0.122471556 0.044705473 -0.07155519 0.1155436
000290 72 de bb 3d 98 4a 95 be 48 71 3c be 44 e6 89 bc
       0.091732875 -0.29158473 -0.18402588 -0.016833432
0002a0 c9 0e d1 3d 29 0a 28 3e 60 25 3e be 98 98 9c be
       0.10207898 0.16410126 -0.18568945 -0.3058517
0002b0 07 28 9f bc de 3a 47 bd 71 ef ca 3d 93 37 b5 bd
       -0.019428266 -0.048640124 0.09908951 -0.088484906
0002c0 35 6d 76 3e 4a d1 2c 3c a2 24 73 3e bd 08 62 be
       0.24065097 0.010547945 0.23744443 -0.22073646
0002d0 ab 75 1d 3e b5 26 d2 3c b7 b0 24 be a4 05 0c 3e
       0.15376918 0.025653223 -0.16083036 0.13674027
0002e0 2e 92 a8 be 67 2a 66 3e 3f f6 6f 3c 77 c1 53 3d
       -0.32924026 0.22477113 0.014646112 0.051698174
0002f0 e1 9b 20 3e 07 fd 00 3d 8c 2c 0c 3e f0 43 40 3e
       0.15684463 0.031491306 0.13688868 0.18775916
000300 9c ba 8f be b2 d1 fb 3d c5 95 ae bd bb b5 c0 bd
       -0.2807206 0.122958556 -0.0852466 -0.09409662
000310 69 6b f4 3c ea 27 6e 3e 20 f5 39 be d2 b6 59 be
       0.029836373 0.23257414 -0.18159914 -0.21261147
000320 88 6e 18 3e 1f 91 f3 bd 58 06 c2 3d 01 c6 90 bc
       0.14885914 -0.11892914 0.09473866 -0.01767254
000330 29 54 c7 3d cf 05 75 3e 61 ca 10 be 1a 87 1e be
       0.09732849 0.23927997 -0.14139701 -0.15481225
000340 90 98 2d 3e 30 a7 95 bc b6 2f f1 bc a9 85 90 be
       0.16952729 -0.018268198 -0.029441696 -0.28226975
000350 46 32 76 3e 21 5c 04 bd 45 9b db bb a5 04 1d be
       0.24042615 -0.032314423 -0.006701859 -0.15333803
000360 f2 50 8d bd 5c 2c 9c 3d 79 98 5d ba df 6a 94 3e
       -0.06900205 0.076256484 -0.0008453201 0.28987786
000370 01 ea ad 3c ad ed d2 bc 27 da 23 3e 6b 10 d3 bc
       0.021229746 -0.025748098 0.16001187 -0.025764665
000380 b7 60 21 bd 1b e3 0a 3e 3b 8b 7c 3e 5c 08 e1 3d
       -0.039398875 0.13563196 0.24662487 0.109879225
000390 f3 54 61 3e f2 b4 62 3e 7c f9 af 3d e9 00 04 3e
       0.22005062 0.22139338 0.08592507 0.12890972
0003a0 ab 6d fc 3d 81 43 c0 3c 57 76 85 3e 55 4b 97 3e
       0.12325605 0.023469688 0.2606685 0.2954966
0003b0 4d 6e ea 3d 4a 62 df b9 9b e6 85 3e 2c b1 66 be
       0.114468195 -0.00042607106 0.261525 -0.22528523
0003c0 d7 24 59 3e bf 90 2f 3e af c0 3f 3e ce 0e 92 bc
       0.2120546 0.1714506 0.18725847 -0.017829325
0003d0 69 6c 8f be ad 56 6b 3e eb 15 01 be 8e dc c1 3d
       -0.28012398 0.22982283 -0.12606017 0.094658956
0003e0 63 cd 50 3e 8f 24 87 be 0e ed f3 3c 3f 8c 00 be
       0.20390849 -0.2639508 0.029776122 -0.125535
0003f0 2d e5 47 3e 2c 27 44 be 4a dd 3c 3e 29 ba 4a 3e
       0.19521017 -0.19155568 0.1844379 0.19797577

conv3.bias f4 [32]
000000 23 a5 77 bc a4 4e 98 3a b3 ce 27 b9 54 11 dd b9
       -0.015115055 0.0011620116 -0.00016003363 -0.00042165315
000010 e6 d8 b5 3c 37 2b 4e bc 7d cf ab 3b 2d de 58 bb
       0.022198152 -0.012583545 0.0052432404 -0.0033091411
000020 42 c4 84 3c 5e 5e 81 bc 5e 6c b4 3b 70 fc 14 bc
       0.016206864 -0.015792068 0.0055060824 -0.009093389
000030 1d 74 d5 3a bc d9 56 3c 8a 92 2e bc e6 4d 71 3a
       0.0016285215 0.013113435 -0.010655055 0.0009205028
000040 16 69 3b bc 79 58 e2 3b 09 f6 49 bc 4c 9e 11 3c
       -0.011438629 0.0069075194 -0.012326726 0.008887839
000050 41 bc 77 3b d2 34 b2 3c 7e 9c d5 ba 76 7e e0 3b
       0.0037801417 0.021753702 -0.0016297249 0.006851013
000060 04 25 f8 3c 03 6a f0 39 d6 81 12 3c cd 7b b5 bc
       0.030291088 0.00045855352 0.008942088 -0.02215376
000070 1d ea 05 3c 2a fb 0f bc cb fd 6d 3a 4a ff 95 bb
       0.008173493 -0.0087879095 0.00090786506 -0.004577552

conv4.weight f4 [32, 32]
000000 0a b5 43 bd d3 8a 4c be aa 5e 31 be 64 2e 11 3e
       -0.047780074 -0.19974832 -0.17321268 0.14177853
000010 91 26 18 be de e1 97 3e 23 61 1c 3d 3a 9b 24 3e
       -0.14858462 0.2966451 0.038178574 0.16074839
000020 44 01 db 3d ae 0c 42 3e da e8 b1 3d 95 e2 d2 3d
       0.10693601 0.1895015 0.08686991 0.10297123
000030 b2 f2 2f be 81 06 34 be 73 6e 01 3d a3 ba 68 3e
       -0.17182425 -0.17580606 0.031599473 0.22727446
000040 cb 4a 6b 3e ff 86 84 3e d7 d1 11 be 5d 39 ef bc
       0.2297775 0.25884244 -0.14240204 -0.029202158
000050 f0 a4 07 be 10 2c 8b 3e e2 ba af bd ed e3 70 bd
       -0.13246512 0.27182055 -0.08580567 -0.058811117
000060 d4 d4 80 3e 55 64 72 3d ac 39 54 be 75 fe 19 be
       0.25162375 0.059177715 -0.20725125 -0.15038474
000070 3b 46 0e be f3 f6 81 3e 6b fa 8c be 74 57 61 3e
       -0.13893978 0.2538372 -0.27534804 0.22006017
000080 63 9f 38 3e bf 3d 62 3c 8a 98 83 bc 3c 8c 66 3e
       0.18029551 0.013808667 -0.016063947 0.22514433
000090 2a c6 f8 3d 3e 94 b6 3e 1a 8c 42 3e 37 b7 27 be
       0.12147172 0.35659975 0.18998757 -0.16378485
0000a0 9d 93 b5 3d 95 d5 13 3e a8 a8 75 be 04 ec 8a 3d
       0.088660456 0.14436944 -0.23990119 0.06783298
0000b0 12 98 4d be 4d 4a 40 be 6e cc a6 3d 09 5a 96 bc
       -0.20077541 -0.18778343 0.081444606 -0.018353479
0000c0 14 a2 52 bd 30 ac 3e be c1 2f 03 3e e3 4a a8 3e
       -0.0514241 -0.18620372 0.12811185 0.32869634
0000d0 de e8 60 3c e3 9e 04 be 3b 52 9c 3d 3a cd 72 be
       0.013727395 -0.12951235 0.07632872 -0.237111
0000e0 76 2e 6c be 67 c4 cd bd 82 f2 b5 3d 6b a1 3a be
       -0.23064598 -0.100472264 0.08884145 -0.18225639
0000f0 7f 87 59 bc af dc 2e be fa b1 90 be 58 d2 8e bd
       -0.013276934 -0.17076372 -0.28260785 -0.06973714
000100 9f ae 8c bd d1 43 4a bd e0 62 58 3e af 07 fc 3d
       -0.06869244 -0.04938108 0.21131468 0.12306153
000110 c3 b3 16 3e 23 dc 22 3e b4 33 9d 3c 48 14 35 3e
       0.14717011 0.15904288 0.019189693 0.17683518
000120 f2 b0 6f be 57 d1 f1 3d 95 4b 22 3e 28 b3 37 be
       -0.23407343 0.118075065 0.15849145 -0.17939436
000130 77 3f 21 bd d5 64 5f be cf e1 5f be 9b 14 2e bc
       -0.039367165 -0.21815808 -0.21863483 -0.01062503
000140 33 a5 cb 3d ed b1 af bd 06 d4 95 3d f4 13 63 be
       0.099436186 -0.085788585 0.07315831 -0.2217558
000150 9b d0 26 be 32 08 7e 3e 69 c3 6b be b1 f0 16 3d
       -0.16290514 0.24807814 -0.23023762 0.036850635
000160 f8 3c 87 3e 47 74 73 3e 33 01 8a 3d 6e ae 63 be
       0.26413703 0.23774825 0.0673851 -0.22234508
000170 4e 9d 56 3d b9 09 f7 bd b9 6a a4 bd 3c 32 88 3e
       0.05239611 -0.12062401 -0.08028168 0.26600826
000180 87 d9 9e bd 5c ff 15 be 74 0e a9 be 2b e8 7d 3e
       -0.07756334 -0.14648193 -0.3301884 0.24795596
000190 c8 73 29 bd c2 80 8e 3e 42 3d 9e 3d 9f 95 6d be
       -0.041370183 0.2783261 0.07726528 -0.23201607
0001a0 f7 32 7c 3d 60 d4 7b 3e 08 3d 2d 3e 5a 4a aa 3d
       0.06157204 0.24592733 0.16917813 0.08314963
0001b0 42 ad 3a be c9 ac 04 be 2d 98 38 3e 93 76 83 be
       -0.18230155 -0.12956537 0.180268 -0.25676402
0001c0 d6 75 7d 3d 05 53 db bd b2 bd 8f 3d 74 83 02 bd
       0.061879955 -0.10709194 0.070186034 -0.031863645
0001d0 64 35 7a be 08 04 d3 bd 29 52 8f 3e 4e b6 93 3c
       -0.2443443 -0.10303503 0.2799237 0.018031266
0001e0 7f f0 ec 3d d2 61 c3 bd dd 34 71 3e 00 82 8b bd
       0.115693085 -0.09540142 0.23555322 -0.06811905
0001f0 99 e0 3c bd 1a 7a b1 3d 2f 91 db bc 09 98 a3 bd
       -0.04611263 0.08665867 -0.026802627 -0.07987983
000200 31 a9 82 bd d0 f3 3b ba 37 32 4a be 53 fd f3 3d
       -0.06379927 -0.0007169815 -0.19745718 0.11913552
000210 8d 61 a3 be 51 f0 4d 3e 93 de 92 3e fa 45 90 3d
       -0.31910363 0.20111205 0.28685436 0.07044597
000220 95 f4 a6 bd f7 84 9a be c0 79 12 3e 07 6d 71 3e
       -0.08152119 -0.3017957 0.14304256 0.23576747
000230 c0 e2 83 3e 10 2e 16 3d 07 0c ef 3d 4b 04 8f 3e
       0.25758934 0.036665022 0.11672216 0.27932963
000240 1b 44 89 3d a3 13 2d be c6 27 9b be 72 e2 00 3e
       0.06702443 -0.16902022 -0.30303782 0.12586382
000250 4c 4a df 3d 7e 45 96 3e 45 a1 d5 bd a2 08 fc 3d
       0.10902843 0.29349893 -0.1043115 0.12306334
000260 b9 89 cf bd 9b 3b 60 bd 16 4d 2d 3e b8 64 80 be
       -0.101336904 -0.054744344 0.16923937 -0.25076842
000270 c0 1b 7d 3e d2 db 12 3e b8 6c 27 be 16 17 39 3e
       0.24717617 0.14341667 -0.16350067 0.18075213
000280 e7 10 be bd 4f b5 41 3d e0 82 df bd 5b 24 90 be
       -0.092805676 0.04729205 -0.10913634 -0.28152737
000290 89 18 6a bd 4d d3 22 3e 25 23 f4 bc 44 49 03 be
       -0.057152305 0.15900917 -0.029801914 -0.12820917
0002a0 b7 d8 02 3b aa c9 08 3d 39 64 ae bd a1 32 80 be
       0.0019965598 0.033395447 -0.0851521 -0.25038627
0002b0 9e 39 28 be 03 c0 18 bd 3d f5 fb 3d 8f 75 83 3e
       -0.16428229 -0.03729249 0.12302635 0.25675628
0002c0 7a 2d c8 3c 83 66 af 3d 77 ef 28 3e 89 26 14 be
       0.024435747 0.085644744 0.16497599 -0.14467825
0002d0 97 a9 e9 bd 0c 6c 64 3e 3f d1 8a 3e e2 08 7e 3d
       -0.114093 0.22306842 0.27112767 0.06202019
0002e0 ee c8 74 be 87 31 4c 3e 11 8d 83 be 3a cb 37 3e
       -0.23904774 0.19940768 -0.25693563 0.17948619
0002f0 fd 07 75 3d 47 b4 d2 3d fe 21 8d be fc 76 a6 bd
       0.05982207 0.102882914 -0.27564996 -0.08128163
000300 15 db e0 3d cc 5e 81 3e 3f b2 e4 bd 46 47 93 3e
       0.109792866 0.25267637 -0.1116681 0.28765315
000310 72 28 bd bd 0e 9e 30 be 86 d3 03 be 08 6b 1f 3d
       -0.0923623 -0.17247793 -0.12873659 0.038920432
000320 1d c9 84 bd e1 4b 00 3e ad 12 2d be 20 90 d0 bd
       -0.06483672 0.12528946 -0.16901655 -0.1018374
000330 7e 1b 9d be e4 f7 84 3e d0 bf 2b bd 3b bb 83 be
       -0.30685037 0.25970376 -0.041930974 -0.25728783
000340 8c 8d 01 3c ca 3d be bc 1d e1 96 3d be 7b 28 bd
       0.007907283 -0.023222823 0.07367156 -0.041133635
000350 4d e2 3a 3e aa 50 af bd e3 f1 24 bd 61 c3 a8 bd
       0.1825039 -0.08560307 -0.040269744 -0.082403906
000360 7b 02 63 3d 75 3a 89 3e 3d 15 bb bc 1e 47 88 3e
       0.055422287 0.26802412 -0.022837276 0.26616758
000370 5a 7e 85 3e fb 42 23 be a5 9a 0d bc 28 cd f1 bd
       0.2607296 -0.1594352 -0.008642827 -0.118067086
000380 35 8b 00 3e 1f 34 6d bd d8 ee 23 3d b4 b3 85 3d
       0.12553103 -0.057911035 0.0400227 0.06528416
000390 85 ac 7c be 45 d8 44 be 95 38 93 be fb 9a 0a be
       -0.24675186 -0.19223125 -0.28754106 -0.13535683
0003a0 de 3f 9e 3d 07 ad 5c bc 8d 4f 78 3e 17 69 90 be
       0.077270254 -0.013468987 0.24249096 -0.28205177
0003b0 fb 2d bd 3b 01 90 71 be df 14 a0 3b 82 1d b2 3d
       0.0057733036 -0.2359009 0.0048853005 0.086970344
0003c0 b2 ca 83 be 6c 93 6b 3e 47 7b e0 bd 00 3b 70 3e
       -0.25740582 0.23005456 -0.10961013 0.23460007
0003d0 b2 f1 87 bd dc 9b 4b 3e e3 81 a2 3e e0 68 fe bd
       -0.066378966 0.19883674 0.3173972 -0.12422347
0003e0 94 d4 9c bd ce a1 51 3e 02 6f 83 be 1e 86 40 3e
       -0.076577336 0.2047188 -0.2567063 0.18801162
0003f0 24 a1 20 be 49 72 9f 3e 85 e1 15 be 6e bf c1 bd
       -0.1568647 0.3114188 -0.1463681 -0.094603404

conv4.bias f4 [32]
000000 99 c8 b9 bc 0a 34 16 3c 9f bc 33 bc 9e ec 6e 3c
       -0.02267866 0.0091676805 -0.010970264 0.014582781
000010 06 e6 06 3c d7 f1 5a 3c f1 5c 96 3b d0 cc b7 3c
       0.008233553 0.013363323 0.004588716 0.02243653
000020 92 c8 09 bc ca f4 02 3a f0 3c ab bc 06 4e 4f bc
       -0.008409636 0.0004995583 -0.02090308 -0.01265288
000030 52 53 6c bc 53 ab 38 bc 19 21 84 3c b6 bf e5 3b
       -0.014424162 -0.011271316 0.016129063 0.007011379
000040 d8 34 1a 3b 50 12 bc 3b 4f 3a 34 bc af 4a 0b bc
       0.0023530032 0.0057394877 -0.01100023 -0.008501693
000050 10 dc 0c 3c 9a 13 d8 3c 5c 68 70 3d 37 bb cc 3b
       0.008597389 0.026376534 0.058693275 0.0062479037
000060 ba 4c 9f bb 56 d1 2a 3c 11 31 28 bc ea fe e1 3c
       -0.0048614414 0.010425886 -0.010265605 0.027587373
000070 28 ab 01 3d 21 37 5a 3a c0 f2 b9 ba e6 40 88 3a
       0.031657368 0.0008324255 -0.0014186725 0.0010395318

conv5.weight f4 [32, 2]
000000 58 e9 d0 3d 5b 34 f0 bd 0e 31 d6 3d 65 5d 23 be
       0.10200757 -0.11728736 0.10458575 -0.15953596
000010 04 46 7b be e0 c9 cc 3e c6 a5 b2 3e 44 9e 9b be
       -0.24538428 0.39997768 0.348921 -0.30394185
000020 d3 1c a6 3e 59 44 d8 3d 56 87 e9 3d 79 53 c8 3e
       0.32443866 0.10559911 0.114027664 0.39126185
000030 ba 35 81 3c 7b fb 6f bd 62 20 84 3e 9c a0 c1 bd
       0.01577269 -0.05858944 0.25805956 -0.09454462
000040 95 54 db bd e3 48 29 be 53 b5 b7 3e 50 ec 21 3e
       -0.10709492 -0.1653171 0.35880527 0.15812802
000050 26 34 9a bc 70 59 e8 bb 5c 46 00 3d a9 c9 61 be
       -0.018823694 -0.00709074 0.0313171 -0.22049583
000060 9c ee f7 3d 3e b1 86 be b8 32 0f bc 40 ab a5 bc
       0.12106058 -0.263071 -0.00874012 -0.02022326
000070 00 1d 2a be 02 c2 bd 3e 76 2c cf 3d 1b 50 25 3e
       -0.16612625 0.3706208 0.10115902 0.16143839
000080 7d dd 69 be 03 b5 87 3d 06 66 d1 3d ba 11 34 3e
       -0.22838397 0.06626322 0.102245376 0.17584887
000090 dd 80 9f bc 3d 63 35 bc a9 7e 4a be eb 53 3f 3e
       -0.019470626 -0.0110710235 -0.1977488 0.18684356
0000a0 0e b5 85 3e 8b 27 42 3e d0 88 50 3e e0 6c 72 3e
       0.26114696 0.18960397 0.2036469 0.23674345
0000b0 58 e1 c8 3e b1 b3 f2 3d ff 5b eb 3d d8 5a bf 3d
       0.39234424 0.1185068 0.11492156 0.09343499
0000c0 89 ef 45 be b8 59 e9 3d 21 d6 bb 3d 81 08 86 be
       -0.19329657 0.113940656 0.09171701 -0.26178363
0000d0 93 1e 08 be 56 9e 82 be 5f cd 87 be 30 37 79 3e
       -0.13292913 -0.25511426 -0.26523873 0.24337459
0000e0 9b 7a 8f 3e c1 df 68 bd 98 57 09 3e 5d 8a d3 bd
       0.28023228 -0.056854013 0.1341232 -0.10329125
0000f0 45 2d 5f 3c fe ad a0 bd ad 8f 40 be 32 4c 22 be
       0.013621633 -0.078456864 -0.18804808 -0.15849379

conv5.bias f4 [2]
000000 3e 8c 3b 3e 70 5d 28 3e
       0.18315217 0.16441894
