GST-recon/checkpoints/best_grid_ASAP_0.5.pth (torch, 29548 bytes, 18 tensors)

conv1.weight f4 [2, 32]
-0.19166993 -0.3611156 0.13800463 0.1554805 -0.09913414 0.17408648 -0.3468995 0.2679071
-0.12169618 0.34912667 0.31666505 -0.018565387 -0.34501982 -0.48155198 0.058247093 -0.17438842
-0.04800744 -0.4539354 0.3648082 -0.25053352 0.30796912 -0.1058534 0.39028224 0.2486567
0.25582355 -0.018502938 0.2743347 0.11661421 0.3140846 -0.46974805 0.22859071 0.35641643
-0.0033986017 0.12317646 0.19520012 0.47786033 0.05227345 -0.026121933 -0.083110996 -0.12464107
0.36079612 -0.36389875 -0.42472598 0.57015604 0.37810507 0.119878694 0.0868095 -0.06928983
-0.0018004833 -0.47062838 -0.6172931 0.5314902 0.48631975 -0.06649034 -0.23693231 0.11883804
0.028464068 -0.17556229 0.0034645444 0.3745619 0.021461977 0.072202 -0.18433188 -0.40367225
00000000: 1f45 44be 25e4 b8be 1651 0d3e 4836 1f3e
00000010: d706 cbbd ba43 323e d09c b1be 1f2b 893e
00000020: d93b f9bd bbc0 b23e ec21 a23e 7016 98bc
00000030: 70a6 b0be fb8d f6be 8194 6e3d e192 32be
00000040: 73a3 44bd 396a e8be 24c8 ba3e ee45 80be
00000050: 21ae 9d3e abc9 d8bd 13d3 c73e dd9f 7e3e
00000060: 4efb 823e 7993 97bc 9975 8c3e 6ed3 ee3d
00000070: b2cf a03e d182 f0be af13 6a3e 377c b63e
00000080: 13bb 5ebb f143 fc3d 8ae2 473e 1caa f43e
00000090: af1c 563d aafd d5bc 1936 aabd d143 ffbd
000000a0: 45ba b83e f050 babe af75 d9be bff5 113f
000000b0: fd96 c13e f682 f53d 2ec9 b13d d4e7 8dbd
000000c0: 32fe ebba 34f6 f0be ec06 1ebf be0f 083f
000000d0: e7fe f83e 162c 88bd 629e 72be 5c61 f33d
000000e0: 7a2d e93c 9ac6 33be 690d 633b 94c6 bf3e
000000f0: 07d1 af3c a4de 933d 7fc1 3cbe 21ae cebe

conv1.bias f4 [32]
0.05778631 0.083977215 -0.10750514 -0.14470367 -0.024524143 -0.05638259 0.09671121 -0.049238987
-0.06996627 -0.028117104 -0.019040601 -0.060946554 0.014616313 0.08003772 0.010638069 0.10419591
0.01912823 0.23810345 0.0813405 -0.07940083 -0.19276884 0.10104322 -0.00048951537 -0.0704185
-0.10530852 0.024702262 -0.08785039 -0.14676307 -0.10988609 0.115457915 0.06582789 0.030336294
00000000: 56b1 6c3d 3ffc ab3d a82b dcbd 332d 14be
00000010: dbe6 c8bc 6ef1 66bd 8710 c63d d2ae 49bd
00000020: 7a4a 8fbd d755 e6bc 09fb 9bbc 18a3 79bd
00000030: 4379 6f3c d1ea a33d 4c4b 2e3c aa64 d53d
00000040: ceb2 9c3c 64d1 733e d995 a63d e79c a2bd
00000050: 3265 45be bfef ce3d d252 00ba 9337 90bd
00000060: feab d7bd 665c ca3c e8ea b3bd 0f49 16be
00000070: f50b e1bd 3375 ec3d c6d0 863d d283 f83c

conv2.weight f4 [32, 32]
-0.13349524 -0.011442227 -0.21328168 -0.1810081 0.11799091 0.24440734 -0.0065967436 -0.121386774
0.17554359 -0.17018545 -0.07896577 0.30368233 0.010022868 0.08618381 0.07956582 -0.044071276
0.30195218 -0.1759181 -0.15197887 -0.121658295 -0.08933989 -0.09331849 0.14251281 0.22248
0.07669906 0.26257965 -0.11166021 -0.2183324 0.14835964 -0.022520673 -0.2578533 -0.29511082
-0.25447688 0.3208171 0.17726481 0.16052306 -0.22488636 -0.36947516 -0.23979801 0.086418286
0.041517287 -0.29252946 0.16665173 -0.02994897 -0.2618344 0.20447086 -0.11825538 0.20500013
0.13099886 0.05904034 -0.08683136 -0.41108888 -0.12205641 -0.16830309 -0.19885299 0.17449541
0.11154109 -0.3765071 0.40691528 -0.15071644 0.0013740184 -0.17139144 -0.2707257 -0.36488402
0.16562676 -0.0021909075 -0.15976788 -0.11924953 -0.42527986 0.059810992 0.20819113 0.06666707
-0.16284972 0.22701457 0.29982883 0.041097764 -0.11306453 0.11677966 0.018208744 -0.037116624
-0.3189291 -0.22765559 0.025202058 0.021885553 0.18813865 0.033481862 -0.050073277 -0.21012564
-0.14658187 0.18857744 0.18746883 0.016842183 -0.16464064 0.2514476 0.17676495 -0.15711616
-0.050983503 -0.19298267 -0.15582043 -0.33948314 -0.1050339 -0.448991 -0.07865197 -0.18624108
0.2595975 0.17026536 0.28501338 -0.07298021 0.18579498 0.08607616 -0.19713525 0.08741743
-0.28473473 -0.016447851 0.1756238 -0.060978506 0.26796526 0.11981007 -0.014974911 0.21882294
0.12780437 0.010420815 -0.30053407 0.19977549 0.4302549 0.2869648 0.1827085 0.35138533
0.22689223 -0.22944847 0.07406864 -0.07913301 0.134954 -0.15160614 0.08861597 -0.22387867
0.1570132 0.21852486 -0.08856392 -0.2278286 -0.30278945 -0.0034124153 -0.020074824 0.039994903
0.08870346 0.25476143 -0.14259647 -0.030804997 -0.13500804 0.2749302 0.09632048 0.01397867
0.16683519 0.0065631284 0.17685264 -0.08114412 -0.008992363 -0.0790887 -0.15263523 -0.091810934
0.096226975 -0.1393648 0.053051364 -0.038285933 -0.1769962 -0.1123982 -0.24046107 0.065264106
0.12153058 0.22488908 0.25467104 0.040683538 0.22197483 -0.12245355 0.25915864 -0.12403966
-0.09386509 -0.13497221 -0.11542489 -0.2321074 -0.10779032 0.26760888 -0.13736318 -0.3703563
-0.21335134 0.32091886 0.059082758 -0.012193696 -0.14297745 0.19361524 -0.26089895 0.24039905
0.026188377 0.32727548 -0.16846883 -0.13924615 -0.025367137 0.31563866 -0.054118473 -0.24899162
0.2011951 -0.04021789 -0.03512335 -0.21638003 -0.31635073 0.3038526 -0.23777609 -0.082678325
0.0067797955 0.20395893 -0.3687777 -0.31457582 -0.12702219 -0.18147586 0.15645847 0.24534272
0.09358901 0.04084718 -0.040157303 0.0052192537 -0.37458777 -0.1256815 -0.25181398 -0.41956922
0.21310394 -0.10780146 -0.038842294 0.030371381 -0.113696516 0.09543431 0.104827695 0.22444578
-0.27430618 0.17647593 -0.14801617 0.08956392 0.41758317 -0.07299646 -0.06682663 0.12875468
-0.18876214 -0.17179051 0.0704834 -0.08143614 -0.052497596 -0.18206096 0.22324632 -0.4539591
-0.37217626 0.12556258 -0.017246457 0.3082896 -0.22891425 0.12251612 0.22629108 -0.07349658
00000000: fab2 08be 2e78 3bbc 8366 5abe 305a 39be
00000010: 38a5 f13d eb45 7a3e 7f29 d8bb a199 f8bd
00000020: b3c1 333e 1845 2ebe ceb8 a1bd 407c 9b3e
00000030: f536 243c 2381 b03d 68f3 a23d 1584 34bd
00000040: 7a99 9a3e e023 34be 59a0 1bbe fc27 f9bd
00000050: d5f7 b6bd c41d bfbd e1ee 113e ccd1 633e
00000060: 6614 9d3d d770 863e 1cae e4bd 8792 5fbe
00000070: 97eb 173e 467d b8bc 5905 84be c418 97be
00000080: cb4a 82be 2442 a43e e884 353e 2860 243e
00000090: 9c48 66be d92b bdbe 9c8d 75be 12fc b03d
000000a0: 080e 2a3d 6cc6 95be c0a6 2a3e 8b57 f5bc
000000b0: 290f 86be cf60 513e e02f f2bd 8eeb 513e
000000c0: 9124 063e 49d4 713d a4d4 b1bd 3e7a d2be
000000d0: b6f8 f9bd a557 2cbe 1ea0 4bbe edae 323e
000000e0: a86f e43d 8ac5 c0be 3357 d03e 6955 1abe
000000f0: 6818 b43a 3d81 2fbe 8f9c 8abe 14d2 babe
00000100: 109a 293e 5495 0fbb 319a 23be 1939 f4bd
00000110: 48be d9be 5ffc 743d 0e30 553e bf88 883d
00000120: 14c2 26be 8276 683e 2a83 993e 2156 283d
00000130: 608e e7bd 2d2a ef3d 812a 953c 9a07 18bd
00000140: ad4a a3be 8c1e 69be 8c74 ce3c 5549 b33c
00000150: 6ba7 403e 4724 093d a319 4dbd 2d2b 57be
00000160: 8f19 16be 721a 413e d4f7 3f3e 9ef8 893c
00000170: 8e97 28be bdbd 803e df01 353e 0fe3 20be
00000180: 14d4 50bd 409d 45be 648f 1fbe bcd0 adbe
00000190: 031c d7bd 26e2 e5be 4914 a1bd fbb5 3ebe
000001a0: f7e9 843e 0b5a 2e3e 46ed 913e a676 95bd
000001b0: 0a41 3e3e b348 b03d d3dd 49be e907 b33d
000001c0: c0c8 91be a5bd 86bc bad6 333e 99c4 79bd
000001d0: be32 893e fb5e f53d 5459 75bc 1f13 603e
000001e0: 26df 023e 11bc 2a3c 9adf 99be f291 4c3e
000001f0: 5f4a dc3e 0ded 923e f017 3b3e c7e8 b33e
00000200: 7056 683e 8af4 6abe 4db1 973d 7d10 a2bd
00000210: 6231 0a3e a43e 1bbe 4a7c b53d 7340 65be
00000220: 11c8 203e fbc4 5f3e 0061 b5bd e74b 69be
00000230: 3807 9bbe d4a2 5fbb f573 a4bc b2d1 233d
00000240: 29aa b53d 1770 823e cf04 12be c35a fcbc
00000250: 8c3f 0abe a7c3 8c3e ac43 c53d cb06 653c
00000260: d8d6 2a3e 830f d73b dc18 353e e32e a6bd
00000270: b454 13bc 42f9 a1bd 694c 1cbe 5f07 bcbd
00000280: a612 c53d a5b5 0ebe 634c 593d b6d1 1cbd
00000290: 7e3e 35be 0731 e6bd 6d3b 76be 30a9 853d
000002a0: 06e5 f83d 5349 663e 3e64 823e c8a3 263d
000002b0: 5f4d 633e edc8 fabd 71b0 843e 8108 febd
000002c0: 573c c0bd 2836 0abe e263 ecbd 90ad 6dbe
000002d0: 2cc1 dcbd 0804 893e efa8 0cbe 579f bdbe
000002e0: c678 5abe 7a4f a43e c300 723d 11c8 47bc
000002f0: ae68 12be 1343 463e 8c94 85be 2b2b 763e
00000300: 0289 d63c a790 a73e 1883 2cbe 8b96 0ebe
00000310: bece cfbc 649b a13e 55ab 5dbd a9f7 7ebe
00000320: 1706 4e3e 84bb 24bd 80dd 0fbd ba92 5dbe
00000330: b9f8 a1be 9192 9b3e 937b 73be 4153 a9bd
00000340: 0c29 de3b 9cda 503e 6ed0 bcbe 1510 a1be
00000350: 1b12 02be cfd4 39be a636 203e 1f3b 7b3e
00000360: 98ab bf3d 5f4f 273d fc7b 24bd 4606 ab3b
00000370: f8c9 bfbe a7b2 00be c3ed 80be c7d1 d6be
00000380: eb37 5a3e 03c7 dcbd 1919 1fbd 67cd f83c
00000390: b8d9 e8bd 1073 c33d e7af d63d 1dd5 653e
000003a0: dc71 8cbe 1bb6 343e 8d91 17be 4a6d b73d
000003b0: 76cd d53e 2b7f 95bd 66dc 88bd 44d8 033e
000003c0: dd4a 41be dae9 2fbe 9a59 903d fec7 a6bd
000003d0: b807 57bd 306e 3abe af9a 643e 546d e8be
000003e0: e38d bebe 7a93 003e 7148 8dbc 22d8 9d3e
000003f0: 7f68 6abe bbe9 fa3d d9b8 673e 6085 96bd

conv2.bias f4 [32]
-0.05907571 0.1080695 -0.040113423 0.023730582 0.1718371 0.03983256 -0.06421446 0.021355042
-0.033821102 -0.024806874 -0.056823388 -0.034250677 0.027092643 0.0057959394 -0.0024596117 -0.1024453
0.059164993 0.022289595 -0.097355634 -0.008450966 0.040019494 -0.12995256 -0.08540905 -0.10976883
0.00016706403 -0.11489194 0.012439745 -0.07685572 -0.020812377 -0.16674663 -0.19709912 -0.10233733
00000000: 5ff9 71bd 8b53 dd3d f94d 24bd a366 c23c
00000010: 11f6 2f3e 7727 233d df82 83bd c5f0 ae3c
00000020: ff87 0abd c937 cbbc a4bf 68bd 704a 0cbd
00000030: 64f1 dd3c ddeb bd3b 7031 21bb d7ce d1bd
00000040: fe56 723d ab98 b63c 6462 c7bd ec75 0abc
00000050: 7beb 233d 4912 05be f1ea aebd 7bce e0bd
00000060: e92d 2f39 774c ebbd 12d0 4b3c 8866 9dbd
00000070: b87e aabc a1bf 2abe 5ad4 49be 3c96 d1bd

pool.lin_q.weight f4 [32, 32]
0.3414057 -0.24882056 -0.1476048 0.15900803 -0.08164361 -0.015025267 -0.052556302 -0.21281062
0.10005744 -0.11819371 -0.06283193 0.06738868 0.07814071 0.34042233 -0.039211646 0.21695037
0.34898046 0.03304755 0.017600773 -0.06571056 -0.0929111 0.16739503 0.1149929 0.10553127
0.17966397 0.044979334 -0.21033055 0.07935005 0.0129225645 -0.242725 -0.0718087 -0.22485885
-0.15084803 0.057181373 0.043814287 -0.18720002 0.12721096 -0.096558966 -0.057906475 0.014337044
0.03955821 -0.05913222 0.010630216 -0.2633693 0.106327884 0.17958702 0.07946159 -0.06854196
-0.048998285 0.13475104 -0.036532808 -0.2053946 -0.05449664 0.13453038 0.091381356 -0.0015275619
-0.0785195 -0.09205415 0.07984794 -0.026645679 0.06879205 0.027272763 0.21300942 0.060819525
0.28459278 0.019308353 -0.16088828 0.031037059 -0.25162998 -0.0509549 -0.25131565 -0.28679833
-0.05250492 0.06952257 -0.06722478 -0.14413786 -0.1487516 -0.107049406 -0.1024927 -0.039073166
0.029865446 -0.12701258 0.15762722 -0.03319331 0.1330255 0.1448975 0.03881277 -0.015138063
0.29323086 -0.20945871 -0.048337873 0.24440463 0.19038069 -0.1006956 -0.18444104 0.017392728
0.21509674 0.007900639 -0.028376965 0.15134926 -0.19011372 0.08338899 -0.1817207 0.18073812
-0.19320537 0.1021623 -0.02867812 0.031414375 -0.017157858 -0.15740854 0.15411529 -0.04091491
0.14476702 0.055138595 -0.09953767 0.32189766 -0.31715363 -0.10209564 -0.12965935 -0.14397557
0.10315165 -0.05187836 0.0854514 0.19580926 0.09450806 -0.10575134 -0.069487765 0.17366734
-0.23066027 0.24626416 -0.048659734 -0.11967382 -0.049025565 0.0784814 -0.13764302 0.27314678
-0.1211395 0.080900535 -0.062647656 -0.095904924 -0.18236633 -0.18967879 -0.059693333 -0.13702741
-0.39510515 0.093398266 -0.33472854 0.16969863 -0.03440235 0.05563822 -0.15288988 -0.036234792
-0.06521306 -0.024846679 0.34414637 -0.24399118 -0.08225752 0.22285244 -0.044374395 -0.007753407
-0.15558022 0.1874166 0.23913658 -0.18109524 -0.06772415 0.054697398 -0.26598483 0.2529925
-0.05602557 0.06099338 -0.08534901 -0.09570535 -0.13397174 -0.11478987 -0.06538744 -0.2123596
-0.31176436 0.2544823 -0.08648107 0.17473237 -0.008885271 -0.14426847 -0.006867605 -0.19186355
-0.08678929 -0.01818921 0.38696674 0.0052896114 -0.019334508 0.22529037 0.30604866 0.10905285
-0.14925525 0.1314477 0.09146609 0.09434177 0.01430411 0.1800067 -0.17941695 -0.11477806
-0.040491387 -0.048411198 -0.015317777 -0.046298902 -0.07307411 -0.24675147 -0.14826632 -0.25310478
0.03917619 0.16477461 -0.031510584 -0.04795349 -0.042220935 -0.026395762 -0.08305769 0.043040015
0.17103413 -0.16013323 0.22882734 0.105303876 -0.12209364 0.08583427 -0.18695033 0.053345155
-0.052979093 -0.1204706 0.08566642 -0.064895496 -0.27073985 -0.08674442 0.15512742 -0.08561347
-0.19397819 -0.18090267 -0.06965324 -0.13234143 -0.075198404 0.22087567 0.16684844 0.41707122
0.046743758 -0.048430145 -0.029112823 -0.25775328 -0.19499953 -0.0020571689 -0.12579867 0.20406516
0.053539243 -0.1560702 -0.17501298 0.01492136 -0.13563512 0.13135388 -0.00422866 -0.233757
00000000: bacc ae3e d1ca 7ebe b625 17be 00d3 223e
00000010: c434 a7bd 8a2c 76bc 4745 57bd 07eb 59be
00000020: eaea cc3d 8b0f f2bd 07ae 80bd 1403 8a3d
00000030: 3d08 a03d d64b ae3e 649c 20bd 3d28 5e3e
00000040: 91ad b23e de5c 073d 7f2f 903c 4293 86bd
00000050: 2d48 bebd 9a69 2b3e 6681 eb3d c720 d83d
00000060: d5f9 373e 403c 383d e460 57be 4782 a23d
00000070: 2ab9 533c e78c 78be 7110 93bd 6641 66be
00000080: e877 1abe 0437 6a3d 9c76 333d 5db1 3fbe
00000090: 9743 023e b5c0 c5bd 572f 6dbd ece5 6a3c
000000a0: ca07 223d a034 72bd 5c2a 2e3c 57d8 86be
000000b0: 6fc2 d93d a9e5 373e c2bc a23d ba5f 8cbd
000000c0: 6db2 48bd 2dfc 093e 6da3 15bd f652 52be
000000d0: de37 5fbd 55c2 093e 2626 bb3d 7938 c8ba
000000e0: d5ce a0bd e386 bcbd 5187 a33d 0a48 dabc
000000f0: d9e2 8c3d 216b df3c 241f 5a3e e51d 793d
00000100: 25b6 913e 8d2c 9e3c e6bf 24be 6e41 fe3c
00000110: a5d5 80be 16b6 50bd 72ac 80be 3bd7 92be
00000120: 660f 57bd d961 8e3d 25ad 89bd e098 13be
00000130: 5752 18be b83c dbbd b1e7 d1bd 2f0b 20bd
00000140: 61a8 f43c 960f 02be 0869 213e b5f5 07bd
00000150: d637 083e 0360 143e 24fa 1e3d a305 78bc
00000160: 5b22 963e 587c 56be effd 45bd 3545 7a3e
00000170: 28f3 423e 7f39 cebd 1dde 3cbe 327b 8e3c
00000180: 5242 5c3e af71 013c cf76 e8bc 4dfb 1a3e
00000190: 2cad 42be d9c7 aa3d fe14 3abe 6a13 393e
000001a0: a1d7 45be 783a d13d 60ee eabc 5cac 003d
000001b0: a38e 8cbc b42f 21be 66d0 1d3e 6596 27bd
000001c0: ce3d 143e 02d9 613d 68da cbbd c5cf a43e
000001d0: f661 a2be 8517 d1bd 6cc5 04be 556e 13be
000001e0: 2c41 d33d 677e 54bd 2501 af3d 3982 483e
000001f0: 718d c13d 2994 d8bd 9a4f 8ebd dad5 313e
00000200: 3532 6cbe ac2c 7c3e 6e4f 47bd 8c17 f5bd
00000210: 08cf 48bd dbba a03d 4bf2 0cbe e5d9 8b3e
00000220: fc17 f8bd 2eaf a53d 6a4d 80bd cd69 c4bd
00000230: 3dbe 3abe 283b 42be ff80 74bd ea50 0cbe
00000240: 394b cabe 9747 bf3d 8a61 abbe 7ac5 2d3e
00000250: 7be9 0cbd e7e4 633d 2a8f 1cbe ef6a 14bd
00000260: 6d8e 85bd 438b cbbc f433 b03e d3d8 79be
00000270: a176 a8bd 6e33 643e edc1 35bd 4b10 febb
00000280: 6c50 1fbe 23ea 3f3e 38e0 743e 0871 39be
00000290: f6b2 8abd 610a 603d 2a2f 88be 3c88 813e
000002a0: 117b 65bd 32d4 793d 76cb aebd 2b01 c4bd
000002b0: e32f 09be f416 ebbd dae9 85bd cc74 59be
000002c0: 949f 9fbe 814b 823e fd1c b1bd 0bed 323e
000002d0: 8793 11bc 1dbb 13be a509 e1bb e177 44be
000002e0: 95be b1bd 8a01 95bc 8120 c63e 7a54 ad3b
000002f0: 6763 9ebc 85b2 663e 69b2 9c3e 1a57 df3d
00000300: 5ed6 18be 3a9a 063e 9352 bb3d 4236 c13d
00000310: c95b 6a3c ad53 383e 14b9 37be c210 ebbd
00000320: 4cda 25bd d24a 46bd 6af7 7abc eba3 3dbd
00000330: e1a7 95bd 6bac 7cbe 20d3 17be f396 81be
00000340: 3677 203d adba 283e 3e11 01bd e16a 44bd
00000350: dcef 2cbd ed3b d8bc 261a aabd ba4a 303d
00000360: 9223 2f3e f7f9 23be b751 6a3e 8fa9 d73d
00000370: 3b0c fabd e1c9 af3d e86f 3fbe 7380 5a3d
00000380: 9b00 59bd 4ab9 f6bd e071 af3d eee7 84bd
00000390: 6a9e 8abe 0fa7 b1bd b9d9 1e3e 1d56 afbd
000003a0: 38a2 46be 8d3e 39be 5ca6 8ebd 8384 07be
000003b0: 9f01 9abd 3b2d 623e 51da 2a3e 5c8a d53e
000003c0: 6276 3f3d b05e 46bd 047e eebc 3df8 83be
000003d0: f5ad 47be 91d1 06bb 5ed1 00be 75f6 503e
000003e0: f74b 5b3d ded0 1fbe 9a36 33be b878 743c
000003f0: efe3 0abe a281 063e 9290 8abb ff5d 6fbe

pool.lin_q.bias f4 [32]
0.012097027 -0.021459468 0.13720417 -0.10283468 0.043237694 0.06809094 0.052758306 -0.0017098233
0.018868584 0.020872893 -0.043217182 0.020894479 -0.105250455 0.11879211 -0.16413352 -0.007908002
-0.09159674 0.041039914 0.08835834 0.17797974 -0.09883982 0.02825739 -0.109659865 0.04420591
-0.07298275 0.17534639 -0.009502227 0.05501805 -0.16241832 0.114822544 -0.0982276 0.17199056
00000000: 9c32 463c c4cb afbc 407f 0c3e fd9a d2bd
00000010: 021a 313d 4373 8b3d 1819 583d 261c e0ba
00000020: 4a92 9a3c a1fd aa3c 8004 31bd e62a ab3c
00000030: 8d8d d7bd 4749 f33d 9e12 28be 9090 01bc
00000040: 1297 bbbd 7819 283d 38f5 b43d 5240 363e
00000050: 886c cabd 0b7c e73c 5a95 e0bd 4211 353d
00000060: fb77 95bd 018e 333e 3baf 1bbc 9b5a 613d
00000070: fd50 26be 1528 eb3d 8d2b c9bd 4b1e 303e

pool.gat_att.weight f4 [1, 64]
-0.016041154 0.03676179 -0.08217242 -0.032749385 0.021556193 0.052850984 0.018529119 -0.012951129
0.064582266 0.06698524 -0.06697923 -0.04141467 -0.04818482 0.06580593 0.016231313 -0.09049862
-0.14287934 0.066886835 0.034264218 0.05703975 -0.025525063 0.068857245 -0.06748262 -0.015500572
-0.10890991 0.11219494 -0.07805655 -0.037875485 -0.061347816 0.1600148 -0.02356707 0.07894715
0.35786062 0.18163876 -0.18836023 -0.39906147 -0.27775463 0.008884479 -0.12595896 -0.25695837
0.27663913 0.20653641 -0.3027514 -0.0526499 -0.069691025 -0.07830281 -0.46413866 -0.23972285
0.16108607 0.23535009 0.12717889 -0.30213833 0.37949055 0.4741594 0.23086123 -0.10412358
0.20358576 -0.18627566 0.33234134 0.53855765 -0.0687171 -0.4471685 0.3549824 0.21086803
00000000: bd68 83bc 8893 163d 044a a8bd 3824 06bd
00000010: 9d96 b03c 467a 583d 61ca 973c f930 54bc
00000020: b543 843d 8f2f 893d 682c 89bd 6ea2 29bd
00000030: 725d 45bd 42c5 863d 88f7 843c 5757 b9bd
00000040: f64e 12be f7fb 883d a358 0c3d 83a2 693d
00000050: f019 d1bc 0705 8d3d 5434 8abd 1cf6 7dbc
00000060: 290c dfbd 76c6 e53d 1ddc 9fbd 5323 1bbd
00000070: d947 7bbd ebda 233e ba0f c1bc 0baf a13d
00000080: 8239 b73e 83ff 393e 81e1 40be c951 ccbe
00000090: db35 8ebe 3590 113c 63fb 00be 0c90 83be
000000a0: a5a3 8d3e 487e 533e 3b02 9bbe 6ca7 57bd
000000b0: 2bba 8ebd 395d a0bd 95a3 edbe e879 75be
000000c0: bff3 243e 9dff 703e 2f3b 023e e0b1 9abe
000000d0: 964c c23e 05c5 f23e e366 6c3e be3e d5bd
000000e0: c978 503e 0cbf 3ebe a528 aa3e eade 093f
000000f0: 8dbb 8cbd 45f3 e4be 41c0 b53e caed 573e

pool.gnn_score.weight f4 [32, 1]
0.11190076 -0.00929689 0.13103537 0.14643328 0.14904718 0.18343502 -0.013561696 0.05998785
0.088168986 -0.069368914 -0.03450315 0.010130725 -0.15418248 -0.111504465 -0.10054643 0.07011378
-0.13199452 0.009467775 0.062713504 -0.11638904 0.020354657 0.12202584 0.039422568 -0.06813867
0.059614114 0.028456964 0.089887895 0.03243047 -0.05044964 0.03325299 0.099411376 -0.018495629
00000000: 3a2c e53d fc51 18bc 232e 063e 9bf2 153e
00000010: d39f 183e 64d6 3b3e e031 5ebc d2b5 753d
00000020: f191 b43d 4a11 8ebd 2d53 0dbd 57fb 253c
00000030: 03e2 1dbe 745c e4bd 49eb cdbd d097 8f3d
00000040: 9229 07be ba1e 1b3c f06f 803d 615d eebd
00000050: cfbe a63c afe8 f93d 8f79 213d 498c 8bbd
00000060: ee2d 743d 941e e93c 2517 b83d d0d5 043d
00000070: 48a4 4ebd 4a34 083d 3198 cb3d 2584 97bc

pool.gnn_score.lin1.weight f4 [1, 32]
-0.010132826 0.072062366 0.12429227 -0.1528512 -0.18465918 -0.15052538 -0.037630733 -0.04442077
0.11981518 0.043789364 -0.11355209 0.046465047 0.115091786 -0.06827439 0.100237034 -0.06764226
0.124940716 -0.041030053 -0.08802547 0.060264938 -0.06120386 0.015609926 0.043569513 0.15248102
-0.019954313 -0.08071914 -0.055667557 -0.015832752 -0.012419521 0.07794391 -0.15510713 -0.0060854857
00000000: 2704 26bc 6f95 933d f28c fe3d 0685 1cbe
00000010: 4c17 3dbe 5323 1abe af22 1abd 8ef2 35bd
00000020: a961 f53d 7a5c 333d 008e e8bd 2252 3e3d
00000030: 3eb5 eb3d 72d3 8bbd 1349 cd3d 0688 8abd
00000040: ebe0 ff3d 210f 28bd b346 b4bd 5ed8 763d
00000050: e6b0 7abd c6c0 7f3c f275 323d fc23 1c3e
00000060: 3a77 a3bc 1450 a5bd aa03 64bd b0b3 81bc
00000070: 3f7b 4bbc 0fa1 9f3d 67d4 1ebe c168 c7bb

pool.gnn_score.lin2.weight f4 [1, 32]
-0.04790302 -0.09596487 -0.12500134 0.08316372 -0.018656125 0.13321728 -0.06767485 -0.027768113
-0.1451033 0.249328 0.14475553 0.052697465 0.13591608 -0.14872329 -0.058133278 -0.0892001
-0.09886514 -0.00049897574 0.117575645 0.20600677 0.18087319 -0.2781214 -0.0907636 -0.2695432
-0.0075099343 -0.03140866 -0.19517706 -0.26451614 0.21452367 -0.13353014 -0.1332811 0.11006441
00000000: f535 44bd 3b89 c4bd 5a00 00be be51 aa3d
00000010: bbd4 98bc 1c6a 083e 1d99 8abd f479 e3bc
00000020: f695 14be d74f 7f3e cb3a 143e 4cd9 573d
00000030: 962d 0b3e eb4a 18be 291d 6ebd 8bae b6bd
00000040: ce79 cabd b2cd 02ba 80cb f03d 70f3 523e
00000050: d236 393e ee65 8ebe 44e2 b9bd 9101 8abe
00000060: e515 f6bb 5ea6 00bd 7fdc 47be a96e 87be
00000070: 18ac 5b3e 20bc 08be d77a 08be 7369 e13d

pool.gnn_intra_cluster.weight f4 [32, 32]
-0.022911264 0.64273536 0.037489437 -0.46952602 0.084458984 0.5286174 -0.4534987 -0.23436119
0.5381434 0.56581324 -0.4733598 -0.2369848 -0.13469653 -0.40708327 -0.5372393 -0.43029264
0.32974538 0.4741961 -0.027779493 -0.45541397 0.54790837 0.050989524 0.49606678 -0.06791716
0.15120012 -0.007109814 0.31096345 0.28079993 0.26573777 -0.05584067 0.1728187 0.11256254
0.446204 0.018703561 0.11267296 0.03551999 0.109416455 0.2167496 -0.13700528 0.08360967
0.0951055 0.19884528 -0.026552094 0.17766936 -0.36996058 0.20771962 -0.23591737 -0.06220763
0.15916303 0.03653615 0.08734319 -0.19383281 0.27652293 0.090670876 -0.13495666 0.16426948
-0.19207717 0.051645268 0.43390334 0.07563004 -0.08764306 -0.39946178 -0.009703052 -0.098352715
0.17997135 0.090104505 -0.21255524 -0.135701 -0.13701937 0.124661 -0.09650062 -0.0685486
0.14111155 0.10610646 -0.33335423 0.025953121 -0.3562607 0.07364054 -0.3318607 0.015754655
0.07139823 -0.1589536 -0.3359417 -0.14178358 0.045161318 0.3618302 0.17969336 0.21274664
0.103464134 -0.14812577 0.358872 -0.120802574 -0.01054552 -0.19816108 0.28820673 0.11485782
-0.012773319 0.06482831 -0.042459317 -0.019824574 -0.046747427 -0.12611742 -0.263378 -0.1317609
0.02755705 0.03666298 -0.385185 -0.02665686 0.22002596 -0.018901639 -0.46117765 -0.16546229
0.16005264 -0.102355175 0.542525 -0.43264967 -0.08201018 -0.13557746 0.32737738 -0.06276118
0.46175894 -0.38313496 0.09480927 0.33703023 0.17223878 0.1485844 0.3463743 -0.15291284
0.07071936 0.2521828 0.14841197 -0.29820344 -0.18725958 -0.08595806 -0.018495148 0.05437423
-0.10968266 0.4030504 -0.16214006 0.09622768 -0.043271672 -0.20458879 -0.21361868 0.08316284
0.45015752 0.07939734 -0.047491226 0.14090462 0.27706623 -0.1259216 0.20247982 0.12910166
-0.15997884 -0.1498011 0.31234312 0.014828463 -0.04707859 -0.053878043 -0.075689614 0.28545645
0.3765548 0.2122076 -0.31813344 0.0066201827 -0.3533752 0.2865297 -0.045889314 -0.23488875
0.07386668 0.32460624 -0.15815096 0.059281673 -0.03756698 0.22244184 -0.5065903 -0.21900406
0.29873508 -0.033676036 -0.02885001 -0.17196369 0.19496751 0.2439382 0.01085774 -0.30359188
0.1054327 -0.25105378 0.32728136 0.38625446 -0.473913 -0.37131432 0.048329655 0.05905545
-0.69808286 -0.48384082 0.47194904 0.29298028 0.5096803 -0.096779756 0.23165964 0.371707
-0.2436813 -0.5171232 0.24623115 0.41108012 0.30083242 -0.12288833 0.5190226 0.43846077
-0.23724534 -0.60288984 -0.022530647 0.6920952 -0.5799767 -0.45776263 -0.73192847 0.31986216
0.3842745 0.60106176 -0.48938245 -0.22529267 -0.069868974 0.49065238 -0.46318462 -0.23038799
-0.27896821 -0.12488289 0.44740438 0.32739812 -0.013190125 -0.22094078 -0.023669926 0.10687667
-0.2240836 -0.41623652 0.4356064 0.1350899 0.14253311 0.24429424 0.0896219 -0.02158493
-0.55892503 -0.42832696 -0.2139702 0.14759873 -0.33535603 -0.37944332 -0.19545421 0.052279964
-0.30903938 0.18555102 -0.54619604 -0.14365326 -0.26666605 0.039570384 -0.16837104 -0.32494715
00000000: 67b0 bbbc 4e8a 243f 868e 193d b765 f0be
00000010: d5f8 ac3d 7853 073f fb30 e8be 61fc 6fbe
00000020: c4c3 093f 23d9 103f 375c f2be 25ac 72be
00000030: e3ed 09be 386d d0be 8488 09bf 514f dcbe
00000040: 63d4 a83e d5c9 f23e d291 e3bc 052c e9be
00000050: b943 0c3f 64da 503d 77fc fd3e 2718 8bbd
00000060: 34d4 1a3e 71f9 e8bb 9a36 9f3e 02c5 8f3e
00000070: c80e 883e 30b9 64bd 63f7 303e 3087 e63d
00000080: da74 e43e 3638 993c 15c1 e63d 697d 113d
00000090: bc15 e03d 9bf3 5d3e 1d4b 0cbe 8c3b ab3d
000000a0: acc6 c23d 199e 4b3e c783 d9bc f5ee 353e
000000b0: 796b bdbe 74b4 543e 5394 71be 6ecd 7ebd
000000c0: a2fb 223e eea6 153d fde0 b23d 1c7c 46be
000000d0: 6a94 8d3e a7b1 b93d 1432 0abe 4236 283e
000000e0: e1af 44be fd89 533d 9428 de3e ece3 9a3d
000000f0: 347e b3bd 4186 ccbe 8df9 1ebc 266d c9bd
00000100: 694a 383e b688 b83d 15a8 59be 34f5 0abe
00000110: ce4e 0cbe 444e ff3d 1ea2 c5bd 3563 8cbd
00000120: 8c7f 103e 584e d93d 68ad aabe a49b d43c
00000130: cd67 b6be dad0 963d a5e9 a9be e80f 813c
00000140: 3c39 923d bcc4 22be 8d00 acbe b72f 11be
00000150: 13fb 383d cf41 b93e 8901 383e 41da 593e
00000160: 01e5 d33d 48ae 17be 12be b73e 5767 f7bd
00000170: 1ec7 2cbc bdea 4abe d58f 933e 943a eb3d
00000180: 2f47 51bc b4c4 843d d2e9 2dbd 2567 a2bc
00000190: 3b7a 3fbd ed24 01be 7bd9 86be 54ec 06be
000001a0: 53bf e13c ec2b 163d f836 c5be 7d5f dabc
000001b0: 7c4e 613e 9cd7 9abc 7a1f ecbe f26e 29be
000001c0: d7e4 233e 979f d1bd ebe2 0a3f 4284 ddbe
000001d0: f4f4 a7bd d1d4 0abe 029e a73e ef88 80bd
000001e0: ab6b ec3e 442a c4be 5d2b c23d 3a8f ac3e
000001f0: 5d5f 303e 8226 183e f957 b13e 2f95 1cbe
00000200: 50d5 903d 1b1e 813e 4ff9 173e 1fae 98be
00000210: fac0 3fbe c80a b0bd 2383 97bc 83b7 5e3d
00000220: 4da1 e0bd 9f5c ce3e 0b08 26be 0513 c53d
00000230: a33d 31bd b97f 51be dbbe 5abe 4751 aa3d
00000240: 0c7b e63e 139b a23d 2986 42bd 4d49 103e
00000250: a0db 8d3e 98f1 00be df56 4f3e 3a33 043e
00000260: 7ed1 23be 7665 19be 70eb 9f3e 15f3 723c
00000270: 7bd5 40bd 39af 5cbd 2803 9bbd 5927 923e
00000280: cacb c03e f34c 593e 63e2 a2be 1eee d83b
00000290: 98ed b4be 05b4 923e 6ff6 3bbd ad86 70be
000002a0: 6a47 973d ca32 a63e 53f2 21be 57d1 723d
000002b0: d5df 19bd cbc7 633e e7af 01bf 9a42 60be
000002c0: cef3 983e e2ef 09bd db56 ecbc 4017 30be
000002d0: 90a5 473e efca 793e aae4 313c 6570 9bbe
000002e0: 19ed d73d 1f8a 80be 6c91 a73e 25c3 c53e
000002f0: baa4 f2be e91c bebe 51f5 453d 21e4 713d
00000300: 8fb5 32bf fcb9 f7be 4ea3 f13e 8301 963e
00000310: 687a 023f 7734 c6bd 2f38 6d3e 6150 be3e
00000320: 9787 79be 3062 04bf 0524 7c3e 1879 d23e
00000330: b506 9a3e e0ac fbbd aade 043f ee7d e03e
00000340: 71f0 72be fd56 1abf 3192 b8bc 272d 313f
00000350: 5a79 14bf dd5f eabe aa5f 3bbf f9c4 a33e
00000360: a1bf c43e 2fdf 193f 5690 fabe 1fb3 66be
00000370: 7717 8fbd ca36 fb3e 8926 edbe d4ea 6bbe
00000380: ecd4 8ebe 9ac2 ffbd 3012 e53e baa0 a73e
00000390: 651b 58bc 4d3e 62be 6fe7 c1bc 28e2 da3d
000003a0: 2c76 65be f41c d5be cd07 df3e 0255 0a3e
000003b0: 33f4 113e 4528 7a3e b08b b73d e1d2 b0bc
000003c0: b615 0fbf ac4d dbbe 011b 5bbe 1f24 173e
000003d0: c9b3 abbe 6546 c2be 2625 48be 8423 563d
000003e0: 693a 9ebe 1601 3e3e 81d3 0bbf d719 13be
000003f0: 7488 88be 8e14 223d 7569 2cbe 795f a6be

pool.gnn_intra_cluster.bias f4 [32]
-0.008990652 0.13891472 -0.040106677 -0.069364086 -0.0808475 0.04222808 -0.095392406 -0.0376214
0.052526463 0.042750992 -0.08428039 -0.0309207 -0.09780062 -0.02914328 -0.09433924 -0.21457995
0.059265472 0.038772434 -0.14441127 -0.05748382 0.0065152366 0.03702187 -0.0040323026 -0.07470833
-0.14269489 -0.09262262 0.06801426 0.032425452 -0.05471185 -0.034604907 0.06136348 0.014868983
00000000: 874d 13bc a93f 0e3e e646 24bd c20e 8ebd
00000010: 6093 a5bd 5af7 2c3d 185d c3bd e618 1abd
00000020: fd25 573d aa1b 2f3d 329b acbd 684d fdbc
00000030: b14b c8bd e3bd eebc ee34 c1bd d9ba 5bbe
00000040: 5ac0 723d d8cf 1e3d 8ce0 13be 2774 6bbd
00000050: c47d d53b 3fa4 173d 6821 84bb ae00 99bd
00000060: 9c1e 12be eeb0 bdbd 0f4b 8b3d 8dd0 043d
00000070: 8819 60bd e0bd 0dbd 4658 7b3d 099d 733c

conv3.weight f4 [32, 32]
0.17059568 0.17850977 0.07025207 -0.099439666 0.22963856 -0.310507 0.4375296 -0.46334207
-0.14283781 -0.047115378 0.32050744 0.06569274 -0.18604927 -0.47325704 0.2789225 0.09769915
0.40416187 -0.14770107 0.09729085 0.07552302 0.18325306 -0.055004127 0.1031171 -0.01761796
0.2696315 0.19973266 -0.11476981 -0.10502475 -0.17554614 0.10379807 0.18402383 0.13909741
-0.39162472 -0.45454472 0.27155158 0.008086903 -0.31761461 0.3656364 0.5782278 0.32096618
0.16694507 0.033441868 -0.13831325 -0.054854568 -0.11136341 0.3961906 -0.45915172 0.23812048
0.2943224 -0.8328726 -0.27179325 -0.45034796 -0.30415878 -0.42822734 0.23920482 0.6420394
-0.0751021 -0.1348679 -0.42237002 -0.45066792 0.40603766 -0.107112855 0.052812424 -0.10170727
-0.1663887 0.1268901 -0.24063429 0.12715872 0.0054459926 -0.18983546 -0.27633306 -0.009189156
0.07198899 0.058285 -0.06953579 -0.25617427 -0.23999114 0.26481766 0.07869837 0.10053246
-0.1977273 0.16820087 0.37655687 -0.039295703 -0.0067190696 -0.055705667 0.09709692 -0.30468574
0.008855578 0.10891389 -0.19789626 -0.103547454 -0.055806726 0.2649369 0.3224798 0.24902417
-0.07361131 0.2501057 -0.015240733 -0.30081543 -0.27348945 -0.15389551 0.60921925 -0.42075798
-0.4055797 -0.10785625 0.12905835 -0.014863225 -0.31245944 0.03768274 -0.060893375 0.3392769
0.33073914 0.043761566 -0.030767346 -0.12619288 -0.15998214 -0.28022623 -0.13185371 0.010510212
-0.069033 0.029253695 0.07806394 -0.1436944 -0.19948809 0.016843282 -0.029219244 -0.36621183
-0.4221207 -0.020193608 0.3755961 -0.04149891 -0.5520264 0.2660068 0.86767775 0.53076655
-0.02301122 -0.03549372 0.18779251 0.41441596 -0.23785195 0.008377673 -0.24203967 0.3318192
0.51619804 -0.37331682 -0.23815499 -0.38776103 -0.46476534 -0.46617538 0.09786512 0.31229305
-0.26228547 0.16394818 -0.23484898 -0.31559014 -0.055875763 0.18906394 -0.40031224 -0.44648716
-0.42242512 0.09648408 0.27680612 -0.28610247 0.052533243 0.15113492 0.62045044 0.1859913
-0.22614545 0.019099168 0.40633392 0.085021235 -0.43691868 0.13704388 -0.13816448 0.7564465
0.4192499 -0.12403062 0.23794876 0.1116952 0.07042419 -0.4578281 -0.2118352 0.12004023
0.075053565 -0.2430388 0.2936907 -0.11033239 0.06282576 0.15598258 -0.26854566 -0.5165149
0.04000953 0.033132546 0.04074584 -0.025861058 0.097509496 -0.40866706 0.09981146 -0.34855565
-0.24957155 -0.15601528 0.11994453 0.020831194 -0.1725378 -0.2082132 0.3971704 -0.1299994
-0.29650608 0.2678168 -0.09740441 0.10141997 0.24854998 -0.089277044 0.14365065 0.039457846
-0.121087365 -0.072852485 0.10939742 -0.26895908 -0.2617887 -0.19333918 0.1866358 0.13197732
0.09013489 -0.29550168 0.07687734 0.22910964 -0.07991511 -0.09614869 0.04431232 0.2189751
0.4584034 0.036304977 -0.24753901 -0.17867263 -0.11519246 0.4879173 -0.3316038 -0.15572204
0.052456893 0.06910878 -0.09220665 -0.18327253 0.002443397 0.057199806 -0.15801062 -0.1542466
-0.14372964 0.039524 0.18940714 -0.2416168 0.11696989 -0.09425258 0.2609436 0.15220447
00000000: a2b0 2e3e 44cb 363e 51e0 8f3d 06a7 cbbd
00000010: 5f26 6b3e c6fa 9ebe e103 e03e 2c3b edbe
00000020: 1344 12be 0efc 40bd 8d19 a43e ea89 863d
00000030: b383 3ebe bf4e f2be eece 8e3e 7e16 c83d
00000040: 4eee ce3e f33e 17be 6d40 c73d d0ab 9a3d
00000050: b1a6 3b3e 024c 61bd 0f2f d33d 8a53 90bc
00000060: 240d 8a3e b886 4c3e 6f0c ebbd 3717 d7bd
00000070: 5ec2 33be 1594 d43d be70 3c3e 8d6f 0e3e
00000080: 0983 c8be 16ba e8be cf08 8b3e ee7e 043c
00000090: 629e a2be b234 bb3e bd06 143f ae55 a43e
000000a0: a6f3 2a3e 57fa 083d fda1 0dbe 2faf 60bd
000000b0: 8012 e4bd 7fd9 ca3e ef15 ebbe dbd5 733e
000000c0: 6db1 963e 2437 55bf 7c28 8bbe 0294 e6be
000000d0: b3ba 9bbe 9d40 dbbe 1cf2 743e b25c 243f
000000e0: 21cf 99bd d01a 0abe e240 d8be f2bd e6be
000000f0: 2be4 cf3e fc5d dbbd d751 583d e74b d0bd
00000100: cd61 2abe 7aef 013e d668 76be e535 023e
00000110: 4c74 b23b 3a64 42be 877b 8dbe 1d8e 16bc
00000120: f76e 933d 41bc 6e3d c868 8ebd 4629 83be
00000130: 3dc0 75be 2e96 873e 9c2c a13d f6e3 cd3d
00000140: 0679 4abe d93c 2c3e 10cc c03e 88f4 20bd
00000150: a42b dcbb a02b 64bd c0da c63d c5ff 9bbe
00000160: fc16 113c 3f0e df3d 51a5 4abe b010 d4bd
00000170: 9895 64bd cfa5 873e 131c a53e 3100 7f3e
00000180: 87c1 96bd db0d 803e 44b4 79bc 7b04 9abe
00000190: cf06 8cbe c996 1dbe cbf5 1b3f 976d d7be
000001a0: 24a8 cfbe bde3 dcbd df27 043e e284 73bc
000001b0: affa 9fbe 3759 1a3d 556b 79bd b4b5 ad3e
000001c0: a456 a93e 543f 333d cd0b fcbc b538 01be
000001d0: 5cd2 23be d079 8fbe a904 07be 0633 2c3c
000001e0: 2c61 8dbd 72a5 ef3c fddf 9f3d a024 13be
000001f0: 9b46 4cbe ecfa 893c 325d efbc 1e80 bbbe
00000200: 3420 d8be 116d a5bc 224e c03e c3fa 29bd
00000210: 9a51 0dbf 0b32 883e 2120 5e3f 51e0 073f
00000220: 0782 bcbc dd61 11bd ae4c 403e 542e d43e
00000230: 768f 73be 8242 093c 3fd9 77be 35e4 a93e
00000240: 8e25 043f 6223 bfbe e7de 73be 9d88 c6be
00000250: b9f5 edbe 8aae eebe 826d c83d e0e4 9f3e
00000260: 484a 86be 08e2 273e 407c 70be 0895 a1be
00000270: fcdd 64bd fa99 413e baf5 ccbe f799 e4be
00000280: 1b48 d8be 7299 c53d 88b9 8d3e 067c 92be
00000290: 192d 573d 1dc3 1a3e d7d5 1e3f 8174 3e3e
000002a0: ac92 67be dc75 9c3c 000b d03e 9d1f ae3d
000002b0: ceb3 dfbe 3b55 0c3e fd7a 0dbe 7aa6 413f
000002c0: eca7 d63e c403 febd d7a8 733e 74c0 e43d
000002d0: 8f3a 903d 7268 eabe 54eb 58be a7d7 f53d
000002e0: afb5 993d 2adf 78be a15e 963e f3f5 e1bd
000002f0: cbaa 803d e6b9 1f3e d17e 89be 523a 04bf
00000300: 08e1 233d feb5 073d 1ce5 263d 92da d3bc
00000310: 0fb3 c73d cf3c d1be f369 cc3d e375 b2be
00000320: af8f 7fbe 78c2 1fbe 7aa5 f53d 2ea6 aa3c
00000330: c0ad 30be d735 55be eb59 cb3e 901e 05be
00000340: a5cf 97be 491f 893e f77b c7bd 46b5 cf3d
00000350: e383 7e3e e2d6 b6bd 2819 133e 8d9e 213d
00000360: a7fc f7bd af33 95bd c10b e03d 01b5 89be
00000370: 2b09 86be b5fa 45be 751d 3f3e 1025 073e
00000380: a498 b83d ff4b 97be de71 9d3d b89b 6a3e
00000390: 88aa a3bd 9be9 c4bd d680 353d 023b 603e
000003a0: dab3 ea3e 87b4 143d de7a 7dbe f5f5 36be
000003b0: 06ea ebbd 4cd0 f93e f9c7 a9be 9975 1fbe
000003c0: 0add 563d e788 8d3d d7d6 bcbd cbab 3bbe
000003d0: 6621 203b 584a 6a3d 89cd 21be d2f2 1dbe
000003e0: dd2d 13be ebe3 213d f2f3 413e 656a 77be
000003f0: e98d ef3d 7f07 c1bd 669a 853e 7ddb 1b3e

conv3.bias f4 [32]
0.012936986 -0.004450097 -0.02404686 -0.015091639 0.0084763765 -0.00461235 -0.03708798 0.00027509083
0.03514103 0.00045559974 0.005034062 -0.007398941 0.018496921 0.017244171 0.0155146355 -0.0343488
-0.03348726 0.023925645 0.021290774 0.010801777 0.014800782 0.0154464105 0.0038142225 -0.015741007
-0.0007753219 -0.0041572736 0.0071969316 0.0018571427 0.03173053 -0.021814952 0.011469599 0.00020985672
00000000: a7f5 533c 1fd2 91bb ecfd c4bc ec42 77bc
00000010: 80e0 0a3c 3223 97bb 91e9 17bd 113a 9039
00000020: 0af0 0f3d 90dd ee39 c6f4 a43b d172 f2bb
00000030: db86 973c a643 8d3c 1931 7e3c 54b1 0cbd
00000040: f029 09bd b7ff c33c fd69 ae3c f0f9 303c
00000050: fb7e 723c f112 7d3c 09f8 793b 49f3 80bc
00000060: f93e 4bba bd39 88bb 3dd4 eb3b 5e6b f33a
00000070: dff7 013d 45b5 b2bc fcea 3b3c fc0c 5c39

conv4.weight f4 [32, 32]
-0.03965158 -0.2279165 -0.06404468 0.28479096 0.012654575 -0.06904022 -0.26807135 -0.29936677
-0.25997242 0.06509057 0.039347306 0.017668698 -0.27772737 -0.42364284 -0.32148582 -0.09942614
0.03081147 -0.23694916 0.17512684 0.25372183 -0.14188898 -0.09975909 -0.03900604 0.13784873
0.29314107 0.06083818 -0.29653436 0.28092286 0.15497226 -0.043823022 -0.17110567 -0.09121396
0.15157002 0.1508731 0.29121345 -0.23076302 -0.1758442 0.01438931 0.15560172 0.24017563
0.14009637 0.31521407 -0.20943943 -0.23718587 0.0067216223 -0.4820172 -0.030960012 0.2804394
-0.18331885 -0.17971276 -0.12164163 -0.18750736 -0.12783407 0.046519414 -0.13163792 0.05091263
0.13670874 0.35750404 0.21938837 -0.26526174 0.157118 0.239485 -0.25483108 -0.1656968
-0.19311647 0.12432986 -0.14957364 -0.06794051 0.12482922 0.24068286 0.22566023 -0.06736995
0.22889633 0.19479881 0.18379435 -0.27111882 0.16114534 0.53565246 0.030429062 0.24670798
-0.16710919 0.39773417 0.052221734 -0.14274015 0.07417782 -0.15715155 0.037864204 0.07870581
0.13584371 -0.38513404 -0.22821288 -0.30103523 -0.19622803 -0.01296013 -0.0118189715 -0.000649449
0.020351566 0.0038908708 0.22245105 0.0719901 0.08437025 0.18775634 -0.13409096 -0.08487082
-0.27808115 -0.279741 0.032580722 -0.13652284 -0.2130155 -0.028605305 -0.045495786 -0.12109288
-0.06513811 -0.27524185 0.38106224 0.03358444 -0.15927695 -0.3658396 -0.20625204 0.02651968
0.12151277 -0.3052046 -0.17390086 -0.2244144 0.22055553 0.123372145 0.106615536 0.16856696
-0.047632597 0.2184245 -0.02128923 -0.14636482 0.24665852 0.0718796 -0.069042936 0.08408453
-0.05897685 -0.112692714 0.1477007 -0.013788954 0.12630993 -0.5919085 0.014297079 -0.12823485
-0.14284426 0.081819735 -0.2984359 -0.09649397 0.022599122 0.055221517 -0.0015493691 -0.14231923
0.09664367 -0.044848725 -0.12684786 0.09367397 -0.15310758 -0.3563637 -0.0037252272 -0.1105429
0.05167136 0.013429274 -0.15253648 -0.20819119 -0.12450485 -0.21976769 -0.24609604 0.050092284
0.25996256 -0.052520726 0.16856848 -0.3419948 0.1153269 0.35291147 0.040551707 0.24620245
-0.20614073 0.0024340907 0.4089605 -0.25867215 0.2019715 -0.21185496 0.20229773 -0.22292824
0.24544801 -0.12179149 -0.13535823 -0.23187438 0.196187 -0.33921492 0.091751695 -0.2529668
-0.1631912 -0.15219855 -0.15385294 0.20530446 -0.17058006 0.06992624 0.26372105 0.0384414
0.7914205 -0.11555865 0.22501674 0.2365948 -0.1157077 0.6344668 0.46312788 0.12257202
-0.020126645 0.11671992 -0.32768524 -0.11418362 -0.24672547 -0.27172574 -0.1208691 0.080154404
-0.15194139 -0.30745623 0.03599911 0.21283932 0.10647558 -0.15543424 0.056040462 0.042211816
0.14771825 0.054050155 0.21998802 0.19367771 0.046646554 -0.1769028 -0.2026934 -0.18775235
-0.35885528 -0.07306065 -0.28135875 0.1937468 -0.27805173 0.6794326 0.039356887 -0.1429651
-0.047544513 0.030607866 0.4044316 -0.3258556 0.28474724 -0.09776748 -0.2741138 0.17089112
0.2557272 -0.19426025 0.07798061 -0.05120157 -0.16118418 0.16930315 -0.23943707 -0.3330355
00000000: b269 22bd f162 69be db29 83bd 1fd0 913e
00000010: 2255 4f3c f564 8dbd a640 89be 9a46 99be
00000020: 1b1b 85be 344e 853d a42a 213d f2bd 903c
00000030: 4832 8ebe b7e7 d8be ca99 a4be ef9f cbbd
00000040: 5668 fc3c cda2 72be 7354 333e d4e7 813e
00000050: 584b 11be 7e4e ccbd ccc4 1fbd 3828 0d3e
00000060: 9616 963e 7531 793d 5ad3 97be 1fd5 8f3e
00000070: 0cb1 1e3e c57f 33bd 5336 2fbe 62ce babd
00000080: 2c35 1b3e 7a7e 1a3e ee19 953e 244d 6cbe
00000090: 8110 34be 24c1 6b3c 0f56 1f3e 9af0 753e
000000a0: 6c75 0f3e bd63 a13e 4a77 56be dae0 72be
000000b0: 0e41 dc3b f5ca f6be da9f fdbc c195 8f3e
000000c0: f0b7 3bbe 9f06 38be 3f1f f9bd ee01 40be
000000d0: efe6 02be 248b 3e3d 17cc 06be c389 503d
000000e0: 60fd 0b3e c50a b73e 58a7 603e 63d0 87be
000000f0: 8ae3 203e 8e3b 753e 3879 82be 6cac 29be
00000100: 53c0 45be a7a0 fe3d d529 19be 6524 8bbd
00000110: 76a6 ff3d 9175 763e 7a13 673e 42f9 89bd
00000120: cd63 6a3e 5779 473e 9634 3c3e 16d0 8abe
00000130: 4903 253e 8520 093f 5e46 f93c 04a1 7c3e
00000140: ac1e 2bbe d0a3 cb3e 75e6 553d 792a 12be
00000150: 8aea 973d 56ec 20be 7f17 1b3d 8330 a13d
00000160: 9d1a 0b3e 4a30 c5be a3b0 69be 4a21 9abe
00000170: 00f0 48be ba56 54bc 5ca4 41bc c93f 2aba
00000180: 54b8 a63c fbfd 7e3b 35ca 633e 8c6f 933d
00000190: 4fca ac3d 3343 403e 244f 09be c1d0 adbd
000001a0: a760 8ebe 363a 8fbe 5d73 053d a5cc 0bbe
000001b0: bc20 5abe ac55 eabc ca59 3abd 8bff f7bd
000001c0: 2167 85bd 80ec 8cbe 971a c33e d68f 093d
000001d0: 7f19 23be 544f bbbe bc33 53be cd3f d93c
000001e0: b0db f83d c743 9cbe 1113 32be e3cc 65be
000001f0: 4fd9 613e 89aa fc3d 3f59 da3d d19c 2c3e
00000200: 661a 43bd acaa 5f3e c066 aebc a9e0 15be
00000210: 0d94 7c3e 9d35 933d 6266 8dbd 8334 ac3d
00000220: b691 71bd 70cb e6bd da3e 173e 11eb 61bc
00000230: 6457 013e 5187 17bf 4c3e 6a3c ff4f 03be
00000240: c445 12be 1b91 a73d 97cc 98be a19e c5bd
00000250: cb21 b93c f52f 623d 3314 cbba 22bc 11be
00000260: 1eed c53d 4cb3 37bd 68e4 01be 23d8 bf3d
00000270: 3cc8 1cbe 4e75 b6be f122 74bb 5164 e2bd
00000280: 59a5 533d 7506 5c3c 8632 1cbe 1230 55be
00000290: 66fc febd c80a 61be 9a00 7cbe 912d 4d3d
000002a0: d019 853e f91f 57bd 379d 2c3e f119 afbe
000002b0: 8230 ec3d d0b0 b43e 8c19 263d 7f1c 7c3e
000002c0: 8e16 53be 4485 1f3b 4563 d13e ad70 84be
000002d0: 9ed1 4e3e 82f0 58be 2327 4f3e 4d47 64be
000002e0: b956 7b3e d16d f9bd 599b 0abe 7a70 6dbe
000002f0: 3fe5 483e 94ad adbe 50e8 bb3d dd84 81be
00000300: 981b 27be f0d9 1bbe a08b 1dbe 553b 523e
00000310: 8aac 2ebe 7d35 8f3d 7206 873e bb74 1d3d
00000320: 899a 4a3f 03aa ecbd ca6a 663e e845 723e
00000330: 29f8 ecbd 6b6c 223f 191f ed3e 0a07 fb3d
00000340: a2e0 a4bc da0a ef3d 5cc6 a7be 1ad9 e9bd
00000350: 9aa5 7cbe a31f 8bbe 388a f7bd fe27 a43d
00000360: 8696 1bbe e76a 9dbe ce73 133d 8df2 593e
00000370: de0f da3d 272a 1fbe af8a 653d 4ce6 2c3d
00000380: 7443 173e b263 5d3d 8a44 613e 7353 463e
00000390: 7510 3f3d 0226 35be dc8e 4fbe 2742 40be
000003a0: e1bb b7be d2a0 95bd 410e 90be 9065 463e
000003b0: cc5c 8ebe 4bef 2d3f b034 213d 7165 12be
000003c0: 09be 42bd 59bd fa3c a911 cf3e 8cd6 a6be
000003d0: 64ca 913e 513a c8bd a558 8cbe 15fe 2e3e
000003e0: adee 823e 29ec 46be 4cb4 9f3d bdb8 51bd
000003f0: 770d 25be ce5d 2d3e fe2e 75be a183 aabe

conv4.bias f4 [32]
0.06854386 0.064975 0.034259163 -0.06730775 0.08548566 -0.08519661 0.05982545 0.031060707
-0.04331824 0.024743391 0.08385102 0.08262435 -0.066412926 -0.034110006 -0.043870892 0.06490115
-0.025877679 -0.06308378 -0.0473591 -0.045562275 -0.065478094 -0.02177224 0.066249676 0.011696067
0.067120545 -0.041061327 0.072312206 0.083750315 0.037270796 0.045412708 0.029339433 0.010257887
00000000: b960 8c3d 9d11 853d 5653 0c3d a5d8 89bd
00000010: 1b13 af3d 8f7b aebd 880b 753d 0673 fe3c
00000020: 786e 31bd a7b2 ca3c 15ba ab3d f536 a93d
00000030: 8003 88bd efb6 0bbd f7b1 33bd e5ea 843d
00000040: 6dfd d3bc 1232 81bd 9efb 41bd 829f 3abd
00000050: 6119 86bd b25b b2bc e9ad 873d dca0 3f3c
00000060: 7f76 893d ec2f 28bd 6c18 943d 4985 ab3d
00000070: 43a9 183d ad02 3a3d 4059 f03c b210 283c

conv5.weight f4 [32, 2]
0.33446136 0.19143906 0.10059284 0.10510383 0.043427993 0.01405773 -0.059252284 -0.11143684
0.29780146 0.24339367 -0.32950604 -0.18689519 0.26288292 0.030665496 0.036098983 0.02616698
0.1831421 -0.22249258 0.059222966 0.033622313 0.2610088 0.2318653 0.1808225 0.26325026
-0.095461525 -0.14062573 -0.2511212 -0.17724328 -0.31321916 0.1287341 0.27718118 0.08335595
-0.09557669 -0.014789413 0.097787894 -0.119071506 -0.2503799 -0.08267617 -0.003125435 -0.12476362
0.013771743 -0.16581134 0.021890625 -0.14046031 0.053517208 0.109938085 0.12738176 -0.046586808
0.124255285 0.14290434 -0.26427662 -0.07340177 0.18891661 0.115619384 0.11540556 0.21690668
0.15144804 -0.0037368143 0.06406469 0.009940133 -0.05828818 0.0427393 -0.0098507665 -0.0053023193
00000000: 853e ab3e 9a08 443e 9e03 ce3d ad40 d73d
00000010: 8de1 313d 6552 663c 86b2 72bd ff38 e4bd
00000020: 6f79 983e 313c 793e 04b5 a8be 7461 3fbe
00000030: 9798 863e 3536 fb3c 87dc 133d 225c d63c
00000040: 9a89 3b3e 18d5 63be c893 723d 8db7 093d
00000050: f2a2 853e 196e 6d3e 8929 393e bdc8 863e
00000060: 5581 c3bd 3100 10be f592 80be 437f 35be
00000070: 435e a0be dfd2 033e b1ea 8d3e 86b6 aa3d
00000080: b6bd c3bd 4b4f 72bc 0545 c83d c3db f3bd
00000090: cb31 80be 2052 a9bd 19d4 4cbb 1284 ffbd
000000a0: e0a2 613c 73ca 29be f853 b33c d4d4 0fbe
000000b0: dc34 5b3d 3827 e13d 5d70 023e cfd1 3ebd
000000c0: 8e79 fe3d 8455 123e 444f 87be ab53 96bd
000000d0: 5b73 413e dbc9 ec3d c059 ec3d c91c 5e3e
000000e0: 3215 1b3e 57e5 74bb 5934 833d f1db 223c
000000f0: 96bf 6ebd 670f 2f3d 1c65 21bc 14bf adbb

conv5.bias f4 [2]
0.09631146 0.12555952
00000000: f13e c53d ad92 003e
