GST-recon/checkpoints/best_grid_DiffPool.pth (torch, 47195 bytes, 12 tensors)

conv1.weight f4 [2, 32]
0.37845263 0.3915212 -0.15830398 0.39988333 -0.21966618 0.06353304 -0.23992041 0.26283854
0.38607514 -0.2880722 0.5031844 0.14428715 0.28148362 0.025887862 0.17297506 0.044752844
0.40719017 0.033313364 -0.33804548 0.1375244 -0.2574086 -0.10234389 -0.3196619 0.27322197
-0.40419826 -0.21794732 -0.14722084 -0.24499878 -0.0350698 -0.47462228 0.28176668 -0.39847228
0.3792695 0.112387836 -0.16949378 0.26718646 -0.046518475 0.31815135 0.007145242 -0.11774282
0.13317241 -0.09337009 0.30625364 0.4300966 0.20200878 -0.21702524 0.20465413 0.19646417
0.2840848 -0.28011194 -0.5352134 -0.13702193 -0.36915377 0.29746905 0.011933768 0.17030048
0.06202497 -0.037508532 0.30245075 -0.28604344 -0.047921497 -0.34861016 0.05580215 -0.17958146
00000000: 8bc4 c13e 7775 c83e 701a 22be 82bd cc3e
00000010: 2cf0 60be 9c1d 823d b2ad 75be c692 863e
00000020: a4ab c53e 337e 93be b1d0 003f 03c0 133e
00000030: 9f1e 903e c812 d43c 6020 313e c24e 373d
00000040: 3b7b d03e 9873 083d 4c14 adbe 32d3 0c3e
00000050: 0fcb 83be ac99 d1bd b9aa a3be c0e3 8b3e
00000060: 13f3 cebe 952d 5fbe 0fc1 16be f6e0 7abe
00000070: 5aa5 0fbd b101 f3be b943 903e 8f04 ccbe
00000080: 9d2f c23e 982b e63d c78f 2dbe aacc 883e
00000090: 288a 3ebd bce4 a23e a222 ea3b 2623 f1bd
000000a0: 595e 083e d138 bfbd 47cd 9c3e 9f35 dc3e
000000b0: 64db 4e3e dd3b 5ebe da90 513e e72d 493e
000000c0: 9073 913e d56a 8fbe bf03 09bf 7a4f 0cbe
000000d0: b901 bdbe dd4d 983e da85 433c 4063 2e3e
000000e0: e50d 7e3d 8ca2 19bd d3da 9a3e 4974 92be
000000f0: 5549 44bd 087d b2be cc90 643d 34e4 37be

conv1.bias f4 [32]
0.11209176 0.07436514 -0.09515182 0.05301488 -0.20025833 -0.013695104 -0.065071195 0.041276827
0.021273425 0.008344182 0.17827769 0.10052764 -0.024252273 -0.0430972 -0.01726202 0.22118156
0.1442405 -0.057057198 -0.19552058 0.04808794 -0.09938517 -0.043467265 -0.21021779 0.026955152
-0.09607249 -0.043350987 -0.016050404 -0.0072210175 -0.124932446 -0.08319095 -0.0852881 -0.054854635
00000000: 5d90 e53d c04c 983d f5de c2bd 2126 593d
00000010: 8510 4dbe 6e61 60bc 0c44 85bd e411 293d
00000020: 9b45 ae3c 09b6 083c 6d8e 363e 6fe1 cd3d
00000030: b4ac c6bc b186 30bd 1469 8dbc 6b7d 623e
00000040: c8b3 133e cfb4 69bd 8c36 48be dcf7 443d
00000050: 748a cbbd bb0a 32bd 5543 57be 0dd1 dc3c
00000060: a7c1 c4bd ce90 31bd 237c 83bc 499e ecbb
00000070: 95dc ffbd 0460 aabd 87ab aebd 41af 60bd

conv2.weight f4 [32, 32]
0.17200466 0.027060946 0.21389134 -0.16367005 -0.10917922 -0.15776289 0.19462389 0.04440937
0.35018697 -0.21125521 -0.28083053 -0.28498012 -0.26325083 0.13164741 0.23147029 0.2961743
-0.2733121 -0.2510513 0.089311935 -0.1957133 0.2501182 -0.05710082 0.17358111 -0.29929888
-0.2083232 0.15618913 0.022152243 -0.1052994 0.25628158 0.2781497 -0.1697594 -0.13806307
0.36247224 -0.00803587 -0.15308528 -0.279649 -0.10016222 0.09329775 -0.124174625 -0.27726766
0.06390876 -0.16429245 -0.23812847 -0.22099715 -0.3265219 -0.18304962 0.43830028 0.09648712
-0.02759645 -0.3259441 -0.2788087 -0.1753962 0.11691828 -0.25002375 -0.12800084 -0.24627352
-0.055805072 -0.0497283 -0.06841026 -0.23268893 -0.12916286 -0.10543481 -0.05624695 -0.21700542
0.17069231 -0.16030592 0.29751715 0.062423125 -0.3350435 0.18704137 0.0147338845 -0.05902732
-0.31294176 -0.3537616 0.06044149 -0.02057885 0.1944609 -0.25166705 0.09025709 -0.27446836
0.06048175 0.110888064 0.23578049 0.324845 0.20954384 -0.25385863 0.07936994 -0.05895775
0.026093133 -0.30343625 0.32705915 -0.19433983 0.08829264 0.03389651 0.038084257 -0.19973841
0.35200346 0.15782191 0.004274797 -0.24538524 0.20028012 -0.02034182 -0.21990588 0.21055463
0.12162562 -0.13076033 -0.13011116 -0.057871547 0.114041425 -0.07386523 -0.054133736 -0.06664459
-0.34207168 0.06981017 0.16395625 -0.35953474 0.13368198 0.17804417 0.051895227 -0.1695332
0.10914641 0.22188592 0.07452475 -0.07898462 -0.009258002 0.09881545 -0.0065978146 -0.06193581
0.0006947471 0.14305116 0.043720067 -0.051505983 -0.07816071 0.082831755 0.21088709 0.14579147
-0.3601265 -0.22210343 0.26634297 0.22205295 0.11488837 -0.2207271 -0.31402954 -0.36317202
0.070806004 0.1900295 0.29804415 0.2530897 -0.38645557 -0.20133115 -0.08512353 0.4052309
0.14926364 -0.18624605 0.24696389 -0.09399808 -0.32992357 0.09557852 -0.1942029 -0.06750155
-0.23784265 0.28416425 0.19940533 0.13514513 -0.15625091 -0.26850742 -0.3080508 0.15750885
0.1850036 0.289662 0.18465175 0.044003457 -0.04512069 -0.23867787 -0.1670513 -0.25337768
0.028784627 -0.18641621 -0.11867389 -0.2242214 -0.0142591 -0.203676 -0.20830211 0.056396376
-0.12696525 0.23382711 -0.13141325 -0.24529716 0.016804643 -0.0878547 -0.04851672 -0.26272827
0.07085522 -0.32319131 0.20907196 0.13010846 0.13731411 -0.22919266 0.31519508 -0.08822636
0.052944962 0.22598757 -0.062829494 0.06794442 -0.00047314478 -0.2763513 -0.005998567 -0.34678957
0.32489702 0.27189454 0.3805769 0.008324878 -0.33589128 0.046289966 0.15001598 -0.22917345
0.0025969695 -0.2588289 0.035378747 -0.1241462 -0.22437084 -0.17963806 -0.33903956 0.22592229
0.33054534 0.053647354 -0.06257473 -0.12457003 -0.20259875 -0.29166466 -0.0056209904 -0.20897658
-0.1244045 0.0011548343 -0.08513049 -0.13103655 -0.07174275 -0.053600848 0.053695727 -0.1048714
-0.3895694 0.20166996 -0.2238764 -0.0058883787 -0.021427326 0.04590408 0.29394916 0.081041984
-0.34222287 0.18667172 0.23636436 0.058066666 0.27374065 0.36977008 0.016482184 0.06804647
00000000: fd21 303e ebae dd3c 5506 5b3e 1f99 27be
00000010: 5b99 dfbd 988c 21be 7c4b 473e 99e6 353d
00000020: b54b b33e 4953 58be 05c9 8fbe eae8 91be
00000030: d0c8 86be 94ce 063e 8c06 6d3e 28a4 973e
00000040: 90ef 8bbe cc89 80be 2de9 b63d 1169 48be
00000050: 7e0f 803e 8de2 69bd 3fbf 313e b43d 99be
00000060: ad52 55be 0bf0 1f3e 9f78 b53c 36a7 d7bd
00000070: 5737 833e a369 8e3e 68d5 2dbe 6860 0dbe
00000080: f695 b93e e2a8 03bc 63c2 1cbe 272e 8fbe
00000090: da21 cdbd e412 bf3d 444f febd 07f6 8dbe
000000a0: 99e2 823d 483c 28be f3d7 73be 144d 62be
000000b0: e12d a7be 5c71 3bbe e568 e03e 0a9b c53d
000000c0: f311 e2bc 25e2 a6be 04c0 8ebe 109b 33be
000000d0: da72 ef3d 1d03 80be a712 03be 202f 7cbe
000000e0: dc93 64bd e7af 4bbd ae1a 8cbd 0246 6ebe
000000f0: 4543 04be 35ee d7bd 3463 66bd ab36 5ebe
00000100: f7c9 2e3e 3c27 24be 2b54 983e 64af 7f3d
00000110: d28a abbe c687 3f3e 6466 713c a2c6 71bd
00000120: e739 a0be 3e20 b5be 7f91 773d fa94 a8bc
00000130: c220 473e 81da 80be b6d8 b83d 1e87 8cbe
00000140: b6bb 773d 4819 e33d 7170 713e 1552 a63e
00000150: a992 563e c2f9 81be b58c a23d af7d 71bd
00000160: 44c1 d53c ff5b 9bbe 4c74 a73e 0501 47be
00000170: c6d2 b43d 11d7 0a3d 3dfe 1b3d 3a88 4cbe
00000180: cc39 b43e 119c 213e 9913 8c3b 4546 7bbe
00000190: 3b16 4d3e e3a3 a6bc 022f 61be a29b 573e
000001a0: da16 f93d 09e6 05be dc3b 05be b70a 6dbd
000001b0: 8d8e e93d a746 97bd 56bb 5dbd f57c 88bd
000001c0: 0524 afbe a2f8 8e3d 26e4 273e f014 b8be
000001d0: eee3 083e 3651 363e 1790 543d 1c9a 2dbe
000001e0: 2788 df3d 1036 633e 6fa0 983d b0c2 a1bd
000001f0: e0ae 17bc c15f ca3d 7b32 d8bb 67b0 7dbd
00000200: b01f 363a 017c 123e d013 333d f0f7 52bd
00000210: b912 a0bd b2a3 a93d c9f2 573e 5c4a 153e
00000220: 8062 b8be 156f 63be 1b5e 883e d961 633e
00000230: 984a eb3d 4906 62be 7bc8 a0be aff1 b9be
00000240: bd02 913d 1897 423e 3e99 983e f994 813e
00000250: 81dd c5be c129 4ebe 3f55 aebd 6d7a cf3e
00000260: 91d8 183e 49b7 3ebe 1ae4 7c3e 1182 c0bd
00000270: beeb a8be acbe c33d 20dd 46be 413e 8abd
00000280: 068d 73be fa7d 913e e930 4c3e 7c63 0a3e
00000290: 3d00 20be ce79 89be d6b8 9dbe 004a 213e
000002a0: 9571 3d3e 944e 943e 5915 3d3e f83c 343d
000002b0: 79d0 38bd f967 74be 7f0f 2bbe b8ba 81be
000002c0: bdcd eb3c e4e3 3ebe 4c0b f3bd 4b9a 65be
000002d0: 009f 69bc 7190 50be 264d 55be e3ff 663d
000002e0: 2e03 02be 6070 6f3e 3291 06be 2e2f 7bbe
000002f0: e4a9 893c 2aed b3bd 78b9 46bd 5284 86be
00000300: 8b1c 913d 5579 a5be f616 563e 273b 053e
00000310: 129c 0c3e 7bb1 6abe 4061 a13e 06b0 b4bd
00000320: d1dc 583d 4969 673e c0ac 80bd 7226 8b3d
00000330: 6b10 f8b9 eb7d 8dbe a18f c4bb 678e b1be
00000340: e758 a63e c335 8b3e fada c23e 1265 083c
00000350: f1f9 abbe 8c9a 3d3d ca9d 193e 72ac 6abe
00000360: eb31 2a3b 3985 84be 4ee9 103d 5d40 febd
00000370: 78c1 65be 0af3 37be 9896 adbe 2c58 673e
00000380: 3d3d a93e 54bd 5b3d 2e27 80bd 921e ffbd
00000390: 0c76 4fbe 1255 95be 4930 b8bb f5fd 55be
000003a0: c9c7 febd cf5d 973a e558 aebd 722e 06be
000003b0: dded 92bd 908c 5bbd 0df0 5b3d d1c6 d6bd
000003c0: a475 c7be 9282 4e3e db3f 65be 4df3 c0bb
000003d0: 5c88 afbc eb05 3c3d 8180 963e 57f9 a53d
000003e0: d637 afbe df26 3f3e 8009 723e 50d7 6d3d
000003f0: bc27 8c3e 8152 bd3e a505 873c f35b 8b3d

conv2.bias f4 [32]
0.08532061 0.09239246 -0.052103918 0.0051535997 0.07881981 0.018881192 -0.08696052 -0.05905258
0.064049244 0.04656652 0.01481336 -0.052368406 -0.059522524 0.020800656 0.12823625 0.046237737
-0.123286165 -0.045320585 -0.07390827 -0.079660565 0.07120324 0.012855403 0.0009845607 -0.06304449
-0.059471916 0.06754934 -0.04908433 -0.028076211 0.07787316 0.08185544 0.05693295 0.014693978
00000000: 92bc ae3d 4238 bd3d eb6a 55bd 87df a83b
00000010: 486c a13d bbac 9a3c 5b18 b2bd 1ee1 71bd
00000020: 402c 833d 89bc 3e3d bcb3 723c 4180 56bd
00000030: e4cd 73bd 2366 aa3c 5d50 033e c863 3d3d
00000040: 757d fcbd 14a2 39bd 385d 97bd 1425 a3bd
00000050: 01d3 913d 789f 523c 600c 813a 781d 81bd
00000060: d398 73bd 4f57 8a3d a70c 49bd 1500 e6bc
00000070: f77b 9f3d d3a3 a73d 8632 693d 03bf 703c

pool.weight f4 [32, 225]
-0.47051135 -0.5204636 0.102054425 0.13188036 -0.5314184 -0.33400565 -0.08077505 -0.39216664
-0.4732772 -0.19411106 -0.2817475 -0.2816704 -0.49826586 0.42175308 -0.2263503 -0.18482794
-0.05418989 -0.2996087 -0.2953099 -0.2939432 -0.43012786 -0.2623071 -0.4701332 -0.5101735
-0.2423154 -0.19487453 -0.06287702 -0.2786458 -0.4238379 -0.20939606 0.2506314 -0.2860256
-0.43956894 -0.48205748 -0.30044946 -0.49357298 -0.19560416 -0.5329967 0.05965373 -0.14303124
-0.26483738 -0.2844846 -0.5006083 -0.19394939 -0.049951322 -0.13093083 -0.14885299 0.53765804
-0.34498984 -0.16689625 -0.47854444 -0.45765403 0.015600684 -0.30712253 0.0027522019 -0.52655727
-0.16302465 0.02247611 -0.43300974 -0.50915235 -0.23496942 0.03852254 -0.4712189 -0.25489423
-0.28832567 -0.31997246 -0.44195682 0.5172624 -0.1894955 -0.19983627 -0.12268526 -0.26058784
-0.043993805 -0.32747102 -0.22174533 -0.22887817 -0.52873725 0.28872237 -0.47593814 -0.3170125
-0.45281792 -0.4042728 -0.17375377 -0.019868506 0.27294883 -0.18840851 0.1976544 0.091797546
-0.2651002 0.036859207 -0.2940282 -0.37455475 -0.15024684 -0.3112582 -0.48267192 -0.1763153
-0.38569593 -0.41864535 -0.3586744 -0.43331718 -0.37984022 1.7061917 -0.40627167 0.39748144
-0.23631585 -0.5281389 -0.18910904 -0.45519084 -0.24654955 -0.33091748 -0.35329223 -0.39009926
-0.2974205 -0.38012776 -0.45593163 -0.17471786 -0.24873042 -0.46728978 -0.26407006 -0.3572113
-0.2553781 -0.3050493 -0.20846723 -0.4422451 0.12917545 0.80663884 -0.41143313 0.25221205
0.03954797 -0.3002434 -0.26117483 -0.3977584 -0.4864471 -0.3082395 -0.3078174 -0.4763795
-0.3282616 -0.50248927 -0.19740382 0.3440428 0.11704315 -0.47394124 0.20233704 0.008045618
-0.24863254 -0.31665692 0.3767481 -0.29813898 -0.36139178 0.038522586 -0.3166309 -0.2675783
-0.42459074 -0.40840688 -0.378621 -0.05781287 0.07193872 -0.33153707 -0.52175635 -0.38760412
-0.40354472 0.12464707 -0.32153553 -0.4777777 -0.40549004 -0.38599306 -0.44369105 -0.20694306
0.10989059 0.28416714 -0.3624623 -0.18158543 -0.3621737 -0.2802486 -0.4049149 -0.49959165
-0.19779433 -0.2582816 -0.06760451 -0.14370087 0.14976901 -0.5604393 -0.37672332 -0.32550573
-0.37526053 -0.30015805 -0.44012558 -0.08337059 0.18101832 -0.26381117 -0.02330475 -0.29931068
-0.5203531 -0.39469174 -0.09489008 -0.47936875 -0.51482564 0.27776814 -0.21323825 -0.27838752
-0.29509422 0.46028253 0.62139 -0.2589646 -0.26430687 0.08178209 0.3725731 -0.2310773
-0.4852513 -0.47049543 0.054855395 0.07542294 -0.29605094 -0.31410277 0.20732659 -0.36059073
-0.35267603 -0.2679725 -0.27230546 0.12871034 -0.31497574 0.42682165 0.047795627 -0.08302327
0.05804832 -0.43344203 -0.2611055 -0.011634914 0.012391831 -0.37239426 -0.40169367 -0.2055031
-0.36432847 -0.37962192 -0.3875678 -0.3899081 -0.41641563 -0.54699975 0.4123581 0.058104713
-0.53194076 0.09468562 -0.4051554 -0.2741651 -0.18101798 -0.2627345 -0.53088623 -0.28937006
-0.21739405 -0.20093805 -0.26155546 -0.031561125 -0.43682176 -0.46839765 -0.33949003 0.19350289
00000000: dde6 f0be 1a3d 05bf e901 d13d a50b 073e
00000010: 090b 08bf ca02 abbe 646d a5bd 11ca c8be
00000020: 6451 f2be 0dc5 46be 3541 90be 1a37 90be
00000030: b41c ffbe 05f0 d73e 5fc8 67be 8943 3dbe
00000040: 38f6 5dbd 5066 99be dc32 97be b97f 96be
00000050: b839 dcbe 1e4d 86be 4cb5 f0be bb9a 02bf
00000060: 8721 78be 308d 47be abc5 80bd aaaa 8ebe
00000070: 4801 d9be ec6b 56be c252 803e f371 92be
00000080: 2e0f e1be 3dd0 f6be 83d4 99be 99b5 fcbe
00000090: 754c 48be 7972 08bf 7857 743d c876 12be
000000a0: c498 87be f7a7 91be de27 00bf ab9a 46be
000000b0: c299 4cbd bb12 06be eb6c 18be f5a3 093f
000000c0: 82a2 b0be dae6 2abe c703 f5be a151 eabe
000000d0: 039a 7f3c 2a3f 9dbe 495e 343b 75cc 06bf
000000e0: efef 26be d21f b83c 74b3 ddbe cf57 02bf
000000f0: d39b 70be d0c9 1d3d 9b43 f1be 7f81 82be
00000100: 6c9f 93be 6ed3 a3be 2a48 e2be 4f6b 043f
00000110: 1c0b 42be e1a1 4cbe 6942 fbbd c56b 85be
00000120: d932 34bd 48aa a7be 3511 63be 0a5f 6abe
00000130: 535b 07bf 6bd3 933e 2aae f3be 764f a2be
00000140: c0d7 e7be d8fc cebe 82ec 31be 47c3 a2bc
00000150: f3bf 8b3e 29ee 40be ea65 4a3e 5a00 bc3d
00000160: 37bb 87be aef9 163d dd8a 96be a4c5 bfbe
00000170: 4fda 19be 3c5d 9fbe c620 f7be ff8b 34be
00000180: f079 c5be af58 d6be 2ca4 b7be c0db ddbe
00000190: 6b7a c2be 7d64 da3f d702 d0be b082 cb3e
000001a0: c8fc 71be 1c34 07bf cda5 41be c60e e9be
000001b0: 7c77 7cbe 046e a9be b8e2 b4be 17bb c7be
000001c0: 8047 98be 1ba0 c2be df6f e9be 3de9 32be
000001d0: 30b3 7ebe 9b40 efbe 3134 87be 66e4 b6be
000001e0: ebc0 82be 6c2f 9cbe 6f78 55be f36d e2be
000001f0: 9246 043e e27f 4e3f 5da7 d2be f021 813e
00000200: 0dfd 213d 81b9 99be b5b8 85be fda6 cbbe
00000210: 980f f9be 91d1 9dbe 3e9a 9dbe 04e8 f3be
00000220: e811 a8be 23a3 00bf 3a24 4abe 6126 b03e
00000230: 52b4 ef3d 6da8 f2be 7131 4f3e c5d1 033c
00000240: 8799 7ebe db20 a2be 21e5 c03e aca5 98be
00000250: 5808 b9be dcc9 1d3d 721d a2be 0600 89be
00000260: f563 d9be b51a d1be 9dda c1be 30cd 6cbd
00000270: 9c54 933d 3abf a9be d391 05bf 0c74 c6be
00000280: 6a9d cebe f746 ff3d 4ea0 a4be 479f f4be
00000290: 649c cfbe e2a0 c5be 792b e3be e2e8 53be
000002a0: 510e e13d 5b7e 913e a994 b9be 88f1 39be
000002b0: d56e b9be bf7c 8fbe 0151 cfbe 7aca ffbe
000002c0: 998a 4abe 7c3d 84be 3c74 8abd 5226 13be
000002d0: 0c5d 193e f378 0fbf e1e1 c0be b0a8 a6be
000002e0: 2622 c0be 51ae 99be 2458 e1be 33be aabd
000002f0: de5c 393e 4212 87be 9ae9 bebc 403f 99be
00000300: dc35 05bf 0915 cabe bb55 c2bd d26f f5be
00000310: 9dcb 03bf a037 8e3e 215b 5abe cf88 8ebe
00000320: 9716 97be 27aa eb3e 6a13 1f3f 0297 84be
00000330: 3b53 87be 5e7d a73d e7c1 be3e 879f 6cbe
00000340: dc72 f8be c7e4 f0be 0db0 603d 5877 9a3d
00000350: fd93 97be 14d2 a0be 6c4d 543e 599f b8be
00000360: f491 b4be b133 89be 9f6b 8bbe a5cc 033e
00000370: 8044 a1be 5e88 da3e 59c5 433d 1b08 aabd
00000380: 13c4 6d3d 1dec ddbe 9faf 85be 5ea0 3ebc
00000390: 1b07 4b3c 76aa bebe cbaa cdbe 686f 52be
000003a0: 4389 babe ce5d c2be 496f c6be 09a2 c7be
000003b0: 6e34 d5be 2d08 0cbf 9a20 d33e 35ff 6d3d
000003c0: 452d 08bf 89ea c13d 8770 cfbe 5e5f 8cbe
000003d0: c75c 39be 2385 86be 29e8 07bf 5028 94be
000003e0: 8c9c 5ebe b4c2 4dbe 99ea 85be 3d46 01bd
000003f0: 1aa7 dfbe d1d1 efbe a3d1 adbe 9f25 463e

pool.bias f4 [225]
-0.4234469 -0.42228875 0.1245213 0.14004293 -0.40757143 -0.26303592 -0.2281099 -0.2181134
-0.42164963 -0.4145671 -0.4313819 -0.27407902 -0.43277422 0.3639676 -0.059979327 -0.42439196
0.111335374 -0.27284387 -0.25157583 -0.2979688 -0.41063035 -0.441881 -0.41486645 -0.3060548
-0.2255228 -0.42688996 0.08690318 -0.4364852 -0.4147108 -0.35391396 0.23769839 -0.4127886
-0.40233845 -0.37737307 -0.36235502 -0.23517747 -0.32292333 -0.3675673 0.14007236 -0.26526487
-0.30448362 -0.38174942 -0.37833026 -0.38311106 0.10365989 0.13528258 -0.2436221 0.5255396
-0.39771166 -0.26608193 -0.40225285 -0.4231392 0.12348773 -0.27563158 0.065621994 -0.42425197
-0.16856337 0.20890114 -0.35751933 -0.4110914 -0.2708955 0.13650544 -0.30524942 -0.43211216
-0.32627723 -0.3537467 -0.40399224 0.4601941 -0.4337732 -0.25743097 0.12047297 -0.23334181
0.098393045 -0.22013849 -0.43559572 -0.41540742 -0.2858375 0.24130203 -0.29186165 -0.42275763
-0.3423086 -0.40678185 -0.14458598 0.10238761 0.36149335 -0.2250579 0.1253619 0.13688068
-0.407483 0.07635766 -0.41468588 -0.41387075 -0.20359646 -0.2845182 -0.38513753 0.06339373
-0.23437764 -0.38342863 -0.3717741 -0.40085152 -0.23855346 1.4490448 -0.3827246 0.33691522
-0.40520862 -0.27533475 -0.020568872 -0.27522266 -0.06089486 -0.41656864 -0.24403308 -0.3702302
-0.1981044 -0.29626337 -0.41931748 -0.2899019 -0.1419566 -0.41936842 -0.37519857 -0.31292334
-0.26079577 -0.2372469 -0.39902782 -0.40337202 0.12615761 0.59152687 -0.32052422 0.22903644
0.03994054 -0.26460922 -0.43500704 -0.3609172 -0.408761 -0.36945713 -0.41145977 -0.40782997
-0.38247615 -0.4353254 -0.33504644 0.23793848 0.17984012 -0.2847017 0.2187248 0.110681586
-0.27053317 -0.42202917 0.33996087 -0.37920228 -0.39468122 0.109386005 -0.41085872 -0.24078673
-0.3795685 -0.4245975 -0.2450013 0.09966986 0.09797747 -0.32820553 -0.43789205 -0.42035273
-0.25233936 0.22594541 -0.40976745 -0.4117634 -0.41870868 -0.41464898 -0.24570401 -0.37017378
0.23483352 0.26390052 -0.25313115 -0.1019174 -0.2266661 -0.22154458 -0.1941795 -0.21669506
-0.42100134 -0.41977462 0.12099483 -0.29494494 0.25631794 -0.42372242 -0.30044708 -0.27607766
-0.3875574 -0.3971002 -0.18999916 -0.2525579 0.09136281 -0.3889824 0.035025347 -0.42719045
-0.30608395 -0.3947311 0.076813124 -0.25547066 -0.24793594 0.259651 -0.40647212 0.057912175
-0.39418647 0.3903239 0.46508542 -0.4098574 -0.21497636 0.2301345 0.34134355 -0.32664484
-0.27487054 -0.40437534 0.10554437 0.12372165 -0.2522914 -0.36026606 0.28622302 -0.22600393
-0.22925675 -0.40778768 -0.25194135 0.26062673 -0.3972688 0.44320536 0.12605496 -0.23154825
0.11547092
00000000: 08ce d8be 3b36 d8be 0605 ff3d 6a67 0f3e
00000010: 34ad d0be a5ac 86be a495 69be 1e59 5fbe
00000020: 76e2 d7be 2442 d4be 17de dcbe 1654 8cbe
00000030: 9594 ddbe f659 ba3e e2ac 75bd e749 d9be
00000040: cd03 e43d 31b2 8bbe 8cce 80be 5e8f 98be
00000050: 243e d2be 3a3e e2be 6069 d4be 37b3 9cbe
00000060: 73ef 66be 5291 dabe 4bfa b13d fd7a dfbe
00000070: f954 d4be 3634 b5be 3567 733e 0759 d3be
00000080: 4eff cdbe 0b37 c1be 9986 b9be 5dd2 70be
00000090: 3556 a5be c831 bcbe 216f 0f3e ccd0 87be
000000a0: 47e5 9bbe a974 c3be 81b4 c1be 2227 c4be
000000b0: a34b d43d 8487 0a3e 1278 79be c389 063f
000000c0: dda0 cbbe e43b 88be 16f4 cdbe b4a5 d8be
000000d0: 23e7 fc3d 951f 8dbe d364 863d 8e37 d9be
000000e0: e09b 2cbe 2eea 553e c60c b7be 927a d2be
000000f0: d1b2 8abe 15c8 0b3e a749 9cbe ce3d ddbe
00000100: cf0d a7be 4a1e b5be 12d8 cebe 909e eb3e
00000110: 8517 debe fecd 83be 88ba f63d 28f1 6ebe
00000120: 4b82 c93d fc6b 61be 6706 dfbe 48b0 d4be
00000130: 4b59 92be e117 773e e46e 95be b073 d8be
00000140: 1343 afbe b645 d0be 590e 14be 98b0 d13d
00000150: a815 b93e 9475 66be df5e 003e 732a 0c3e
00000160: 9da1 d0be 6861 9c3d b551 d4be dee6 d3be
00000170: 977b 50be 5fac 91be bf30 c5be 92d4 813d
00000180: b100 70be c250 c4be 2d59 bebe 693c cdbe
00000190: 5c47 74be 4d7a b93f 7bf4 c3be 2780 ac3e
000001a0: 8177 cfbe adf8 8cbe 0d80 a8bc fce9 8cbe
000001b0: e46c 79bd 7c48 d5be cfe3 79be d08e bdbe
000001c0: e1db 4abe d5af 97be c8b0 d6be 066e 94be
000001d0: 125d 11be 75b7 d6be 071a c0be 7d37 a0be
000001e0: 0687 85be daf0 72be 604d ccbe c786 cebe
000001f0: 762f 013e 4e6e 173f c01b a4be 8788 6a3e
00000200: b198 233d dc7a 87be 3eb9 debe 24ca b8be
00000210: 1f49 d1be 7c29 bdbe dbaa d2be 17cf d0be
00000220: ead3 c3be f9e2 debe 358b abbe 25a6 733e
00000230: 0228 383e 6cc4 91be 65f9 5f3e 07ad e23d
00000240: 5383 8abe 3514 d8be 5a0f ae3e cd26 c2be
00000250: a813 cabe c505 e03d 135c d2be cc90 76be
00000260: cd56 c2be d864 d9be 9fe1 7abe b61f cc3d
00000270: 69a8 c83d 8e0a a8be 6333 e0be 7938 d7be
00000280: a032 81be 3c5e 673e 0acd d1be a7d2 d2be
00000290: fc60 d6be df4c d4be d599 7bbe 6b87 bdbe
000002a0: 3378 703e f81d 873e 689a 81be 12ba d0bd
000002b0: 281b 68be 95dc 62be fed6 46be 4fe5 5dbe
000002c0: 7d8d d7be b3ec d6be 23cc f73d 0603 97be
000002d0: 1b3c 833e 25f2 d8be 33d4 99be 0d5a 8dbe
000002e0: ec6d c6be b850 cbbe 248f 42be 454f 81be
000002f0: 6d1c bb3d b328 c7be bd76 0f3d b5b8 dabe
00000300: 09b7 9cbe 321a cabe 3350 9d3d 0dcd 82be
00000310: ebe2 7dbe faf0 843e 1d1d d0be 5135 6d3d
00000320: cfd2 c9be 89d8 c73e ad1f ee3e d4d8 d1be
00000330: c322 5cbe 61a8 6b3e 95c4 ae3e fe3d a7be
00000340: d5bb 8cbe 490a cfbe a627 d83d c761 fd3d
00000350: 572c 81be cb74 b8be d38b 923e 936d 67be
00000360: 48c2 6abe 8cc9 d0be 75fe 80be de70 853e
00000370: d166 cbbe d0eb e23e 8d14 013e fc1a 6dbe
00000380: 057c ec3d

conv3.weight f4 [32, 32]
-0.24426532 0.20170563 -0.052697565 -0.0140973395 -0.01644288 0.29305702 0.22872707 -0.20111805
0.079771824 0.09813417 0.10431281 0.027158666 -0.12971972 -0.19692416 -0.32390288 -0.050843857
-0.07207875 0.018908732 -0.15690127 0.37417224 -0.20266472 0.18925682 -0.027986513 0.05868934
-0.05490817 0.15371625 0.21855363 0.31929958 -0.15492576 0.17210673 0.20844355 -0.29259744
0.08964247 0.06622038 0.19762862 0.24899615 -0.023209073 -0.092539944 -0.12699607 0.05746639
-0.037483227 -0.2738411 0.025014812 0.2090742 0.046993546 0.18593954 -0.117039435 0.23277268
0.092830144 -0.10092532 0.15531813 0.20284174 -0.15776682 -0.090484545 0.18095767 -0.28561088
0.113590635 0.09340888 -0.20176513 0.0006355471 0.09118234 0.20856307 0.2569194 -0.23642156
-0.16973092 0.1426911 0.26503438 0.27624017 0.14919272 0.26846105 -0.15278013 -0.036294512
-0.24860789 -0.13033445 -0.21249908 -0.30875057 0.052870378 0.07893935 0.11163343 0.20620582
-0.25742525 -0.0821056 0.23480864 -0.31032056 0.24512032 0.11626613 -0.26531237 0.083489545
0.017955346 0.037560858 -0.09049075 0.10940257 0.23932095 0.21749753 -0.064861126 -0.24510732
0.3251137 0.081014715 0.23935409 0.12327806 0.034969974 0.14253901 0.15999003 -0.04202037
0.04594266 0.043673486 0.20669962 0.10467936 -0.07959668 0.28694412 0.28451276 0.253194
0.039914835 0.022969356 -0.1665397 0.17795527 -0.19194722 -0.23978132 0.0725575 -0.26905453
0.10442152 -0.16605942 -0.0049539614 -0.14853205 0.24995849 -0.22101252 0.034354288 0.0403855
-0.32082546 0.24355592 0.09365599 -0.26082024 -0.33402157 0.15753177 0.2618888 -0.04616665
-0.08462181 -0.31665567 0.21661237 -0.078643106 -0.108674504 0.111808315 0.27001554 0.13418177
0.10631693 0.26977915 0.020856312 0.09762973 -0.047405377 -0.22593294 0.07929219 -0.1751137
0.1729071 -0.18678005 -0.245656 -0.022082346 0.2275496 -0.23981054 -0.0640185 -0.062323194
-0.103571035 0.14215814 0.24135251 0.17925088 -0.029184705 -0.2647135 -0.26156735 -0.08746074
-0.099290885 -0.17323232 0.07242065 -0.15239829 0.05655566 -0.15648554 -0.032706797 -0.08639774
0.17033477 -0.281994 -0.13093495 0.018845137 -0.05661587 0.017478181 0.18735534 0.0575418
0.042286314 0.06664502 -0.16330124 -0.15299873 0.14901754 0.05322536 0.17297938 0.0015544953
0.30266443 0.18467948 -0.13470736 -0.13761725 0.07835082 -0.26842374 -0.16157512 0.043946914
0.02585759 0.16617392 -0.14245428 0.22396886 -0.17568012 -0.16482614 0.20845142 -0.060444597
0.09272359 -0.04010338 -0.20522717 -0.054328345 0.15953304 0.22845337 0.22581896 0.01761639
0.23582081 0.06706968 -0.021275736 -0.030046245 -0.009045571 0.08132228 -0.06270245 0.22683612
-0.065167226 -0.16532017 0.13426356 -0.18139336 0.16026889 0.27573723 0.058583554 -0.02559639
-0.025063735 0.08490034 -0.23131114 -0.043352548 -0.13846737 -0.27322698 -0.20837374 -0.19896512
0.2430687 0.1760905 -0.19894715 -0.19542617 0.24510746 0.040698122 0.1540135 0.03373036
-0.12313353 -0.151124 0.16530743 -0.27530754 -0.2632811 0.09339651 -0.0693861 0.023584472
00000000: b020 7abe ec8b 4e3e 67d9 57bd 87f8 66bc
00000010: 38b3 86bc 920b 963e 6e37 6a3e e4f1 4dbe
00000020: 695f a33d 91fa c83d f4a1 d53d da7b de3c
00000030: 3fd5 04be 7da6 49be 99d6 a5be a641 50bd
00000040: 069e 93bd 7ce6 9a3c baaa 20be 8193 bf3e
00000050: 5787 4fbe 8acc 413e f943 e5bc 3c64 703d
00000060: 64e7 60bd cb67 1d3e 86cc 5f3e 3c7b a33e
00000070: dca4 1ebe bf3c 303e 3a72 553e 55cf 95be
00000080: 7996 b73d 8d9e 873d 285f 4a3e d9f8 7e3e
00000090: f420 bebc 9585 bdbd 420b 02be e161 6b3d
000000a0: 0388 19bd e734 8cbe ddeb cc3c 8c17 563e
000000b0: 4e7c 403d ef66 3e3e 5fb2 efbd f65b 6e3e
000000c0: bb1d be3d efb1 cebd b70b 1f3e bfb5 4f3e
000000d0: a08d 21be f64f b9bd f84c 393e 973b 92be
000000e0: 35a2 e83d 284d bf3d 859b 4ebe d89a 263a
000000f0: cfbd ba3d 8f91 553e f18a 833e 7e18 72be
00000100: f1cd 2dbe 9e1d 123e 96b2 873e 5a6f 8d3e
00000110: fac5 183e ba73 893e 6572 1cbe 8ea9 14bd
00000120: 1193 7ebe 6576 05be 5c99 59be 8e14 9ebe
00000130: 9c8e 583d f4aa a13d 11a0 e43d 9e27 533e
00000140: 3ecd 83be fb26 a8bd ad71 703e 56e2 9ebe
00000150: d200 7b3e f01c ee3d 06d7 87be 91fc aa3d
00000160: 1717 933c 6ad9 193d 3753 b9bd 740e e03d
00000170: 8d10 753e acb7 5e3e e9d5 84bd 6afd 7abe
00000180: 4e75 a63e 0beb a53d 3d19 753e 3579 fc3d
00000190: ad3c 0f3d bff5 113e 6dd4 233e 8d1d 2cbd
000001a0: 5f2e 3c3d f8e2 323d 11a9 533e 2262 d63d
000001b0: 9603 a3bd 57ea 923e a8ab 913e a5a2 813e
000001c0: bd7d 233d 3b2a bc3c 6289 2abe e839 363e
000001d0: d08d 44be 3c89 75be 0799 943d 84c1 89be
000001e0: f3da d53d 7b0b 2abe d754 a2bb c918 18be
000001f0: 1ef5 7f3e 1b51 62be 15b7 0c3d 446b 253d
00000200: 3c43 a4be b966 793e b6ce bf3d 3b8a 85be
00000210: e004 abbe 0250 213e 4a16 863e 3e19 3dbd
00000220: 334e adbd b120 a2be a2cf 5d3e a30f a1bd
00000230: bd90 debd c2fb e43d 7a3f 8a3e f266 093e
00000240: b1bc d93d 7e20 8a3e dbda aa3c 19f2 c73d
00000250: 242c 42bd f75a 67be f263 a23d 0151 33be
00000260: 8f0e 313e 4543 3fbe 3f8d 7bbe 09e6 b4bc
00000270: c302 693e e590 75be 221c 83bd 9b46 7fbd
00000280: 0d1d d4bd e791 113e 1d25 773e 8b8d 373e
00000290: c314 efbc 8788 87be 28ec 85be 9e1e b3bd
000002a0: 0559 cbbd d063 31be 4751 943d 4c0e 1cbe
000002b0: e8a6 673d bf3d 20be 90f7 05bd 4cf1 b0bd
000002c0: 3d6c 2e3e 8461 90be d013 06be 1e61 9a3c
000002d0: 0be6 67bd 672e 8f3c 14da 3f3e f3b0 6b3d
000002e0: 6a34 2d3d 2f7d 883d 7138 27be b3ab 1cbe
000002f0: 0e98 183e d602 5a3d 8221 313e 35c0 cb3a
00000300: d5f6 9a3e 9e1c 3d3e baf0 09be 89eb 0cbe
00000310: 6576 a03d d66e 89be f373 25be ae01 343d
00000320: 4cd3 d33c 7f29 2a3e 89df 11be 1858 653e
00000330: 7de5 33be 2fc8 28be 4a74 553e c194 77bd
00000340: dee5 bd3d 7143 24bd 1227 52be 6687 5ebd
00000350: a15c 233e aeef 693e 163d 673e 3f50 903c
00000360: 037b 713e d45b 893d 744a aebc 8b23 f6bc
00000370: e033 14bc 4c8c a63d 246a 80bd ba47 683e
00000380: 6576 85bd b149 29be 637c 093e 2ebf 39be
00000390: 871d 243e 6e2d 8d3e 4ff5 6f3d 85af d1bc
000003a0: 7652 cdbc 3be0 ad3d d4dc 6cbe 7192 31bd
000003b0: 64ca 0dbe 68e4 8bbe ed5f 55be 83bd 4bbe
000003c0: 00e7 783e 1151 343e cdb8 4bbe cc1d 48be
000003d0: 73fd 7a3e 13b3 263d b7b5 1d3e d928 0a3d
000003e0: 6f2d fcbd 40c0 1abe 5a46 293e 1cf5 8cbe
000003f0: c8cc 86be ab46 bf3d 4d1a 8ebd 3934 c13c

conv3.bias f4 [32]
-0.027332883 0.0077981204 0.0017901071 -0.017803052 -0.0059341746 -0.013710002 0.00903763 0.0010002945
0.0069642304 -0.0055124587 0.0077304603 -0.0046083513 0.007619186 -0.008254267 0.011270958 -0.006380567
0.020522583 0.004268162 0.00921901 0.05796824 0.0055369204 -0.00042319953 0.032876074 -0.014582901
-0.0035597985 0.0001529022 0.0028347005 -0.01727435 0.031692002 -0.024739563 -0.003226713 -0.0025084077
00000000: 36e9 dfbc 6087 ff3b 07a2 ea3a b5d7 91bc
00000010: 7773 c2bb eb9f 60bc 9112 143c 501c 833a
00000020: 3334 e43b dba1 b4bb cd4f fd3b a701 97bb
00000030: 5daa f93b e83c 07bc d3a9 383c 1314 d1bb
00000040: fa1e a83c f0db 8b3b 550b 173c 1b70 6d3d
00000050: 0e6f b53b e1e0 ddb9 10a9 063d 1fed 6ebc
00000060: 824b 69bb 5f54 2039 62c6 393b f082 8dbc
00000070: 79cf 013d a0aa cabc 4377 53bb 1964 24bb

conv4.weight f4 [32, 32]
-0.22142166 -0.23437344 -0.008268178 0.18370314 -0.04937911 0.19127762 -0.047269173 0.2839075
0.22020933 0.21633443 0.06318652 -0.2290236 0.30071658 -0.29872817 -0.23502286 -0.18936114
-0.06120158 0.12560116 0.087168165 -0.2725987 0.3538668 0.32007527 0.1494658 -0.30889997
0.11371449 0.06291535 -0.0514408 -0.24933136 0.24834087 -0.076217085 -0.26065737 0.21327953
0.14115155 0.046697125 0.1570841 0.06409908 -0.05040389 -0.06900269 0.2348764 0.036447503
-0.26241487 -0.15866056 -0.28577498 0.0012811356 0.24647799 0.15361838 0.07653262 0.06393049
-0.15452936 0.27682295 0.16571377 -0.18311094 -0.16221784 -0.25665784 -0.073743604 0.19512293
-0.05369596 -0.1553828 0.081026204 -0.19218373 0.10275718 0.2476652 0.13676737 -0.10697074
-0.090523034 0.13516897 0.19220276 -0.049560104 -0.0012730656 -0.061216492 0.019594995 -0.33815807
-0.25119928 0.23640417 -0.16093588 0.215054 0.15747903 -0.0025981506 -0.13965839 0.05838716
-0.041617103 -0.14551432 0.22974744 -0.017669575 -0.035301708 -0.21767259 0.024124598 0.10172439
0.30617896 -0.11927566 0.1500611 -0.03503178 0.16934557 -0.031860165 -0.07337024 0.12749913
-0.12722386 0.15994361 -0.2819039 -0.24841347 0.30187207 -0.12042405 -0.26929042 -0.19430721
0.29094404 -0.008747572 -0.2846806 -0.062266115 -0.13298547 -0.2153116 -0.15461124 0.2029937
0.113010265 0.17662543 0.05618113 -0.12487763 -0.103319205 -0.19142081 -0.2170232 -0.28808597
0.015930966 0.16479677 0.244244 -0.0094645005 -0.04376487 -0.00088159245 0.10928442 -0.061012782
-0.14480102 -0.08983096 -0.2711141 -0.22889343 -0.16613668 0.032337476 -0.22224201 0.13172448
-0.12284676 0.2721079 -0.28369346 0.1897997 -0.17018045 -0.107421435 -0.32934186 -0.29834047
-0.2860411 0.0026579099 0.28268397 0.0951475 0.19843195 0.11398254 -0.14888175 -0.15725262
-0.086709194 -0.23808429 0.14011908 -0.10635936 -0.22196981 0.06373107 -0.032981165 0.11984522
-0.20490219 0.31925705 -0.08717435 0.15852936 0.2609421 -0.02614213 -0.23004708 -0.3350926
0.30827802 -0.32896703 -0.09219151 0.21605608 -0.26486292 0.31284112 0.02907928 0.13698985
0.066989064 0.038394466 0.12928648 -0.2654254 0.0529626 -0.14454155 0.27575377 0.29372022
-0.080803744 0.15502965 -0.054099414 0.15633538 -0.08647575 -0.21948811 0.13912733 0.15640442
0.27609992 0.109416366 -0.11914174 0.10714138 0.012011657 0.26235285 0.15860103 0.23843807
0.024765229 -0.25849795 -0.18137644 0.2846326 0.2571344 0.105622634 -0.21220362 0.25496128
0.14168969 -0.23906253 0.059602506 0.29985932 -0.21442418 0.011875393 0.08839653 -0.080852345
0.22636941 0.2561692 0.3032787 -0.2689774 0.026355432 0.22644043 0.2733685 -0.066524155
0.2215564 0.19275047 0.0051190676 0.24780223 0.15182665 -0.08504926 -0.051545363 -0.25404984
-0.2178787 -0.22225831 0.061284516 0.08778796 -0.14116573 0.039797064 0.20303647 0.101581484
-0.19743757 0.3287552 0.09008939 0.025885059 0.16612978 -0.25293446 0.13096675 0.13631757
-0.04357514 -0.1597406 0.2077556 -0.04700101 -0.18191242 0.07291504 0.019411247 -0.10972959
00000000: 5cbc 62be 97ff 6fbe 4177 07bc ad1c 3c3e
00000010: c041 4abd 48de 433e 529d 41bd 535c 913e
00000020: 8e7e 613e c686 5d3e ef67 813d 2a85 6abe
00000030: 86f7 993e e6f2 98be d5a9 70be e3e7 41be
00000040: 82ae 7abd 979d 003e 3985 b23d 0f92 8bbe
00000050: 072e b53e e8e0 a33e 900d 193e 2328 9ebe
00000060: 24e3 e83d c3d9 803d 97b3 52bd b850 7fbe
00000070: 124d 7e3e b417 9cbd e274 85be f365 5a3e
00000080: 088a 103e 7c45 3f3d a8da 203e 6146 833d
00000090: 4f74 4ebd 4851 8dbd 7083 703e fa49 153d
000000a0: 3e5b 86be ea77 22be 1951 92be c7eb a73a
000000b0: ba64 7c3e 234e 1d3e 22bd 9c3d fded 823d
000000c0: f23c 1ebe bdbb 8d3e dfb0 293e 6f81 3bbe
000000d0: 6f1c 26be a868 83be e306 97bd 4ece 473e
000000e0: 4cf0 5bbd ab1c 1fbe 11f1 a53d d0cb 44be
000000f0: 5b72 d23d f29b 7d3e bf0c 0c3e 7a13 dbbd
00000100: 2464 b9bd bc69 0a3e cdd0 443e 89ff 4abd
00000110: fedc a6ba 25be 7abd af85 a03c 0e23 adbe
00000120: 319d 80be ef13 723e 60cc 24be 1e37 5c3e
00000130: 2f42 213e bc45 2abb 9c02 0fbe 6027 6f3d
00000140: b276 2abd b501 15be ea42 6b3e c9bf 90bc
00000150: 8698 10bd 90e5 5ebe f3a0 c53c e154 d03d
00000160: 7dc3 9c3e cc46 f4bd 9ea9 193e 7c7d 0fbd
00000170: ed68 2d3e ce7f 02bd 2343 96bd 228f 023e
00000180: f946 02be 42c8 233e b555 90be 1a60 7ebe
00000190: fa8e 9a3e e2a0 f6bd 6fe0 89be 78f8 46be
000001a0: 9ef6 943e fa51 0fbc a8c1 91be c10a 7fbd
000001b0: 582d 08be a57a 5cbe 6952 1ebe 95dd 4f3e
000001c0: ed71 e73d 4cdd 343e 2f1e 663d d8bf ffbd
000001d0: 0599 d3bd d103 44be 543b 5ebe 0180 93be
000001e0: a881 823c 7cc0 283e 191b 7a3e fe10 1bbc
000001f0: cb42 33bd ab1a 67ba 83d0 df3d 8ae8 79bd
00000200: b846 14be 4bf9 b7bd 78cf 8abe 0a63 6abe
00000210: bc1f 2abe 4d74 043d 6993 63be c8e2 063e
00000220: 1597 fbbd ba51 8b3e 4540 91be da5a 423e
00000230: c943 2ebe c5ff dbbd 7f9f a8be 15c0 98be
00000240: fb73 92be 5430 2e3b f4bb 903e b1dc c23d
00000250: bf31 4b3e ae6f e93d 7574 18be d506 21be
00000260: 9794 b1bd 5ecc 73be 607b 0f3e f0d2 d9bd
00000270: 0e4c 63be 6f85 823d 4217 07bd 6971 f53d
00000280: e1d1 51be a975 a33e 7788 b2bd 8555 223e
00000290: 349a 853e 0528 d6bc 7691 6bbe 4291 abbe
000002a0: 9ed6 9d3e 5e6e a8be e7ce bcbd ce3d 5d3e
000002b0: 1d9c 87be b62c a03e ac37 ee3c 1147 0c3e
000002c0: 9031 893d 8443 1d3d ad63 043e d7e5 87be
000002d0: 50ef 583d b302 14be 992f 8d3e 7f62 963e
000002e0: 6f7c a5bd 18c0 1e3e 5997 5dbd 6216 203e
000002f0: 331a b1bd 7ec1 60be 6577 0e3e 7b28 203e
00000300: f85c 8d3e b015 e03d 9600 f4bd f16c db3d
00000310: 8acc 443c 1d53 863e 4f68 223e 1c29 743e
00000320: 73e0 ca3c d859 84be bfba 39be 5dbb 913e
00000330: 1fa7 833e ae50 d83d e84b 59be 498a 823e
00000340: 1a17 113e cfcc 74be c221 743d 2987 993e
00000350: 0392 5bbe 0291 423c 3d09 b53d ea95 a5bd
00000360: 62cd 673e 9c28 833e 5947 9b3e 68b7 89be
00000370: 59e7 d73c 00e0 673e f5f6 8b3e d13d 88bd
00000380: aedf 623e 6160 453e dabd a73b debf 7d3e
00000390: 7278 1b3e 4e2e aebd 3b21 53bd d212 82be
000003a0: 981b 5fbe af97 63be 7905 7b3d 2dca b33d
000003b0: c08d 10be 3f02 233d cbe8 4f3e f409 d03d
000003c0: 132d 4abe 9a52 a83e c980 b83d e70c d43c
000003d0: ed1d 2a3e a080 81be 261c 063e d596 0b3e
000003e0: d97b 32bd 0a93 23be e2bd 543e 2284 40bd
000003f0: 4047 3abe 7b54 953d 5604 9f3c e8b9 e0bd

conv4.bias f4 [32]
-0.012048892 0.010333693 0.014422421 0.02895718 -0.013619121 -0.0023353708 0.02835389 -0.019628713
0.0020290606 -0.030200288 0.012167981 0.005419949 -0.030173013 0.010104984 -0.017176528 0.03888737
0.025122702 -0.0021490199 -0.035473667 -0.007981886 -0.012530598 0.012345711 -0.014673914 0.026499916
0.01953806 -0.009854308 -0.013110315 -0.0027134465 -0.014141926 -0.03512136 -0.0049427287 -0.006096457
00000000: b768 45bc a64e 293c 054c 6c3c 9c37 ed3c
00000010: bc22 5fbc 050d 19bb 6b46 e83c 65cc a0bc
00000020: fdf9 043b 9866 f7bc 365c 473c d499 b13b
00000030: 652d f7bc 608f 253c cab5 8cbc 5d48 1f3d
00000040: 20ce cd3c 92d6 0cbb d64c 11bd 75c6 02bc
00000050: 234d 4dbc aa45 4a3c db6a 70bc 5a16 d93c
00000060: 480e a03c f773 21bc a6cc 56bc 14d4 31bb
00000070: 89b3 67bc 6adb 0fbd 9df6 a1bb cac4 c7bb

conv5.weight f4 [32, 2]
-0.27066484 -0.017525889 0.28827915 -0.06514351 0.34551704 0.16332622 0.20029117 0.39527974
-0.06243747 -0.050715104 0.23409793 -0.16238137 -0.2990656 0.26818338 -0.34432238 -0.18818112
-0.0012471853 0.00039007544 -0.25107157 -0.11104738 0.25575382 -0.2577484 0.10454981 -0.09244309
-0.0877134 -0.31072277 -0.11788258 0.31825244 -0.15882725 -0.25594047 -0.044420242 0.2842024
-0.13805404 0.37551743 0.37034085 0.34200454 -0.2231349 -0.27955928 -0.26880717 -0.06362439
-0.23573193 0.15557171 0.056209583 0.27437627 -0.3521627 -0.3544622 -0.07331648 0.1188512
0.35980108 -0.0005243197 0.29988787 -0.09342549 -0.06690212 -0.14029688 -0.16611247 -0.1361235
-0.32821316 -0.041029733 -0.14330545 -0.25567564 -0.2912685 -0.366142 -0.07807572 -0.29004115
00000000: 9594 8abe 7492 8fbc 5399 933e f669 85bd
00000010: 9ce7 b03e fd3e 273e 2119 4d3e 1b62 ca3e
00000020: 6fbe 7fbd a4ba 4fbd 5eb7 6f3e 4d47 26be
00000030: 201f 99be 554f 893e 064b b0be 8db2 40be
00000040: 9878 a3ba 0a83 cc39 748c 80be cf6c e3bd
00000050: 2af2 823e 99f7 83be 361e d63d ce52 bdbd
00000060: 15a3 b3bd 0e17 9fbe 6c6c f1bd fcf1 a23e
00000070: 9ca3 22be a10a 83be 00f2 35bd fa82 913e
00000080: 0a5e 0dbe d243 c03e 519d bd3e 381b af3e
00000090: 7a7d 64be 6522 8fbe 18a1 89be 814d 82bd
000000a0: b663 71be 314e 1f3e 053c 663d 0c7b 8c3e
000000b0: ab4e b4be 127c b5be f326 96bd 4268 f33d
000000c0: d937 b83e 8072 09ba e78a 993e dd55 bfbd
000000d0: fb03 89bd fca9 0fbe 6319 2abe f563 0bbe
000000e0: 8e0b a8be cb0e 28bd aabe 12be ebe7 82be
000000f0: 2521 95be f776 bbbe 2ae6 9fbd 4680 94be

conv5.bias f4 [2]
0.05984648 0.07291772
00000000: 9521 753d e355 953d
