GST-recon/checkpoints/best_grid_CapsulePool_0.5.pth (torch, 24666 bytes, 17 tensors)

conv1.weight f4 [2, 32]
0	0x3c7c8539	0.015412622
1	0xbe06bde4	-0.13158375
2	0x3dbe51b3	0.09292927
3	0x3df6ee0c	0.120571226
4	0xbd959ccc	-0.07305297
5	0xbc85bccf	-0.016325383
6	0xbc9251c3	-0.017861253
7	0x3d84d7b8	0.064864576
8	0xbd1fa2ca	-0.038973607
9	0x3e4f2910	0.20230508
10	0x3e7b9faf	0.24572633
11	0x3dd2397c	0.102648705
12	0xbdb5b838	-0.088730276
13	0xbe1c1561	-0.1524253
14	0xbda9670a	-0.08271606
15	0x3bdcc818	0.00673772
16	0x3db46743	0.08808758
17	0xbe98fc1d	-0.29879847
18	0x3e8edb52	0.27901703
19	0xbe97cbac	-0.29647577
20	0x3e13f0c7	0.14447318
21	0x3c1b0379	0.009461277
22	0x3e2c9904	0.16855246
23	0x3cbf97c5	0.023387799
24	0x3d2dd646	0.042440675
25	0xbd5640b3	-0.052307796
26	0x3e858774	0.26079905
27	0x3d8e4628	0.06946975
28	0x3ddc957f	0.107707016
29	0xbe082b64	-0.13297802
30	0x3e5253dc	0.20539802
31	0x3e3922f3	0.18079738
32	0x3ba146fc	0.004921792
33	0x3c29c9e2	0.010363074
34	0x3ded7e02	0.115963
35	0x3e5e6862	0.21719506
36	0xbd9ed90e	-0.07756244
37	0xbd541f28	-0.051787525
38	0xbc8b8e93	-0.017035758
39	0xbde611f7	-0.11233895
40	0x3d5f440e	0.05450826
41	0xbd2592ba	-0.040423132
42	0xbd8840d4	-0.0665299
43	0x3e431d42	0.1905413
44	0x3ea3ee23	0.3201762
45	0xbc7197de	-0.014745681
46	0xbd741b53	-0.05959637
47	0x3c19ebe2	0.009394618
48	0x3e13f298	0.14448011
49	0xbed9aa87	-0.42512915
50	0xbd649613	-0.055807184
51	0x3ea20e2f	0.31651446
52	0x3e98648d	0.29764214
53	0x3cc3e6ed	0.023913825
54	0xbe964fb0	-0.29357672
55	0x3cd41413	0.025888478
56	0xbc0ddb28	-0.008658208
57	0xbcb76482	-0.022386793
58	0x3e1690eb	0.1470372
59	0x3d881b13	0.06645789
60	0xbd8fd795	-0.07023541
61	0x3cda9a34	0.026684858
62	0x3e092dd6	0.13396391
63	0xbee08b97	-0.438565

conv1.bias f4 [32]
0	0xbc80724e	-0.015679505
1	0x3dc36aab	0.0954183
2	0xbd629c79	-0.055325005
3	0xbe4f160e	-0.20223257
4	0x3d4d73f0	0.050159395
5	0x3d0748c9	0.033028398
6	0x3cb43fa1	0.022002997
7	0xbd3b1efa	-0.04568384
8	0x3acad7ab	0.0015475651
9	0xbd7ae350	-0.06125194
10	0xbdfa0088	-0.122071326
11	0xbd28ce60	-0.04121244
12	0xbe920bd5	-0.28524652
13	0x3d6f4ee7	0.058424857
14	0x3dd85cd7	0.10564583
15	0xbc627f9b	-0.013824369
16	0xbdf411b3	-0.11917438
17	0xbe1c1294	-0.15241462
18	0x3d8afdd2	0.06786694
19	0xbecf7d72	-0.40525395
20	0xbe7d70ae	-0.24750015
21	0x3e8bd18c	0.2730831
22	0xbec56c1a	-0.38559037
23	0xbd0dafd2	-0.034591503
24	0xbdf5ca40	-0.12001467
25	0xbd8bd543	-0.06827786
26	0xbd8a8452	-0.06763519
27	0xbdb2a03b	-0.08721968
28	0xbda0b990	-0.07847893
29	0xbd19be05	-0.037534732
30	0x3ddc816d	0.107668735
31	0xbe927372	-0.28603703

conv2.weight f4 [32, 32]
0	0x3d0c584c	0.034263894
1	0x3c4a3266	0.0123411175
2	0xbde8d143	-0.113680385
3	0xbded4e94	-0.11587253
4	0x3d35d09b	0.044388395
5	0x3d30b997	0.043145742
6	0x3d119442	0.03554178
7	0x3d35b912	0.04436595
8	0x3d8f3daa	0.06994183
9	0xbc27b48a	-0.010235915
10	0xbda31b88	-0.079642355
11	0x3e235df7	0.15953813
12	0xbc02adb3	-0.007975983
13	0xbb4ef2b8	-0.0031577777
14	0x3d190efc	0.037367806
15	0x3ba4c2c3	0.0050281
16	0x3e69c9dd	0.22830911
17	0xbe2581f4	-0.16162854
18	0x3da06667	0.07832032
19	0xbdac603b	-0.08416792
20	0xbde7740d	-0.11301432
21	0x39311b12	0.0001689012
22	0x3e1cca71	0.153116
23	0x3deaabfa	0.11458583
24	0xbc59a57e	-0.013284085
25	0x3e6b3861	0.22970726
26	0xbdefa8fd	-0.11702154
27	0x3bcd7832	0.006270432
28	0x3d7fe6c4	0.062475935
29	0x3d2dd868	0.04244271
30	0xbe6ac126	-0.22925243
31	0xbde521c4	-0.11188081
32	0xbe42b844	-0.19015604
33	0x3e77ad1b	0.24187128
34	0x3cd2a89c	0.025715165
35	0x3e6289f3	0.22122936
36	0xbe306481	-0.17225839
37	0xbe95b9c1	-0.2924328
38	0xbdb3289b	-0.08747979
39	0xbc9508d2	-0.018192682
40	0xbd8905f6	-0.0669059
41	0xbe394065	-0.18090971
42	0x3e8252f6	0.2545392
43	0xbe172f7f	-0.14764212
44	0xbd9b9fe7	-0.07598858
45	0x3d2ca811	0.042152468
46	0xbd7167ac	-0.05893676
47	0x3e8a85bf	0.27055165
48	0x3d0c93c8	0.034320623
49	0x3d904284	0.07043937
50	0x3da27b92	0.079337254
51	0xbe54ad96	-0.20769343
52	0xbe169351	-0.14704634
53	0xbe0b65e4	-0.13613087
54	0xbd9d0c62	-0.076683775
55	0xbbc878eb	-0.00611793
56	0x3d01db33	0.031703185
57	0xbe12f27d	-0.14350314
58	0x3e5b839d	0.21436925
59	0xbe1a4fd6	-0.15069517
60	0x3d97280b	0.073806845
61	0xbdbbcd83	-0.091700576
62	0xbe25139e	-0.16120765
63	0xbe3c522d	-0.18390723
64	0x3de327f1	0.110916026
65	0x3e1dc068	0.15405428
66	0xbe422d59	-0.18962611
67	0xbe06421c	-0.13111156
68	0xbe8620e6	-0.26196975
69	0x3e21fbca	0.15818706
70	0x3e0fdbf4	0.14048749
71	0x3dcfa915	0.10139672
72	0xbe323264	-0.17402035
73	0x3db83076	0.08993618
74	0x3e3d6185	0.18494232
75	0xbd458c32	-0.048229404
76	0xbdf382da	-0.11890192
77	0x3e14709d	0.14496084
78	0x3c8db1d9	0.017296718
79	0xbe274300	-0.16334152
80	0xbe335108	-0.1751138
81	0xbe6e859b	-0.23293154
82	0x3d473764	0.04863681
83	0xbd5b7176	-0.053575
84	0x3e822bfd	0.25424185
85	0xbcafa332	-0.021440122
86	0xbe171c12	-0.14756802
87	0xbe7b59b9	-0.24545945
88	0xbdf80b55	-0.121115364
89	0x3e1ee3ce	0.15516588
90	0x3e6a0163	0.22852091
91	0xbd5b9ae0	-0.053614497
92	0xbe9efaea	-0.31050807
93	0x3e424118	0.18970144
94	0x3e2d157e	0.1690273
95	0xbe28c2ab	-0.1648051
96	0xbd343a0f	-0.04400068
97	0x3dc058ea	0.09391959
98	0xbe588d15	-0.21147569
99	0xbe61cf52	-0.22051743
100	0x3e0c2a12	0.13687924
101	0xbe86a3ff	-0.26296994
102	0xbe0f87b1	-0.14016606
103	0xbe1df8b5	-0.15426905
104	0x3e12186e	0.14267132
105	0x3cb5ea3a	0.022206414
106	0x3d003c8f	0.031307753
107	0xbe49ed95	-0.19719537
108	0x3e2afb62	0.16697457
109	0x3e0181b7	0.12647139
110	0xbe400cfe	-0.18754956
111	0xbd3193d9	-0.04335389
112	0xbe0a3474	-0.13496572
113	0xbd639aa4	-0.0555674
114	0x3e36dcfb	0.17857735
115	0xbe771924	-0.24130684
116	0x3e984f25	0.29747882
117	0x3d3278a2	0.043572076
118	0xbe332ab9	-0.17496766
119	0x3de6a627	0.1126216
120	0x3c8850cf	0.016640095
121	0x3c6e6959	0.014551484
122	0xbe54de31	-0.20787884
123	0x3e08a3b0	0.13343692
124	0x3d249622	0.04018224
125	0x3e01a99d	0.12662359
126	0x3dd78942	0.10524227
127	0x3e9f9e7e	0.31175607
128	0x3e68b5e8	0.22725642
129	0xbe9600c9	-0.29297474
130	0x3c7a034f	0.015259578
131	0x3b9230d6	0.004461388
132	0x3da82a7b	0.082112275
133	0xbd8c51f4	-0.06851569
134	0x3e0bdc02	0.13658145
135	0xbe8c7d11	-0.27439168
136	0x3e132d85	0.14372833
137	0x3e91f550	0.2850747
138	0xbc118c51	-0.008883552
139	0xbe9c3e08	-0.30516076
140	0xbe03a786	-0.12856874
141	0xbdccbc0f	-0.09996807
142	0x3c8fbc0e	0.017545726
143	0x3d9f231a	0.07770367
144	0x3c24e500	0.0100643635
145	0x3e87d8c4	0.26532567
146	0xbd07bfd8	-0.03314194
147	0x3da36d92	0.07979883
148	0xbda96674	-0.082714945
149	0x3e948653	0.2900873
150	0x3e188eae	0.14898178
151	0xbdcc70bf	-0.09982442
152	0x3d67a485	0.056553382
153	0x3d2b1d33	0.041775893
154	0x3d39fafd	0.045405377
155	0xbc9aa4c8	-0.018877402
156	0x3d4e3d56	0.050351463
157	0xbd6a48a2	-0.057198174
158	0xbd763634	-0.060110286
159	0xbd82d109	-0.063875265
160	0x3d80673c	0.062696904
161	0xbe4f2993	-0.20230703
162	0x3dbbdb46	0.091726825
163	0xbdad678d	-0.08467016
164	0xbe37c140	-0.17944813
165	0xbe128a2b	-0.1431052
166	0xbe1dd3fb	-0.15412895
167	0x3d6a664d	0.057226468
168	0x3e487b1f	0.19578217
169	0x3e43ffc1	0.19140531
170	0x3eaf5547	0.3424475
171	0x3dd8e2be	0.10590123
172	0x3e3f7e03	0.18700413
173	0xbdbdff7b	-0.09277245
174	0x3e7f5786	0.24935731
175	0xbda8b640	-0.082378864
176	0xbe09d0ba	-0.13458529
177	0xbda0c2c2	-0.07849647
178	0xbe7778fb	-0.24167244
179	0xbdfe34e7	-0.12412434
180	0xbdea1586	-0.114298865
181	0x3e76120f	0.24030326
182	0xbdaffddc	-0.08593342
183	0xbe5e3932	-0.21701506
184	0xbdf40bb4	-0.11916295
185	0x3e4b78a5	0.19870241
186	0x3d252daf	0.04032677
187	0xbce1b2cd	-0.02755108
188	0xbbbe64ff	-0.0058103795
189	0x3e3a2999	0.18179931
190	0xbe5b42c4	-0.21412188
191	0x3e3a4285	0.18189438
192	0x3db93e18	0.090450466
193	0x3e0c641f	0.13710068
194	0xbd850908	-0.06495863
195	0xbcd2a714	-0.025714435
196	0xbd8906cf	-0.06690752
197	0x3e6a895a	0.22903958
198	0x3db820e8	0.08990651
199	0xbe6d007e	-0.23144719
200	0x3def9edc	0.11700222
201	0x3d449f22	0.048003323
202	0x3e1cf788	0.153288
203	0xbe2add72	-0.16686037
204	0xbe464ad7	-0.19364487
205	0x3dd02ee6	0.10165195
206	0xbe3bf85e	-0.18356463
207	0x3d178da7	0.037000325
208	0xbd5fca98	-0.054636568
209	0x3e2e407a	0.17016783
210	0xbe632916	-0.22183642
211	0xbd09eb6f	-0.033671793
212	0xbdb312a2	-0.08743788
213	0xbdd1c73d	-0.1024308
214	0x3ea4ae89	0.3216441
215	0x3d040418	0.032230467
216	0x3be1b892	0.0068884576
217	0x3ddc9429	0.10770447
218	0xbe207aba	-0.15671816
219	0x3d409cf6	0.04702469
220	0xbe239cc4	-0.1597777
221	0xbda86f3c	-0.08224341
222	0xbe2305bc	-0.15920156
223	0xbe3ae32d	-0.18250723
224	0x3df136a0	0.11777997
225	0xbe2fe5c8	-0.17177498
226	0x3c52e6d2	0.012872415
227	0xbe43207c	-0.1905536
228	0xbe426c94	-0.18986732
229	0xbcb54183	-0.022125965
230	0x3caba857	0.020954294
231	0x3e5859fd	0.21128078
232	0xbd0ac172	-0.03387589
233	0x3e64af8b	0.2233259
234	0xbd633bfb	-0.055477124
235	0x3e802cc8	0.25034165
236	0x3e92a342	0.2864018
237	0x3b5c9bd1	0.003366221
238	0xbdca51ee	-0.09878908
239	0x3e47fc58	0.19529855
240	0xbdd307d4	-0.103042275
241	0xbddb9725	-0.10722188
242	0xbe056ca9	-0.13029732
243	0xbde92add	-0.11385129
244	0xbd717654	-0.058950737
245	0xbe7738c4	-0.24142748
246	0x3e7b3e92	0.24535587
247	0xbe84ece7	-0.25961992
248	0xbe582d78	-0.21111095
249	0x3d0d9570	0.034566343
250	0x3e129d8a	0.14317909
251	0x3e96dcae	0.2946524
252	0xbe05a6ff	-0.13051985
253	0x3e7a47ec	0.24441499
254	0x3e6b8660	0.23000479
255	0xbe384373	-0.1799448

conv2.bias f4 [32]
0	0xbdef8591	-0.11695398
1	0x3ceff2b1	0.029290529
2	0x3dcfc4f6	0.10144989
3	0xbcc98042	-0.02459729
4	0xbdf879c2	-0.121325985
5	0x3e301816	0.17196688
6	0x3e19eebf	0.1503248
7	0x3d60056e	0.05469268
8	0x3ce5ebd6	0.028066557
9	0x3d8b76cb	0.06809767
10	0xbdb4954a	-0.08817537
11	0xbdb76348	-0.08954483
12	0xbe0b6518	-0.13612783
13	0xbd64c247	-0.05584934
14	0xbe1a5141	-0.15070058
15	0x3dfe56c0	0.1241889
16	0xbebc8cbf	-0.3682613
17	0x3e4464de	0.19179103
18	0xbd457594	-0.048207834
19	0x3e152e73	0.145685
20	0x3e230092	0.15918186
21	0x3d8d2453	0.06891694
22	0x3e2a3887	0.16623126
23	0x3e5ba925	0.21451242
24	0xbd6efe2d	-0.05834787
25	0x3e3d8d1c	0.1851086
26	0x3cc1b095	0.023643771
27	0x3ded63d8	0.11591309
28	0x3e95cfbf	0.2926006
29	0x3e8a6487	0.2702982
30	0xbdb5be71	-0.088742144
31	0xbd805842	-0.06266834

pool.gcn_transform.weight f4 [32, 32]
0	0x3c5bfa16	0.013426324
1	0xbdf3c6a8	-0.11903125
2	0x3e534d6e	0.20635006
3	0xbe12e26b	-0.14344184
4	0xbdc4075c	-0.09571716
5	0x3de55062	0.111969724
6	0x3d8e153e	0.069376454
7	0xbe69af89	-0.22820868
8	0xbd64d0fd	-0.05586337
9	0x3e2b9809	0.16757216
10	0x3d55a958	0.052163452
11	0xbec0c5af	-0.3765082
12	0xbda67f3a	-0.08129735
13	0xbe77ae90	-0.24187684
14	0x3dc51d7a	0.09624763
15	0x3da66503	0.08124735
16	0x3eb97e6f	0.36229274
17	0x3ead7b87	0.33883306
18	0xbe2ee3fa	-0.17079154
19	0x3e037cb6	0.12840542
20	0xbeccdb3c	-0.40011013
21	0xbc5e59d4	-0.013571221
22	0x3edf299b	0.4358643
23	0x3dec0971	0.11525238
24	0x3dc975c3	0.098369144
25	0x3d8bd046	0.068268344
26	0xbe53b2c5	-0.20673664
27	0xbe65094b	-0.22366826
28	0x3d4dba03	0.050226223
29	0xbeb47fa5	-0.35253635
30	0x3e664e66	0.22490844
31	0x3e2a0de7	0.16606866
32	0x3d195639	0.037435744
33	0xbecfd382	-0.40591055
34	0x3e2fae04	0.17156225
35	0xbea537aa	-0.3226903
36	0xbe48e4c0	-0.19618511
37	0x3e75ea7e	0.24015233
38	0x3d1716b0	0.03688687
39	0x3d0f76ab	0.03502528
40	0x3eeba031	0.46020654
41	0x3e3d9fe8	0.1851803
42	0x3e0ab401	0.13545229
43	0x3e6a0b3d	0.2285585
44	0xbcf25f27	-0.029586388
45	0xbda5e03a	-0.080994084
46	0xbebbce99	-0.3668106
47	0xbddd61d4	-0.10809675
48	0x3eb09802	0.34490973
49	0xbd90f928	-0.07078773
50	0xbe11f024	-0.14251763
51	0x3ead89bf	0.33894154
52	0x3d07ecd4	0.03318484
53	0xb9b77d2b	-0.00034997737
54	0x3e634326	0.22193584
55	0xbd95457e	-0.07288645
56	0x3eac1ade	0.33614248
57	0xbe48c9d7	-0.19608246
58	0x3cfe929f	0.031075774
59	0xbe09292d	-0.13394614
60	0xbd73f9b7	-0.05956432
61	0x3c407550	0.0117467195
62	0x3cd11aa3	0.025525397
63	0xbe4a8d96	-0.19780573
64	0xbe709628	-0.2349478
65	0x3dea210c	0.114320844
66	0x3ec9d11b	0.39417347
67	0x3ea456fb	0.3209761
68	0x3e615edf	0.22008847
69	0xbe5c6d44	-0.21526057
70	0x3ea13bfd	0.3149108
71	0x3e2893c8	0.16462624
72	0x3dcc3f38	0.099729955
73	0x3d8d29cf	0.0689274
74	0x3e78b740	0.24288654
75	0x3e3076c2	0.17232803
76	0x3d34436d	0.044009615
77	0xbeb8c616	-0.36088628
78	0x3daee229	0.085392304
79	0xbe817323	-0.25283155
80	0x3e65eed5	0.22454388
81	0x3f08441c	0.53228927
82	0xbecd8f42	-0.4014836
83	0x3ed2f9bd	0.4120616
84	0xbdb91f64	-0.090391904
85	0xbe9d57a8	-0.3073094
86	0x3e3315b9	0.17488755
87	0x3eb5ead4	0.35530722
88	0x3e832f84	0.2562219
89	0x3e36d101	0.17853166
90	0x3e85ed61	0.26157668
91	0x3e862ea5	0.26207462
92	0x3e546e3c	0.20745176
93	0xbeb48e51	-0.3526483
94	0xbea2469d	-0.316945
95	0x3c020e9b	0.0079380525
96	0x3dd91b30	0.10600889
97	0xbd8a4431	-0.06751288
98	0x3da23a38	0.079212606
99	0xbe9c8d76	-0.30576676
100	0xbea7921f	-0.3272867
101	0x3e692024	0.22766167
102	0x3e1bda64	0.15220028
103	0xbdcea222	-0.10089518
104	0x3db3353a	0.087503865
105	0x3d29084f	0.04126769
106	0xbc40ed07	-0.011775262
107	0xbd5f7642	-0.05455614
108	0x3efb0fd4	0.49035513
109	0xbe228ade	-0.15873286
110	0xbd824510	-0.06360829
111	0xbdb52d97	-0.08846586
112	0x3dbf602d	0.09344516
113	0x3e705d4b	0.23473088
114	0xbe80c8ca	-0.2515319
115	0xbd2c16c0	-0.042013884
116	0xbda40f20	-0.08010697
117	0xbdab45bc	-0.0836291
118	0xbbd46da1	-0.0064827953
119	0x3e9a868d	0.3018078
120	0xbdaef716	-0.08543222
121	0x3eb0de1a	0.3454445
122	0xbe90d158	-0.28284717
123	0x3ec55b4f	0.38546225
124	0x3d9fc5a4	0.07801369
125	0xbe04c6d8	-0.12966478
126	0x3ead6010	0.33862352
127	0xbe2c0c62	-0.16801599
128	0xbe89ce2a	-0.26915103
129	0xbe5a8a73	-0.21341877
130	0x3ec64e83	0.38731775
131	0x3e608b2c	0.2192809
132	0xbabaf818	-0.0014264612
133	0x3b245a75	0.002507833
134	0xbe1f9bb6	-0.15586743
135	0xbd8cc45e	-0.068733916
136	0xbe2f268c	-0.17104548
137	0xbeb0f5b1	-0.34562448
138	0x3e07b861	0.13253929
139	0x3e830e68	0.2559693
140	0x3d74d00e	0.05976873
141	0xbe96ba5c	-0.29439056
142	0xbd9d5f2d	-0.07684169
143	0x3d1e221f	0.03860676
144	0x3de494ca	0.11161192
145	0x3d65836f	0.056033548
146	0xbe4a28c3	-0.19742112
147	0x3d5e262f	0.054235633
148	0x3e23223b	0.15931027
149	0xbde8c532	-0.11365737
150	0x3d06a9d2	0.032876797
151	0xbe5765b3	-0.21034889
152	0x3e38fe68	0.18065798
153	0x3dfab5bc	0.12241694
154	0xbd89131c	-0.06693098
155	0x3d1347a1	0.035956983
156	0x3e94d250	0.29066706
157	0x3dfe90e0	0.124299765
158	0x3d9787e1	0.07398964
159	0xbde04dd7	-0.10952347
160	0xbdacc6c7	-0.08436351
161	0x3d69d099	0.0570837
162	0xbba5b6d0	-0.0050571933
163	0xbe2798d3	-0.16366892
164	0xbdb81b0d	-0.089895345
165	0xbed48a47	-0.41511747
166	0x3d9e618c	0.07733449
167	0x3e3ee207	0.1864091
168	0xbe639f17	-0.22228657
169	0x3d2581e2	0.04040707
170	0xbdf4b4dc	-0.11948559
171	0x3e66b9fa	0.22531882
172	0x3e123c2c	0.14280766
173	0x3ebd8f36	0.37023324
174	0x3eb9f9b9	0.36323336
175	0x3da5df1d	0.08099196
176	0x3d87a671	0.06623543
177	0xbe68db95	-0.22740014
178	0x3e8ba7a3	0.27276334
179	0xbd4d45ba	-0.050115325
180	0x3ea84a81	0.32869342
181	0xbca5e7bd	-0.020252103
182	0xbe473349	-0.19453157
183	0x3e052e8d	0.13006039
184	0xbe4393f6	-0.19099411
185	0x3e3c44ba	0.18385592
186	0x3dd2d7b2	0.10295047
187	0x3ddbbb79	0.10729117
188	0xbe78cb5d	-0.24296327
189	0xbe65cd9f	-0.2244172
190	0xbe9fc87e	-0.3120765
191	0xbe6f75b4	-0.23384744
192	0xbe83b176	-0.2572133
193	0xbe93bbc5	-0.28854194
194	0x3c1be32e	0.009514613
195	0x3e204ace	0.15653536
196	0x3e1ad689	0.15120901
197	0x3e73f78f	0.23824905
198	0xbe557121	-0.20843937
199	0x3e377c0e	0.17918417
200	0x3e28b49f	0.16475151
201	0x3dee2c54	0.11629549
202	0xbcbee52d	-0.023302639
203	0xbda41a48	-0.08012825
204	0x3e329b7d	0.17442127
205	0xbe7ce38c	-0.24696177
206	0x3e718cdc	0.2358889
207	0x3d53cd9f	0.051709767
208	0xbe30f6ec	-0.17281693
209	0x3d0c0d5e	0.034192435
210	0x3e9142b1	0.28371194
211	0x3e8bb8cd	0.2728943
212	0x3dd4c879	0.103897996
213	0x3d8e74fb	0.06955906
214	0x3dbc53fe	0.09195708
215	0x3e2ca74f	0.16860698
216	0xbdd410c1	-0.10354758
217	0x3e30b2d5	0.17255719
218	0xbd6f07b6	-0.058356963
219	0xbe6eade3	-0.2330852
220	0xbe421d69	-0.18956532
221	0xbe028aeb	-0.12748305
222	0xbe68a515	-0.22719224
223	0xbea467a3	-0.3211032
224	0x3e971b84	0.2951318
225	0xbdc693f9	-0.09696192
226	0x3d8046c8	0.062635005
227	0xbe8e76e3	-0.27825078
228	0x3e021d7c	0.1270656
229	0x3e9d0064	0.3066436
230	0x3e9e0f67	0.30871126
231	0xbe51dc91	-0.20494296
232	0xbdc38d64	-0.095484525
233	0x3e9ef435	0.3104569
234	0x3eb32e61	0.34996322
235	0x3eb21daa	0.34788257
236	0xbea30440	-0.3183918
237	0xbeadc709	-0.33940914
238	0xbe7e67dc	-0.24844307
239	0x3e454190	0.19263291
240	0xbe4550e7	-0.19269143
241	0xbd11317c	-0.035447583
242	0x3e606bb9	0.21916093
243	0x3e6d07a6	0.23147449
244	0xbcb0776b	-0.021541318
245	0x3e18b35f	0.14912175
246	0x3e09acab	0.13444774
247	0x3d9dba87	0.07701593
248	0xbde1ed19	-0.11031551
249	0x3e6f2df8	0.2335738
250	0x3da916d4	0.08256307
251	0xbe2ec421	-0.17067005
252	0x3e336ed6	0.1752275
253	0xbe5a4b1f	-0.21317719
254	0x3e96602d	0.2937025
255	0x3dc8444f	0.09778654

pool.gcn_transform.bias f4 [32]
0	0xbe094f21	-0.13409092
1	0xbd934807	-0.071914725
2	0xbe854a57	-0.2603328
3	0xbe9adab3	-0.3024498
4	0xbdfe6289	-0.12421138
5	0x3e56ab4c	0.20963782
6	0xbe9dedc0	-0.3084545
7	0xbde29596	-0.110636875
8	0x3e902c8e	0.28158993
9	0xbd9f5218	-0.0777933
10	0xbdbb4d34	-0.09145585
11	0xbd9257ad	-0.07145629
12	0x3db7c2e4	0.08972719
13	0x3ddf7acd	0.10912094
14	0xbca940a5	-0.020660708
15	0xbef500dc	-0.47852218
16	0xbd3b7923	-0.04576982
17	0xbe35e7e5	-0.17764242
18	0x3ed93777	0.4242513
19	0xbf035c10	-0.5131235
20	0x3d683ee6	0.05670061
21	0xbe88ec4b	-0.26742777
22	0xbe526d57	-0.20549522
23	0x3e6bf5ed	0.23043032
24	0x3da54343	0.0806947
25	0x3f2552fb	0.64579743
26	0xbe0f50c0	-0.13995647
27	0x3f0ea4fe	0.5572051
28	0xbe7119a1	-0.23544933
29	0x3e93dbcf	0.28878638
30	0x3e813784	0.25237668
31	0x3e557f1a	0.20849267

pool.bn_feat.weight f4 [32]
0	0x3f8928dd	1.0715595
1	0x3f895ab1	1.0730802
2	0x3f64df8c	0.89403605
3	0x3f7b2409	0.9810186
4	0x3f519870	0.81873226
5	0x3f8ba28a	1.0908978
6	0x3f3b867a	0.7325207
7	0x3f817597	1.011401
8	0x3f7a8387	0.97856945
9	0x3f60ba5d	0.8778437
10	0x3f7dc2a2	0.9912511
11	0x3f3d3096	0.7390226
12	0x3f813cf2	1.0096724
13	0x3f731499	0.94953305
14	0x3f7830a9	0.9694925
15	0x3f85b45c	1.0445666
16	0x3f8856e1	1.0651513
17	0x3f22a309	0.6353002
18	0x3f4ad8f2	0.7923728
19	0x3f7ab824	0.97937226
20	0x3f7af7fb	0.9803464
21	0x3f11b282	0.56913006
22	0x3f71510e	0.94264305
23	0x3f4a4604	0.79013085
24	0x3f4b23f4	0.79351735
25	0x3f681818	0.90661764
26	0x3f5bdfb1	0.858882
27	0x3f8c94cb	1.0982908
28	0x3f7aa8e6	0.9791397
29	0x3f8ec5aa	1.1154072
30	0x3f469349	0.7756849
31	0x3f6cbcd4	0.9247563

pool.bn_feat.bias f4 [32]
0	0x3db35329	0.08756096
1	0x3d8d400c	0.068969816
2	0xbf23b1e5	-0.6394332
3	0x3e7587fc	0.23977655
4	0xbe37619f	-0.17908333
5	0xbd029ea2	-0.031889565
6	0x3e37dd00	0.17955399
7	0xbd27f7ef	-0.041007932
8	0x3edd4cb6	0.43222588
9	0x3ddab155	0.10678355
10	0xbe06dd18	-0.13170278
11	0x3e4328d7	0.19058548
12	0xbc70c094	-0.014694352
13	0x3e9b863e	0.30375856
14	0x3f01ab71	0.50652224
15	0xbe229281	-0.158762
16	0x3e288d71	0.16460206
17	0xbfcc05dc	-1.5939288
18	0xbf2a19fe	-0.6644591
19	0xbf2561be	-0.6460227
20	0xbf69e57d	-0.91365796
21	0x3ea915ad	0.3302435
22	0xbf25fd09	-0.64839226
23	0xbd816c4c	-0.06319484
24	0x3f96fc9a	1.1795838
25	0xbe8c87a3	-0.27447233
26	0x3dc41e16	0.09576051
27	0x3bcde045	0.0062828385
28	0xbef0eeed	-0.47057286
29	0xbedea811	-0.434876
30	0x3f20e1cf	0.62844557
31	0xbf192549	-0.5982252

pool.bn_feat.running_mean f4 [32]
0	0xbd43c741	-0.047797445
1	0x3c0d266c	0.0086151175
2	0xbd23e848	-0.040016443
3	0x3c0d9c5e	0.008643238
4	0xbd4a8693	-0.049444746
5	0x3cccc535	0.02499638
6	0xbd179873	-0.03701062
7	0xbd80d1de	-0.06290029
8	0x3c92aa0b	0.017903348
9	0xbd396bab	-0.045268696
10	0xbd980cbe	-0.074243054
11	0xbd650b6f	-0.055919107
12	0x3ce801e4	0.028321214
13	0x3c8217f3	0.01588056
14	0x3cfaf620	0.03063494
15	0xbd83bb26	-0.0643218
16	0xbcd4c23e	-0.025971528
17	0x3d28b382	0.041186817
18	0x3ca4d84e	0.020122673
19	0xbd8988e9	-0.06715567
20	0xbc48d920	-0.012258798
21	0xbd0cdd07	-0.034390476
22	0xbceec81c	-0.029148154
23	0x3d2f01d3	0.04272635
24	0xbcbc5e98	-0.022994325
25	0x3d7f3236	0.062303744
26	0xbc927048	-0.017875805
27	0x3d406f11	0.04698092
28	0xbd50f66a	-0.05101625
29	0x3d010d55	0.031506855
30	0x3b57f06c	0.00329497
31	0xbb49068a	-0.0030674064

pool.bn_feat.running_var f4 [32]
0	0x397fd6a0	0.00024398649
1	0x3b1cc41f	0.0023920608
2	0x3b6d6ffb	0.0036230076
3	0x3b25be37	0.0025290379
4	0x38f25b2f	0.000115564435
5	0x3b791da9	0.0038012064
6	0x3b20d02f	0.002453815
7	0x3ad235db	0.0016037779
8	0x3a52da0e	0.0008043357
9	0x39076a55	0.00012914215
10	0x3b1facd0	0.002436448
11	0x39724bd8	0.00023107172
12	0x39ffaad9	0.00048764682
13	0x3b999c56	0.004687826
14	0x3a74d8ac	0.0009340148
15	0x3a8208d3	0.0009920843
16	0x3a8f31d9	0.001092489
17	0x3bb3f830	0.0054922327
18	0x3c1a553a	0.009419734
19	0x3bf49944	0.0074645597
20	0x3bb63748	0.0055607893
21	0x3945de8f	0.00018870294
22	0x3b60fffb	0.0034332264
23	0x3a88b309	0.0010429333
24	0x3aed5058	0.0018105609
25	0x3aa5f709	0.0012662123
26	0x3a8f3494	0.0010925704
27	0x3a3a718c	0.0007112257
28	0x3b6e7a4c	0.0036388813
29	0x3b83f897	0.004027437
30	0x3b6e2188	0.0036335904
31	0x3ae696e8	0.0017592581

pool.score_add.weight f4 [1, 32]
0	0xbda92839	-0.08259625
1	0x3d4771dc	0.04869257
2	0x3e2a2e08	0.16619122
3	0x3d4cf9b0	0.050042808
4	0xbdfccd92	-0.12343897
5	0x3dc21f1c	0.0947859
6	0x3d706aba	0.058695532
7	0xbd4d0ea8	-0.050062805
8	0xbd80a5e2	-0.0628164
9	0x3dbc4b75	0.0919408
10	0x3e13d05f	0.14434956
11	0xbd8f6dd3	-0.07003369
12	0xbdec9543	-0.11551907
13	0x3e286566	0.1644493
14	0xbe09d8bd	-0.13461585
15	0x3b999d64	0.004687952
16	0xbd9fda7a	-0.07805343
17	0x3cfb4e1f	0.0306769
18	0xbde5416e	-0.1119412
19	0x3ddfcf6d	0.10928235
20	0x3e012d7c	0.12615007
21	0xbe02dbc9	-0.12779154
22	0x3d6e9278	0.058245152
23	0x3cc37242	0.023858193
24	0x3e2c7546	0.16841611
25	0xbe0a59b7	-0.13510786
26	0xbde4d82c	-0.11174044
27	0xbd1ff110	-0.039048254
28	0xbe05dab0	-0.13071704
29	0xbd772302	-0.06033612
30	0xbdc9e173	-0.09857454
31	0x3c9c196f	0.019055096

conv3.weight f4 [32, 32]
0	0xbe2a3153	-0.16620378
1	0xbd9be82b	-0.07612642
2	0x3f7f192e	0.99647796
3	0xbe1ea1ac	-0.1549136
4	0xbf0a1332	-0.5393554
5	0xbf33b7b7	-0.702022
6	0x3e840677	0.25786182
7	0xbdcc0169	-0.099612065
8	0x3eb09019	0.34484938
9	0xc009eca8	-2.1550694
10	0x3f19af05	0.60032684
11	0x3e70ea47	0.2352687
12	0xbe75a0be	-0.239871
13	0xbf132b60	-0.5748806
14	0xbcc1af91	-0.023643287
15	0x3fae57ef	1.3620585
16	0xbf85d2f2	-1.0455
17	0x3d3139b6	0.043267928
18	0xbf90b920	-1.1306496
19	0xbd171c27	-0.036892083
20	0x3e7f0602	0.24904636
21	0xbdaa285f	-0.083084814
22	0x3f27e34e	0.65581214
23	0x3f6690e5	0.9006484
24	0xbf209d0c	-0.62739635
25	0xbeda91bd	-0.42689314
26	0xbe887a5d	-0.26655856
27	0x3eae55d7	0.34049866
28	0x3e8a8f4d	0.27062455
29	0x3ee2a567	0.44266817
30	0x3e80e7b6	0.2517678
31	0xbdd49e0c	-0.103817075
32	0xbf119688	-0.5687032
33	0xbfc164fc	-1.5108943
34	0xbecadb97	-0.3962066
35	0xbeaf233d	-0.34206572
36	0xbebdff4d	-0.37108842
37	0xbf2440b2	-0.6416122
38	0xbed47a72	-0.41499668
39	0x3eb8b68f	0.3607678
40	0xbe0e57a9	-0.13900627
41	0xbf58f896	-0.8475431
42	0xbf4b31ea	-0.7937304
43	0x3efccee7	0.49376604
44	0xbe455fc5	-0.19274814
45	0x3ed07d25	0.40720478
46	0x3f2f2511	0.68415934
47	0x3f90aa34	1.1301942
48	0xbf0e80c3	-0.55665225
49	0x3eedc1fc	0.4643706
50	0x3f84fb5b	1.0389208
51	0xbc8f179a	-0.017467309
52	0xbf379367	-0.71709293
53	0x3f83515f	1.0259207
54	0x3e3cd6db	0.18441336
55	0x3f11b4c0	0.5691643
56	0x3eb940b3	0.36182174
57	0x406e3711	3.722111
58	0x3e748556	0.23878989
59	0x3e7b1cd4	0.24522716
60	0x3d3550ed	0.04426663
61	0x3f0b7c85	0.54486877
62	0x3ec4befb	0.38426957
63	0x3f18ba23	0.5965902
64	0xbf4287e3	-0.75988597
65	0x3e915795	0.28387132
66	0x400a82cf	2.164234
67	0x3e134154	0.1438039
68	0xbecdc5d5	-0.40189996
69	0xbfd09e2d	-1.6298271
70	0x3d385a27	0.04500785
71	0x3d46094a	0.048348702
72	0x3e6a1d40	0.2286272
73	0xbfc0176e	-1.500715
74	0x3e3d5282	0.18488505
75	0x3e4b003d	0.1982431
76	0xbe4fde5b	-0.20299666
77	0xbec5cfb0	-0.38635015
78	0x3f1a3328	0.6023431
79	0x3f23fdd2	0.64059174
80	0xbf94e0b1	-1.163107
81	0x3f139d5d	0.5766199
82	0xbed5a8f9	-0.41730478
83	0xbdad8fd3	-0.08474698
84	0x3e661f99	0.22472991
85	0xbd91d2c6	-0.0712028
86	0x3f43fb75	0.7655557
87	0x3e80f18a	0.2518428
88	0xbf1cb508	-0.6121373
89	0xbec3bdd7	-0.38230774
90	0xbe0ab164	-0.13544232
91	0x3e1ea905	0.15494163
92	0x3ed47c9b	0.41501316
93	0x3da4465f	0.08021235
94	0x3e4d3769	0.20040669
95	0x3ca51ea7	0.020156218
96	0xc010c1b9	-2.261824
97	0xbf0f5d94	-0.56002164
98	0x3f761bd1	0.96136194
99	0xbcc921dc	-0.024552278
100	0xbf886ded	-1.0658547
101	0xc01d3ced	-2.4568436
102	0x3e8f8038	0.2802751
103	0x3f1e045d	0.6172541
104	0x3f17a3f3	0.5923454
105	0xbf2be425	-0.67144996
106	0xbe819e0d	-0.25315896
107	0x3f954836	1.1662662
108	0x3ec3de4f	0.38255545
109	0x3d9bd30b	0.076086126
110	0x3f2cb4ae	0.67463195
111	0x3f2ef1c6	0.68337667
112	0xbf6de99a	-0.9293457
113	0x3f2ca6ba	0.67441905
114	0x3f408a8e	0.7521142
115	0x3efd1b0f	0.49434707
116	0xbed5b9e7	-0.41743395
117	0x3fa9d5e0	1.3268394
118	0x3e8cc917	0.2749717
119	0x3f7362ea	0.95072806
120	0xbe6d548b	-0.23176782
121	0x3fc1823e	1.5117872
122	0x3e22fdb9	0.159171
123	0x3f181a9d	0.5941561
124	0x3e905977	0.28193256
125	0x3e4c9113	0.19977216
126	0x3f0efefc	0.55857825
127	0x3ebb7b9a	0.36617738
128	0x3ed7ba43	0.42134294
129	0xbe79fcb2	-0.24412802
130	0x3f8efeba	1.1171486
131	0xbe0bba1c	-0.13645214
132	0xbedcc560	-0.43119335
133	0xbf02c55d	-0.510824
134	0x3e67f45b	0.22651808
135	0x3eb0c228	0.3452313
136	0x3a90a52a	0.0011035551
137	0xbfe566b6	-1.792197
138	0x3ee576eb	0.4481729
139	0xbe8124e5	-0.2522346
140	0xbf25c248	-0.64749575
141	0xbce9bc2a	-0.028532106
142	0x3e80fd3f	0.2519321
143	0x3fb4b02a	1.4116261
144	0xbf62dc3f	-0.8861732
145	0x3f7e8ed0	0.99436665
146	0xbf49b71a	-0.78795016
147	0xbef4e5ea	-0.4783166
148	0x3eccef06	0.4002611
149	0x3cda3a91	0.026639255
150	0x3eec7cd7	0.46188995
151	0x3f221f4e	0.6332902
152	0xbe88ffdd	-0.26757708
153	0xbdd7e9a8	-0.10542613
154	0xbf488bbc	-0.7833822
155	0x3e72fd3c	0.23729414
156	0x3d7cb0c6	0.06169202
157	0x3dc03124	0.09384373
158	0x3f061156	0.523702
159	0x3d467cc5	0.048458833
160	0x3dd95f73	0.106139086
161	0x400e60a1	2.2246478
162	0xbf699a3f	-0.91250986
163	0xbdaaea1c	-0.08345434
164	0x3e683c31	0.22679211
165	0x3f9f4f85	1.2446142
166	0xbd53a83b	-0.05167411
167	0xbf2342e9	-0.6377397
168	0xbdf39ca2	-0.1189511
169	0x4011f30a	2.280459
170	0x3eca2d9c	0.39487922
171	0xbfb313c8	-1.3990412
172	0x3f39fa81	0.72647864
173	0x3d3aa887	0.045570876
174	0xc0053098	-2.081091
175	0xc0497e92	-3.1483502
176	0x3fd7aa95	1.6848933
177	0xbf63deee	-0.8901204
178	0xbe45abc1	-0.193038
179	0x3d25c42c	0.040470287
180	0x3f2371b3	0.63845366
181	0xbfd4d229	-1.6626636
182	0xbec302e2	-0.38088137
183	0xbffe6830	-1.9875546
184	0x3e178342	0.14796165
185	0xc0aba44c	-5.363806
186	0x3f0e2805	0.55529815
187	0xbfccb159	-1.5991622
188	0x3b4eab03	0.0031535036
189	0xbf0e93b4	-0.5569413
190	0xbfd272f8	-1.6441336
191	0xbf8c89aa	-1.0979512
192	0xbf4a0b0e	-0.7892312
193	0xbe23ddd0	-0.16002584
194	0x3fe92748	1.8215113
195	0x3e7120c7	0.2354766
196	0xbf99677b	-1.1984705
197	0xbff33455	-1.9000345
198	0x3ea71a65	0.32637325
199	0x3ee7c430	0.45266867
200	0x3f0f7aa1	0.5604649
201	0xbffe01c3	-1.9844288
202	0x3e5e17a2	0.21688703
203	0x3f250e55	0.64474994
204	0xbf06d01e	-0.5266131
205	0xbede068f	-0.4336438
206	0x3f5474d7	0.82990783
207	0x3fa80bf0	1.3128643
208	0xbfaff0c2	-1.3745348
209	0x3f798840	0.97473526
210	0xbe930396	-0.28713673
211	0x3dd6668b	0.10468777
212	0x3dfffa10	0.124988675
213	0x3e5c01aa	0.2148501
214	0x3f25e41a	0.6480118
215	0x3f638c75	0.88886195
216	0xbf05031c	-0.5195787
217	0x3f1f3907	0.6219639
218	0xbd9a02ed	-0.07520089
219	0x3edf32d2	0.4359346
220	0x3f15423e	0.583042
221	0x3ed29c98	0.41135097
222	0x3e328857	0.17434822
223	0x3e7a5556	0.24446616
224	0x3f91c6e0	1.1388817
225	0xbf3e1cf9	-0.7426296
226	0x3ebd4466	0.36966246
227	0xbe9dc250	-0.3081231
228	0x3e4d9bb2	0.20078924
229	0x3ef864ef	0.48514506
230	0xbef7acb2	-0.48373944
231	0x3eb9345b	0.36172757
232	0xbedc90a1	-0.43079093
233	0xc0177931	-2.366772
234	0x3edb0b7b	0.42782196
235	0x3da2e72d	0.079542495
236	0xbf4bc6bc	-0.7960012
237	0x3e13a7c2	0.14419463
238	0x3ef90ba0	0.48641682
239	0x4056f6ab	3.3588054
240	0xbf5ecc8e	-0.87030876
241	0x3f813ed2	1.0097296
242	0xbf9beeee	-1.218229
243	0xbf3c3d96	-0.7353147
244	0xbc0dc146	-0.008652037
245	0x3d370cef	0.04469007
246	0x3e0adbe9	0.13560452
247	0x3f434b62	0.762869
248	0xbd0462c9	-0.03232077
249	0x400d0f6b	2.204066
250	0xbf7fd4a7	-0.99933857
251	0x3f63b870	0.88953304
252	0xbda3f19c	-0.08005068
253	0x3f46926e	0.77567184
254	0x3f5a6832	0.8531524
255	0x3f844196	1.0332515

conv3.bias f4 [32]
0	0xbde37bd8	-0.11107606
1	0xbd04100d	-0.03224187
2	0x3bb5e6f7	0.005551215
3	0xbd498d8a	-0.049207248
4	0x3de3dfb8	0.11126655
5	0xbc33555d	-0.010945645
6	0xbde57e24	-0.112057
7	0xbd668365	-0.05627765
8	0xbd93b130	-0.0721153
9	0xbd8c3bdb	-0.06847354
10	0xbd5f08dd	-0.054451812
11	0xbcf79083	-0.030220276
12	0x3df21412	0.11820234
13	0x3d0dc6c8	0.0346134
14	0xbcea16d7	-0.028575344
15	0x3d052bbd	0.032512415
16	0x3d97f4a9	0.07419712
17	0xbdd1e780	-0.10249233
18	0x3bc82828	0.0061083026
19	0xbd32a47e	-0.043613903
20	0x3d1b13d1	0.037860695
21	0xbcb2811c	-0.02179008
22	0x3bb7732e	0.0055984473
23	0x3dc303b8	0.09522194
24	0xbcbd54f5	-0.0231118
25	0xbadf100c	-0.0017018332
26	0x3e501683	0.20321088
27	0xbd4f2de4	-0.050580874
28	0x3d6c2227	0.057649758
29	0xbd4e377f	-0.050345894
30	0x3d112d18	0.035443395
31	0xbd845487	-0.06461435

conv4.weight f4 [32, 32]
0	0x3e12c44f	0.14332698
1	0xbf415b63	-0.7553007
2	0x3e1dbb8f	0.15403579
3	0x3ecf7cad	0.40524808
4	0x3dcd57e4	0.100265294
5	0xbbbcf474	-0.005766446
6	0xbe18839a	-0.14893952
7	0x3eb690b6	0.3565728
8	0xbd019401	-0.03163529
9	0x3f814f7b	1.010238
10	0xbf14199c	-0.57851577
11	0xbe65db65	-0.22446974
12	0xbe3b892a	-0.18314043
13	0xbdaf4e9c	-0.085599154
14	0xc03579e5	-2.8355649
15	0x3cff47eb	0.031162223
16	0xbe4b01e6	-0.19824943
17	0xbeb62681	-0.3557625
18	0xbf1b8ac2	-0.607586
19	0xbe6fcc19	-0.23417701
20	0xbded6e3d	-0.11593292
21	0xbe038835	-0.12844928
22	0xbd9713f6	-0.07376854
23	0x3d65d049	0.05610684
24	0x3ecb00c8	0.39649034
25	0x3d02e313	0.031954836
26	0x3fa73f5b	1.306621
27	0x3e678434	0.22609025
28	0x3d731071	0.05934185
29	0xbf174941	-0.5909615
30	0x3e54f6aa	0.2079722
31	0xbebe6bfe	-0.37191767
32	0xbe6885b3	-0.22707252
33	0x3fcb5688	1.5885782
34	0xbc8ad6e8	-0.016948178
35	0xbd399598	-0.04530868
36	0xbe91c17a	-0.28467923
37	0xbe191294	-0.14948493
38	0x3e8752a5	0.2643024
39	0x3ed8d053	0.4234644
40	0xbdfa4247	-0.12219673
41	0xbe32d52a	-0.17464128
42	0x3e04f027	0.12982236
43	0xbe9cf0f6	-0.3065259
44	0x3e904579	0.28178003
45	0xbea1cfb2	-0.3160377
46	0xc011fc55	-2.2810261
47	0x3dc9a9bc	0.098468274
48	0x3e156ebe	0.14593026
49	0x3e9be1d2	0.30445725
50	0x3f00d1d7	0.5032019
51	0x3ea7861b	0.32719502
52	0xbd4cd73e	-0.05000996
53	0xbe648206	-0.22315225
54	0xbd3667aa	-0.044532456
55	0xbd5b247d	-0.053501595
56	0xbedc84c1	-0.43070033
57	0x3b1c6028	0.0023861025
58	0x3f72605e	0.94678295
59	0xbe723d3b	-0.2365617
60	0x3eb00de7	0.34385607
61	0x3f0e33e7	0.55547947
62	0x3e6dcc3d	0.23222442
63	0xbe83a836	-0.25714272
64	0xbd2ac652	-0.04169304
65	0xbf413bfe	-0.75482166
66	0xbea035da	-0.31291085
67	0x3ea77f0b	0.32714114
68	0x3e84c2c0	0.25929832
69	0x3da360f5	0.079774775
70	0x3d8fb2a0	0.07016492
71	0xbdd42609	-0.10358817
72	0x3cbd07b8	0.02307497
73	0xbffbd97b	-1.9675745
74	0xbe788de4	-0.24272877
75	0x3e16433b	0.14674084
76	0x3e53be56	0.20678076
77	0x3e2232d9	0.1583971
78	0x3faf1a0b	1.3679823
79	0x3dbf738f	0.09348213
80	0x3d3d83a9	0.04626814
81	0xbe4d9d53	-0.20079546
82	0x405d9055	3.4619343
83	0x3ebbf2f1	0.36708787
84	0x3e8696d0	0.26286936
85	0x3e70b633	0.23507003
86	0x3e98584b	0.29754862
87	0x38cb495a	9.693457e-05
88	0x3dbe429d	0.09290049
89	0xbdf02682	-0.11726095
90	0xbf00e1cc	-0.5034454
91	0xbda368a7	-0.07978945
92	0x3e28fd5d	0.165029
93	0xbfaa3e95	-1.3300349
94	0x3eaa5c88	0.3327372
95	0xbf5f360e	-0.87191856
96	0x3e4aaf22	0.1979337
97	0xbd744bb1	-0.059642497
98	0x3dd2b253	0.10287919
99	0x3db504bf	0.08838796
100	0x3d884cf1	0.066553004
101	0x3dee6ce8	0.11641866
102	0xbdef1593	-0.11674037
103	0xbe53a9f8	-0.20670307
104	0xbed3e622	-0.41386515
105	0xbea4dfd1	-0.32202008
106	0xbd76ca48	-0.060251504
107	0xbe9fbef6	-0.3120038
108	0xbebd8935	-0.37018743
109	0xbea812d6	-0.3282687
110	0x3ecb6806	0.397278
111	0xbe4b2e4a	-0.19841877
112	0x3d54da03	0.051965725
113	0xbf02694c	-0.5094192
114	0x3f2d8e05	0.6779483
115	0x3e922118	0.28540874
116	0xbe25edda	-0.16204014
117	0x3e0f0668	0.13967288
118	0xbc57a445	-0.0131617235
119	0x3ebd1138	0.369272
120	0xbe17512c	-0.14777058
121	0x3e10d3a3	0.14143233
122	0xbd2c0d99	-0.042005155
123	0xbd9488c6	-0.0725265
124	0x3cf25ce2	0.029585306
125	0xbdf88849	-0.12135369
126	0x3bc9fdb7	0.0061642784
127	0xbd165025	-0.036697526
128	0x3e709d74	0.23497564
129	0xbdb82e8c	-0.08993253
130	0x3e938543	0.28812608
131	0xbeafc954	-0.3433329
132	0x3e7e927d	0.24860568
133	0xbe367b6f	-0.17820524
134	0x3dde4802	0.10853578
135	0x3e37fee0	0.17968321
136	0x3cf0fe40	0.02941811
137	0x3f388f0c	0.7209327
138	0xbe8439cc	-0.25825346
139	0x3dcb780c	0.099350065
140	0x3eaff802	0.34368902
141	0x3e600c9d	0.21879812
142	0xbfadc679	-1.3576194
143	0xbdfad8e7	-0.12248402
144	0xbe703e31	-0.23461224
145	0x3eb51efc	0.35375202
146	0xbf67f81b	-0.90612954
147	0xbe90e740	-0.2830143
148	0x3eba0063	0.3632842
149	0x3df86c72	0.12130059
150	0x3e5dc68b	0.2165777
151	0xbe732869	-0.23745884
152	0x3e84b26a	0.2591737
153	0x3dc541ad	0.09631667
154	0x3f57a6b7	0.8423876
155	0xbeb6c489	-0.3569682
156	0x3e23567d	0.15950961
157	0x3eb57683	0.3544198
158	0xbea0928c	-0.31361806
159	0x3e7db9a5	0.24777849
160	0x3d3e2e2d	0.046430755
161	0xbe624500	-0.22096634
162	0xbe2b2014	-0.16711456
163	0xbf1de3a4	-0.6167548
164	0xbe5371e8	-0.2064892
165	0xbec6d12b	-0.38831457
166	0x3e2a46b2	0.1662853
167	0x3e04cf67	0.12969743
168	0xbe515b69	-0.20445026
169	0x400fe05b	2.2480686
170	0x3d88d3d3	0.06681027
171	0xbe0f18f1	-0.13974358
172	0xbe6606e4	-0.22463566
173	0x3d2ae6a6	0.04172387
174	0xc039895f	-2.8990095
175	0x3e4bbdfb	0.1989669
176	0xbe54f2c5	-0.20795734
177	0x3ea1d95c	0.31611145
178	0xc02e4d46	-2.7234664
179	0xbe8a4961	-0.2700911
180	0x3ea394e1	0.31949523
181	0x3c3e8ede	0.011630742
182	0xbe76fefc	-0.24120706
183	0xbdb9e60d	-0.09077082
184	0x3e60b9f6	0.21945938
185	0x3e13c03c	0.144288
186	0x3f8dc811	1.107668
187	0xbe447d1b	-0.19188349
188	0x3e19bb88	0.15012944
189	0x3e87139c	0.26382148
190	0x3cc112d8	0.023568556
191	0x3d1476ae	0.036245994
192	0x3d4154a0	0.047199845
193	0x3eabb6d6	0.3353793
194	0xbc90cc68	-0.017675593
195	0x3dab732a	0.08371575
196	0xbe002e48	-0.12517655
197	0x3e7f615a	0.2493948
198	0xbe470299	-0.19434585
199	0x3dedaed1	0.11605609
200	0xbdad9641	-0.08475924
201	0xbcedb713	-0.02901796
202	0x3ed28b49	0.4112189
203	0xbe1b817d	-0.15186115
204	0x3d11a0dd	0.0355538
205	0x3b840ea3	0.004030065
206	0x3edeed48	0.43540406
207	0xbd663c32	-0.05620975
208	0x3e0d4b05	0.13798149
209	0xbf0dea3a	-0.55435526
210	0x3e699c80	0.22813606
211	0x3eb1edec	0.34751832
212	0xbca7217a	-0.020401705
213	0x3e98e0da	0.29859048
214	0x3e9f8357	0.31154892
215	0xbdbd886b	-0.09254535
216	0x3d2f085c	0.04273258
217	0xbec076d1	-0.3759065
218	0xbe16dc01	-0.14732362
219	0xbcb29142	-0.02179778
220	0x3e63d554	0.22249347
221	0x3e175c64	0.14781338
222	0x3ec24a61	0.37947372
223	0xbe854c15	-0.26034608
224	0xbe0c4479	-0.13697995
225	0xbee63469	-0.4496186
226	0x3e10b1eb	0.1413037
227	0x3e48de11	0.19615962
228	0xbe9ac488	-0.30228066
229	0x3e717d61	0.23582985
230	0x3e917f88	0.2841761
231	0xbe9caa27	-0.30598566
232	0xbf0a420a	-0.5400702
233	0xbf06e24c	-0.5268905
234	0x3d54a616	0.051916204
235	0x3dc94505	0.098276176
236	0xbd589992	-0.05288083
237	0x3e048abc	0.12943548
238	0x3f95c1f7	1.1699818
239	0x3d1dbb09	0.03850845
240	0x3e8b8327	0.272485
241	0xbea7a91e	-0.32746214
242	0x3f0918e9	0.53553635
243	0xbd05690a	-0.032570876
244	0xbe2534c4	-0.1613341
245	0xbe08c73e	-0.13357255
246	0x3deffb65	0.117178716
247	0x3ec2e2f4	0.38063776
248	0xbdb764ec	-0.08954796
249	0xbe8c0bde	-0.27352804
250	0xbebcd8f1	-0.36884263
251	0x3e872194	0.26392806
252	0x3de46147	0.11151367
253	0xbd1010ab	-0.035172146
254	0x3e0f1c79	0.13975705
255	0xbf05b0cc	-0.52222896

conv4.bias f4 [32]
0	0x3d040bd4	0.032237843
1	0xbe711325	-0.2354246
2	0xbdade7db	-0.084914885
3	0xbe086e44	-0.13323313
4	0x3da64a1b	0.08119603
5	0xbe06d3a1	-0.13166668
6	0xbdae93c0	-0.08524275
7	0xbdbba4fd	-0.091623284
8	0x3bf3ff67	0.007446218
9	0x3ca53cda	0.020170618
10	0xbdce969d	-0.10087321
11	0xbdbc4763	-0.091933034
12	0xbba90bfa	-0.0051588984
13	0xbdaab9c3	-0.083362125
14	0x3d25bb10	0.0404616
15	0x3d7f2bb8	0.062297553
16	0xbddbdfd2	-0.1073605
17	0xbd7d6a05	-0.061868686
18	0x3de8a594	0.113597065
19	0xbdda11d9	-0.106479354
20	0x3df6e252	0.12054886
21	0xbd9864c5	-0.07441095
22	0x3d644ec2	0.05573917
23	0x3d9c89a8	0.07643443
24	0x3bfa143a	0.0076318057
25	0x3d8373bd	0.0641856
26	0x3dade640	0.08491182
27	0xbde9a5ff	-0.11408614
28	0x3da6abbf	0.08138227
29	0xbd843c31	-0.06456793
30	0xbda29f34	-0.07940522
31	0x3b904c55	0.0044036307

conv5.weight f4 [32, 2]
0	0x3a2fcc36	0.000670615
1	0xbb584b47	-0.0033003853
2	0xbf7c6641	-0.9859353
3	0xbe06cc02	-0.1316376
4	0x3d71a7db	0.05899797
5	0xbe81da0d	-0.25361672
6	0xbe35606e	-0.17712566
7	0xbe278563	-0.16359477
8	0x3dadcbd4	0.08486143
9	0x3db92cdc	0.09041759
10	0xbe9c9efa	-0.3059004
11	0xbe97b566	-0.29630584
12	0xbcc6a110	-0.024246722
13	0x3cbcf446	0.023065697
14	0xbed2084e	-0.4102196
15	0x3b09a560	0.0021003112
16	0xbecdcdb2	-0.40195996
17	0xbe70a367	-0.23499833
18	0x3f171690	0.590188
19	0xbe93e630	-0.28886557
20	0xbbf1eef6	-0.0073832227
21	0xbda76b72	-0.081747904
22	0x3ca9ae19	0.020712899
23	0xbca03d17	-0.01956038
24	0x3c8797ab	0.016551813
25	0xbd1fad7b	-0.038983803
26	0xbe48b0d7	-0.19598709
27	0xbe929851	-0.28631833
28	0xbecc2e65	-0.39879146
29	0xbf0dd39d	-0.5540102
30	0xbbb79fab	-0.0056037507
31	0x3bbffd70	0.0058590695
32	0xbe79027e	-0.24317357
33	0xbe79d741	-0.24398519
34	0x3e525b3a	0.20542613
35	0xbed1ba2b	-0.40962347
36	0xbebcc656	-0.36870068
37	0x3eed0d08	0.46299005
38	0xbea3dfa3	-0.3200656
39	0xbd380b4f	-0.04493266
40	0x3e090305	0.13380058
41	0x3ec9e6dd	0.39433947
42	0xbb6f56a3	-0.0036520145
43	0x3aa899fb	0.0012863273
44	0x3c3d80b9	0.011566334
45	0x3b6195b5	0.0034421508
46	0x3e8941b1	0.2680793
47	0x3dcd0ac7	0.10011821
48	0x3dbc342c	0.091896385
49	0xbcae2134	-0.021256067
50	0x3e9db4af	0.30801913
51	0xbe811182	-0.2520867
52	0xbe16884f	-0.14700435
53	0x3f5e629b	0.8686921
54	0xbe15d365	-0.14631422
55	0xbec70d02	-0.38877112
56	0x3d8c8807	0.06861883
57	0x3e1e6f75	0.15472205
58	0xbe6e15db	-0.23250525
59	0xbece763b	-0.40324578
60	0x3e8a956c	0.27067125
61	0xbd94d454	-0.07267061
62	0xbbe4668f	-0.0069702337
63	0xbea13168	-0.31483006

conv5.bias f4 [2]
0	0x3e869fab	0.26293692
1	0x3eae44d7	0.34036896
