GST-recon/checkpoints/best_grid_CapsulePool.pth (torch, 24666 bytes, 17 tensors)

conv1.weight f4 [2, 32]
000000 9f ef 7d 3d b0 34 1a be 24 1e 03 3e 20 ff 26 3e
       0.0619961 -0.15059161 0.12804466 0.1630826
000010 19 f0 2c be d5 1b 27 bd 2e 45 86 bd 33 bd 7a 3d
       -0.16888465 -0.040798027 -0.06556164 0.06121559
000020 c5 e8 82 3d d2 2d 8c 3e 54 7c b8 3e 52 61 29 bc
       0.063920535 0.27378708 0.36032355 -0.010338144
000030 3e 4f d2 bd 96 19 4a be 10 46 cb bd 46 90 98 3a
       -0.102690205 -0.19736323 -0.09925473 0.0011639677
000040 97 26 40 3e 5a e0 73 bf d6 42 c5 3e d5 3d 3d be
       0.18764721 -0.9526421 0.38527554 -0.18480618
000050 1a cd 79 3e c2 26 ce b9 79 93 0d 3e 97 4a a3 3d
       0.24394646 -0.0003932026 0.13825788 0.07973211
000060 e6 2c 98 bd c8 0c 80 ba 5b 23 e0 3e fa 00 e1 3d
       -0.07430439 -0.0009769434 0.43776974 0.109865144
000070 9a cf de 3d 9f 98 84 be ad 9a 8d 3e 10 35 18 3c
       0.108794406 -0.2589769 0.2765707 0.009289995
000080 30 2c 35 3d 58 05 31 bc a8 e0 b8 3d 65 a6 67 3e
       0.044231594 -0.010804497 0.09027225 0.22622068
000090 36 46 e8 bd b2 33 62 bd 09 81 8d bc 0f 67 1e be
       -0.11341517 -0.05522508 -0.017273443 -0.15469001
0000a0 e1 75 be 3d 8c a4 0e 3a 56 d5 a9 bd cb 2f 79 3e
       0.09299827 0.00054413895 -0.08292644 0.24334638
0000b0 b4 ef b0 3e d7 ca a5 bc 5b fa a6 bd 51 7e 81 ba
       0.3455788 -0.020238323 -0.0815322 -0.0009879564
0000c0 70 5f 29 3e 7a 35 69 bf 5d 34 af be 56 cd b4 3d
       0.16540313 -0.91097224 -0.34219638 0.08828227
0000d0 2f 3e 6a 3e 84 83 09 3b 99 83 fe bd 52 41 2b 3c
       0.22875284 0.002098293 -0.12427444 0.010452585
0000e0 7b 38 bb bd b7 5f 3f ba 1a 43 37 3e 0e 3d b4 3d
       -0.09141632 -0.00073003344 0.17896691 0.08800708
0000f0 9a 9e 0a bd fd 1e 60 bc 40 b1 e5 3d ad 52 99 be
       -0.03384266 -0.013679263 0.112154484 -0.2994589

conv1.bias f4 [32]
000000 0c ea 0f be f8 ba ef 3d cb a1 5b be 5c 5f 49 be
       -0.14054126 0.11705583 -0.21448438 -0.19665283
000010 aa 22 91 3e b1 a5 a0 3d 28 5d 37 3d d9 21 04 be
       0.2834676 0.07844103 0.044766575 -0.12903537
000020 c7 eb 62 be ef a7 0a 3d 14 56 73 3e 37 87 4c 3d
       -0.22160254 0.03385156 0.23763305 0.04993364
000030 2f 69 01 be 06 97 27 3e 34 3b a9 3e 10 e4 a7 bb
       -0.1263778 0.16366205 0.3305298 -0.0051236227
000040 7a 37 a3 be 3f a1 7d 3f 5d c3 a8 be 3e 19 73 bc
       -0.31878263 0.99074167 -0.3296155 -0.014837561
000050 4e de ac be ae bc 5b 3c 33 ad ea 3d 48 ae 27 be
       -0.33763355 0.013411684 0.114588164 -0.16375077
000060 4a 84 2a 3e 0c 9e f6 39 aa b6 e1 bc dd 98 6e be
       0.16652027 0.0004703853 -0.027552921 -0.233005
000070 ee ba 13 be be 10 e5 3c 09 83 ee bd 59 46 d4 3d
       -0.14426777 0.027962085 -0.11646087 0.1036498

conv2.weight f4 [32, 32]
000000 12 af b1 bd b3 90 a9 3d 93 0e 00 be 05 16 6e bd
       -0.0867597 0.08279552 -0.1250556 -0.05812647
000010 b0 5a f0 3d 00 c9 1d 3e b1 8d 89 3c cf b5 d7 bd
       0.11736047 0.15408707 0.016791197 -0.10532724
000020 0e 0e b9 3d 9d 35 d9 bd e8 a5 44 be e0 5b 7e 3e
       0.09035884 -0.10605929 -0.19203913 0.24839735
000030 9b 29 2d 3c f1 6d 04 3d 2d 00 06 3e 3a 8d 20 3d
       0.010569002 0.03233141 0.13086005 0.039197184
000040 2c fc 72 3e 80 51 73 be 6c 7f 06 be d0 81 d3 bd
       0.23729008 -0.23761559 -0.13134545 -0.10327494
000050 bf bd a9 bd 49 bd b9 bd 8b ce f3 3d 5e 6f 0d 3e
       -0.08288144 -0.090693064 0.11904629 0.13812014
000060 27 75 5e 3d b0 cc 94 3e c7 61 4b be 9d ac cc bd
       0.054310944 0.29062414 -0.19861518 -0.09993861
000070 e6 21 2b 3e 8b 03 52 3d ed 9a 94 be 37 ce 00 be
       0.1671215 0.05127291 -0.2902445 -0.12578665
000080 88 6d aa bd f7 af 74 3e 12 fa 9a bd 88 16 14 3e
       -0.08321673 0.2389525 -0.075672284 0.1446172
000090 76 93 95 be 3e 94 8c be a2 80 5d be 85 d0 85 3c
       -0.29214066 -0.2745685 -0.21631101 0.016334781
0000a0 55 59 b0 bd 48 e2 17 be fb 55 6b 3e bc f0 33 be
       -0.08610789 -0.14832413 0.22982018 -0.17572302
0000b0 9b bd 95 3d 3c 6d d5 3c 95 72 b0 bd 53 a9 84 3e
       0.07311555 0.026053064 -0.08615605 0.25910434
0000c0 87 06 89 3d 8c a4 97 bd 07 67 20 3e be 6f 86 be
       0.06690698 -0.07404432 0.15664302 -0.26257128
0000d0 6c 6b c1 bd ae ae 34 be 09 13 08 be e2 84 7e bc
       -0.09444317 -0.1764476 -0.13288511 -0.015534611
0000e0 73 40 9b 3d 0e 3b 15 be d1 b3 28 3e b9 a5 3e be
       0.07580652 -0.14573309 0.16474845 -0.18617906
0000f0 5f 1c 3d 3c 43 f8 1e be 5f 77 21 bd 7d 20 14 be
       0.011542409 -0.15524392 -0.03942048 -0.14465518
000100 0a 7d 8e 3d 94 ec 4d 3e fe 0f d3 bd a1 3c 62 bd
       0.06957443 0.20109779 -0.10305785 -0.0552336
000110 2f f5 4d be 68 e1 5e 3e ec 85 21 3e 1e be c4 3d
       -0.20113061 0.21765673 0.15773743 0.096065745
000120 66 fd 2a be c0 aa b7 3d 5b 2f 40 3e 0e 09 5c bd
       -0.16698226 0.08968115 0.18768065 -0.053719573
000130 c3 2a 4f be 50 ac 17 3e 37 97 a4 3c f4 c7 2d be
       -0.20231156 0.14811826 0.020091636 -0.16970807
000140 37 1d 82 be 3f 1e 21 be 11 9b c0 bd 34 42 44 bc
       -0.25412914 -0.15734194 -0.094045766 -0.011978675
000150 bf bf 30 3e ae 99 8c bd 2b 49 1f be 8a 92 1c be
       0.17260645 -0.068652496 -0.15555255 -0.15290275
000160 6b d4 8b be ba 21 66 3e e4 00 7c 3e fd d6 8f 3d
       -0.273105 0.22473803 0.24609715 0.07023428
000170 bb 95 82 be a0 0b 27 3e 75 15 fa 3c 29 9e 80 be
       -0.2550486 0.16313028 0.03052781 -0.25120667
000180 f0 25 ec bd 2c 2d 00 3e f1 e9 eb bd 10 65 84 be
       -0.115306735 0.12517232 -0.1151923 -0.25858355
000190 70 57 3f 3e d9 37 21 be c0 92 09 be 50 b7 37 be
       0.18685699 -0.1574396 -0.13434887 -0.17941022
0001a0 5d 40 64 3e f1 4e 52 3c f0 51 46 3d ec 50 72 be
       0.22290178 0.012836204 0.048417985 -0.23663682
0001b0 69 3e 0c 3e 32 74 80 3d 5d 8f 32 be df fd 9c bd
       0.13695683 0.062721625 -0.17437501 -0.076656096
0001c0 83 22 1f be 46 2e ca b7 1c ec c2 3d 35 a0 48 be
       -0.15540509 -2.4101824e-05 0.095176905 -0.19592364
0001d0 a5 01 41 3e ae 7d 31 bd 63 62 0e be e8 d4 50 3e
       0.18848284 -0.043332748 -0.13904719 0.20393717
0001e0 05 ea 10 bd 1b e5 1a 3d f8 14 75 be 91 47 8c 3e
       -0.03537943 0.03781615 -0.2393378 0.2739835
0001f0 ae 84 13 3e 68 c2 16 3e a8 23 42 3d 0b 54 7c 3e
       0.14406082 0.14722598 0.047397286 0.24641435
000200 c0 25 a4 3e 67 7c a5 be 4d 2f 15 bc 22 61 d0 bd
       0.3206005 -0.32321474 -0.009105516 -0.101747766
000210 b0 e5 f9 3b b7 5d 10 be da 74 c9 3d 8b 59 8e be
       0.007626258 -0.1409825 0.09836741 -0.2780269
000220 7a 2f 18 3e 8c 89 b9 3e 49 f2 48 3d 6d d3 7e be
       0.14861861 0.36237752 0.049059186 -0.2488534
000230 ea 60 0c bd 71 97 eb bd e3 07 8b bd 0f c0 e8 3d
       -0.034272112 -0.115034945 -0.06788614 0.11364757
000240 48 4c 40 3e 5b 54 d6 3d 83 68 d0 3d 46 ca 2e 3e
       0.18779099 0.10465308 0.10176184 0.17069349
000250 e8 ed 0c be 1f 50 91 3e b0 7a 96 3e 70 5d 38 be
       -0.13762629 0.2838144 0.29390478 -0.18004394
000260 a2 ca 49 3e 7a ff 2d bd 83 4e 09 3d 1a 62 2e be
       0.19706205 -0.04247997 0.03352214 -0.1702961
000270 26 1b 35 bd cc 59 db bd 82 f4 64 3d 37 5a 07 3c
       -0.044215344 -0.10710487 0.055897243 0.008261255
000280 8e 60 75 3d 18 30 84 be ab 93 c7 bc 4e ba 18 be
       0.059906535 -0.25817943 -0.024362406 -0.1491482
000290 b8 a8 7b be ca 17 75 be 10 7d 3f be fb 72 1b 3d
       -0.2457608 -0.23934856 -0.18700051 0.03795145
0002a0 e0 da 6d 3e 5f 54 8a 3e 60 9a d1 3e be 37 0b 3e
       0.23228025 0.27017495 0.4093809 0.13595483
0002b0 08 e3 6c 3e fb 5a e5 bd de 5a 56 3e 45 60 35 be
       0.2313348 -0.11198994 0.209331 -0.17712505
0002c0 ae 9b b6 bd 86 cd 9b bd 16 80 d5 bd 6c 82 0a be
       -0.08916412 -0.0760756 -0.10424821 -0.13526314
0002d0 19 d3 06 bd b0 64 95 3e 01 b5 4a bd 6a d1 92 be
       -0.032916162 0.2917838 -0.049489025 -0.28675395
0002e0 3a a3 6e bd 30 73 12 3e 79 af b9 3d 1e 86 20 be
       -0.058261134 0.14301753 0.09066672 -0.15676162
0002f0 a8 7d be bd 97 23 46 3e 49 92 fc bd ce bb 44 3e
       -0.09301311 0.19349514 -0.12332589 0.19212267
000300 e4 c6 07 3e 50 22 1c 3e 16 3d 87 be 45 f9 01 be
       0.13259465 0.15247464 -0.26413792 -0.12692745
000310 48 71 34 be e5 dd 70 3e 14 63 08 3c d6 81 9a be
       -0.17621338 0.23522146 0.008324403 -0.30177182
000320 99 58 de 3d 17 1f 24 3e 6a 9f ad 3d 36 85 63 be
       0.108567424 0.16027485 0.084776714 -0.22218785
000330 f5 77 94 bd 72 c5 63 3e ac 25 33 be c8 b9 03 3d
       -0.072494425 0.22243288 -0.1749484 0.032159597
000340 61 e0 9e bc 57 5c ea 3d fc 0f ed bd 67 65 69 be
       -0.019394102 0.11443394 -0.115753144 -0.22792588
000350 50 23 75 bd 0f 81 87 bc f9 51 8a 3e ef e4 25 3d
       -0.05984813 -0.016541032 0.27015665 0.04050153
000360 41 b2 b6 3d b9 78 33 3e 2f e6 3c be 47 81 2a bd
       0.08920718 0.17526521 -0.18447183 -0.041627195
000370 1e 66 8f be 4d 3e 03 be 8e e5 db bc 58 2a 02 be
       -0.28007597 -0.12816735 -0.026842859 -0.12711465
000380 bd 67 14 3e e0 dc 7f be dc 57 41 bd 52 34 ff bd
       0.14492698 -0.24986601 -0.04720293 -0.12461151
000390 5a f1 eb bd d7 c2 a8 bd 18 30 81 3d 5e 61 27 3e
       -0.115206435 -0.08240288 0.06308001 0.16345736
0003a0 fe 11 81 bd c9 b3 87 3e 7a 1a 4b bd a9 f8 8f 3e
       -0.0630226 0.26504353 -0.049585797 0.281194
0003b0 d6 69 9b 3e 4e fb 0c 3e 6f f0 94 bd 04 cc 19 3e
       0.30354184 0.1376774 -0.072724216 0.15019232
0003c0 a9 e9 b2 bd 1e a7 f3 3b 7a 7f 40 be 70 0d 03 be
       -0.087359734 0.0074356934 -0.18798628 -0.12798095
0003d0 dc 99 ba bc ed b8 c8 bd 32 9f 73 3e 29 d5 a2 be
       -0.022778444 -0.09800897 0.23791197 -0.31803253
0003e0 d4 cc 72 be 20 38 a4 bc 12 23 8f 3e 43 6b 65 3e
       -0.23710948 -0.020046294 0.27956444 0.22404198
0003f0 3d 0e 5f be 6b 21 6d 3e 67 90 84 3e b8 0e 4e be
       -0.21782775 0.23157279 0.2589142 -0.20122802

conv2.bias f4 [32]
000000 df a4 75 3d 9d ad ad 3d 39 3b 5b bd 5d 21 04 be
       0.059971686 0.0848038 -0.053523276 -0.12903352
000010 d0 cc 93 bd 13 cb d7 bd ea ad 49 bc 6e 41 fc 3d
       -0.07216799 -0.1053678 -0.012309531 0.12317167
000020 d5 73 a3 3c 32 55 9c bc 50 36 3c bd 33 42 9b bc
       0.019952694 -0.019083593 -0.045950234 -0.018952465
000030 5c 06 4e 3d bd a7 30 be af 82 0e bd 12 0f 89 bd
       0.050299034 -0.17251487 -0.0347926 -0.066923276
000040 28 a3 4a bd 70 b5 a1 bc 46 1a bf ba 0d 4c a7 3d
       -0.049472004 -0.019739836 -0.0014579974 0.081688024
000050 de 09 20 3d 73 c6 b1 bd 37 9e 5b 3d 2a 99 1f 3d
       0.03907191 -0.08680429 0.053617682 0.038964428
000060 48 8d 39 3d 9a 56 8c bd 47 20 e0 bd 2c 8c 56 3d
       0.045300752 -0.068524554 -0.109436564 0.052379772
000070 b3 c1 ed 3b e8 14 01 bd b8 42 af 3b 66 77 82 bd
       0.0072557568 -0.03151408 0.0053485297 -0.0637043

pool.gcn_transform.weight f4 [32, 32]
000000 43 65 cd bc aa e0 00 3e 77 d0 07 3e 0e 23 82 be
       -0.0250727 0.12585703 0.13263117 -0.2541737
000010 de 3e 51 be e8 5a ca bb 1e e8 b8 3e 27 3a 8b bd
       -0.20434138 -0.0061753877 0.3611459 -0.06798201
000020 6a 54 52 3d d9 5e 66 3e 53 16 8f bc 83 73 8a be
       0.051350035 0.22497119 -0.0174667 -0.27041253
000030 45 be 8b be 79 79 e1 3d dc b6 38 3e 1b 9e 88 3d
       -0.27293602 0.11009497 0.18038505 0.06670781
000040 c3 76 c1 bc 5d 61 72 3e de 68 b1 3e 94 ad 6c be
       -0.0236162 0.23669954 0.3465032 -0.2311309
000050 6c 2b c1 be 80 d7 eb bd 3e 95 be 3e c2 74 71 bd
       -0.3772844 -0.11515713 0.37223238 -0.05894924
000060 90 27 a3 bd 0f fc 9e 3d 49 b6 a7 be 47 c1 01 3d
       -0.0796653 0.0776292 -0.3275626 0.031678464
000070 b8 7e eb bc e7 a7 f4 bd fe fe 0d 3f 10 69 5c 3e
       -0.028746948 -0.11946087 0.5546721 0.21524453
000080 5f 0e 54 3e 32 24 15 bf 48 06 36 3e 96 f1 88 be
       0.20708607 -0.58258355 0.17775834 -0.26746815
000090 52 54 db 3d bf b0 6c 3e 2c 2e e9 be be d6 28 be
       0.10709442 0.23114298 -0.4554304 -0.16488168
0000a0 fd 20 f6 3e 07 c0 a9 3d b8 f7 55 3e 9e 09 8a 3e
       0.48072043 0.082885794 0.20895278 0.26960462
0000b0 35 2b 32 be ee 74 b2 bd c9 a0 da be 38 ec 81 be
       -0.17399295 -0.08713709 -0.42700794 -0.25375533
0000c0 df 87 00 3f 82 1c a7 3d 01 06 a5 be b6 47 b9 3e
       0.5020732 0.08159734 -0.32231143 0.36187524
0000d0 91 0e 78 3e c2 2a 86 3d 2b 63 89 3d 5c 32 5d 3e
       0.24224307 0.06551124 0.06708368 0.21601242
0000e0 9b f6 c5 3e 5a 05 b1 be c0 fa 23 3e 09 df 88 be
       0.38664708 -0.34574395 0.16013622 -0.26732662
0000f0 ad 6e 1a bf b7 c1 64 be a9 46 1c bf 75 6c 89 be
       -0.6032513 -0.22339521 -0.6104532 -0.2684056
000100 f3 31 55 be c6 cf ec bd 9b b7 12 3e 30 56 9f 3e
       -0.20819835 -0.11563067 0.14327852 0.31120443
000110 40 9b ff 3e ea a1 a6 be c3 72 41 3c 94 7a 1d 3e
       0.49923134 -0.32545406 0.0118071465 0.15378791
000120 c8 cf 31 3d 0f ec eb 3d c5 a2 86 3e 25 9c 47 3e
       0.043411046 0.11519634 0.26296058 0.19493158
000130 60 66 4c 3e 76 22 ac be ec e9 92 3d a6 a3 09 be
       0.19960928 -0.33620042 0.07173523 -0.13441333
000140 b7 54 d8 3e 0c 8c 91 3e 2f 75 94 be f2 f0 b1 3e
       0.42252132 0.2842716 -0.28995654 0.3475414
000150 e5 78 75 bd 34 eb 10 be c1 0b ba 3d d6 57 ca 3e
       -0.059929747 -0.14152223 0.09084273 0.39520139
000160 c7 1b ab 3e f2 73 a1 3d 0d 50 63 3e 1f 96 cc 3d
       0.3341963 0.07883443 0.22198506 0.09989571
000170 53 44 8b 3d a4 85 b2 be d4 cc bd be 25 80 e5 bd
       0.06800141 -0.34867585 -0.37070334 -0.11206082
000180 64 ea c6 3d ed ed 03 3e db 3f 65 3e 4d fc d2 be
       0.09712675 0.1288373 0.2238764 -0.41208115
000190 b1 a4 db be 28 8a 1b bd c9 e3 b3 3e 38 75 d3 3d
       -0.42899087 -0.037973553 0.35134724 0.10325092
0001a0 5b 1c 2d 3e b0 b9 9a 3e b1 f8 15 3d 63 78 ba 3e
       0.16905348 0.30219793 0.036614124 0.36419973
0001b0 53 70 3d 3e 12 5d 43 3d ec e7 55 be b1 fe 78 3d
       0.1849988 0.04769618 -0.20889252 0.060789768
0001c0 4c c5 a2 3c 37 4e 22 3d 14 bd 0d bd d7 59 0e bd
       0.01986947 0.039625373 -0.034604147 -0.034753647
0001d0 9e c2 18 bd 42 e8 61 3d db 22 25 3e 7f f2 14 3e
       -0.037294976 0.05515314 0.16126578 0.1454563
0001e0 7b f9 39 be b8 a6 fe 3d bc dd dc be 3a 47 67 3e
       -0.18161575 0.12434143 -0.4313792 0.22585765
0001f0 ed 7f 02 3d c5 c6 f1 bd 5a 23 8a 3e 65 c2 1b be
       0.03186028 -0.118054904 0.26980096 -0.15210874
000200 81 78 ad bd c3 df f2 bb 69 0b f0 3e 93 32 53 3e
       -0.0847025 -0.0074119284 0.46883705 0.20624761
000210 a4 ba 1f be e7 66 bb 3d 09 a4 8e bd 46 73 88 3d
       -0.15598541 0.091504864 -0.06964881 0.06662612
000220 aa 99 91 be 89 0e 25 be f1 8c f2 3b e0 2c ac 3e
       -0.2843755 -0.16118826 0.0074020554 0.33627987
000230 2b 3b c9 3d 0d 4d 54 bd bd 7b b6 bd ef bd ea 3e
       0.098257385 -0.051831294 -0.0891032 0.45848033
000240 a8 be 15 3d 70 54 7a bd e7 7e c1 be 08 d3 a5 bd
       0.036558777 -0.061115682 -0.3779213 -0.08096892
000250 9f 79 9f 3e 26 96 74 3d 07 2d 1e be e8 b9 98 be
       0.31147477 0.059713505 -0.15446864 -0.29829335
000260 d8 3e ec 3d 65 68 83 3e 23 20 5c be 0f 39 92 3e
       0.11535424 0.25665584 -0.21496634 0.28559157
000270 72 c7 28 3e fb 75 c9 3d 09 c8 8b 3d cd f7 fa 3c
       0.16482332 0.09836956 0.06825263 0.030635739
000280 bc 8a 06 bd 51 2f 40 be dc 16 89 3d 28 3a a9 be
       -0.03284715 -0.1876805 0.06693813 -0.33052182
000290 e2 03 1d be 65 7d 78 be b4 c9 8f be 9a 01 6c 3e
       -0.15333512 -0.24266584 -0.28083575 0.23047486
0002a0 04 31 6b be c9 13 a4 3e 9b 70 49 3e a9 1e 04 3f
       -0.22967917 0.32046345 0.19671862 0.51609284
0002b0 6a d9 fd 3e 42 b1 51 3e a6 e5 a7 3e b1 78 7f 3e
       0.49579936 0.20477775 0.32792395 0.24948384
0002c0 6a 7d 86 3e ae f3 01 bf c2 51 84 bc 34 f4 2b 3e
       0.26267558 -0.5076245 -0.016152266 0.16792375
0002d0 cc 74 ed 3e de b9 42 3e 7a 31 6c be 75 4f 21 3e
       0.4637817 0.19016215 -0.23065749 0.15752967
0002e0 4f 02 7b 3d c2 fd 7b 3e 01 30 4e 3e 1f 5b d7 bd
       0.0612815 0.2460852 0.201355 -0.10515427
0002f0 ed 87 52 be a9 87 a7 be ce 3b 26 bf 42 a5 80 be
       -0.20559664 -0.32720688 -0.64935005 -0.25126082
000300 1f ae 8b be 2f 68 0f be 61 c7 67 3c e8 58 f1 3d
       -0.2728128 -0.14004587 0.014146657 0.11784536
000310 b5 64 b3 3c dc 8c 6d 3e 98 49 79 be 79 9d 73 3e
       0.021898607 0.23198265 -0.2434448 0.2379054
000320 16 8a cc 3e bb fb b4 3d fc 4f fe bd eb b0 45 bd
       0.399491 0.08837076 -0.124175996 -0.048264425
000330 24 7b 91 bd e7 c8 00 be 44 28 bd 3c 86 be 9c be
       -0.07103565 -0.12576638 0.02309049 -0.30614108
000340 2e c0 00 be 83 cb 06 3d ea 41 df 3e 41 37 2c 3e
       -0.1257331 0.032908928 0.43604976 0.16817953
000350 8b 83 88 3d aa df 71 be 32 b4 1f 3e ab bb 1d 3e
       0.06665715 -0.23620477 0.15596083 0.15403621
000360 cb 09 22 be 21 56 9d 3d bb 65 a2 bd 28 73 11 be
       -0.15824048 0.076824434 -0.0792956 -0.14204085
000370 fa ce 8e be af 0a f2 bd a2 a6 59 be bc cb a7 be
       -0.27892286 -0.11818444 -0.21254972 -0.32772624
000380 ca 01 89 3e 4b b9 76 bd e5 97 6d bd e0 f8 78 be
       0.26759177 -0.060235303 -0.058006186 -0.24313688
000390 cb 7d 96 3e 0e 4c 99 3e 09 65 89 bb a4 d1 b2 be
       0.29392847 0.29940838 -0.0041929525 -0.34925568
0003a0 aa 51 2b be 8b c2 23 be 38 0b 5f 3e 2d 4f 58 3e
       -0.16730371 -0.15992181 0.21781623 0.21123953
0003b0 47 f7 95 be dc 95 aa be fa 99 ee bd 83 f5 0d 3e
       -0.2929022 -0.3331746 -0.116504624 0.13863187
0003c0 15 39 eb bd 89 8f 38 3e f0 50 83 3e 04 13 ba 3d
       -0.11485497 0.18023504 0.25647688 0.09085658
0003d0 4a 01 86 be 17 c1 02 3d b5 67 b1 bc 9a 33 83 3e
       -0.26172858 0.031922426 -0.021655897 0.25625306
0003e0 34 1d 28 be 0e b1 0d 3e 7d 6f 19 3d 34 3e 8b be
       -0.1641739 0.13837072 0.03745984 -0.27195895
0003f0 f2 ca d3 bb 50 0a 67 be 9d ec f5 3d ca 5b 3e bd
       -0.006463402 -0.22562528 0.12008021 -0.046474256

pool.gcn_transform.bias f4 [32]
000000 4d 6f 51 bd 9e 38 66 be 3b cd 88 3d 2e 86 0c 3e
       -0.051131535 -0.22482535 0.066797696 0.1372306
000010 f4 fb 5e be f0 8b 39 be 45 b5 35 3e 18 f8 64 be
       -0.217758 -0.18119788 0.1774493 -0.22360265
000020 c6 fb d6 3c 92 b8 8f 3e f5 69 ad 3d 98 d7 f8 3c
       0.026243102 0.28070503 0.08467475 0.03037624
000030 8e f1 8b 3e d3 81 95 be 59 d1 f6 3d b1 f2 38 3d
       0.2733273 -0.2920061 0.12051649 0.045153324
000040 7f c6 30 3d 13 4e f0 3b df 8f 2b be e2 fa 28 3e
       0.04315805 0.007333526 -0.16754101 0.16501954
000050 09 25 1b ba ec c5 a0 3e 6a cf 67 3e 6a 32 8f 3d
       -0.00059182994 0.31401002 0.22637716 0.069920376
000060 58 8c f4 3d f3 44 4c be 6e ec 74 3e 0d b8 88 bc
       0.11940831 -0.19948177 0.23918316 -0.016689325
000070 51 bd 32 bd 24 07 66 be 24 3a a4 3c a7 28 45 3c
       -0.043637577 -0.22463661 0.020047255 0.012033618

pool.bn_feat.weight f4 [32]
000000 0f 42 81 3f 63 52 a3 3f 4b 54 7c 3f 59 b6 75 3f
       1.0098284 1.2759517 0.9856612 0.95981365
000010 bd c6 83 3f 27 97 96 3f 99 7d 58 3f 20 64 71 3f
       1.0295025 1.1764878 0.84566647 0.94293404
000020 e4 fc 56 3f ab 98 91 3f 38 2c 90 3f b8 dd 5a 3f
       0.8397963 1.1374716 1.1263494 0.85494566
000030 1c 54 96 3f 99 d6 a3 3f e4 16 6d 3f e2 ac 8c 3f
       1.1744418 1.2799865 0.92613053 1.099026
000040 83 02 74 3f b9 e8 5b 3f 33 b6 5f 3f c1 89 97 3f
       0.9531633 0.8590198 0.8738739 1.1838914
000050 ec 55 7d 3f c1 b2 52 3f 42 4a 85 3f 4d ca 63 3f
       0.9895923 0.82304007 1.0413287 0.8898056
000060 95 27 dc 3f 90 f1 b4 3f dc 11 92 3f 48 3c a7 3f
       1.719958 1.4136219 1.14117 1.3065271
000070 db c1 7e 3f e5 de a3 3f 89 fe b4 3f 9f 41 3f 3f
       0.9951455 1.2802397 1.4140178 0.74709505

pool.bn_feat.bias f4 [32]
000000 85 f9 cd 3d 0f 8d c5 bc ed 6d 75 3e e8 9a 55 3e
       0.10057358 -0.024115114 0.23967715 0.20859873
000010 35 a3 7f 3c c9 f9 f8 3d 98 49 80 be 18 86 39 bc
       0.015602876 0.12157018 -0.25056148 -0.011323474
000020 76 58 dd 3b 11 86 0f bd 8b 74 5b 3e cd e7 e0 3e
       0.00675493 -0.035039965 0.21431176 0.4392685
000030 8d 59 d0 be f0 2d 89 bd 3b d5 ef be 01 aa d0 39
       -0.40693322 -0.06698215 -0.4684237 0.00039799514
000040 16 06 16 be fc 6c 3a 3e a7 ca 4b 3e 9e 16 86 3e
       -0.14650759 0.18205637 0.19901524 0.2618913
000050 6b 37 68 be df 1f 6e bd fa a7 dd 3d 08 bc 9e 3e
       -0.2267739 -0.058135863 0.108230546 0.3100283
000060 c0 bb 48 3e 53 3a aa bc 93 51 08 3c dc 73 60 3c
       0.19602871 -0.020779764 0.00832023 0.013699498
000070 22 ac 5b bd 6c a3 60 3d 83 ad 29 be 6f 92 89 be
       -0.053630956 0.05484335 -0.16570096 -0.26869532

pool.bn_feat.running_mean f4 [32]
000000 30 4d 43 3c e5 74 a7 bc f4 f8 c1 3b 87 58 ec bb
       0.011920258 -0.020441482 0.00591957 -0.0072127017
000010 14 51 d6 3c d0 ce 80 3c 38 e4 87 bd fc a8 15 bc
       0.026161708 0.015723616 -0.06635326 -0.009134527
000020 3c 28 e2 3b ea 29 cb bb 33 d3 fd 3c b8 1c 6d 3c
       0.006901769 -0.006200065 0.030984497 0.014472179
000030 e5 5d 48 3c 4f b4 89 bc 99 ef e3 bb fe 79 44 bc
       0.012229417 -0.01680961 -0.0069560525 -0.011991976
000040 cc 2c 13 3d 4e 11 7d 3b bc f2 23 bc 3b 9b c1 3c
       0.035931394 0.003861505 -0.010006603 0.02363359
000050 c5 3d 28 3b f9 56 35 3b 1f 2e 99 bb 7b a8 c8 3c
       0.0025671583 0.0027670248 -0.0046746875 0.0244944
000060 77 f9 d8 3c cf 35 88 bc dd 4f 92 3b b0 b3 0a bd
       0.026486142 -0.01662722 0.004465087 -0.03386277
000070 30 23 10 bd 32 c6 b8 bc c8 25 49 bd 70 81 ad bc
       -0.035189807 -0.022555444 -0.049108297 -0.021179885

pool.bn_feat.running_var f4 [32]
000000 48 d2 cf 3a 35 fa 23 3b 97 5a bb 3a ef 9e 01 3b
       0.0015855515 0.0025020961 0.0014293966 0.001977857
000010 9e 32 4a 3b 54 91 72 3a e7 19 37 3b 75 50 a8 3a
       0.0030852924 0.0009253223 0.0027939023 0.0012841361
000020 e7 71 f8 3a 2a e9 14 3a 20 8f 12 3b d2 7e 99 3a
       0.0018954844 0.0005680496 0.0022363141 0.0011710769
000030 e6 23 06 3b 77 ca 9c 3a 3f 2e f9 3a f4 0e f4 3a
       0.0020468174 0.0011962195 0.0019010975 0.0018620179
000040 59 f9 8e 3a 03 7c 17 3b 01 32 1b 3b ad ec f3 3a
       0.0010908052 0.0023114688 0.0023680928 0.0018609964
000050 85 a7 07 3b 29 47 1d 3b a4 25 3e 3a ae 97 1a 3a
       0.0020699215 0.0023998714 0.00072535337 0.0005897236
000060 7c 3a f6 39 ed 61 3d 3a 07 31 2a 3b ec 52 27 3a
       0.0004696435 0.000722437 0.0025969164 0.0006382901
000070 86 3d d8 3a 0b 56 f5 39 c6 a4 03 3a 12 cd 11 3b
       0.0016497828 0.00046794149 0.00050218066 0.0022247476

pool.score_add.weight f4 [1, 32]
000000 39 28 a9 bd dc 71 47 3d 08 2e 2a 3e b0 f9 4c 3d
       -0.08259625 0.04869257 0.16619122 0.050042808
000010 92 cd fc bd 1c 1f c2 3d ba 6a 70 3d a8 0e 4d bd
       -0.12343897 0.0947859 0.058695532 -0.050062805
000020 e2 a5 80 bd 75 4b bc 3d 5f d0 13 3e d3 6d 8f bd
       -0.0628164 0.0919408 0.14434956 -0.07003369
000030 43 95 ec bd 66 65 28 3e bd d8 09 be 64 9d 99 3b
       -0.11551907 0.1644493 -0.13461585 0.004687952
000040 7a da 9f bd 1f 4e fb 3c 6e 41 e5 bd 6d cf df 3d
       -0.07805343 0.0306769 -0.1119412 0.10928235
000050 7c 2d 01 3e c9 db 02 be 78 92 6e 3d 42 72 c3 3c
       0.12615007 -0.12779154 0.058245152 0.023858193
000060 46 75 2c 3e b7 59 0a be 2c d8 e4 bd 10 f1 1f bd
       0.16841611 -0.13510786 -0.11174044 -0.039048254
000070 b0 da 05 be 02 23 77 bd 73 e1 c9 bd 6f 19 9c 3c
       -0.13071704 -0.06033612 -0.09857454 0.019055096

conv3.weight f4 [32, 32]
000000 01 8c 99 3f 7a 2e 13 be 5c 5d e0 3e 4b 02 15 bf
       1.1995851 -0.14373198 0.43821228 -0.58206624
000010 33 33 63 be 61 99 74 3f 85 ba 6b 3f 16 60 58 3e
       -0.221875 0.9554654 0.9208148 0.21130404
000020 04 60 28 40 76 b7 a8 be 4f d2 11 3c 3a e9 9b be
       2.6308603 -0.3295247 0.008900239 -0.30451375
000030 20 3f e3 3e dd 80 e2 be 9a 61 90 be 42 77 14 40
       0.44384098 -0.4423894 -0.28199464 2.319779
000040 9f 9e bd c0 67 b8 fa bd c8 d6 4e c0 21 c5 5f 3f
       -5.925613 -0.12242203 -3.2318592 0.8741017
000050 1c 6b 22 3d 9c 66 7b 40 1c 9b 20 3f c7 55 bb 3e
       0.03965293 3.9281378 0.6273668 0.3658888
000060 0e 30 d9 be 39 c7 18 40 90 08 11 3f a4 9d 9f 3e
       -0.42419475 2.3871596 0.5665369 0.31174958
000070 7d 8c 3f 3e 4d 0a 21 3e 71 fe 4b 3e d1 9d 1f 3f
       0.18705936 0.15726586 0.1992128 0.62350184
000080 cb c3 94 bf 12 e5 54 bd d0 c0 0e bf db 81 50 bf
       -1.1622251 -0.05197627 -0.5576296 -0.81448144
000090 1b 36 14 3f af d5 94 3f 16 f3 cf bf 8b dd c0 be
       0.5789506 1.1627711 -1.6246059 -0.37669024
0000a0 0e b9 4e c0 53 d9 19 c0 6b cb c6 bd 33 bb 21 3f
       -3.2300448 -2.4038894 -0.09706768 0.6317627
0000b0 a4 61 67 bf 9f 15 1b 3f d2 54 de 3e c6 cb fd bf
       -0.9038336 0.60579866 0.43424088 -1.9827812
0000c0 a8 b6 59 41 91 df fd 3c 97 3f 63 40 52 ab ba bf
       13.607094 0.030990394 3.5507562 -1.4583533
0000d0 05 81 bb 3e d9 5b 4c bf 12 9f 1a bf 62 4f 17 c0
       0.36621872 -0.7982765 -0.6039897 -2.3642201
0000e0 7a 3c 88 3f 7a c4 a8 c0 37 76 82 3f 80 60 55 bb
       1.0643456 -5.273984 1.0192326 -0.003255874
0000f0 b0 80 01 bf 6c 3a 2f 3e 32 92 96 be 18 46 12 c0
       -0.50586987 0.1711213 -0.29408413 -2.2855282
000100 50 80 7f bf 80 49 80 3e 96 17 6b 3e f7 5e 35 3f
       -0.99805164 0.25056076 0.22958216 0.7084803
000110 57 9f 2b 3f 83 31 88 bf e8 eb a6 bf 26 24 83 bf
       0.6704001 -1.064011 -1.3040743 -1.0245407
000120 32 74 2b c0 5b 96 0a bf 81 cc f8 3e e1 07 88 3e
       -2.678967 -0.54135674 0.48593524 0.2656851
000130 53 83 dd be 28 5b 29 be 39 5f 05 3f 6d 79 05 c0
       -0.43264255 -0.1653868 0.52098423 -2.0855362
000140 3d f5 83 40 75 61 06 bc 03 5f 10 40 3a 8c b1 bf
       4.1236863 -0.0082019465 2.255799 -1.3870919
000150 22 c5 a5 3e 4b c5 85 c0 c2 22 ed be ab a8 9d bf
       0.32376963 -4.1803336 -0.4631558 -1.2317098
000160 18 7b 7b bd 97 0a 44 c0 45 18 29 3f 33 b1 30 3d
       -0.06139669 -3.0631464 0.6605266 0.04313774
000170 06 2c 01 be 38 f7 2e bb b8 46 16 3e dc 34 3e bf
       -0.1261445 -0.0026697647 0.14675415 -0.74299407
000180 aa 90 60 3f fe 45 f5 bd 1e e1 89 3e e9 2a de be
       0.8772074 -0.119762406 0.26929563 -0.43392113
000190 2d d7 48 bf bc 21 3c 3f 70 e0 90 3f a8 39 8f 3f
       -0.7845333 0.73488975 1.1318493 1.118947
0001a0 9c ec 54 40 4f 22 4e 3e 79 a8 12 bf b6 de 24 be
       3.3269415 0.20130275 -0.5728832 -0.16100582
0001b0 f5 8e 78 3f 8e 0d fc 3d bf db ad be f0 de 1a 40
       0.97093135 0.12307273 -0.33956715 2.419857
0001c0 3b 03 8e c0 5b 1b 7e 3e 20 37 07 c0 52 92 a7 3f
       -4.4378943 0.24815123 -2.1127396 1.3091528
0001d0 90 08 85 bd 23 82 68 40 3b 73 07 3f e0 87 97 3f
       -0.06495774 3.632943 0.529102 1.1838341
0001e0 5e b6 12 3e c0 b7 3e 40 d1 94 c9 be 88 11 ab 3e
       0.1432738 2.9799652 -0.3937135 0.33411813
0001f0 c3 0a 53 3e 45 c4 cf bd d7 1a ca 3e ee c6 50 3f
       0.20609574 -0.10144857 0.39473602 0.8155354
000200 19 0e c5 3f dd 57 3d bd 1f 15 bc be 56 00 f8 3e
       1.5394927 -0.04622637 -0.36734864 0.48437756
000210 df 93 90 bf 05 32 af bf 3d a7 ab 3f 3b 12 94 3f
       -1.1295127 -1.368714 1.3410412 1.1568063
000220 be 86 7a 40 d4 63 18 40 43 3a 01 3e e9 80 4b bf
       3.914474 2.381093 0.12619881 -0.79493576
000230 01 3d db 3e bd 96 cf 3d bb b3 f0 be b7 c3 00 40
       0.4281998 0.10136173 -0.47012123 2.0119455
000240 8f 05 80 c1 88 9f 16 3f fb 5b 57 c0 61 98 82 3f
       -16.002714 0.58837175 -3.364989 1.0202752
000250 6f b7 db be 73 b7 4f 3f 2a ec 88 3f 39 97 57 40
       -0.42913386 0.81139296 1.0697072 3.368605
000260 8b 72 c2 be 7c 65 96 40 b4 53 04 c0 07 be 23 be
       -0.37978014 4.699888 -2.0676088 -0.15990458
000270 c7 9f 4c 3e 02 3b 87 bc 04 d1 a6 3d 62 14 f5 3f
       0.19982825 -0.01650763 0.08145335 1.9146845
000280 9c 4b 10 bf bb f9 9d 3e ed 68 fc be 5b c9 86 3f
       -0.5636537 0.30854592 -0.49298802 1.0530199
000290 5f b2 5b bf 28 d5 c2 bf ee c5 c1 be 1e c1 3d bd
       -0.8581905 -1.52213 -0.3784632 -0.04632675
0002a0 56 c4 d3 3e 31 ed b6 3f 36 5d 55 3f 97 8e 35 be
       0.4136073 1.4291135 0.83345354 -0.17730175
0002b0 e0 31 9e be a9 20 ad bd 02 c4 5f be 34 1d 56 bf
       -0.30897427 -0.08453495 -0.21852115 -0.8363831
0002c0 7c 82 82 c0 20 e9 bb 3e 9b ed 0b bf ce 53 8b bd
       -4.0784283 0.36701298 -0.5465943 -0.06803094
0002d0 24 47 d8 be 6e b2 8e c0 84 0f 39 3e 9c 63 91 3f
       -0.42241776 -4.459281 0.18072325 1.1358523
0002e0 1c 52 2c bf d2 90 ed be 93 5d b0 bf fd 7b 1d bf
       -0.6731279 -0.46399552 -1.3778557 -0.61517316
0002f0 42 92 8a 3e 59 aa c3 3e 82 4e 14 bf 91 a6 49 3e
       0.2706471 0.38215902 -0.57932293 0.19692446
000300 a5 bf f6 be b0 9d fe 3d 58 eb 92 3e eb 2e 32 bf
       -0.48193088 0.1243242 0.28695178 -0.6960284
000310 95 79 1d be 2a 6a 9d 3f 54 5e 4d 3f 93 fc 45 3e
       -0.15378411 1.2298024 0.8022206 0.1933463
000320 75 c4 36 3f a2 4c 89 be e4 c6 fc be 3f e8 78 3e
       0.7139352 -0.2681628 -0.49370492 0.24307345
000330 b8 0b 3d 3f 71 e5 01 be c0 45 80 be 9a 32 67 3f
       0.73846006 -0.12685181 -0.25053215 0.90311587
000340 e2 a3 aa 40 1e 12 6d be ed 37 b8 3e 9e 05 e6 3e
       5.332505 -0.23151442 0.35980168 0.4492616
000350 0a fd 3a 3f bb 88 ba 40 5c fe 86 3e aa b5 08 bf
       0.73042357 5.8291907 0.26365936 -0.534022
000360 6e f4 24 3f d4 14 81 3f ff bb 4b 3d 50 42 d0 be
       0.6443547 1.0084481 0.049739834 -0.40675592
000370 54 11 b9 3e e2 a1 34 be fe 28 33 3e a2 f0 4b bd
       0.36146033 -0.17639878 0.17496106 -0.049790032
000380 ce 24 b2 3d a5 f8 0f 3c 9f f7 a5 bd 90 72 9c bf
       0.08698426 0.008787309 -0.081038706 -1.2222462
000390 73 56 92 3f 30 8a fc 3f 6a 70 4a bf 36 ba 42 be
       1.1432632 1.9729671 -0.7907778 -0.19016346
0003a0 7c b3 dd bf 15 de 23 c0 d9 67 a0 3d 97 a8 da 3e
       -1.7320399 -2.5604298 0.07832307 0.4270675
0003b0 6b d9 ac be 89 90 01 3f 84 58 f5 3e 23 37 b4 be
       -0.33759627 0.5061117 0.47919095 -0.35198316
0003c0 06 31 10 41 42 51 c3 3e 8f e4 e6 3f 02 26 93 bf
       9.011969 0.38147932 1.80385 -1.1495974
0003d0 92 07 21 3f 01 52 71 3e db 3c 67 be 3e e5 10 c0
       0.62902176 0.23566438 -0.22581808 -2.2639918
0003e0 06 8a 3a 3f 0b 3e 1e c0 b5 a3 d4 3f 39 96 39 3f
       0.7286686 -2.4725368 1.661246 0.72494847
0003f0 ee 83 2f be 10 43 98 bd 07 2f e7 3d 40 74 98 bf
       -0.17140171 -0.07434666 0.11288267 -1.1910477

conv3.bias f4 [32]
000000 89 55 59 bd bc 0b a5 3b 8d d4 5f 3b 42 ad 8b bd
       -0.05306009 0.0050367992 0.003415379 -0.06820156
000010 bd ba 75 3b bf 2f 49 bc 58 c7 81 bd e7 af 0b 3c
       0.0037495338 -0.01227945 -0.0633685 0.008525825
000020 ca b6 fe ba 05 22 5d bc ec b0 dd 3d 26 d0 c2 bc
       -0.0019433137 -0.01349688 0.10824761 -0.023780894
000030 91 d1 75 bb f1 9e 62 3b bc 7d 66 bc b6 79 96 3d
       -0.0037508945 0.00345796 -0.014068063 0.07347433
000040 8b f4 64 bb 68 b2 73 bd 99 04 93 3d 9b c5 25 3c
       -0.0034935798 -0.059496313 0.07178611 0.010117914
000050 5c df e1 3b 82 60 22 bc b7 fb c9 3c d4 ad 32 bc
       0.0068930816 -0.009910705 0.02465616 -0.010905702
000060 f9 70 1f 3a 6f 5f 59 3d ce aa 0a bc 49 52 36 bd
       0.0006082203 0.05306953 -0.008463575 -0.044512067
000070 1f a1 ac 3b a7 bf 87 ba 66 cb be bc 88 51 48 3d
       0.0052682306 -0.00103568 -0.023290347 0.04890588

conv4.weight f4 [32, 32]
000000 6d 6b 29 bd 1a 10 10 bf 7a 26 70 be 75 be 04 3f
       -0.041362215 -0.5627457 -0.23452178 0.51853114
000010 e2 86 19 be bf c2 4a be 08 85 d8 be d1 9a 02 3f
       -0.1499286 -0.19800852 -0.42288995 0.5101748
000020 a3 d8 82 bd ee 67 e6 3e 64 0f 99 be 88 c3 c6 be
       -0.063889764 0.45001167 -0.29894555 -0.38821054
000030 00 57 30 be e0 b0 80 3e 12 68 bf be 3a 86 55 be
       -0.17220688 0.25134945 -0.37384087 -0.20851985
000040 87 83 04 3e 26 6b 51 be ac d7 30 3d 57 28 b1 be
       0.12940799 -0.2045103 0.04317443 -0.3460109
000050 30 00 8b be 75 5e 2b 3d 68 5d 95 bd 82 59 93 bd
       -0.2714858 0.041838128 -0.072932065 -0.07194807
000060 e3 dd b5 3d db 46 98 be 05 7c c8 3e 85 1e 6e 3d
       0.08880212 -0.29741558 0.3915712 0.058134574
000070 aa 22 79 bb a8 f1 2c 3e 6f d7 85 3e 50 46 a5 bd
       -0.0038015046 0.1688906 0.26140925 -0.08070052
000080 ed b6 e3 3c fc 15 84 3d 70 a2 e6 3e 0c 4f 18 3c
       0.027797187 0.06449506 0.45045805 0.00929619
000090 48 ef 9c be 11 c9 28 bd d7 cb 0c 3e 74 3f 5e bc
       -0.30651307 -0.041207377 0.13749634 -0.013564933
0000a0 0d 81 77 3e b9 c5 c6 be 2c 8f 25 3e f3 a9 86 be
       0.24170323 -0.38822725 0.16167897 -0.26301536
0000b0 e9 bb 0a 3e e5 fe e0 be ed ce de 3d 6c 60 18 3e
       0.13548245 -0.4394447 0.10879312 0.14880532
0000c0 fa 2e b0 3c fb 46 06 be ea aa 58 3e 50 08 6d 3e
       0.021506775 -0.13113014 0.21158949 0.23147702
0000d0 f0 1f 3e be 1d ea 72 be b5 3e 81 be 65 f0 de 3c
       -0.1856687 -0.2372212 -0.25243154 0.027214238
0000e0 2e 0f f3 bb ed a6 ec 3e 70 d8 9f 3d 1d 9c af bc
       -0.007417581 0.46221104 0.07804954 -0.021436745
0000f0 8e 98 c2 3e ff 54 d2 3d f8 c3 cf bd b6 21 9a be
       0.38007015 0.10270118 -0.101448 -0.30103844
000100 93 47 42 be cd dc 18 bc 0a 72 f4 be b5 ec 2d 3e
       -0.18972616 -0.009329987 -0.47743255 0.16984828
000110 00 db 92 3e b5 57 e2 bc a7 56 e1 3d a0 02 98 3e
       0.2868271 -0.027629713 0.11002856 0.29689503
000120 05 3b 09 3e b1 61 58 3e 3e 66 04 3b df 1a e5 3e
       0.1340142 0.21131016 0.0020202543 0.44747064
000130 d3 6e 6c 3e 63 cd a7 3e 17 36 07 3d c6 fe af 3d
       0.23089151 0.32773885 0.03301057 0.08593516
000140 82 d5 b3 3d 8f d5 a1 3d 44 26 5d 3e 88 29 f3 3e
       0.08780958 0.07902061 0.21596628 0.47492623
000150 c4 2b 9d 3e dc 62 b6 3d 91 2f 0b 3f 2c 40 9b bd
       0.30697453 0.08905575 0.54369456 -0.07580599
000160 d9 29 8b 3e ff dd cc be 49 97 0f be f1 c4 b4 3c
       0.27180365 -0.4001312 -0.14022554 0.022066565
000170 49 94 12 3d 63 3e 0b be 96 15 c4 3e 9d 85 63 be
       0.035785947 -0.13598017 0.3829772 -0.22218938
000180 f9 88 0b 3f b9 43 5b 3e 8f 30 82 3f d6 c0 15 be
       0.5450588 0.21412553 1.0171069 -0.14624342
000190 47 1c 41 3e 14 96 8d bd 24 46 bb be 90 10 84 be
       0.18858443 -0.06913391 -0.3657695 -0.25793886
0001a0 58 7c 8a be 3d 29 86 3d 58 73 25 be 2c e9 e3 be
       -0.27047992 0.06550834 -0.16157281 -0.44513834
0001b0 a1 3c d8 be 59 55 73 bf 57 4f a3 bd 81 99 26 be
       -0.42233756 -0.95052105 -0.07974117 -0.16269495
0001c0 b7 3d f3 be fe f5 84 bf 84 0e 9b 3c 74 0e 80 3f
       -0.47508022 -1.0387571 0.01892782 1.0004411
0001d0 f9 16 9c 3d fe 62 0a 3e 5b 5c 9e bd e7 79 f2 3e
       0.07621569 0.13514325 -0.07732459 0.4735863
0001e0 88 83 c7 bd 14 c5 df 3e 7b 45 78 3d 85 01 7a 3e
       -0.097418845 0.43705046 0.060613137 0.24414642
0001f0 75 6c f5 3d 58 d4 98 3d c9 f6 dc 3d b0 db f4 3c
       0.11983577 0.07462376 0.10789258 0.029889911
000200 28 53 e0 bb 59 fc a0 bd e0 89 0c bf d1 8f 95 b9
       -0.0068458505 -0.078606315 -0.5489788 -0.00028526646
000210 42 ce 4b 3e 72 57 31 3d 5c 76 e5 3e 83 23 57 be
       0.199029 0.043296285 0.44816864 -0.2100964
000220 5b 52 9e be 6f a4 a8 be 82 7a 8a be 6a f7 84 3e
       -0.30922207 -0.32937953 -0.2704659 0.25970012
000230 15 ee 00 3f 94 44 ad 3f 60 c5 8b be a1 51 0e be
       0.50363284 1.3536553 -0.27299023 -0.13898326
000240 c1 6e f5 3d 72 de a1 3f 7b 89 83 be 6c 1b a6 bf
       0.11984015 1.264601 -0.25690827 -1.2977118
000250 25 18 16 3d 9e 96 4b 3e 52 4e a0 3e 28 9c 8b be
       0.03664412 0.19881675 0.31309754 -0.27267575
000260 ca 07 c7 3e c6 f5 d4 3d c0 17 53 3e 97 f9 e7 be
       0.3887313 0.1039844 0.20614529 -0.4530761
000270 70 d8 09 3d 66 7e 26 3e 82 6f ff be 52 9d 73 3d
       0.033653677 0.16259155 -0.4988976 0.059476204
000280 e0 a8 82 be 1d 0d 97 be 3f ba 93 bf eb 03 dc bd
       -0.25519466 -0.29502192 -1.1541213 -0.10742935
000290 4a c4 a1 be 88 12 6b 3d fd 71 ec 3e 40 59 f1 3e
       -0.3159507 0.05739072 0.46180716 0.47138405
0002a0 46 b9 88 be dd 14 f0 3e 18 9e 24 3d 79 de 8c 3d
       -0.26703852 0.46890917 0.040189832 0.06878371
0002b0 c0 d7 20 be c7 a9 48 3f ea fb ff bd 7a b6 cf 3d
       -0.15707302 0.7838406 -0.12499221 0.101422265
0002c0 43 03 c8 3e 57 37 8c 3f 98 ad fc be 91 77 9a bf
       0.39064988 1.0954388 -0.49351192 -1.2067739
0002d0 b1 84 ca bc a9 6f 53 3d ec 0b 33 be 92 5f 65 be
       -0.024721475 0.05162016 -0.17485017 -0.22399738
0002e0 0f 95 5a 3e 8b 6f 2f be a7 a8 0d 3d 90 8b da be
       0.21345924 -0.17132394 0.034584668 -0.42684603
0002f0 b2 2c e3 bd ea 04 0d 3e 28 85 e2 3c a6 55 cc bd
       -0.11092509 0.13771406 0.027651384 -0.09977274
000300 0e a0 9f bd 46 98 f4 be 43 c5 03 be 19 72 a3 3d
       -0.077942 -0.47772425 -0.12868218 0.07980747
000310 78 b3 0e be d1 b2 96 bc 77 dc ba be a4 3e 08 3f
       -0.1393565 -0.018395813 -0.36496326 0.5322058
000320 26 87 97 3e a6 8d 7a 3f f4 de b3 3e bb 80 29 be
       0.29595298 0.9787239 0.35131037 -0.16553013
000330 cb b3 71 bd 0f 40 ce bd 30 7a 97 3e 81 dd b6 bd
       -0.059009355 -0.10070812 0.2958541 -0.08928967
000340 f7 4e 65 3e 9c 78 9f bf 23 79 e5 3d 19 1c a9 3e
       0.22393404 -1.2458682 0.112047456 0.3302925
000350 4a a3 59 3d 73 80 0e 3e f1 98 e2 3e 9e ba 46 be
       0.05313424 0.13916187 0.4425731 -0.19407126
000360 3a 5a 0a 3e 02 e9 91 bf 3f c7 c2 3d 58 aa 3c be
       0.13510981 -1.1399233 0.095106594 -0.18424356
000370 ba cd a6 3e 7c 6a 48 3e 9c ce 4a 3f 8b a7 8a bd
       0.32578832 0.1957187 0.7922151 -0.067702375
000380 6c 23 49 be 7b fc c6 bf 32 72 a2 3e 7e a0 1f 3e
       -0.19642419 -1.5545801 0.3172775 0.15588567
000390 70 21 c1 be 36 00 8b 3d f9 45 b3 bc 61 ca 00 3f
       -0.37720823 0.067871496 -0.021883952 0.50308806
0003a0 69 a1 2a bd 07 9b ad 3f ba a3 12 3e 59 b4 e5 3d
       -0.04165784 1.3562936 0.14320269 0.11216039
0003b0 dc 8f 17 be 71 ae 3e be 49 cf a8 3e c8 66 b9 bd
       -0.14800972 -0.18621232 0.32970646 -0.09052807
0003c0 02 5f a2 3e 57 cc 62 bf da 93 e1 3d 8c 2e 11 3e
       0.3171311 -0.8859305 0.110145286 0.14177912
0003d0 24 0c c4 bd 4e 6b a4 be a2 31 56 3e b1 34 5f 3e
       -0.09572628 -0.32113117 0.20917371 0.21797444
0003e0 4f 07 94 be 56 8c 92 bf 8a d9 57 3e da 7b 5b 3e
       -0.28911826 -1.1449077 0.21079078 0.21433964
0003f0 f8 e3 26 3e 62 8d de 3e 80 16 9e 3f 92 ad ae bd
       0.162979 0.43467242 1.2350616 -0.085292

conv4.bias f4 [32]
000000 b7 b8 cf bd 1e 35 ac bd 37 72 48 bd 8c 2a 2c be
       -0.101426534 -0.08408569 -0.04893705 -0.16813105
000010 e3 58 f9 3d c4 59 b9 bd 86 20 52 3d 0b f3 81 bc
       0.12175157 -0.090503246 0.051300548 -0.015862962
000020 8e 9c ed bd 05 e3 3b 3d 69 cb 8e 3d 12 8d 34 be
       -0.11602126 0.0458708 0.06972391 -0.17631939
000030 60 ee 14 3e 38 e7 a5 bc 57 79 44 bd dc ee 3e 3d
       0.14544058 -0.020251855 -0.04796728 0.046614513
000040 b6 29 a6 bd b0 fa 05 bd 9f ed ce 3d 3d 37 82 bc
       -0.081134245 -0.032709777 0.101039164 -0.01589548
000050 9f 55 0a 3e 35 67 e5 bd 9a e6 15 3d 4f cd e5 bb
       0.13509224 -0.11201326 0.036596872 -0.007013
000060 48 cb 1a 3e 6e 56 4f bd cc 95 6c 3d c7 c8 29 bd
       0.15116608 -0.050619535 0.057760045 -0.04145124
000070 86 7b b0 3b c9 5b 27 bd 39 f8 4e 3c b0 3b 34 bd
       0.005385819 -0.040859018 0.012632423 -0.044002235

conv5.weight f4 [32, 2]
000000 f8 1c 0b 3e 35 85 16 3e b7 bb 36 bf 94 42 28 3e
       0.1358527 0.14699252 -0.7138018 0.16431648
000010 e0 44 22 3e 9f 18 36 bf 93 d5 1c be 73 b5 fb bc
       0.15846586 -0.7113132 -0.15315847 -0.03072617
000020 aa 29 b6 3e 7b d0 26 3e 29 b6 b1 be 66 a8 7e be
       0.35578662 0.16290466 -0.3470929 -0.24868926
000030 3f 3a 0d be 0c 86 5f be 6a 11 58 bf 64 ce b6 3e
       -0.1379175 -0.21828479 -0.8440157 0.3570434
000040 a3 2c d7 be d6 13 94 bc 9e 4a f4 3e d9 4a 02 bf
       -0.42026243 -0.018075865 0.47713178 -0.5089546
000050 6c 2d 90 be 59 67 49 bd e5 88 bc 3d ef 39 59 be
       -0.28159654 -0.049170826 0.09205798 -0.21213506
000060 f9 3b 1c 3e 39 b8 96 bd 85 d3 69 be 7c 06 60 bf
       0.15257253 -0.073593564 -0.22834595 -0.87509894
000070 f8 90 a4 3d 7f 54 83 be f9 72 88 3d 19 51 90 bd
       0.08035463 -0.25650403 0.06662554 -0.07046718
000080 01 02 8b be 30 b3 6f be 16 d0 c9 3b 19 bc c7 bd
       -0.27149966 -0.23408198 0.006158839 -0.09752674
000090 b4 4a 95 bd 22 f0 47 3e dc 33 af be ec 6a 82 be
       -0.07289639 0.19525197 -0.34219253 -0.254722
0000a0 d4 4e 89 3e 51 16 41 3e 33 db 68 be ad bf 52 3d
       0.26817954 0.1885617 -0.22739868 0.051452328
0000b0 cc c7 ad 3e e3 39 e4 3c e1 98 b3 3e 14 94 29 3e
       0.33941495 0.027859634 0.35077575 0.16560394
0000c0 96 9d 97 3e ee 3e d8 3c c9 18 55 3f 22 65 25 bf
       0.29612416 0.026397195 0.83240944 -0.6460744
0000d0 ba 60 6c bd 40 cf d4 3e fc e3 ee bd b4 bb e4 be
       -0.057709433 0.4156437 -0.11664578 -0.44674456
0000e0 bf 4f 4e 3b 8b 99 52 3d a6 b4 b2 be b7 67 b2 bd
       0.0031480638 0.05141596 -0.3490345 -0.08711188
0000f0 a0 6f 14 3f e1 4f a6 be 6c 9f ae 3b 4d 5f 98 bc
       0.57982826 -0.32482818 0.005329063 -0.01860013

conv5.bias f4 [2]
000000 0d a2 a9 3e b5 11 d8 3e
       0.33131447 0.4220101
