GST-recon/checkpoints/best_grid_CapsulePool_0.1.pth (torch, 24666 bytes, 17 tensors)

conv1.weight f4 [2, 32]
0.006443466 -0.1408655 0.057067867 0.04483375 -0.14368571 0.019472094 -0.115137696 0.09892584
-0.061560985 0.23999396 0.23792382 0.008980296 -0.13699876 -0.1685462 -0.004848139 -0.022341805
0.073417105 -0.23817353 0.43127173 -0.36627987 0.24772584 0.004653142 0.20254794 0.07591203
0.009042448 -0.00080451305 0.2469778 0.03302274 0.13344322 -0.24966158 0.2317513 0.08712218
0.055222485 0.057418328 0.08802306 0.21394281 0.00034204716 -0.12823582 -0.008016951 -0.23280522
0.07738744 -0.18287262 -0.15774134 0.22951695 0.2884963 0.08221366 -0.0019309116 0.008175864
0.086270064 -0.3193754 -0.38718462 0.48369685 0.34345824 -0.021057812 -0.1736652 -0.017249808
-0.09022047 0.004144705 0.18029311 0.08701683 -0.06661648 0.05172037 0.082849376 -0.2665959
00000000: b623 d33b 0c3f 10be ffbf 693d 98a3 373d
00000010: 5922 13be f183 9f3c 50cd ebbd a199 ca3d
00000020: 5f27 7cbd fac0 753e 4da2 733e 1722 133c
00000030: 6749 0cbe 6097 2cbe 23dd 9ebb 2906 b7bc
00000040: b55b 963d c3e3 73be a6cf dc3e 0989 bbbe
00000050: d8ab 7d3e 6279 983b ba68 4f3e c477 9b3d
00000060: c726 143c f5e5 52ba c0e7 7c3e da42 073d
00000070: 57a5 083e 49a7 7fbe 3650 6d3e 1d6d b23d
00000080: f930 623d 7b2f 6b3d 6f45 b43d d313 5b3e
00000090: cb54 b339 4050 03be 8859 03bc 7e64 6ebe
000000a0: 4e7d 9e3d f642 3bbe f286 21be 7e06 6b3e
000000b0: c9b5 933e a35f a83d a416 fdba 0ff4 053c
000000c0: 5cae b03d 2c85 a3be 103d c6be 1da7 f73e
000000d0: c2d9 af3e 6f81 acbc 4ad5 31be 784f 8dbc
000000e0: 83c5 b8bd 4ed0 873b c29e 383e e135 b23d
000000f0: 396e 88bd bdd8 533d efac a93d 427f 88be

conv1.bias f4 [32]
-0.0034082355 0.022784585 -0.029194565 -0.049172457 0.016930984 0.109133944 0.0423892 -0.032797176
-0.023470806 -0.03727648 0.090307266 -0.030874101 0.068588726 0.13187641 0.01912298 0.018575797
0.025294537 -0.05061755 0.02817716 -0.026038092 -0.23822714 0.019363044 0.02036846 -0.07694861
0.04499171 -0.06065314 0.0075973496 -0.033497196 -0.10005239 0.023886714 -0.034078628 0.011216073
00000000: b45c 5fbb bda6 ba3c 7129 efbc 0f69 49bd
00000010: d9b2 8a3c 9e81 df3d 4ca0 2d3d 5556 06bd
00000020: d945 c0bc 39af 18bd 04f3 b83d afeb fcbc
00000030: 3f78 8c3d 9c0a 073e cca7 9c3c 452c 983c
00000040: 7d36 cf3c 5954 4fbd cad3 e63c d64d d5bc
00000050: d1f1 73be 3f9f 9e3c c2db a63c 3c97 9dbd
00000060: 3a49 383d 6d6f 78bd 30f3 f83b 5b34 09bd
00000070: 44e8 ccbd 12ae c33c 0896 0bbd 9fc3 373c

conv2.weight f4 [32, 32]
0.003864523 0.036010597 -0.1360843 -0.19895835 0.07255836 0.17319721 -0.014307176 -0.13669483
0.073732294 -0.12623993 -0.15187554 0.2345285 0.055235803 -0.047869403 0.046957534 -0.035507802
0.29605234 -0.23885508 -0.16461568 -0.09983062 -0.1453448 -0.12967625 0.22574727 0.17266774
0.046567094 0.28516737 -0.16952634 -0.106165715 0.13239367 -0.05014827 -0.2934324 -0.12877937
-0.15002047 0.21666759 0.0513004 0.19047922 -0.18132697 -0.27577332 -0.2058232 0.008671546
-0.17012568 -0.15774891 0.28590298 -0.13162278 -0.007706099 0.058586396 -0.13785098 0.2529928
0.049874038 0.038563825 0.12290674 -0.23083754 -0.095492095 -0.13844308 -0.1243116 0.036917083
0.028793443 -0.13355242 0.18217431 -0.157101 0.051111333 -0.143474 -0.16485032 -0.061500665
0.14914897 0.11635138 -0.135358 -0.12410919 -0.25568086 0.16226636 0.17825253 0.054003336
-0.19845995 0.14780597 0.22278747 -0.035861142 -0.11877394 0.09377835 0.011938522 -0.11867217
-0.22213556 -0.2039814 -0.12515493 -0.025153771 0.16360317 -0.037227474 -0.10085605 -0.23214282
-0.1765566 0.12842032 0.28630948 0.01112844 -0.26254275 0.09077779 0.15990123 -0.21772625
-0.035104096 0.035911817 -0.14496316 -0.29336473 0.13979378 -0.22312844 -0.13384393 -0.22922353
0.18864335 0.063478455 0.08155252 -0.20150307 0.21547669 -0.00690489 -0.21531355 -0.019075483
-0.12854385 -0.011057964 0.050358277 -0.1785212 0.19500901 0.017989129 -0.10596392 0.13408561
0.022204082 -0.05452524 -0.19846421 0.1497134 0.12840809 0.08163131 0.1273247 0.29000735
0.27465972 -0.28490958 0.018432133 -0.04801796 0.07187645 -0.05828979 0.11722571 -0.28185794
0.05758792 0.2964932 -0.029673977 -0.27857834 -0.15857917 -0.07195448 -0.063359946 0.09238211
0.026646394 0.26688802 0.043817278 0.059259854 -0.055911 0.29462546 0.13687319 -0.12469841
0.05855343 0.09766895 0.021800404 -0.10152105 0.013159037 0.0065711224 -0.052609794 0.06852046
-0.011563229 -0.17893873 0.015310255 -0.061558954 -0.2536052 -0.18024927 -0.18529083 0.12289392
0.24759124 0.25602886 0.35869378 0.11701252 0.1847692 0.012670464 0.28832692 -0.13599585
-0.15848996 -0.11377407 -0.08086863 -0.18329939 0.0115301 0.29592207 -0.12622763 -0.3017022
-0.16151763 0.2625207 0.07300455 -0.03735542 -0.024057908 0.29340425 -0.21882084 0.18126932
0.08949239 0.18641217 -0.21520722 -0.12238952 -0.14555441 0.28697452 0.010010213 -0.27971622
0.08110674 0.08103439 0.08057336 -0.23164622 -0.20591971 0.25711477 -0.2620927 0.022375342
-0.09775333 0.19807972 -0.14068712 -0.17464963 -0.06387399 -0.11863264 0.22878467 0.11907545
0.008920562 0.24372448 -0.21599488 0.0147875305 -0.23501562 -0.029506901 -0.1563654 -0.20626031
0.06883163 -0.13489927 -0.03924039 -0.11919402 -0.22362944 -0.10771168 0.08082825 0.28266546
-0.03816061 0.23056805 -0.10463826 0.24732731 0.25866088 0.124485254 -0.026970288 0.17860553
-0.14937599 -0.13318413 -0.13410969 -0.1439081 0.0012050284 -0.17732263 0.21099643 -0.3053744
-0.2657108 0.030063536 0.19158097 0.28059375 -0.15728717 0.29579222 0.2149616 -0.28079343
00000000: f043 7d3b d97f 133d af59 0bbe bdbb 4bbe
00000010: 7a99 943d 9c5a 313e a568 6abc bbf9 0bbe
00000020: f500 973d 0a45 01be 4385 1bbe 3d28 703e
00000030: f03e 623d b512 44bd 8b56 403d a170 11bd
00000040: 2c94 973e 6d96 74be 0391 28be ff73 ccbd
00000050: 44d5 14be dac9 04be 4b2a 673e d0cf 303e
00000060: 23bd 3e3d 7501 923e 5098 2dbe 696d d9bd
00000070: 3592 073e 4668 4dbd c63c 96be bdde 03be
00000080: f79e 19be 1cde 5d3e 5e20 523d fc0c 433e
00000090: c7ad 39be 2932 8dbe 51c3 52be 1a13 0e3c
000000a0: 6d35 2ebe ee88 21be e061 923e 1fc8 06be
000000b0: 7283 fcbb 4af8 6f3d cf28 0dbe 4688 813e
000000c0: b848 4c3d 1af5 1d3d 87b6 fb3d ad60 6cbe
000000d0: 5c91 c3bd 06c4 0dbe 1597 febd 5e36 173d
000000e0: 3ae0 eb3c f7c1 08be e78b 3a3e 16df 20be
000000f0: 1e5a 513d d9ea 12be 86ce 28be 1fe8 7bbd
00000100: 82ba 183e a249 ee3d 4a9b 0abe f62c febd
00000110: 9ae8 82be 2729 263e d587 363e 9a32 5d3d
00000120: 1639 4bbe 735a 173e 6622 643e 22e3 12bd
00000130: c03f f3bd dd0e c03d ca99 433c 650a f3bd
00000140: 8177 63be 80e0 50be 9d28 00be 480f cebc
00000150: 9787 273e d67b 18bd 9e8d cebd d9b6 6dbe
00000160: 41cb 34be 9e80 033e 2897 923e 0f54 363c
00000170: 016c 86be b5e9 b93d 26bd 233e a1f3 5ebe
00000180: 50c9 0fbd 4518 133d 3971 14be e733 96be
00000190: 1a26 0f3e c87b 64be 620e 09be 93b9 6abe
000001a0: b92b 413e fe00 823d 0205 a73d d256 4ebe
000001b0: eca5 5c3e 6a42 e2bb 287b 5cbe 3044 9cbc
000001c0: 00a1 03be 762c 35bc 7b44 4e3d 43ce 36be
000001d0: 71b0 473e f05d 933c 9d03 d9bd bd4d 093e
000001e0: 56e5 b53c dc55 5fbd 343a 4bbe 784e 193e
000001f0: 697d 033e 512e a73d 6861 023e d87b 943e
00000200: 33a0 8c3e abdf 91be fcfe 963c 7bae 44bd
00000210: f633 933d 46c1 6ebd 0814 f03d af4f 90be
00000220: 50e1 6b3d f5cd 973e d716 f3bc d2a1 8ebe
00000230: 9462 22be df5c 93bd dcc2 81bd d532 bd3d
00000240: 8a49 da3c 8ca5 883e bf79 333d 76ba 723d
00000250: ef02 65bd 26d9 963e 7c28 0c3e e161 ffbd
00000260: b9d5 6f3d a906 c83d c396 b23c 45ea cfbd
00000270: 0099 573c 9252 d73b 5e7d 57bd 7454 8c3d
00000280: b373 3dbc b73b 37be ddd7 7a3c 3e25 7cbd
00000290: 8ad8 81be 4493 38be e1bc 3dbe cfaf fb3d
000002a0: 8f88 7d3e 3716 833e b6a6 b73e 43a4 ef3d
000002b0: 2334 3d3e c797 4f3c 969f 933e 7f42 0bbe
000002c0: 314b 22be 6102 e9bd 749e a5bd d6b2 3bbe
000002d0: bfe8 3c3c 1983 973e d141 01be b678 9abe
000002e0: e164 25be 1d69 863e 6983 953d ff01 19bd
000002f0: 1715 c5bc 1539 963e 9212 60be aa9e 393e
00000300: c947 b73d d5e2 3e3e 485f 5cbe 5ba7 fabd
00000310: 370c 15be 53ee 923e e001 243c f736 8fbe
00000320: 4a1b a63d 5cf5 a53d a503 a53d ab34 6dbe
00000330: 9edc 52be 8ca4 833e 0431 86be 7e4c b73c
00000340: e632 c8bd 69d5 4a3e 4910 10be 5ad7 32be
00000350: 5ed0 82bd abf5 f2bd 8746 6a3e d4dd f33d
00000360: 8d27 123c e992 793e c32d 5dbe 6647 723c
00000370: efa7 70be 75b8 f1bc 401e 20be e735 53be
00000380: 99f7 8c3d 0923 0abe 88ba 20bd ff1b f4bd
00000390: 1eff 64be f197 dcbd 4889 a53d 87b9 903e
000003a0: 4d4e 1cbd 081a 6c3e 964c d6bd 5f43 7d3e
000003b0: 336f 843e 20f2 fe3d cbf0 dcbc 5ee4 363e
000003c0: 05f6 18be 6c61 08be 0d54 09be a55c 13be
000003d0: 0bf2 9d3a 1094 35be 730f 583e 095a 9cbe
000003e0: 3f0b 88be ce47 f63c cd2d 443e fca9 8f3e
000003f0: e30f 21be 1472 973e e51e 5c3e 28c4 8fbe

conv2.bias f4 [32]
-0.044990633 0.0011289514 0.049164232 0.022722332 -0.07084235 -0.025206024 -0.019099196 -0.037175752
0.064222515 -0.03613941 -0.026472297 -0.12529892 0.0034814833 -0.023282353 -0.014167547 -0.05087252
0.016225684 0.1282724 -0.0011333465 0.056088943 0.052049458 -0.010643821 0.003962474 0.060578164
-0.014066043 -0.07318249 0.007447788 -0.022688273 0.003321967 0.0808996 -0.0005280491 0.014820411
00000000: 1948 38bd 53f9 933a 6f60 493d 2f24 ba3c
00000010: cb15 91bd dd7c cebc eb75 9cbc 9a45 18bd
00000020: 1887 833d eb06 14bd 6edc d8bc 5c4e 00be
00000030: 9929 643b a2ba bebc 001f 68bc b45f 50bd
00000040: baeb 843c d759 033e cc8c 94ba 85bd 653d
00000050: d031 553d 6c63 2ebc a4d7 813b cf20 783d
00000060: 4375 66bc b4e0 95bd 930c f43b c2dc b9bc
00000070: 5cb5 593b b1ae a53d c66c 0aba 4fd1 723c

pool.gcn_transform.weight f4 [32, 32]
0.03260038 -0.07031762 0.2278953 -0.22669426 0.13227957 0.08407933 -0.08484489 -0.1731988
0.075965516 0.24909358 0.1815608 -0.12769225 -0.104068264 -0.066660464 0.061466496 0.052564513
0.009426164 0.33981073 -0.032011766 -0.09203779 -0.31676927 -0.020729607 0.28772777 0.13017821
0.042986486 0.0022803948 -0.24833676 -0.14456336 -0.19642799 -0.28638592 0.1318526 0.15977676
-0.002998604 -0.14890943 0.06333621 -0.2565778 -0.11379525 0.048443522 0.15917106 0.058625113
0.30210096 0.23300476 0.00035883457 0.23729561 -0.2968385 0.16482337 -0.38825583 -0.2637516
0.23717032 0.07672629 -0.10191269 0.17761277 0.060392346 0.01781659 0.19009824 -0.13892789
0.17487566 -0.25281948 0.021866431 0.071858086 -0.380722 -0.03805631 -0.14558569 -0.09935442
-0.20133337 -0.19924372 0.75847113 0.26305756 0.15704633 -0.09711911 0.0136468895 0.020712674
0.22368918 0.18996601 0.25548026 0.1833607 -0.017295502 -0.3212515 0.08613466 0.014752867
0.18476741 0.6628995 -0.2720921 0.52840465 0.005806142 -0.086798675 0.18959501 0.5069361
0.28599298 0.2096471 0.18502824 0.33263576 0.25943145 -0.5420024 -0.40473655 0.19215775
0.27297422 0.03459691 0.015477366 -0.27555996 -0.3901631 -0.058683768 -0.049949635 0.17533107
-0.20450296 0.17406502 -0.017734347 0.21665122 0.36775178 0.055905018 -0.061914515 0.24589516
0.12919493 -0.1264341 -0.04181322 -0.15576413 -0.065855466 0.04594155 -0.09001903 0.1149899
-0.18681134 0.11292717 -0.22905906 0.3238554 -0.012493125 -0.061144475 0.3710728 -0.19030926
-0.015335703 -0.27360517 0.33333912 0.33997834 -0.054633312 0.019686209 -0.26097086 -0.14768286
-0.22232231 -0.31402075 -0.080827825 0.11477734 0.037827585 -0.2512046 0.008080284 0.1922903
0.023271902 0.11759624 -0.34540263 -0.113013096 0.4570153 -0.010935431 -0.15430133 -0.13461986
0.10006476 0.20716572 0.041261233 0.28237396 0.32905692 0.16401342 0.10016009 0.0064932154
-0.08231631 -0.06256347 -0.22053304 -0.11647923 -0.22897384 -0.39378032 -0.036703907 0.2543666
-0.3152651 0.051409375 -0.07889227 0.15250936 0.4270856 0.20412956 0.35040122 0.03760151
0.20183393 -0.56338686 0.23942682 -0.06404095 0.2561854 -0.10808015 -0.08902387 0.05896178
-0.19486576 0.26468202 0.2279377 0.03532311 0.0045833187 -0.03702242 0.048187863 -0.30228186
-0.27787894 -0.22762936 0.070473805 0.12733476 0.22121279 0.18341619 -0.20870787 0.21126053
0.16555227 0.14934471 -0.0009215885 0.026880747 0.05425597 -0.23550141 0.116002746 0.03241387
-0.29473007 0.18376744 0.2507509 0.20775948 0.07902241 -0.066329665 -0.0048472662 0.15172689
-0.12855412 0.12570266 0.0053676325 -0.031918403 -0.23436461 -0.171149 -0.37833285 -0.27954403
0.26799956 -0.038947504 0.13447553 -0.36228713 0.20290923 0.315323 0.34407276 -0.34819093
-0.13435099 0.19502892 0.27586964 0.3471544 -0.2977967 -0.30902746 -0.2223539 0.30263036
-0.22783835 0.261632 0.21616428 0.19560209 -0.16331285 0.045734797 -0.051927224 0.2354775
-0.10467869 0.23071177 0.057227403 -0.09927948 0.02249086 -0.36673152 0.07687224 0.075946726
00000000: fa87 053d af02 90bd 635d 693e 8a22 68be
00000010: 4c74 073e c931 ac3d 28c3 adbd 075b 31be
00000020: cf93 9b3d 6312 7f3e 13eb 393e c2c1 02be
00000030: be21 d5bd 4885 88bd 4bc4 7b3d e34d 573d
00000040: 3370 1a3c acfb ad3e c51e 03bd 4f7e bcbd
00000050: 952f a2be 23d1 a9bc 0e51 933e 704d 053e
00000060: 9912 303d ad72 153b fe4b 7ebe 6b08 14be
00000070: 6b24 49be 2da1 92be 5e04 073e 859c 233e
00000080: 3a84 44bb b77b 18be 6ab6 813d 2a5e 83be
00000090: 7c0d e9bd b76c 463d bdfd 223e e320 703d
000000a0: faac 9a3e cd98 6e3e f621 bc39 9ffd 723e
000000b0: 37fb 97be 75c7 283e 78c9 c6be 730a 87be
000000c0: c7dc 723e ac22 9d3d 9ab7 d0bd 1fe0 353e
000000d0: f75d 773d 19f4 913c 1da9 423e 1d43 0ebe
000000e0: 9b12 333e 8e71 81be 3b21 b33c 552a 933d
000000f0: feed c2be efe0 1bbd 6a14 15be 557a cbbd
00000100: 562a 4ebe 8c06 4cbe 2a2b 423f 7baf 863e
00000110: c1d0 203e 62e6 c6bd 3497 5f3c a0ad a93c
00000120: c70e 653e 7386 423e 4fce 823e e8c2 3b3e
00000130: 4caf 8dbc 147b a4be 5e67 b03d 02b6 713c
00000140: ab33 3d3e c8b3 293f a84f 8bbe 8745 073f
00000150: 7341 be3b 81c3 b1bd 3225 423e 90c6 013f
00000160: ac6d 923e bbad 563e 0b78 3d3e 3c4f aa3e
00000170: 33d4 843e abc0 0abf a139 cfbe 00c5 443e
00000180: 47c3 8b3e 7db5 0d3d c794 7d3c 3216 8dbe
00000190: 75c3 c7be 645e 70bd fd97 4cbd fd89 333e
000001a0: 3969 51be 1a3e 323e 9f47 91bc d1d9 5d3e
000001b0: f649 bc3e a9fc 643d 139a 7dbd f1cb 7b3e
000001c0: ad4b 043e f177 01be 5744 2bbd a280 1fbe
000001d0: 3bdf 86bd 352d 3c3d e65b b8bd d37f eb3d
000001e0: 794b 3fbe 5c46 e73d 758e 6abe 60d0 a53e
000001f0: f7af 4cbc a172 7abd 41fd bd3e 6ee0 42be
00000200: 9a42 7bbc fa15 8cbe 6dab aa3e a411 ae3e
00000210: 2ec7 5fbd f944 a13c f99d 85be 2d3a 17be
00000220: 76a8 63be 54c7 a0be 0f89 a5bd 6210 eb3d
00000230: 19f1 1a3d e49d 80be 2b63 043c c0e7 443e
00000240: b7a4 be3c 4cd6 f03d 9dd8 b0be 6973 e7bd
00000250: e9fd e93e 862a 33bc 2b01 1ebe cad9 09be
00000260: c1ee cc3d 4023 543e 8a01 293d 5293 903e
00000270: 267a a83e 22f3 273e bc20 cd3d 0ac5 d43b
00000280: 7495 a8bd 4721 80bd 6ad3 61be aa8c eebd
00000290: 1e78 6abe 939d c9be d656 16bd 573c 823e
000002a0: 6d6a a1be a392 523d 4592 a1bd 6a2b 1c3e
000002b0: f7aa da3e 5707 513e ca67 b33e 0a04 1a3d
000002c0: 8ead 4e3e 1f3a 10bf 4e2c 753e e727 83bd
000002d0: bc2a 833e 2059 ddbd 2652 b6bd e881 713d
000002e0: e48a 47be 6784 873e 8068 693e f7ae 103d
000002f0: aa2f 963b d2a4 17bd a360 453d b0c4 9abe
00000300: 2646 8ebe ac17 69be 9254 903d 0b64 023e
00000310: 9b85 623e 74d1 3b3e 84b7 55be ae54 583e
00000320: 8986 293e d2ed 183e c296 71ba 0335 dc3c
00000330: 823b 5e3d 4827 71be d992 ed3d 68c4 043d
00000340: dce6 96be 882d 3c3e 6c62 803e e7be 543e
00000350: 80d6 a13d d9d7 87bd d1d5 9ebb 4b5e 1b3e
00000360: b1a3 03be 33b8 003e f7e2 af3b dfbc 02bd
00000370: 47fd 6fbe af41 2fbe d8b4 c1be 6520 8fbe
00000380: 3d37 893e 6b87 1fbd f4b3 093e b37d b9be
00000390: 70c7 4f3e 0472 a13e 4e2a b03e 1546 b2be
000003a0: 4e93 09be a9b5 473e c93e 8d3e 39be b13e
000003b0: cf78 98be d938 9ebe beb0 63be 5ef2 9a3e
000003c0: 754e 69be a1f4 853e 2b5a 5d3e ea4b 483e
000003d0: 7c3b 27be 6954 3b3d a4b1 54bd 0421 713e
000003e0: c861 d6bd b53f 6c3e 4867 6a3d 0a53 cbbd
000003f0: c13e b83c 3cc4 bbbe 316f 9d3d f589 9b3d

pool.gcn_transform.bias f4 [32]
0.03642645 -0.042683214 -0.016526623 0.0059191776 -0.48310164 0.04563665 -0.089599445 -0.046711583
0.09318991 0.0874048 0.07428071 0.074558645 0.01222551 0.03465769 -0.093939364 -0.07370407
0.12304741 -0.07233364 0.07534847 0.030766416 0.03592983 0.04198896 0.032309238 0.077612266
0.03685678 -0.018658245 -0.010242716 0.017067445 -0.05003662 0.006949506 -0.13681845 0.019675482
00000000: e733 153d 98d4 2ebd d762 87bc a9f5 c13b
00000010: 1959 f7be 7fed 3a3d ea7f b7bd a554 3fbd
00000020: 5ada be3d 4a01 b33d 7c20 983d 34b2 983d
00000030: 814d 483c 39f5 0d3d 4863 c0bd 29f2 96bd
00000040: 4800 fc3d a923 94bd 4c50 9a3d da09 fc3c
00000050: 282b 133d 9efc 2b3d b156 043d 2ef3 9e3d
00000060: 23f7 163d 2dd9 98bc 11d1 27bc 07d1 8b3c
00000070: 33f3 4cbd aeb8 e33b 231a 0cbe 7a2e a13c

pool.bn_feat.weight f4 [32]
0.9326961 1.0051339 1.3147032 1.0235271 1.0213858 1.0365124 0.91783816 1.1035223
1.1358161 1.1339704 1.0920277 1.0078713 1.1668625 0.9463684 1.0925905 1.1067181
1.0442009 0.85774493 0.92005336 1.2723111 1.0050199 0.82908756 1.0924152 1.1128713
1.14713 0.95347834 1.0942676 1.1585027 1.3116558 1.2162483 1.1327474 0.908174
00000000: 2cc5 6e3f 3aa8 803f 3248 a83f f002 833f
00000010: c5bc 823f 70ac 843f 71f7 6a3f 3840 8d3f
00000020: 6c62 913f f125 913f 90c7 8b3f ed01 813f
00000030: c05b 953f 3345 723f 01da 8b3f f0a8 8d3f
00000040: 60a8 853f 2c95 5b3f 9e88 6b3f 17db a23f
00000050: 7ea4 803f 153f 543f 43d4 8b3f 9172 8e3f
00000060: 28d5 923f 2817 743f f610 8c3f d149 943f
00000070: 56e4 a73f 06ae 9b3f defd 903f 177e 683f

pool.bn_feat.bias f4 [32]
0.012730077 0.09134534 -0.06634116 0.085737415 -0.04161769 0.17044331 -0.05336501 -0.027751157
-0.008397264 0.07699821 -0.02672546 0.11240211 -0.020152632 -0.023905631 -0.14501677 0.008109802
0.0148555385 -0.31851026 -0.047496017 -0.10688117 -0.08481249 0.050559785 -0.0024306052 0.10340352
0.09298131 0.10229327 0.0034611942 0.0068398705 -0.009599732 -0.081149235 0.0020511176 -0.047066547
00000000: d091 503c 4413 bb3d e0dd 87bd 1997 af3d
00000010: 5077 2abd b188 2e3e 4595 5abd 6556 e3bc
00000020: ae94 09bc 3db1 9d3d 5aef dabc 1433 e63d
00000030: 2217 a5bc bed5 c3bc 477f 14be fade 043c
00000040: a564 733c c713 a3be 2f8b 42bd 84e4 dabd
00000050: 2cb2 adbd c717 4f3d ca4a 1fbb 3ac5 d33d
00000060: fc6c be3d 227f d13d 34d5 623b fe20 e03b
00000070: 3248 1dbc 9231 a6bd 0b6c 063b dac8 40bd

pool.bn_feat.running_mean f4 [32]
0.019517217 -0.033775404 0.008532919 0.016999934 -0.042031348 -0.017905386 -0.041307233 -0.01398293
-0.005832778 -0.01390342 -0.024848893 -0.014477446 0.022316465 -0.011082364 0.012649228 0.032460947
-0.0014671765 -0.0062937085 -0.024026254 -0.01631053 0.02868984 0.008357272 -0.01186263 0.015659166
-0.008527641 0.0214468 0.018819641 0.008280087 0.028482364 0.002404401 0.003674875 0.008022491
00000000: 92e2 9f3c 1458 0abd a8cd 0b3c 7243 8b3c
00000010: 1029 2cbd 51ae 92bc c631 29bd a918 65bc
00000020: e320 bfbb 2ccb 63bc e88f cbbc cf32 6dbc
00000030: 05d1 b63c ce92 35bc b53e 4f3c c5f5 043d
00000040: 464e c0ba 743b cebb b5d2 c4bc a99d 85bc
00000050: f506 eb3c f0ec 083c 7a5b 42bc a747 803c
00000060: 85b7 0bbc 33b1 af3c a62b 9a3c 34a9 073c
00000070: d953 e93c 2893 1d3b 2cd6 703b c470 033c

pool.bn_feat.running_var f4 [32]
0.00025398 0.0003355271 0.0015897093 0.00023923855 0.0005999321 0.0006502391 7.2065726e-05 0.00053304544
0.00031120764 0.00028667756 0.001207864 0.00019709775 0.0007530121 0.00025639992 0.00040858684 0.00077865017
0.00027690147 0.0019015309 0.00020789665 0.001547868 0.00069395953 5.6302204e-05 0.0004693599 0.00073815713
0.00035554217 0.000382741 0.00047260884 0.001076747 0.00069360615 0.0019430371 0.0013935029 0.00022189872
00000000: 9e28 8539 afe9 af39 cb5d d03a 1cdc 7a39
00000010: c344 1d3a cf74 2a3a fe21 9738 13bc 0b3a
00000020: 9529 a339 364d 9639 3151 9e3a 06ac 4e39
00000030: c965 453a 6a6d 8639 9937 d639 541e 4c3a
00000040: 162d 9139 ca3c f93a d5fe 5939 d5e1 ca3a
00000050: d6ea 353a 0826 6c38 6b14 f639 e380 413a
00000060: 1068 ba39 a1aa c839 7cc8 f739 a221 8d3a
00000070: 1fd3 353a 82ad fe3a 33a6 b63a 7cad 6839

pool.score_add.weight f4 [1, 32]
-0.08259625 0.04869257 0.16619122 0.050042808 -0.12343897 0.0947859 0.058695532 -0.050062805
-0.0628164 0.0919408 0.14434956 -0.07003369 -0.11551907 0.1644493 -0.13461585 0.004687952
-0.07805343 0.0306769 -0.1119412 0.10928235 0.12615007 -0.12779154 0.058245152 0.023858193
0.16841611 -0.13510786 -0.11174044 -0.039048254 -0.13071704 -0.06033612 -0.09857454 0.019055096
00000000: 3928 a9bd dc71 473d 082e 2a3e b0f9 4c3d
00000010: 92cd fcbd 1c1f c23d ba6a 703d a80e 4dbd
00000020: e2a5 80bd 754b bc3d 5fd0 133e d36d 8fbd
00000030: 4395 ecbd 6665 283e bdd8 09be 649d 993b
00000040: 7ada 9fbd 1f4e fb3c 6e41 e5bd 6dcf df3d
00000050: 7c2d 013e c9db 02be 7892 6e3d 4272 c33c
00000060: 4675 2c3e b759 0abe 2cd8 e4bd 10f1 1fbd
00000070: b0da 05be 0223 77bd 73e1 c9bd 6f19 9c3c

conv3.weight f4 [32, 32]
-1.0252621 0.25301245 0.6757418 -0.77067345 -0.057717405 -1.0564494 0.34279805 -0.43402454
0.5694979 -3.521463 0.064735055 0.1350306 0.37076914 -0.5375497 -0.33441615 1.1669163
-1.6584799 -0.3689768 -2.8516173 0.29011413 0.04942008 1.1292833 1.1184698 1.1789925
-0.5064699 -0.5663701 1.6837127 0.08560255 0.52740353 -0.020749707 0.1546154 -0.44301495
1.7421268 -0.3975456 -1.5844703 0.575687 -0.34890768 3.7736638 -0.51488805 0.5341652
-1.0902507 5.2145696 0.18737955 0.018852722 -0.8234709 0.6844298 0.094556995 -1.3077034
2.305511 0.0728392 3.6506016 -0.6842132 0.060723215 -2.2681847 -1.3780689 -1.9297922
0.8632826 0.5241557 -2.3283186 -0.024912884 -0.80402666 0.5276545 -0.24241276 0.36526704
-3.3127096 -0.14983425 2.2928555 -0.20288818 0.09667967 -8.080097 0.13128263 -0.6193769
1.2037266 -2.5163202 0.0026053707 -0.30617288 0.48493975 -0.4967041 0.0011632261 0.8672156
-0.024298104 0.17411752 -2.0789056 0.09732369 0.3946122 1.2388744 1.6667217 0.47428405
-0.64110637 -0.54252124 0.15301393 -0.12081694 0.7220649 -0.37543833 -0.14814405 -0.38635007
-0.052123833 0.45307496 0.36118385 -0.25955778 -0.3710449 -0.47246724 0.42239308 0.24220121
0.39427027 -0.80561686 -0.5372445 0.4312798 0.59369767 -0.10306814 -0.119312465 0.54209995
-1.581717 -0.109093234 -1.2892828 0.5257877 0.036918707 0.98282033 0.24491298 1.1906495
-0.14251429 0.008276126 1.3038144 0.11858906 0.24008031 -0.13516441 0.55307436 0.07659369
0.18124564 -0.5542464 0.21099488 0.48225853 -1.1539783 -2.9330552 0.3500077 0.47726524
0.19945753 4.894059 0.94057184 -0.08993969 -0.5570438 0.65105605 0.38429746 -2.152773
4.3394384 0.28487182 3.4051843 -1.1093568 1.0743692 -3.2761245 -0.6653061 -1.7066408
0.6878941 -0.33151922 -5.955749 0.11182817 -0.59261453 -0.45139846 -0.0958548 -0.4764336
-1.0143163 -0.8166934 0.7811285 0.47433174 -0.48979014 -3.7715075 -0.33006978 -0.34086755
0.69234383 1.6192987 0.84923476 -0.6614781 -0.10701132 -0.19453533 -0.57613766 -0.52721345
2.3951957 0.2754747 1.5360647 -0.36729884 0.49669918 -1.1839736 -0.16825843 -1.2858427
-0.31527916 0.3213545 -2.8431828 -0.46459454 -0.0064013633 0.34056553 -0.3338229 0.0067885057
1.245646 -0.1609656 -1.2193648 0.9107088 -0.58004975 2.0561855 -0.005379168 0.2723164
-0.67554045 3.954824 0.6540534 0.22149043 -0.9580725 0.23886994 0.41538757 -0.98799807
3.926064 0.07288539 4.2315183 -0.5805876 0.9041157 -4.0720363 -1.1409702 -3.1790345
0.9202719 0.9176576 -3.9854121 0.11690211 -0.67076075 0.24122752 -0.118724875 0.37209788
1.5129719 0.2881871 -0.7996909 0.029381607 0.059333194 4.8841696 -0.35792285 0.50693774
-0.73006916 1.7667881 0.19113258 0.28408572 -0.33272913 0.5607239 0.17229505 -0.71690094
0.44547066 0.3576348 1.8775954 -0.26191175 0.037946835 -0.9315852 -0.91184163 -0.81990266
0.5860816 0.38607323 -0.60280895 0.41547185 -0.37800762 0.27926877 -0.0065478873 0.4268054
00000000: ca3b 83bf d98a 813e 6afd 2c3f db4a 45bf
00000010: 1669 6cbd bc39 87bf 3a83 af3e 7738 debe
00000020: 9dca 113f a65f 61c0 d093 843d 7645 0a3e
00000030: 74d5 bd3e db9c 09bf 9838 abbe 835d 953f
00000040: 1249 d4bf 87ea bcbe e680 36c0 d789 943e
00000050: b66c 4a3d 5b8c 903f 052a 8f3f 3ae9 963f
00000060: 03a8 01bf a2fd 10bf e683 d73f 6450 af3d
00000070: eb03 073f 4afb a9bc 8053 1e3e dbd2 e2be
00000080: 03fe de3f 198b cbbe eccf cabf 3960 133f
00000090: 07a4 b2be b583 7140 b4cf 03bf 0dbf 083f
000000a0: 568d 8bbf c1dd a640 6de0 3f3e 0671 9a3c
000000b0: fdce 52bf cb36 2f3f 19a7 c13d d362 a7bf
000000c0: 7e8d 1340 b82c 953d 75a3 6940 9928 2fbf
000000d0: e8b8 783d f029 11c0 9064 b0bf 6e03 f7bf
000000e0: 1700 5d3f 112f 063f 2c03 15c0 1b16 ccbc
000000f0: b1d4 4dbf 5e14 073f 0d3b 78be 4804 bb3e
00000100: 6f03 54c0 266e 19be 25be 1240 ebc1 4fbe
00000110: feff c53d 1448 01c1 f46e 063e 7c8f 1ebf
00000120: b713 9a3f 640b 21c0 debe 2a3b b1c2 9cbe
00000130: 064a f83e 0050 febe 6477 983a d701 5e3f
00000140: d10c c7bc dd4b 323e ca0c 05c0 a551 c73d
00000150: 9c0a ca3e 7093 9e3f 2357 d53f 5cd5 f23e
00000160: 8c1f 24bf ace2 0abf afaf 1c3e df6e f7bd
00000170: 3fd9 383f 7439 c0be 13b3 17be adcf c5be
00000180: cd7f 55bd 71f9 e73e 17ed b83e c2e4 84be
00000190: 99f9 bdbe 3ae7 f1be e843 d83e 9803 783e
000001a0: cbdd c93e e83c 4ebf db88 09bf b5d0 dc3e
000001b0: 92fc 173f 6415 d3bd 185a f4bd 10c7 0a3f
000001c0: b475 cabf 466c dfbd 3807 a5bf 069a 063f
000001d0: 1238 173d 1d9a 7b3f 78ca 7a3e 3467 983f
000001e0: 44ef 11be 9798 073c 64e3 a63f d2de f23d
000001f0: 9dd7 753e 8a68 0abe 4896 0d3f 27dd 9c3d
00000200: 7598 393e 18e3 0dbf 0b0f 583e 97ea f63e
00000210: 90b5 93bf 2db7 3bc0 3634 b33e 1c5c f43e
00000220: 983e 4c3e 229c 9c40 51c9 703f 4d32 b8bd
00000230: 6c9a 0ebf 9cab 263f a3c2 c43e 08c7 09c0
00000240: aedc 8a40 b8da 913e 8aee 5940 67ff 8dbf
00000250: ee84 893f 06ac 51c0 8051 2abf 3573 dabf
00000260: d419 303f e3bc a9be 7f95 bec0 2b06 e53d
00000270: 96b5 17bf b31d e7be 854f c4bd 1bef f3be
00000280: 1ed5 81bf d212 51bf 0af8 473f 9cdb f23e
00000290: c6c5 fabe 6160 71c0 e8fe a8be 3186 aebe
000002a0: 723d 313f 2e45 cf3f 7367 593f a156 29bf
000002b0: c028 dbbd 4534 47be c27d 13bf 76f7 06bf
000002c0: e34a 1940 050b 8d3e c59d c43f 980e bcbe
000002d0: 5b4f fe3e 728c 97bf f04b 2cbe 7e96 a4bf
000002e0: 456c a1be 9488 a43e b5f6 35c0 56df edbe
000002f0: 87c2 d1bb 9b5e ae3e d6ea aabe 1d72 de3b
00000300: 5471 9f3f 2bd4 24be 2514 9cbf 3624 693f
00000310: 247e 14bf 8b98 0340 bb43 b0bb 0e6d 8b3e
00000320: 38f0 2cbf d61b 7d40 0b70 273f 63ce 623e
00000330: 3d44 75bf 529a 743e aead d43e 71ed 7cbf
00000340: a244 7b40 ef44 953d 9968 8740 64a1 14bf
00000350: 2074 673f 1f4e 82c0 500b 92bf 4d75 4bc0
00000360: f096 6b3f 9ceb 6a3f fe10 7fc0 606a ef3d
00000370: fab6 2bbf 5904 773e 0726 f3bd 9d83 be3e
00000380: 10a9 c13f 428d 933e 8bb8 4cbf b2b1 f03c
00000390: 5d07 733d 1e4b 9c40 aa41 b7be acc6 013f
000003a0: d0e5 3abf 1d26 e23f 42b8 433e af73 913e
000003b0: 795b aabe 9a8b 0f3f 1d6e 303e d286 37bf
000003c0: bb14 e43e e91b b73e 0c55 f03f 4c19 86be
000003d0: 246e 1b3d 5e7c 6ebf 746e 69bf 24e5 51bf
000003e0: 7209 163f 64ab c53e b051 1abf bab8 d43e
000003f0: 378a c1be 51fc 8e3e a98f d6bb 3d86 da3e

conv3.bias f4 [32]
-0.030207234 -0.03609785 -0.0066597136 0.01973975 0.009560346 0.008938581 -0.018614601 -0.035642322
-0.000429086 0.0052217115 -0.007478109 -0.024626752 0.027949782 -0.035710897 -0.028031437 0.011739511
-0.030671239 -0.010888536 0.044789545 -0.015799701 0.014842276 0.0066007106 -0.0064171166 0.037182663
-0.03886407 0.018187067 0.020437911 -0.03137814 -0.009862003 0.025916597 0.020990297 0.046887666
00000000: 2975 f7bc 57db 13bd ba39 dabb 42b5 a13c
00000010: ffa2 1c3c 2073 123c a67d 98bc affd 11bd
00000020: f3f6 e0b9 e41a ab3b ed0a f5bb 0bbe c9bc
00000030: f1f6 e43c 9745 12bd 2fa2 e5bc 1457 403c
00000040: 4042 fbbc d565 32bc 3e75 373d 606e 81bc
00000050: 052d 733c c64a d83b ad46 d2bb d94c 183d
00000060: ee2f 1fbd 0bfd 943c 686d a73c 5d86 00bd
00000070: 3d94 21bc 0b4f d43c d8f3 ab3c 480d 403d

conv4.weight f4 [32, 32]
0.12379973 -0.26184702 0.13769712 0.31973845 -0.57279885 -0.67625076 -0.13864224 0.18203023
-0.09385014 0.5426662 -0.17754239 -1.321289 -0.06511938 0.16771477 -0.28105235 -0.019204786
0.007720475 -0.14735341 -0.8114276 -0.4403555 -0.1195565 -0.7177065 -0.08756107 -0.044259593
0.36227497 0.43807513 0.5031942 0.19334197 -0.04811521 0.010216604 0.042298913 -0.3166009
-0.1325423 -0.4142119 0.12842682 0.06376763 -0.38849512 -0.2202321 0.2375325 0.35963747
0.31827778 -0.52357215 0.21891385 -0.32650548 0.42948183 -0.17326978 0.1275702 0.17360806
0.2339132 -0.03622305 0.17811088 -0.33070192 -0.23651697 -0.8541279 -0.005651349 -0.039293326
0.35676336 -0.38588122 -0.019762931 -0.023358151 0.23979618 0.1996101 -0.13840468 -0.31468427
-0.07969497 0.078336515 -0.18122008 0.11597457 0.8414422 0.534626 0.046659954 -0.12880677
0.12681873 -0.5910591 -0.17746827 1.1538212 0.023093564 0.25010237 -0.041201238 0.08383103
-0.061470367 -0.10736205 1.1472722 0.55906594 0.25975913 0.94117737 0.1752681 -0.113879025
-0.043237716 -0.34494385 -0.4308551 -0.046217997 0.15527254 -0.11232277 0.28811705 -0.106921874
0.1410674 0.5254895 0.12596752 0.025282556 0.2630741 0.10982144 -0.22483218 -0.84352523
-0.36611173 0.6091226 -0.046373677 -0.4068881 -0.6087873 -0.27131116 -0.012393632 -0.5618697
-0.07430602 -0.27571574 -0.3112733 0.45821014 -0.0078038275 0.372429 -0.072637185 0.29551286
-0.5377256 1.0496639 0.44134232 -0.1250992 0.03941635 0.19354603 0.041376676 0.063387185
0.37411758 -0.54451126 0.34654638 -0.21773627 -0.07161893 -0.13216513 0.26956856 0.5233504
-0.060543653 -0.18768637 -0.20888864 0.110077895 0.64996076 0.13740745 -0.31422007 -0.032051273
-0.18165565 0.32343856 -0.24708362 -0.40459913 0.20999576 -0.23171885 0.29408088 -0.15569453
0.61595136 -0.31402194 -0.2483474 -0.24864765 0.026691936 0.13649301 -0.043426752 0.04908329
-0.112377435 0.0054143746 -0.19282965 0.04327534 -2.7077441 -0.31092045 0.38142675 2.4729269
-0.12667274 2.5145612 0.03016093 -0.07456563 -0.14560401 0.18970115 0.02455691 0.29510435
0.18007703 0.5012779 -3.6060824 -0.37886247 0.00811184 -0.20680636 -0.37244412 -0.24904293
0.025963977 0.39284432 0.08102177 0.10928409 -0.12917021 0.19489567 0.11677904 -0.047033284
-0.0009045648 -0.031820998 -0.020220993 0.040030193 -0.14779615 0.1870098 -0.29336664 0.5005437
0.24264197 -0.15068263 0.18789993 -0.06003827 0.022307383 0.02917967 0.21244043 0.12612274
0.090708666 -0.49524513 0.21593705 0.04960623 -0.015204409 0.15286076 0.33370143 -0.16807595
0.21038395 -0.7813321 -0.07470637 -0.06953237 0.288884 0.12964039 0.1857504 -0.19536409
-0.06970504 -0.11858028 0.082037136 0.14864519 -0.44620618 -0.08007165 0.15554765 -0.30634016
-0.25277233 0.18962018 -0.11503522 -0.39145595 -0.0927346 0.19943294 0.20439284 -0.18970263
0.26324284 -0.13200216 -0.1343513 -0.18849884 -0.06514152 -0.48879766 0.08070577 0.2872345
-0.12389831 -0.31427485 0.27539378 0.18042438 0.13710594 0.24405062 -0.089373976 -0.38239855
00000000: b68a fd3d d010 86be 7900 0d3e c2b4 a33e
00000010: f2a2 12bf c51e 2dbf 3bf8 0dbe 2266 3a3e
00000020: 8134 c0bd 2cec 0a3f accd 35be ff1f a9bf
00000030: 4f5d 85bd 6cbd 2b3e 18e6 8fbe 5b53 9dbc
00000040: 0afc fc3b d0e3 16be b8b9 4fbf 4776 e1be
00000050: 0ada f4bd 9dbb 37bf 3853 b3bd 8c49 35bd
00000060: 1b7c b93e 624b e03e 56d1 003f 70fb 453e
00000070: 7414 45bd 8b63 273c a041 2d3d 8319 a2be
00000080: 2bb9 07be 9513 d4be 5282 033e 9a98 823d
00000090: d5e8 c6be 8684 61be b83b 733e 6722 b83e
000000a0: 4ef5 a23e d308 06bf f42a 603e ba2b a7be
000000b0: 0be5 db3e a26d 31be c3a1 023e 50c6 313e
000000c0: f186 6f3e 9f5e 14bd b362 363e c351 a9be
000000d0: 8131 72be 20a8 5abf f42e b9bb 0af2 20bd
000000e0: b0a9 b63e 3992 c5be dfe5 a1bc 9859 bfbc
000000f0: 218d 753e 9766 4c3e f5b9 0dbe 4c1e a1be
00000100: 1e37 a3bd e56e a03d c291 39be 1384 ed3d
00000110: c268 573f 40dd 083f 821e 3f3d ece5 03be
00000120: c5dc 013e a64f 17bf 3eba 35be 6ab0 933f
00000130: b72e bd3c 6b0d 803e a1c2 28bd 9aaf ab3d
00000140: 5ac8 7bbd a2e0 dbbd d1d9 923f f21e 0f3f
00000150: 26ff 843e 00f1 703f 7b79 333e 6839 e9bd
00000160: 081a 31bd 7b9c b0be 0a99 dcbe 154f 3dbd
00000170: c4ff 1e3e 7b09 e6bd 1484 933e dbf9 dabd
00000180: f973 103e 7b86 063f a1fd 003e 5d1d cf3c
00000190: a6b1 863e 10ea e03d 683a 66be 45f1 57bf
000001a0: ff72 bbbe 75ef 1b3f 53f2 3dbd a353 d0be
000001b0: 7cd9 1bbf 4ce9 8abe a90e 4bbc b1d6 0fbf
000001c0: c12d 98bd 9d2a 8dbe 375f 9fbe 859a ea3e
000001d0: 40b7 ffbb 04af be3e cec2 94bd 764d 973e
000001e0: 63a8 09bf 635b 863f 9ff7 e13e 011a 00be
000001f0: 0a73 213d ee30 463e 977a 293d 24d1 813d
00000200: 578c bf3e 1765 0bbf 876e b13e 42f6 5ebe
00000210: f2ac 92bd 4c56 07be e404 8a3e 4bfa 053f
00000220: 9ffc 77bd db30 40be e7e6 55be 8570 e13d
00000230: d463 263f 8ab4 0c3e 74e1 a0be 3248 03bd
00000240: f003 3abe bd99 a53e 7d03 7dbe 9e27 cfbe
00000250: 2109 573e b547 6dbe c591 963e 636e 1fbe
00000260: fdae 1d3f 7cc7 a0be c84e 7ebe 7d9d 7ebe
00000270: 0ca9 da3c d3c4 0b3e 40e0 31bd 8f0b 493d
00000280: 2426 e6bd 116b b13b 2375 45be 7c41 313d
00000290: ae4b 2dc0 f730 9fbe 5e4a c33e 6f44 1e40
000002a0: 80b6 01be 92ee 2040 0e14 f73c ddb5 98bd
000002b0: 3819 15be 0541 423e 932b c93c eb17 973e
000002c0: 1d66 383e c053 003f 0eca 66c0 43fa c1be
000002d0: 86e7 043c 0cc5 53be ffb0 bebe 1c05 7fbe
000002e0: 68b2 d43c e422 c93e beee a53d 56d0 df3d
000002f0: 3245 04be bb92 473e d929 ef3d f9a5 40bd
00000300: 5120 6dba bc56 02bd 7fa6 a5bc b3f6 233d
00000310: e057 17be 7f7f 3f3e 2734 96be a223 003f
00000320: 2377 783e 8c4c 1abe d768 403e b0ea 75bd
00000330: f9bd b63c 340a ef3c fc89 593e 5226 013e
00000340: 77c5 b93d c590 fdbe 9a1e 5d3e e72f 4b3d
00000350: ea1b 79bc 8887 1c3e eada aa3e 1a1c 2cbe
00000360: e46e 573e 6105 48bf a7ff 98bd fd66 8ebd
00000370: 9be8 933e 73c0 043e 5a35 3e3e 860d 48be
00000380: 84c1 8ebd 38da f2bd 1603 a83d 7236 183e
00000390: 2375 e4be 9bfc a3bd e247 1f3e 9ed8 9cbe
000003a0: 606b 81be cb2b 423e 9697 ebbd ea6c c8be
000003b0: a3eb bdbd 2638 4c3e 5b4c 513e 6841 42be
000003c0: c4c7 863e 932b 07be 6393 09be d705 41be
000003d0: eb68 85bd b043 fabe 1149 a53d 6610 933e
000003e0: 66be fdbd a2e8 a0be 6a00 8d3e 2bc1 383e
000003f0: 8065 0c3e 68e8 793e b409 b7bd bec9 c3be

conv4.bias f4 [32]
0.027149243 -0.0039256914 -0.064243615 -0.0881696 0.010329148 -0.049350858 -0.09087802 -0.026723105
-0.075040475 -0.033446852 -0.057575118 -0.043695316 0.048898257 -0.088880554 -0.079644226 0.02639857
-0.09037813 -0.03135931 0.04941375 -0.022343673 0.08597396 -0.055418227 0.0839877 0.09340803
0.06226365 -0.051283862 0.034027148 -0.09210852 0.06827629 -0.07964707 0.071114205 -0.069509484
00000000: 1768 de3c 16a3 80bb 2892 83bd 4392 b4bd
00000010: 963b 293c 2024 4abd 411e babd 6aea dabc
00000020: d2ae 99bd 91ff 08bd e3d3 6bbd dcf9 32bd
00000030: 8a49 483d 0207 b6bd 831c a3bd d041 d83c
00000040: 2b18 b9bd 9f72 00bd 1366 4a3d 140a b7bc
00000050: 1e13 b03d 39fe 62bd be01 ac3d b64c bf3d
00000060: 2b08 7f3d 070f 52bd 0d60 0b3d 64a3 bcbd
00000070: 71d4 8b3d 011e a3bd 53a4 913d fd5a 8ebd

conv5.weight f4 [32, 2]
0.1502908 -0.030074893 -0.679212 0.24943374 0.2385089 -0.3303746 -0.18575953 -0.12115379
0.6334932 0.21253888 -0.34760284 -0.33408162 -0.111979894 -0.12944458 -0.7945249 0.16077372
-0.40368298 -0.17893346 0.06019667 -0.5622057 -0.04172369 -0.014815068 -0.15016699 -0.80894935
0.2486859 -0.1487031 -0.35115042 -0.27708146 -0.13635862 -0.12187234 0.36152565 -0.24102347
-0.27602652 -0.2817114 0.10463595 -0.45664296 0.1527775 0.8369282 -0.41780552 -0.025621552
0.12091388 0.4545812 -0.5373976 -0.35568315 0.21411355 0.08874443 0.3247047 0.1834103
0.37285706 -0.006619018 0.51929855 -0.25654188 -0.09497462 0.7046359 -0.26014858 -0.39865673
0.1334848 0.30757177 -0.24383998 -0.13595292 0.32542768 -0.08222617 0.023761665 -0.16367912
00000000: d5e5 193e 9f5f f6bc d6e0 2dbf 8f6b 7f3e
00000010: ad3b 743e dc26 a9be bf37 3ebe 7a1f f8bd
00000020: 9c2c 223f cba3 593e 00f9 b1be bf0c abbe
00000030: b755 e5bd 1f8d 04be fc65 4bbf dea1 243e
00000040: 89af cebe 553a 37be c990 763d b6ec 0fbf
00000050: 76e6 2abd e6ba 72bc 60c5 19be 4e17 4fbf
00000060: 84a7 7e3e a045 18be fdc9 b3be 9fdd 8dbe
00000070: 98a1 0bbe 3598 f9bd e419 b93e dbce 76be
00000080: 5953 8dbe 7a3c 90be 5f4b d63d 1bcd e9be
00000090: b471 1c3e ed40 563f 9bea d5be 4ae4 d1bc
000000a0: b2a1 f73d debe e83e e492 09bf 1a1c b6be
000000b0: 9540 5b3e a4bf b53d b23f a63e e9cf 3b3e
000000c0: 1fe7 be3e 59e4 d8bb c0f0 043f 7559 83be
000000d0: 0e82 c2bd 0563 343f 3232 85be bc1c ccbe
000000e0: 3db0 083e 0c7a 9d3e 30b1 79be 3e37 0bbe
000000f0: 759e a63e 3266 a8bd d3a7 c23c 809b 27be

conv5.bias f4 [2]
0.1507704 0.13883637
00000000: 8e63 1a3e 1f2b 0e3e
