GST-recon/checkpoints/best_grid_ASAP_0.1.pth (torch, 29548 bytes, 18 tensors)

conv1.weight f4 [2, 32]
00000000: ccaf 953c c0e1 54be 8391 583e 5599 853e
00000010: 8fc6 32be 8e98 5ebc cca2 8fbe 8ff5 23bd
00000020: 827b 42bd 8526 6e3e e1b9 563e 2021 9c3d
00000030: c545 6cbd 8c31 04bf 44cd 0f3e 4d92 04be
00000040: e6b6 063e ff8e 1ebf dbc6 883e 3a23 d7bd
00000050: 2d1f db3e e3f4 95bd 761d 2d3e 5bc4 893e
00000060: dff2 9a3d ab76 d9bd 75ec 993e 5b58 f03d
00000070: c439 b93e 7eb2 a6be bef1 2d3e 0d4e e13d
00000080: e126 843e ed1d 323e 8b4d c23d ec0e 853e
00000090: 4e52 29be 862a 8bbe abeb 73bd 3f07 00bf
000000a0: 14b4 7a3e b2c6 80be 0fed c8be bbf1 cd3e
000000b0: b5bd f93e 81a4 133e f5e6 683d bba7 e2bd
000000c0: 4c37 663e e537 85be cf22 e8be 46bf ef3e
000000d0: d3e4 a23e 862c 2a3e 1f45 bfbe 35cb c93d
000000e0: e021 5ebe 9681 0dbe 6879 273e 75e3 303e
000000f0: 4dd9 863d c54b 163e f932 893c 9a99 d8be
0.018272303 -0.20789242 0.21149258 0.26093546 -0.17458557 -0.013586177 -0.28053892 -0.040029105
-0.047481067 0.23256882 0.20969345 0.076235056 -0.057683725 -0.516381 0.14043146 -0.12946434
0.13155708 -0.61936945 0.26714215 -0.10504766 0.42797223 -0.07322099 0.1690577 0.2690762
0.07565855 -0.10618337 0.30063215 0.117356025 0.36176884 -0.32558054 0.16986749 0.11001215
0.25810912 0.17394228 0.094874464 0.25987947 -0.16535303 -0.2718088 -0.059550922 -0.50011057
0.24482757 -0.25151592 -0.3924336 0.40223488 0.48777547 0.14418222 0.056860883 -0.11067148
0.22482032 -0.26019207 -0.45339057 0.46825618 0.31815204 0.16618547 -0.37357423 0.09853212
-0.2169261 -0.13818964 0.16354907 0.17274268 0.065844156 0.14677341 0.016747938 -0.4230469

conv1.bias f4 [32]
00000000: 91e2 093e 72d9 87bc 66ff b4bd 63e3 16be
00000010: c0a8 02be 27f1 5cbd 57ac 25bd 1899 c2bd
00000020: 13a1 66bd 8d1b b33d b0ac efbd b4df f9bd
00000030: 022a 973d e89d 013d cc18 9d3c b9aa 02be
00000040: 2acb e23d 344b 673e 03c2 623d e824 823d
00000050: 7234 10be 7ddd 013e e7df d4bd 8c23 eabd
00000060: 58bf 40be 9f5e 00bd af4c 0f3d 6229 40be
00000070: f3c9 0c3d 655b ecbc 6da2 813d 9052 533c
0.13465334 -0.016583178 -0.08837776 -0.14735179 -0.12759686 -0.05394092 -0.04044756 -0.095018566
-0.056305956 0.08745489 -0.117028594 -0.12200871 0.07381059 0.03164473 0.019176863 -0.12760438
0.11073907 0.22587281 0.055360805 0.063546956 -0.14082506 0.12682147 -0.103942685 -0.11432561
-0.18822992 -0.031340238 0.03498524 -0.18765786 0.03437228 -0.028852174 0.063298084 0.012898102

conv2.weight f4 [32, 32]
00000000: d3ba 76be 459f af3d 08e4 edbd 0502 6cbe
00000010: 35eb ce3d 5616 233e 79a9 40be dc34 3cbe
00000020: 9415 763e c82f 24be 7517 23be 0918 a13e
00000030: 4438 1ebc dde9 0c3d adf2 693e db10 0fbe
00000040: 3a3f d43e fa20 9abe 40bd 0abe 8a3f 173e
00000050: fbe6 31bd a77c 543b 19cc 813e f3f9 723e
00000060: 00e4 42bd 3a50 173e ec69 b2bc f706 b8bd
00000070: 3f53 333e 4754 55be bc7e c1be e4eb 9ebe
00000080: 820c 39be feeb 8e3e 402f 333e 76fe 1b3e
00000090: 14ed 40be f1e9 7fbe e9ce 86be 184f 073e
000000a0: 1e00 63bc dd3b bebe bd08 243e d0eb a8bd
000000b0: 4be6 13be 777d f43d f681 c8bd 5a31 403e
000000c0: 38f8 cb3d 1c1d 1bbb db88 3bbc 067b 6bbe
000000d0: 0f40 32be 59c1 2ebe 7ac8 14be ddb5 483d
000000e0: fbe5 f73d c4bf b8bd 0519 593e 7f32 0bbe
000000f0: 24bd e93b 57df 3bbe 8621 87be dcec 6cbe
00000100: a281 c33d 6c4e 993d a327 01be 8520 71bd
00000110: bf62 02bf e736 95bd 3e95 813e d95d acbd
00000120: 7fa7 ffbd 435f dd3e 263a ab3e 8ccc e93d
00000130: 8bb5 6fbe 7198 6c3e 3439 bb3d 1c9e abbd
00000140: ca5c 8cbe 67d8 43be ed93 aeba f8b7 913c
00000150: 4ef8 a93e 244d c23d 1e95 b0bd 1c27 94bd
00000160: b3bd 73be d09c 3abd 4002 b53e 9bb6 4abd
00000170: 1e73 dbbd 6b49 153e 4abf 763e 8a95 84be
00000180: daa6 19be fde0 d6bc 091c 01be 4aa2 8dbe
00000190: a32c 91bd df44 f3be c1c9 a7bd 9b61 8bbe
000001a0: 959e 903e 90ff 823e 89fc 813e eede 78bd
000001b0: 0561 693d 0534 613e 8bc4 edbd 9cd0 9cbb
000001c0: f3f2 46be 0f5f 493d 27fd e93d 19a1 e3bd
000001d0: bd66 c13e 9868 153e 1a08 b7bd 12de 963e
000001e0: 72b9 393c cd31 85be 42fe d4bd af21 c33d
000001f0: 093a cd3e 2acf aa3d c42b 333e 47d2 4b3e
00000200: 7f2b af3e ed6e b0be 6c8b 4f3d 3312 34bd
00000210: 4efd 113e e740 11bc e83b 2b3e 634c 41be
00000220: b3c0 c43d ae7c 4a3e 108d 45bd 1d40 8ebe
00000230: a594 38be 6e12 aebd 969f bbbd c2e5 8c3d
00000240: 28c3 64bc f702 8e3e 94f7 42bd 15aa 8fbd
00000250: ba5c 6cbe cb05 6a3e 3301 b73d 9340 eabd
00000260: 7e6a 8d3e 4bc4 7e3e 09ab 31bd f965 eebd
00000270: 9eff c73b 612e 363e 9b7d a1bd 9997 3e3d
00000280: 2ffc 383e c0f3 75be 6ba2 9cba 2dd6 73bd
00000290: 48ef 30be 4f4b 55bd 2621 dbbd fa0d e13d
000002a0: 3935 a43d f422 423e 60ca 973e b4a0 2d3d
000002b0: 98c2 8a3e 7081 1abe 2d3d 183e c02b 7cbd
000002c0: 503f 36be 8a6a 77bd be4f c4bd 3915 c9be
000002d0: 59a2 30be 9a14 673e 4c40 3dbe 8c7d c6be
000002e0: 7758 96bd a0f9 f13e 7fe4 89bc 9271 e3bc
000002f0: 7fe5 12be f8f4 cb3e cddf 45be 7511 a03e
00000300: f8b8 f93d 7809 453e 300a 36be 8bc4 1cbe
00000310: ab69 49bc 0541 de3e 7b6f 7cbc 865c 3cbe
00000320: a4ef 093e 9b04 fbbd cd95 2b3b 3671 a5be
00000330: bd82 34be d6aa 673e 03d6 94be 6398 3cbd
00000340: c69b 8ebd 23cd 443e 4d5c 95be 3ec5 8dbe
00000350: 592b 71be cfd2 59be a33e 3b3e ef85 183d
00000360: 9f6c 403e a421 c03e 3e7b 85be fea5 fe3b
00000370: f7d9 a4be fe38 a83d c9ec 57be 6ab5 8ebe
00000380: 5e36 c33e b389 62be 9ef7 e2bd 430c 80bc
00000390: 8dcd 28be 082b 353d 3b6a 8a3e 569a 8a3e
000003a0: 5ad6 8fbe 3b2d 793e 0e3f 7abd 7aad d13d
000003b0: 7282 933e ac80 e7b9 b134 8ebe 3ff4 a63e
000003c0: 91bc 83be 7f43 d4bc 37e4 2abc 1b29 c5be
000003d0: 20d4 43be 9f7e a1be 5479 813d 1d1b ccbe
000003e0: 7235 81be b862 4b3e 3b8d c83c 3b7b 553e
000003f0: c8dc 81be 6dd7 b53e fdd6 a23e c8ba 0abe
-0.24094705 0.085753 -0.11615759 -0.23047645 0.10103456 0.15926489 -0.18814649 -0.18379539
0.24031669 -0.16033852 -0.15926917 0.3146365 -0.009656969 0.034402717 0.2284648 -0.13971274
0.41454488 -0.30103284 -0.13548756 0.14770332 -0.04343317 0.0032422931 0.25351027 0.2372816
-0.04758072 0.14776698 -0.021779023 -0.089857034 0.17512225 -0.2083293 -0.37792003 -0.31039345
-0.18071178 0.27914423 0.17498493 0.15233788 -0.18840438 -0.24991585 -0.26329735 0.13213766
-0.013855008 -0.37155047 0.16018958 -0.08248103 -0.14443319 0.11937993 -0.09790413 0.18768826
0.09959453 -0.0023668474 -0.011446203 -0.22996148 -0.17407249 -0.17065944 -0.145296 0.049001563
0.12104412 -0.090209514 0.2120095 -0.13593481 0.007133143 -0.18346916 -0.26392764 -0.2313723
0.0954621 0.07485661 -0.12612776 -0.058868904 -0.50931925 -0.072858624 0.25309175 -0.084163375
-0.12483119 0.4323674 0.334428 0.11415967 -0.23409097 0.23105027 0.0914177 -0.08379766
-0.27414542 -0.1912552 -0.0013319232 0.017787918 0.33197254 0.0948737 -0.08622192 -0.07234022
-0.23802833 -0.045559704 0.3535328 -0.049490552 -0.10715316 0.14578788 0.24096408 -0.2589534
-0.15005055 -0.02623033 -0.12608351 -0.2766288 -0.07088592 -0.47513482 -0.081927784 -0.27222905
0.28245988 0.25585604 0.25387982 -0.060759477 0.05697729 0.219925 -0.11609753 -0.0047856104
-0.19428615 0.04916292 0.11425238 -0.11114711 0.37773696 0.1459068 -0.08937092 0.294663
0.0113357175 -0.26014557 -0.10400058 0.09527909 0.4008334 0.08340295 0.17497164 0.19904433
0.34212872 -0.3445963 0.050670072 -0.04396267 0.14256784 -0.008865572 0.16722071 -0.18876795
0.09607067 0.19774124 -0.04823023 -0.2778329 -0.18025453 -0.08499609 -0.09161298 0.0687976
-0.0139625445 0.27736637 -0.04759939 -0.070148624 -0.23082247 0.22853772 0.089357756 -0.11438098
0.2762031 0.24879567 -0.043376002 -0.116405435 0.00610347 0.1779113 -0.078852855 0.046531294
0.1806495 -0.24018764 -0.001195026 -0.059530426 -0.17278779 -0.052073773 -0.10699682 0.10988994
0.08017964 0.18958646 0.29646587 0.042389587 0.27101588 -0.15088439 0.14867087 -0.06156516
-0.1779759 -0.060404338 -0.09585522 -0.39274004 -0.1724943 0.22566453 -0.18481559 -0.3876766
-0.07341092 0.4726076 -0.016832588 -0.027764115 -0.14345358 0.39835334 -0.19323654 0.3126332
0.12193483 0.19241893 -0.17777324 -0.1530935 -0.01229326 0.4340898 -0.015407438 -0.1839467
0.13470322 -0.12256738 0.0026181818 -0.32312936 -0.17627998 0.22623762 -0.29069528 -0.046043765
-0.06963305 0.19218878 -0.29171982 -0.27689546 -0.23551692 -0.21271823 0.18285613 0.037237104
0.18791436 0.37525666 -0.2607059 0.0077712527 -0.32197544 0.082139954 -0.2108642 -0.27872783
0.38127416 -0.2212284 -0.110823855 -0.015630847 -0.16484661 0.04423049 0.27034172 0.27070874
-0.28093225 0.2433366 -0.06109529 0.10238166 0.2881046 -0.0004415562 -0.27774575 0.3260822
-0.25729802 -0.02591109 -0.010430387 -0.38507923 -0.19123888 -0.31541917 0.0632197 -0.39864436
-0.25236088 0.19861877 0.024481406 0.2084779 -0.25363755 0.3551592 0.31804648 -0.13547814

conv2.bias f4 [32]
00000000: 88f0 73bd c793 113e 0d4f 923b 493c 48bc
00000010: b17a f73d a6b5 063d c191 1cbe 251e ee3c
00000020: f820 873d 736a 1cbd 5ba0 c2bd 7fcb c6bd
00000030: dbd2 5d3d f7e2 88bd ac05 e43d ae29 cfbd
00000040: dc4f d33d 3dae f4bd bfa6 17bd db98 653e
00000050: eeaf 233d 0662 643c 179c a73d 3e0e a5bd
00000060: 44ca 15be 9340 f0bd d730 2b3d a028 a73d
00000070: a1ea b7bd 0b6a 14be 86bd 22be 9278 67bd
-0.05955556 0.14216529 0.00446499 -0.012221404 0.120839484 0.032888077 -0.15289976 0.029067108
0.06598085 -0.038187455 -0.09503242 -0.097067825 0.054156166 -0.06683915 0.11133894 -0.10115372
0.10317966 -0.11947296 -0.037024256 0.22421591 0.0399627 0.013939386 0.08184069 -0.08059357
-0.1462794 -0.117310666 0.041794624 0.081620455 -0.08980299 -0.14493577 -0.1589261 -0.05651147

pool.lin_q.weight f4 [32, 32]
00000000: 8a5c 803d 5171 a53a c9b8 c73c fe09 fd3d
00000010: e154 f9bb 29eb d33d 35a3 16be 45e2 14bc
00000020: 5565 5e3e 123b 8dbd b8c4 51bd 91da 3f3e
00000030: 05a5 febc a1a7 f73d a672 a8bb 85cf aa3d
00000040: 0380 1d3d e157 fe3d 5760 abbd a1ca 273d
00000050: 6081 3bbe 4f22 bd3d eb1c 833e 711b 523d
00000060: 6a3f eb3d a7ea 323e 9bf0 6d3c 6205 06be
00000070: cb4e a83d 6fb7 cfba 7d4f 263d 4ebc 91bd
00000080: 59fd 06be 0a41 4dbd d15c 0f3e 0a67 7cbd
00000090: b616 383e 566c 04be c281 6fbd 697f ea3d
000000a0: 3213 95bc d3de 3fbc 6349 093e 6a0d 90bd
000000b0: e006 f83d 71cc 003d 1ff1 463e 13f1 a5bd
000000c0: 7800 cebc b615 053e 8a44 ecbb 9eef a2bb
000000d0: 27e1 80bd 5799 003e 44b1 8a3c f3d8 943c
000000e0: 3d7e d63d 4e40 52bd 7e7e ad3c 34cf a73d
000000f0: 90a2 a83d 9305 b63b 48aa 163e d007 a33d
00000100: 8adb ac3d 4754 063d b6e5 c4bd 52fe 033d
00000110: 0272 f7bd c43a 1abe 7292 1dbe cb31 56be
00000120: c313 89bd 406b 92bd 887b 113d 1135 31bd
00000130: 7dbd 83bd 74e6 813d 6eaa 8cbd 378c 023d
00000140: 48ac 18be 9e78 67be 7325 13be 072b 23bd
00000150: 8300 893c caec 803d 5ad5 193d 2c1c b03d
00000160: cb16 d4bd 1852 b7bd e350 03bd 949e 0d3d
00000170: 3e66 f4bc 59ad 5b3d bf78 6cbe 84a1 1abd
00000180: f609 f73d 253a 943d 7a42 f3bd 5840 d83c
00000190: 3d25 3dbe 0db6 c23d c89c 19be 3f63 103e
000001a0: fe9c d2bc 144f 6cbd dc70 82bc 4108 873d
000001b0: 51aa 8dbd 28c3 c53d cffa a8b8 3b2e cc3c
000001c0: 05ce 38bd 8a47 b7bd b0ea 6d3c 11e6 773d
000001d0: 3fe6 81be d35b 9abd 605e c13d fe18 7fbd
000001e0: 7d2d 2e3e 2720 63bc dae2 633d 57a5 9fbc
000001f0: d621 433e ce6f a33d 1f9e 05be a956 933d
00000200: 0b89 933d 02f4 593d 2b26 4dbe d467 26bd
00000210: f6b1 c0bd b09c a0bb fc47 49bd 381b e23d
00000220: 627e 65be 9fbf 173d 099b 5dbd e40a 2cbe
00000230: a06c 00bd e670 a5bc 5a2c 99bd a278 34bd
00000240: a486 6cbd f714 ab3d 039c 2fbe da2b 013e
00000250: edb8 393d 8d11 1f3e 2764 88be 7e24 683c
00000260: 2175 a23d a58f 02be 7302 0d3e 6ff2 013d
00000270: 402c c3bd 613b 2abd 5c29 9cbd 11e3 d9bd
00000280: 4286 993d 8128 98bd 29ce 423d 9edf a0bd
00000290: 5f7c 8fbd a2f9 36be 9e44 c7bd bf01 b13d
000002a0: 3648 3abe 1d65 e4bd 8028 82bc 9ba7 16be
000002b0: c241 803d 7eb7 413e 162e dfbd 69bd db3b
000002c0: f792 d93c 3195 5a3d 8634 af3d ef32 db3d
000002d0: 4e6e 553d f951 47bd 3d64 f1bd 3954 88bc
000002e0: b665 593d 6f75 adbd d015 9d3d 4fcd 833e
000002f0: 7ff2 d4bd 2e96 55bd 7132 fa3d d91c fdbd
00000300: 3e61 20be 1f46 0d3e 2008 ee3c fc30 fd3d
00000310: 2fde 133e 37f3 273e 137d e7bd f9e0 22be
00000320: d160 8abd 2fed 39be d8d8 66bc bed3 ccbd
00000330: 7217 883d ad59 2fbe 10e5 0dbe b834 3bbe
00000340: 1292 2fbd f541 fd3d 975d 4fbd bbe2 1ebe
00000350: 98e9 ebbd 5c0b adbc 30f2 05be 93f4 893d
00000360: 37ae 4a3e 7715 bfbd a6ec 273e fa2e f3bb
00000370: 9159 acbd f8ce 163e 0b5b 34be 4a2f fbbc
00000380: d38e a0bd 36f9 8dbc c958 843d b344 2a3d
00000390: 6eec dabd 5410 30be 65cc 1fbd 6a46 953b
000003a0: d8fc e4bd ca22 0f3d 349b b43d c0ac ad3c
000003b0: aedf 62bd bd30 413e dfb8 0d3e abd2 163e
000003c0: d1b9 193e b4d1 5d3e a748 afba 60c4 c2bd
000003d0: 427a 293d cff5 5a3e 55e6 5e3d 8a87 8d3d
000003e0: e65c e53c a935 1abe 9ca7 d73d 6fef 803e
000003f0: 473f 21be 9004 2039 4020 613e b27f ef3d
0.062676504 0.0012622272 0.024380105 0.123554215 -0.0076089953 0.103475876 -0.14710696 -0.00908715
0.21718343 -0.068960324 -0.051212996 0.1873572 -0.031084547 0.120925196 -0.0051406203 0.083403625
0.03845216 0.12419105 -0.08367985 0.040964726 -0.18311071 0.092350595 0.25608 0.0512957
0.11486705 0.17472325 0.014522697 -0.13087991 0.082181536 -0.0015847514 0.04060315 -0.071159944
-0.13182582 -0.050110854 0.1400025 -0.061621703 0.17977414 -0.12931952 -0.058473356 0.11450083
-0.01819763 -0.01171084 0.13406901 -0.070338085 0.12110686 0.03144497 0.19427918 -0.08102622
-0.025146708 0.12996563 -0.007210319 -0.0049724123 -0.062929444 0.12558495 0.01693023 0.018169856
0.10473297 -0.051330857 0.02117848 0.08193818 0.08234131 0.0055548637 0.14713395 0.079604745
0.08440311 0.032795217 -0.096141264 0.03222496 -0.12082292 -0.1506148 -0.15387896 -0.20917432
-0.066932224 -0.071493626 0.0355182 -0.0432635 -0.064326264 0.063427836 -0.068684444 0.031872
-0.1490947 -0.22604606 -0.14369754 -0.039835956 0.016723877 0.06295164 0.037556984 0.08599123
-0.1035591 -0.08951205 -0.03205956 0.03457506 -0.02983391 0.053632114 -0.23092936 -0.03775169
0.12062447 0.07237653 -0.11877914 0.026397869 -0.18471237 0.0950738 -0.15001214 0.1410036
-0.025709625 -0.057692602 -0.015922956 0.06593371 -0.06917251 0.09656364 -8.057581e-05 0.024924388
-0.04511835 -0.08949192 0.014521286 0.060522143 -0.25370976 -0.07537045 0.09441829 -0.062279694
0.1700954 -0.013862646 0.055636264 -0.01948802 0.19055876 0.079803094 -0.130486 0.071942635
0.07203873 0.05321122 -0.20034091 -0.040626362 -0.09408943 -0.004901491 -0.049140915 0.11040348
-0.22411492 0.03704798 -0.05410293 -0.1680103 -0.031353593 -0.020195436 -0.074791625 -0.044060357
-0.05774559 0.08353608 -0.17149357 0.12614384 0.045342375 0.15534039 -0.2663891 0.014168857
0.07932497 -0.12750109 0.13770466 0.031725343 -0.095299244 -0.041560534 -0.07625076 -0.106390126
0.07496311 -0.074296005 0.04755989 -0.078551516 -0.07006144 -0.17868665 -0.097298846 0.08642911
-0.18191609 -0.11152098 -0.015888453 -0.14712374 0.06262542 0.18917653 -0.10897462 0.006705929
0.026559336 0.053364936 0.0855494 0.10703074 0.052107148 -0.04866216 -0.11786697 -0.016641723
0.053075515 -0.08469664 0.07670176 0.25742576 -0.10397815 -0.052145176 0.12216652 -0.12359018
-0.15662095 0.1379628 0.029056609 0.12362859 0.14440225 0.16401373 -0.11303153 -0.15906133
-0.067567475 -0.18156885 -0.0140897855 -0.10001324 0.06645097 -0.17124052 -0.13856912 -0.1828183
-0.042863913 0.12366096 -0.050626364 -0.15516178 -0.11519164 -0.02112358 -0.13080668 0.06736102
0.1979302 -0.09330266 0.16398868 -0.0074213715 -0.08415521 0.1472739 -0.17612855 -0.030662198
-0.078397416 -0.017330747 0.06462247 0.041569423 -0.10689627 -0.17193729 -0.039013285 0.004555513
-0.111810386 0.034945287 0.08818665 0.021200538 -0.0553891 0.18866248 0.13840054 0.14728801
0.1501229 0.21662027 -0.0013373093 -0.09510112 0.04137636 0.21382831 0.05441888 0.06910618
0.027998399 -0.15059532 0.10530016 0.25182673 -0.15746795 0.00015260489 0.21984959 0.11694278

pool.lin_q.bias f4 [32]
00000000: 440f 06bd 6e92 c63c 7e75 173d 93d0 4dbe
00000010: 8583 273e 1d2c 2d3e 7721 993d d65b 4b3e
00000020: 74ef 23be 32eb 933d d76c 50bd 956c 633d
00000030: 6338 82bc 8d55 8fbc c98e b3bd 7977 2cbd
00000040: 3a9e 3c3e 731c 293d 686c 723e a956 423e
00000050: fdd8 2dbe edd4 cc3d 1908 b7bd d787 83bd
00000060: c4da e6bd a34c 743d 9adb 94bc 786d b83d
00000070: 995f 0dbc e5a7 c2bd 59ff 90bd 079a 4f3c
-0.032729402 0.024239745 0.036977284 -0.20099096 0.16358764 0.16911359 0.07477086 0.19859251
-0.16009313 0.07222594 -0.050885048 0.055523474 -0.015896028 -0.017496848 -0.087674685 -0.042106126
0.18419734 0.041286897 0.23674166 0.1897837 -0.16977306 0.1000155 -0.089370914 -0.06422394
-0.11272195 0.0596434 -0.01817112 0.090052545 -0.008628749 -0.095046796 -0.07079954 0.012671

pool.gat_att.weight f4 [1, 64]
00000000: fdde 863d aca3 b2bd 1d7c d03c e01e 333e
00000010: a29c 0bbe 914e 26be 36b6 e5bc afa1 f4bd
00000020: d60f fc3d 8b59 013d a91e 57bd 37e8 453c
00000030: 9002 273d d1b0 6e3d 1b73 e63c 3415 ccbc
00000040: 9300 bcbd 1057 afbd 78a6 debd 4524 73bd
00000050: 8c5f c63d 5bec 8f3c 9ae4 dfbc 6caa 053e
00000060: 9108 bf3d 710b a0bc 19e3 343d 885f 4abd
00000070: 56ae 743d 71b5 703d dd3c 7f3d bef1 6fbd
00000080: 54c4 e63d 2ff8 a13e e118 653d 52e7 82bd
00000090: 3b3e ecbe 6915 e23d 9412 30be eca8 f43a
000000a0: 5080 1e3e 3a92 793a 64d9 32be 8618 77bd
000000b0: 48c5 b6bd d68e d9bd c95a d1bd ed02 23bd
000000c0: 6b91 1a3d 8744 f6bd de87 bc3d 8952 e3bd
000000d0: 0352 31be bcea 5ebe 539c 663e 6f59 74bd
000000e0: 5ee0 af3d 2b7d 9bbc 5e3a 063e 5236 54bd
000000f0: 09e2 b23d 8032 6a3d a9af 11bc ac80 37bd
0.065855004 -0.08722624 0.025449807 0.17492247 -0.1363397 -0.16240908 -0.028040987 -0.11944901
0.12307708 0.031579535 -0.052519474 0.01207929 0.04077393 0.058274094 0.028131058 -0.024912454
-0.09179797 -0.08561528 -0.10871595 -0.05936076 0.09686193 0.017568758 -0.027330685 0.13053292
0.09327806 -0.019536706 0.04416189 -0.049407512 0.059736572 0.058766786 0.062313903 -0.058580153
0.11267915 0.31634662 0.05593193 -0.06391777 -0.46141228 0.1103924 -0.17194587 0.0018666065
0.15478635 0.00095203856 -0.1746574 -0.06032612 -0.08924347 -0.10622947 -0.10222394 -0.039797712
0.037736338 -0.12024789 0.09205602 -0.11099727 -0.17316441 -0.21769232 0.2252057 -0.059655603
0.085877165 -0.018980583 0.13108203 -0.051809616 0.08734519 0.057177067 -0.008891978 -0.044800445

pool.gnn_score.weight f4 [32, 1]
00000000: e562 c33d aac0 713d 97cb 283e faff 0f3e
00000010: a7c7 3d3e f4b4 0d3e 30f3 f5bd d279 0e3d
00000020: 7391 243e 9d7a 83bd a788 f4bd cfdf 2d3d
00000030: 953c 14be b989 03be 1957 cdbc 4def 583c
00000040: d357 6bbd 4822 17be c1e3 4d3d 9b3f 5cbd
00000050: e3da 493c d895 013e 54f7 f03d 3cf8 72bd
00000060: 37ff c83c cd62 66bd dde4 043e c108 243e
00000070: dd93 d3bd 9c46 123b f543 683d 7f1c 1bbd
0.09540347 0.05902163 0.16483913 0.14062491 0.18533193 0.1383856 -0.12009275 0.034784146
0.1607111 -0.06419871 -0.11940127 0.04244977 -0.14476235 -0.12845506 -0.025065945 0.0132406475
-0.057456803 -0.14759171 0.05026603 -0.053771596 0.012320253 0.12654817 0.11765924 -0.059318766
0.024535758 -0.056246568 0.1297793 0.16018964 -0.10330937 0.0022319918 0.056705434 -0.037868973

pool.gnn_score.lin1.weight f4 [1, 32]
00000000: e30e c7bc ba54 073e 21ff 1d3e 5414 21be
00000010: ee83 1dbe e56a 49be fb31 0ebe a0d5 96bd
00000020: bb9c 423e 5c96 6d3d e022 45be 9e2d a13d
00000030: 2091 053e ae0b b1bd db92 363e b809 fcbd
00000040: 2ff5 443e e1ff 4fbe 150b c2bd 3b38 073e
00000050: 26ef 83bd f90a cc3c 03e7 043e e84e 223e
00000060: aa83 6ebd 2ee6 1ebe 3001 c9bc d59a e63d
00000070: 5c4e 6fbd cbc5 593d 4d37 44be 4a4d 9abc
-0.02429909 0.13215914 0.15429355 -0.15730411 -0.15382358 -0.19669683 -0.13886254 -0.073649645
0.190051 0.058004722 -0.19251585 0.07870029 0.13043642 -0.08644806 0.17829458 -0.12306541
0.19234155 -0.20312454 -0.0947477 0.13205044 -0.06442098 0.024907576 0.12978749 0.15850413
-0.058231033 -0.15517494 -0.024536699 0.112600006 -0.05842434 0.053167146 -0.1916172 -0.018835682

pool.gnn_score.lin2.weight f4 [1, 32]
00000000: 0bc2 d6bc c658 b6bc 933d 4b3d 1c8f 113d
00000010: 18c8 03bd 218b 683d 72f1 2dbe 2bad a5bd
00000020: 078d 19bb a038 4c3e 4a12 c33c 0c29 223e
00000030: d8a8 a63d f554 20be f3f5 b6bc 1d28 91bd
00000040: 2541 0dbd a494 10be 0533 573d e2ef 283e
00000050: 0f74 c93d 3d74 50be 7c96 123c d189 07be
00000060: f4c3 a63c 1875 febd 345b d8bd df2f 263d
00000070: 9d04 013e 1f25 f9bd 3150 0bbe 5277 913d
-0.026215574 -0.022259127 0.04961927 0.03553687 -0.032173246 0.05677331 -0.16986635 -0.0808967
-0.0023430006 0.19943476 0.023812432 0.1583597 0.08137673 -0.15657409 -0.022334075 -0.07087729
-0.034485955 -0.14119202 0.05253889 0.16497758 0.098365895 -0.20356841 0.008947011 -0.13236167
0.02035711 -0.124246776 -0.105642706 0.040572997 0.12599416 -0.121652834 -0.1360481 0.07102837

pool.gnn_intra_cluster.weight f4 [32, 32]
00000000: 6609 8fbe b903 34bc 671a 6c3e 8216 20be
00000010: 7119 f13e 5a5f 303e d26b 88bd 99b2 e0bc
00000020: 160e 7f3e f934 a73e fe2a 13be 56e9 923d
00000030: b87c 453e bd33 c8bc 95b0 46be 7a81 f4bd
00000040: 3a3f 5c3e 2e68 453e 7e10 52be 0fe2 7bbe
00000050: f914 f13e c2a5 3abe 2181 383d 6097 1c3e
00000060: 29bf 743d 64d9 503e 5980 1cbd 63a9 f33c
00000070: 0b13 ad3c e25d 043e a65a 12be d890 45be
00000080: fe64 aa3e 9526 143e b61c 953e 98ba d43d
00000090: 0edc 71bc b563 9c3e 2469 d8bd 8595 5e3e
000000a0: f0fc bc3d 4c52 edbc a149 833d 436c 773e
000000b0: 2670 d9be 89c8 a8bd 8588 40be aca7 833b
000000c0: ab7a cebd ca35 45be ccc5 503e 4249 e1bd
000000d0: 1da7 1cbe a834 61be 481f 4cbd 50ae 1c3e
000000e0: 4632 243d ef97 733e 008e c23e d224 33be
000000f0: d8ae c63d dfca 42be 6a60 48be e04c 76be
00000100: 6cf9 3d3c 452f 333d 7e0f 8dbd 8789 45bd
00000110: b37e 11be 1bfe d73d 54f5 d1bd 278e 963d
00000120: a489 033b 81bd 5b3d b3d6 4dbe 255a 133e
00000130: edd0 a7be 58d1 2b3e 51e2 4abe 0047 9a3d
00000140: 7366 5fbd a4eb 9ebe 2bfb 80be 7e37 043b
00000150: 847f f7bd cc2a 2b3e 7b1c bf3d a7eb 4e3e
00000160: 817a 0e3e b0ea 86bc c711 853e 4286 a3be
00000170: 1796 2fbd c47d 473c 211c f13d f275 c23b
00000180: 3c5e dabd e03b 05be 29f6 263d 425c 063e
00000190: cd5e 473e bb58 7abd 60d6 e03c 8f0a 3bbd
000001a0: 9b7a 69bd b147 ffbd 01ba adbe 07b8 41bd
000001b0: 1572 6a3e 9cc1 75be 2aab aebe 1ec8 95bd
000001c0: b0e3 94bd 3f54 f4bd 7390 703d c89b b1be
000001d0: 316a cdbd 04f0 57be 473f 333e 5248 053e
000001e0: 2544 5e3e 7028 92be 5249 3dba dfca 853e
000001f0: a2b2 693e bba0 533e 6593 943e cddd 4dbe
00000200: f49b a7bd ac6e 9c3d 4e20 ab3e 4ea8 0dbe
00000210: af8d b7bd f0d0 93be 8cc6 543e 64a1 623e
00000220: 616b 91be f0f9 603e 7fed e2bc 3835 283e
00000230: a005 853d 1b73 70be 3e5c 03bd a388 9e3e
00000240: aff6 513e bd88 66bd 1a10 143d 9463 993e
00000250: 9367 a83d 8a82 a5be f0dc 983c 91f6 673e
00000260: 68cd 5ebd 2b42 d1bb 8e18 e83d 9734 1dbe
00000270: f4ef 97bd 5a0f 9c3d d6ce 5cbe 4eee b43d
00000280: 0a67 4d3e eae5 e9bb 4d55 2ebe 93e8 253e
00000290: fdeb debd d56b 7f3e 6cfb fb3d c0b1 b0bd
000002a0: 51b5 73bd 8357 043e 438e 8f3a d9a8 2d3e
000002b0: a6e1 b03d 29fc 233e 8d91 94be 3fec a8bd
000002c0: 1df4 a1bc da66 24be bbfb e3bd d0c9 f1bc
000002d0: 335c 123d bd67 833d c129 57be 2837 6cbe
000002e0: 257a 3a3e ae36 e5bd 5a01 1f3e bcf9 443e
000002f0: 9692 c1be 782d 6fbe 0a6d cdbd 1fd4 d2bd
00000300: 78e7 a9be 6b36 12bf 11d3 903d 1d7e bd3d
00000310: 3e8f fd3e cdb1 e5bd 2643 a73e 5289 3d3d
00000320: 1d58 fbbd c857 01be 6ae1 b9bd af24 2f3e
00000330: 61bf 803e 3603 de3d 321e b93e f9eb 843e
00000340: 2350 593e 94a5 d9bd d6d2 a9be b405 ce3e
00000350: 2563 f93d 25b0 123e 1fd7 1abf 2370 833e
00000360: 3ac1 e43c 4eb3 503e 5267 93be 1f97 993e
00000370: 4883 5ebe a2a2 45bb 7cfc edba 62ba c43d
00000380: 9512 e039 1c93 2a3e e98a 723e 7fa4 273e
00000390: ce75 95be a334 08be 454c 33be d5f9 d4bd
000003a0: 2a34 bcbd 971b 59be 7269 663e c7ed 92bd
000003b0: 190e 9c3d e8e9 1a3e dcbe bdbd bb3d 31be
000003c0: 5f16 b9be 07b4 61be d2dc f03d 6b01 7bbd
000003d0: 86b1 0dbe c14d 24be 27fb 963c b863 91bd
000003e0: 157e 23be d9fb c3bc 0033 b3be 9996 bb3d
000003f0: eb0f 39be 24fc 43be 38ce b73d b1a4 07be
-0.27936858 -0.010987216 0.23056947 -0.15633586 0.47089723 0.17223874 -0.0666119 -0.027428912
0.24907717 0.32657602 -0.14371869 0.071734115 0.19285858 -0.024438733 -0.19403298 -0.11938758
0.21508494 0.19278023 -0.20514104 -0.24597953 0.47086313 -0.18227294 0.045045022 0.1529212
0.059752617 0.20395428 -0.03820834 0.029743856 0.021127244 0.12926438 -0.14292392 -0.19293535
0.33280176 0.14467843 0.29123467 0.103871524 -0.014761938 0.3054482 -0.10566929 0.21736725
0.092279315 -0.028969906 0.06410528 0.24162392 -0.42468375 -0.08241374 -0.18802078 0.004017791
-0.10081991 -0.192588 0.20387954 -0.11000301 -0.15298124 -0.21992743 -0.04983452 0.1530087
0.040087007 0.23788427 0.37998962 -0.17494515 0.097013175 -0.19022702 -0.19568029 -0.24052763
0.011595111 0.04374625 -0.068877205 -0.04822686 -0.14208488 0.10546514 -0.10251871 0.07351332
0.0020071054 0.053647522 -0.20101433 0.14389856 -0.32776585 0.16779077 -0.19812895 0.075330734
-0.054541063 -0.31039155 -0.25191626 0.0020174677 -0.120848686 0.16715544 0.09331604 0.20207082
0.13913919 -0.01646933 0.25990126 -0.31938368 -0.042867746 0.012175981 0.11772943 0.0059344703
-0.10662505 -0.13011122 0.0407621 0.13121131 0.19469757 -0.061119776 0.027445972 -0.045664366
-0.05700169 -0.12464846 -0.33930972 -0.047294643 0.22895081 -0.23999637 -0.34114963 -0.0731356
-0.072699904 -0.11930131 0.058731508 -0.34689164 -0.1003002 -0.21087652 0.17504607 0.1301587
0.21705683 -0.28546476 -0.00072207034 0.2613134 0.2282205 0.20666783 0.29018703 -0.20104142
-0.081840426 0.076382965 0.33423084 -0.13833734 -0.08962571 -0.28870344 0.20778865 0.22131878
-0.28402236 0.21970344 -0.027701138 0.16426551 0.064952135 -0.23481409 -0.03207039 0.3096362
0.20504259 -0.056282748 0.03614817 0.29958785 0.0822288 -0.32326156 0.018660039 0.22652651
-0.05439511 -0.0063860617 0.113328084 -0.15352093 -0.07418814 0.076201156 -0.21563277 0.088345155
0.20058838 -0.0071380036 -0.17024727 0.16202001 -0.10884855 0.24943478 0.12303814 -0.08627653
-0.05949909 0.12924008 0.0010952431 0.16958942 0.08636789 0.1601416 -0.29017296 -0.08248185
-0.019769723 -0.1605486 -0.11131998 -0.029515177 0.03573246 0.06416271 -0.21012022 -0.23067915
0.18210657 -0.1119207 0.1552786 0.19235891 -0.3780715 -0.23357189 -0.10030563 -0.10294365
-0.3318441 -0.57114285 0.07071508 0.0925257 0.49523348 -0.112155534 0.32668418 0.046273537
-0.12272666 -0.12631142 -0.090761974 0.17103837 0.2514601 0.10840456 0.3615585 0.25961283
0.21221976 -0.10627285 -0.33168668 0.40238726 0.121771134 0.14325006 -0.604845 0.2567149
0.027924169 0.203809 -0.28789765 0.2999811 -0.21729767 -0.003015675 -0.0018156911 0.09605862
0.00042738454 0.1665768 0.23685803 0.16371344 -0.2919144 -0.1330133 -0.17509563 -0.10399214
-0.09189637 -0.21201931 0.22501162 -0.07174259 0.076198764 0.1512829 -0.09264919 -0.17308705
-0.3614988 -0.22041331 0.11760868 -0.06128065 -0.13837251 -0.16045286 0.018430306 -0.07099098
-0.15966065 -0.023923801 -0.34999847 0.091595836 -0.18072478 -0.19139153 0.0897488 -0.13246419

pool.gnn_intra_cluster.bias f4 [32]
00000000: 63ec b4bd bf1d 963d 5592 a83d 5745 6dbc
00000010: a9ab a7bd 2333 43bd 915d c1bd 25bc a63d
00000020: ede4 83bd df9e 6bbd cf04 b23d 0840 b43d
00000030: 25ee a4bc b218 323d b3b5 583d 7dd4 933d
00000040: 70a5 a6bd f65b d7bd 68fc 443d b399 ac3d
00000050: a880 81bd 028d a8bd 19f1 7d3c 5899 b7bd
00000060: 974d b53d 5221 a13d 22c4 9bbd 8225 bbbd
00000070: b93b ad3d 49b4 b33d 44b0 efbd d504 a8bd
-0.0883415 0.07329892 0.082310356 -0.014481864 -0.081870385 -0.04765619 -0.094416745 0.081413545
-0.064401485 -0.05752456 0.086923234 0.088012755 -0.020133087 0.043480583 0.052907657 0.07218263
-0.081370234 -0.10515587 0.048092276 0.08427753 -0.06323367 -0.0823002 0.015499377 -0.08964795
0.0885269 0.078676835 -0.07605769 -0.091380134 0.08458657 0.08774621 -0.11703542 -0.08204047

conv3.weight f4 [32, 32]
00000000: d137 6f3e 6c61 30bd b8da fe3c 6d1a 6dbc
00000010: 6b89 693e 6701 efbe 28da 9c3e 4842 f6be
00000020: 5489 f43d f1d8 4dbd fe3e b23e fc2d 0b3e
00000030: 5d29 8abe d7fa d2be 4f10 b23e 7e34 3fbd
00000040: fcfa a13e 2915 06be 6e3c 013e e119 09bd
00000050: 3df2 653e 503d eabd d090 6b3e db8d 823c
00000060: f096 1e3e d3d8 333e 003b 05bd f562 72be
00000070: 0c1b 4fbe 5572 3e3e decf a53d 929f 653e
00000080: 05b5 a3be 6252 87be 27ec 123e 8dc2 873d
00000090: 9cd5 40be 518e cc3e b07b c63d f0e7 af3e
000000a0: 13bf 003e 1d26 573e 3a08 eebe 2b27 38be
000000b0: 6222 363e fc5b e43e e893 f4be 0472 9f3c
000000c0: cee8 463e bbac 74be 92a7 9ebe 0feb 7fbe
000000d0: 6822 9fbe a776 1bbe f26d 8bbd ed4b 1a3e
000000e0: 6df9 4e3c 1e3b 36bd a325 e8be 5cd3 c8bd
000000f0: f54b 043f c53c 19be 38d4 a83e f180 013e
00000100: 276f 8fbe 6d32 ed3d 2396 4cbe 5b6b 413e
00000110: 789e 5abd 966a 81be 1099 e8bd b00c aa3c
00000120: 9371 fa3c a37d 843d 0c89 3bbd 3125 5cbe
00000130: b9cf 9abe 1cfb 593e dda7 183c d205 2f3e
00000140: 0163 e4bd e44b 013e 83e4 b23e 4920 03be
00000150: 5e48 0abd bef1 01be fd29 aa3d 6aea 8cbe
00000160: 99a1 35bd eb39 013e c789 72be 5d86 f8bd
00000170: 2b9a febd 2679 a53e 41bc 963e db4e 443e
00000180: aec2 283e 83b7 953e 98a7 c0bd 17fc d0be
00000190: dfeb 2ebe 8a00 b0be 79aa 41be 7c16 12bf
000001a0: 9462 1dbe c6cf d93c 4d5a 4f3e 8311 183c
000001b0: e7a6 49be 63ea 31bd d495 2b3e f481 1abe
000001c0: 49de 753e 5c21 6a3e 00e5 edbd 13aa a83c
000001d0: 1709 5fbd a9f6 39be 0898 9ebd c863 86bd
000001e0: 893c dfbc dec7 9dbd 28a6 203e bfab e4bd
000001f0: 7121 24be 307e 96bd 3dcf 273d 8c12 07be
00000200: ac99 89be d19e 963d 1a85 523e a49e 16bd
00000210: 9047 c2be b540 aabd 1f0f d63e 4b0f ef3e
00000220: a11c 5ebd 9692 323e c961 f63d 6a7e 083f
00000230: d024 a5bd f490 acbd 53f5 1bbe 54a3 3c3e
00000240: 40d8 e63e cff7 f43d 7bae 9abe e247 56be
00000250: 0a16 bebe c5a3 c5be f507 80bd f811 27bc
00000260: 56ba 4cbe dae4 2a3e 92c4 e2bd 478f 00be
00000270: 8fa4 75be 8084 223e 0023 e7be 9fbd 59be
00000280: 447e 8ebe 1656 6e3c b104 673e d3ba 56be
00000290: 5ff9 8a3d 2328 3bbe 0943 1a3d 44e2 763e
000002a0: d48f b4bd 4757 133e 5c2d cc3e 7253 753e
000002b0: 09cd d7be be4b 4c3e 4ad5 cdbd 106b ce3e
000002c0: f895 c63e 10dd 9e3d d1f1 b33d 8efc 193e
000002d0: 6b7d 133e dbb1 f2be de07 79bd e0eb 963d
000002e0: 8766 ae3d d194 58be 27e5 9e3e 88c2 163d
000002f0: 8df3 913d 21ae 263e 51eb aabe 8d9c bcbe
00000300: 1d34 053e 986a 4ebd 6c0a c03c 5bda 25be
00000310: b64c 543e 05d6 fabe b46b 873e 5dc4 22bf
00000320: 05b1 48be 8cc3 50be dd3e cd3e 8abb 523e
00000330: 3f24 4ebe d30e f9be a6ad 243f aa7e b83d
00000340: cf61 aebe 79a4 563e fb86 a2bd 5003 ba3d
00000350: 4b81 c03e d68b 3bbe b16a 9c3e f8c8 483d
00000360: b80d 40be 34fa 80be 286a c43e 9a1d 15bf
00000370: 1b89 1ebf 6631 5abe fe12 5b3c c896 343e
00000380: 8f7d 23bd ebe5 93be ede0 213e 0679 b43e
00000390: b67d 10be d4df 4bbe aadd 9b3e 28b8 983e
000003a0: 7078 923e d5d2 803c 057f 82be 21f5 ee3b
000003b0: 8146 62be 20aa ef3e 91e4 00bf ded9 a93d
000003c0: 66d6 1f3e 566c 313d cc8f 52be 4b12 63be
000003d0: 2a49 b2bd a29f 1ebc bb4f 38be 4e16 f1bd
000003e0: 081b c0bd b4fd 103e 0985 033e 780f 3fbe
000003f0: d084 18bd 846b 4abd 3f4f 443e 22bc 853d
0.23361136 -0.04306166 0.031110153 -0.014471632 0.22806327 -0.46680757 0.3063519 -0.48097444
0.11940256 -0.05025572 0.34813684 0.1359176 -0.26984683 -0.41207 0.34778067 -0.04668092
0.31636798 -0.1309401 0.12620708 -0.033471946 0.22455688 -0.11437476 0.2300446 0.015936783
0.15487266 0.1756318 -0.03252697 -0.23670562 -0.20225161 0.18598302 0.08096288 0.22424152
-0.31974044 -0.2643004 0.14347897 0.066289045 -0.18831486 0.3995233 0.0969156 0.34356642
0.12572889 0.21010633 -0.4649065 -0.17983691 0.17786554 0.44601429 -0.47769094 0.019463547
0.19424745 -0.23894016 -0.3098722 -0.24992011 -0.31080937 -0.15181981 -0.0680808 0.15068026
0.01263271 -0.044489972 -0.45341215 -0.098059386 0.516784 -0.14964588 0.3297441 0.12646843
-0.2801449 0.115818836 -0.19979148 0.18888609 -0.053373784 -0.2527663 -0.11357319 0.020758003
0.030571735 0.06469276 -0.045784995 -0.21498562 -0.30236605 0.21287197 0.0093173655 0.17092064
-0.11151696 0.12626606 0.34939966 -0.12805285 -0.03376042 -0.12689874 0.0830879 -0.27522594
-0.044343565 0.1261975 -0.2368537 -0.12135003 -0.12431749 0.3231899 0.294405 0.19170706
0.16480514 0.2924157 -0.09406966 -0.4081733 -0.17082165 -0.3437541 -0.18912686 -0.5706556
-0.15369636 0.026588332 0.20249291 0.009281519 -0.19692574 -0.04343642 0.16756374 -0.15088636
0.24010576 0.22864288 -0.11615944 0.02058891 -0.054452028 -0.181605 -0.077438414 -0.065620005
-0.027250545 -0.07704137 0.15688384 -0.111655705 -0.16028382 -0.07348287 0.040969122 -0.13190669
-0.26875055 0.073545106 0.20558587 -0.036772385 -0.37945223 -0.08313123 0.4180841 0.46691355
-0.05422652 0.1743873 0.1203037 0.5331789 -0.08063662 -0.08426085 -0.15230303 0.1842168
0.4508686 0.11961328 -0.30211243 -0.20925859 -0.3712619 -0.3860151 -0.06251518 -0.010197155
-0.19992957 0.16688862 -0.11072649 -0.12554656 -0.23988555 0.15870857 -0.4514389 -0.21263741
-0.27830708 0.014546892 0.22560383 -0.20969705 0.06785845 -0.1827703 0.037661586 0.24109751
-0.088164955 0.14388762 0.39878356 0.23957613 -0.42148617 0.19950768 -0.10050447 0.40316057
0.38786292 0.07757008 0.08786357 0.15037748 0.14403312 -0.47401318 -0.06079852 0.07369208
0.08515649 -0.21150519 0.31034204 0.036806613 0.07126532 0.16277362 -0.33382657 -0.3683819
0.13008161 -0.050394624 0.02344247 -0.16196577 0.20732388 -0.4899141 0.26449358 -0.63580877
-0.19598778 -0.20387095 0.40087023 0.20579353 -0.20131014 -0.48644122 0.64327466 0.09008534
-0.34058997 0.20961179 -0.07935902 0.09082663 0.37598643 -0.18315062 0.3055015 0.049019784
-0.18755233 -0.2519089 0.3836224 -0.58248293 -0.61927956 -0.21307907 0.013371227 0.17635643
-0.039914664 -0.2888635 0.15808459 0.35248584 -0.14110455 -0.19909602 0.30442554 0.29828
0.28607512 0.015725533 -0.25487533 0.0072924052 -0.22097208 0.46809483 -0.50348765 0.08293508
0.1560913 0.043316208 -0.20562667 -0.22174947 -0.08705361 -0.009681614 -0.17999165 -0.117718324
-0.09380156 0.1415928 0.12843718 -0.18658245 -0.037236035 -0.04941894 0.19170855 0.06530024

conv3.bias f4 [32]
00000000: ac37 c63c 3aa0 223d ac11 d4bc 9ca6 0dbd
00000010: 53d5 2c3d 547e abbb 7e98 aabc 43b6 1abc
00000020: 7b8b 9d3c f9b5 143d 9a06 ed3c ee78 80bc
00000030: a5c5 0a3d 17d4 06bd 5c68 0a3d 4543 0dbd
00000040: f306 13bd 2435 c23c 5470 9b3c 3733 3d3d
00000050: d7f2 153d 1cec 213d fbcd 4ebd 65d4 16bd
00000060: 7d50 013d ce9f ffbc 45ab f63c 373a d9bc
00000070: 4ce4 93bb 85df c8bc c012 f13c 99f1 163d
0.024196468 0.039703585 -0.025887333 -0.03458272 0.04219563 -0.0052335653 -0.020824667 -0.009442869
0.019231549 0.036306355 0.028933812 -0.015682664 0.033879895 -0.03291711 0.03379093 -0.03448798
-0.0358953 0.02370698 0.01897446 0.04619142 0.036608543 0.039531812 -0.050489407 -0.03682365
0.0315709 -0.03120413 0.030110965 -0.026517017 -0.004513299 -0.024520645 0.029427886 0.0368515

conv4.weight f4 [32, 32]
00000000: db97 773d cf7e 49be c603 203d 0356 6e3e
00000010: 5c7d 493d 4aa5 e4bd b042 7fbe 083c 87be
00000020: 1e07 e5bd 4eb9 b93d 8f09 843d 0b04 703d
00000030: 8ff0 95be 1865 41be f63e babe e3d4 85bd
00000040: 3766 c0bc 6800 47be 9ce0 1b3e 7035 6d3e
00000050: 18ac 2ebe ea94 88bd ec1e f23c 64f4 203e
00000060: b86c a23e 5c81 ccbd 47e3 71be 4ffa ab3e
00000070: fa6f 243e 8a5a 5bbc 82a8 36be 7700 ddbd
00000080: a05a 5d3e 2fac 0f3e a8f8 a03e ba37 64be
00000090: 175c 5fbe 1d55 813c 1bc5 493d cdea 813e
000000a0: f342 28bd 0224 b93e 6711 67be 8e3e 9abe
000000b0: 1404 603d 1c3c 2dbe be2c 02be 5908 8a3e
000000c0: 794f 85be d1fc eabd a3b3 8f3c 2607 17be
000000d0: c02b 8fbd 0365 0a3d 4f39 36be e30e 6e3d
000000e0: c48c 0b3e 4f14 8a3e f3b7 633e 73bc 8fbe
000000f0: 13a4 123e e434 413e 43b2 9dbe 23a8 60be
00000100: 2120 89be 583c bf3d 5b99 64be 878d 0abc
00000110: 3a4c b33d 4663 853e f25d 6d3e ed43 a0bd
00000120: cfb5 b0bc 743f 4b3e 9682 1a3e 8491 9bbe
00000130: 1bc3 413e a622 5d3e a718 a13d 1c61 633e
00000140: 398c d1bd 485e 9f3e dbae 343d 69fb 58be
00000150: 5493 8c3d f27c 09be 945c dbbc d04f d03d
00000160: 9c50 f83d 0cdc 81be 28ab 92be 149c b7be
00000170: 69ee 55be a7b0 73bd 4674 28bd 5cf7 123c
00000180: d9b3 f5bc 9aa8 9ab8 6912 4e3e 098e b33d
00000190: 1a54 da3d 330c 2d3e 3638 83bd 0cd3 01be
000001a0: 57ed c0bd 8cbb aabe ac2b 813c 27d2 a3bd
000001b0: 8ecc 7fbe 4a23 19be 6d41 813d cbb7 0ebe
000001c0: 5a91 8e3d 922e aabe f290 a83e b0d7 c6bc
000001d0: d879 66be cae5 d1be a7dc 2bbe e3e4 afbc
000001e0: 97dd d03d 04be 63be 8dc7 42be 4d77 6abe
000001f0: 88e0 2f3e d32b 1c3e e076 413e c268 2e3e
00000200: 575f edbb 783c 743e e56e 16bb 6adc 64be
00000210: 8ad4 8d3e 68d0 993d 8408 cabd 0071 e53d
00000220: c6fd 0c3e 0fb7 10be af82 3e3e 71d6 d4b9
00000230: cb1f dc3d dd06 a8be 3edb 25bc cf5d e9bd
00000240: 759c 71be 1e09 c23d be12 96be d1cb 883d
00000250: 1efb dcbb b6c3 c83d 6e9a 413d 83bc cfbd
00000260: e223 fb3d af4e 16be 34ae acbd 3b53 2a3e
00000270: d1ab ccbd 3766 8dbe 116a 0ebd 86ca e6bd
00000280: 49e1 d23d 1149 a63d 56e2 533c a306 56be
00000290: 4de0 8bbd aaae 98be dcce 97bd 319d e63d
000002a0: 52a2 a4be 26d2 123e 988b 593e d950 85be
000002b0: fdb8 413d 37cf 27bd 97dc c5bd fbe9 a83e
000002c0: ccd8 72be 45cc c4bd 2b3f a83e a7ec 64bf
000002d0: a4f0 093e 0ef9 2abe b7aa 833e 8f89 01be
000002e0: c698 933e dbf1 cebd 2fbd a0bd 4a2b 55be
000002f0: a427 7d3e dece 9bbe 6239 ac3d e9f1 30be
00000300: 6438 81be aed4 3dbe adb4 83be a084 743e
00000310: f802 62be 0fb7 1b3e 7fbd 223e 529a ec3c
00000320: dfa0 e63e 4833 0cbe bd1a 6b3e aec7 103e
00000330: d6a3 96bd aba8 783e b7a8 c43e 1dca f73d
00000340: 7f0e b8bd 0397 b83d e866 8fbe acc2 2e3e
00000350: caf7 07be 6ee4 87be 636b 55be 33ab ef3d
00000360: 07db 31be 9f91 4cbe 1439 a0bb d9e7 423e
00000370: 0254 403e 0fc4 16be 5e03 a93c fa79 e93d
00000380: 451b fc3c 861f c7bc e71f 3c3e ed19 a73e
00000390: ec44 20bd ce39 e6bd 1dd4 35be 13db 86be
000003a0: eb23 25bf 2b11 bebd 4c7d ccbe 9b3f 193e
000003b0: aa45 81be 3306 cf3e ff11 ff3d fd2f 5ebe
000003c0: 34f0 b53d 916e 15bc 19f8 d53e 8378 33bf
000003d0: d4ee 883e 6279 d1bd 0d93 adbe f909 113e
000003e0: e641 223e 3cd8 1fbd dae1 babc b959 3fbe
000003f0: 0a61 78be 145a 213e f5af 58be 62b5 adbe
0.060447555 -0.1967728 0.0390661 0.23274998 0.049191818 -0.11164339 -0.24927783 -0.26412988
-0.11182998 0.09068547 0.06447136 0.058597606 -0.29285094 -0.1888622 -0.3637616 -0.065347455
-0.02348624 -0.19433749 0.152224 0.23164916 -0.17057836 -0.06669028 0.02955576 0.15718228
0.3172357 -0.09985611 -0.23621856 0.33589408 0.1605834 -0.013388285 -0.17837718 -0.10791104
0.21616602 0.14030527 0.3143971 -0.22286883 -0.21812473 0.015787655 0.04926024 0.2537445
-0.041079473 0.36160284 -0.22565232 -0.3012585 0.05469139 -0.16917461 -0.1271238 0.26959494
-0.26037195 -0.11474002 0.017541712 -0.1474882 -0.069907665 0.03378774 -0.17795299 0.058119666
0.13627917 0.2696862 0.2223814 -0.28073463 0.14320402 0.18867832 -0.30800065 -0.21939139
-0.26782325 0.093376815 -0.22324125 -0.008456594 0.087547734 0.26052302 0.23180369 -0.07825456
-0.021571068 0.19848424 0.15088877 -0.30384457 0.18922083 0.21595249 0.0786603 0.22205013
-0.102318235 0.31126618 0.044112068 -0.21189655 0.06864038 -0.13426569 -0.026777543 0.10171473
0.1212475 -0.25363195 -0.28646207 -0.35861266 -0.20891728 -0.05949464 -0.041126512 0.008970108
-0.029992985 -7.374697e-05 0.2012421 0.087673254 0.10660572 0.16899185 -0.06407206 -0.12678164
-0.09420269 -0.33346212 0.015767895 -0.07999068 -0.24980375 -0.14954868 0.06311307 -0.13937299
0.06961317 -0.33238655 0.32923084 -0.02427277 -0.22507417 -0.40995628 -0.16783391 -0.021471446
0.10198515 -0.22240454 -0.19021435 -0.22897072 0.17175496 0.15251093 0.18893003 0.1703215
-0.0072440314 0.23851192 -0.0022954282 -0.22349706 0.27701217 0.075104535 -0.098649055 0.11203194
0.13768682 -0.14132331 0.1860454 -0.00040595562 0.107482515 -0.32817736 -0.010123072 -0.11394846
-0.2359484 0.09474395 -0.29311174 0.066795 -0.0067438027 0.09802954 0.047266416 -0.10143378
0.122627035 -0.14678453 -0.08431664 0.16633312 -0.09993709 -0.27617046 -0.03476912 -0.11269097
0.10296876 0.08119405 0.012932381 -0.20900969 -0.06829891 -0.29820758 -0.07412502 0.11260451
-0.3215509 0.14337978 0.21244657 -0.26038244 0.04729556 -0.0409691 -0.09661215 0.32991013
-0.23715514 -0.09609274 0.32860693 -0.894236 0.13470703 -0.1669657 0.25716183 -0.1265013
0.28827494 -0.10104724 -0.07848584 -0.20817295 0.24722153 -0.30431265 0.084093824 -0.17279781
-0.25238335 -0.18538162 -0.25723782 0.23878717 -0.22071445 0.1520655 0.158926 0.02888218
0.4504461 -0.13691437 0.22959419 0.14138672 -0.07355468 0.24283092 0.3840997 0.12099097
-0.0898714 0.09013178 -0.280082 0.17066449 -0.13278118 -0.26541466 -0.20841746 0.117025755
-0.17368709 -0.19977425 -0.0048896167 0.19033755 0.18782046 -0.14723228 0.020631488 0.11400218
0.030774722 -0.024307024 0.18371545 0.32636967 -0.03912823 -0.11241494 -0.17756696 -0.26339015
-0.6450793 -0.09280618 -0.39939344 0.1496567 -0.25248462 0.40434417 0.12454604 -0.21697994
0.08883706 -0.009120599 0.41790846 -0.7010576 0.2674471 -0.1022823 -0.33901253 0.1416396
0.15845451 -0.039024577 -0.022812773 -0.1868657 -0.24255767 0.15757018 -0.21160872 -0.33927447

conv4.bias f4 [32]
00000000: 5676 493d c5bb 463d 09f1 423d 6354 39bd
00000010: 500d 4c3d dd64 4dbd 5fe1 543d 4fdb 4e3d
00000020: 8153 8bbd fb78 413d 85db 473d 77fe 473d
00000030: ae55 40bd 7968 3abd 7546 44bd 5c8c 543d
00000040: f1c0 52bd f272 27bd 8c11 3cbd 5c29 a8bd
00000050: 33e4 2fbd 8648 96bc d9ed 3d3d fc57 103d
00000060: 8c89 503d 2d10 72bd a50a 4a3d 5960 483d
00000070: 7c25 583d 92ee 393d b06e db3c 36e3 433d
0.04918512 0.048518915 0.04759315 -0.045246493 0.049817383 -0.05014502 0.051972743 0.050502118
-0.068030365 0.047234517 0.048793335 0.04882666 -0.04695671 -0.04550979 -0.047918756 0.05189167
-0.051453535 -0.040881105 -0.04591517 -0.08211014 -0.042942237 -0.018345129 0.046369407 0.03524016
0.050912425 -0.059097458 0.049326558 0.04892001 0.052770123 0.045393534 0.026786178 0.047824107

conv5.weight f4 [32, 2]
00000000: 86e9 dc3e 1fa5 7e3e 582c 0c3e 224d 343e
00000010: aa8b 323e c4cd d4bc 6362 eebd 2ec2 51be
00000020: 36b1 b63e 938f 8b3e d553 d0be 11fc 41be
00000030: 1ef0 ab3e 8297 16bd 12eb 303e ee2b 11bd
00000040: e0a0 523e e6b9 babe 6fe9 683e 98ea 1ebe
00000050: 1926 c23e 0864 883e 8406 5f3e 22de bd3e
00000060: 19f1 d2bc 5b94 babe c4ce 87be 21ef 6ebe
00000070: 9fd0 e0be bc09 033e 6fae d93e 45ce cdbc
00000080: 1264 5fbe ad96 0b3e 7691 3e3d c177 89be
00000090: c1e5 91be 731c 87be cae9 9f3e c13f 01bf
000000a0: 0849 983d 50c0 b6be 7795 953e 7efa 9dbe
000000b0: f33b 9c3d b6ac 843e 9d77 963e a63a a0be
000000c0: b303 253e acc0 023e 477c 55be 1c0e 2b3c
000000d0: 775c 933e b5a7 043e 487e f93d 513e ca3e
000000e0: 3b9d 943e a0ad 54be 7f84 6dbc d5a8 363e
000000f0: 6ac5 02be 6f54 9d3e 488c a63d ba8b b2bc
0.43146914 0.24867676 0.13688791 0.17607549 0.1743609 -0.025977023 -0.116398595 -0.2048423
0.35682076 0.27257976 -0.4068896 -0.18943812 0.33581632 -0.036765583 0.17277172 -0.035442285
0.20569181 -0.36469954 0.22745298 -0.15519178 0.3791969 0.26638818 0.2177983 0.37083536
-0.02574973 -0.3644131 -0.26524937 -0.23333408 -0.43909165 0.12796682 0.42515895 -0.025122771
-0.21815518 0.13631697 0.04652544 -0.26849177 -0.284956 -0.26388893 0.31233054 -0.50487906
0.074358046 -0.35693598 0.29215595 -0.30855173 0.07628622 0.25913018 0.29388133 -0.31294745
0.16114692 0.12768811 -0.2084819 0.010440376 0.28781483 0.129546 0.12182289 0.3950067
0.29026207 -0.20769358 -0.014496922 0.17837842 -0.1277062 0.3072848 0.08132225 -0.021795142

conv5.bias f4 [2]
00000000: cd1d 6d3d 2a1f 583d
0.05788975 0.052764095
