GST-recon/checkpoints/best_logo_DiffPool.pth (torch, 54747 bytes, 12 tensors)

conv1.weight f4 [2, 32]
0.3118541 0.4029346 -0.056106523 0.43517777 -0.09204191 0.11094823 -0.20452002 0.24670807
0.40330014 -0.2716039 0.43572485 0.04769043 0.30961344 0.05689222 0.16228607 -0.059312087
0.32548013 0.062092163 -0.24685666 0.10707871 -0.24553712 -0.049264453 -0.17062062 0.26048672
-0.3316018 -0.20211639 -0.11862112 -0.221245 0.08965271 -0.40871647 0.4192052 -0.37935445
0.3350981 0.010683084 -0.17788297 0.21068746 0.06547042 0.31697172 0.045923453 -0.13248324
0.079473235 -0.15292582 0.09655589 0.40599144 0.24420965 -0.1836492 0.28343347 0.07516405
0.21252923 -0.25604334 -0.36394724 -0.16230388 -0.27000263 0.34469527 0.12099737 0.19374405
0.13285626 0.0007816103 0.32876125 -0.33062214 -0.027094506 -0.2940904 0.090165906 -0.1220069
00000000: 57ab 9f3e 724d ce3e f4cf 65bd 9fcf de3e
00000010: 7880 bcbd d338 e33d b26d 51be 0aa1 7c3e
00000020: 5b7d ce3e ab0f 8bbe 5417 df3e 0a57 433d
00000030: a785 9e3e d107 693d 522e 263e 3bf1 72bd
00000040: 55a5 a63e 5a54 7e3d fec7 7cbe 154c db3d
00000050: 156e 7bbe 86c9 49bd 2cb7 2ebe 845e 853e
00000060: b6c7 a9be 99f7 4ebe a1ef f2bd 0d8e 62be
00000070: d79b b73d 4943 d1be 10a2 d63e bf3a c2be
00000080: fa91 ab3e 1a08 2f3c f426 36be 74be 573e
00000090: 5b15 863d 1e4a a23e 3b1a 3c3d b0a9 07be
000000a0: ddc2 a23d 9698 1cbe 18bf c53d 1cde cf3e
000000b0: 1812 7a3e 890e 3cbe 311e 913e 9cef 993d
000000c0: 43a1 593e 1d18 83be 4b57 babe fd32 26be
000000d0: c93d 8abe e67b b03e 78cd f73d d764 463e
000000e0: 790b 083e fbe4 4c3a 6553 a83e 4e47 a9be
000000f0: 4cf5 ddbc 0493 96be e7a8 b83d c1de f9bd

conv1.bias f4 [32]
-0.006959137 0.059191056 0.041907188 0.04917399 0.0 0.025661763 0.0 0.0
0.034665216 0.039408173 0.07778119 -0.028912153 -0.0026370713 0.0 -0.040238764 0.0
0.0002511746 0.0 -0.051033765 0.0 -0.052996326 0.0 0.0 -0.020051548
0.0 -0.007994944 0.0 0.033146307 0.053333316 0.003730762 0.039349746 -0.023665637
00000000: 7909 e4bb 5272 723d dfa6 2b3d aa6a 493d
00000010: 0000 0000 9e38 d23c 0000 0000 0000 0000
00000020: 1dfd 0d3d 776a 213d bf4b 9f3d 2ed9 ecbc
00000030: b7d2 2cbb 0000 0000 67d1 24bd 0000 0000
00000040: 16b0 8339 0000 0000 c808 51bd 0000 0000
00000050: ad12 59bd 0000 0000 0000 0000 2543 a4bc
00000060: 0000 0000 3afd 02bc 0000 0000 6cc4 073d
00000070: 0974 5a3d cd7f 743b 332d 213d 70de c1bc

conv2.weight f4 [32, 32]
0.043604307 -0.013097823 0.2344748 -0.13286623 -0.1959802 -0.1580246 0.25378802 0.049157973
0.3194362 -0.30045128 -0.31685552 -0.26349893 -0.19318707 0.07204554 0.14175898 0.20957679
-0.16699752 -0.17724124 0.20610437 -0.16834271 0.20728116 -0.05237727 0.12367045 -0.21479708
-0.12169936 0.09941401 0.0051392014 -0.033634424 0.1832618 0.23836616 -0.24020366 -0.11836537
0.33043373 -0.053565253 -0.09596415 -0.34494883 -0.1885628 0.10501629 -0.06698707 -0.27756804
-0.011119497 -0.2570879 -0.2795814 -0.19064148 -0.27000937 -0.24542265 0.33952218 0.012141865
0.088098615 -0.25237218 -0.16991647 -0.14890231 0.027593978 -0.2563563 -0.07973537 -0.1643861
0.036648124 -0.10871786 -0.025939533 -0.24434748 -0.1529775 -0.13076325 -0.14604561 -0.28473637
0.30620423 -0.017753778 0.27479053 0.04649955 -0.24538668 0.23811875 -0.102392234 -0.07603696
-0.27218032 -0.2605624 0.055852488 -0.08460049 0.10547178 -0.3088168 0.21121779 -0.23407266
-0.06824857 0.08543676 0.16770919 0.27860737 0.25920352 -0.29472077 0.1286185 -0.12557419
-0.056212116 -0.23025697 0.2796813 -0.26256293 0.22885518 0.16093579 0.06346692 -0.2086192
0.32614332 0.11722035 0.04998459 -0.22307135 0.11539437 -0.018981127 -0.1638605 0.2095251
0.057519596 -0.21705113 -0.17072777 -0.039198574 0.1715183 -0.12779915 -0.1430229 -0.149843
-0.23769261 0.14127956 0.26874512 -0.33558622 0.11428529 0.17270584 -0.019087272 -0.094503485
0.19363235 0.16629155 0.10708743 -0.08381121 -0.028635602 0.07698112 -0.09120151 -0.11354493
0.14555179 0.2132528 -0.04419278 -0.02010599 0.017677475 -0.046830874 0.10040602 0.14100778
-0.2592635 -0.06588754 0.2774503 0.14134234 -0.013945147 -0.13433114 -0.2207288 -0.22871323
-0.09426009 0.07005108 0.16158968 0.1883299 -0.24897766 -0.1980596 -0.09972862 0.27670115
0.0085198665 -0.08442009 0.1311857 -0.07942416 -0.25499102 0.17616515 -0.0976033 -0.02009524
-0.35635468 0.15504266 0.21747324 0.15992515 -0.19869553 -0.33023965 -0.22156179 0.2814365
0.16596077 0.30013382 0.17931333 0.09138301 -0.003567842 -0.18395333 -0.29584754 -0.24101819
0.12659684 -0.18500033 -0.098244205 -0.12942563 -0.03374396 -0.2318088 -0.25134614 0.0813844
-0.12563711 0.18384767 -0.0938428 -0.1867725 -0.10945642 -0.19323118 -0.051983356 -0.25036615
0.12114067 -0.2630484 0.13999249 0.18740761 0.23194689 -0.2634329 0.24700135 -0.089581296
0.13246131 0.33469474 -0.023543788 0.01969883 -0.06921336 -0.20539047 0.113515526 -0.2583154
0.19562155 0.19575056 0.25591585 -0.025310513 -0.22990161 0.054911673 0.11773827 -0.3242378
-0.10527988 -0.18866822 -0.022251286 -0.1135125 -0.18201995 -0.14451782 -0.24932502 0.29257467
0.30694366 0.0018199227 -0.020989813 -0.17342584 -0.28969508 -0.26939133 0.0870013 -0.22331448
-0.2156851 -0.070996374 -0.12159626 -0.1211227 0.008554306 -0.11522056 -0.07199964 -0.19216207
-0.25471637 0.29007652 -0.088902995 0.034207325 -0.12791 0.038809337 0.336852 0.16056699
-0.22956218 0.12664934 0.28607076 0.043372985 0.26208508 0.3492155 -0.08853675 0.022265395
00000000: 6e9a 323d 4098 56bc 291a 703e 160e 08be
00000010: 09af 48be 33d1 21be 81f0 813e df59 493d
00000020: 248d a33e c0d4 99be e33a a2be 55e9 86be
00000030: d5d2 45be 9d8c 933d 4429 113e 4c9b 563e
00000040: 6601 2bbe ba7e 35be 060d 533e 0862 2cbe
00000050: 8341 543e 8c89 56bd ef46 fd3d c4f3 5bbe
00000060: 843d f9bd 9399 cb3d bf66 a83b 40c4 09bd
00000070: fba8 3b3e 4216 743e f3f7 75be 8b69 f2bd
00000080: 9c2e a93e 3d67 5bbd da88 c4bd 229d b0be
00000090: 9b16 41be c812 d73d 8430 89bd 661d 8ebe
000000a0: 8d2e 36bc 06a1 83be 4b25 8fbe 8537 43be
000000b0: ab3e 8abe 1350 7bbe dad5 ad3e acee 463c
000000c0: 0c6d b43d ed36 81be 95fe 2dbe d979 18be
000000d0: c40c e23c 2241 83be 4c4c a3bd d454 28be
000000e0: 581c 163d 78a7 debd 257f d4bc 3a36 7abe
000000f0: 22a6 1cbe cde6 05be fb8c 15be f7c8 91be
00000100: cdc6 9c3e 5f70 91bc 58b1 8c3e 5076 3e3d
00000110: a546 7bbe 67d5 733e 05b3 d1bd 44b9 9bbd
00000120: 385b 8bbe 6f68 85be 94c5 643d 0643 adbd
00000130: 9701 d83d 3c1d 9ebe 7a49 583e beb0 6fbe
00000140: e8c5 8bbd 78f9 ae3d f5bb 2b3e a0a5 8e3e
00000150: 53b6 843e a4e5 96be 91b4 033e 8596 00be
00000160: ad3e 66bd 7cc8 6bbe 6332 8f3e a66e 86be
00000170: 0359 6a3e 5acc 243e f2fa 813d 46a0 55be
00000180: 42fc a63e 3911 f03d a4bc 4c3d d16c 64be
00000190: e253 ec3d 4f7e 9bbc 0ccb 27be bf8d 563e
000001a0: ab99 6b3d a742 5ebe 43d3 2ebe af8e 20bd
000001b0: 7ea2 2f3e c8dd 02be 9874 12be 7270 19be
000001c0: b165 73be 97ab 103e f698 893e f5d1 abbe
000001d0: 680e ea3d cdd9 303e e95c 9cbc 0b8b c1bd
000001e0: 8f47 463e 5548 2a3e a850 db3d 36a5 abbd
000001f0: 3695 eabc 47a8 9d3d dbc7 babd 3f8a e8bd
00000200: 870b 153e f15e 5a3e 7d03 35bd 51b5 a4bc
00000210: 5ad0 903c bbd1 3fbd aca1 cd3d 5864 103e
00000220: 2fbe 84be 0cf0 86bd f70d 8e3e 0cbc 103e
00000230: 307a 64bc 1a8e 09be bb06 62be cd33 6abe
00000240: 6f0b c1bd f176 8f3d c477 253e 8ed9 403e
00000250: 00f4 7ebe 23d0 4abe 853e ccbd c6ab 8d3e
00000260: e996 0b3c 71e4 acbd 8b55 063e 22a9 a2bd
00000270: 2f8e 82be a364 343e 3de4 c7bd c69e a4bc
00000280: 1f74 b6be 81c3 1e3e 4eb1 5e3e 6bc3 233e
00000290: d776 4bbe 2c15 a9be 18e1 62be 7218 903e
000002a0: 9ff1 293e 24ab 993e ea9d 373e 0427 bb3d
000002b0: 75d2 69bb 435e 3cbe 5479 97be 79cd 76be
000002c0: 9aa2 013e ba70 3dbe 4234 c9bd 2788 04be
000002d0: 1b37 0abd 495f 6dbe 71b0 80be ddac a63d
000002e0: 04a7 00be 9042 3c3e a730 c0bd 4a41 3fbe
000002f0: b02a e0bd 65de 45be 80ec 54bd fe2f 80be
00000300: 9918 f83d 48ae 86be 315a 0f3e c8e7 3f3e
00000310: 7c83 6d3e ade0 86be eced 7c3e 6676 b7bd
00000320: f0a3 073e 1c5d ab3e e7de c0bc 715f a13c
00000330: bcbf 8dbd e151 52be d47a e83d eb41 84be
00000340: 0451 483e d672 483e 6707 833e fe57 cfbc
00000350: 546b 6bbe 10eb 603d c320 f13d 7f02 a6be
00000360: fa9c d7bd 3e32 41be 5448 b6bc 3e79 e8bd
00000370: 7063 3abe 7bfc 13be 0f4f 7fbe 59cc 953e
00000380: b827 9d3e 798a ee3a d4f2 abbc 8b96 31be
00000390: ea52 94be a9ed 89be bd2d b23d 8dac 64be
000003a0: 8edc 5cbe 8c66 91bd 7607 f9bd 2e0f f8bd
000003b0: 5c27 0c3c c2f8 ebbd 8c74 93bd 22c6 44be
000003c0: 2f6a 82be e984 943e c612 b6bd fb1c 0c3d
000003d0: d7fa 02be 8af6 1e3d de77 ac3e ac6b 243e
000003e0: 5912 6bbe 5db0 013e de77 923e dfa7 313d
000003f0: 0430 863e 60cc b23e c152 b5bd eb65 b63c

conv2.bias f4 [32]
0.050158802 0.049829125 0.01392775 -0.04846591 -0.013170579 0.028548824 -0.026795011 -0.05521391
-0.018905202 -0.047123183 -0.019631498 -0.0221368 -0.0012270112 -0.050269477 0.033419758 -0.045601983
-0.005483202 0.03334446 0.03389004 -0.04693024 -0.021679876 0.013964882 0.05141685 0.019508285
0.03579143 0.0050746193 -0.0045375675 -0.037177462 0.056877367 0.04733275 -0.041629676 -0.04126925
00000000: 5173 4d3d a019 4c3d 3831 643c 3184 46bd
00000010: 6ac9 57bc 39df e93c 3681 dbbc fb27 62bd
00000020: 15df 9abc 3d04 41bd 3cd2 a0bc 3c58 b5bc
00000030: aad3 a0ba 5ee7 4dbd 28e3 083d 25c9 3abd
00000040: 6fac b3bb 3394 083d 48d0 0a3d ec39 40bd
00000050: ff99 b1bc f6cc 643c 7a9a 523d d7cf 9f3c
00000060: 099a 123d fe48 a63b e0af 94bb 6547 18bd
00000070: 3ef8 683d fcdf 413d e183 2abd f209 29bd

pool.weight f4 [32, 282]
-0.14531757 -0.23401986 0.030517183 0.13751285 -0.18774611 -0.03331584 0.07761036 -0.06909478
-0.16362572 0.041529886 -0.010964476 0.022949655 -0.17553999 0.1404456 -0.16329275 0.21485871
0.010084274 0.15673263 -0.03936717 0.089939944 -0.041685656 -0.018811816 -0.13223897 -0.1474147
0.0019615162 0.17826521 -0.092689075 -0.016414424 -0.12381211 0.1422969 0.13992687 -0.0076302965
-0.14635502 -0.20172507 -0.0009349409 -0.14827101 0.1716689 -0.20627132 -0.033473555 0.15937382
0.14015089 -0.023885187 -0.20285685 1.3392221 -0.022418432 -0.2068821 0.064235106 -0.1049523
-0.021007555 0.14778724 -0.048848744 -0.16937418 -0.045520306 -0.09597323 0.10101039 -0.18463446
-0.06909977 -0.1294852 -0.13080823 -0.17914894 -0.022405816 0.09263868 -0.18602268 0.19325933
0.039819118 -0.05589443 -0.16185382 -0.06484751 0.04726983 0.03698962 -0.18520679 0.19477287
0.08725769 0.115699075 0.039598476 0.18545485 -0.18127105 0.20473957 -0.059956305 0.08285722
-0.17250031 -0.09114411 0.0038117901 0.034534812 -0.053791877 -0.049838983 0.19807906 0.17061527
-0.0012881071 0.114158005 0.15930316 -0.0837852 0.072035745 -0.03387286 -0.18741506 -0.16843672
-0.054685052 -0.11387635 -0.06939738 -0.09641864 0.09715593 0.093176775 -0.088427894 0.025779538
0.18021217 -0.168607 -0.031814497 -0.022824435 -0.14153661 -0.12202479 -0.08933504 -0.107153654
-0.12610622 -0.10034648 -0.122960754 0.1918949 -0.008048292 -0.16041042 -0.0054017594 -0.0039287223
0.019023238 0.08901491 0.061953135 -0.17954287 0.021048691 0.16027291 -0.14647931 0.19464283
0.1693596 0.044906147 0.1422731 -0.10789841 -0.18674263 0.0811581 -0.03387335 -0.020690002
-0.0043887696 -0.18417966 0.034214042 0.09045737 -0.033851944 -0.15133226 -0.0147744315 -0.049736798
-0.038869802 -0.025530806 0.013259449 -0.13143717 -0.08416247 -0.03560302 -0.057395447 0.030426817
-0.15549497 -0.07696179 -0.031556174 -0.10662174 0.052957047 0.01619573 -0.1914753 -0.09471896
-0.12801987 0.07314791 -0.08326871 -0.13768753 -0.036484625 -0.08700159 -0.103585884 0.1860304
-0.11359972 0.011066021 -0.03580599 -0.02627861 -0.0379864 0.048845038 -0.1591701 -0.16105591
0.20446825 0.22627674 -0.14765072 0.06595392 -0.08846014 -0.21330892 -0.04912284 -0.0026241557
-0.120784625 0.12186548 -0.20111744 0.048975017 0.036951445 0.11795962 -0.038376518 0.11347563
-0.01861256 -0.09017244 0.052289784 -0.15254442 -0.17326184 0.036004893 0.1710953 -0.1949472
0.11107041 -0.019862859 0.07343024 0.13607015 0.20273817 0.04181059 0.07837602 0.064525746
-0.18584453 -0.17981473 -0.028072827 0.15112223 -0.0013843748 0.0049116416 -0.075109206 -0.03707532
-0.15095834 0.07182313 0.17988884 -0.17338973 -0.06731657 -0.05972522 0.07217573 0.11020008
-0.0497931 -0.10183888 0.04675035 -0.124471426 -0.11702795 -0.031551618 -0.17244299 -0.059578676
-0.16149604 -0.06650358 0.06756524 -0.051841017 -0.1870606 -0.20615478 0.14009243 0.18104975
-0.19593704 0.0102614965 -0.16344209 -0.06782067 0.05092561 0.18777746 -0.18028587 0.0056458935
0.13222809 0.06488123 0.063635126 -0.12720785 -0.0927882 -0.13859789 -0.070088185 0.10842543
00000000: 21ce 14be e7a2 6fbe 2cff f93c 2bd0 0c3e
00000010: 8440 40be 3176 08bd 2ef2 9e3d 9081 8dbd
00000020: 808d 27be 3e1b 2a3d 58a4 33bc ea00 bc3c
00000030: c1c0 33be f9d0 0f3e 3736 27be ec03 5c3e
00000040: 8338 253c 857e 203e 783f 21bd 6f32 b83d
00000050: 94be 2abd 3d1b 9abc a769 07be e1f3 16be
00000060: c88c 003b 288b 363e c5d3 bdbd 8b77 86bc
00000070: 3491 fdbd 47b6 113e fd48 0f3e 9107 fabb
00000080: 17de 15be 0491 4ebe d216 75ba 5bd4 17be
00000090: f9c9 2f3e ca38 53be 911b 09bd e432 233e
000000a0: b783 0f3e deaa c3bc b5b9 4fbe a16b ab3f
000000b0: dca6 b7bc e7d8 53be b28d 833d 3bf1 d6bd
000000c0: 0918 acbc 8a55 173e 9f15 48bd 6d70 2dbe
000000d0: 8073 3abd 9d8d c4bd 89de ce3d d110 3dbe
000000e0: 2e84 8dbd c597 04be 98f2 05be d272 37be
000000f0: 678c b7bc 59b9 bd3d bb7c 3ebe c6e5 453e
00000100: 5f19 233d 8ff1 64bd 02bd 25be c5ce 84bd
00000110: 029e 413d 6e82 173d d9a6 3dbe 8a72 473e
00000120: 29b4 b23d a3f3 ec3d 0332 223d e0e7 3d3e
00000130: 1e9f 39be 40a7 513e be94 75bd 0cb1 a93d
00000140: eca3 30be c3a9 babd 3acf 793b 6074 0d3d
00000150: df54 5cbd f623 4cbd 3dd5 4a3e c5b5 2e3e
00000160: b4d5 a8ba accb e93d 5e20 233e 9397 abbd
00000170: 7a87 933d 45be 0abd bce9 3fbe ad7a 2cbe
00000180: 6ffd 5fbd 0138 e9bd 3720 8ebd 2377 c5bd
00000190: b0f9 c63d 77d3 be3d af19 b5bd 9c2f d33c
000001a0: 8a89 383e 50a7 2cbe eb4f 02bd 4ffa babc
000001b0: f9ee 10be 22e8 f9bd 4af5 b6bd 6073 dbbd
000001c0: fd21 01be 7582 cdbd d9d2 fbbd 1980 443e
000001d0: fcdc 03bc a142 24be 3e01 b1bb 83bc 80bb
000001e0: 9fd6 9b3c 734d b63d 92c2 7d3d 16da 37be
000001f0: 4e6e ac3c 951e 243e acfe 15be 7350 473e
00000200: 9a6c 2d3e 82ef 373d 0ab0 113e d7f9 dcbd
00000210: 7639 3fbe 3836 a63d c8be 0abd 147e a9bc
00000220: abcf 8fbb 9899 3cbe 0624 0c3d b741 b93d
00000230: 56a8 0abd d8f6 1abe 7510 72bc d0b8 4bbd
00000240: f135 1fbd fb25 d1bc 293e 593c 7797 06be
00000250: 605d acbd 79d4 11bd 7d17 6bbd a941 f93c
00000260: 133a 1fbe 259e 9dbd 0c41 01bd 805c dabd
00000270: 7de9 583d e8ac 843c 1a12 44be 04fc c1bd
00000280: a417 03be 92ce 953d c988 aabd f6fd 0cbe
00000290: e770 15bd e42d b2bd d624 d4bd c17e 3e3e
000002a0: f8a6 e8bd 424e 353c 4da9 12bd 3d46 d7bc
000002b0: a197 1bbd bc11 483d 7dfd 22be d7eb 24be
000002c0: 2060 513e 17b5 673e c031 17be d912 873d
000002d0: 972a b5bd a76d 5abe 0835 49bd 07fa 2bbb
000002e0: ee5d f7bd 9c94 f93d bbf1 4dbe 079a 483d
000002f0: 665a 173d d094 f13d b230 1dbd e965 e83d
00000300: 5e79 98bc 54ac b8bd d02d 563d 9b34 1cbe
00000310: 8d6b 31be de79 133d 9b33 2f3e 3da0 47be
00000320: e278 e33d 6fb7 a2bc 9862 963d f955 0b3e
00000330: 989a 4f3e 9541 2b3d 9b83 a03d 1326 843d
00000340: 074e 3ebe 5a21 38be fcf8 e5bc c9bf 1a3e
00000350: e973 b5ba d6f1 a03b dbd2 99bd 4adc 17bd
00000360: d394 1abe 0118 933d c834 383e 148d 31be
00000370: 45dd 89bd 6fa2 74bd ded0 933d 94b0 e13d
00000380: daf3 4bbd e790 d0bd 4c7d 3f3d e0ea febd
00000390: 5aac efbd 453c 01bd e594 30be c508 74bd
000003a0: 385f 25be 0733 88bd a55f 8a3d 3f57 54bd
000003b0: d08c 3fbe 3d1a 53be 6474 0f3e 1b65 393e
000003c0: b8a3 48be d61f 283c 5d5d 27be 90e5 8abd
000003d0: 5f97 503d bc48 403e dc9c 38be 3001 b93b
000003e0: cd66 073e 73e0 843d 2253 823d c642 02be
000003f0: bd07 bebd 9bec 0dbe 658a 8fbd 270e de3d

pool.bias f4 [282]
-0.07360167 -0.09564157 -0.021839315 0.05989245 -0.06878242 -0.08271897 -0.038106248 -0.077143386
-0.08012793 -0.071524166 -0.069806166 -0.06838543 -0.08156803 0.05950861 -0.068741344 0.07762457
0.06833638 0.07282949 -0.06696829 0.05319632 -0.019441104 -0.07538488 -0.07430687 -0.01680224
0.055029273 0.069542274 -0.056138538 -0.059708796 -0.07251626 0.038225953 0.056896873 -0.056278024
-0.07546492 -0.08891387 -0.0056065056 -0.06695432 0.057873636 -0.0731931 -0.09547506 0.02200285
0.070646435 -0.070729464 -0.06987599 1.2400174 0.0018424559 -0.07750901 -0.07144645 -0.048554417
-0.010751796 0.0212267 0.04696355 -0.07135991 -0.06799826 -0.077358946 0.06858948 -0.06855054
-0.073059715 -0.06782698 -0.06261031 -0.05253127 -0.095845446 0.06583817 -0.06897684 0.08281349
-0.0017621906 -0.08153197 -0.08034944 -0.085736886 -0.08608499 -0.05766755 -0.07731432 0.068331845
0.07600508 0.049154863 -0.06754879 0.06732709 -0.07332055 0.08266969 0.03383193 0.0721045
-0.075356275 -0.06064697 0.010549962 0.051229205 -0.03160792 -0.060657825 0.061523568 0.089449674
-0.07843786 0.058339275 0.051986225 -0.07720873 0.060673907 -0.07227503 -0.06661305 -0.05691748
-0.07140011 -0.059701513 -0.06655806 -0.06470393 0.07525784 0.0039278343 -0.041751955 -0.08449682
0.070272446 -0.06245548 0.07430581 0.08780726 -0.065663755 -0.0679726 -0.07875477 -0.0732735
-0.056084927 -0.05629698 -0.072727345 0.05601752 0.043236807 -0.061279114 -0.06287846 0.0041681216
-0.08657852 0.003976139 -0.064843155 -0.0782256 -0.06761478 0.04412469 -0.07800338 0.06717446
0.064761 0.043241475 0.07514879 -0.059449937 -0.06609522 0.04608021 -0.0748662 0.06914818
-0.069805644 -0.06589434 -0.08412193 -0.043208208 -0.071298495 -0.064394355 -0.08211707 -0.07312133
-0.076325506 -0.07075079 -0.09192184 -0.07177643 -0.052279208 -0.073075965 -0.07222632 -0.08087488
-0.08279433 -0.07200169 -0.057274953 -0.0697031 -0.040603623 0.0013714363 -0.06354567 -0.07977516
-0.06510444 0.05956658 -0.06720368 -0.000278997 -0.00994403 -0.073620416 -0.06271568 0.058736023
-0.08349666 -0.07764793 -0.069837086 0.08886674 -0.07026411 -0.06553347 -0.06848729 -0.07153602
0.06890296 0.11099324 -0.07035405 -0.015451987 -0.07054843 -0.07677653 -0.05936501 -0.04604317
-0.07907666 0.073443025 -0.082761556 -0.046041504 -0.08083638 0.041963756 -0.06177947 0.06755092
0.08067657 -0.05542027 0.06530687 -0.07543918 -0.0709417 -0.055974256 0.07664419 -0.069159076
0.06687682 -0.07593913 -0.057750154 0.055765964 0.07514808 0.085968494 -0.018061824 -0.04732734
-0.055094495 -0.06876001 -0.055898488 0.07507555 0.06701709 -0.009687585 -0.07466925 -0.07182179
-0.07661601 -0.0058339923 0.087073416 -0.07722092 -0.0684435 -0.05995059 0.028598873 -0.018081777
-0.09031958 -0.0702362 -0.077185966 -0.071647055 -0.07664743 -0.037265643 -0.06695522 -0.07443223
-0.0675404 -0.08055048 0.054332156 -0.07071368 -0.070215896 -0.07467211 0.07605351 0.062148005
-0.07299552 -0.040136747 -0.06154906 -0.07639687 -0.07711727 0.08229117 -0.079574324 -0.079685956
0.059957534 0.06466724 -0.070054665 -0.07260142 -0.060559966 -0.068357885 -0.089845754 0.071317084
00000000: 79bc 96bd badf c3bd 5de8 b2bc c951 753d
00000010: ccdd 8cbd 9068 a9bd 4c15 1cbd 5afd 9dbd
00000020: 1d1a a4bd 437b 92bd 89f6 8ebd a90d 8cbd
00000030: 240d a7bd 4dbf 733d 43c8 8cbd a1f9 9e3d
00000040: f2f3 8b3d a127 953d ac26 89bd 62e4 593d
00000050: f342 9fbc 6363 9abd 332e 98bd daa4 89bc
00000060: 6066 613d 2e6c 8e3d 86f1 65bd 3691 74bd
00000070: 6883 94bd d192 1c3d b20c 693d c983 66bd
00000080: 5a8d 9abd 7a18 b6bd c7b6 b7bb 591f 89bd
00000090: e80c 6d3d 44e6 95bd 6e88 c3bd 523f b43c
000000a0: 14af 903d 9cda 90bd 251b 8fbd e4b8 9e3f
000000b0: 907e f13a 0bbd 9ebd 8452 92bd ffe0 46bd
000000c0: 4d28 30bc 9ee3 ad3c da5c 403d 2525 92bd
000000d0: ac42 8bbd 5e6e 9ebd a478 8c3d 3a64 8cbd
000000e0: 55a0 95bd dfe8 8abd d639 80bd 072b 57bd
000000f0: 9e4a c4bd 2ad6 863d bb43 8dbd 1e9a a93d
00000100: 4ef9 e6ba 3cfa a6bd 3f8e a4bd d296 afbd
00000110: 544d b0bd cf34 6cbd f856 9ebd 91f1 8b3d
00000120: 8da8 9b3d 9c56 493d 0557 8abd c9e2 893d
00000130: 1629 96bd ba4e a93d 5a93 0a3d 86ab 933d
00000140: 6454 9abd f568 78bd bfd9 2c3c b7d5 513d
00000150: 4e77 01bd 5774 78bd 2300 7c3d 6431 b73d
00000160: 07a4 a0bd 2af5 6e3d 82ef 543d 9c1f 9ebd
00000170: 3485 783d ee04 94bd 6c6c 88bd 4e22 69bd
00000180: 393a 92bd 9389 74bd 984f 88bd 7e83 84bd
00000190: c820 9a3d 10b5 803b 1904 2bbd ab0c adbd
000001a0: 00eb 8f3d 51d1 7fbd a52d 983d 4bd4 b33d
000001b0: b87a 86bd 3835 8bbd 2e4a a1bd 6b10 96bd
000001c0: 4fb9 65bd a997 66bd 13f2 94bd a172 653d
000001d0: 1419 313d cfff 7abd 6cc6 80bd bd94 883b
000001e0: 1450 b1bd 454a 823b 7dcc 84bd be34 a0bd
000001f0: 9e79 8abd 17bc 343d 3cc0 9fbd c392 893d
00000200: 6aa1 843d f91d 313d 9ce7 993d c781 73bd
00000210: ee5c 87bd 9abe 3c3d 7353 99bd 909d 8d3d
00000220: 43f6 8ebd 9df3 86bd 1e48 acbd 17fb 30bd
00000230: f204 92bd 30e1 83bd ff2c a8bd a3c0 95bd
00000240: 8c50 9cbd cae5 90bd 8541 bcbd 85ff 92bd
00000250: b922 56bd daa8 95bd 65eb 93bd bba1 a5bd
00000260: 1390 a9bd 9f75 93bd 2499 6abd 80c0 8ebd
00000270: fc4f 26bd c4c1 b33a 3b24 82bd 2961 a3bd
00000280: 7a55 85bd 16fc 733d 15a2 89bd 5846 92b9
00000290: 49ec 22bc 4dc6 96bd 1471 80bd 2f95 703d
000002a0: 4c00 abbd e105 9fbd bf06 8fbd c4ff b53d
000002b0: a1e6 8fbd 6936 86bd 1043 8cbd 7a81 92bd
000002c0: ff1c 8d3d 6c50 e33d c915 90bd 552a 7dbc
000002d0: b27b 90bd 033d 9dbd ba28 73bd c397 3cbd
000002e0: f2f2 a1bd 4c69 963d e47e a9bd 0496 3cbd
000002f0: 8b8d a5bd 30e2 2b3d 780c 7dbd 2358 8a3d
00000300: c239 a53d 5d00 63bd 9cbf 853d db7f 9abd
00000310: e249 91bd 4345 65bd a1f7 9c3d 46a3 8dbd
00000320: b7f6 883d f985 9bbd 6d8b 6cbd da6a 643d
00000330: 3de7 993d 4010 b03d 64f6 93bc 50da 41bd
00000340: c4aa 61bd 0cd2 8cbd d0f5 64bd 36c1 993d
00000350: 4240 893d adb8 1ebc 31ec 98bd 4d17 93bd
00000360: dbe8 9cbd 132b bfbb 8c53 b23d 0026 9ebd
00000370: 1b2c 8cbd c08e 75bd 2f48 ea3c 3c20 94bc
00000380: 79f9 b8bd ffd7 8fbd ad13 9ebd b1bb 92bd
00000390: 54f9 9cbd dca3 18bd d21f 89bd ed6f 98bd
000003a0: 9f52 8abd a6f7 a4bd 658b 5e3d 55d2 90bd
000003b0: 5acd 8fbd b1ed 98bd f1c1 9b3d e88e 7e3d
000003c0: ad7e 95bd 6e66 24bd de1a 7cbd f675 9cbd
000003d0: a9ef 9dbd 4688 a83d ddf7 a2bd 6432 a3bd
000003e0: 0896 753d 4270 843d d278 8fbd 0eb0 94bd
000003f0: ba0d 78bd 38ff 8bbd 0d01 b8bd b10e 923d

conv3.weight f4 [32, 32]
-0.33386478 0.25751936 0.2663629 -0.2539917 0.17854778 -0.33796656 0.23070057 0.1339364
0.24580173 0.08156874 -0.17003603 -0.077357166 0.11193421 0.1063839 0.25492683 -0.066965714
0.08040834 -0.2770961 -0.035602 0.10395331 -0.021705166 0.28871062 -0.20636247 -0.24059868
0.15008916 -0.018361954 -0.33671868 0.16671745 -0.030644206 0.11107452 0.0881831 -0.184079
-0.24498479 -0.21562493 0.19871856 -0.11878187 0.23269248 -0.11222081 0.050178014 0.24668635
-0.17450222 -0.2828809 0.069682695 -0.23806837 0.13874969 0.04640822 0.27686048 -0.072967745
-0.1687039 -0.25636655 -0.1360518 0.21862987 -0.042542733 -0.031838715 -0.099407524 -0.12604098
0.30846658 -0.03953841 -0.18969424 0.2533411 0.21217626 0.13278897 0.2300177 -0.16455324
0.14458407 -0.047156043 -0.037610676 0.1725794 -0.04002178 0.3535218 -0.039436206 0.24961996
-0.01644314 -0.24105486 -0.1973087 -0.30198327 -0.009121613 -0.218232 -0.21996556 0.1307868
-0.22494823 -0.12577128 -0.2202984 0.22754702 0.3216734 0.06472642 -0.20871925 0.2662681
0.23438618 -0.06433341 0.29412964 0.04319113 -0.17330506 -0.11508516 -0.2612516 0.06911712
0.22265875 -0.25826225 -0.17885162 0.016567526 0.30711633 -0.11561392 -0.043025196 0.071936175
-0.2113406 -0.09224475 -0.10076169 -0.14790034 -0.14521305 0.052234516 -0.01698754 -0.06532228
0.23194863 0.26687092 -0.07605755 0.020498171 -0.24925013 -0.27213407 -0.053791024 -0.021288943
0.034511108 -0.15028831 0.013362564 0.008864328 0.345274 0.20303594 -0.22171818 -0.05594651
0.011975659 0.03236278 0.0745293 -0.10925029 -0.004065053 -0.25200844 -0.13458867 -0.2208948
0.0533052 -0.18840645 -0.16627999 -0.2771307 0.18653925 -0.071450636 0.2778799 -0.07007519
0.27791956 -0.01328689 -0.2570836 0.33412826 -0.16037041 -0.22757451 0.12795831 0.008172545
-0.05866948 0.3080937 -0.16762239 -0.14714365 0.16863172 -0.09648755 -0.015865171 -0.13087659
-0.114122376 0.22331327 -0.020974474 0.13990396 0.1827819 0.20378391 0.14894825 0.14455406
-0.032792397 0.00025426672 -0.1310562 -0.25892618 0.2863238 -0.37382478 -0.15443534 -0.17284803
-0.30150315 -0.26171002 -0.11597613 -0.03089541 -0.297227 -0.19720574 -0.17773671 -0.22624192
0.1378849 0.027119834 0.005894679 0.27123487 -0.151035 -0.1175508 0.10763299 0.28351346
0.16512525 0.029445065 0.04592565 -0.3052735 -0.14796764 -0.08097044 -0.29535854 -0.15142244
-0.3110057 0.1228187 0.07478574 -0.06924657 -0.11553687 0.06365343 0.16833115 -0.1469496
0.26393956 0.191718 -0.13907716 0.29272923 0.06380376 -0.19547163 0.23565198 0.14110191
0.16378011 -0.08844499 -0.18589674 0.19192384 0.07187248 0.09493666 -0.08776132 0.10947743
-0.18001273 0.05250938 0.17969054 -0.06782455 0.3243848 0.16410765 0.12414569 0.38197663
-0.1286529 -0.023649257 0.17704283 -0.20939125 -0.27206746 0.21575879 -0.25443357 -0.06375586
0.12005059 0.09137018 -0.21236627 0.00065944873 0.24376501 -0.24540837 0.13612176 0.00368472
-0.16359942 -0.2865758 -0.0049904203 0.21550953 -0.124152966 -0.28022707 -0.044736437 0.18965802
00000000: 53f0 aabe 94d9 833e b860 883e 330b 82be
00000010: 3bd5 363e f409 adbe c53c 6c3e a026 093e
00000020: 73b3 7b3e 830d a73d ed1d 2ebe 6f6d 9ebd
00000030: c33d e53d cddf d93d c585 823e 5225 89bd
00000040: 21ad a43d 8adf 8dbe 67d3 11bd 79e5 d43d
00000050: 08cf b1bc e1d1 933e af50 53be 805f 76be
00000060: f9b0 193e cf6b 96bc 6466 acbe fbb7 2a3e
00000070: 8f09 fbbc 0a7b e33d 5799 b43d 357f 3cbe
00000080: 4bdd 7abe c8cc 5cbe e17c 4b3e e943 f3bd
00000090: f046 6e3e 06d4 e5bd 7687 4d3d 599b 7c3e
000000a0: b6b0 32be c4d5 90be cdb5 8e3d 32c8 73be
000000b0: 6614 0e3e 8c16 3e3d a8c0 8d3e 1d70 95bd
000000c0: b7c0 2cbe 7a42 83be 2a51 0bbe 82e0 5f3e
000000d0: 4a41 2ebd 5069 02bd 2c96 cbbd e310 01be
000000e0: 55ef 9d3e 07f3 21bd 353f 42be edb5 813e
000000f0: bc44 593e d5f9 073e c389 6b3e a580 28be
00000100: d90d 143e b226 41bd a70d 1abd a7b8 303e
00000110: e1ed 23bd cf00 b53e dc87 21bd 609c 7f3e
00000120: c4b3 86bc 16d7 76be 4b0b 4abe 8d9d 9abe
00000130: d172 15bc 3678 5fbe a73e 61be faec 053e
00000140: d458 66be 30ca 00be e795 61be 1602 693e
00000150: 60b2 a43e 498f 843d 80ba 55be 4b54 883e
00000160: ee02 703e 3cc1 83bd 2998 963e 2fe9 303d
00000170: e276 31be c5b1 ebbd c5c2 85be 478d 8d3d
00000180: a800 643e f33a 84be e124 37be 9fb8 873c
00000190: 5a3e 9d3e fec6 ecbd 303b 30bd 4653 933d
000001a0: ac69 58be d1ea bcbd 255c cebd 3073 17be
000001b0: bbb2 14be dcf3 553d 7429 8bbc b0c7 85bd
000001c0: f183 6d3e 4ea3 883e 10c4 9bbd c8eb a73c
000001d0: 6d3b 7fbe 2855 8bbe fa53 5cbd 2666 aebc
000001e0: 855b 0d3d 2ee5 19be a8ee 5a3c b03b 113c
000001f0: c1c7 b03e a7e8 4f3e 170a 63be 2b28 65bd
00000200: 8e35 443c d68e 043d d1a2 983d 9ebe dfbd
00000210: 2334 85bb 4007 81be 9dd1 09be 3f32 62be
00000220: 8e56 5a3d 9fed 40be 4d45 2abe 13e4 8dbe
00000230: 2504 3f3e b654 92bd 4646 8e3e 9583 8fbd
00000240: 794b 8e3e 42b1 59bc 76a0 83be dc12 ab3e
00000250: 2438 24be 4b09 69be 8107 033e 23e6 053c
00000260: 694f 70bd 75be 9d3e 34a5 2bbe d3ac 16be
00000270: cbad 2c3e 449b c5bd adf7 81bc 8304 06be
00000280: feb8 e9bd 3cac 643e a9d2 abbc fc42 0f3e
00000290: 2e2b 3b3e bbac 503e e485 183e fb05 143e
000002a0: 5251 06bd 1a4f 8539 9933 06be f991 84be
000002b0: 0899 923e f665 bfbe 4c24 1ebe 13ff 30be
000002c0: 9f5e 9abe dbfe 85be e584 edbd 5f18 fdbc
000002d0: 232e 98be 4df0 49be 9d00 36be f6ab 67be
000002e0: b331 0d3e 6a2a de3c 2728 c13b 4cdf 8a3e
000002f0: eba8 1abe 79be f0bd af6e dc3d ad28 913e
00000300: 9816 293e c736 f13c 891c 3c3d cf4c 9cbe
00000310: d484 17be d4d3 a5bd 3c39 97be 7c0e 1bbe
00000320: 243c 9fbe 5f88 fb3d 4429 993d 25d1 8dbd
00000330: 989e ecbd bb5c 823d 005f 2c3e f579 16be
00000340: 1623 873e b951 443e 3e6a 0ebe 9be0 953e
00000350: 8cab 823d b729 48be c14e 713e 057d 103e
00000360: f9b5 273e a622 b5bd b75b 3ebe af87 443e
00000370: e131 933d 276e c23d 35bc b3bd b435 e03d
00000380: 4255 38be 1314 573d cc00 383e 99e7 8abd
00000390: c415 a63e d60b 283e 1840 fe3d 7192 c33e
000003a0: 96bd 03be 16bc c1bc b74a 353e a96a 56be
000003b0: 6d4c 8bbe dfef 5c3e 1e45 82be 6f92 82bd
000003c0: 15dd f53d 4a20 bb3d 8b76 59be dbde 2c3a
000003d0: 899d 793e 554c 7bbe 8163 0b3e 587b 713b
000003e0: 9b86 27be 10ba 92be ae86 a3bb 88ae 5c3e
000003f0: e943 febd ec79 8fbe 8e3d 37bd b635 423e

conv3.bias f4 [32]
-0.060593996 -0.041057996 0.052227445 -0.020141972 -0.060447615 -0.051518984 0.032513827 -0.077577576
0.05219093 -0.051405437 0.0115326205 0.053229008 0.04617575 -0.008607695 -0.014629202 -0.07792842
-0.045523107 -0.04551831 0.023978109 -0.07721884 -0.046181615 0.046436295 0.039447304 -0.036240652
0.052729715 -0.0118646305 -0.07336923 0.03599738 -0.04312353 0.037010986 0.022139026 0.021999342
00000000: 6931 78bd 6e2c 28bd 72ec 553d c700 a5bc
00000010: eb97 77bd 9205 53bd 382d 053d fee0 9ebd
00000020: 28c6 553d 828e 52bd 51f3 3c3c a906 5a3d
00000030: c922 3d3d 4a07 0dbc 52af 6fbc ef98 9fbd
00000040: 7076 3abd 6871 3abd bd6d c43c e924 9ebd
00000050: ef28 3dbd fc33 3e3d 7f93 213d 1471 14bd
00000060: 1dfb 573d de63 42bc 9b42 96bd fd71 133d
00000070: 4ca2 30bd d598 173d e75c b53c f737 b43c

conv4.weight f4 [32, 32]
-0.3951169 0.13808091 -0.17120647 -0.07716131 0.35491818 0.1845238 -0.0028887503 -0.16599625
-0.0033718704 0.03906217 0.17320609 -0.39680275 -0.037652154 0.20942342 0.36652482 -0.44088277
-0.15325113 0.026761273 0.09001422 0.14760998 0.14521869 0.10888591 -0.2390993 -0.0633866
0.008606519 0.0251738 0.28839913 0.053713914 0.19817615 -0.26978856 -0.09325015 0.34767005
0.2125267 -0.36216146 -0.09955849 -0.06449052 -0.3291239 -0.042496104 -0.13376401 0.3277241
0.0649835 -0.20422894 -0.43131536 0.1201346 0.3431145 0.11166462 -0.15662746 0.12659787
0.3708451 -0.09026775 0.21210438 0.17600733 -0.38805136 -0.346862 0.08597261 0.08822674
0.10391453 -0.29131782 0.0014208439 0.3837583 -0.14183126 -0.020521237 -0.08962702 -0.15837835
0.23517308 -0.1031899 0.33903083 -0.00047927673 -0.44981164 -0.002307981 0.32169217 0.0021015198
-0.22223899 -0.42640716 -0.50492454 0.29780784 0.25004977 -0.29358923 -0.4118541 -0.12450422
0.45724678 -0.056372274 0.004512689 -0.091153026 -0.10639614 -0.104572035 0.29488772 0.21962778
-0.32400927 -0.1690413 -0.038918152 0.2532161 0.05600712 -0.021681262 0.2962996 -0.48515218
0.18689157 -0.4400572 -0.00636542 -0.3908145 0.068063155 0.11106228 -0.0059602195 0.15227327
-0.3174958 -0.3958053 -0.35810432 0.18926513 -0.10246098 -0.18345672 -0.10645362 0.15885146
0.11247277 -0.08987836 0.22452614 -0.36043608 -0.41689092 0.027919386 0.2916286 0.39657125
0.065755405 -0.28519878 -0.20695005 -0.12612164 -0.040173702 0.4191309 -0.10065479 -0.3771915
0.00738708 0.2584275 -0.33296666 0.20530827 -0.0060990844 0.27577856 -0.0723269 -0.07692411
0.049314663 0.16016887 -0.02986067 0.13117436 -0.18211643 0.12795211 0.17283121 -0.439829
-0.040441774 0.4068273 0.2583968 0.14362404 0.27774805 0.18513252 -0.18677631 -0.0007177718
0.27390036 0.16047937 -0.049664486 -0.18566273 0.35171786 -0.03460201 -0.3135229 0.30372423
-0.39106718 0.28811085 -0.09402473 0.050191566 0.4448801 0.40670124 0.037642617 -0.11718464
0.1817835 0.19265224 0.069627956 -0.07748033 -0.33669513 0.2535353 0.023575416 -0.34524155
-0.3824391 0.12669265 0.26458693 0.18798782 0.21231684 0.39056277 0.023520313 -0.32375097
-0.016404586 0.28630468 -0.11594761 -0.45630854 -0.05029937 -0.4309769 -0.40785795 0.24538441
-0.29009974 0.41941574 -0.4143815 -0.024088861 -0.084804095 -0.11289404 -0.054480143 -0.37196743
-0.0039753476 -0.012945705 0.114725694 -0.28261286 0.025515337 -0.016392436 -0.0077465647 0.022324424
0.1568895 0.39233512 0.033724293 0.15458068 0.030709986 0.100625515 -0.1530678 -0.3135891
0.12816374 0.2066934 0.21119858 0.13682012 0.0555163 -0.36748818 -0.42994806 0.34994835
-0.30636874 -0.09987692 -0.10763982 0.09171445 0.014242235 0.33965808 -0.31487057 -0.009238021
0.32388005 0.3367637 0.075470515 0.07532059 -0.38065487 0.36820766 0.096230604 -0.29205
-0.100269146 0.42184818 -0.0069852434 0.324342 0.2629361 -0.08835254 -0.41534296 0.12432427
0.4553173 0.24363907 0.4322102 -0.35220864 0.0007147544 -0.35112098 -0.31252068 0.13114697
00000000: c34c cabe 1565 0d3e c050 2fbe c006 9ebd
00000010: d6b7 b53e cff3 3c3e 3051 3dbb ecfa 29be
00000020: 99fa 5cbb a7ff 1f3d f05c 313e bb29 cbbe
00000030: 2539 1abd 1873 563e 24a9 bb3e 63bb e1be
00000040: dded 1cbe 753a db3c 6059 b83d 1227 173e
00000050: 35b4 143e 93ff de3d 72d6 74be d5d0 81bd
00000060: 5b02 0d3c 4939 ce3c 0da9 933e 1f03 5c3d
00000070: b0ee 4a3e ba21 8abe eff9 bebd cf01 b23e
00000080: 99a0 593e 3a6d b9be 52e5 cbbd 9b13 84bd
00000090: ee82 a8be 6510 2ebd 6ff9 08be 74cb a73e
000000a0: 1216 853d 6421 51be 5ed5 dcbe 2109 f63d
000000b0: b4ac af3e 6cb0 e43d f362 20be dfa2 013e
000000c0: 69df bd3e 4cde b8bd e431 593e 443b 343e
000000d0: abae c6be e597 b1be 6812 b03d 39b0 b43d
000000e0: 24d1 d43d 9c27 95be 9c3b ba3a f87b c43e
000000f0: 373c 11be 271c a8bc 5f8e b7bd ef2d 22be
00000100: 36d1 703e 3a55 d3bd 7395 ad3e 6f47 fbb9
00000110: b64d e6be 7f41 17bb d6b4 a43e a7b9 093b
00000120: 9e92 63be 0a52 dabe bc42 01bf 457a 983e
00000130: 8606 803e 5451 96be 8ade d2be 12fc febd
00000140: 401c ea3e 9de6 66bd 2edf 933b 70ae babd
00000150: 38e6 d9bd dd29 d6bd 86fb 963e 1be6 603e
00000160: 8be4 a5be 2a19 2dbe a468 1fbd 8aa5 813e
00000170: b967 653d e79c b1bc 95b4 973e de65 f8be
00000180: 8160 3f3e 2d4f e1be 0395 d0bb d718 c8be
00000190: b264 8b3d 9f74 e33d f24d c3bb 86ed 1b3e
000001a0: cf8e a2be fea6 cabe 7359 b7be b8ce 413e
000001b0: 10d7 d1bd 14dc 3bbe 5b04 dabd f5a9 223e
000001c0: 2058 e63d 2512 b8bd 2eea 653e 148b b8be
000001d0: ba72 d5be 32b7 e43c 5850 953e 630b cb3e
000001e0: c5aa 863d 9305 92be b7ea 53be 0826 01be
000001f0: 2e8d 24bd 5398 d63e 1924 cebd 3f1f c1be
00000200: 520f f23b 9c50 843e 9b7a aabe 553c 523e
00000210: d4da c7bb d932 8d3e 2020 94bd 638a 9dbd
00000220: 2cfe 493d 4f03 243e 5d9e f4bc 9252 063e
00000230: bb7c 3abe e105 033e aafa 303e 4431 e1be
00000240: 46a6 25bd ab4b d03e 964c 843e 2e12 133e
00000250: fe34 8e3e 6193 3d3e 4a42 3fbe da28 3cba
00000260: ab3c 8c3e b454 243e fd6c 4bbd 5f1e 3ebe
00000270: 5d14 b43e d6ba 0dbd 1386 a0be be81 9b3e
00000280: f539 c8be 4483 933e 0a90 c0bd ac95 4d3d
00000290: 53c7 e33e 253b d03e 252f 1a3d 80fe efbd
000002a0: 7425 3a3e a146 453e 1a99 8e3d 02ae 9ebd
000002b0: 4e63 acbe 61cf 813e 3b21 c13c 80c3 b0be
000002c0: 0fcf c3be b8bb 013e f077 873e e17f 403e
000002d0: 9669 593e d8f7 c73e acad c03c b0c2 a5be
000002e0: e962 86bc 8796 923e f175 edbd 46a1 e9be
000002f0: b606 4ebd 01a9 dcbe c2d2 d0be 0d46 7b3e
00000300: f487 94be a9bd d63e d029 d4be 0156 c5bc
00000310: c5ad adbd fe34 e7bd 9226 5fbd 8472 bebe
00000320: a243 82bb 391a 54bc 4ef5 ea3d a2b2 90be
00000330: 8a05 d13c 6e49 86bc e5d6 fdbb b6e1 b63c
00000340: a4a7 203e 26e0 c83e 7c22 0a3d 664a 1e3e
00000350: 8293 fb3c c014 ce3d cebd 1cbe c08e a0be
00000360: 5b3d 033e 6fa7 533e 7144 583e 931a 0c3e
00000370: 0f65 633d 6927 bcbe 2722 dcbe 6e2c b33e
00000380: 5ddc 9cbe 458c ccbd 4472 dcbd c9d4 bb3d
00000390: 4358 693c aae7 ad3e b736 a1be 125b 17bc
000003a0: 9bd3 a53e 4b6c ac3e 4990 9a3d ae41 9a3d
000003b0: 32e5 c2be b785 bc3e 8d14 c53d 9487 95be
000003c0: e959 cdbd 7cfc d73e 78e4 e4bb 2810 a63e
000003d0: 8f9f 863e 2df2 b4bd d5a7 d4be b99d fe3d
000003e0: 591f e93e 857c 793e a84a dd3e b154 b4be
000003f0: 5b5e 3b3a 21c6 b3be b602 a0be 644b 063e

conv4.bias f4 [32]
0.15905891 -0.1888876 0.14503598 -0.21241777 -0.20246644 -0.16049771 0.1320352 0.16483831
0.07476372 -0.14680354 -0.20296486 0.15758812 0.17216882 -0.12214161 -0.1484468 0.15551768
0.123870574 -0.14713351 0.4981612 2.661384 -0.19425036 -0.13405092 0.19169882 0.13808337
-0.1777687 0.6188132 -0.13727422 0.15307778 -0.16454405 0.24053237 0.14440988 -0.20889227
00000000: 57e0 223e c06b 41be 5084 143e 0b84 59be
00000010: 5d53 4fbe 8359 24be 3c34 073e 60cb 283e
00000020: b91d 993d ab53 16be 05d6 4fbe c85e 213e
00000030: 064d 303e 6125 fabd 7002 18be 0740 1f3e
00000040: dbaf fd3d 2baa 16be fc0e ff3e 1e54 2a40
00000050: 91e9 46be a544 09be b24c 443e ba65 0d3e
00000060: 0009 36be 8b6a 1e3f 9d91 0cbe 6cc0 1c3e
00000070: 3c7e 28be 1e4e 763e 2fe0 133e dbe7 55be

conv5.weight f4 [32, 2]
8.135137 -6.516722 -8.434459 5.9499316 8.230376 -6.473331 -8.488795 5.9910593
-8.366072 6.1795363 -8.442823 6.373755 8.106605 -6.5362525 8.369568 -6.1501746
-8.106672 6.662322 -8.234285 6.501073 -8.370305 6.025538 8.28105 -6.471176
8.360824 -6.6472564 -8.316168 6.6543193 -8.177115 6.457239 8.524692 -6.3396907
8.139624 -6.3713546 -8.337297 6.189429 -7.988976 6.6295953 -7.868741 6.7261667
-8.362338 5.934054 -8.563216 6.470589 8.295203 -6.2818704 8.507554 -6.536107
-8.231215 6.2258787 -7.991458 6.591087 -8.431705 6.6849914 8.556215 -6.1179705
-8.4423685 6.377799 8.087605 -6.224095 8.541156 -6.548262 -8.299426 6.066266
00000000: 8529 0241 fd88 d0c0 8bf3 06c1 d765 be40
00000010: 9faf 0341 8725 cfc0 1bd2 07c1 c2b6 bf40
00000020: 6edb 05c1 c3be c540 ce15 07c1 cdf5 cb40
00000030: a7b4 0141 fb28 d1c0 c0e9 0541 3bce c4c0
00000040: eeb4 01c1 be31 d540 a2bf 03c1 ca08 d040
00000050: c5ec 05c1 35d1 c040 2e7f 0441 e013 cfc0
00000060: efc5 0541 53b6 d4c0 060f 05c1 2ff0 d440
00000070: 77d5 02c1 b4a1 ce40 2365 0841 bfde cac0
00000080: e63b 0241 23e2 cbc0 9265 05c1 cd0f c640
00000090: b1a5 ffc0 a525 d440 bacc fbc0 c23c d740
000000a0: 23cc 05c1 c5e3 bd40 ef02 09c1 110f cf40
000000b0: 27b9 0441 1505 c9c0 f11e 0841 ca27 d1c0
000000c0: 0eb3 03c1 663a c740 06ba ffc0 2fea d240
000000d0: 44e8 06c1 73eb d540 42e6 0841 6ac6 c3c0
000000e0: f113 07c1 ee16 cc40 d566 0141 c92b c7c0
000000f0: 93a8 0841 5d8b d1c0 73ca 04c1 da1e c240

conv5.bias f4 [2]
15.755649 -15.113692
00000000: 2317 7c41 afd1 71c1
