GST-recon/checkpoints/best_grid_TopkPool.pth (torch, 17362 bytes, 11 tensors)

conv1.weight f4 [2, 32]
00000000: 3aa4 2e3b 5719 6ebe a7ec a83d f635 a73d
00000010: 0238 bfbd 0854 373d facc f2bd 11ae 3e3e
00000020: 1d4e 46bd a4a5 833e 60cb ba3e f723 4c3d
00000030: 6ffd 60be ed4d 86be 7b32 2bbd 9b67 c83c
00000040: 8916 e73d b555 a4be fb93 d23e 4092 c7be
00000050: 8846 623e 6e9c 6cbe 07bc 713e e647 c63d
00000060: 420d 033e 9d11 043e 69ff 903e d81d b73c
00000070: dabb 7f3e 9921 bebe cf16 9b3e 268b bdbd
00000080: 8ddc af3d 4a2d d2bb cf5f 0c3e 0cdd c33e
00000090: c83c 93bd 06b3 27be 83f8 b4bd fca2 8fbe
000000a0: e42a 5d3e e381 ccbd cfad 31be 0c8b ba3e
000000b0: b03e b23e 0764 98bb 0133 9bbd 109c 50bd
000000c0: 675b 8b3e 7099 c9be 7c15 b0be 3c8d 833e
000000d0: 62b6 e23e eaf1 54be f481 a0be 8dd0 52bd
000000e0: 482a 3abe 19da 8e3d 2046 553e b085 053e
000000f0: e5ed de3c b4e6 8cbd 05c7 0f3e d807 acbe
0.002664818 -0.23251854 0.08248263 0.08164589 -0.093368545 0.044757873 -0.118555024 0.18621089
-0.04841434 0.2571231 0.36483288 0.049838986 -0.21971677 -0.26231328 -0.04179619 0.024463465
0.11283595 -0.3209664 0.41128525 -0.38978767 0.22097218 -0.23106548 0.23606883 0.09681682
0.12798026 0.12897344 0.28319862 0.022353098 0.24974003 -0.37135008 0.3029084 -0.09255056
0.085869886 -0.0064140903 0.13708423 0.38254583 -0.071893275 -0.16376886 -0.08836462 -0.28054035
0.21598393 -0.099857114 -0.17351459 0.3643421 0.34813452 -0.004650596 -0.075780876 -0.050930083
0.27218172 -0.39374876 -0.3439139 0.2569369 0.44279772 -0.20795408 -0.31349146 -0.05146842
-0.18180192 0.069751926 0.20827532 0.13039279 0.027213046 -0.06879941 0.14040764 -0.33599734

conv1.bias f4 [32]
00000000: 5938 aebd da3b 563d 5d55 59bd 5eec 91bb
00000010: d761 cabc ccd2 f33c 53ad 67bc d0a8 e03c
00000020: 1fd3 a3bc 5191 e93c 7c4d 6ebd f8f3 c0bc
00000030: c0d7 b3bd 34ce 8f3d 0f08 603d 99b4 0dbc
00000040: be4e ac3b 6b02 82bd ea50 5fbc 7ba5 c6bd
00000050: c067 c63c 46a1 2e3b 6144 9b3d 2513 2f3d
00000060: 0f0c 2fbc a810 aabc 5d79 c63c cbb9 12bd
00000070: f18a 59bd b735 21bd 8dd7 a6bd ac92 e1bc
-0.08506841 0.052303173 -0.053059924 -0.004453226 -0.024704857 0.029763602 -0.014140445 0.027424246
-0.019998131 0.028511675 -0.058179364 -0.023553833 -0.087813854 0.07021752 0.054695185 -0.008649015
0.0052584102 -0.063481174 -0.013630131 -0.09699532 0.024219394 0.002664642 0.075814016 0.042742867
-0.010684027 -0.020759895 0.024227792 -0.035821717 -0.05311102 -0.039357867 -0.08146582 -0.027535759

conv2.weight f4 [32, 32]
00000000: be48 9dbd 79ce e0bd 7377 84bd 3183 f43d
00000010: fba4 203e aa5b 633e cb95 2abd 0ab4 7abe
00000020: 4bd5 703e 5ae2 44be 59a0 65bd 20b3 6f3e
00000030: b07c 3bbd e74f 31bc a7c3 bc3d 0d0b 06be
00000040: 410c 073e 6ceb 64be cc30 12be bf46 8dbd
00000050: 0784 ecbd fa5f 633d ff77 863e 0de5 20bc
00000060: b278 57bd 2ae1 3c3e 9ff2 92be c211 29be
00000070: aa0f ef3c 1336 2abd d560 d0be 1c61 66be
00000080: bf00 89be 1eca cc3e 9d69 e43d 6350 d93d
00000090: 9f07 7dbe 165a 8ebe e3d7 24be e8b1 583d
000000a0: af9f 79bd b99e 26be b67c 293e fe5b c6bd
000000b0: 3698 8cbd 719b 043e aced f2bc bbb1 553e
000000c0: 080c d93d 03de 9bbc 68e2 1f3e 5776 68be
000000d0: 62ec c4bd 49aa 8dbe 843d 1ebe 988c 0e3e
000000e0: 7111 1e3d 90fa 053e 114c 5e3e da4b 6dbe
000000f0: 61b0 0a3e 91bd dabd 752c 47be 9387 47be
00000100: 88c2 123e 8948 923d b11b f7bd 90da ab3d
00000110: 9d50 89be ed6e 563e 0f61 523e d808 503d
00000120: 069f 27be 1d4c 093e 7737 8b3e 72b6 cabd
00000130: dacb e1bd 1ec8 ce3d bbf4 cb3c 4e4d 02be
00000140: 9667 adbe 491f 49be f5dd 11bd d873 7bbc
00000150: 2749 823e 5469 123d cb54 38bd 46c5 cbbe
00000160: 5d22 9bbe 36fd e93d 0d07 6f3e 63f7 c83c
00000170: f3ac a7be 8ae1 ab3d aedd 3a3e 506c 47be
00000180: 6b4b 80bd 5183 2cbd 9688 a4bd caad cabd
00000190: 0ffc 133e 5029 5cbe 576f 21be cd73 4ebe
000001a0: 9b1c 7c3e 14d3 943c 03b1 323e c7ef 7dbe
000001b0: d34e 563e bab6 f53c 4423 43be f55b 23bd
000001c0: a6c0 91be a5e8 403c 3760 e33d 488d 07be
000001d0: cfe9 883e 3939 de3d 30a8 7ebc 5d39 91bc
000001e0: a95e 8abd 4e01 c3bd e860 81be 0ceb 683e
000001f0: 8ab3 073e c168 9c3d 1381 d93d 0fb4 a23e
00000200: f63f 823e 4055 5dbe b4b1 4f3d c6a1 2ebe
00000210: 44ba 853d b918 6abd f200 db3d 9b0c 82be
00000220: 696d e53d 9680 983e 4742 90bd 9942 4dbe
00000230: b869 2cbe 8fa6 12bd 95cd 063b 8d45 003d
00000240: f95f 693d 6461 3e3e 41dc 1cba f464 ea3d
00000250: 6903 16be 0087 6c3e c0f7 123e 2c35 0b3d
00000260: 3dce 5f3e 0008 2f3e dbc2 c83d a338 e4bd
00000270: 1121 e33d a43d acbb 332d 04be bd7f cb3c
00000280: 7a5b 823d ec9e 0dbe f773 05bd 9da1 a3be
00000290: 4f5e 89be 9aca 65be 4472 3cbe ce93 073e
000002a0: 2b1e 253e b536 9d3e d515 923e ac88 1b3e
000002b0: 8122 483e 7699 56bd 3965 863e 1f3a afbd
000002c0: 72d9 73bc 51b5 fbbd fa27 23be d235 75be
000002d0: c02a 9bbd d98b 683e dd18 4dbe 5841 21be
000002e0: 0592 5abd ad6d 903e 1713 063e 708c 38bd
000002f0: 1307 0dbd 353e 983e 970c 64be 9d93 253e
00000300: e7c2 4e3d 16ed 893e 8dbb 4cbe b908 77be
00000310: dd87 27be 9610 983e 6fdb 61bc 9c5f 88be
00000320: d703 033e dd20 883d 3c1e bf3c 5157 27be
00000330: 2a38 50be e19d 973e 73d4 61be 0dd0 72bd
00000340: d9f3 17bd 9d59 093e cb57 4bbe 38fa 1bbe
00000350: 1151 16be 09f7 5cbe 1afc 563e a76c 853e
00000360: ec00 1d3e 58df 9e3e 6e95 25be ca92 d9bc
00000370: 4983 37be dd70 bbbc a2b9 58be 2939 8ebe
00000380: d47e 673e 7f82 e3bd d8ca 21be 3e9b 50be
00000390: 16ad 57be dc9d 91bd 6d58 ec3d 387f 8c3e
000003a0: 84c2 febd 8286 aa3e c34c 24be a005 613e
000003b0: 84ac 583e 839d 743c 974f bbbd c8c2 733e
000003c0: d64c c5bc 59de febd 9383 00be 5bfe 8bbe
000003d0: 2b66 a7bd e52f 43be 04b4 d03d 7cfd 7cbe
000003e0: 38de 75be e895 383d 2169 6d3e aa12 7f3e
000003f0: 87ba 8ebe 990f a83e c641 623e 52ef 7dbe
-0.0767989 -0.109768815 -0.06468096 0.11939085 0.15687935 0.22202936 -0.04164676 -0.24482742
0.23518865 -0.19226971 -0.056061123 0.23408175 -0.04577321 -0.010822273 0.09217005 -0.13090153
0.13188268 -0.22355431 -0.14276427 -0.06898259 -0.1154862 0.055511452 0.26263425 -0.009820235
-0.05260534 0.18445268 -0.2870073 -0.1651068 0.029182274 -0.041555475 -0.40698877 -0.22497982
-0.26758382 0.39997953 0.11152957 0.10611036 -0.24709938 -0.27803105 -0.16097979 0.05290404
-0.0609433 -0.16271485 0.1655148 -0.09685515 -0.068649694 0.12949921 -0.029654346 0.2086858
0.10597998 -0.019026762 0.15613711 -0.22701393 -0.09615399 -0.2766898 -0.15453154 0.1392082
0.038590852 0.13083863 0.21708705 -0.23173466 0.13543846 -0.10680688 -0.19450553 -0.19485311
0.1433202 0.07142741 -0.120658286 0.08391297 -0.26819316 0.20940752 0.20544837 0.050789684
-0.16369256 0.13407941 0.27190754 -0.0989808 -0.1102521 0.10096763 0.02489697 -0.12724802
-0.33868092 -0.1964084 -0.035612065 -0.0153474435 0.25446436 0.03574498 -0.04500274 -0.39798945
-0.30299655 0.11425249 0.23342533 0.024532026 -0.32749137 0.083926275 0.18248627 -0.19474912
-0.06264385 -0.04211742 -0.08033864 -0.09896429 0.14451621 -0.21500134 -0.15765129 -0.20161362
0.24620287 0.018167056 0.17450337 -0.24798499 0.20928507 0.029994357 -0.19056422 -0.03988262
-0.28467292 0.011774217 0.11102336 -0.13237488 0.26740882 0.10850758 -0.015543029 -0.017727548
-0.06756336 -0.09521733 -0.25269246 0.22745913 0.13252082 0.07637168 0.10620322 0.31778
0.25439423 -0.21614552 0.05070658 -0.17053899 0.06529668 -0.057152484 0.1069354 -0.25400242
0.11202509 0.29785603 -0.070438914 -0.20044936 -0.16837204 -0.035803374 0.0020569314 0.03131633
0.056976292 0.18591839 -0.0005983748 0.114450365 -0.14649738 0.23098373 0.14352322 0.033986256
0.21856017 0.17092896 0.09802791 -0.11143615 0.11090291 -0.0052563716 -0.12907867 0.024841184
0.06365104 -0.13830155 -0.032581296 -0.3195924 -0.26829764 -0.22440568 -0.18402964 0.13239977
0.1612479 0.307058 0.28532282 0.15188855 0.19544412 -0.052392446 0.26249102 -0.085560076
-0.014883386 -0.12290443 -0.15933219 -0.23946312 -0.07576513 0.22709598 -0.20029016 -0.15747583
-0.05336191 0.28208676 0.1309322 -0.045055807 -0.034430575 0.2973496 -0.22270428 0.16169591
0.050478842 0.26938695 -0.1999342 -0.24124421 -0.16360421 0.29700154 -0.013785227 -0.26635444
0.12794434 0.06646893 0.023329847 -0.16341902 -0.20333925 0.2961264 -0.22053699 -0.059280444
-0.037097786 0.13413091 -0.19857709 -0.1523217 -0.14679362 -0.21578611 0.20994607 0.26059458
0.15332383 0.31029773 -0.16170284 -0.026559252 -0.17921175 -0.022880966 -0.21164563 -0.27777985
0.22606975 -0.111088745 -0.15800035 -0.2037172 -0.21062121 -0.071101874 0.115403034 0.2744081
-0.12439445 0.33305746 -0.16044907 0.21974802 0.2115956 0.014930132 -0.0914604 0.23804772
-0.02408449 -0.12444753 -0.12550192 -0.27342495 -0.08173784 -0.19061239 0.10190585 -0.24706072
-0.24010551 0.045064837 0.23184635 0.24909464 -0.27876684 0.328244 0.22095403 -0.24798325

conv2.bias f4 [32]
00000000: 78c6 973d 1f45 90bd 56ef c93c 5a22 363d
00000010: 88c0 99bd 4fc0 593d 10cd a8bd b7c2 2dbb
00000020: d7a1 afbd 9cce 9abd 6459 ae3d 0df6 623d
00000030: 4f4f 203d dd63 9d3d 95ab b0bd 1954 72bc
00000040: 37ad 01bd 19f3 37bd 1d88 87bd 1ab5 7f3d
00000050: 0f9d 84bd a8b7 003c 8d9a f7ba 33d6 67bd
00000060: 9ca4 b43d d15d 12bd e1fc 013d db7e d33d
00000070: 5117 333d ff00 d0bc 5f39 39bc 6c01 a83d
0.07410902 -0.07044434 0.024650257 0.044466354 -0.075074255 0.053161915 -0.082422376 -0.0026513764
-0.085757904 -0.07558939 0.08513144 0.055410434 0.039138135 0.07685063 -0.08626477 -0.014790558
-0.03165933 -0.04490957 -0.066177584 0.06242857 -0.06475269 0.007856287 -0.0018890664 -0.05660076
0.08820459 -0.035734 0.031735305 0.1032693 0.043723408 -0.0253911 -0.011305182 0.08203396

pool.weight f4 [1, 32]
00000000: 69f7 203e e2ac 3bbe 72d0 d73d fb3d 033e
00000010: 9795 52bd f6b4 453d 213a 14be 9394 bfbd
00000020: 6f18 b2bd 10fa 2fbe a33d 593e e06d 113d
00000030: 91c8 233d 065c 773d bbe2 41be da35 a1bd
00000040: 74e9 03be bab7 20bd f43f d8bc 8e69 db3d
00000050: 8fd4 a4bd 9883 2e3e d32f f43d 1296 69be
00000060: 39f9 0fbb 5e6c 02bd 4071 30bd bd45 563e
00000070: d447 d43c 22a0 bdbd 21e1 c8bd e1f2 2f3e
0.1571938 -0.18327668 0.10537805 0.12816612 -0.05141219 0.04826828 -0.144753 -0.0935451
-0.086960666 -0.17185235 0.21214919 0.035505176 0.039986197 0.060390495 -0.18934147 -0.078715995
-0.12882024 -0.039237715 -0.026397683 0.10713492 -0.08048355 0.17042387 0.11923184 -0.22811154
-0.0021968617 -0.03184163 -0.043076754 0.2092504 0.025913157 -0.092590585 -0.09808565 0.17182495

conv3.weight f4 [32, 32]
00000000: 3f45 f5bd af29 d63e 9c19 1cbe 0531 67be
00000010: 4e91 f43d e116 05be 9154 33be 3851 dbbc
00000020: 43ed 853d c1b3 9abe fb46 173e 1049 d43c
00000030: dc77 213e d99a a9be 3d09 45bd 6a71 703e
00000040: b136 e4bd 734b dd3e 8c09 e6bc b566 933b
00000050: 0e05 283e 6c95 b0bd 071d a23e 5556 aebe
00000060: 44bc 7d3e 808e 9abd d0a0 afbd 7913 823e
00000070: 731f b03d 4209 46bd b2ff 953e dc65 babc
00000080: 19cd ef3d b28b e9bd 3e09 08ba db4a 8ebd
00000090: 71fe bf3e ae46 833e 631d 93bc 1213 8a3e
000000a0: 4633 463d dbe5 9bbe d3fe 21bd c127 83bd
000000b0: 0531 9abe f992 093e ef1d 8c3e 366b 59be
000000c0: 5c6c 08be b6c4 a6be c1a9 e33d 31fb b93d
000000d0: e6d9 2a3e 7d1c 80bd 6bfc 9dbe 8a45 a93e
000000e0: 736b 9e3e 3beb 7fbe e0d9 86bd 4bc2 49be
000000f0: ff1d 5bbe e6cd 91be eb7d 683e f209 403e
00000100: f231 093e c71d c4be 93eb 54bd 8be6 223e
00000110: 2186 ff3d 9f60 ab3c 064d 793d b1db 083e
00000120: 7bee 863e 8118 a23e 510d 293e e4ce d63e
00000130: bf15 83be 5e64 973e 1084 003c ae90 2bbe
00000140: f09f 873e 8581 0cbe b081 c83c f6c4 19be
00000150: 5270 41be 564a 7cbe 964e 563e fdcb b43e
00000160: 6016 38bd 8acd 04be 1fe0 9f3e eca3 b03d
00000170: d077 0c3e c053 88be a1e9 313d 6631 28bd
00000180: 1bef 963e 1d04 983e 95b3 6d3e 4249 6e3d
00000190: 543e a1bd b87d eabb 695a 813e 2e4a 2a3e
000001a0: b36e 4f3d 63cd fa3d 65b2 0ebe 4985 243e
000001b0: 9992 45bd 8a7c 793e 9f50 723e 97a4 b7bd
000001c0: 2b16 b4be 5eca f73d ce62 2f3e 69d4 953e
000001d0: 8dda 98be edf1 2abe 4030 243e cd20 40be
000001e0: 75ba 94be 6801 a13d 80d6 ad3c 0f62 1d3e
000001f0: 1dc5 593e 8def e63d 8ab8 9a3e 4e83 0d3e
00000200: 558b d93d 2daf 00bd bc34 34be d0e1 3f3e
00000210: a328 b73e 0573 963d 5d70 9dbe 2947 7f3e
00000220: 397e 883e f4fc 2e3d 86d8 27be 830e c9bd
00000230: a2d0 7b3e 6c65 563e 57d7 8dbd c0e6 d03d
00000240: 9c3c 42bd acf3 89be a82d 473e fc5c 4139
00000250: 99b3 9dbe 0cbb cb3d 0fe4 453e eba4 93be
00000260: fab5 9fbd c6ad a1be 0923 b53d bf75 b83d
00000270: c3c3 453e 33af 5abc 1815 9e3e c365 68be
00000280: 2dad a3bd 6d9c f7bd 8429 31be 1f42 773e
00000290: f517 ea3d e6cc 0a3e 07fd 303d 0df8 40be
000002a0: af12 cdbc bdad 89be 4c00 b83e 4a4c 3bbe
000002b0: 3c9c c53d 4c5d a33d 88e9 acbc cb57 62bd
000002c0: c56f d5bd 890e a33e 73e1 833e 6693 36be
000002d0: 5faf 813e c990 5c3d e4cc 48be 4d41 f9bd
000002e0: f70f 65be 2b6f 823c 03e1 acbe 6d39 3f3d
000002f0: a1ff 883e 4602 ed3c 4b0e 153e 3704 cbbd
00000300: 0fc4 9d3e 1448 1d3e 96f9 e6bd aeff fa3d
00000310: a8c0 e23e 5cd2 4fbe d8ec d53d f7a9 eebd
00000320: 06c5 6cbe 5292 5fbe f906 163d 4170 973e
00000330: d584 f2bd 8c48 813e 4db0 03be 17c4 82be
00000340: 32c3 86be f004 08be a5d3 d73d a3ed 413e
00000350: 7e34 2abe 839f 523e c6dc 243e b797 e5bd
00000360: 923c bcbe 3dee c5be 9d17 653e 40be 8bbe
00000370: 69c5 5cbe b2f7 0e3d 1910 9a3d 26a7 5c3e
00000380: 9fd4 85be afde 5c3e 5911 073e f612 51bd
00000390: 3405 173b 0073 81bd d450 29be 2049 6cbe
000003a0: c8b7 8f3d 2d00 633e c21b e13d 9807 663e
000003b0: fbe4 8dbe fdee 6c3e 2053 5e3e a598 693d
000003c0: dad7 9b3e 85bf 74be 6422 793d d536 2dbe
000003d0: 3ea2 abbd 9620 d13e 72ea d6bd ca65 d43d
000003e0: 4aa9 ec3c 43fe 7c3a c051 bebd 8009 a93d
000003f0: 328d 7b3e e7b6 7bbe a70e b1be a2c5 abbd
-0.11976098 0.41828677 -0.15244144 -0.22577293 0.11941777 -0.12997009 -0.17512728 -0.026772127
0.06539395 -0.30215266 0.1477317 0.025913745 0.15768379 -0.33125952 -0.048104513 0.23480764
-0.11143244 0.43221626 -0.028080724 0.0044983276 0.16408178 -0.0862225 0.3166277 -0.3405024
0.24778849 -0.07546711 -0.085755944 0.2540548 0.085997485 -0.048348673 0.29296643 -0.022753648
0.11709041 -0.11403598 -0.00051893655 -0.06947871 0.3749881 0.25639862 -0.017958349 0.26967674
0.048388742 -0.30448803 -0.03954966 -0.06404067 -0.30115524 0.13434972 0.27366588 -0.21232304
-0.13322586 -0.32571954 0.11116362 0.09081114 0.16684684 -0.06255434 -0.30856642 0.33060867
0.30941352 -0.24992077 -0.06584525 -0.19703023 -0.21398161 -0.284774 0.22704284 0.18753794
0.13397959 -0.38303968 -0.051982474 0.15908258 0.12476755 0.020920096 0.06086447 0.13365056
0.2635382 0.3165932 0.16508986 0.4195472 -0.25602528 0.29568762 0.007843986 -0.1675441
0.2648921 -0.13721283 0.024475902 -0.15016541 -0.18890503 -0.24637732 0.20928416 0.3531188
-0.044943213 -0.12969032 0.31225678 0.086250156 0.1371758 -0.26626396 0.043435697 -0.041062735
0.29479298 0.29690638 0.23213036 0.058175333 -0.07873216 -0.0071561 0.2526429 0.1662986
0.05064268 0.12246206 -0.1393524 0.16066469 -0.04823551 0.24363914 0.23663567 -0.0896694
-0.35173163 0.12099145 0.17127535 0.2926362 -0.2985424 -0.1669385 0.16034031 -0.18762513
-0.29048505 0.07861596 0.021220446 0.15369438 0.21266599 0.112761594 0.30218917 0.1381962
0.106222786 -0.03141706 -0.17598242 0.18738484 0.3577319 0.07346157 -0.3074979 0.24929489
0.266588 0.042721704 -0.16391191 -0.09817221 0.24591306 0.20937127 -0.069258384 0.10200262
-0.047421083 -0.2694372 0.1945101 0.00018440554 -0.30801085 0.09947786 0.19325279 -0.2883676
-0.07798381 -0.3157789 0.08844573 0.09006833 0.19312958 -0.013347435 0.30875468 -0.22695069
-0.07992015 -0.12090383 -0.17300993 0.24146317 0.11430351 0.13554725 0.043210056 -0.18844624
-0.025033323 -0.26890364 0.35937726 -0.1829082 0.0964894 0.07976779 -0.02110745 -0.055259507
-0.10421709 0.31847027 0.25757942 -0.17829666 0.2532911 0.053849015 -0.1960941 -0.12170658
-0.22369371 0.01592215 -0.3376542 0.046685625 0.2675753 0.028931748 0.14556234 -0.09912913
0.30813643 0.15359527 -0.112780735 0.12255798 0.4428761 -0.2029509 0.10445565 -0.11653512
-0.23122033 -0.2183316 0.036627743 0.2957783 -0.11841742 0.2525066 -0.12860222 -0.2554023
-0.26320797 -0.13283134 0.10538415 0.18938307 -0.16621587 0.20568661 0.16099843 -0.11210578
-0.3676496 -0.38658324 0.22372289 -0.27293587 -0.21559681 0.03490419 0.07522602 0.21548137
-0.2613878 0.21569322 0.13190211 -0.051043473 0.0023043873 -0.06320763 -0.1653474 -0.2307477
0.07017475 0.22168036 0.109916225 0.22463834 -0.2771376 0.23138042 0.21711397 0.05703034
0.3043812 -0.23901184 0.060823813 -0.16915448 -0.083805546 0.40845174 -0.10493936 0.10370977
0.028889317 0.0009650925 -0.09292936 0.08253765 0.2456558 -0.2458149 -0.3458149 -0.08387305

conv3.bias f4 [32]
00000000: 2ac6 2b3c 4479 213d 7c77 8dbc 2f99 d13c
00000010: ad5f 4e3b 0ce2 fbbc 6a55 ddbc 26af f13c
00000020: f318 10bc 75dc 563c b700 e73c 0e88 0ebd
00000030: bd94 de3c 10e5 7dbb 64a9 0dbd 72a2 d33c
00000040: 2fd3 3ebc 6752 e33c 9fdf c1bb c91f 0d3d
00000050: 97f8 96bc 8c27 903b d251 f83c d5ff d1bc
00000060: 127b 74bc f602 1ebd 5220 bebc 1bdf bb3c
00000070: de46 0e3d 04ea 483b 4ca9 c93c 61bb 163d
0.010484258 0.03942229 -0.017268889 0.025585739 0.0031490133 -0.030747436 -0.027018268 0.029502463
-0.008795011 0.0131140845 0.028198583 -0.03479772 0.027170533 -0.0038741268 -0.03458537 0.025834296
-0.01164703 0.027749253 -0.0059165503 0.03445414 -0.018429084 0.0043992456 0.030312452 -0.025634686
-0.01492192 -0.038577043 -0.02320877 0.022933533 0.034735553 0.0030657062 0.02461686 0.036799792

conv4.weight f4 [32, 32]
00000000: 4db3 a03e 29c2 f13d 6a8d a4bd 5007 303e
00000010: 1e17 52be 3be9 193e 0d1d fe3d f185 61bd
00000020: bb93 00be bfca 6e3d a364 633e f440 743d
00000030: ea01 87be 063d 42be 8c8f ddbb 4150 0c3e
00000040: becc 193e 16c3 423e a6df 8a3e 8684 72bd
00000050: e9e2 0abe 3813 40be cf88 17bc 13b5 923e
00000060: 6421 933d 106a f73d 4b63 653d 169c 61be
00000070: 62e0 a9bd 1058 17be 6712 85be b200 473e
00000080: 66ec 233e 8353 d23c 0204 6cbe 78e3 ea3d
00000090: ad0b 6fbe 0c44 72be 186a 453d 29b9 643d
000000a0: e1c9 bb3d 61f8 893e 4483 973e 9db8 8dbc
000000b0: 6f9e 4e3e 4276 9cbe 05a6 343e 210e 9fbe
000000c0: 38a0 aebd 1074 643e 908c 94bd 196e 34be
000000d0: 811b 893d ab7f 403e 7c61 f83d a322 193e
000000e0: b77f b6bd c592 ac3d 574a 4dbe c387 11bd
000000f0: eae3 023d 2373 6abe 0aeb 763d d735 fdbd
00000100: 2174 3abe 0cfd 87be b35e 543d bfb7 603e
00000110: 5efc 913e f51c 933e 0b36 93be bb03 263e
00000120: c70c 733e 5d12 fe3d f4bd 643e 5c96 9f3e
00000130: 9acd 583e ae12 c33c a433 7abe 4671 603b
00000140: ee52 6cbe 1ef5 993e 016e 6d3e 4e8b 51bd
00000150: 6b6a 813e f5ec d1bd e043 61be 1bae 003e
00000160: 4a89 903e 28fa 813e 48c1 223e 8442 113e
00000170: ac7b 3e3e 1aa9 0a3e 7c7a 7bbe c5f9 a6bd
00000180: 8ff7 723d 8975 643e 7336 d1bc 9eae 003e
00000190: 1316 8bbe 22c6 1abe 858b e43d 2dd3 9f3d
000001a0: 247c 553d bd4a cd3c 7263 3c3e b0f1 a9bc
000001b0: a222 4d3e 365e 9d3e 177f 07bd 1d51 66be
000001c0: 1249 343d 3ad2 093e 3205 2a3e b6be 91be
000001d0: ef71 66bc d88d 053b 4782 c93d a2f8 30bd
000001e0: 69be 7e3e 8f00 99bd 0cbf 5d3e 71c4 7cbe
000001f0: 33d4 8f3e 6ab5 863d 60ee 32be df75 463e
00000200: 2e6d abbd 5960 39be 497d cabd 0afa 993e
00000210: 371e 903e 1f13 8b3d 4a90 11bd 10fb 13be
00000220: 0966 b8bd 3621 94be 0f4a a8be 4cb2 d8bd
00000230: 52e6 783e b91d b43c 3f25 81be 909c aebd
00000240: 56bd 403e 78d9 6d3d 88b9 a23d 44bf 9cbe
00000250: 80df 7dbd c011 8b3e 8f86 e5bd 5e8d fcbd
00000260: d6d6 82be 2471 243e eb2e 883d 7696 0d3c
00000270: f19c 693e cd51 313e 4e17 313e 3a57 373e
00000280: e899 dfbc 9bb4 f1bd 9891 18be fc06 1f3d
00000290: a605 78be a1f2 f1bd 0579 41be b9d7 f03d
000002a0: cca0 fc3d b553 40be 3849 c73d 51dc f73c
000002b0: f971 713e b93a 743e 527d 443e 0c19 5a3e
000002c0: 34ed d33c 5083 843e 6e24 94be 4c26 5b3e
000002d0: 734f 7b3e b186 1d3e 4d37 c6bd f586 70bd
000002e0: ca27 183e 4297 7e3b 636c 623e f088 c83d
000002f0: 03ea 3d3d 4a00 9bbd 50f6 92be 9040 6fbe
00000300: 9eec 8bbe 4a0e 87be 6ee7 5ebe ac5a 99bd
00000310: 19f6 4b3e ff11 6e3d 151f 153e fcb0 76be
00000320: 1d3c 863e 9431 7c3e fda0 853e 2e79 09bd
00000330: 3d1d 113c b065 663d aac5 febd bbdf f33d
00000340: e25f 4cbd 3a4c 72be 78ec acbd bf87 a83e
00000350: aa6d fb3d c8d0 043e f28a 553d e68f 903d
00000360: 478e e83d 5ec3 44be c9d8 3f3d edb8 ebbd
00000370: 587a 5bbe 9de4 6ebe a81f 8dbd 31d5 8dbe
00000380: 645b 93be ea90 833e a49f fd3c 61e8 91bc
00000390: 1e18 6abe 0641 653d 32bc 813e dd12 993e
000003a0: 02a1 78be c029 b7bd 4bd5 813e d8db 993e
000003b0: f28a 903e 0cfa 8ebe b572 77be ae6d 16be
000003c0: 261f 043e 6780 8bbe 60b7 5a3d 5f4e 2d3e
000003d0: 271d 9a3d fa49 5dbd dd0b 0f3e e848 343d
000003e0: de87 1c3e e8da 36be 1e87 583e 58f5 893d
000003f0: 1684 84be 2993 c83d ab22 65be 0a4b 823e
0.31386796 0.11804611 -0.08034785 0.1719029 -0.20516631 0.15030377 0.12407885 -0.055059377
-0.12556355 0.058298822 0.22206359 0.059632257 -0.26368648 -0.18968591 -0.006761497 0.1370249
0.15019509 0.19019732 0.27123755 -0.059208415 -0.13563122 -0.18757331 -0.009248926 0.28653774
0.07184103 0.12080777 0.056002896 -0.22032198 -0.08294751 -0.14779687 -0.25990602 0.19433859
0.16008148 0.025674587 -0.23048404 0.114691675 -0.23344298 -0.2365877 0.048196882 0.055840645
0.09169365 0.2694731 0.29592335 -0.017299945 0.20177625 -0.30558974 0.17641456 -0.31065467
-0.08526653 0.223099 -0.07253373 -0.17620124 0.06694699 0.18798701 0.12127969 0.14954619
-0.089110784 0.084264316 -0.2004789 -0.035529863 0.031955637 -0.22895484 0.060282744 -0.12363785
-0.18208362 -0.26560247 0.051848125 0.21945094 0.28512853 0.2873303 -0.2875217 0.1621236
0.23735343 0.12405846 0.22338086 0.31169403 0.21172181 0.023812618 -0.24433762 0.0034247204
-0.2307851 0.30069822 0.23186494 -0.051158242 0.25276503 -0.10250274 -0.21998549 0.12566416
0.28229743 0.25386167 0.15894043 0.1418553 0.18601865 0.1354107 -0.24558443 -0.081531085
0.05931812 0.22310461 -0.025538659 0.12566611 -0.2716528 -0.15114644 0.11159424 0.078039505
0.052120343 0.025060052 0.1839731 -0.020745128 0.20032743 0.3073594 -0.033080187 -0.2249188
0.044014998 0.13459101 0.16603544 -0.28465813 -0.01406525 0.0020378735 0.098393016 -0.043205865
0.24877323 -0.0747081 0.2165491 -0.24684311 0.28091583 0.06577571 -0.17473745 0.19380902
-0.08370434 -0.1810316 -0.098871775 0.30073577 0.28148052 0.067907564 -0.035537995 -0.14451241
-0.09003837 -0.28931588 -0.32869002 -0.105808824 0.2430661 0.02198683 -0.2522373 -0.08525956
0.18822226 0.058068722 0.079455435 -0.30614674 -0.061980724 0.2716198 -0.11207306 -0.12331651
-0.25554532 0.16058785 0.06649574 0.00864183 0.22813775 0.17316361 0.17294046 0.17904368
-0.027295068 -0.11802026 -0.1489929 0.03882502 -0.24220905 -0.11813856 -0.18893822 0.11759896
0.12335357 -0.18781932 0.09730762 0.030256422 0.23578633 0.23850526 0.19188431 0.21298617
0.025869943 0.25881433 -0.28934044 0.21401328 0.24542026 0.15383412 -0.096785165 -0.058722455
0.14858928 0.003884748 0.22111659 0.09791744 0.04636575 -0.075684145 -0.28703547 -0.23364472
-0.27328962 -0.2637809 -0.21767971 -0.074879974 0.19918098 0.05812263 0.14562638 -0.24090952
0.26217738 0.24628288 0.26099387 -0.03356283 0.008857069 0.05624932 -0.12440045 0.119079076
-0.04989613 -0.2366189 -0.0844354 0.32916066 0.12276776 0.12970269 0.05213446 0.070586964
0.11355262 -0.19215152 0.0468376 -0.11509881 -0.21433389 -0.23329397 -0.068908036 -0.27701715
-0.28780663 0.25696498 0.030959912 -0.017811002 -0.22860762 0.055970214 0.25338894 0.29897204
-0.2428017 -0.0894351 0.25358042 0.3005054 0.28231007 -0.27925146 -0.24164851 -0.14690277
0.12902507 -0.272464 0.053397536 0.16924427 0.075250916 -0.054025628 0.13969369 0.04401484
0.15286204 -0.17856944 0.21145293 0.06736249 -0.25882024 0.097936936 -0.22376506 0.25447875

conv4.bias f4 [32]
00000000: 3f4e 17bd 583d 193d 340c 64bc dfd0 383d
00000010: bb8d 27bd ad8a 2d3d 1e62 32bd ae07 8c3d
00000020: 22c6 f1bc 4ff9 b5bc 71f1 3a3d 83b7 6dbd
00000030: 1815 073d d713 40bd 2a8d 1bbd e009 28bd
00000040: b785 0a3d 02dc c53c 8a7b 033c 4764 113c
00000050: 6905 983b 9bf7 393a 12b0 3a3d 9c51 e7bc
00000060: 66ed 053b edc1 2fbd d55c 59bd bf6f 0e3d
00000070: a1a4 353d 888f 33bd db55 313d 1b60 173d
-0.036939856 0.037412018 -0.013918925 0.04512107 -0.04090665 0.04236858 -0.043550603 0.06837402
-0.029513422 -0.022213606 0.045640413 -0.05803634 0.0329791 -0.04689392 -0.03797642 -0.041025043
0.033818927 0.02415276 0.0080250595 0.008874006 0.004639317 0.0007094086 0.04557807 -0.028237157
0.002043569 -0.04290955 -0.053067047 0.034774538 0.044346455 -0.043838054 0.04329477 0.036956888

conv5.weight f4 [32, 2]
00000000: 38ad 87bd 191e 98bd 053d f33d 6201 c03e
00000010: 8c1d ad3d ec9e 79be ea6d 553e 94c0 0e3e
00000020: 1ce9 f8bd 12d7 e4bd d65e 5f3e 87bb a93e
00000030: 7fbf 5bbe 048a 2cbe ba67 c73e c2b8 a2be
00000040: 578d e6bb ad71 0dbe 7440 833d 25bc 60be
00000050: a43e 693e 4aeb ad3e 0470 aebe ff95 313e
00000060: 9830 5f3d 91f7 bf3e 23f8 97be 3ea8 9abe
00000070: df07 d2bd db9f 84be 4bde 11be 318f 6fbe
00000080: a393 423d d1b6 063e 8769 cfbc f31d aa3b
00000090: 4107 623e 1430 a8be 8cc9 e0bd 2d88 ac3e
000000a0: d707 163e 777b 92be 01f5 323e 6dbe 98be
000000b0: 80f0 943e e827 613e f221 4b3d ea8b 94be
000000c0: 4316 5abe 0c1c b13e 6cf3 91be 0092 acbe
000000d0: a38e c0be b370 72bc 8f95 283e 7a2e 72be
000000e0: 52ef 993e 213b 963e 95d3 56be 5d84 53be
000000f0: 9f29 7e3e 7c18 743e ada6 a33d 3ede 403e
-0.06624836 -0.07427616 0.11876873 0.37501055 0.08452901 -0.2437703 0.2084271 0.1394065
-0.12153837 -0.11173834 0.21813521 0.33150885 -0.21459769 -0.16849524 0.38946325 -0.31781584
-0.007035892 -0.13812895 0.06408778 -0.21946771 0.22777802 0.33968574 -0.34069836 0.17342375
0.054489702 0.37493566 -0.296815 -0.30206484 -0.102554075 -0.2590321 -0.14244954 -0.23394467
0.04750408 0.13155676 -0.025318874 0.0051915585 0.2207308 -0.3284918 -0.10975942 0.33697644
0.14651428 -0.2860982 0.17476274 -0.29832783 0.29089737 0.2198788 0.04959292 -0.29012996
-0.21297555 0.3459171 -0.2850603 -0.3370514 -0.37608823 -0.014797377 0.16463302 -0.23650542
0.300654 0.29341987 -0.2097915 -0.20655961 0.24820565 0.23837465 0.07990775 0.18834779

conv5.bias f4 [2]
00000000: e34f 7d3d e36f 513d
0.061843764 0.051132094
