GST-recon/checkpoints/best_twomoon_CapsulePool.pth (torch, 24666 bytes, 17 tensors)

conv1.weight f4 [2, 32]
00000000: 39c4 8f3b adff 88be 6280 883e c102 8e3d
00000010: ef99 86be 00cf 98bd fcac 84be e1c3 143e
00000020: 2100 24bd 912d c03e c87d c73e f5f6 17bd
00000030: 904e edbd 40ce 74be 1540 a5bd 0958 92bd
00000040: 180a ff3e f8e0 babe 5c5d bf3e 59d0 76be
00000050: b818 f63e ed4f 9abd 72d6 233e 9242 633e
00000060: 7830 1dbc 4760 b83d 2f4e e73e 3159 353e
00000070: 0133 873e ce4d d6be d0a6 833e e579 da3d
00000080: 0a18 993e 907b 0a3e bf96 4c3e 7f03 263f
00000090: 66b4 51be a0e5 18bf c2e3 e0bd f579 babe
000000a0: 6931 943e 72d7 bdbd 0564 25be 3572 813e
000000b0: c1d9 173f c15a d33d 9a11 d3bd c472 70bc
000000c0: 83b9 d53e 55f8 11bf 8f9e 1abf e84d 183f
000000d0: 0b0d 143f 2f6f a0be 84db 90be dcdb 8b3e
000000e0: 3d18 b5be 7ad4 bcbd 85f3 b33e 62e8 3f3e
000000f0: 596a 4c3d 21dd 1d3e bb2f 73bb b83d 2dbf
0.0043874052 -0.26757565 0.26660448 0.06934119 -0.26289317 -0.07461357 -0.25913227 0.14527847
-0.040039185 0.37534764 0.3896315 -0.03710075 -0.1158725 -0.23906803 -0.08068863 -0.071456976
0.49812388 -0.36499763 0.37375915 -0.24102916 0.48065734 -0.07534776 0.15999773 0.22193363
-0.009594075 0.090027384 0.45176837 0.17709805 0.264061 -0.41856235 0.25713205 0.10667781
0.29901153 0.13523698 0.1997938 0.64849085 -0.20478973 -0.5972538 -0.10980941 -0.3642117
0.28943947 -0.092696086 -0.16151436 0.25282446 0.5931664 0.10320044 -0.103060916 -0.0146758
0.41743097 -0.5701955 -0.6039819 0.59493876 0.578324 -0.31334826 -0.28292477 0.27316177
-0.35370055 -0.09220214 0.35146728 0.18740991 0.04990611 0.15416385 -0.0037107307 -0.676723

conv1.bias f4 [32]
00000000: 8e2b 7a3f d580 8fbe baa7 7d3e faff 893d
00000010: d428 893e 7c7a 163f 2323 193f 1815 babe
00000020: 2a14 3e3f 9b34 1fbd 2bc8 de3e 3efd 9c3e
00000030: c51a b8be 27b7 ccbe 15e5 7abf 649a 933f
00000040: 9763 183e f762 323e d5bc f2be 6343 aebe
00000050: 6262 913d e2df d8be f638 abbe 746a 193f
00000060: e892 353f 945d 8bbf a3bb 0dbe b5aa 75bd
00000070: a98f 0f3f 138f e5bd dfd0 0ebf 820e 8b3e
0.9772271 -0.2802798 0.24771014 0.06738277 0.26788962 0.58780646 0.5981924 -0.36344218
0.7424952 -0.038868528 0.4351209 0.30661958 -0.35957924 -0.39983484 -0.980058 1.1531491
0.1488174 0.17420565 -0.47409692 -0.34035787 0.07098843 -0.4235831 -0.33441895 0.5992806
0.70927286 -1.0887933 -0.13841109 -0.059977252 0.56078583 -0.1120893 -0.5578746 0.27159506

conv2.weight f4 [32, 32]
00000000: d1f1 16be 40af d339 df43 0abf a682 93be
00000010: ae9c 993d b249 403f 4565 7f3c 4c7e b2be
00000020: 658e d63d e81a a2be f85a 033e 2291 253f
00000030: f882 bd3d 1df9 383d a3d3 3bbe 402f d1bd
00000040: 51a6 be3d b2f8 52bd 08cc 5abe aeb6 593c
00000050: 3e4b 8dbe 65b4 ed3d 6238 313f 0778 103f
00000060: 3d21 bcbe cae8 0b3f 8aba 80be 73cb 03bf
00000070: 311e 2ebe 6fdc e93e c4cf 71bf 6a6d b93e
00000080: 5b85 c9be 491f 4d3e c345 4b3f 8bc2 b63d
00000090: 392f c0bd afd3 e3be 8d45 53be ff92 1b3d
000000a0: d5d9 793d f0d8 55be 3d72 873e 8ba0 29be
000000b0: a6b7 95be 4636 b73e f931 71be fbf6 503e
000000c0: dd4f 60bd d20a dfbc acc6 053e 0946 6cbe
000000d0: 34e4 67be 2ea9 42be 2970 f1bd 46f3 3f3d
000000e0: 08c1 5b3e ce93 1abe 4fb2 273e b874 32be
000000f0: e1d7 053e ba62 91be e2a1 5bbf c2fd 5fbe
00000100: 6e08 363e 8ff6 2f3e be68 2dbe 4d48 893d
00000110: 7d3a 8dbe 9e42 603e 3724 8a3e 017f 493d
00000120: 2160 22bf 0514 273e 3678 493e 33fe 183d
00000130: dbc3 acbd bfa0 633e 4b6a 473d 1298 4c3e
00000140: 700b 48be ed1c 6fbe 027d b4bd 9960 6cbd
00000150: 30fd 043e a068 1b3e df00 29bd ecf3 2ebe
00000160: 8458 ecbf 9261 473e 8e63 ab3e 0366 0ebd
00000170: baca 98be 3dd0 3f3e e11d 093f 052c b43e
00000180: 44d5 2ebe c543 a43d 482f 4d3d 7d87 4abe
00000190: 0b24 833e f355 b3be 2519 f9bc c58a 19be
000001a0: 441f 333d c3c1 a73d 99ac cb3d 4d46 a2bd
000001b0: 0ce9 453e 07bf f73e c6fd 6dbe 9d82 043e
000001c0: 8056 69be 8c82 1bbd 26d3 6d3e 6fc5 62be
000001d0: 33a1 1a3e 0301 323e 88ed 343e d008 893e
000001e0: f2a6 efbe 95e1 413a 0b81 12be 11ae ab3e
000001f0: 3938 8b3e 92e9 763d 7063 dabd 6dd9 843f
00000200: cb55 3f3e 6399 b7be e05b 39bd 99ac a0be
00000210: 435e a13d 0748 88bc d32c 863b 283f 9cbe
00000220: f275 373f 488e 1e3e c7b6 563d 4191 91be
00000230: 9e21 cabd f5ac 39be b32d d6bd 876a 1ebe
00000240: 9a67 85bd f5e9 923e 77b2 a8be 01b3 373e
00000250: c377 82be 9a04 463e cd3c 3f3e 7fb8 efbd
00000260: 9cb6 543f 4db3 c43d 7326 32bd 3834 76be
00000270: b99c a73c a917 2cbb d095 10bf 5c2d 93be
00000280: 5bad bf3d 148c 8ebe 0cdd 8fbe 11a3 91be
00000290: a0eb f1be aae4 ce3d 93b6 8ebe 52ca 24bd
000002a0: d644 c63e 12b2 583e d95a c33e 9540 833d
000002b0: f2ef 773e 32d0 cdbe 7ee6 863e 114d abbe
000002c0: a356 98bd bffa 903d 7fa0 acbe 37c7 fcbd
000002d0: 3cf0 993b 90fd 913e 64aa a5be bef6 c1be
000002e0: 8a74 963e 3f0e c93e 6a21 c3bc 7627 adbe
000002f0: 4021 82be 1ae7 d73e 3795 80bd 846d 94be
00000300: 5665 bdbc 0863 033e d99d cdbe da93 d3be
00000310: a31c 19be 47b6 c73e 09c3 19be 2aee b4be
00000320: 0461 e33e 35f3 10be 6738 2a3e 659d 66be
00000330: 03b5 e9bd 4ed0 623e 8ea9 aebe 038f 4abe
00000340: 6a0c 4cbe a470 943e 8016 03bf 63a9 91bd
00000350: 1642 91be cd05 6cbe f6b3 933e a6ae 0d3e
00000360: 6811 a63e 9e32 833e 450e 99be 1ae6 4bbe
00000370: 5966 94be c7e1 153d c49c 35bf bc8e efbe
00000380: 0968 d93e d0c6 d6bd 5177 1cbe 3fbc 2c3d
00000390: 3d35 c1be da79 34bd 8ea0 a93d ae95 963e
000003a0: b7bc 36bd c3ec 9c3e 0055 94be 267a 303b
000003b0: 93ba 8d3e af4c c9be 3e83 143e ea5d 2e3e
000003c0: 950e 953e 263e 11be 7ef5 debd d901 95be
000003d0: 0b71 d93d 4100 8dbe 8ffd 0d3b 231a e7be
000003e0: 0807 f9bd c2a3 9bbd ba1a 463e 8c60 9c3e
000003f0: ee6b 76be 06bf 863e d849 973f 1f06 f0be
-0.14740683 0.00040375628 -0.54009813 -0.28810614 0.075005874 0.7511245 0.015588109 -0.34861982
0.10476378 -0.31661153 0.1282767 0.6467458 0.09253496 0.045159448 -0.18342452 -0.1021409
0.09309066 -0.051506706 -0.21366894 0.013288183 -0.27596468 0.11606673 0.6922666 0.5643315
-0.3674411 0.5465208 -0.25142318 -0.51482314 -0.17003705 0.4567599 -0.9445765 0.3621629
-0.39359555 0.20031466 0.7940332 0.08923825 -0.09384007 -0.4449744 -0.20632 0.037981983
0.060998756 -0.20883536 0.26454344 -0.16565149 -0.29241675 0.35783595 -0.2355422 0.20406716
-0.054763664 -0.02722684 0.13064069 -0.23073591 -0.22645646 -0.1900985 -0.11788971 0.046862863
0.21460354 -0.15095446 0.16376613 -0.17427337 0.13070633 -0.28395635 -0.8579389 -0.21874145
0.17776653 0.17183898 -0.16934487 0.067032434 -0.27583686 0.21900412 0.26980755 0.049193386
-0.6342793 0.1631623 0.19674763 0.0373518 -0.08435794 0.22229289 0.048685353 0.19979885
-0.19535613 -0.23350878 -0.08812906 -0.05770931 0.12987208 0.1517663 -0.041260596 -0.17085236
-1.8464513 0.19470814 0.33474392 -0.034765255 -0.29842168 0.1873178 0.53561217 0.35189834
-0.17073542 0.080207385 0.05009392 -0.19778247 0.25613436 -0.35026512 -0.030407498 -0.14994343
0.04373099 0.08191254 0.0994503 -0.07923565 0.19327182 0.4838793 -0.23241338 0.1294045
-0.22786903 -0.037966296 0.23225078 -0.22145627 0.15100555 0.17383198 0.17668736 0.26764536
-0.46807057 0.000739598 -0.14307038 0.3353124 0.27191332 0.060281344 -0.106634974 1.0378853
0.18685071 -0.35859212 -0.045253634 -0.31381682 0.07879307 -0.016635908 0.004094699 -0.30516934
0.71664345 0.15483963 0.052420404 -0.28431132 -0.09869693 -0.18132384 -0.10457935 -0.15470324
-0.06513901 0.2869412 -0.32948658 0.17939378 -0.25481996 0.19337693 0.18675537 -0.11705112
0.8309114 0.096045114 -0.0434937 -0.24043357 0.020460473 -0.002625922 -0.56478596 -0.28745544
0.09359237 -0.27841246 -0.28098333 -0.28444722 -0.4725008 0.10102208 -0.27873668 -0.04023201
0.38724393 0.21161678 0.3815525 0.064088024 0.24212626 -0.40197903 0.26347727 -0.33457235
-0.074384 0.07079076 -0.337162 -0.12342685 0.0046978276 0.28513765 -0.3235656 -0.37883562
0.29385787 0.3926868 -0.023819644 -0.3381917 -0.25415993 0.42168504 -0.062784605 -0.28989804
-0.02311961 0.12830746 -0.4015949 -0.4132374 -0.1495233 0.39006254 -0.15015806 -0.35337955
0.44409955 -0.14155276 0.16623078 -0.22520979 -0.11411478 0.22149774 -0.34113735 -0.19781117
-0.1992661 0.28992188 -0.5120621 -0.07112386 -0.28370732 -0.23049088 0.28848237 0.13836154
0.32435155 0.25624555 -0.298937 -0.19911996 -0.28984335 0.03659227 -0.7094233 -0.46788585
0.42462185 -0.10487139 -0.1527989 0.042171713 -0.3773593 -0.04406152 0.082825765 0.29411072
-0.044613566 0.30649385 -0.289711 0.0026928275 0.27681407 -0.39316317 0.1450319 0.17028013
0.29112688 -0.14183864 -0.10886668 -0.29102972 0.10617264 -0.27539256 0.0021666025 -0.45137128
-0.12159544 -0.07599594 0.19346133 0.3054241 -0.2406461 0.26317614 1.181941 -0.4687967

conv2.bias f4 [32]
00000000: 53d6 91be 0a24 94be 54c5 6dbe 9f7f 11bf
00000010: dbf3 4fbf 342a aa3e faa9 503e 228b 6740
00000020: 2827 493d bcfd 8cbe 8118 e53e 0596 8f3d
00000030: 9645 0e3f 5c32 a8be e823 823d 0e8c b43d
00000040: dec5 9cbd 6c5a 28be 895d 6abe d76d a9bd
00000050: 20d7 89be 4c6b a73e f1c2 02bf 0c29 333e
00000060: 9114 81be aa8f 613c 6157 99be 2f51 a6be
00000070: 40f0 babe 38a9 e8be f9ec 50bf 7af4 f13e
-0.2848383 -0.28933746 -0.23219806 -0.5683536 -0.8123147 0.33235323 0.20377341 3.617867
0.049109608 -0.27537334 0.44745257 0.07011036 0.5557493 -0.3285092 0.06354505 0.08815776
-0.07654928 -0.16440743 -0.22887243 -0.082729034 -0.2692194 0.3269905 -0.51078707 0.17496127
-0.25211003 0.013767162 -0.29949477 -0.32483813 -0.3651142 -0.45441604 -0.8161159 0.47256833

pool.gcn_transform.weight f4 [32, 32]
00000000: b995 063d b42d 773d 721a 7b3e 42f3 c4bd
00000010: 3734 053e 7f9d d73c 3d5c 92bd 490f 2abe
00000020: 5e43 2c3e d3b3 303e 0776 e53d ec85 90be
00000030: 1dd3 85be 3c4d 32bd b287 563e a823 283e
00000040: 207d d83d c2a3 983e f15b 88bb fcbb 68be
00000050: c2b3 8fbe 4f32 b2bd c967 8c3e 6c36 8e3d
00000060: 96df 3dbd e5cb ba3d 2640 98be b3d7 a3bd
00000070: 7452 35be cc7c 6bbe 4226 9c3e 63be 9f3e
00000080: a1ac a83b ccd7 44be 9d17 313e 4a87 41be
00000090: 8b50 9dbe 163f 333d 1e45 a83d 0ef7 993d
000000a0: 08a3 a93e c40f d33c d8cd 64b9 3b52 c23d
000000b0: 1dcc 42be d48b 9f3d e633 83be caf0 c4bb
000000c0: 430c d63d 3fb9 503d acfb 3cbe fd50 443d
000000d0: 1bf2 2a3e aeac 17bc 1657 0b3e 40ca 0bbe
000000e0: 41cd b93d 3232 10be 642a 84bc d9b4 4b3e
000000f0: 2ac0 80be 3342 7abc 1986 babd 8e49 7dbd
00000100: 64d5 94be 5f48 0cbd bfc8 dd3e 5ae8 d23e
00000110: 3b87 b63e 6d7b 19be 9b65 d53e c946 163d
00000120: 9a64 943e 1c6e 8a3e 51a7 8d3d 1c32 a43d
00000130: a6e3 3b3d 8bc3 65be aa6e 8cbe 6fe6 d2be
00000140: 949a 743e 8372 063f 8125 8fbe e428 d93e
00000150: 18c5 443d 0076 8cbd e5da 713d 165c 043f
00000160: eca6 083f 3f1a 833e 967e 9ebd 71f2 8f3d
00000170: 3d55 913e f2bc a4be a90e 7abe b208 e23d
00000180: 3ed8 1d3e bc34 083e 5457 f63d 3e73 8ebe
00000190: 7fcd 70be 4c40 9d3d 0ecc 0c3d 18d6 e53d
000001a0: ba1d b83d fb4e 343e d62c cf3d 80f2 483e
000001b0: cc22 5a3e a5b5 86bd 4334 54be 6980 063e
000001c0: b941 393d e320 1d3e c2cf 30be ab42 95bd
000001d0: dc3c 1fbe 1aaf 9d3c db98 393d 72c0 133e
000001e0: e66c 9abe fe8f 223e 9f7f 9fbe 7468 a33e
000001f0: 9862 6dbd 45a8 3bbe a63c a13e bce2 dcbd
00000200: c752 d5bd 9e31 99be 8e6b c13e f48e 993e
00000210: 60d8 c43d ec8a a63d 6330 abbd d66f 91be
00000220: 8924 6bbe 3689 78be 6b94 6ebd 844a 3f3e
00000230: fc67 0bbd e192 6ebe 78ba 79be 3f7d 2a3e
00000240: 72b5 d33d 48ec 4b3e e4bb a0be 99ae b5bc
00000250: e461 a23e 381e abbc 7e84 53be e8ab 86bd
00000260: 5d92 a13e 1740 e53d 7002 a4be 96a4 6b3e
00000270: a037 503e b974 b73d 2b37 373d b113 8bbd
00000280: 78f0 fabd 420a ccbc 60a5 1dbe fe86 8dbe
00000290: d7ef 36be 8a29 c3be 1129 cdbd 7fb4 a13e
000002a0: f64e 94be 9b92 813d f13b 1b3e 4e90 af3e
000002b0: 08cc 923e 5ddd 883e 5a7a f23e b353 d73d
000002c0: 294c 933e 121e 07bf 7f08 b43e 18e8 fa3d
000002d0: 5161 113d 616b 3cbe 37dd 063d 41db 64bd
000002e0: d37c 90be f892 113e e115 ed3e 8a96 063d
000002f0: b943 21be b078 3fbe 7352 1bbe 82ab a7be
00000300: 5db8 72be 8c6e 5dbe da2e 97bc e01c 4f3e
00000310: 2c16 033d 134b b93d 49ea 8bbe e033 653e
00000320: 6b9f b33e 26ca f93c 3b28 d5bc 9b5d b5bd
00000330: efe8 3d3e a0d8 51be 4291 3e3e c6e5 84bc
00000340: f96e 90be 0749 4dbd 8fa8 af3e 1c70 b33d
00000350: 5a6b df3d 0789 b3bd e61c a3b9 9f27 af3d
00000360: cd32 41be 05b9 093e c00b efbb f666 dbbc
00000370: 7319 84be 2ffa 05be 5a9c 83be 2ab8 4ebe
00000380: be4e 513e a1f9 2c3d b16f 913e b834 e1be
00000390: 6a22 473e 07a1 053f a9ca 5e3f e8d0 59be
000003a0: 3cad b1be b5c2 c33d 3a38 653e 1846 873e
000003b0: f95b 2fbf fada 4abe cb3d 80be 8588 973e
000003c0: 666b ddbe 7409 c53e c8bf a13e cb58 463e
000003d0: dcf5 83bc ab1d 9f3c 81d7 15be 315d 9a3d
000003e0: e6f8 c0be 9893 ac3e 0f81 4ebf d3dd 823e
000003f0: 9cb0 dbbb 7c07 90be 054f cf3e 37c1 fe3d
0.03285763 0.06034632 0.24521807 -0.0961671 0.130082 0.026320217 -0.07146499 -0.16607393
0.16822574 0.17256097 0.112041526 -0.28227174 -0.2613763 -0.043530688 0.20950201 0.16419852
0.10570741 0.29812437 -0.004161351 -0.2272796 -0.28066832 -0.08701002 0.27422932 0.06943974
-0.046355806 0.09120921 -0.2973644 -0.08000126 -0.17707235 -0.22996825 0.30497938 0.3119994
0.005147532 -0.19222945 0.17294164 -0.18899265 -0.30725512 0.043761335 0.08216308 0.07517825
0.33132195 0.025764354 -0.00021820457 0.094883405 -0.19023176 0.07790342 -0.25625533 -0.0060101496
0.104515575 0.050957914 -0.1845538 0.0479288 0.16693918 -0.009257479 0.1360744 -0.13651371
0.09072352 -0.14081648 -0.016133495 0.19893207 -0.2514661 -0.015274572 -0.09107608 -0.061837725
-0.29069054 -0.034248706 0.4331722 0.41192895 0.35650048 -0.1498849 0.4167908 0.0366886
0.28983003 0.27037132 0.06916679 0.0801737 0.0458714 -0.22437875 -0.2742818 -0.41191432
0.23887092 0.5251848 -0.279583 0.4241401 0.048039526 -0.06858444 0.059046645 0.5170301
0.533797 0.25605962 -0.07738988 0.07028664 0.28385344 -0.32175404 -0.24419655 0.11036815
0.15414521 0.13301367 0.12028375 -0.27822298 -0.2351589 0.07678279 0.03437429 0.11222476
0.08990045 0.17608254 0.10115974 0.19623756 0.21302336 -0.06577615 -0.20723061 0.13134922
0.045228694 0.15344577 -0.17266753 -0.072881065 -0.1555056 0.019248534 0.04531179 0.14428881
-0.30161208 0.15875241 -0.31152055 0.3191563 -0.057955354 -0.18325908 0.31491584 -0.10785434
-0.10416179 -0.29920667 0.3777737 0.29991877 0.09611583 0.08131966 -0.083588384 -0.28405637
-0.22963156 -0.24271092 -0.05824701 0.18680769 -0.034034714 -0.23298217 -0.24387538 0.1664934
0.10337342 0.19914353 -0.3139335 -0.022177981 0.3171531 -0.020888433 -0.2065601 -0.06575757
0.3155698 0.11193865 -0.3203311 0.23012003 0.20333719 0.0895781 0.044730347 -0.06790865
-0.12252897 -0.024907235 -0.15395117 -0.27642053 -0.17864929 -0.3811763 -0.100175984 0.3158302
-0.28966492 0.06326791 0.15159585 0.34289783 0.28671288 0.26731387 0.47358972 0.10514011
0.28769043 -0.5278026 0.35162732 0.122512996 0.0354932 -0.18400337 0.03292581 -0.05587316
-0.28220233 0.1421622 0.46305755 0.03285841 -0.1574849 -0.18698382 -0.1516817 -0.32748038
-0.23703142 -0.21624202 -0.018454958 0.20225859 0.032003567 0.090475224 -0.27327183 0.2238307
0.35082564 0.0304919 -0.02602016 -0.088557445 0.18545888 -0.20492792 0.18610099 -0.016222846
-0.28209665 -0.050118472 0.34308288 0.087616175 0.109091476 -0.0876637 -0.00031111314 0.08552479
-0.18867035 0.13449486 -0.007295102 -0.026782494 -0.25800666 -0.13083719 -0.25705224 -0.2018744
0.20440194 0.042230252 0.28405526 -0.43985534 0.19446722 0.52198833 0.87027985 -0.21271098
-0.3470248 0.09558622 0.2238473 0.26420665 -0.68499714 -0.19810095 -0.25047144 0.29596344
-0.43246 0.38483775 0.3159163 0.1936981 -0.016108446 0.019423326 -0.1463299 0.07537306
-0.37689894 0.33706355 -0.8066568 0.25559863 -0.006704403 -0.2813071 0.40489975 0.124391966

pool.gcn_transform.bias f4 [32]
00000000: 317b cfbd 3e02 523e d158 9ebe 27da 8c3e
00000010: f2e5 39be 5122 94be 2e66 d6be f70a 263e
00000020: 4da9 293e 26c0 a2bd eadf 98bc 685d 10be
00000030: 3fa4 ca3e 1e94 1f3e b2cb 853e 83de 683e
00000040: 3adb f5bc 6d09 bdbe a167 dbbd eae2 67be
00000050: 9a7d 483d 0801 5d3b 2d6e 683e f5e3 cd3d
00000060: 2675 44bd dfac 6abe afe6 f53e 5c1d 42be
00000070: 765a 643d 1267 983e 9d1b 6fbe a29e 3cbe
-0.10130919 0.20508668 -0.30927137 0.27510187 -0.18154123 -0.2893243 -0.41874832 0.1621512
0.1656849 -0.07946806 -0.018661458 -0.14098132 0.39578435 0.15583846 0.2613197 0.22741131
-0.030011762 -0.36921254 -0.10713125 -0.22645155 0.048947908 0.0033722539 0.22698279 0.10053245
-0.047963284 -0.22917508 0.4802756 -0.18956512 0.055750333 0.29766136 -0.23350377 -0.18419889

pool.bn_feat.weight f4 [32]
00000000: 3e56 733f e92f 343f ea1c aa3f 8504 5f3f
00000010: 9996 703f 6df5 8e3f 4aee 413f aec4 b13f
00000020: 5c99 7b3f d848 873f 90b5 733f 1264 7d3f
00000030: 017c 723f ce7f 7b3f a912 803f a2e9 873f
00000040: 5d2e 813f 13fe 1e3f 1603 693f 1785 873f
00000050: e81a 2e3f 3477 833f 774d 5f3f eaba 9d3f
00000060: 0882 a23f 0dc4 953f 3614 533f d1b4 853f
00000070: 33c7 813f 4125 8d3f 89a0 9f3f d7cf 833f
0.9505347 0.70385605 1.3290074 0.8711627 0.93979794 1.1168648 0.75754225 1.3888147
0.9828088 1.0569105 0.9519892 0.9898082 0.94720465 0.9824189 1.0005695 1.0618174
1.0092274 0.62106436 0.91020334 1.0587491 0.68009806 1.0270753 0.87227577 1.2322667
1.2695932 1.1700455 0.82452714 1.0445806 1.0138916 1.1026994 1.2470866 1.0297803

pool.bn_feat.bias f4 [32]
00000000: c0ec c1bc 33f3 ccbd cf1c 64be aeb5 fabd
00000010: e4a5 17be b85b 583e 8f7b 0b3e 1dbf 71be
00000020: 6485 f33d 16ea bebd d7f7 eb3d b356 d33d
00000030: 817f 183e 1065 80be 2ef0 5a3e 331d cabd
00000040: 29f5 3bbd c57a 763d a323 05bd b68a 9ebe
00000050: 00cb 053e 15e6 6a3e 200c c13d 9e42 263e
00000060: 0705 05be 988f 4a3e d55a 253e d354 66be
00000070: 4565 98be 7970 773e 490b 74be 63bf 58be
-0.023672462 -0.10007324 -0.22276615 -0.12241684 -0.14809376 0.21128738 0.13621353 -0.2360806
0.118906766 -0.09321992 0.11521881 0.10319271 0.14892389 -0.25077105 0.21380684 -0.098688506
-0.0458881 0.060175676 -0.03250469 -0.30965203 0.1306572 0.22939332 0.09426141 0.1623635
-0.12990199 0.19781339 0.16147931 -0.22493295 -0.29764763 0.24163999 -0.2383243 -0.21166758

pool.bn_feat.running_mean f4 [32]
00000000: 2f1b fcbd f44f 1cbf 0fd2 7bbf 7ac3 5ebf
00000010: 2824 63bf 56ef 7c3f af38 1ebe 9b86 4d3f
00000020: 46f1 443e d91c 65bf 70cb 793f 986e 563f
00000030: bdc5 263f 24ca 80be 789e a8be dc70 1abf
00000040: 8477 87be 7000 6f3f 197b 72bf ea35 9a3c
00000050: 5665 54be 91a7 763f e990 0b3f dffd 4d3f
00000060: e9d5 a8be 5e50 723f 591f 2abf 64ff 7dbf
00000070: 5d07 65bf 638b 7d3f ecb0 12bf 1c80 353f
-0.12309872 -0.610595 -0.983674 -0.87017024 -0.88727045 0.988027 -0.1545131 0.80283517
0.19232664 -0.89497143 0.97576046 0.837625 0.65145475 -0.2515422 -0.32933402 -0.6032846
-0.2645837 0.9336004 -0.9471908 0.018824536 -0.20741782 0.96349436 0.5451799 0.804655
-0.329757 0.9465388 -0.6645408 -0.9921782 -0.8946436 0.9904081 -0.5730121 0.70898604

pool.bn_feat.running_var f4 [32]
00000000: 08a9 2f3f df39 393d f65c 5d3a 7aae 323d
00000010: 199f a13c 7a47 c239 3497 973d 07e2 a53b
00000020: ffac 1b3f c4b9 ee3b 2483 223a 6084 c73c
00000030: c4f2 d13d fb7c 333f 8f6e b93e 5dd1 793e
00000040: 7285 f33e b7e1 383a d97d 343b 5eac d43d
00000050: 231c a03e 7ed6 993a 2dda 2c3e b5cf 113d
00000060: 9c5e 3d3f ba25 8839 55bf 493d 788d 9538
00000070: 3fd1 293c c247 1d39 9141 073f eb8f 593e
0.68617296 0.045221206 0.0008444333 0.043623425 0.019729184 0.00037055818 0.074018866 0.005062345
0.60810846 0.0072853286 0.0006199351 0.024355114 0.10251382 0.7011258 0.36217162 0.24396272
0.47562748 0.0007052677 0.0027540831 0.10384439 0.31271467 0.0011736897 0.16880102 0.035598475
0.7397249 0.0002596805 0.049254734 7.131224e-05 0.01036483 0.00014999419 0.5283442 0.21246307

pool.score_add.weight f4 [1, 32]
00000000: 3928 a9bd dc71 473d 082e 2a3e b0f9 4c3d
00000010: 92cd fcbd 1c1f c23d ba6a 703d a80e 4dbd
00000020: e2a5 80bd 754b bc3d 5fd0 133e d36d 8fbd
00000030: 4395 ecbd 6665 283e bdd8 09be 649d 993b
00000040: 7ada 9fbd 1f4e fb3c 6e41 e5bd 6dcf df3d
00000050: 7c2d 013e c9db 02be 7892 6e3d 4272 c33c
00000060: 4675 2c3e b759 0abe 2cd8 e4bd 10f1 1fbd
00000070: b0da 05be 0223 77bd 73e1 c9bd 6f19 9c3c
-0.08259625 0.04869257 0.16619122 0.050042808 -0.12343897 0.0947859 0.058695532 -0.050062805
-0.0628164 0.0919408 0.14434956 -0.07003369 -0.11551907 0.1644493 -0.13461585 0.004687952
-0.07805343 0.0306769 -0.1119412 0.10928235 0.12615007 -0.12779154 0.058245152 0.023858193
0.16841611 -0.13510786 -0.11174044 -0.039048254 -0.13071704 -0.06033612 -0.09857454 0.019055096

conv3.weight f4 [32, 32]
00000000: 09d4 123e 12d4 233d f991 4f3e 9c4a 36be
00000010: 4128 26be 6394 d33e e22a 5c3f 7b8b b9bd
00000020: f5af 493e d866 04bf 8067 9a3e 58f5 113d
00000030: f3df d03d e484 e9be 21db 8abe 4461 113f
00000040: 91b5 a6be db2c 79be 08aa f7be 5142 d83c
00000050: a801 073e fa88 39be e683 963e f368 dc3e
00000060: ccc8 b2be ca5e 1e3c c5e4 e1bd f558 1b3e
00000070: 2097 a33e e5ea 663e fae9 163e f124 16be
00000080: e381 ddbe fd5c 84be 8193 febd 336d 2abe
00000090: c749 63be cb0b c7be aaaf 8fbf 0012 b03d
000000a0: 1da9 a43a b563 9d3e 6dcb 7ebe e3cb 28bd
000000b0: 1b9a 4fbe e764 973e 5983 2cbe 8799 60be
000000c0: 801e c93e 52ae 10be b56e cf3e 53c5 1abe
000000d0: 827d abbd 27e0 253e 7351 9f3d a2e9 463b
000000e0: 08e6 bb3e 1e9d f8bd 5bd7 783e 24d8 81be
000000f0: 538c 0abf b840 4f3e 9dcc 61be 852d d7bc
00000100: f779 73bd da0a 713e 2dd1 533e 49ca 573e
00000110: cbac 893e b73a 69be 5907 6a3e 84a3 5ebf
00000120: 497e 9a3c 2d9e 5a3e a5c6 1b3d 3bda 30bd
00000130: 7c98 ba3d 643b 2fbe 22ab be3e 891c 00be
00000140: 1082 953d 1fe4 883e 9965 ce3d 07f9 3ebd
00000150: 642a bc3e d2d2 85be 3603 8a3e 9ed4 d1be
00000160: 9944 b83d 0a39 50bd 0a87 143f 62f8 eebd
00000170: ee3d 1d3f 91a3 33be 7028 5c3e c6f7 27be
00000180: 1350 b03d 26f8 643d f38a 7b3d 9ffb 8d3d
00000190: d0b6 e5be 91ef 2cbe 192d 5b3f 9e40 8e3e
000001a0: f827 2dbd 8faf 6abe 106c 81bd a4d4 4a3e
000001b0: a0c3 773e fb8f 8fbc 31b6 4fbe 1206 913e
000001c0: 1a2b 823c b577 ab3d c73e b73d 0c73 ac3e
000001d0: 5353 60bc e1ea 493e 41cc 72be f81c 6d3e
000001e0: 0ca5 f4bd cdd2 bb3e e0a4 583d 9573 1c3e
000001f0: dc52 683e 0bef fc3d 0283 cb3e 5c60 833e
00000200: 4a63 b63e 1bf7 26be 6421 d8be e2ab 04be
00000210: 766d 1a3e 02d2 ad3e 133e 403f d40c 74be
00000220: 02e3 90bd bd76 ef3d 7235 7d3e 1c0e c4be
00000230: a8b6 0ebe 73c6 2a3e 7366 da3d a2e4 1cbe
00000240: 6ec1 883d 41fe df3e 4344 c9bd 25c8 a1be
00000250: 7d6f 8b3e e808 333d ea34 6e3d 9bc0 b8bd
00000260: 6c3c ed3d afef 96bd eae1 e33d bf2d 50bd
00000270: 1608 cf3e aedf 29be cdd1 bd3e 22ec 54be
00000280: db6c b9be 9e78 ad3c c8ba 8a3b ff45 5fbd
00000290: dbe5 f8bd 79c6 4dbc 5589 c3be d455 b8be
000002a0: 77aa c43e a93d d73e bd92 db3e 124b 69be
000002b0: b39f 1a3e 7eeb 07be fa49 99be e06e 8abe
000002c0: fba7 a53e 7c57 7d3e 64aa f4bc d64a cebd
000002d0: 463d 763e 0177 58be c5f4 1a3e 0c31 9abe
000002e0: 8d33 72be b139 91bd 28db 8a3e 240c 6bbe
000002f0: 5755 903e 4480 143e bf65 58be 5b8f b6be
00000300: b5b2 9d3d 260e 803e e44d 7ebe 7e23 813e
00000310: 389b 5e3e b48f d93a 372d df3e d682 aabe
00000320: c9a9 ee3d 5fa0 3bbd 1684 223e 0f35 3c3e
00000330: 89d0 5dbe a452 1dbe cda0 bf3e f61c bebc
00000340: 0701 eb3e 7a63 ae3e a3a7 c73d 44a4 ad3c
00000350: 24f6 a83e f764 90be 82f3 c73d 6281 bbbe
00000360: e14b 933e 4ea6 c13e 1e51 e03e a739 813d
00000370: b468 033f f72e ae3d bbde 4fbd 2624 18bd
00000380: 42ed 93be c308 0a3e 73fd 43bd dd30 adbe
00000390: fe0a 493d ef49 2b3e 1b12 5dbf cff7 1f3e
000003a0: 895d 2dbe b525 ef3a 13b4 473d aef7 4b3e
000003b0: 09fb 06be d582 ed3e 321d 6dba 0f7b 63bd
000003c0: 849a 3cbc 337e 633e b8ea d5bc 7127 05be
000003d0: dc90 1d3e d4fd 4fbd 92e2 63be 2055 b9be
000003e0: 6d3e ca3e ec31 ff3b 4028 f2bd 755e a33e
000003f0: a3a5 b8be d4ee 233d 3fe8 91bd 46c2 933e
0.14338697 0.039997168 0.20270528 -0.17801899 -0.16226293 0.41324148 0.86002934 -0.09059807
0.19696029 -0.5171943 0.3015709 0.03563437 0.10198965 -0.456092 -0.27120307 0.5678904
-0.325604 -0.24333517 -0.4837191 0.02639881 0.13184226 -0.18118659 0.29397506 0.4304882
-0.3491882 0.009666154 -0.110299625 0.15170653 0.31951237 0.22550543 0.14737692 -0.1466253
-0.43263158 -0.25852194 -0.12430478 -0.16643219 -0.22196113 -0.38876185 -1.1225483 0.08597183
0.0012562607 0.30740133 -0.24882288 -0.041210067 -0.2027363 0.2956917 -0.1684698 -0.21933566
0.39281082 -0.14128998 0.4051415 -0.15114336 -0.08373548 0.16198789 0.07779207 0.0030351658
0.36698937 -0.12139343 0.24300902 -0.25360215 -0.5412037 0.20239532 -0.2205071 -0.026266823
-0.059442487 0.23539296 0.20685263 0.2107326 0.26889643 -0.22776304 0.22854365 -0.86968255
0.018859046 0.21349402 0.03803124 -0.04317687 0.09111115 -0.171125 0.3723994 -0.12510885
0.07300198 0.26736543 0.10077972 -0.04662421 0.3675109 -0.26137406 0.26955575 -0.40982527
0.08997459 -0.050835647 0.58018553 -0.11668469 0.6142262 -0.17542864 0.214998 -0.16403112
0.08609023 0.055900715 0.06141181 0.069327585 -0.44866037 -0.16888262 0.8561569 0.27783674
-0.042274445 -0.22918533 -0.063194394 0.19807678 0.24195719 -0.01752471 -0.20284344 0.28324944
0.015889693 0.08372442 0.08947521 0.33681524 -0.013691741 0.19718505 -0.23710729 0.23155582
-0.11945543 0.36684266 0.052891612 0.15278466 0.22687858 0.12350281 0.3974839 0.25659454
0.35622627 -0.16305201 -0.42212975 -0.12956193 0.15080819 0.33949286 0.7509472 -0.23833019
-0.07074548 0.116925694 0.24727419 -0.38292015 -0.13936865 0.16677265 0.10664072 -0.15321591
0.06677519 0.43748668 -0.09827473 -0.3159801 0.27233496 0.043709666 0.05815593 -0.090211116
0.1158379 -0.07369935 0.11127074 -0.050824877 0.40435857 -0.16589233 0.37074128 -0.20793203
-0.36215863 0.021175679 0.004233692 -0.054510113 -0.121532165 -0.012559527 -0.38190714 -0.36002982
0.38411304 0.4203923 0.4288539 -0.22782543 0.15099983 -0.13273427 -0.29939252 -0.27037716
0.3235472 0.24740404 -0.029866405 -0.100728676 0.24046811 -0.21139146 0.15132435 -0.30115545
-0.23652478 -0.07091082 0.27120328 -0.2295385 0.2819011 0.14502054 -0.21132563 -0.35656247
0.07700101 0.25010794 -0.248344 0.2522239 0.21738899 0.0016598613 0.43589184 -0.33302945
0.11653478 -0.04580724 0.158707 0.18379615 -0.21661581 -0.15363556 0.3742737 -0.023207169
0.4589922 0.3406027 0.09748771 0.021196492 0.3300029 -0.2820203 0.09763242 -0.3662215
0.2876883 0.37822193 0.43811888 0.063098244 0.5133164 0.085050516 -0.05074952 -0.03714385
-0.2889195 0.13479905 -0.04784913 -0.33826342 0.04908275 0.16727422 -0.8635575 0.15621875
-0.16930212 0.001824549 0.048755717 0.19918701 -0.131817 0.4638888 -0.0009045183 -0.05553728
-0.011511449 0.2221611 -0.0261129 -0.13003327 0.1538729 -0.05077918 -0.22254398 -0.36197758
0.39500752 0.0077879336 -0.11824083 0.31908002 -0.3606387 0.040022686 -0.071243756 0.28859156

conv3.bias f4 [32]
00000000: 7745 bebd 8e4f abbc a99e 1e3c d1e7 a3bd
00000010: 20b2 dcbd 81a6 82be 9c87 1fbc 6dfb f7bd
00000020: 9661 a73d 6004 033e aa92 88bd 418c ba3d
00000030: 1cc4 7e3d 69fb d43d 74ed b83b e247 a0be
00000040: c919 d9bb db68 26bc fc5c f03d 2735 363c
00000050: b27b 1d3e 0332 eb3d 10d0 a9bc 097a 5cbe
00000060: 396e 8a3d 57ed 1ebe ea3d 533e 1eb1 e3bd
00000070: 2679 d4bc 1213 98bd a22a d6bd fdb0 36be
-0.09290593 -0.020911958 0.009681382 -0.080032 -0.10776162 -0.25517657 -0.009736922 -0.121085025
0.0817291 0.12794638 -0.06668599 0.091087826 0.062198743 0.10399515 0.005643541 -0.31304842
-0.0066253883 -0.010156835 0.11736485 0.011121071 0.15379217 0.11484148 -0.020729095 -0.21530928
0.067593046 -0.15520225 0.20629087 -0.11117767 -0.025936674 -0.074255124 -0.1045735 -0.17840953

conv4.weight f4 [32, 32]
00000000: d71c c43d 821f 70be 7f65 373e 0bdf 123e
00000010: 7ba6 c6bd a455 91be 92d9 06be 0e2c a43e
00000020: 0228 28be 39b8 a13e b491 623d b404 82be
00000030: 0e2c 6bbe a1d5 2e3e b67a d6be de68 8ebc
00000040: 68a7 e5bd f28a 95bd 4aaa c7bd 7e42 46be
00000050: 2981 5abe c1e6 0dbe bff2 80be 07a4 16be
00000060: 0f65 863e 7f36 733e be5c 393e 02c0 f53d
00000070: 0642 d1bd b22b e33c e01f e33d cce7 c7bd
00000080: 6e00 15be b9c4 47bc fe86 aa3d 881a 95bd
00000090: 5eb2 fbbe a98b 34be b95b 233e 3337 5e3e
000000a0: 438a 583e 4641 bebd e655 fb3e 8139 81be
000000b0: 2f18 403e 9e7d 7ebe cd1c 8dbd 4270 0d3e
000000c0: 8155 253c 972c c63d 824f 283e 4670 71bd
000000d0: 7d8d 54bc 9a17 bfbe 3c56 cdbd 7b30 cd3c
000000e0: 4826 a43d 7435 053e da81 373e 349e 34be
000000f0: 2950 b33e 38e3 e23d 3eb8 88bd a61b 9dbe
00000100: dda8 20bd dfb8 243d 3f3b 34be 58d7 563e
00000110: 71c6 053f da08 f23d d160 7ebd 3ea5 80be
00000120: eddb ff3d 4d6a b7be 2050 56bf 9c07 163e
00000130: a19f 203e e27a 273e dd18 203d 8e87 943d
00000140: 30b9 7dbc 5669 dbbd 45dc c43e 3464 ce3e
00000150: 6a62 bf3e 5810 ed3e 6bde 073f f4cb 70bd
00000160: 55d6 3d3d 9239 21be 0ccb d6bd 4684 47bd
00000170: d6bb 543e 3f75 30be 8635 573e 543f bdbe
00000180: 49ee 553e 4386 3e3c 6838 7f3e 71c8 4e3d
00000190: 2b44 e93e 1bae fc3d 62d4 72be e73c 9cbe
000001a0: 96d8 9abe 0769 243e 88a3 08bf a24a 71be
000001b0: 73b5 85be c7c3 b4be d284 eb3c 04a5 48be
000001c0: f0e6 25bd ba7e acbe cebb 0bbe 1cf4 743e
000001d0: 153f cbbc dd0f 3e3e de9c 0e3e 1142 8f3e
000001e0: 673e 99bd fb1d c13e 591b df3d ae16 02be
000001f0: 1db1 103d 9c9a 813e c9e4 d43d 3999 5d3d
00000200: 190b 743e dbff a3be f7e8 7c3e 0e67 debd
00000210: 4843 353e 94ef 9bbb d13b 963e 3258 5b3e
00000220: 436e 21bc 57b8 0bbe b44b bebd b9e5 9c3d
00000230: 15ad a83e dd85 bb3e db3b 8cbe 5d8b 21be
00000240: 7603 17be 7434 a73e c217 8ebe ba25 283c
00000250: 0b3b 803e 3627 853e 7401 913a d2b3 e8be
00000260: e4ea 463e 7b5e bd3e d898 fe3d 64b7 99be
00000270: 0b04 90bd 80e2 843e 4969 80be c102 a63d
00000280: 857c 15bb 1056 c2be dbe5 62be 4c91 bdbe
00000290: a4d7 adbe 228c a3be 2125 1e3e 4d25 e03e
000002a0: 3cf9 abbe 6047 103f ab43 9c3e a2da 01be
000002b0: 242f 96be ce7c 8d3d 53f6 86be 1021 6f3e
000002c0: 445d 83bd c324 8f3e dcd5 a7be 835b 21be
000002d0: 96e6 d73d 1f80 00be 73f7 3ebe 0156 17be
000002e0: f843 5a3e 428e a9bb 7299 a33d ffbc 3cbe
000002f0: 35a7 7f3d 2c2f e1bd 5b45 e03d d859 24be
00000300: 7df7 86be 6fc1 cd3e ab22 97be e2d1 a23e
00000310: 1eef aebe 53d3 df3e 2eab dabe ec03 b83e
00000320: 4bed dc3e 6fd7 1c3d 71c2 013f 8903 36be
00000330: 2e2b 6cbe b4d8 733e f031 b63e 48b3 e9be
00000340: ec1b 823e 0529 1fbf 430e a43e fef6 fe3e
00000350: c56c 19bd b696 093f 07b0 003e 8725 d0be
00000360: 0006 8bbe 9de8 2cbf 9c37 b13e 5c8a b7bd
00000370: 29e2 d13e 93b1 c23e 19a1 80bd 51e2 cabe
00000380: 2d1d 12be c32d 23be cb3f 0e3e 4011 c03c
00000390: ef9f c3be 6230 cc3d 8d2d c13d 57a4 4bbe
000003a0: 14eb bdbe f15e a33e c79d 0e3d 9a11 1b3e
000003b0: f302 c0bd 8ff3 87bc 9ca6 123e 6064 96bd
000003c0: 4221 6d3e 278e 50be 00e7 3c3e 12ae 0ebe
000003d0: 3523 3bbe c0d5 61be 9d0a a83e 102c 213f
000003e0: dad6 31be 2823 56bf 8484 cf3d 0a89 563e
000003f0: 0526 a53e 6bae 423e 202c 0a3c 6b25 8bbe
0.09575813 -0.2344952 0.17909811 0.14342897 -0.096997224 -0.2838565 -0.13168934 0.3206486
-0.16421512 0.31585863 0.055314735 -0.25394213 -0.22966024 0.1707368 -0.41890496 -0.017383989
-0.11213571 -0.07301892 -0.09749277 -0.19361302 -0.21338333 -0.13857557 -0.251852 -0.14711009
0.26248977 0.23751257 0.18101785 0.11999513 -0.10217671 0.027730796 0.11090064 -0.097610086
-0.14550945 -0.012192898 0.08326529 -0.07280451 -0.4915952 -0.17631401 0.15952958 0.21700744
0.21146493 -0.09289794 0.49088973 -0.25239184 0.18759225 -0.24852607 -0.06890259 0.13812354
0.0100911865 0.096764736 0.1643658 -0.058944963 -0.012973187 -0.37322694 -0.100262135 0.025047531
0.08015114 0.13008672 0.17920628 -0.17638475 0.35022095 0.11078495 -0.066757664 -0.30685157
-0.03922354 0.04021537 -0.17600726 0.20980585 0.5225592 0.118180946 -0.06210405 -0.2512607
0.124931194 -0.3582329 -0.8371601 0.1465134 0.15685894 0.1635547 0.03908621 0.072524175
-0.015486047 -0.107134506 0.38449302 0.40310824 0.3737977 0.46301532 0.5307376 -0.058788255
0.04634698 -0.15744618 -0.10487947 -0.04871013 0.20774779 -0.17232226 0.21016511 -0.36962378
0.2089168 0.01162869 0.24923861 0.050484125 0.4555982 0.123378955 -0.2371383 -0.30515215
-0.30243367 0.1605569 -0.5337453 -0.23563626 -0.26114997 -0.35305616 0.028749857 -0.19594198
-0.040503442 -0.33690435 -0.1364586 0.23921245 -0.024810353 0.18560739 0.13927028 0.27980092
-0.074826054 0.37718186 0.10893888 -0.12703964 0.03532516 0.2531327 0.103952 0.054101203
0.23832358 -0.3203114 0.24698244 -0.108595 0.17701447 -0.0047587845 0.2934251 0.21420363
-0.009852949 -0.13644539 -0.09291783 0.076610036 0.3294455 0.36625567 -0.27389416 -0.15775819
-0.14747414 0.32657206 -0.277525 0.010262901 0.25045046 0.26006478 0.0011063055 -0.45449692
0.19425541 0.36986145 0.124314964 -0.30022728 -0.07032021 0.25954056 -0.25080326 0.08105994
-0.0022809815 -0.37956285 -0.22157995 -0.37024915 -0.33953583 -0.3194285 0.15443851 0.43778458
-0.33588588 0.5635891 0.30520377 -0.12681058 -0.2933284 0.0690857 -0.26359805 0.23352456
-0.064142734 0.27957734 -0.3278035 -0.15757565 0.10542028 -0.12548874 -0.18649082 -0.14778902
0.2131499 -0.005174429 0.07988252 -0.18431471 0.06241532 -0.109953254 0.109507285 -0.16049898
-0.26360694 0.4018664 -0.29518637 0.31800753 -0.34166807 0.43715915 -0.42708725 0.35940492
0.4314979 0.03829139 0.5068732 -0.17774786 -0.23063347 0.23813134 0.35584974 -0.45644593
0.25411928 -0.62171966 0.3204213 0.49797815 -0.037457246 0.5374559 0.12567149 -0.4065363
-0.27153015 -0.6754244 0.3461274 -0.08961937 0.4099286 0.38026103 -0.06280727 -0.3962579
-0.14268942 -0.15935425 0.13891523 0.023445725 -0.38207957 0.09970166 0.09432516 -0.1988691
-0.37093413 0.31908372 0.034818437 0.15143433 -0.093755625 -0.01659563 0.14321369 -0.07343364
0.23157218 -0.20366727 0.18447495 -0.1393359 -0.18275149 -0.22054195 0.32820597 0.6295786
-0.17367116 -0.83647394 0.10132697 0.20950714 0.3225557 0.19011848 0.008433372 -0.27176985

conv4.bias f4 [32]
00000000: 52bf f03d 556f 02be 9e39 fe3d 7467 dfbd
00000010: 7b50 6e3d e774 15be 6c16 f0bd 7a81 65be
00000020: 1700 34be b925 e93d 455a 47be e382 c1bd
00000030: 99f5 553d 921a 82be bc29 11be 2c85 0a3e
00000040: cdd8 e8bd fa7b 673e 4465 c43c 82ef 41be
00000050: 62cb 753d b5b9 41be b35b 3e3d 31b9 f13e
00000060: 5f7c f43d fdd5 3abd 8365 9bbe 6a82 46bd
00000070: eb09 6f3d c2ce 01be 484f 1d3e 2478 9abd
0.117552415 -0.12737782 0.12413333 -0.10908404 0.05818222 -0.14595376 -0.11723027 -0.22412673
-0.1757816 0.11384148 -0.19468029 -0.09448793 0.052236173 -0.25410897 -0.14176077 0.13527364
-0.113694765 0.22605887 0.023974068 -0.18939021 0.060008414 -0.18918498 0.04647417 0.47211602
0.119377844 -0.04561423 -0.30350885 -0.048464216 0.058359068 -0.12676528 0.15362275 -0.07542446

conv5.weight f4 [32, 2]
00000000: dd61 843d 66d5 923d 128e 16bf 8c81 c73e
00000010: 9dcb 083e 6b05 88be 131f 8cbe 4e97 75bd
00000020: 5fb2 e73e a4f7 b43d 6f10 04bf e16c 69bc
00000030: 1598 9bbb a5e3 6ebe 962d e9be c01d e83d
00000040: 5088 eebe 9d2c 8a3d 7da0 413e 9272 89be
00000050: 1cb9 82be 3642 583d abdc 4d3c bc35 debd
00000060: 6322 3b3e 4591 a6bd 9047 a6be b071 5dbe
00000070: ea45 8abe 23f3 07be 745c ce3e 4f9b ebbd
00000080: 6991 6cbe dc7d 4abe 2c5d 863e e7d9 d4be
00000090: c570 46bd 195d 3c3e 4df4 13bf 4d2b 3a3e
000000a0: 2ca0 b43d ddf3 9d3e 87f2 12bf 32e4 033e
000000b0: c121 eb3c c2ac 373e bd24 e83e 9097 bd3d
000000c0: 97f2 753e b168 d83b db41 063f 2f91 9dbe
000000d0: b9aa 57be 9d45 c13e c008 57bd 34cb 33be
000000e0: 0e47 5d3c 8723 a53e ef91 a1be 1c52 02bd
000000f0: a11f 503d d46f 403d 6c2a 693d afd5 25be
0.064639784 0.07169609 -0.5881053 0.38966024 0.13358922 -0.26566634 -0.27367458 -0.05995875
0.45253274 0.08836296 -0.51587576 -0.01424715 -0.004748354 -0.23329027 -0.45542592 0.11333799
-0.46588373 0.067467906 0.18908878 -0.26845223 -0.25531852 0.05279752 0.012564818 -0.10850093
0.18274836 -0.08133177 -0.32476473 -0.216254 -0.27006465 -0.13276343 0.4030491 -0.11504232
-0.23102345 -0.19774574 0.2624296 -0.41572496 -0.04844739 0.18394889 -0.5779465 0.1818058
0.08819613 0.30850115 -0.5740132 0.12880018 0.028702619 0.17936996 0.4534053 0.09257424
0.24018322 0.006604277 0.5244424 -0.3077483 -0.2106122 0.37748423 -0.05249858 -0.17557985
0.01350571 0.32253668 -0.3155665 -0.031816587 0.050811414 0.046981648 0.056925222 -0.16194795

conv5.bias f4 [2]
00000000: 5080 56be 529e 89bc
-0.20947385 -0.016799126
