GST-recon/checkpoints/best_grid_ASAP_0.8.pth (torch, 29548 bytes, 18 tensors)

conv1.weight f4 [2, 32]
000000 ef 8c fe bd 9c 69 c6 be 39 e7 5c 3e c2 11 59 3e
       -0.12429225 -0.3875245 0.2157258 0.2119818
000010 01 99 93 be c3 8f 7e bd 20 c1 da be 14 5c 42 3e
       -0.2882767 -0.06214882 -0.42725468 0.18980438
000020 52 04 ad bd 0a 02 f0 3e 11 cc a7 3e 24 56 d6 bc
       -0.0844809 0.46876556 0.32772878 -0.026164122
000030 ba 87 47 bd 6a f0 ec be b3 af 4a be d2 b0 95 be
       -0.048713423 -0.4627717 -0.19793586 -0.29236466
000040 74 19 9e 3e 20 e3 fa be ca 73 d9 3e c1 47 91 be
       0.30878794 -0.49001408 0.42471153 -0.28375056
000050 ab c1 db 3e 44 89 bd bd b5 3d 11 3e 69 f5 76 3e
       0.42921194 -0.09254697 0.14183696 0.24117054
000060 4b e7 bb 3d 17 4f bb 3d 50 37 b3 3e e4 57 c7 3d
       0.09174975 0.091459446 0.35003138 0.09733561
000070 9a 2f ad 3e 9a e9 00 bf 0f ae 37 3e 20 a5 ad 3e
       0.3382538 -0.5035645 0.17937492 0.33915043
000080 02 2a b0 3c 13 28 8c 3d 11 30 3e 3e 34 d2 f9 3e
       0.021504406 0.06843581 0.18573023 0.48793185
000090 a0 a8 d3 bd 9e 44 20 be 5f d6 2a be 2d 47 66 be
       -0.10334897 -0.15651175 -0.16683339 -0.22488089
0000a0 d8 2e a2 3e 18 fc 53 be cf 84 cf be 1c 5f d8 3e
       0.31676364 -0.20701635 -0.40531012 0.42260063
0000b0 28 43 17 3f c3 b6 9b 3d 1d f6 0b be 0d 6e 04 be
       0.5908685 0.076032184 -0.13668104 -0.12932606
0000c0 a5 6f 6e 3e 86 db e1 be 83 82 1c bf 82 a8 0a 3f
       0.23284777 -0.44112796 -0.61136645 0.5416337
0000d0 ba c2 f8 3e 39 de 66 bc b0 7f f1 be 85 38 a6 3d
       0.48586065 -0.014091068 -0.4716773 0.08116249
0000e0 3c 84 e6 bd 5b 3f da bc fc cb 19 3e a7 a8 b9 3e
       -0.112556905 -0.026641538 0.1501922 0.36261484
0000f0 69 51 f3 bc df 06 93 3d 12 51 03 be 79 2e a8 be
       -0.029701905 0.07179045 -0.12823895 -0.32847956

conv1.bias f4 [32]
000000 bc 49 97 3c ae f2 79 3d 7e 98 97 bd 72 f1 11 be
       0.018467776 0.061022453 -0.074021325 -0.1425226
000010 9a 42 70 3d 55 a9 0e 3d 91 d6 0e 3e 75 69 dd 3c
       0.058657266 0.034829456 0.13949038 0.027027825
000020 08 c9 7e bd 29 3a 35 bd a5 db bb 3b 48 c0 1b bd
       -0.062203437 -0.04424492 0.005732971 -0.03802517
000030 23 75 04 be cd 42 b9 3d 7b bd a0 3d ee b4 b2 3d
       -0.12935309 0.09045944 0.078486405 0.08725916
000040 e7 27 dd bd 04 25 4b 3e d2 e0 78 3d 1f 9e b4 bd
       -0.107986264 0.19838339 0.06076128 -0.08819222
000050 50 4e 3e be f7 75 c5 3c 5f 5a c9 3d 5a b6 8c bd
       -0.18584561 0.024104102 0.0983169 -0.06870718
000060 94 92 ec bb d7 22 67 bc 0c ef b0 bd b4 31 ca bd
       -0.007219622 -0.014107428 -0.086393446 -0.09872761
000070 cf 65 8e bd 92 72 77 3d 34 9e 47 3c e5 50 e2 3b
       -0.06953012 0.060411997 0.012183715 0.006906616

conv2.weight f4 [32, 32]
000000 0f 14 f0 bd 2b 3a 60 bd 0b 33 59 be 53 ad 14 be
       -0.11722576 -0.054742973 -0.21210878 -0.14519243
000010 31 ff bd 3c c8 02 26 3e 05 17 20 3d 35 c6 13 be
       0.023192974 0.16211998 0.039084453 -0.14431079
000020 fb 79 00 3e ba de 42 be c6 d0 2f bd 66 8d b0 3e
       0.12546532 -0.19030276 -0.04292371 0.34482878
000030 dc f9 d9 3d 42 56 d4 3c d4 c2 f0 3d 86 57 36 bd
       0.1064336 0.025920037 0.117559105 -0.044517063
000040 5a b5 38 3e be 75 5a be fb a1 8e bd cb f9 de bc
       0.1803793 -0.21333978 -0.06964489 -0.02721872
000050 06 59 f6 bd 21 6e 07 bd ae d4 38 3e d7 30 47 3e
       -0.120286986 -0.03306401 0.18049881 0.19452225
000060 de 70 4a 3d 5a 63 9e 3e 1d 0c 8b be de 83 39 be
       0.049424045 0.30935174 -0.2715768 -0.1811671
000070 c0 dc 4f 3e 50 43 8c bc 88 40 74 be f9 c1 2b be
       0.20299053 -0.01712194 -0.23852742 -0.16773213
000080 1d 7f 2a be 21 20 8e 3e a0 bf 41 3e 5a 61 79 3e
       -0.16650052 0.27758887 0.18920755 0.24353543
000090 5f d9 7a be 40 fa d6 be 5b c5 4a be 3a 20 21 3d
       -0.24496983 -0.419878 -0.19801848 0.039337374
0000a0 f8 a5 bc 3d 5b 06 21 be 72 11 4f 3e 02 02 98 bd
       0.092113435 -0.1572508 0.20221499 -0.07422258
0000b0 c9 4a 39 be 71 06 46 3e 1e 57 8a bd f2 72 06 3e
       -0.18094935 0.19338395 -0.067548975 0.13129786
0000c0 ad 8d 0b 3e d0 b7 00 3b dd 6b a8 bd 85 84 d8 be
       0.13628264 0.001964081 -0.08223698 -0.42288604
0000d0 40 9c 60 be a4 6f 2e be 49 56 44 be e6 3b 11 3e
       -0.21934605 -0.17034775 -0.1917354 0.14183006
0000e0 6b a1 7a 3e 54 6d 59 be 79 c4 64 3e 23 cc 2f be
       0.24475639 -0.21233112 0.22340573 -0.17167716
0000f0 ca b5 ad bd 61 f0 9d bc 06 31 bc be 24 b0 88 be
       -0.08481939 -0.01927966 -0.36756152 -0.26696885
000100 cb ae f6 3d c2 78 d9 3d 57 25 02 be f4 9f 1f be
       0.12045058 0.10618736 -0.12709557 -0.15588361
000110 56 18 cf be 47 3e 14 3e 4a 86 60 3e 4f 0b 81 3d
       -0.40448254 0.14476882 0.21926227 0.06300985
000120 52 68 1f be 60 07 eb 3d 3a 4c 5e 3e 5e 89 78 3d
       -0.15567139 0.11476016 0.21708766 0.06067788
000130 02 cd 6f bd 49 54 80 3d d9 da 71 bb b1 de df bc
       -0.05854512 0.06266076 -0.0036904125 -0.027327867
000140 7b 20 b0 be c0 ea 62 be d1 45 8b 3c 0d 78 80 3c
       -0.3439978 -0.22159863 0.017001064 0.015682245
000150 23 27 92 3e 9f b0 7d 3d d8 81 56 bd 49 8b 70 be
       0.28545484 0.061936017 -0.052369922 -0.23490633
000160 54 1d 84 be 58 e4 a5 3d 75 66 93 3e d5 26 3e 3d
       -0.25803626 0.08100194 0.28789106 0.04642375
000170 ab 0c e8 bd 10 9c ad 3d a7 3a 9b 3e 22 23 35 be
       -0.11330541 0.08477032 0.30318186 -0.17689183
000180 09 dd 05 be bc 7a d0 bc 23 8c 24 be 25 5d bb be
       -0.130726 -0.02544915 -0.16069083 -0.365945
000190 85 95 4f bd 0f 0a b0 be 2d d3 83 bd dc 50 38 be
       -0.050679702 -0.34382674 -0.06436763 -0.17999595
0001a0 e6 a1 5e 3e 44 10 b3 3c a7 3e 23 3e 21 56 ab bd
       0.21741447 0.021858342 0.15941869 -0.08366037
0001b0 65 0f 8e 3e 6d 4f d1 3c ff 2e 5b be 69 9e a8 3d
       0.2774612 0.025550568 -0.21404646 0.08233339
0001c0 e4 3f a0 be a7 1e 48 3c 25 68 13 3e 83 bf 88 bd
       -0.31298745 0.012214339 0.14395197 -0.06677153
0001d0 51 06 c0 3e 5b f0 10 3e e0 33 07 bd ad c5 23 3e
       0.3750482 0.14154188 -0.033008456 0.15993376
0001e0 11 f9 37 bd 90 e1 b8 bd d5 cb 4a be 19 d5 64 3e
       -0.044915263 -0.09027398 -0.19804318 0.22346915
0001f0 fb 6f e2 3e 5f b4 5d 3d 78 77 a9 3e 82 6f ab 3e
       0.4422606 0.054127093 0.3309896 0.3348351
000200 61 96 93 3e a5 25 86 be 86 17 95 3d c3 93 8f bb
       0.28825668 -0.26200595 0.07279877 -0.0043816282
000210 bf 11 02 3e 2a fd 1d be ce 8f d9 3d d7 3e 7b be
       0.12702082 -0.15428606 0.10623132 -0.2453569
000220 cf 25 5c 3e 65 66 ae 3e 28 93 47 bd 23 c3 87 be
       0.21498798 0.34062496 -0.048724324 -0.26516065
000230 6c e0 8e be 2e ca 1c 3c 84 f6 ad 3c 19 10 14 bd
       -0.27905595 0.009569688 0.021235712 -0.036148164
000240 e8 49 d5 3d e9 a7 78 3e b4 29 18 be e7 fb 08 bd
       0.10414487 0.24282803 -0.14859658 -0.033443358
000250 f2 e9 4c be cd 1c 86 3e 04 0b b2 3d 66 d7 72 bb
       -0.20011118 0.26193848 0.08693507 -0.0037054657
000260 5f fc 95 3e cc db 91 3d 47 92 8e 3d d1 47 fb bd
       0.29294106 0.07122001 0.06961494 -0.12269557
000270 26 3b c9 bd 37 4e 98 3d 39 5a 82 be c6 b1 94 bd
       -0.09825735 0.07436793 -0.2545946 -0.0726047
000280 23 0a 92 3d d4 9b 3c be d1 a4 1c bc a0 0f 62 bd
       0.0713084 -0.18418819 -0.00956078 -0.055190682
000290 28 22 df bd 7a 79 00 be 53 e7 59 be 7a ed bf 3d
       -0.10895187 -0.1254634 -0.2127965 0.09371467
0002a0 9f 88 e4 3d 1f ee 9d 3e 5a 79 a9 3e c2 35 9f 3a
       0.11158871 0.30845734 0.33100396 0.0012146758
0002b0 13 6a 1c 3e 3f fb f7 bc 7e dd 8b 3e 88 4f 1f be
       0.15274839 -0.03027117 0.27317423 -0.15557683
0002c0 ba c2 4f bd 8f e4 ac bd 73 72 31 be 98 52 7b be
       -0.050722815 -0.084420316 -0.17328815 -0.24543226
0002d0 42 89 9b bd 8b 0e 50 3e a6 0b 32 be 23 22 b4 be
       -0.07594539 0.20318048 -0.17387256 -0.35182294
0002e0 dd 44 0d be 12 fd b0 3e c7 ce a1 3d 87 3a 81 bd
       -0.137958 0.34568077 0.07900768 -0.06309991
0002f0 f6 ba 34 be 51 61 83 3e 5f cd 90 be 99 38 33 3e
       -0.17649445 0.25660184 -0.28281686 0.17502059
000300 aa 16 e8 3d bb 7a 7b 3e 18 a3 28 be f7 4f 41 bd
       0.11332448 0.24558537 -0.16468465 -0.0471954
000310 d5 3c 40 bd 4c 98 80 3e 47 f3 0e bd 03 e7 8b be
       -0.046933014 0.25116193 -0.034899976 -0.27324685
000320 f0 61 80 3e ea 08 d2 3d c6 3f ef 3c ac 98 83 be
       0.2507472 0.102556065 0.029205214 -0.25702417
000330 3f fd 9d be a5 99 a6 3e 3a 7b 45 be 69 96 27 be
       -0.30857274 0.32539096 -0.19285288 -0.1636597
000340 fa 67 4c 3d 6c 30 26 3e e1 98 b9 be 81 58 a7 be
       0.049903847 0.16229409 -0.3624945 -0.3268471
000350 08 ed 85 be 29 88 5c be b7 dd 1e 3e 5b 83 5c 3e
       -0.26157403 -0.21536316 0.15514265 0.21534483
000360 96 0b 94 3e 8c 69 57 3e 0c a0 4c be ce c9 18 bd
       0.2891509 0.21036357 -0.19982928 -0.03730183
000370 35 fe fe be bd f7 89 3d 62 91 e8 be fd 63 bc be
       -0.4980332 0.067367055 -0.45423418 -0.36795035
000380 65 93 4c 3e cf 16 de bd 2b 94 65 bd 89 d3 46 bc
       0.19978102 -0.10844194 -0.056049507 -0.012135395
000390 97 f8 90 bd 2d e1 c8 3d 64 52 39 3d ef 85 93 3e
       -0.07078665 0.09808574 0.04524459 0.2881312
0003a0 bb d2 44 be ac 35 90 3e db 4a 08 be ec 2a 99 3d
       -0.19221012 0.28165948 -0.13309805 0.0747889
0003b0 dc d7 62 3e 5c 5a 42 3c cd de c0 bd 73 57 20 3e
       0.22152656 0.011862364 -0.09417496 0.15658359
0003c0 07 b0 95 bc cc c5 08 be 75 3e 11 3c 9c 6b 5e be
       -0.018272413 -0.13356704 0.008864989 -0.21720737
0003d0 09 72 b6 bd 59 28 9a be 2f b4 39 3e 19 bc d1 be
       -0.08908469 -0.30108908 0.18135141 -0.4096382
0003e0 fc db ae be 60 eb c0 3d b8 36 5c 3e da 7b 7b 3e
       -0.3415221 0.09419894 0.21505249 0.24558964
0003f0 3e a0 ba be 71 44 54 3e eb 56 19 3e a8 83 5a be
       -0.3645038 0.20729233 0.14974563 -0.21339285

conv2.bias f4 [32]
000000 62 d4 a4 3b 00 f1 05 bb 59 7e be bd f2 7e 5f 3d
       0.005030201 -0.0020437837 -0.09301443 0.054564424
000010 cb 87 07 3e 5a 26 84 3d d6 0a 10 bc ae 2a 45 bc
       0.13235395 0.064526275 -0.008791646 -0.012034101
000020 de 76 4b bd cf b8 41 3d db 86 0d 3d 06 34 9a bd
       -0.049673907 0.047295388 0.034552436 -0.07529454
000030 22 6e 2e bd 70 30 52 3d 27 e8 60 3c aa b6 78 bd
       -0.0425855 0.051315725 0.013727224 -0.060721077
000040 38 10 dc 3d 2b 70 41 3c 79 a8 bb bd a6 2a dc bc
       0.10745281 0.011806528 -0.09162993 -0.026875805
000050 43 de 07 bd f3 53 22 be 67 0d 78 bd b2 8c 78 bd
       -0.03317095 -0.15852337 -0.060559656 -0.060681053
000060 79 ca 0f 3e 66 1a b4 3b eb d9 14 3c 2d d8 8f bd
       0.14042081 0.005496311 0.009085159 -0.07023654
000070 06 ae ab bd 45 8e 02 bd 13 46 16 be d0 53 f0 bc
       -0.08382802 -0.03187396 -0.14675169 -0.02933684

pool.lin_q.weight f4 [32, 32]
000000 85 27 81 3e 81 b8 6d be 84 40 95 be ea 88 27 3e
       0.25225464 -0.23214914 -0.29150784 0.16360822
000010 bf 2b 18 3d 0d e8 e9 3d f8 f9 34 bd 4f 64 99 be
       0.037151095 0.11421213 -0.0441837 -0.29959342
000020 79 90 19 3e f1 b7 73 bd 9f 44 fd bc 3c 81 e1 bd
       0.14996518 -0.059501592 -0.03091651 -0.110109776
000030 91 0d a0 bc bb 7b bf 3e 0b 04 99 bb 2f da 41 3e
       -0.019537719 0.37399086 -0.0046696714 0.18930887
000040 3a 04 fc 3e 82 31 1f 3e 53 07 25 be 1f 67 ea bd
       0.49221975 0.1554623 -0.16116075 -0.1144545
000050 f1 80 b4 bd 53 0a ce 3e 89 35 0a 3e e4 1f 8a 3d
       -0.08813656 0.40242252 0.13496985 0.06744364
000060 e9 65 b4 3d 18 f1 5a bd d6 da fe bb 6a fc 0c 3e
       0.088085 -0.05345258 -0.007777552 0.13768163
000070 10 19 10 3e dd 76 3c be da ba 9f 3d 2e 69 f6 bd
       0.1407206 -0.18404718 0.07799311 -0.1203178
000080 7a be a3 be 1c f7 43 3e 9f 69 e9 3e b4 12 0c be
       -0.3198126 0.19137233 0.45588395 -0.1367901
000090 06 cb 13 3e 64 36 07 be 3d 9d 1b be 6b 7c cf 3e
       0.14432916 -0.13204342 -0.151967 0.4052461
0000a0 38 64 85 3d 81 10 f5 3b 28 b6 f5 3d be 78 8a 3e
       0.06513256 0.007478774 0.11997634 0.27045244
0000b0 55 0d f0 3d 7a a5 69 be fa 0b 3f 3e 77 43 78 be
       0.11721293 -0.2281703 0.18656912 -0.24244486
0000c0 04 35 0d bf a9 41 c3 3d f6 a7 56 3d de 5d 0d 3e
       -0.5515902 0.09534008 0.052406274 0.13805339
0000d0 e2 cb d5 bd 35 a6 3f be 16 a9 e0 3d 42 ce 97 bc
       -0.10439278 -0.18715747 0.109697506 -0.018530969
0000e0 1f 7b d7 3d 2a 07 49 3e 51 55 a2 3d ce c5 42 be
       0.1052153 0.19631639 0.07926429 -0.19020769
0000f0 03 3a 42 3b 48 bb 4c 3e 9c a0 e5 3d 9a 52 26 3e
       0.0029636628 0.19993317 0.112122744 0.16242447
000100 ac 91 8b 3e 9b 10 40 be 6e b0 c9 be 1b 31 d9 3d
       0.27259576 -0.18756334 -0.39392418 0.10605069
000110 da 3d e1 bd 7b 20 11 be 00 95 7b bd 97 9b f9 be
       -0.109981254 -0.14172547 -0.061421394 -0.48751518
000120 66 f2 19 be cc ca a3 bd 4f 77 17 3d 19 c1 c6 be
       -0.15033874 -0.07997665 0.036979016 -0.38819197
000130 57 5b 80 bd c6 d5 b0 3e d2 2c 66 bd 37 2a 55 3e
       -0.06267422 0.34538096 -0.056195088 0.20816885
000140 5d 1f bf 3e 46 3c 56 be e4 1c 49 be 09 a8 3d be
       0.37328616 -0.2092143 -0.19639927 -0.18521132
000150 73 b9 4d 3d cb 2b ae 3e f4 bf 25 bd dd ec 02 3e
       0.050225686 0.34017786 -0.040466264 0.12785669
000160 fa b6 11 be c8 c1 aa be ef 63 c9 bd ea bc 92 3e
       -0.14229956 -0.33350968 -0.09833514 0.28659755
000170 c2 d0 d0 3c 82 d1 f6 bd 80 78 50 be ac d1 0d be
       0.025490168 -0.12051679 -0.20358467 -0.13849515
000180 68 36 3e 3e ce dd ca bd 56 ca 56 be 9c 49 63 3d
       0.18575442 -0.09905587 -0.20975623 0.05549012
000190 3f 34 cc bd 90 1d f2 3c 3d d4 43 bd 4d 40 a2 3d
       -0.09970903 0.029555112 -0.047809828 0.07922421
0001a0 77 eb 2c bd e7 03 82 bd 58 d6 d2 3c c2 d9 94 ba
       -0.042216744 -0.063484006 0.025736973 -0.0011356401
0001b0 b4 00 09 bd a2 ca 1e 3e 61 99 70 3b 79 ab c9 3d
       -0.033447936 0.15506986 0.0036712515 0.09847159
0001c0 ae fe 36 3e 89 e3 18 3d 48 d7 68 3c 69 37 9e 3d
       0.1787059 0.03732637 0.014211483 0.077254124
0001d0 79 36 c1 bd 73 ba f7 3d 35 1f 7a 3d f4 c0 91 ba
       -0.09434218 0.12096109 0.061064918 -0.0011120127
0001e0 cf d8 3e 3e 51 0a a7 bd 90 67 3c 3d 9b 4c 07 3e
       0.18637393 -0.081562646 0.045997202 0.13212816
0001f0 e5 93 9c 3e 18 72 1a bd b9 80 75 bd 56 36 b2 3d
       0.30581585 -0.037706465 -0.059937213 0.0870177
000200 92 64 b5 bd 8b e4 62 3e f7 43 bb 3c a8 83 9d bd
       -0.08857073 0.22157495 0.022859557 -0.07691127
000210 92 06 fb bd cb 60 0d bd b7 86 15 be da c7 96 3e
       -0.122571126 -0.034516137 -0.14602171 0.2944935
000220 1b d4 5b be 1e fe db 3c de 7b 66 bd 99 2c fa 3c
       -0.2146763 0.026854571 -0.056270473 0.030538844
000230 07 ba ce bb 4c 6b 35 be 22 69 98 bd 56 86 ed bd
       -0.0063087973 -0.17716712 -0.074419275 -0.11597888
000240 42 62 e6 be bf 5f 3b bd 17 cd db bd 1a bd 49 3e
       -0.4499684 -0.045745607 -0.10732477 0.19701043
000250 c2 a1 a7 bd 22 38 05 be 1e 01 28 be a5 e2 92 3c
       -0.0818515 -0.13009694 -0.16406676 0.017930338
000260 3b f9 20 3d 00 8c 21 3d 92 46 20 3e 34 77 6e be
       0.039300185 0.039440155 0.1565192 -0.2328766
000270 3e b0 28 be c1 31 00 3e cc 63 16 be 06 35 11 be
       -0.16473481 0.1251898 -0.14686507 -0.14180383
000280 ad bb b0 bc a5 7c 00 3e f6 7e 2b 3e 1b 73 dd bd
       -0.021573866 0.12547548 0.1674765 -0.1081297
000290 1c e1 f7 bd 55 ef ed bd fc 68 6e bd c4 3d 55 3e
       -0.12103483 -0.116179146 -0.05820559 0.20824343
0002a0 0d 76 f1 bd e3 d2 8a ba 16 54 a6 bd f2 3f 8a bd
       -0.117900945 -0.0010591414 -0.08121507 -0.06750478
0002b0 ca e5 f7 bc b1 9b 12 3e 8f f1 d4 bd d0 1d 4f bc
       -0.03026094 0.14317204 -0.10397636 -0.012641385
0002c0 46 f9 40 be 21 f6 d0 bd a1 b8 60 3d 7d 7a ec 3d
       -0.1884509 -0.10203195 0.054863576 0.115468
0002d0 7c cb 0d 3e 8d 6b 78 be 27 de 25 bc 7e 65 82 3c
       0.13847154 -0.24259777 -0.010123766 0.015917536
0002e0 2e cb ec bc 0a eb c4 3b 8c c5 15 3d aa f1 ab 3d
       -0.028905477 0.006009464 0.03656535 0.08395703
0002f0 d5 e8 a6 be 02 05 da 3d 98 b1 69 3d 9e 16 0c be
       -0.32599512 0.106454864 0.057054132 -0.13680503
000300 9e 2c 21 bb e1 ec 10 bd 97 32 38 be 7a 80 3b 3e
       -0.0024593244 -0.035382155 -0.17988048 0.18310729
000310 46 32 dc 3d 27 55 e2 3d 0c bf aa bd 78 f4 b6 be
       0.107517764 0.11051398 -0.083372205 -0.3573339
000320 d7 ad fb bd ef 59 39 be 9a d0 15 bd 8e 92 c0 be
       -0.12289017 -0.18100713 -0.03657589 -0.37611812
000330 ac 30 d0 3d 5e fb a9 3d f1 92 0c be 68 07 83 3b
       0.101655334 0.082998976 -0.13727929 0.0039986856
000340 ef 03 bc 3e 79 ee d8 3d b6 44 0c bd 15 37 8b be
       0.3672175 0.1059236 -0.034245215 -0.27190462
000350 af e3 b7 bd 7c ea 2c 3e 01 bd 35 be 4a 24 12 3e
       -0.08978974 0.16886324 -0.1774788 0.14271656
000360 b9 31 f2 3d 09 08 92 be b4 6f b7 3d 5f df 3a 3e
       0.1182589 -0.28521755 0.089568526 0.18249272
000370 11 c0 a3 bd c3 78 45 3c 61 d3 13 be 29 b7 21 be
       -0.07995618 0.012052718 -0.14436103 -0.15792526
000380 65 8a 96 3d ed b9 95 bd af ce 1c be 50 ac 50 3d
       0.073506154 -0.07310853 -0.15313219 0.05094558
000390 77 e1 01 be ae 5e 28 3d db ca 01 bd 22 84 8b be
       -0.12683664 0.04110592 -0.0316876 -0.27249247
0003a0 1e 35 15 be 2d 84 ce bb 39 4c bc 3d c3 4c 4e be
       -0.14571044 -0.0063023777 0.09194226 -0.2014647
0003b0 26 2b 8c bd 7a a4 c6 3e 38 7f c9 3d 70 18 56 3e
       -0.068441674 0.3879736 0.09838718 0.2090776
0003c0 26 9b e9 3e 0d e2 e6 3d 47 ba b1 bd 68 75 a1 be
       0.4562618 0.112735845 -0.08678108 -0.31534886
0003d0 97 81 4a bd d0 1a b5 3e 19 16 40 3d 4a fe 5b bd
       -0.049439993 0.3537202 0.046896074 -0.053709306
0003e0 1c d6 cc 3d 69 7e ab be 1f 47 f4 3d de cb a6 3e
       0.100017756 -0.3349488 0.11927628 0.32577413
0003f0 e1 ad 3f bb fd 65 6c bd c0 6c 2f 3e 12 d6 2d bd
       -0.0029247927 -0.05771445 0.17131329 -0.04244048

pool.lin_q.bias f4 [32]
000000 58 9d 68 bc 12 88 6f bb fd 8f 72 3d d8 23 10 bd
       -0.01419767 -0.003654961 0.05921935 -0.035190433
000010 c4 e3 3a 3d 75 97 33 3d 64 36 b7 3d 31 05 34 3d
       0.04562737 0.043845613 0.08945921 0.043950263
000020 29 7a 72 bc 3a 1d a7 3d c0 cc 8f bb c7 5e 97 3d
       -0.014799633 0.081598714 -0.004388422 0.07391124
000030 d0 3a 94 3c 3a 72 9f 3c 93 7c dd bd bd 45 c2 3b
       0.01809445 0.019463647 -0.10814776 0.0059287236
000040 bd b7 93 3d 56 7b 2c 3d c2 ae 36 3d a0 53 d3 3d
       0.0721278 0.04210981 0.044600256 0.103186846
000050 9d 4b a4 bd 98 97 da 3c f8 53 c5 bd 08 6b 1b bc
       -0.080222346 0.026683614 -0.096351564 -0.009485967
000060 98 00 06 bd f7 35 a8 3d 79 f2 c5 3b 68 fe 24 3d
       -0.03271541 0.08213418 0.006040868 0.040281683
000070 28 03 a2 bd 77 b3 08 bc ea 4f 69 ba ac 32 45 3d
       -0.07910758 -0.008343569 -0.0008900153 0.048144028

pool.gat_att.weight f4 [1, 64]
000000 f5 4c 04 3e 7d 3e 8f be 97 8f 6c 3e 7d 78 70 3d
       0.12919982 -0.27977362 0.2310165 0.058708657
000010 ef 97 8c bd c3 6c 80 bd 9a 58 c0 3d 4d 3f 02 3e
       -0.068649165 -0.06270745 0.093918994 0.1271946
000020 40 0e 2d be a5 86 09 be f3 2b c9 3d e5 c9 e4 3d
       -0.16899967 -0.13430269 0.09822836 0.11171321
000030 ea 22 23 be cd 21 1f 3e a1 03 ff bd a7 f4 07 3e
       -0.15931287 0.15540238 -0.12451864 0.13276921
000040 e7 71 0b 3e 84 f4 9d bd dc cb fc 3d 9e e7 00 3d
       0.13617669 -0.07712653 0.123435706 0.031470887
000050 3b 61 4c 3e 02 b6 95 bd 77 d4 3d be b9 1b 66 3e
       0.19958965 -0.07310106 -0.1853808 0.22471513
000060 b0 1a 56 bd c7 d2 b3 3d cf a0 be 3e 9c 1b 9c 3d
       -0.052271545 0.08780437 0.37232062 0.076224536
000070 d5 ef d7 bd 7f e5 8e bd 19 5d 0a be 97 83 f5 3d
       -0.10543791 -0.06977367 -0.13512076 0.119879894
000080 32 5e 3a be 45 e1 5b 3e 61 a4 a4 3e d4 7f 4e be
       -0.18199995 0.21472652 0.3215666 -0.2016595
000090 f5 29 c5 bc 62 f2 4e bd 98 aa 2a bd 73 8c 90 3e
       -0.024067858 -0.050524123 -0.041666597 0.28232154
0000a0 bb 49 39 3d b5 dd 27 3d f7 9c 24 be 6e 9e 90 3e
       0.04523633 0.04098292 -0.16075502 0.28245872
0000b0 b6 61 0e bb fe 8b 43 be 95 21 03 3d 3d 04 af bd
       -0.002172572 -0.19096372 0.03201445 -0.0854573
0000c0 ef 73 ac be e8 44 0f 3e 04 45 41 3d 4a 8e 12 3e
       -0.336822 0.1399113 0.04718496 0.14312091
0000d0 e1 6d 8f 3c f2 39 95 be 3d 09 ae 3c 22 81 ed 3c
       0.017508449 -0.2914577 0.02124464 0.02899224
0000e0 74 37 c0 bd 59 23 8c 3e 29 ca 93 bd 32 13 9a be
       -0.09385577 0.27370718 -0.07216293 -0.3009277
0000f0 df 34 d5 bd 5d 7c 25 3e 18 f1 27 3e ad 9d d4 3d
       -0.10410475 0.16160722 0.16400564 0.10381637

pool.gnn_score.weight f4 [32, 1]
000000 45 6f 8f 3d 8e 6c 54 bc 9e 89 b4 3d c7 f8 0f 3e
       0.07003645 -0.012965335 0.08815311 0.14059745
000010 9e f1 0f 3e 53 65 24 3e 93 1f a3 3c 5f ae 78 3d
       0.14057013 0.16054277 0.019912517 0.06071317
000020 e4 65 47 3d 63 ad da bd 76 b9 67 bc b5 ce 1a 39
       0.048681155 -0.10677602 -0.014143338 0.00014763589
000030 a1 8c 05 be 9c 0d 9c bd ad 1e c4 bd e6 c4 ac 3d
       -0.13041927 -0.07619783 -0.095761634 0.08435993
000040 91 35 fc bd 5c 3d 3a 3b 4b 6d ba 3d 8e dd d8 bd
       -0.123149045 0.002841792 0.09102877 -0.10589133
000050 51 54 ee ba fa f1 30 3e 39 6e 26 3d 59 f7 8b bd
       -0.0018183087 0.17279807 0.04063246 -0.06834287
000060 7c 8a b1 3c f7 8b 2f 3d b4 21 b1 3d 48 3c b8 3d
       0.02167248 0.04285809 0.086490065 0.08995873
000070 b7 a0 ba bd 02 e9 a7 bb 16 98 d8 3d ce ca e6 bb
       -0.09112685 -0.0051242122 0.10575883 -0.007043219

pool.gnn_score.lin1.weight f4 [1, 32]
000000 35 82 22 bd 4b 7f 9c 3d 56 5a b0 3d 19 e4 17 be
       -0.039674956 0.07641467 0.0861098 -0.14833106
000010 04 57 3b be f5 30 2f be 7f 89 5e bc ee 6e 67 bd
       -0.18294913 -0.1710852 -0.013582586 -0.056502275
000020 97 fc ad 3d 8e 2a c6 3c 56 6d d9 bd 9d 22 f0 3c
       0.08495443 0.024190214 -0.10616557 0.02931338
000030 11 a4 06 3e 00 02 fd bc 33 9a e0 3d c5 98 80 bd
       0.13148524 -0.030884743 0.10966911 -0.062791385
000040 e7 5e 0f 3e c2 07 55 bd 0e a7 7d bd 9c d8 7b 3d
       0.14001046 -0.05200935 -0.061926894 0.06148587
000050 d7 78 c5 bd 22 3c 72 3d d0 16 07 3d 37 82 1f 3e
       -0.09642189 0.05913938 0.03298074 0.15577017
000060 5c e1 42 bd 6d 21 77 bd 79 38 7d bd 5a 8b d1 3c
       -0.0475782 -0.06033461 -0.061821435 0.025579143
000070 9c d4 80 bd 9f 7d 6d 3d 42 42 1f be 6f 04 d9 3a
       -0.06290552 0.05798113 -0.15552619 0.0016557107

pool.gnn_score.lin2.weight f4 [1, 32]
000000 b8 0f f2 bd 7d 3e 69 be 56 02 23 be 8b 18 73 3c
       -0.11819404 -0.22777744 -0.1591886 0.0148373945
000010 ce 33 2a bd 7e 9e db 3d b9 ac df 3c 9e 08 61 bb
       -0.04155331 0.10723589 0.02730404 -0.0034337412
000020 ac 46 3a be 82 39 44 3e cc 95 8d 3e ce 57 ed 3d
       -0.18191022 0.19162562 0.27653348 0.11589013
000030 59 5d e9 3d 2c 27 5d bd 39 9f de bd 06 05 af ba
       0.11394758 -0.053992435 -0.10870213 -0.0013352938
000040 7e 8f d5 bd 5e ef a7 3d 0b 73 0a 3e fe 13 33 3e
       -0.104277596 0.081999525 0.13520448 0.17488095
000050 9a 39 13 3e 21 b3 6d be 42 90 e2 bd 9a 56 7c be
       0.14377442 -0.23212864 -0.11062671 -0.24642411
000060 21 04 ba ba 72 77 5e 3c ec 9b 1f be 09 92 89 bd
       -0.0014191904 0.013578283 -0.15586823 -0.06717307
000070 85 8b 35 3e 3a f8 70 be 77 f1 91 bd 69 c6 ca 3d
       0.17729004 -0.23532191 -0.07126134 0.09901125

pool.gnn_intra_cluster.weight f4 [32, 32]
000000 10 7f a2 be 95 cb b9 3e 9a 7a 9a 3e ce 7a 4e be
       -0.31737566 0.36288133 0.30171663 -0.20164034
000010 c6 63 94 3e e1 29 97 3e 4d 71 76 be bc 23 7c 3c
       0.2898237 0.2952414 -0.24066658 0.015389379
000020 2f c9 a3 3e 61 ea b7 3e 94 52 13 be 9b 5d 17 3e
       0.31989428 0.35921004 -0.1438697 0.14781801
000030 5f 0b 8e 3d a6 d9 49 be 8b 65 7c be 04 7b 0d be
       0.069357626 -0.19711933 -0.2464811 -0.13816458
000040 bd a1 17 3e 9f 39 0a 3e f6 48 52 bd bf d3 4d be
       0.14807792 0.13498543 -0.051339112 -0.20100306
000050 d0 25 a2 3e 69 78 8b be 0e aa 5b 3e c9 f5 ff 3d
       0.31669474 -0.27240303 0.2145159 0.12498052
000060 cd d9 15 3e 62 88 96 3e 37 0e 83 bd 76 f3 37 bd
       0.14633866 0.29400927 -0.06399196 -0.044909917
000070 5e 0e 79 3d f2 90 4d 3e 6c 60 4c be e1 72 0e be
       0.060804717 0.20074823 -0.19958657 -0.1391101
000080 87 c8 b1 3e ed 7e 4d be 67 b1 10 3e 69 4b b4 3e
       0.34723303 -0.2006795 0.14130174 0.35213783
000090 c0 91 a7 3e 82 85 34 3e 07 da c6 3d 74 4c ed 3d
       0.32728386 0.17629054 0.09709554 0.11586848
0000a0 1b 42 b3 bd 96 9d cd bc 45 28 4e 3e 99 09 0a 3e
       -0.08752843 -0.025099557 0.20132549 0.13480224
0000b0 84 e5 85 be 23 96 16 3e a4 d9 28 bc ff 9c 2f 3e
       -0.2615167 0.1470571 -0.010305796 0.17149733
0000c0 1b c8 c0 3d 1a 47 19 be 03 10 31 3e fc cf 95 bd
       0.09413167 -0.1496853 0.17291264 -0.073150605
0000d0 96 b2 c9 3c 2e 10 a4 3c 47 d8 a3 be 1f 70 85 3e
       0.02462129 0.020027246 -0.32000944 0.26062104
0000e0 00 3e 8f bd 30 a4 e2 3d f2 5a 60 3e cb ad 46 bc
       -0.069942474 0.110664725 0.21909693 -0.012126396
0000f0 5d 3d ec bd fe de 8b be eb 7c 81 be 52 49 8f be
       -0.115351416 -0.27318567 -0.25290617 -0.27985626
000100 62 4b 9c 3e b6 f3 f0 bd 19 67 18 bf c8 73 be 3d
       0.30526263 -0.11765234 -0.59532315 0.09299427
000110 59 29 b3 bd 2e c4 5d 3e de fa c6 bc 00 33 be be
       -0.08748121 0.21656868 -0.024289545 -0.37148285
000120 9e 73 0e 3d 51 0f 4b 3d e1 dd 48 be 69 35 a3 be
       0.03477823 0.049575154 -0.1961589 -0.31876686
000130 c3 20 e7 be 31 84 05 3f 86 92 88 be c5 34 c7 3d
       -0.45142183 0.52154833 -0.2667429 0.09726862
000140 80 0e 1e 3f 7e e0 9d be 33 05 d5 be 9b e1 76 be
       0.61740875 -0.30835336 -0.4160553 -0.24109499
000150 f5 9a 59 bd 38 10 27 3f c6 61 32 3d 2e a8 52 3e
       -0.053126294 0.6525912 0.043550275 0.20571968
000160 a3 9f 35 3e 80 ce e3 be 20 b9 d9 3e 5b a9 06 3e
       0.17736678 -0.44493484 0.42524052 0.13150541
000170 2a ca 5b bd bd 59 86 be 3d b5 d4 3d e9 d7 2b 3c
       -0.053659596 -0.2624034 0.10386131 0.010488489
000180 17 de 81 be 29 35 13 bc 92 6b 29 3e 72 04 56 3e
       -0.25364754 -0.008984842 0.16544941 0.20900133
000190 f9 da ac 3d 9f 17 86 bd b0 bf 16 bd 62 e5 50 3d
       0.08440203 -0.06547474 -0.0368039 0.051000006
0001a0 8f 5e 27 bd 28 ba 84 bd 63 31 7c be 12 be 85 3d
       -0.040861662 -0.06480819 -0.24628215 0.06530394
0001b0 dc 45 82 3e 9e cf b1 be fc 50 b6 be f6 de 9e 3c
       0.25443923 -0.34728712 -0.3560866 0.019393425
0001c0 17 93 3c be 4e f9 54 be 19 0e 94 3e 0e 47 52 be
       -0.18415485 -0.20798227 0.28917006 -0.20534918
0001d0 6c df 54 be b5 11 a8 be 84 a2 80 3e 4a 7b 79 3d
       -0.20788354 -0.3282601 0.2512399 0.060908593
0001e0 74 f8 c0 3e ce 13 48 be b5 86 f1 bd 21 0f 1e 3e
       0.37689555 -0.19538805 -0.117932715 0.15435459
0001f0 7b e8 8e 3e d1 a5 a8 3e c2 b3 36 3e 74 1a 5a be
       0.27911744 0.32939008 0.1784201 -0.21299154
000200 ba c4 39 be 79 c6 76 bd d6 03 b5 3e 53 37 f4 3d
       -0.18141451 -0.060247872 0.3535449 0.11924615
000210 4d d6 56 3d 3d 76 69 be f1 e2 85 3e 91 9c 7f 3e
       0.052450467 -0.2279901 0.26149705 0.24962069
000220 b4 49 a9 be 5b 13 14 3e b5 21 17 3e e5 df 77 3e
       -0.33064044 0.14460509 0.14758952 0.24206503
000230 68 1f f2 3d 73 4e 99 be dd a8 98 3c a1 a6 e2 3e
       0.118223965 -0.29942665 0.018635208 0.44267753
000240 3b 0d 17 3e 4c cb 64 be 86 c8 8c 3d 1d 17 d5 3e
       0.14751141 -0.22343177 0.06874184 0.41619197
000250 ba df 40 3c 6c a8 bf be e7 fe 3c bd 18 aa b5 3e
       0.011772091 -0.37433183 -0.04614153 0.35481334
000260 96 b7 ae 3c d2 3e 6d 3d 84 c4 f7 bc c9 56 61 be
       0.021327775 0.05792124 -0.030245073 -0.22005762
000270 2f fa 95 bd 36 f5 42 3e ba 66 dd be 9b 23 35 3d
       -0.07323109 0.19038853 -0.43242437 0.04422341
000280 1c 6e 24 3c 41 b9 19 3e 71 0f b6 3d 35 38 18 3e
       0.010036018 0.15012075 0.08889664 0.14865191
000290 a7 a1 29 be 3f 16 14 3e e5 66 bb 3d 23 f9 05 3e
       -0.16565572 0.14461611 0.09150485 0.1308332
0002a0 b1 93 6f bd 61 ab 61 3e 03 75 73 3c e6 f3 d3 3e
       -0.05849046 0.22038032 0.014859441 0.41397017
0002b0 76 ac 2d 3e 81 8a da 3c 6f 3e 7d be 91 2b ea bc
       0.1696032 0.026677372 -0.24730848 -0.028585227
0002c0 6b c3 8e be 65 41 35 be a9 28 d5 3d 90 0d 1b 3e
       -0.27883467 -0.17700727 0.10408146 0.15141892
0002d0 5a 7c 49 3c d0 b1 33 be b5 9f 4a be 51 a9 0f be
       0.012297714 -0.17548299 -0.19787486 -0.14029433
0002e0 50 79 0d 3e ff 90 09 3e 3d 7b 74 bc d1 c5 46 bd
       0.13815808 0.13434218 -0.01492196 -0.048528496
0002f0 41 36 fa be fc 2b 2d bd e6 65 04 be d9 2a 91 bd
       -0.48869517 -0.042278275 -0.12929496 -0.07088251
000300 ac b1 d6 be a7 20 6b be 1c 1a 89 3e 10 7e 47 be
       -0.41932428 -0.22961675 0.26777732 -0.19481683
000310 ca 8d 44 3e 77 1b 4d bd 74 6d a9 3d e4 f9 38 3e
       0.19194713 -0.05007502 0.0827283 0.18064076
000320 a8 89 30 3d ea 48 7a be 6b 0a 20 be 60 c9 9d 3e
       0.04310003 -0.24441877 -0.15628974 0.308177
000330 91 95 f0 3d 9e cf b7 bd 8f 37 d9 3d ed 8e 1f 3e
       0.117472775 -0.08975147 0.106063 0.15581866
000340 68 d0 04 3d 24 e7 84 be 66 1f 95 be a0 f8 d5 3e
       0.032425314 -0.25957596 -0.29125518 0.41791248
000350 84 b2 02 be ae 96 20 be 00 77 95 be ba ad 42 3e
       -0.12763411 -0.1568248 -0.29192352 0.19011584
000360 94 62 fe 3d 6f 98 bc 3e b9 0e 15 be 6f b4 91 3d
       0.12421146 0.36835048 -0.14556397 0.07114493
000370 55 83 57 bd 28 b7 2d 3e 39 aa 3c bd 39 d0 71 3d
       -0.052615482 0.169644 -0.046060774 0.059036467
000380 3c ba 11 be 78 75 b7 3d 8d 4f b8 3e 8f b9 16 3e
       -0.14231199 0.08957952 0.35998192 0.14719222
000390 92 70 46 be 0d e2 26 be 81 a1 f2 bd 70 f7 ba 3c
       -0.1937888 -0.16297169 -0.11847211 0.022823066
0003a0 dd 20 05 be 03 a4 6e be e9 25 9d 3e 65 fa 1e 3d
       -0.13000818 -0.23304753 0.30692986 0.038813014
0003b0 dc cf 4d 3d a9 95 48 3d 65 1f ac bd f6 76 12 be
       0.05024706 0.048970852 -0.084044255 -0.14303192
0003c0 2a 7a f3 be 01 b3 82 be 88 e9 2b 3c d1 ca 7e 3d
       -0.4755414 -0.25527194 0.01049269 0.06220514
0003d0 15 53 f4 bd b1 ae 8b be 26 2d 06 3d f6 f5 98 bd
       -0.11929909 -0.27281716 0.0327579 -0.07468788
0003e0 69 98 cc bd 93 6f 9e 3d 74 56 c7 be bb b7 70 bc
       -0.099900074 0.07736125 -0.38933146 -0.014692242
0003f0 d7 a6 bf bd d7 f3 b0 bd 26 c0 25 3d fe 1b 29 be
       -0.09357994 -0.08640259 0.04046645 -0.16514584

pool.gnn_intra_cluster.bias f4 [32]
000000 bd cf f7 bd bc 6d 87 3d 9a 20 b2 3d 4c 36 9b bc
       -0.1210017 0.06612727 0.086976245 -0.01894679
000010 33 80 4d bd 60 60 30 3d f9 87 a9 bc 4b b6 b8 3d
       -0.05017109 0.04306066 -0.02069472 0.090191446
000020 fc f4 86 3c 4e 10 8a 3d b6 e7 74 3d 25 dc a0 3d
       0.01647424 0.06741391 0.05979129 0.07854489
000030 ac 29 50 bd 85 13 10 be 5e 43 60 bd 2e a9 29 be
       -0.05082099 -0.14069946 -0.054751746 -0.16568443
000040 89 b6 10 be 01 7e 7b bd b0 a8 ea 3c b3 d4 c6 3d
       -0.14132132 -0.061399464 0.02864489 0.09708538
000050 5a 1c 32 3d 76 05 fd bd 6c f2 17 3d 23 9e c0 bd
       0.04348407 -0.12354557 0.037096426 -0.09405162
000060 9a 1d b7 3c 87 5b 18 3d 33 1a d2 bb 61 a8 cb bd
       0.022352982 0.037196662 -0.0064118146 -0.09944225
000070 3d 76 1c 3d 3e 20 a6 3d af ec 4a bd 60 87 11 bc
       0.0381987 0.081116185 -0.049542125 -0.008882374

conv3.weight f4 [32, 32]
000000 0d b2 58 3e 42 0c ae 3c f1 34 a0 3d fc 7d 70 bb
       0.21161671 0.02124608 0.07822598 -0.0036696186
000010 e0 0c f0 3d d4 e0 7e be 24 84 2f 3e 22 b8 90 be
       0.11721206 -0.24890453 0.17140251 -0.28265482
000020 23 38 60 3d 57 ed a5 bd 93 3d a4 3e 8a 58 ea 3d
       0.054741036 -0.081019096 0.32078227 0.11442669
000030 9b 9b 7d be cd 09 0c be 06 19 08 3e 15 8b df bd
       -0.2476639 -0.13675614 0.13290796 -0.109152
000040 e5 51 e3 3e c7 8c 4c be 3b b2 01 3e a6 ad 51 bd
       0.44398418 -0.19975577 0.12665646 -0.051190995
000050 71 aa 91 3d f7 36 b6 bd ea 14 c9 3d cd 04 c3 3d
       0.07112587 -0.088972025 0.09818442 0.095224
000060 0e 4c 57 3e 3f ef a1 3e ce 18 65 be cc 10 ab bd
       0.21025106 0.31627843 -0.22372743 -0.08352813
000070 f3 df aa 3d 68 12 16 3e 1b b0 44 3e 55 2f c0 3d
       0.08343496 0.14655459 0.19207804 0.09384028
000080 2d b2 37 be 0a 28 90 be 62 bd 9b 3d b0 b1 91 bd
       -0.17939062 -0.28155547 0.07604481 -0.07113969
000090 7d 3b d5 bd 56 7d 35 3e 17 6c ff 3d 1b 33 5d 3d
       -0.10411737 0.17723593 0.124717884 0.054003816
0000a0 56 2d 5b 3e b0 7f 5a 3e d2 f0 02 be 8e 6d 3f bd
       0.21404013 0.21337771 -0.12787178 -0.04673534
0000b0 ba c2 31 3e a0 25 0d 3e e8 aa 81 be f1 be 2c 3d
       0.17359439 0.13783884 -0.25325704 0.042174283
0000c0 f4 56 83 3e 9d ec 22 be 2c 64 54 be 1c d5 85 be
       0.25652277 -0.15910573 -0.20741338 -0.26139152
0000d0 45 81 74 be e4 17 61 be 6b f3 b5 bb 06 5c 0b 3e
       -0.23877437 -0.2198177 -0.0055526993 0.13609323
0000e0 38 25 19 3d 6c 9a 48 be 49 7e 82 be d5 70 cf be
       0.03738901 -0.19590157 -0.25486973 -0.40515772
0000f0 d2 57 d2 3d 86 7d 46 be f6 e2 55 3e 32 79 1e 3e
       0.10270657 -0.19383821 0.2088736 0.1547592
000100 53 3a aa be be 43 ba 3d 11 25 35 be a0 02 2a 3e
       -0.33247623 0.09094952 -0.17689921 0.16602564
000110 b9 ac 1a bd cb 19 1f be b6 f2 f5 3a ee 0e a2 bd
       -0.037762377 -0.15537183 0.001876435 -0.07913004
000120 83 04 27 be 53 a0 85 3d 29 4e 24 be 97 d2 9e be
       -0.16310315 0.0652472 -0.1604544 -0.31020042
000130 6d 43 95 be 5a 05 0a 3e 12 29 83 3d 6e 7e 6d 3e
       -0.29153004 0.13478604 0.06404318 0.2319276
000140 72 30 1e be f8 3b 13 3e c3 7a bc 3e a9 f9 12 be
       -0.15448168 0.14378345 0.3681241 -0.1435305
000150 91 a3 15 bc 8d f6 06 be 36 3f 15 3e 38 5b 8f be
       -0.009133236 -0.13179989 0.14574894 -0.27999282
000160 95 6f 8b bd 4b 86 28 3e ba c8 29 be 27 48 ee bd
       -0.06808392 0.16457479 -0.16580477 -0.11634856
000170 20 2d 27 be c0 f0 a6 3e 14 02 5b 3e aa 81 06 3e
       -0.16325808 0.32605553 0.21387511 0.131354
000180 17 6a 19 3e 76 99 28 3e 8f a2 44 bd 67 84 39 be
       0.14981876 0.1646479 -0.04800659 -0.18116914
000190 4b 6e 9f be 80 20 3a be d3 c9 91 be c3 0d 76 be
       -0.31138834 -0.1817646 -0.28474292 -0.24028687
0001a0 50 72 26 be 56 32 93 bd 97 10 ea 3d 12 98 f5 3d
       -0.16254544 -0.07187335 0.114289455 0.11991896
0001b0 d7 ad a8 be 51 89 ae 3e a0 75 0d be a9 75 3f be
       -0.3294513 0.3408914 -0.13814402 -0.18697228
0001c0 5d ad ef 3e d1 0a 19 3e b5 a5 cd bd 9d 2a 02 be
       0.46811953 0.14945532 -0.10041372 -0.12711568
0001d0 8f fd 73 be 0b e1 69 be 6c 9f 01 be 39 5d 80 3d
       -0.23827194 -0.22839753 -0.12658471 0.06267781
0001e0 40 7e dc bd 27 08 f0 3d 5c 51 b5 bd 8c 0a a3 3d
       -0.10766268 0.11720305 -0.08853409 0.07960996
0001f0 a3 5c 0e 3e 50 44 87 3d 55 75 a1 3d 02 2c 7e be
       0.13902526 0.066048265 0.078837074 -0.24821475
000200 7d 09 24 be 04 10 62 3d 26 00 2a 3e 0d 93 0e bd
       -0.16019244 0.055191055 0.16601619 -0.034808207
000210 d9 2f d3 be 48 0f 38 bd 27 0e 8d 3d c1 64 c5 3e
       -0.41247442 -0.04493645 0.06887465 0.38553432
000220 d5 67 ca 3d 88 9b df 3d 93 aa 32 3e 53 cf e5 3e
       0.09883086 0.10918337 0.17447881 0.44884738
000230 71 f9 32 bd b9 ae 8a bc 9a 3e 38 be 5c cd d6 3b
       -0.043694917 -0.016929017 -0.1799263 0.0065552425
000240 15 93 1c 3f 46 30 22 3e 59 ab ed bd f2 34 99 be
       0.6116193 0.15838727 -0.116049476 -0.29923207
000250 4c bd ec be 1c df 87 be af de 0b be 34 a7 e8 3b
       -0.46238172 -0.26537406 -0.13659166 0.0071000103
000260 41 af 5a be cd 61 39 3e 1f a6 3d be d7 b6 1f be
       -0.21355917 0.18103714 -0.18520401 -0.15597092
000270 f2 3a d8 bd 01 b3 00 3e 9d b7 1f be 06 8d 1c be
       -0.10558118 0.12568285 -0.15597387 -0.15288171
000280 8c 0d 21 be b1 4a ae 3d 37 b1 26 3e 94 39 7c be
       -0.15727824 0.0851034 0.1627854 -0.2463134
000290 36 55 ba 3c df 6b 83 bc d5 68 72 be 9d 0a 8e 3e
       0.02274571 -0.016042648 -0.23672803 0.27742472
0002a0 10 07 dd 3b bc 5f ae 3d eb 61 ef 3e 92 ac 25 3e
       0.0067452267 0.08514354 0.46754393 0.16179112
0002b0 d5 ce ab be b6 e8 d3 3e 21 7f 3b be 17 ef 5d 3e
       -0.33556238 0.41388482 -0.18310215 0.21673237
0002c0 7a 88 ff 3e b6 16 f3 3c dc d5 6a 3e 14 08 45 3e
       0.4990881 0.029673915 0.22933143 0.19241363
0002d0 db 63 1b 3d 5f e5 bb be d9 69 7e be 8a e4 b6 3d
       0.037937026 -0.36698434 -0.24845065 0.08930309
0002e0 0f 69 3e 3e 54 98 47 be 8a d1 2b 3e 8e 85 8e 3d
       0.18594764 -0.19491702 0.16779152 0.06959067
0002f0 7e 2b b6 3e 98 98 87 3d 28 82 c2 bd 6b 8a a9 be
       0.35580057 0.06620902 -0.094974816 -0.33113417
000300 c4 64 0f bd 00 ec a6 3b b4 76 0c 3e 54 1f 29 bd
       -0.035008207 0.0050940514 0.13717157 -0.041289642
000310 b6 1d 90 3d 69 5f 69 be b7 0c 6f 3e f3 47 77 be
       0.07036917 -0.22790302 0.23344694 -0.2414854
000320 38 6f 6a be 6c 26 5e be 79 61 e5 3d a5 e1 6f bd
       -0.22893989 -0.21694344 0.11200232 -0.0585648
000330 9b ba 3c be 43 c8 06 be 75 db be 3e 6c aa c6 bc
       -0.1843056 -0.13162331 0.37276807 -0.024251185
000340 26 02 be be a3 d2 fe 3d d1 09 18 be 87 cb cf 3d
       -0.37111014 0.124425195 -0.14847495 0.10146242
000350 35 d1 7e 3e 2e 66 08 be f1 e9 23 3e 06 6a a5 3d
       0.24884494 -0.13320228 0.1600721 0.08076863
000360 c0 fe 07 be 9b 13 bb bd e6 f2 c8 3d c6 30 98 be
       -0.13280773 -0.09134599 0.09811954 -0.2972471
000370 62 53 57 be be d0 5b be 6d 01 fa 3d a9 03 a1 3d
       -0.21027902 -0.21466348 0.12207303 0.07862026
000380 7f c3 89 3d 86 60 e8 bd f6 c5 a3 3d e2 d4 a4 3d
       0.06726741 -0.113465354 0.079967424 0.08048417
000390 f8 73 f8 bc 62 12 d4 bd 92 1f 72 3e 9a 2c 5a 3c
       -0.030328736 -0.10355069 0.23644856 0.013316298
0003a0 90 d2 99 3e 5c 54 95 3d e1 e3 b3 bd 0f bb 05 be
       0.3004346 0.07291481 -0.08783699 -0.13059638
0003b0 94 af d8 bc b9 fe 3c 3e 03 49 5e be aa 23 15 3d
       -0.02645091 0.18456544 -0.2170754 0.036410965
0003c0 3f 8a d5 3d 66 92 15 3e f7 5c 2c be c6 a7 98 bd
       0.10426759 0.14606628 -0.16832338 -0.07453875
0003d0 0f fd 88 3d 1a c2 57 3d 6c 3a 2c be e1 08 66 be
       0.06688892 0.052675344 -0.16819161 -0.22464325
0003e0 5e 6a 50 3c b4 ce 38 bd ad 63 81 3e 66 c2 a1 be
       0.012720672 -0.045119002 0.2527136 -0.31593627
0003f0 40 d5 87 be 0d 17 4e be bb 2e 8f 3e ae 68 1e 3e
       -0.26529884 -0.2012598 0.2796534 0.1546962

conv3.bias f4 [32]
000000 39 e6 96 3c 56 ea 29 3d a1 14 34 bd 89 5f 14 bd
       0.018420326 0.041483246 -0.043964986 -0.036223922
000010 4a 81 93 3c b7 a1 14 bc 19 e9 6a bc d6 c2 03 bd
       0.018005986 -0.009071759 -0.014337801 -0.032168232
000020 52 43 6b bc ae 8f 72 3b 23 43 6d 3c b1 b6 8c bd
       -0.014359312 0.003701191 0.014481339 -0.06870783
000030 6d 93 67 3d 09 30 8f bc 4b 40 e2 3c 92 0a 73 bb
       0.05653708 -0.01747896 0.027618548 -0.0037085158
000040 3d c4 89 bd 0d 29 14 3d 6c 0b 2c 3d 0c 53 4c 3d
       -0.067268826 0.03617196 0.04200308 0.049883887
000050 db 47 d0 3c 63 d2 1e 3d be 1e 85 3b 51 b5 58 bd
       0.025424888 0.03877486 0.0040625026 -0.05290729
000060 5f 48 83 3d e3 4d a1 bc 3a 83 7a 3d b5 2b 61 3b
       0.06410288 -0.01969046 0.061160304 0.0034358327
000070 39 bd 89 bc a8 04 71 bd b4 73 fb 3c ed 31 85 3c
       -0.016813861 -0.05884233 0.03069482 0.016259158

conv4.weight f4 [32, 32]
000000 24 45 67 bc 5f d0 82 be 8c 69 8a bd e1 be 96 3e
       -0.0141156055 -0.255496 -0.06758413 0.29442504
000010 84 01 53 3b 54 63 bf bd 47 bc 99 be 37 dd 9a be
       0.0032196948 -0.09345117 -0.30026457 -0.302469
000020 16 28 50 bd 01 93 8c 3c 4c f0 05 3c 1b dd 2f 3c
       -0.05081948 0.01715994 0.008174967 0.010733868
000030 ec 09 82 be 20 75 17 be 27 b4 9f be db 81 13 be
       -0.25398195 -0.14790773 -0.31192133 -0.14405005
000040 87 0f 41 3d ce 07 3e be ee ec 66 3e b6 41 98 3e
       0.04713395 -0.18557665 0.22551319 0.29737633
000050 1e 98 0c be 3a d4 c6 bd 7d 9d 23 bd 9f f3 09 3e
       -0.13729903 -0.09708448 -0.039945114 0.1347184
000060 cf 68 89 3e 68 1a 83 bd ec 40 a0 be d5 b4 83 3e
       0.26837775 -0.06401521 -0.3129953 0.257239
000070 b0 f6 0b 3e dc 48 f6 bc c1 1b 5f be cb cc 86 bd
       0.13668323 -0.030064039 -0.21787931 -0.0658203
000080 73 18 87 3e c2 8d 43 3e cc d6 9c 3e 2c bf 87 be
       0.2638584 0.19097045 0.30632627 -0.2651304
000090 99 2d 22 be 12 c9 e1 bd f3 99 d0 3d 96 f9 8f 3e
       -0.15837707 -0.11024679 0.101856135 0.28120106
0000a0 82 74 26 bd 65 c1 97 3e f7 2f 2d be 20 31 68 be
       -0.040638454 0.29639736 -0.16912828 -0.2267499
0000b0 cc 15 29 bd b1 34 92 be f6 25 76 be db 22 8d 3e
       -0.041280553 -0.28555825 -0.24037918 0.27565655
0000c0 ee a2 6d be 54 21 35 be 75 3d 15 bd 44 e8 2e be
       -0.23206684 -0.17688495 -0.036435563 -0.1708079
0000d0 51 53 0b be 8f 60 f8 bc 60 52 02 be 60 96 35 3d
       -0.13606001 -0.03031948 -0.12726736 0.044332862
0000e0 a9 c8 34 3e b0 9b 3a 3e 0d b4 77 3e 8e d5 69 be
       0.17654671 0.18223453 0.24189778 -0.22835371
0000f0 77 5f 29 3e e9 1b a5 3e 6f 52 9c be f5 0c e6 bd
       0.16540323 0.32247856 -0.30531642 -0.1123294
000100 b2 07 4a be 47 16 2d 3e 46 b6 0d be b3 3b d0 bd
       -0.19729498 0.1690303 -0.13839063 -0.10167637
000110 79 c4 13 3e 6c 55 7c 3e b8 50 84 3e 2a cd 9f bd
       0.14430417 0.24641961 0.25842834 -0.07802804
000120 9b 50 27 3d c7 cc 59 3e 2b e7 61 3e c3 f9 6a be
       0.040848356 0.21269523 0.2206084 -0.22946839
000130 d1 1e bb 3d 44 5d 13 3e 33 40 82 3c 03 24 89 3e
       0.09136737 0.14391047 0.015899753 0.26785287
000140 61 55 03 be ce 02 91 3e 9c 12 6d bd c7 56 4b be
       -0.12825538 0.28322452 -0.057879075 -0.19857322
000150 5b 9b d7 3b 8a 8a 46 be 88 b8 b0 3d 19 8e 2f 3d
       0.006579799 -0.19388786 0.086289465 0.042860124
000160 94 3d 22 3e 41 c3 7b be 4a 34 5f be e1 9a 74 be
       0.15843803 -0.24586202 -0.2179729 -0.23887207
000170 bc 08 5e be a1 a0 97 3c 14 2c 08 3d 34 d0 62 3c
       -0.2168302 0.018509211 0.03324516 0.013843585
000180 ab 3a 4e bd 19 0e a6 bc 39 30 44 3e 41 4a 81 3d
       -0.05034892 -0.020270394 0.1915902 0.06312991
000190 a5 36 c4 3d e8 ee 93 3e 6a 51 d4 bd 7c ec 15 be
       0.09580735 0.28893209 -0.10367091 -0.14640993
0001a0 b9 2a 07 be 75 2c 89 be f3 9a 8d 3c a9 4a e1 bd
       -0.13199891 -0.2679173 0.0172858 -0.110005684
0001b0 9b 16 4d be dd 9d e8 bd 34 62 4e 3e 31 c7 fa bd
       -0.20028155 -0.11358235 0.20154649 -0.12245024
0001c0 01 f5 03 3a 14 2e a9 be 48 93 9a 3e e9 80 31 bc
       0.0005033762 -0.33042967 0.30190492 -0.010833957
0001d0 df 1b 57 be 44 52 a8 be be 7b 31 be 05 d0 b0 bb
       -0.21006726 -0.32875264 -0.1733236 -0.0053958916
0001e0 9b d1 f8 3d a0 b9 0d be 3a de 37 be 43 e2 69 be
       0.12149354 -0.13840342 -0.17955866 -0.22840218
0001f0 57 c3 39 3e 5a ce 20 3d 72 ee 3e 3e 81 12 9b 3d
       0.18140922 0.039259292 0.18645647 0.07571889
000200 71 3b 56 bd 56 4e 31 3e b5 2b 6e bd 1e f8 01 be
       -0.05230278 0.17315039 -0.05814715 -0.12692305
000210 99 13 57 3e c8 7c ab 3d cf 5d 13 be f6 a9 85 3d
       0.2100357 0.083734095 -0.14391254 0.06526558
000220 04 f9 e8 3c 43 b6 30 be cc 48 da 3d 7e c3 7d bd
       0.028439052 -0.17257027 0.10658416 -0.061954014
000230 80 0f 2c 3e 5d 34 61 be 37 21 c7 3c 47 43 36 be
       0.16802788 -0.21992631 0.02430783 -0.17799102
000240 ec ce 1f be 59 2f 06 3e 5b c4 21 be 16 80 e9 bb
       -0.15606278 0.13103999 -0.1579756 -0.0071258647
000250 c0 4a 18 3d b7 b3 ba 3d 50 29 2d bd e2 40 d0 bd
       0.037180662 0.09116309 -0.042275727 -0.101686254
000260 11 fe 82 3d 85 f1 f0 bd 78 72 1b be 53 69 42 3d
       0.063961156 -0.11764816 -0.15180385 0.047463726
000270 e7 7b 25 be db 34 b4 be 97 f3 a2 bd 56 7f e6 bd
       -0.16160546 -0.35196576 -0.07956617 -0.11254756
000280 15 a9 52 3c 2e f3 43 3d 93 f4 ca bd b2 42 5a be
       0.012857695 0.047839336 -0.0990993 -0.21314505
000290 22 0c c2 bd 4c 60 4c be 11 e1 29 be 7b fb d5 3c
       -0.094749704 -0.1995861 -0.16589762 0.026120892
0002a0 83 60 81 3e fd 2f 19 3d e9 9d 47 3e 9e c3 94 be
       0.25268945 0.03739928 0.19493832 -0.29055494
0002b0 66 da 70 3d 0d f5 4d bd ba 61 d8 3d 40 52 86 3e
       0.05880203 -0.050282527 0.10565515 0.26234627
0002c0 b2 b4 2a be 98 30 ad bd f1 b2 93 3e a9 63 74 be
       -0.16670492 -0.08456534 0.2884746 -0.23866142
0002d0 11 2d 10 3e 2c 30 00 be 26 b4 79 3e 9e 59 3b be
       0.14079691 -0.12518376 0.24385127 -0.18295905
0002e0 0e fc 80 3e 49 b7 0a 3c 4e 6a ef bd a3 1a 33 be
       0.25192302 0.00846655 -0.11690198 -0.1749063
0002f0 d2 15 45 3e c0 04 49 be e4 33 95 3d 6a c9 1a 3e
       0.19246605 -0.19630718 0.07285288 0.15115896
000300 52 41 24 be f6 85 f3 bd 46 b6 16 be 0b 83 5a 3e
       -0.16040543 -0.118907854 -0.1471797 0.21339051
000310 27 fb 28 be 57 a5 a4 3d e6 bf 7a 3e b2 e3 8f 3d
       -0.16502057 0.080393486 0.24487266 0.07025851
000320 18 8b 71 3e 10 2a aa bd 03 ce 8b 3e 5c 68 50 3e
       0.23588216 -0.08308804 0.27305612 0.2035231
000330 79 06 0a be 7f e1 82 3e fa 36 9c 3e f3 2f 3d 3e
       -0.13479032 0.25562665 0.30510694 0.18475322
000340 c9 76 c5 bd 8a b3 d3 3d 63 c4 88 be f6 e7 c5 bd
       -0.09641797 0.10336979 -0.2671233 -0.09663384
000350 a6 96 19 be 4d 44 8e be f9 6f 23 be 39 56 01 3e
       -0.14998874 -0.27786484 -0.15960683 0.12630548
000360 12 55 0a be fb d0 80 be e9 41 92 3d e2 ce 5d 3e
       -0.13509014 -0.2515944 0.071414776 0.21660951
000370 5f 00 41 3e 0c c8 08 be 1a 3e d2 3c 4d 1a f8 3d
       0.18847798 -0.13357562 0.025664378 0.121143915
000380 51 66 db 3d 25 51 95 3d d6 a8 84 3e 68 53 4b 3e
       0.10712875 0.07290868 0.25910062 0.19856036
000390 01 b5 8f 3d f6 7f 11 be 34 f3 cd bd e7 90 40 be
       0.07016946 -0.1420897 -0.10056153 -0.18805276
0003a0 4d 7d 98 be 01 55 a8 bb f7 cc 8c be 45 a7 6f 3e
       -0.29783097 -0.0051370864 -0.27500126 0.23403652
0003b0 fd 56 98 be ac 21 8d 3e 40 a0 cf 3d cd 3d c8 bd
       -0.29753867 0.27564752 0.10137987 -0.097774126
0003c0 bb ef 00 bd 6e 17 50 bb 4c b9 72 3e 58 8b b4 be
       -0.031478625 -0.0031752246 0.23703498 -0.3526256
0003d0 bb f0 8d 3e 86 26 7f bc 76 0b 70 be 6b eb 50 3e
       0.27722725 -0.01557315 -0.23441872 0.20402305
0003e0 4e 6a 88 3e 9f da b1 bd 8c 72 c4 3d 55 5e e3 bc
       0.26643604 -0.08684277 0.095921606 -0.027754942
0003f0 6e 39 04 be 28 93 35 3e 62 b1 62 be ba 08 b3 be
       -0.12912533 0.17731917 -0.22137979 -0.34967595

conv4.bias f4 [32]
000000 b6 0f 51 3d a6 ad cf 3c 3f af eb 3b b0 55 10 bd
       0.051040374 0.025351357 0.007192522 -0.035237968
000010 2e 40 30 3d f7 ba 5a bd be 91 1e 3c 5a 86 b0 3b
       0.043029957 -0.05340096 0.009678302 0.0053871097
000020 00 1a 31 bd c0 02 fd 3b d3 bd 3f 3d 37 6a e5 3c
       -0.043237686 0.007721275 0.04681189 0.028004749
000030 fd 38 95 bc bc ec 51 bd 68 2b 13 bd 9a ca 95 3c
       -0.01821565 -0.051251158 -0.035930067 0.018285085
000040 9a a4 21 bc 35 ee 70 bd 22 77 5e bd d8 78 c2 bc
       -0.009865904 -0.058820922 -0.054312833 -0.023739263
000050 33 ce 4d bd 4c fc 34 bc 7d 99 07 3d 55 39 16 bc
       -0.050245475 -0.01104648 0.033105362 -0.009168942
000060 4a aa 99 3c db 18 50 3c a9 68 ed 3c 0c 5a 93 3c
       0.018757958 0.0127012385 0.02898057 0.017987274
000070 d0 f9 76 3c b7 9f a2 3c 79 a4 c8 3c ac 2e f9 3b
       0.015074208 0.019851549 0.02449249 0.0076044407

conv5.weight f4 [32, 2]
000000 e3 6b 90 3e 80 8f 06 3e 0e 5a 94 3c 2b 6d 0c 3d
       0.2820731 0.13140678 0.018109348 0.0342838
000010 95 81 7e 3c 11 20 86 bc 31 ad 51 3b 6a 9d a1 bd
       0.015533824 -0.016372712 0.00319941 -0.078913525
000020 22 3c 4c 3e 05 14 0d 3e cc c7 9b be 96 ab d4 bd
       0.19944814 0.13777168 -0.3042587 -0.1038429
000030 2c ad 2b 3e 96 8d a1 bd 12 5a d6 3c ff 7e aa bc
       0.16765279 -0.078883335 0.026165996 -0.02081251
000040 3c 3c 02 3e 03 f8 35 be fa 45 ac 3c f9 1e 16 bc
       0.1271829 -0.1777039 0.021029461 -0.009162658
000050 d2 6b 35 3e 36 8b 1b 3e ac 6f 89 3d 77 d7 ef 3d
       0.17716911 0.15189824 0.06710753 0.117110185
000060 bb 25 28 3d 52 87 fb bd 33 8c 31 be f2 cb f8 bd
       0.041051608 -0.1228167 -0.17338638 -0.121482745
000070 8c 31 98 be a8 c9 28 3e bf d1 22 3e 4e 65 2b bd
       -0.297253 0.16483176 0.15900324 -0.04184466
000080 c3 5e 4a bd 27 f8 d6 3c d3 c9 c0 3d b5 ba 23 be
       -0.049406778 0.026241375 0.09413495 -0.15989192
000090 f7 13 27 be 09 a0 1f be e1 37 4e 3d ad d3 ad bd
       -0.1631621 -0.15588392 0.05034626 -0.084876396
0000a0 44 2c d6 3d ba e9 4e be f1 0f 77 3d 3b af 84 bd
       0.10457662 -0.20206347 0.060317937 -0.06478735
0000b0 55 8a bb bc 7b e4 c2 3d 93 c0 eb 3d 34 c7 ff bd
       -0.02289311 0.095162354 0.1151134 -0.12489167
0000c0 99 7c 28 3d 7d 3c 4f 3d bb 9a b3 bd d9 ff 34 3d
       0.04113445 0.050594795 -0.08769747 0.044189308
0000d0 52 70 e5 3d 59 d8 19 3b 2e 1e e1 3a 5a 91 f3 3d
       0.11203064 0.00234749 0.0017175132 0.11892958
0000e0 55 d1 05 3e 67 b5 b5 bd 25 92 4a 3b 43 13 9a 3c
       0.13068135 -0.088724904 0.0030909863 0.018808013
0000f0 41 b0 fe bd d7 a7 23 3e b7 03 d4 ba 51 e1 f4 3b
       -0.124359615 0.15981995 -0.0016175424 0.007473149

conv5.bias f4 [2]
000000 1e 11 85 3d 14 74 b7 3d
       0.064974055 0.08957687
