GST-recon/checkpoints/best_grid_CapsulePool_0.9.pth (torch, 24666 bytes, 17 tensors)

conv1.weight f4 [2, 32]
0.003091482 -0.18500018 0.08734331 0.059398912 -0.16863018 -0.04185887 -0.11690587 0.10308653
-0.090665884 0.23482497 0.27652234 0.026328916 -0.1612574 -0.20825912 -0.024301032 -0.022767333
0.13346736 -0.25893334 0.43913674 -0.35646436 0.23826429 -0.028639065 0.265962 0.14306569
0.008837351 -0.00245719 0.36951637 0.11050413 0.20062758 -0.31202713 0.2191012 0.12054104
0.057347108 0.0755895 0.10331179 0.23660478 -0.026172025 -0.20713864 -0.021135243 -0.18600093
0.104970135 -0.15939607 -0.18749478 0.29140666 0.25652045 0.050259024 -0.029456634 0.01787365
0.13245344 -0.43024555 -0.33671027 0.3852275 0.21253932 -0.019786088 -0.27941817 0.007619652
-0.13703714 -0.008144326 0.26079538 0.13298061 -0.03939405 0.04170691 0.10120573 -0.32963994
00000000: 769a 4a3b b070 3dbe 0de1 b23d 464c 733d
00000010: 64ad 2cbe 3574 2bbd 586c efbd 081f d33d
00000020: 09af b9bd f575 703e 5694 8d3e bdaf d73c
00000030: a920 25be e141 55be f512 c7bc 8f82 babc
00000040: abab 083e e992 84be 88d6 e03e 7f82 b6be
00000050: 8efb 733e 799c eabc 2c2c 883e d07f 123e
00000060: 89ca 103c cf08 21bb 4031 bd3e fd4f e23d
00000070: 5171 4d3e 05c2 9fbe 115c 603e 39de f63d
00000080: cde4 6a3d abce 9a3d 2295 d33d 8648 723e
00000090: b766 d6bc 271c 54be d123 adbc 0777 3ebe
000000a0: 95fa d63d b938 23be a2fe 3fbe 4133 953e
000000b0: a656 833e 68dc 4d3d 0a4f f1bc c36b 923c
000000c0: e0a1 073e 2549 dcbe 4a65 acbe 8a3c c53e
000000d0: e8a3 593e 6f16 a2bc e60f 8fbe 46ae f93b
000000e0: 7753 0cbe c76f 05bc f986 853e 122c 083e
000000f0: a85b 21bd ddd4 2a3d f344 cf3d 91c6 a8be

conv1.bias f4 [32]
-0.011315547 0.14203867 -0.10041746 -0.024349779 -0.012809673 0.12557961 -0.0719301 0.10832531
0.08494962 -0.00092251535 -0.29919854 0.00505926 -0.012957444 0.047056682 -0.11246594 -0.021881716
-0.079385705 0.032419436 0.030601582 -0.35600913 -0.07562078 0.13239819 -0.15493156 -0.0665888
0.081280984 -0.14231928 0.07128936 -0.16322 -0.026696123 -0.15103975 -0.06101907 -0.08618453
00000000: d864 39bc 9672 113e aba7 cdbd 3079 c7bc
00000010: aadf 51bc f197 003e 1750 93bd a9d9 dd3d
00000020: 11fa ad3d f5d4 71ba 8d30 99be 26c8 a53b
00000030: 764b 54bc 82be 403d 8b54 e6bd 4941 b3bc
00000040: f994 a2bd 3eca 043d 2bb0 fa3c d446 b6be
00000050: 11df 9abd 6493 073e 61a6 1ebe b55f 88bd
00000060: a576 a63d 25bc 11be 2800 923d 2523 27be
00000070: d4b1 dabc 2aaa 1abe 22ef 79bd 8481 b0bd

conv2.weight f4 [32, 32]
-0.065687954 0.05444941 -0.060673475 -0.06768463 0.0799743 0.18698831 0.023295255 -0.058357183
0.15025033 -0.10836032 -0.109767966 0.287374 0.05581801 0.008968119 0.030367138 -0.03544355
0.37384576 -0.2042935 -0.03987925 -0.040828582 -0.11628714 -0.117998175 0.20571963 0.20813675
0.063949816 0.25842813 -0.19756496 -0.15647133 0.06580865 0.029257756 -0.33336288 -0.19812109
-0.16421464 0.22317855 -0.0033042994 0.19807363 -0.22678795 -0.28458387 -0.20187873 0.061534986
-0.088790976 -0.19451837 0.2710963 -0.10994759 -0.08947451 0.09114874 -0.08805151 0.26278424
0.06597765 -0.030102622 0.15596744 -0.22310957 -0.19683723 -0.1531987 -0.1432691 0.012320472
0.054523785 -0.14066537 0.1828249 -0.12318415 0.1340826 -0.09106395 -0.1414941 -0.19520158
0.1251534 0.14413384 -0.1229785 -0.035044424 -0.2731605 0.17275333 0.2741184 0.09742229
-0.16883554 0.1748038 0.21171114 -0.07029785 -0.09496562 0.09906167 -0.012926625 -0.11088448
-0.22929464 -0.20085847 -0.02940238 -0.02764159 0.16783878 -0.0031546962 -0.09727033 -0.18672086
-0.042068873 0.13293873 0.26438653 -0.020736579 -0.29775614 0.1264351 0.14097199 -0.20915575
-0.06067764 0.059708644 -0.08929549 -0.19261809 0.14827026 -0.22631682 -0.1261738 -0.17140645
0.21783042 0.09094648 0.08974151 -0.21363297 0.23062488 0.014662954 -0.21535654 -0.011797329
-0.0752171 -0.0122182695 0.16606742 -0.1715791 0.20560299 0.04506786 -0.057112318 0.1620395
0.05399548 -0.05523427 -0.18913203 0.14611848 0.10517961 0.1327993 0.1051 0.3104719
0.28994572 -0.32007363 0.009720416 -0.06613018 0.0876648 -0.056138027 0.077618204 -0.2836207
0.095803164 0.275207 -0.01421874 -0.23837484 -0.14620624 -0.07364069 0.003191034 0.09597959
0.030213151 0.20141257 0.10228391 0.04230472 -0.057989098 0.32289812 0.14099734 -0.16977267
0.10324039 0.08446576 0.045188874 -0.07434053 0.051540773 -0.00039587583 0.013484183 0.058945764
0.06400402 -0.21043722 -0.013891063 -0.16284703 -0.2434652 -0.2014037 -0.21892777 0.08357553
0.16713367 0.24771167 0.3493538 0.13441932 0.17168128 -0.033681016 0.28564492 -0.11480698
-0.22360213 -0.0893311 -0.23706645 -0.1915564 -0.025040764 0.27125746 -0.117581025 -0.36129335
-0.19281785 0.25030947 0.076064266 0.008469715 0.0021967234 0.23131126 -0.19490607 0.18048766
0.09038783 0.15126804 -0.2238475 -0.16164686 -0.13196786 0.29189086 -0.04690868 -0.3006995
0.106505334 0.040101137 0.09031376 -0.20086 -0.1938939 0.25455105 -0.21344355 -0.007288468
-0.061912574 0.15411472 -0.12754779 -0.21497698 -0.07966542 -0.05293762 0.20590466 0.07632429
0.050485242 0.20937617 -0.21303204 0.016300013 -0.23614381 -0.041531026 -0.081076376 -0.23842128
0.13526185 -0.12744853 -0.0752913 -0.17265968 -0.20027058 -0.1097986 0.052191205 0.19838291
-0.09545381 0.22457273 -0.1436098 0.19392858 0.2610455 0.10015745 -0.05034979 0.16597205
-0.15801366 -0.07942948 -0.14948392 -0.16840662 -0.014390384 -0.20895575 0.1840278 -0.32952452
-0.27184883 0.047226 0.19397908 0.26709354 -0.2218416 0.23738855 0.21286438 -0.21233635
00000000: 6887 86bd 5806 5f3d c084 78bd 3d9e 8abd
00000010: 91c9 a33d dd79 3f3e b1d5 be3c f107 6fbd
00000020: 39db 193e 04ec ddbd 07ce e0bd af22 933e
00000030: 6da1 643d 04ef 123c 81c4 f83c 422d 11bd
00000040: b668 bf3e 5132 51be 6d58 23bd df3b 27bd
00000050: f427 eebd 07a9 f1bd 2ba8 523e cd21 553e
00000060: 1ff8 823d b150 843e 784e 4abe 053a 20be
00000070: afc6 863d f6ad ef3c 8aae aabe 41e0 4abe
00000080: e227 28be eb88 643e f28c 58bb d0d3 4a3e
00000090: 1a3b 68be fab4 91be 4cb9 4ebe 1c0c 7c3d
000000a0: 0bd8 b5bd d32f 47be 22cd 8a3e 342c e1bd
000000b0: 693e b7bd 31ac ba3d 5a54 b4bd a88b 863e
000000c0: 4a1f 873d c699 f6bc eeb5 1f3e d676 64be
000000d0: b38f 49be 1fe0 1cbe 23b5 12be cedb 493c
000000e0: 5554 5f3d 950a 10be 7336 3b3e f947 fcbd
000000f0: f34c 093e bc7f babd d4e3 10be ece2 47be
00000100: 3628 003e d297 133e 27dc fbbd be8a 0fbd
00000110: b1db 8bbe 40e6 303e 3f59 8c3e 5685 c73d
00000120: 39e3 2cbe c4ff 323e ceca 583e 52f8 8fbd
00000130: 567d c2bd d8e0 ca3d 32ca 53bc 6717 e3bd
00000140: 37cc 6abe d8ad 4dbe 43dd f0bc 9e70 e2bc
00000150: eedd 2b3e 05bf 4ebb ab35 c7bd c133 3fbe
00000160: 6950 2cbd 1721 083e ac5d 873e c2df a9bc
00000170: 7e73 98be 3478 013e f65a 103e ed2c 56be
00000180: 1e89 78bd 0d91 743d 8ee0 b6bd ad3d 45be
00000190: 29d4 173e 99bf 67be b433 01be 2c85 2fbe
000001a0: f00e 5f3e 2642 ba3d 66ca b73d 9ac2 5abe
000001b0: ee28 6c3e e33c 703c 6d86 5cbe 9649 41bc
000001c0: 6c0b 9abd 232f 48bc 940d 2a3e 6eb2 2fbe
000001d0: 9789 523e 1499 383d 9bee 69bd afed 253e
000001e0: 5d2a 5d3d 543d 62bd d4ab 41be 15a0 153e
000001f0: 6868 d73d 8afc 073e ab3e d73d 2cf6 9e3e
00000200: c473 943e b1e0 a3be 6142 1f3c 436f 87bd
00000210: 9a89 b33d fdf0 65bd 4bf6 9e3d bb36 91be
00000220: 7334 c43d efe7 8c3e b8f5 68bc 8918 74be
00000230: 17b7 15be eed0 96bd ab20 513b f390 c43d
00000240: 9281 f73c 193f 4e3e 3a7a d13d b747 2d3d
00000250: fa85 6dbd e752 a53e 9b61 103e e3d8 2dbe
00000260: b36f d33d 62fc ac3d f817 393d d93f 98bd
00000270: 6b1c 533d 8e8d cfb9 c3ec 5c3c 1d71 713d
00000280: 8a14 833d db7c 57be 5797 63bc 5fc1 26be
00000290: f14e 79be c63c 4ebe 9a2e 60be a629 ab3d
000002a0: 1725 2b3e 21a8 7d3e 80de b23e 38a5 093e
000002b0: 38cd 2f3e 1bf5 09bd 0d40 923e ec1f ebbd
000002c0: f5f7 64be 39f3 b6bd 8cc1 72be 5c27 44be
000002d0: 4a22 cdbc 42e2 8a3e 52ce f0bd 71fb b8be
000002e0: 0b72 45be 9028 803e 95c7 9b3d 8fc4 0a3c
000002f0: e7f6 0f3b dcdc 6c3e 7595 47be c2d1 383e
00000300: 411d b93d 02e6 1a3e 4738 65be c186 25be
00000310: 9522 07be b872 953e 5123 40bd 49f5 99be
00000320: 781f da3d 1741 243d 6cf6 b83d 3eae 4dbe
00000330: 1f8c 46be 8454 823e f290 5abe 1ad4 eebb
00000340: 0a98 7dbd 40d0 1d3e e39b 02be ed22 5cbe
00000350: a027 a3bd 1ed5 58bd acd8 523e e94f 9c3d
00000360: 9dc9 4e3d b566 563e 1225 5abe 9b87 853c
00000370: afcf 71be 701c 2abd 5f0b a6bd b524 74be
00000380: 1582 0a3e de81 02be 5332 9abd b3cd 30be
00000390: bb13 4dbe 17de e0bd 72c6 553d e424 4b3e
000003a0: 4a7d c3bd 65f6 653e 730e 13be 3795 463e
000003b0: c1a7 853e 591f cd3d 953b 4ebd 94f4 293e
000003c0: 55ce 21be ecab a2bd 5012 19be c972 2cbe
000003d0: a5c5 6bbc 7ff8 55be c971 3c3e 70b7 a8be
000003e0: c52f 8bbe 0d70 413d 74a2 463e 7cc0 883e
000003f0: 722a 63be fc15 733e 1ff9 593e b36e 59be

conv2.bias f4 [32]
-0.09745579 0.019915551 -0.111502275 -0.03723065 -0.08781592 0.023563782 0.05086771 0.03648629
0.18644133 -0.09102068 -0.1267451 -0.2013454 -0.067851946 0.051987916 0.05775547 0.04444395
-0.119489364 0.06850094 0.07387478 0.084549785 0.21402793 0.11719749 -0.12319738 0.046545133
-0.0075593563 0.08447806 0.06508951 -0.2741551 -0.0055767065 0.15429921 -0.18269573 -0.086573526
00000000: e796 c7bd f025 a33c 4e5b e4bd 2b7f 18bd
00000010: d5d8 b3bd d508 c13c a95a 503d a672 153d
00000020: 7aea 3e3e 0d69 babd 78c9 01be 7d2d 4ebe
00000030: f6f5 8abd 48f1 543d 0091 6c3d dc0a 363d
00000040: d7b6 f4bd 394a 8c3d a94b 973d 7028 ad3d
00000050: 232a 5b3e 3d05 f03d e84e fcbd 1ca6 3e3d
00000060: 7ab4 f7bb d502 ad3d a64d 853d 0f5e 8cbe
00000070: cebc b6bb 9d00 1e3e 9714 3bbe 764d b1bd

pool.gcn_transform.weight f4 [32, 32]
0.074431494 -0.09908146 0.11784858 -0.16430828 0.16750233 0.120853454 -0.040222786 -0.12911895
-0.018406034 0.111589834 0.092605546 -0.22610864 -0.17278434 0.013164571 0.20373203 0.2098618
0.16311078 0.20345132 0.062127218 -0.14519185 -0.19897313 -0.13383092 0.15376234 0.044873666
0.012267616 0.03681444 -0.3294013 0.019969778 -0.10257676 -0.22716834 0.26692057 0.13263592
0.01217206 -0.2327055 0.10889935 -0.24371588 -0.16216661 0.12061661 0.079259224 0.070164636
0.29351345 0.11514132 -0.07776296 0.17579815 -0.20466536 0.12986764 -0.2864894 -0.052828778
0.1372285 0.03808143 -0.21619041 0.15043727 0.2033157 0.102062024 0.14781958 -0.103155814
0.07729039 -0.07966141 0.027696436 0.11017778 -0.1427799 0.017381543 -0.07392988 -0.11611074
-0.32558158 0.104275554 0.2688133 0.30000594 0.3139736 -0.14420584 0.23282796 0.3515451
0.15392986 0.18913071 0.24300463 0.1481291 -0.013331241 -0.23003146 0.053590972 -0.1809238
0.22687745 0.28630316 -0.21415386 0.21674815 -0.08382774 -0.2130111 0.1856883 0.2781786
0.2611828 0.15981571 0.17410858 0.2310385 0.24020459 -0.27714342 -0.1077366 -0.0051117777
0.18126184 -0.05533473 0.20057733 -0.20672981 -0.1322702 0.18003412 0.1381159 0.04351428
-0.015855111 0.1552801 0.0745005 0.17356275 0.25614914 -0.06614988 -0.26013115 0.10064614
0.09336264 0.13363025 -0.10952591 -0.025232723 -0.035021752 0.05170103 -0.058948617 0.21681471
-0.12646376 0.15137313 -0.29467773 0.27846098 0.048224125 -0.16951954 0.2734333 -0.15783851
-0.14528818 -0.083337344 0.21256039 0.3245678 0.013964619 -0.039234802 -0.14534158 -0.04629019
-0.24736792 -0.27919826 -0.008029356 0.15049766 0.024789337 -0.18402909 -0.09152776 0.16472709
0.034274187 0.07552617 -0.2852357 -0.13628644 0.2920236 -0.018643595 -0.11372434 -0.1810112
0.21224232 0.08872506 -0.0040223994 0.15241596 0.13759749 0.24532077 0.14752942 -0.016665066
-0.12612046 -0.07823834 -0.013740346 -0.21617031 -0.20163265 -0.2597717 0.17364413 0.13679193
-0.15088531 0.1573397 0.009244582 0.15766986 0.22582409 0.20691101 0.1982095 -0.07781781
0.22423398 -0.28024134 0.21622439 0.17416187 0.18530351 -0.013966264 0.06711469 0.19153826
0.038734257 0.19513583 0.1084248 -0.057238497 -0.17407075 -0.21213251 -0.21227868 -0.25456902
-0.27217138 -0.18256943 -0.06299636 0.1988802 0.12964565 0.16246936 -0.25949007 0.2658491
0.33311886 0.17500877 -0.09236553 0.011960284 0.053803142 -0.11712156 0.08165317 -0.002110542
-0.26303837 -0.082660474 0.3447664 0.09859106 0.10459759 0.1267053 0.075741515 0.15412557
-0.17222834 0.18567103 -0.011179437 -0.1630804 -0.1573684 -0.0026091568 -0.28197953 -0.26742825
0.29357368 0.003214418 0.035781868 -0.3159664 0.13912259 0.30398038 0.27182412 -0.23083541
-0.059125576 0.19905093 0.21833406 0.26263103 -0.3345426 -0.2667451 -0.16310564 0.20539103
-0.24361698 0.08281444 0.056545906 0.05339205 -0.11036973 0.20083116 0.059432592 0.20546891
-0.14465244 0.242992 0.061858848 -0.20682465 0.15989488 -0.23693548 0.23116876 0.06981858
00000000: 8a6f 983d 38eb cabd 995a f13d 6e40 28be
00000010: bb85 2b3e 0482 f73d a6c0 24bd c237 04be
00000020: 40c8 96bc 3689 e43d faa7 bd3d 0689 67be
00000030: 61ee 30be 36b0 573c 219f 503e 03e6 563e
00000040: 8306 273e 8b55 503e 1c79 7e3d 2cad 14be
00000050: 9dbf 4bbe f90a 09be e073 1d3e 73cd 373d
00000060: 1cfe 483c bdca 163d 4aa7 a8be a997 a33c
00000070: c413 d2bd d19e 68be d0a9 883e b6d1 073e
00000080: 526d 473c 5a4a 6ebe 9f06 df3d a890 79be
00000090: 010f 26be d705 f73d a952 a23d 7ab2 8f3d
000000a0: 6547 963e 36cf eb3d 3042 9fbd 6e04 343e
000000b0: cc93 51be 06fc 043e bdae 92be fd62 58bd
000000c0: a185 0c3e 46fb 1b3d 0561 5dbe 3a0c 1a3e
000000d0: fe31 503e e505 d13d 045e 173e 5b43 d3bd
000000e0: 6d4a 9e3d 8525 a3bd a3e3 e23c e3a4 e13d
000000f0: e534 12be bd63 8e3c 8d68 97bd 78cb edbd
00000100: a1b2 a6be 6c8e d53d e6a1 893e 619a 993e
00000110: 26c1 a03e b2aa 13be 746a 6e3e b8fd b33e
00000120: ca9f 1d3e 7bab 413e 35d6 783e 28af 173e
00000130: 476b 5abc 5e8d 6bbe 3582 5b3d 1744 39be
00000140: 9052 683e 5496 923e 264b 5bbe 3af3 5d3e
00000150: e1ad abbd 951f 5abe 1325 3e3e 6d6d 8e3e
00000160: c1b9 853e bba6 233e 8549 323e 5b95 6c3e
00000170: 31f8 753e bee5 8dbe 02a5 dcbd b380 a7bb
00000180: b49c 393e aba6 62bd 2564 4d3e fbb0 53be
00000190: d771 07be dd5a 383e 416e 0d3e 083c 323d
000001a0: 94e2 81bc bf01 1f3e b893 983d 6fba 313e
000001b0: fb25 833e 9779 87bd e92f 85be 901f ce3d
000001c0: e934 bf3d 5ed6 083e 1f4f e0bd dbb4 cebc
000001d0: f872 0fbd 76c4 533d 1b74 71bd ad04 5e3e
000001e0: b77f 01be 8f01 1b3e 00e0 96be 7092 8e3e
000001f0: a986 453d 8896 2dbe 73ff 8b3e 6ba0 21be
00000200: 6dc6 14be c5ac aabd 6ea9 593e c02d a63e
00000210: dbcb 643c acb4 20bd 6cd4 14be c89a 3dbd
00000220: 044e 7dbe 13f3 8ebe 8f8d 03bc 0f1c 1a3e
00000230: 0213 cb3c 1f72 3cbe e872 bbbd 38ae 283e
00000240: 1763 0c3d 77ad 9a3d 6a0a 92be ac8e 0bbe
00000250: 1e84 953e 74ba 98bc 4fe8 e8bd 005b 39be
00000260: 0d56 593e 7cb5 b53d 55ce 83bb ee12 1c3e
00000270: 5be6 0c3e 5e35 7b3e f411 173e 2d85 88bc
00000280: b925 01be 6c3b a0bd 301f 61bc c05b 5dbe
00000290: ca78 4ebe cc00 85be c4cf 313e 2f13 0c3e
000002a0: ae81 1abe a91d 213e 9676 173c 3574 213e
000002b0: 6e3e 673e 7be0 533e 6ef7 4a3e f25e 9fbd
000002c0: 989d 653e cb7b 8fbe ed69 5d3e 7d57 323e
000002d0: 34c0 3d3e c2d2 64bc 6d73 893d 9b22 443e
000002e0: d0a7 1e3d b0d1 473e d20d de3d ea72 6abd
000002f0: 9a3f 32be 4439 59be 955f 59be df56 82be
00000300: 0c5a 8bbe 7bf3 3abe 3c04 81bd 40a7 4b3e
00000310: d4c1 043e 5e5e 263e e2db 84be 601d 883e
00000320: 8e8e aa3e 8035 333e 242a bdbd 11f5 433c
00000330: af60 5c3d 6edd efbd c739 a73d 0551 0abb
00000340: f7ac 86be e549 a9bd 3985 b03e 1cea c93d
00000350: 4337 d63d 09bf 013e 5e1e 9b3d 18d3 1d3e
00000360: a05c 30be 8c20 3e3e f529 37bc 8cfe 26be
00000370: 2f25 21be 63fe 2abb 9f5f 90be 5bec 88be
00000380: 4a4f 963e fca8 523b 0290 123d 59c6 a1be
00000390: 2776 0e3e 51a3 9b3e 882c 8b3e 1e60 6cbe
000003a0: a92d 72bd 02d4 4b3e f792 5f3e 9377 863e
000003b0: 2b49 abbe d092 88be 2a05 27be 0752 523e
000003c0: bb76 79be 9e9a a93d ae9c 673d 9fb1 5a3d
000003d0: 8609 e2bd afa6 4d3e 976f 733d 7166 523e
000003e0: c51f 14be e5d2 783e b45f 7d3d d7c9 53be
000003f0: 7cbb 233e 379f 72be 81b7 6c3e 0bfd 8e3d

pool.gcn_transform.bias f4 [32]
0.03153656 -0.18034276 0.32239324 -0.1141674 0.09559556 0.22364473 -0.009025893 -0.041554376
-0.10819968 0.1951899 0.27161238 0.025769973 -0.16368149 -0.2643767 -0.13307023 0.18297917
0.11754539 0.15509789 -0.060608625 0.07698879 -0.18833354 -0.26559716 0.15549888 -0.018291032
0.12081236 -0.4560356 0.024663735 0.4467171 -0.03963303 -0.40459374 0.08785184 -0.105437696
00000000: 7b2c 013d c6ab 38be ba10 a53e 99d0 e9bd
00000010: 9bc7 c33d 2003 653e 57e1 13bc ec34 2abd
00000020: cb97 ddbd dcdf 473e c710 8b3e 8d1b d33c
00000030: 1f9c 27be 625c 87be 9043 08be e45e 3b3e
00000040: a3bb f03d fbd1 1e3e c040 78bd 4cac 9d3d
00000050: 82da 40be 5afc 87be 193b 1f3e 13d7 95bc
00000060: 786c f73d 807d e9be 9a0b ca3c 1bb8 e43e
00000070: 3e56 22bd e926 cfbe aaeb b33d b8ef d7bd

pool.bn_feat.weight f4 [32]
0.7931145 0.87212193 0.91064245 0.8425087 0.8756889 0.93951017 0.8715315 0.91498315
0.63089323 0.8780984 0.8726708 0.7064045 0.80401456 0.84910655 0.8082105 0.89277506
0.97391284 0.51240176 0.7277969 0.7294151 0.83537924 0.91122395 0.62632304 0.6830255
0.85625 0.74397874 0.84958494 1.0078305 0.92380434 0.95065945 0.8199723 0.80261
00000000: 8d09 4b3f 6243 5f3f dd1f 693f a6ae 573f
00000010: 262d 603f bd83 703f b01c 5f3f 563c 6a3f
00000020: 3882 213f 0fcb 603f 5b67 5f3f edd6 343f
00000030: e6d3 4d3f 0c5f 593f e2e6 4e3f e88c 643f
00000040: 5a52 793f c32c 033f e650 3a3f f3ba 3a3f
00000050: 6adb 553f f945 693f b556 203f c2da 2e3f
00000060: 3333 5b3f 6475 3e3f 667e 593f 9700 813f
00000070: 717e 6c3f 6b5e 733f b4e9 513f d977 4d3f

pool.bn_feat.bias f4 [32]
0.24837725 0.10659196 0.36083895 0.48913115 0.059336 -0.09904573 -0.27240193 0.2568068
-0.72384936 0.20459552 -0.19275257 0.20912531 0.433361 0.1328531 0.0040502944 0.094399355
0.027911836 0.8009469 -0.16153218 -0.011870464 -0.4709465 -0.27616453 0.33484763 -0.36544275
-0.4041445 0.017779004 0.18849917 0.14977752 0.07454116 -0.015609279 -0.0042170626 0.21012072
00000000: 9b56 7e3e e34c da3d e2bf b83e 666f fa3e
00000010: 4e0a 733d 7dd8 cabd 4478 8bbe 2e7c 833e
00000020: 314e 39bf 7d81 513e ee60 45be f224 563e
00000030: 7ee1 dd3e a50a 083e 55b8 843b 7354 c13d
00000040: 5da7 e43c db0a 4d3f b168 25be 567c 42bc
00000050: e61f f1be 7065 8dbe 2671 ab3e 501b bbbe
00000060: 07ec cebe 46a5 913c ed05 413e 475f 193e
00000070: 09a9 983d 10be 7fbc 492f 8abb e329 573e

pool.bn_feat.running_mean f4 [32]
-0.046205655 0.0392273 -0.083469264 0.016556228 -0.08599214 -0.07862909 -0.059663024 0.021169703
0.032947965 -0.07389023 -0.105573505 0.0050652516 0.044581644 0.08395794 0.05335926 -0.0038673256
-0.029291915 -0.095479324 0.10146554 -0.04013716 0.059683092 0.06429642 -0.039252345 -0.03306852
-0.035875976 0.09681246 0.011016269 -0.091619395 0.0045028287 0.16700198 -0.08274203 0.04702419
00000000: 2442 3dbd ceac 203d eff1 aabd eda0 873c
00000010: a61c b0bd 4a08 a1bd 3761 74bd 166c ad3c
00000020: 72f4 063d c353 97bd ec36 d8bd 69fa a53b
00000030: 3e9b 363d 24f2 ab3d 3d8f 5a3d f572 7dbb
00000040: 99f5 efbc aa8a c3bd 2acd cf3d dd66 24bd
00000050: 4276 743d d7ad 833d 11c7 20bd db72 07bd
00000060: b0f2 12bd 9c45 c63d 957d 343c f3a2 bbbd
00000070: 778c 933b 9102 2b3e a774 a9bd 709c 403d

pool.bn_feat.running_var f4 [32]
0.002329963 0.0011864493 0.0036042305 0.0027528412 0.00052744366 0.0011151718 0.00069243537 0.0019121112
0.0023009984 0.0014047686 0.0050048144 0.0009950411 0.0012723729 0.0005529417 0.001530005 0.0023304725
0.0023691107 0.002914873 0.0015413865 0.0010672462 0.004780812 0.00087038 0.0015525178 0.0067062406
0.0048470306 0.0010369231 0.00015373602 0.0010558713 0.0011696533 0.00032807796 0.0005451274 0.0023281379
00000000: 4bb2 183b a282 9b3a f434 6c3b 0369 343b
00000010: 2544 0a3a f52a 923a 8d84 353a ce9f fa3a
00000020: 59cc 163b 3620 b83a 6dff a33b 0a6c 823a
00000030: c0c5 a63a 4af3 103a 738a c83a d7ba 183b
00000040: 1543 1b3b 7407 3f3b 5908 ca3a d7e2 8b3a
00000050: 5ca8 9c3b 372a 643a da7d cb3a 06c0 db3b
00000060: d7d3 9e3b 5ee9 873a 3334 2139 2965 8a3a
00000070: 0d4f 993a e101 ac39 e1e6 0e3a ac93 183b

pool.score_add.weight f4 [1, 32]
-0.08259625 0.04869257 0.16619122 0.050042808 -0.12343897 0.0947859 0.058695532 -0.050062805
-0.0628164 0.0919408 0.14434956 -0.07003369 -0.11551907 0.1644493 -0.13461585 0.004687952
-0.07805343 0.0306769 -0.1119412 0.10928235 0.12615007 -0.12779154 0.058245152 0.023858193
0.16841611 -0.13510786 -0.11174044 -0.039048254 -0.13071704 -0.06033612 -0.09857454 0.019055096
00000000: 3928 a9bd dc71 473d 082e 2a3e b0f9 4c3d
00000010: 92cd fcbd 1c1f c23d ba6a 703d a80e 4dbd
00000020: e2a5 80bd 754b bc3d 5fd0 133e d36d 8fbd
00000030: 4395 ecbd 6665 283e bdd8 09be 649d 993b
00000040: 7ada 9fbd 1f4e fb3c 6e41 e5bd 6dcf df3d
00000050: 7c2d 013e c9db 02be 7892 6e3d 4272 c33c
00000060: 4675 2c3e b759 0abe 2cd8 e4bd 10f1 1fbd
00000070: b0da 05be 0223 77bd 73e1 c9bd 6f19 9c3c

conv3.weight f4 [32, 32]
-0.014889166 0.0665842 0.27045524 -0.30858168 -0.23094973 0.1705369 0.22004844 -0.30477983
0.41640806 -0.02471942 0.2824419 0.13847445 0.057884447 -0.29198274 -0.08451584 0.2698582
-0.407098 -0.27928287 -0.39610794 0.020502355 0.10259025 -0.3915279 0.3919173 0.2926299
-0.15619628 -0.13977578 0.0566406 0.21368222 0.26873633 0.071635276 0.038291145 -0.33552247
-0.22974853 0.04805661 -0.26382652 -0.46652332 -0.24513471 0.111140266 0.04708171 0.14981857
-0.18724512 0.9618732 -0.5463196 -0.03580796 0.007882754 0.28099036 -0.2516138 0.09040102
0.55091125 -0.10373485 0.38861838 0.0945655 -0.22341073 0.5223101 0.04132829 0.40930575
0.2873721 0.10642055 0.46904248 -0.17918414 0.002584792 0.09070293 -0.11590701 -0.040632486
-0.3479105 -0.05856119 0.5159229 0.6874217 0.05408114 -0.8771868 -0.041982107 -0.17990918
0.348137 0.9763625 0.20400946 -0.22283001 -0.06555329 -0.35482737 0.12436656 -0.14014152
-0.18601146 0.028629567 -0.05319024 -0.15246323 0.4544708 -0.6501523 0.41245443 -0.28178304
-0.14301671 0.181016 -0.57004493 -0.11214222 0.15408276 -0.0032057324 0.20368728 0.25869924
-0.026434423 0.36484498 0.27305338 0.0058841174 -0.37753874 -0.38280562 0.38818714 0.030171292
0.25115296 0.5415064 -0.32623827 0.045054384 0.4159095 0.012923288 -0.43104446 0.08170616
0.3258614 -0.054217517 0.31545874 0.39158326 0.13579518 0.24214257 -0.19821973 0.35793534
0.026241096 0.5560166 0.1824969 0.14348195 0.03343494 -0.06405636 0.4316367 0.26476443
0.222047 -0.6599668 -0.17338455 0.11580953 -0.08386102 -0.09196076 0.022204459 0.2435841
0.093352325 -0.04227977 0.61331165 -0.38327208 -0.3745214 0.106831625 0.057468478 -0.45099628
-0.40292272 0.3158747 -0.33465886 -0.49000216 0.34452596 -0.39585242 0.21737932 -0.060364828
-0.0074909395 -0.17387263 -1.128443 -0.032864537 -0.02854284 -0.097631745 0.17439504 -0.10272095
-0.39514112 -0.4074208 -0.03350674 0.24629611 -0.20981832 -0.231161 -0.2944981 0.18706763
0.28425995 0.19938116 0.64439654 -0.25501716 -0.023887066 -0.2474795 -0.23079273 -0.107665055
-0.18290395 0.2581794 -0.4018673 -0.16854359 0.13360953 -0.45910904 0.34273165 -0.28838193
-0.4073015 0.020012835 -0.3728934 -0.3040652 0.26025215 0.3191946 -0.19877447 -0.03305865
-0.096433684 0.12441081 0.18077178 0.3308807 -0.23401973 -0.57160926 0.29520032 0.06491595
0.384558 0.41621432 0.14525305 0.13397169 -0.15198904 -0.27156928 0.18905124 -0.092273615
0.1224955 -0.066186346 -0.06455499 0.039001703 0.41565317 -0.46114093 0.23974958 0.049471345
0.062402982 0.43649265 -0.31201068 0.02459567 0.33375227 0.026985541 -0.07267349 0.14281751
-0.19362915 -0.109050035 -0.12268364 -0.06281728 0.13742669 0.20097162 -0.30375957 0.28039312
-0.26891828 -0.50013477 0.30646953 0.018089797 -0.13044593 0.22230427 -0.1581753 0.1695045
-0.07388619 0.25302532 -0.37932986 -0.2695415 0.18757771 -0.0063376767 -0.23570274 -0.4602702
0.08550458 0.21415128 -0.32864347 0.19551887 -0.19483006 0.23903187 0.038352065 0.40444836
00000000: b0f1 73bc 4c5d 883d 1c79 8a3e 6bfe 9dbe
00000010: 167e 6cbe 3aa1 2e3e 6154 613e 1a0c 9cbe
00000020: 7033 d53e 6280 cabc 3a9c 903e 3fcc 0d3e
00000030: 3e18 6d3d c37e 95be a416 adbd db2a 8a3e
00000040: 266f d0be 2afe 8ebe a9ce cabe 8ef4 a73c
00000050: d61a d23d 5876 c8be 62a9 c83e 96d3 953e
00000060: ebf1 1fbe 6221 0fbe f9ff 673d 83cf 5a3e
00000070: cf97 893e 84b5 923d 2dd7 1c3d 9ac9 abbe
00000080: 3343 6bbe 02d7 443d 4514 87be 25dc eebe
00000090: 9804 7bbe 829d e33d c0d8 403d 0a6a 193e
000000a0: 2fbd 3fbe 523d 763f 9adb 0bbf 5eab 12bd
000000b0: ab26 013c f8dd 8f3e 86d3 80be 2c24 b93d
000000c0: 8508 0d3f f072 d4bd fdf8 c63e 8fab c13d
000000d0: c8c5 64be 1db6 053f da47 293d 8690 d13e
000000e0: 7022 933e 04f3 d93d 5626 f03e 0c7c 37be
000000f0: 9d65 293b 75c2 b93d a860 edbd 406e 26bd
00000100: 5321 b2be dcdd 6fbd 8613 043f defa 2f3f
00000110: 2f84 5d3d 508f 60bf 6ef5 2bbd 1d3a 38be
00000120: 033f b23e e5f2 793f dbe7 503e 8d2d 64be
00000130: ce40 86bd efab b5be e5b3 fe3d 4281 0fbe
00000140: ca79 3ebe 8e88 ea3c 02de 59bd 521f 1cbe
00000150: 66b0 e83e 6270 26bf 3a2d d33e de45 90be
00000160: f972 12be 425c 393e 77ee 11bf d2aa e5bd
00000170: dfc7 1d3e 4417 52bb 6693 503e 3a74 843e
00000180: 018d d8bc f6cc ba3e a7cd 8b3e 8ecf c03b
00000190: c24c c1be 19ff c3be 77c0 c63e c929 f73c
000001a0: 1f97 803e 2aa0 0a3f b408 a7be f28a 383d
000001b0: 17f2 d43e 33bc 533c dcb1 dcbe 8f55 a73d
000001c0: 4ed7 a63e 3013 5ebd cf83 a13e 9a7d c83e
000001d0: e40d 0b3e 39f4 773e 1dfa 4abe 4d43 b73e
000001e0: 91f7 d63c 1b57 0e3f 78e0 3a3e efec 123e
000001f0: 13f3 083d fb2f 83bd 7cff dc3e 348f 873e
00000200: 4a60 633e 96f3 28bf b88b 31be 8c2d ed3d
00000210: 54bf abbd ec55 bcbd 20e6 b53c 1c6e 793e
00000220: 812f bf3d 8d2d 2dbd fe01 1d3f 3d3c c4be
00000230: 45c1 bfbe 8aca da3d 1164 6b3d fce8 e6be
00000240: e34b cebe 54ba a13e 6858 abbe 90e1 fabe
00000250: b565 b03e 2bad cabe af98 5e3e 1c41 77bd
00000260: 8e76 f5bb ab0b 32be d270 90bf f79c 06bd
00000270: add2 e9bc 27f3 c7bd 9d94 323e 5d5f d2bd
00000280: f04f cabe 7699 d0be 5d3e 09bd 0c35 7c3e
00000290: 9dda 56be 78b5 6cbe 74c8 96be a88e 3f3e
000002a0: 858a 913e 932a 4c3e 2cf7 243f 9c91 82be
000002b0: cfae c3bc 446b 7dbe ee54 6cbe 7f7f dcbd
000002c0: 2c4b 3bbe 1730 843e 8dc1 cdbe b196 2cbe
000002d0: f0d0 083e 5710 ebbe 867a af3e cca6 93be
000002e0: d289 d0be f5f1 a33c e2eb bebe 6fae 9bbe
000002f0: c53f 853e 7a6d a33e 898b 4bbe 8268 07bd
00000300: 067f c5bd 18cb fe3d 3d1c 393e 3269 a93e
00000310: dea2 6fbe fc54 12bf 7f24 973e a7f2 843d
00000320: c9e4 c43e 0b1a d53e 37bd 143e e02f 093e
00000330: 04a3 1bbe 210b 8bbe a696 413e f3f9 bcbd
00000340: ecde fa3d b58c 87bd 6835 84bd 40c0 1f3d
00000350: 7ed0 d43e aa1a ecbe ea80 753e 77a2 4a3d
00000360: 459a 7f3d f77b df3e ddbf 9fbe dc7c c93c
00000370: 94e1 aa3e c810 dd3c d7d5 94bd c13e 123e
00000380: b846 46be a055 dfbd 8f41 fbbd 59a6 80bd
00000390: 95b9 0c3e 81cb 4d3e 6086 9bbe b08f 8f3e
000003a0: a8af 89be d508 00bf 93e9 9c3e 0e31 943c
000003b0: 9e93 05be bba3 633e b5f8 21be 9692 2d3e
000003c0: a551 97bd 898c 813e 8637 c2be 5801 8abe
000003d0: 5f14 403e 49ac cfbb 0f5c 71be 89a8 ebbe
000003e0: 061d af3d 794a 5b3e f543 a8be 1936 483e
000003f0: 8881 47be c5c4 743e 0e17 1d3d db13 cf3e

conv3.bias f4 [32]
-0.02373006 -0.004468937 0.02844382 0.019681972 0.018455148 0.07678992 -0.041523658 -0.06252266
0.05337488 -0.03110028 -0.0042519476 -0.02397075 0.057496604 -0.034203544 -0.026142454 0.09562799
0.039889984 -0.030941475 0.024838837 -0.0057069417 0.03732464 0.08103991 -0.028232545 0.085124984
-0.039058164 0.0055372384 0.07311458 -0.036689244 -0.01152081 0.03150374 0.022989836 0.0138816275
00000000: 8b65 c2bc 2970 92bb 0403 e93c 163c a13c
00000010: 402f 973c 0944 9d3d b614 2abd e10b 80bd
00000020: 9e9f 5a3d 04c6 febc ec53 8bbb 4e5e c4bc
00000030: 8f81 6b3d 0419 0cbd b328 d6bc 9cd8 c33d
00000040: ae63 233d fa78 fdbc d17a cb3c 4c01 bbbb
00000050: b9e1 183d 41f8 a53d f047 e7bc 0256 ae3d
00000060: 74fb 1fbd b971 b53b 19bd 953d 7647 16bd
00000070: c8c1 3cbc 110a 013d 2e55 bc3c c46f 633c

conv4.weight f4 [32, 32]
0.09167233 -0.081336975 0.20681591 0.2274323 -0.1974834 -0.17414722 -0.109099284 0.24644294
0.015079988 0.31470782 -0.18432815 -0.28046772 -0.23306298 0.22026734 -0.3000868 -0.044636775
-0.020468371 0.15471219 -0.19574021 -0.18970206 -0.18432897 -0.07679772 -0.20514983 -0.026066974
0.2151765 0.045686964 0.17747332 0.18751995 -0.024739575 0.104121596 0.10052543 -0.15637508
-0.18968251 0.19463283 0.12387391 0.016702719 -0.460515 -0.20317398 0.17935793 0.5174338
0.5077181 -0.045453936 0.12938897 -0.16927221 0.2379535 -0.13052276 0.048895873 0.038424496
0.18524167 0.18889147 0.022096217 -0.12540285 -0.17360832 -0.3490664 -0.018818099 -0.003133282
0.008431415 0.17687951 0.22604914 -0.36420155 0.3348705 0.16631493 -0.09162449 -0.25445804
-3.2848602e-05 -0.10591187 -0.22355384 0.20425175 0.28839552 0.14478548 0.067556314 -0.09719179
0.14294505 -0.34272552 -0.16211775 0.22394215 0.19166973 0.23946428 -0.018793145 0.08967659
-0.0168484 -0.17430961 0.42754194 0.4704079 0.28030694 0.27764797 0.20813252 -0.15025982
0.1088854 0.02778957 -0.1912819 0.033063628 0.09727015 -0.19077587 0.2307364 -0.2208914
0.20735584 -0.08302775 0.19175307 0.0416168 0.36464846 0.20140809 -0.17581545 -0.36777177
-0.5778779 0.0556152 0.029707594 -0.25534445 -0.38979927 -0.3929013 0.01169077 -0.19145198
-0.078660436 -0.616653 0.05237715 0.41172224 -0.05179465 0.23802587 -0.053545263 0.26345858
-0.08542358 0.22184752 0.063634366 0.096458554 -0.031439956 0.25658432 0.03709 0.09837777
0.16357404 -0.26093492 0.23310211 -0.14236738 0.25204045 -0.18646225 0.1463879 0.08637659
-0.30159396 -0.053862415 -0.12376214 0.07394631 0.2580103 0.17591217 -0.2696664 -0.16944759
-0.14369822 0.22597156 -0.18399635 -0.31190512 0.2331795 0.22413686 0.30344567 -0.15086548
0.16310471 -0.05116317 0.11894267 -0.35643324 0.10018607 0.20047712 -0.22880876 -0.016251655
0.07075659 -0.020491647 -0.13277991 -0.26732942 -0.6283266 -0.28352422 0.28703874 0.33930308
0.06666799 0.57644564 -0.05301945 -0.09555375 -0.19297789 0.19673868 -0.17961799 0.19404025
0.017662244 0.74951065 -0.60483444 -0.31595165 0.05773256 -0.04766047 -0.25152716 -0.16893718
0.18091266 -0.023544334 0.039643582 -0.30628917 0.031142289 0.01792909 0.124439396 -0.1679079
0.034903586 0.33041894 0.006704394 0.049023878 -0.24219006 0.18554896 -0.27133653 0.42056134
0.46437496 0.24247207 0.15052417 -0.17714058 -0.050390888 0.10261768 0.19233212 -0.1635983
0.09409634 -0.3035168 0.057769112 0.23661627 0.017374398 0.32199717 0.27605504 -0.21153474
-0.021217156 -0.3528452 0.08134553 -0.20327368 0.30505118 0.1047489 0.14312467 -0.17132747
-0.1474201 -0.07033938 0.11146463 -0.004728277 -0.23740947 0.25653568 0.18676509 -0.28228343
-0.31510827 0.11839339 -0.14860491 0.0581258 -0.030334003 0.1533786 0.13421266 0.026764618
0.16463721 -0.24087015 0.12686922 0.081795126 -0.02854523 -0.18526424 0.093651325 0.305897
-0.07444827 -0.2507819 0.19026406 0.42722133 0.20365044 0.20609716 0.044403378 -0.3185549
00000000: b4be bb3d 0094 a6bd 8dc7 533e 03e4 683e
00000010: 1739 4abe a653 32be 726f dfbd 8a5b 7c3e
00000020: 0e12 773c 6221 a13e 85c0 3cbe 7799 8fbe
00000030: 10a8 6ebe c38d 613e faa4 99be 0dd5 36bd
00000040: 49ad a7bc df6c 1e3e 1f70 48be 4241 42be
00000050: bcc0 3cbe 1f48 9dbd cc12 52be 688a d5bc
00000060: 3a57 5c3e 4122 3b3d 91bb 353e 3b05 403e
00000070: a6aa cabc b43d d53d 47e0 cd3d ca20 20be
00000080: 223c 42be d44d 473e 9bb1 fd3d 24d4 883c
00000090: 9fc8 ebbe d70c 50be 9ba9 373e 8b76 043f
000000a0: d0f9 013f e82d 3abd 8b7e 043e b255 2dbe
000000b0: 15aa 733e c2a7 05be 0a47 483d 0163 1d3d
000000c0: feaf 3d3e c46c 413e 2003 b53c 9b69 00be
000000d0: 61c6 31be d5b8 b2be 6a28 9abc c057 4dbb
000000e0: eb23 0a3c e71f 353e 6d79 673e a078 babe
000000f0: 2574 ab3e 764e 2a3e 9fa5 bbbd 5348 82be
00000100: ebc6 09b8 53e8 d8bd 4ceb 64be 5f27 513e
00000110: 94a8 933e a542 143e f75a 8a3d 7d0c c7bd
00000120: 3060 123e b879 afbe 3202 26be 1751 653e
00000130: 1245 443e 2036 753e 15f4 99bc 5ca8 b73d
00000140: a805 8abc 387e 32be c7e6 da3e 4ed9 f03e
00000150: 6484 8f3e e027 8e3e b120 553e b6dd 19be
00000160: 4fff de3d f4a6 e33c 67df 43be ba6d 073d
00000170: 9335 c73d c05a 43be 2a46 6c3e 5b31 62be
00000180: 1755 543e 740a aabd eb5a 443e 6176 2a3d
00000190: 34b3 ba3e ec3d 4e3e f708 34be 954c bcbe
000001a0: ceef 13bf c4cc 633d 575d f33c 82bc 82be
000001b0: c593 c7be 5c2a c9be a58a 3f3c fd0b 44be
000001c0: b918 a1bd f9dc 1dbf 6c89 563d 42cd d23e
000001d0: a026 54bd 0ebd 733e 4752 5bbd 0be4 863e
000001e0: 8ff2 aebd ff2b 633e bc52 823d 108c c53d
000001f0: 2fc7 00bd 055f 833e afeb 173d 497a c93d
00000200: f47f 273e 4399 85be 52b2 6e3e c1c8 11be
00000210: 720b 813e f6ef 3ebe b6e6 153e 36e6 b03d
00000220: 866a 9abe d69e 5cbd 0177 fdbd 2a71 973d
00000230: ed19 843e 5222 343e b711 8abe ab83 2dbe
00000240: a025 13be 1765 673e 8a69 3cbe 07b2 9fbe
00000250: 9bc6 6e3e 2284 653e 3b5d 9b3e 7b7c 1abe
00000260: ec04 273e 7990 51bd 3798 f33d 6b7e b6be
00000270: 5b2e cd3d e049 4d3e d84c 6abe 3122 85bc
00000280: d5e8 903d 19de a7bc 75f7 07be 67df 88be
00000290: 03da 20bf 162a 91be bef6 923e 22b9 ad3e
000002a0: 3a89 883d f191 133f ec2a 59bd afb1 c3bd
000002b0: ff9b 45be dd75 493e c7ed 37be 7db2 463e
000002c0: 69b0 903c eedf 3f3f 6ed6 1abf 6ac4 a1be
000002d0: fa78 6c3d a037 43bd 2bc8 80be defd 2cbe
000002e0: 2b41 393e 0ce0 c0bc 4f61 223d efd1 9cbe
000002f0: 1d1e ff3c 07e0 923c 15da fe3d 0cf0 2bbe
00000300: 10f7 0e3d ac2c a93e 88b0 db3b 43cd 483d
00000310: ac00 78be 8c00 3e3e 9fec 8abe d153 d73e
00000320: 8ec2 ed3e 994a 783e 0223 1a3e 5764 35be
00000330: ad66 4ebd 3829 d23d b6f2 443e 5086 27be
00000340: 95b5 c03d 8e66 9bbe 4e9f 6c3d 894b 723e
00000350: c154 8e3c d0dc a43e 1657 8d3e 909c 58be
00000360: 9acf adbc 20a8 b4be 7c98 a63d fa26 50be
00000370: ab2f 9c3e 9786 d63d 468f 123e 7870 2fbe
00000380: 4bf5 16be 180e 90bd 9147 e43d aaef 9abb
00000390: 781b 73be a558 833e 593f 3f3e 7487 90be
000003a0: df55 a1be 3c78 f23d e32b 18be 5215 6e3d
000003b0: 047f f8bc 480f 1d3e 0b6f 093e 7941 db3c
000003c0: a896 283e aaa6 76be 01ea 013e 3484 a73d
000003d0: b0d7 e9bc e9b5 3dbe 44cc bf3d 889e 9c3e
000003e0: 5678 98bd 7c66 80be 95d4 423e c1bc da3e
000003f0: be89 503e 220b 533e 51e0 353d a119 a3be

conv4.bias f4 [32]
-0.027571186 -0.08003847 -0.058140367 -0.060422696 0.07628674 -0.062889226 -0.03292973 -0.054442305
-0.05668132 -0.085963115 -0.037292257 -0.056822043 0.030655714 -0.0799183 -0.05084113 0.046310306
-0.05789747 -0.022573901 0.07209486 -0.063794024 0.0605777 -0.056582294 0.060862653 0.054808404
0.05419167 0.010287459 0.05727641 -0.08577541 0.054842565 -0.05869741 0.04531826 -0.07332275
00000000: f8dc e1bc 36eb a3bd 9824 6ebd ca7d 77bd
00000010: 393c 9c3d 11cc 80bd 53e1 06bd e5fe 5ebd
00000020: ac2a 68bd 6e0d b0bd c4bf 18bd 3bbe 68bd
00000030: b121 fb3c 35ac a3bd ca3e 50bd e0af 3d3d
00000040: e625 6dbd e7ec b8bc 78a6 933d 71a6 82bd
00000050: 5320 783d d6c2 67bd 1e4b 793d c77e 603d
00000060: 16f8 5d3d bb8c 283c ab9a 6a3d 05ab afbd
00000070: 99a2 603d b26c 70bd a49f 393d 3d2a 96bd

conv5.weight f4 [32, 2]
-0.00019686847 -0.0028193095 -0.42424476 0.26404026 0.14707156 -0.20205405 -0.09326404 -0.06529782
0.3044919 0.32068855 -0.37329304 -0.2636985 0.05108066 -0.059747294 -0.44958046 0.15298755
-0.5198811 -0.0958649 0.2754816 -0.27073526 -0.0031847032 0.0031605107 0.012755074 -0.029202607
0.073141955 -0.005089078 -0.25188708 -0.29613787 -0.0019315154 -0.014982071 0.0875341 -0.014016892
-0.12821293 -0.21997333 0.24195357 -0.48544383 -0.11141857 0.2367955 -0.39849463 -0.053278185
0.124122284 0.3222774 -0.31145504 -0.04071384 0.11472226 0.1448111 0.26005703 0.09996501
0.056512244 -0.0016299207 0.30391097 -0.21914274 -0.09642201 0.28657287 -0.20876664 -0.5812002
-0.032007188 0.19755441 -0.19545108 -0.10036952 0.13442858 -0.040961474 -0.0031321165 -0.09801573
00000000: 7a6e 4eb9 2ac4 38bb 9c36 d9be 4930 873e
00000010: ed99 163e 42e7 4ebe 3801 bfbd ddba 85bd
00000020: 5de6 9b3e 4a31 a43e 4420 bfbe 7d03 87be
00000030: f439 513d 94b9 74bd 692f e6be c5a8 1c3e
00000040: ee16 05bf d154 c4bd ed0b 8d3e d09d 8abe
00000050: 74b6 50bb 9220 4f3b a8fa 503c 4e3a efbc
00000060: 73cb 953d 48c2 a6bb 58f7 80be 629f 97be
00000070: e72a fdba 5c77 75bc 1445 b33d 1ba7 65bc
00000080: 404a 03be b040 61be adc2 773e 188c f8be
00000090: 6b2f e4bd 857a 723e 7d07 ccbe 3a3a 5abd
000000a0: d333 fe3d 8b01 a53e 0977 9fbe 8ec3 26bd
000000b0: 81f3 ea3d 5c49 143e 3226 853e 75ba cc3d
000000c0: 6279 673d 10a3 d5ba 389a 9b3e f466 60be
000000d0: e778 c5bd aeb9 923e ecc6 55be 89c9 14bf
000000e0: f819 03bd b44b 4a3e 5424 48be 898e cdbd
000000f0: a5a7 093e 38c7 27bd 3244 4dbb 79bc c8bd

conv5.bias f4 [2]
0.1494398 0.14422505
00000000: bf06 193e bbaf 133e
