GST-recon/checkpoints/best_grid_GST_0.25.pth (torch, 70380 bytes, 21 tensors)

conv1.weight f4 [2, 32]
-0.0021403788 -0.20843892 0.092182115 0.06606638 -0.19727364 -0.029757146 -0.19801195 0.1436833
-0.10599122 0.2771457 0.27555048 -0.00352468 -0.21767475 -0.2221745 -0.03077599 -0.099896826
0.13868846 -0.27796564 0.368949 -0.31284472 0.22793096 -0.055703957 0.20734103 0.12325747
0.05076968 0.045813065 0.25327232 0.04036121 0.17554864 -0.2926659 0.2788719 0.15707326
0.081825644 0.08632035 0.16013494 0.30763167 -0.06475878 -0.18498684 -0.049099345 -0.20631772
0.20698813 -0.22126985 -0.24010397 0.32233396 0.34799007 0.08307829 -0.062479783 -0.016460862
0.14941867 -0.28653434 -0.3538815 0.3368593 0.29737952 0.0023188945 -0.2988573 -0.0016211263
-0.15697691 -0.024826705 0.13533449 0.12682934 -0.058261275 0.08249229 0.077451915 -0.34190664
00000000: 9945 0cbb 0371 55be fac9 bc3d cf4d 873d
00000010: 1a02 4abe 42c5 f3bc a5c3 4abe b721 133e
00000020: ed11 d9bd 0be6 8d3e f414 8d3e 51fe 66bb
00000030: 21e6 5ebe b681 63be ee1d fcbc b596 ccbd
00000040: 5904 0e3e 8351 8ebe e2e6 bc3e 2f2d a0be
00000050: bc66 693e d529 64bd 3551 543e 6a6e fc3d
00000060: def3 4f3d 7ba6 3b3d e9ac 813e cc51 253d
00000070: 06c3 333e 4ed8 95be 4cc8 8e3e d0d7 203e
00000080: 3494 a73d b9c8 b03d 6afa 233e e681 9d3e
00000090: 40a0 84bd 316d 3dbe 651c 49bd f444 53be
000000a0: b2f4 533e 9094 62be d1dd 75be f508 a53e
000000b0: c12b b23e f324 aa3d cdea 7fbd eed8 86bc
000000c0: 3501 193e a1b4 92be f52f b5be d278 ac3e
000000d0: 2142 983e 98f8 173b d303 99be f97b d4ba
000000e0: 8ebe 20be 6061 cbbc 2095 0a3e 8ddf 013e
000000f0: 60a3 6ebd b8f1 a83d 1c9f 9e3d 630e afbe

conv1.bias f4 [32]
0.002000412 0.061614998 -0.082867235 -0.10499677 0.06434632 0.04842733 0.12090466 -0.0020977182
-0.04584662 -0.057525136 -0.020644983 -0.053932566 -0.053001095 0.05789351 0.04374443 0.07916476
-0.11259487 0.12012198 -0.021191867 -0.03861438 -0.14891511 0.03494416 0.04954527 -0.059501853
0.021024853 -0.011696107 -0.046387676 -0.074009255 -0.063583896 0.06907933 -0.0072608707 -0.042048242
00000000: 5819 033b 0260 7c3d 4cb6 a9bd 8c08 d7bd
00000010: 01c8 833d bc5b 463d dd9c f73d df79 09bb
00000020: aac9 3bbd 7a9f 6bbd ab1f a9bc 65e8 5cbd
00000030: ad17 59bd bf21 6d3d 5c2d 333d 2221 a23d
00000040: 2498 e6bd 8302 f63d 919a adbc 1d2a 1ebd
00000050: 347d 18be 9c21 0f3d fbef 4a3d 37b8 73bd
00000060: 503c ac3c 07a1 3fbc 0101 3ebd 2a92 97bd
00000070: 4638 82bd 7779 8d3d 99ec edbb c73a 2cbd

conv2.weight f4 [32, 32]
-0.10506701 0.008103705 -0.16840835 -0.118556686 0.094306275 0.18294777 0.00082741666 -0.1236688
0.16630206 -0.18316732 -0.08241225 0.26969332 0.07045049 -0.010163012 0.11693823 -0.071164675
0.27870408 -0.25306508 -0.09062529 -0.049033634 -0.12105036 -0.0795484 0.19227394 0.18460166
0.056786604 0.24235602 -0.19022793 -0.1946489 0.13708423 -0.0014402831 -0.27766937 -0.2181955
-0.1609156 0.25893542 0.11657335 0.20913967 -0.19800936 -0.3036972 -0.17479722 -0.0035855416
-0.07913363 -0.14562035 0.19706325 -0.099687956 -0.20574383 0.16320577 -0.13141033 0.22006783
0.040348105 -0.005999289 0.08102149 -0.2214714 -0.14394046 -0.109583184 -0.17586248 0.016489906
0.058142215 -0.05220435 0.18309829 -0.21182697 0.047731765 -0.11178019 -0.2533441 -0.20779374
0.110909395 0.114884034 -0.16682078 -0.08862015 -0.2985048 0.15611342 0.26112038 0.10823488
-0.17052454 0.13805112 0.26401925 -0.049100254 -0.039997246 0.09198229 0.057815067 -0.12152487
-0.26543206 -0.19932836 -0.01798578 -0.005737476 0.2599362 0.0035430952 -0.07000755 -0.2682865
-0.2528677 0.0793974 0.27118477 0.011173195 -0.25221726 0.12663057 0.2322075 -0.21748988
-0.090616345 0.029736472 -0.15693519 -0.2849554 0.11905155 -0.25580823 -0.08086973 -0.16062674
0.23949671 0.036743324 0.14466679 -0.19274099 0.25448084 0.013345766 -0.15051359 -0.049424905
-0.20357849 -0.00828127 0.13482268 -0.11684309 0.2530384 0.08898644 -0.04865607 0.13034587
-0.010627039 -0.109960295 -0.19027267 0.19295086 0.18563037 0.13651407 0.15841009 0.28141153
0.28957313 -0.29622853 0.05378432 -0.01938481 0.101984315 -0.055562668 0.087310694 -0.27772886
0.13123287 0.3004999 -0.051271196 -0.24892831 -0.24621826 -0.047853757 -0.009934786 0.05273148
0.025900105 0.22419006 -0.031285807 0.07098379 -0.16063954 0.29141945 0.11170159 -0.07737127
0.14876112 0.13073047 0.03126152 -0.080381274 0.044485718 -0.0034238019 -0.15747096 0.032193825
0.07720369 -0.19237243 0.030609282 -0.084761955 -0.23947783 -0.15854186 -0.24839555 0.065675125
0.16198349 0.30158463 0.28994533 0.09372117 0.16218628 -0.05643119 0.231497 -0.08611626
-0.09166224 -0.112599835 -0.15038913 -0.26543614 -0.06535448 0.24145724 -0.15695453 -0.31381306
-0.11112649 0.33480242 0.07613763 -0.040902566 -0.097681016 0.2343896 -0.26178613 0.2073841
0.09780301 0.21041852 -0.19795653 -0.0839335 -0.12733056 0.30631128 -0.041360967 -0.30217397
0.13586329 0.073313504 0.019719828 -0.22582437 -0.28384316 0.25405362 -0.23727375 -0.018782884
-0.05851683 0.15287572 -0.23171026 -0.1859425 -0.1719538 -0.15779912 0.16856545 0.13200358
0.107373595 0.29502973 -0.25104505 -0.024218526 -0.25261962 -0.045785073 -0.24614474 -0.2499193
0.19970977 -0.12826806 -0.022659762 -0.10731769 -0.22821353 -0.04181535 0.04294503 0.25152713
-0.12341636 0.3016001 -0.14407192 0.19625533 0.243517 0.06089013 -0.11356915 0.23285797
-0.094903216 -0.1325577 -0.09421192 -0.24349299 -0.0484607 -0.23840517 0.18346904 -0.31011695
-0.25753182 0.10682004 0.16212668 0.28173602 -0.2686568 0.22111501 0.21150897 -0.19672796
00000000: 5f2d d7bd 67c5 043c 3d73 2cbe d9cd f2bd
00000010: a623 c13d a956 3b3e fee6 583a 1146 fdbd
00000020: 164b 2a3e 3790 3bbe c1c7 a8bd 3e15 8a3e
00000030: 5948 903d c382 26bc 507d ef3d c9be 91bd
00000040: 4db2 8e3e bf91 81be c199 b9bd 7ed7 48bd
00000050: 40e9 f7bd 46ea a2bd 76e3 443e 3808 3d3e
00000060: 1299 683d 2d2c 783e 1ccb 42be 0b52 47be
00000070: cf5f 0c3e e2c7 bcba ae2a 8ebe a46e 5fbe
00000080: 0fc7 24be 2f93 843e 02be ee3d b628 563e
00000090: f7c2 4abe 337e 9bbe 0bfe 32be 68fb 6abb
000000a0: d010 a2bd 801d 15be f3ca 493e 3329 ccbd
000000b0: 83ae 52be 6a1f 273e 6e90 06be 7659 613e
000000c0: 0e44 253d af95 c4bb 98ee a53d 66c9 62be
000000d0: 2165 13be 266d e0bd 4b15 34be d715 873c
000000e0: 8826 6e3d 3ad4 55bd 1e7e 3b3e 2be9 58be
000000f0: 6282 433d 03ed e4bd 51b6 81be e2c7 54be
00000100: 7724 e33d 5248 eb3d 11d3 2abe 7b7e b5bd
00000110: 9fd5 98be 32dc 1f3e 92b1 853e 40aa dd3d
00000120: fc9d 2ebe 465d 0d3e 882d 873e 591d 49bd
00000130: 27d4 23bd 3661 bc3d 7ecf 6c3d 08e2 f8bd
00000140: b6e6 87be bc1c 4cbe ea56 93bc 7001 bcbb
00000150: 5c16 853e 4633 683b 1e60 8fbd d95c 89be
00000160: e077 81be 1b9b a23d bbd8 8a3e c70f 373c
00000170: 9f22 81be 72ab 013e cec7 6d3e abb5 5ebe
00000180: 1095 b9bd e799 f33c 9eb3 20be ade5 91be
00000190: 4dd1 f33d 4cf9 82be 079f a5bd 567b 24be
000001a0: a03e 753e 2b80 163d 8823 143e e55d 45be
000001b0: 504b 823e 33a8 5a3c 3c20 1abe c571 4abd
000001c0: e176 50be 2aae 07bc f50e 0a3e 6e4b efbd
000001d0: 408e 813e 863e b63d 964b 47bd 6379 053e
000001e0: 081d 2ebc dd32 e1bd d7d6 42be e994 453e
000001f0: e315 3e3e 58ca 0b3e 4136 223e 2c15 903e
00000200: ee42 943e 44ab 97be f24c 5c3d e5cc 9ebc
00000210: 27dd d03d ae95 63bd f3cf b23d 7a32 8ebe
00000220: e961 063e 1fdb 993e bf01 52bd 10e7 7ebe
00000230: a420 7cbe 4d02 44bd 83c5 22bc f7fc 573d
00000240: 752c d43c 1492 653e 8c25 00bd f35f 913d
00000250: b17e 24be ee34 953e cec3 e43d d474 9ebd
00000260: d654 183e 35de 053e 140c 003d f09e a4bd
00000270: a836 363d dd61 60bb 1140 21be acdd 033d
00000280: f81c 9e3d 47fd 44be 51c0 fa3c ad97 adbd
00000290: ad39 75be cc58 22be 675b 7ebe ae80 863d
000002a0: 00df 253e 4d69 9a3e b773 943e e3f0 bf3d
000002b0: 2914 263e 6424 67bd 8d0d 6d3e b95d b0bd
000002c0: 6ab9 bbbd be9a e6bd 9cff 19be 3fe7 87be
000002d0: 92d8 85bd 9140 773e b0b8 20be 1bac a0be
000002e0: 4996 e3bd 396b ab3e 0cee 9b3d 7389 27bd
000002f0: fc0c c8bd d403 703e d508 86be 7f5c 543e
00000300: f24c c83d f477 573e 1eb5 4abe 54e5 abbd
00000310: f162 02be d5d4 9c3e 1e6a 29bd 8cb6 9abe
00000320: bf1f 0b3e 6425 963d 7a8b a13c 813e 67be
00000330: e453 91be 5113 823e e4f7 72be 90de 99bc
00000340: 58af 6fbd 748b 1c3e 7445 6dbe b667 3ebe
00000350: a814 30be 1896 21be 6c9c 2c3e f22b 073e
00000360: b0e6 db3d 230e 973e fa88 80be ee65 c6bc
00000370: 5c57 81be 2189 3bbd 5e0d 7cbe d8ea 7fbe
00000380: b880 4c3e b458 03be f7a0 b9bc 61c9 dbbd
00000390: cfb0 69be 9346 2bbd 21e7 2f3d 2ac8 803e
000003a0: b7c1 fcbd 546b 9a3e 9787 13be 28f7 483e
000003b0: 855c 793e ee67 793d f196 e8bd 5272 6e3e
000003c0: 9e5c c2bd 35bd 07be 2ef2 c0bd 3a56 79be
000003d0: ba7e 46bd 7c20 74be 4fdf 3b3e a6c7 9ebe
000003e0: 36db 83be 77c4 da3d 8904 263e b43f 903e
000003f0: 628d 89be f96b 623e cf95 583e 0e73 49be

conv2.bias f4 [32]
-0.0009698402 0.02918628 0.012176821 -0.00630345 -0.01432357 -0.011864442 -0.007721184 -0.012744012
0.0047336505 -0.016459027 -0.013500857 0.0053200475 -0.014706571 -0.015310161 0.018958386 -0.013686791
0.013474093 -0.0034949367 -0.03684553 0.031152567 -0.023427378 0.0032387194 -0.004636037 0.028755885
0.07768298 -0.0045330017 -0.005094656 -0.004344285 -0.01645453 0.026049586 -0.034413263 -0.024124434
00000000: e03c 7eba 1118 ef3c 4a81 473c 2c8d cebb
00000010: 68ad 6abc 1463 42bc fc01 fdbb 43cc 50bc
00000020: bd1c 9b3b 15d5 86bc b332 5dbc cb53 ae3b
00000030: d4f3 70bc 78d7 7abc 9e4e 9b3c 903e 60bc
00000040: 71c2 5c3c 4f0b 65bb 57eb 16bd ab33 ff3c
00000050: c6ea bfbc b240 543b e6e9 97bb 7691 eb3c
00000060: 4118 9f3d 9389 94bb 12f1 a6bb 815a 8ebb
00000070: a7cb 86bc f165 d53c ecf4 0cbd 9ba0 c5bc

pool.pma.S f4 [1, 225, 32]
0.14882758 -0.20993538 -0.29764158 0.20837247 0.15564634 -0.08255639 -0.19506052 -0.11621559
-0.09676227 -0.26034132 0.04437174 0.018530969 0.18131313 -0.14797297 0.15306269 -0.09219484
-0.16573939 0.13706681 -0.27223307 0.1755865 -0.33501494 -0.016578967 0.16957471 0.112121336
-0.21700114 -0.10397699 0.241777 0.091934174 0.26637098 -0.13733028 0.110849135 0.21956675
0.022405699 -0.03821255 -0.12871048 0.018544836 0.16350584 0.020767342 -0.23565578 -0.13254887
0.3834584 -0.124730065 -0.025170002 0.12479803 0.0096944375 -0.111441754 -0.2739282 -0.0154925855
-0.22511746 0.13321666 -0.17314745 0.116974436 -0.19299498 -0.26928326 0.053819206 0.08086547
-0.30952588 -0.0056349044 0.27334657 -0.09123114 0.19582674 -0.030305356 0.017326236 0.13107727
0.029939592 -0.020122185 0.0098618455 -0.0060980753 -0.011089139 0.038292654 0.08031602 0.09399327
0.0005080015 0.01171972 0.0073484266 -0.07510941 -0.011313167 0.042266704 0.0741673 -0.024994116
0.09353835 -0.057610467 0.05748003 -0.037305824 0.07217727 -0.00025959156 -0.05466971 0.04623339
0.1636879 -0.034541097 -0.13243307 0.014071109 -0.08822912 -0.013555201 0.01818273 -0.022842791
-0.02528043 0.021856086 0.04945236 -0.053756855 0.02245698 0.066355735 -0.073932424 -0.006453505
0.30001396 0.08260916 -0.018625727 0.09383882 -0.07146605 0.061692096 -0.27458885 -0.012275452
-0.0513754 -0.008642666 0.0316796 -4.670109e-05 -0.008078001 -0.2061185 -0.03180446 0.0500298
-0.13373074 0.035656977 0.11609605 -0.11123229 0.0024818783 0.027590087 -0.054198474 -0.00087953685
0.02738895 0.036083285 0.063169874 -0.021753762 -0.031761046 0.03802524 0.101878725 0.0869689
0.010464299 0.07885158 0.0035084302 -0.03711259 -0.02333902 0.07685144 0.049901444 -0.01744649
0.08775976 -0.049558725 0.09719834 -0.030990202 0.05026285 -0.00416464 -0.018433439 0.015274292
0.09706302 0.016747208 -0.09645891 0.010453871 -0.08459586 0.036407683 0.0038326401 -0.053697515
-0.0038699694 0.018796992 -0.022332964 -0.01744321 0.066337384 0.07674749 -0.14682654 -0.027150339
0.34312102 0.0072303344 -0.053709257 0.06802887 -0.018097075 0.02727917 -0.28038836 0.013148023
-0.12725854 -0.012520776 -0.015546194 0.030923402 -0.09418821 -0.20571709 -0.019749809 0.02424406
-0.22595713 0.022901485 0.16491106 -0.11004128 0.07483664 0.031786446 -0.028676836 0.0029244882
0.100214064 -0.16674787 -0.2722712 0.1908554 0.12984625 -0.0354016 -0.07877694 -0.063425355
-0.09419509 -0.19895548 0.070205316 -0.057263963 0.14095178 -0.098304786 0.18138255 -0.06543996
-0.07586105 0.115378514 -0.1786734 0.06860352 -0.20795561 0.032433107 0.05760273 0.08230366
-0.16557164 -0.074186265 0.12395297 0.0579963 0.21008435 -0.08318075 0.10222643 0.119849905
0.11568887 -0.12700611 -0.23533796 0.14609356 0.15422758 -0.07482719 -0.13315146 -0.09691035
0.0879019 -0.1976312 0.039255682 0.015264724 0.10746173 -0.09726179 0.001764018 -0.064236194
-0.14770201 0.10285776 -0.18335888 0.1303571 -0.249764 -0.10301059 0.09492727 0.0532054
-0.2372986 -0.10137434 0.19446193 -0.042034976 0.16497684 -0.055780515 0.093433306 0.15147422
00000000: 4266 183e 4df9 56be 7a64 98be 985f 553e
00000010: c161 1f3e 5313 a9bd f2bd 47be 7002 eebd
00000020: 4c2b c6bd 754b 85be 24bf 353d 42ce 973c
00000030: 26aa 393e 3a86 17be 77bc 1c3e a6d0 bcbd
00000040: 96b7 29be 3e5b 0c3e 2262 8bbe f3cc 333e
00000050: 1487 abbe 9dd0 87bc fea4 2d3e df9f e53d
00000060: 8c35 5ebe e3f1 d4bd 6494 773e fc47 bc3d
00000070: c761 883e 4fa0 0cbe df04 e33d 1bd6 603e
00000080: 288c b73c c384 1cbd aecc 03be 57eb 973c
00000090: 136e 273e 4620 aa3c c04f 71be e4ba 07be
000000a0: a954 c43e 7a72 ffbd 5231 cebc 1c96 ff3d
000000b0: 6bd5 1e3c 933b e4bd 5140 8cbe 9dd4 7dbc
000000c0: 3185 66be f369 083e 914d 31be 4b90 ef3d
000000d0: 7aa0 45be 7fdf 89be 8771 5c3d cc9c a53d
000000e0: 2d7a 9ebe 01a5 b8bb 15f4 8b3e 64d7 babd
000000f0: ce86 483e f042 f8bc c0ef 8d3c 1f39 063e
00000100: e043 f53c 48d7 a4bc 9493 213c 5dd2 c7bb
00000110: 38af 35bc c2d8 1c3d ba7c a43d 8b7f c03d
00000120: 672b 053a 1204 403c 12cb f03b f6d2 99bd
00000130: dd5a 39bc da1f 2d3d 06e5 973d 76c0 ccbc
00000140: 0991 bf3d f4f8 6bbd 2e70 6b3d fecd 18bd
00000150: add1 933d ca19 88b9 59ed 5fbd 395f 3d3d
00000160: cd9d 273e f77a 0dbd 899c 07be 828a 663c
00000170: 78b1 b4bd a216 5ebc f3f3 943c ce20 bbbc
00000180: e818 cfbc 890b b33c 8f8e 4a3d 2630 5cbd
00000190: b3f7 b73c 84e5 873d e269 97bd ec77 d3bb
000001a0: 6e9b 993e fe2e a93d fb94 98bc 912e c03d
000001b0: cb5c 92bd dab0 7c3d e996 8cbe fa1e 49bc
000001c0: 036f 52bd f899 0dbc 78c2 013d eae0 43b8
000001d0: 9859 04bc ba10 53be 6545 02bd 0cec 4c3d
000001e0: b6f0 08be 0d0d 123d c4c3 ed3d c1cd e3bd
000001f0: 02a7 223b 9b04 e23c 38ff 5dbd b890 66ba
00000200: cb5e e03c 11cc 133d 355f 813d f234 b2bc
00000210: df17 02bd 5bc0 1b3d cba5 d03d c01c b23d
00000220: 7372 2b3c f07c a13d b1ed 653b 5f03 18bd
00000230: 7931 bfbc 4a64 9d3d 7565 4c3d f1eb 8ebc
00000240: 64bb b33d 17fe 4abd ec0f c73d 2adf fdbc
00000250: 6be0 4d3d 8877 88bb b901 97bc 0641 7a3c
00000260: fac8 c63d 7131 893c 408c c5bd b746 2b3c
00000270: 9840 adbd 3920 153d 082d 7b3b edf1 5bbd
00000280: 509f 7dbb 26fc 993c 9ff3 b6bc 10e5 8ebc
00000290: e5db 873d ca2d 9d3d b259 16be 636a debc
000002a0: 8fad af3e 71ec ec3b 3dfe 5bbd b852 8b3d
000002b0: 5140 94bc 9178 df3c 108f 8fbe ce6a 573c
000002c0: 1050 02be f123 4dbc 77b5 7ebc 1353 fd3c
000002d0: c0e5 c0bd 80a7 52be 5aca a1bc 7b9b c63c
000002e0: 4e61 67be e59b bb3c 72de 283e 535d e1bd
000002f0: f443 993d 8132 023d afeb eabc c5a8 3f3b
00000300: 083d cd3d f4bf 2abe 2167 8bbe 996f 433e
00000310: 6af6 043e 4501 11bd ce55 a1bd 27e5 81bd
00000320: 5be9 c0bd fcba 4bbe cec7 8f3d 9e8d 6abd
00000330: aa55 103e 0554 c9bd 59bc 393e 6305 86bd
00000340: 0a5d 9bbd 924b ec3d 29f6 36be 0180 8c3d
00000350: 51f2 54be 94d8 043d d7f0 6b3d d28e a83d
00000360: 9d8b 29be f8ee 97bd 0edb fd3d 878d 6d3d
00000370: 5a20 573e ab5a aabd 175c d13d de73 f53d
00000380: 49ee ec3d e40d 02be 6ffc 70be 8d99 153e
00000390: d6ed 1d3e ff3e 99bd db58 08be ef78 c6bd
000003a0: e905 b43d d55f 4abe 91ca 203d e518 7a3c
000003b0: e514 dc3d 3031 c7bd 9f36 e73a 448e 83bd
000003c0: 323f 17be 17a7 d23d 6ec2 3bbe 557c 053e
000003d0: 22c2 7fbe 37f7 d2bd 3b69 c23d e8ed 593d
000003e0: 67fe 72be 5a9d cfbd 0721 473e de2c 2cbd
000003f0: b0ef 283e 1c7a 64bd f659 bf3d 0f1c 1b3e

pool.pma.mab.fc_q.weight f4 [32, 32]
-0.010148021 0.03364665 0.26366416 -0.27028227 0.103612155 0.074676916 -0.033601027 -0.057574194
0.5194268 0.30008504 -0.12982023 0.17344315 -0.17520986 0.09847499 -0.44722378 0.16081417
-0.2708437 -0.08955055 0.28773263 0.0861852 0.12826046 -0.37644717 -0.24516128 -0.015570321
-0.08462125 0.21073966 -0.006598407 -0.21242481 -0.14076228 0.15683343 0.018403124 -0.11859135
0.083594464 -0.0909936 -0.19617234 0.13568223 0.010609592 -0.17453772 0.092032164 0.258998
-0.22751841 -0.19411148 0.09563429 -0.0640419 0.08275434 -0.16508609 0.23916884 0.045176756
0.2913642 -0.14795148 -0.010662 -0.07107005 -0.12570992 0.20929764 0.024271846 -0.017721782
0.1955318 0.0096204225 -0.026409212 0.10210015 0.12892346 -0.100041606 -0.036504395 -0.121962555
0.038868006 -0.073779486 -0.20213634 0.071444795 0.047975384 -0.16092965 -0.084877454 0.0018496054
-0.25872988 -0.23298286 0.073585786 0.053077642 0.005493004 -0.16017908 0.14910112 0.11503367
-0.26140863 0.25195384 -0.24828404 0.003943027 -0.33822364 -0.033910602 0.090807505 -0.13836852
0.0439907 0.03523855 0.3054645 -0.0236641 0.08628674 -0.069865175 0.068943694 0.33356664
0.018710308 0.091810174 -0.027762556 0.29245558 -0.12293049 0.05781763 0.09179862 0.0012665498
-0.26098874 0.08416841 0.20176855 0.12807156 0.056789916 -0.036448084 0.06773911 0.025041731
0.23601025 0.058945432 -0.19075672 0.015125685 0.020731106 0.1619265 -0.023395482 0.056378942
-0.21489927 -0.12783593 -0.1914364 -0.062869504 0.0037299048 0.08040064 -0.041530978 0.005739028
-0.015859684 0.224389 0.22711413 -0.2433132 -0.14958368 -0.026156327 -0.046823833 0.043419022
0.004566049 0.07268211 0.047737554 0.099779 -0.0533158 0.17269047 -0.18621486 0.14397255
0.04591859 -0.25353688 0.21874954 -0.12532538 0.048921056 0.028691277 -0.101908974 -0.03961289
-0.037352704 0.20884085 -0.19318014 -0.1629869 -0.19547361 0.0965571 -0.15547362 0.023105465
-0.20668837 0.21638621 0.06731611 -0.033869408 -0.08734978 -0.03541183 -0.2018158 -0.25237665
0.011593921 0.22726056 0.06421231 0.26601154 -0.21702975 0.08324547 0.0033986343 0.2607791
-0.30620632 -0.1031705 0.13857296 -0.109267026 -0.036371417 -0.13837501 0.044990156 -0.17400035
-0.3036127 0.049644724 0.16486381 0.027381202 -0.023601368 0.049430072 -0.23804022 -0.2880849
-0.02316083 0.3386836 0.23144412 -0.30765104 -0.034545377 -0.011135321 0.10307009 0.22144873
0.37059626 0.32121658 -0.026303358 -0.015539626 -0.39493045 0.2849208 0.03906636 0.17381419
0.21411814 -0.12894632 0.10477429 -0.16520235 0.068078645 -0.17371921 -0.15112038 0.04051069
0.0049987542 0.18363586 -0.014539234 -0.10097425 -0.23605013 0.18484563 -0.3101831 -0.06188159
0.29137188 -0.31804752 -0.06484929 0.15982428 0.15351595 -0.3839101 0.16027893 0.08175149
-0.5810086 -0.29307604 0.03994371 -0.2855765 0.09105983 -0.29098433 0.39573357 -0.04581628
0.10355777 0.1867949 -0.2817511 0.26324433 -0.26283294 0.4098036 -0.00034504457 0.03674332
0.31987497 -0.38103244 -0.28180185 0.32158282 -0.07152655 -0.24404235 0.42296317 0.059494834
00000000: e343 26bc 12d1 093d fdfe 863e 7062 8abe
00000010: 9c32 d43d 36f0 983d 3ba1 09bd ebd2 6bbd
00000020: 28f9 043f bfa4 993e 98ef 04be 159b 313e
00000030: 376a 33be 41ad c93d 84fa e4be 78ac 243e
00000040: 07ac 8abe 4766 b7bd b151 933e de81 b03d
00000050: b656 033e afbd c0be 8f0b 7bbe a91a 7fbc
00000060: e84d adbd 23cc 573e 7337 d8bb e485 59be
00000070: fd23 10be f198 203e 26c2 963c 06e0 f2bd
00000080: 9333 ab3d da5a babd 67e1 48be 48f0 0a3e
00000090: dbd3 2d3c 04ba 32be 5c7b bc3d 639b 843e
000000a0: 96fa 68be 29c5 46be e9db c33d 6628 83bd
000000b0: 1b7b a93d 540c 29be ade8 743e 430b 393d
000000c0: b02d 953e 9880 17be abaf 2ebc 2d8d 91bd
000000d0: 1aba 00be 1f52 563e c0d5 c63c 452d 91bc
000000e0: 7d39 483e fa9e 1d3c 2258 d8bc e219 d13d
000000f0: 8304 043e 9de2 ccbd a285 15bd 81c7 f9bd
00000100: 0f34 1f3d b319 97bd d4fc 4ebe a651 923d
00000110: d681 443d beca 24be 3bd4 adbd 756e f23a
00000120: 3e78 84be 0f93 6ebe 25b4 963d f167 593d
00000130: a8fe b33b fc05 24be f7ad 183e c696 eb3d
00000140: 5ad7 85be 1800 813e 2c3e 7ebe 8234 813b
00000150: a62b adbe d8e5 0abd 49f9 b93d 7ab0 0dbe
00000160: 982f 343d 4c56 103d d865 9c3e 37db c1bc
00000170: 1ab7 b03d 7915 8fbd 5a32 8d3d 3fc9 aa3e
00000180: 5c46 993c f906 bc3d 4d6e e3bc bdbc 953e
00000190: fbc2 fbbd 2ed2 6c3d ea00 bc3d 5c02 a63a
000001a0: 51a0 85be 7d60 ac3d 6a9c 4e3e 3125 033e
000001b0: 8b9c 683d 964a 15bd cdba 8a3d 5124 cd3c
000001c0: acac 713e c470 713d bb55 43be b9d1 773c
000001d0: 48d4 a93c 0fd0 253e e2a7 bfbc 9bed 663d
000001e0: 8e0e 5cbe 6ce7 02be e707 44be bac1 80bd
000001f0: 6b71 743b 17a9 a43d 631c 2abd 750e bc3b
00000200: 2bec 81bc 3bc6 653e 9b90 683e 1827 79be
00000210: 772c 19be cb45 d6bc 59ca 3fbd 25d8 313d
00000220: cc9e 953b 5cda 943d 7488 433d ef58 cc3d
00000230: ab61 5abd c5d5 303e 1caf 3ebe 8a6d 133e
00000240: 2215 3c3d 96cf 81be e1ff 5f3e 4c55 00be
00000250: 7261 483d f809 eb3c a7b5 d0bd 2041 22bd
00000260: 26ff 18bd 60da 553e 04d1 45be 0ae6 26be
00000270: 3c2a 48be bbbf c53d 7a34 1fbe ac47 bd3c
00000280: 1ea6 53be 5994 5d3e 07dd 893d a6ba 0abd
00000290: 71e4 b2bd ff0b 11bd cda8 4ebe 8337 81be
000002a0: 6ef4 3d3c feb6 683e be81 833d aa32 883e
000002b0: 0c3d 5ebe 9a7c aa3d 9fbb 5e3b d784 853e
000002c0: 13c7 9cbe 0e4b d3bd 12e6 0d3e 64c7 dfbd
000002d0: 32fa 14bd 2eb2 0dbe 9947 383d 262d 32be
000002e0: 2073 9bbe 4458 4b3d 0fd2 283e 8b4e e03c
000002f0: a857 c1bc 3077 4a3d d1c0 73be dd7f 93be
00000300: c8bb bdbc f067 ad3e b0ff 6c3e 7084 9dbe
00000310: 747f 0dbd ec70 36bc 6916 d33d 75c3 623e
00000320: cbbe bd3e 8076 a43e 247a d7bc ea99 7ebc
00000330: 5334 cabe 24e1 913e 0c04 203d 59fc 313e
00000340: c941 5b3e 810a 04be e793 d63d ce2a 29be
00000350: d16c 8b3d 73e3 31be 4dbf 1abe 8aee 253d
00000360: 97cc a33b 0a0b 3c3e f835 6ebc 96cb cebd
00000370: 20b7 71be 2c48 3d3e 52d0 9ebe 8d77 7dbd
00000380: b22e 953e 20d7 a2be b4cf 84bd faa8 233e
00000390: 4933 1d3e dd8f c4be 2920 243e 536d a73d
000003a0: fbbc 14bf 100e 96be 049c 233d 1537 92be
000003b0: 937d ba3d e6fb 94be 979d ca3e daa9 3bbd
000003c0: 1916 d43d 2a47 3f3e ae41 90be f6c7 863e
000003d0: 0a92 86be c7d1 d13e 19e7 b4b9 2a80 163d
000003e0: a7c6 a33e af16 c3be 5548 90be 81a6 a43e
000003f0: 837c 92bd 3de6 79be a18e d83e dbb0 733d

pool.pma.mab.fc_q.bias f4 [32]
0.11666675 0.21171111 -0.1495314 -0.030414242 0.121463455 -0.011064967 -0.03188978 -0.012697885
-0.08791367 -0.1222807 0.18062168 0.15132013 -0.034149006 0.08346919 -0.0942062 0.053810056
-0.066637926 0.09446384 -0.14326322 0.07668996 0.06364418 0.05849928 -0.10429139 -0.10375744
-0.15896717 -0.025969438 -0.06742968 0.07788629 0.077378795 -0.1514717 0.07603439 -0.11983569
00000000: faee ee3d ccca 583e c21e 19be 4a27 f9bc
00000010: d5c1 f83d d649 35bc dc9e 02bd ca0a 50bc
00000020: 150c b4bd 4e6e fabd e4f4 383e aaf3 1a3e
00000030: d4df 0bbd e5f1 aa3d 2eef c0bd ef67 5c3d
00000040: 7779 88bd 4276 c13d 98b3 12be a00f 9d3d
00000050: e157 823d f19c 6f3d b996 d5bd c87e d4bd
00000060: 4ac8 22be dcbd d4bc 9218 8abd d982 9f3d
00000070: c678 9e3d 661b 1bbe ebb7 9b3d 6a6c f5bd

pool.pma.mab.fc_k.weight f4 [32, 32]
-0.43628073 0.42669216 0.7566382 -0.40133065 0.45291 -0.56407285 0.28045434 -0.14114761
0.7591588 -0.29642808 -0.1508416 0.7248504 -0.44038075 0.72897494 -0.054536544 -0.36946887
-0.073380984 0.22806247 -0.6296959 0.30463323 -0.5224305 0.07329323 -0.26323205 0.1338891
0.06750523 -0.022846587 0.042047057 -0.2919045 -0.17584372 0.06831263 -0.57572657 -0.7250414
-0.07091842 -0.52208537 -0.5101867 0.4414958 -0.35668367 0.430256 -0.17600663 0.42210117
-0.680744 0.05544357 0.24942566 -0.76983654 0.54819536 -0.7700146 0.2797657 0.20587485
0.118793696 -0.25554836 0.5468892 -0.37479582 0.59694725 -0.26431298 -0.05951117 -0.15455236
-0.26205283 -0.57769346 -0.18879855 0.33451742 0.3643662 -0.26338452 0.35788053 0.7185466
-0.33907014 0.1375265 0.09407496 -0.13902831 -0.13817114 -0.21002218 0.20601764 0.28281614
-0.13002054 -0.3449822 0.6668922 0.33971658 0.24330707 0.06945625 0.29768854 -0.022840604
-0.5364431 8.40789e-05 0.35282165 0.30023253 1.02657 0.21523032 0.62818617 0.06589433
-0.15951337 -0.44850993 0.15490024 0.61860526 0.3888901 0.3340505 0.46602708 -0.15387878
0.1676715 -0.23474093 -0.15929349 0.20127177 -0.24916804 0.4616053 -0.049545445 0.15862171
-0.35959297 0.048766375 0.074320294 -0.35417023 0.32166204 -0.6078409 -0.100928135 0.29525822
-0.06647291 -0.18914868 0.31843176 -0.3290576 0.36851004 -0.06353429 0.029704073 0.10731353
0.050296232 -0.5858538 -0.15006174 0.29059637 0.32707426 -0.030947234 0.20684306 0.37300265
-0.11710395 0.6514494 0.80791396 -0.776877 0.47103873 -0.7483497 0.7078716 -0.54322714
0.69665354 0.11373305 -0.52149296 0.6051227 -0.6877503 0.69894135 -0.3104874 -0.6248179
-0.23071511 0.47890398 -0.76328146 0.695538 -0.7434342 0.7416207 -0.16812913 0.532669
0.5620141 0.49763736 0.26921356 -0.54553574 -0.5759324 0.2954416 -0.6877426 -0.52466714
0.30112997 0.53839606 0.6593154 -0.4975287 0.41574028 -0.717154 0.21270306 -0.5306694
0.33260843 0.0772524 -0.4787592 0.7443963 -0.6161388 0.6036035 -0.45627505 -0.19650438
-0.28734076 0.36477348 -0.49494034 0.6053703 -0.6763593 0.4408978 -0.17823938 0.31278834
0.27421138 0.5368463 0.33048785 -0.49436623 -0.59148943 0.28894132 -0.5599811 -0.64715564
0.03993305 0.6545722 0.7806916 -0.67895687 0.6247107 -0.49903688 0.396126 -0.7756173
0.81050193 0.38610253 -0.4876877 0.70637614 -0.84098417 0.7020694 -0.27866146 -0.45600846
-0.32484248 0.7377217 -0.77699125 0.53779525 -0.73770016 0.28839546 -0.09144402 0.27802038
0.31858438 0.66822565 0.17633341 -0.56418896 -0.655667 0.37879357 -0.67541367 -0.6456333
0.21489535 -0.030118903 -0.011611363 -0.035427045 0.1499935 0.03931349 0.17178604 -0.26553684
0.17188561 0.28970274 -0.0929257 0.16352925 -0.12493675 0.29650554 -0.35128763 -0.38575628
-0.060775265 0.35434392 -0.060594976 0.16495204 0.394455 0.34609613 0.26892543 0.62157506
-0.05787751 0.22227573 0.40677863 -0.3574456 -0.2675405 0.32137775 0.14245857 -0.10312219
00000000: 3060 dfbe 6577 da3e 0bb3 413f 367b cdbe
00000010: d2e3 e73e 1467 10bf b697 8f3e 0089 10be
00000020: 3b58 423f 6cc5 97be 3876 1abe cc8f 393f
00000030: 9679 e1be 1a9e 3a3f b661 5fbd 062b bdbe
00000040: c548 96bd 3589 693e c033 21bf e3f8 9b3e
00000050: 01be 05bf c31a 963d 5ac6 86be 391a 093e
00000060: 2f40 8a3d c428 bbbc 8939 2c3d 8274 95be
00000070: 6010 34be 7ee7 8b3d d162 13bf 509c 39bf
00000080: ad3d 91bd 63a7 05bf 989b 02bf bd0b e23e
00000090: 3e9f b6be 844a dc3e 153b 34be a51d d83e
000000a0: 3d45 2ebf cc18 633d 7169 7f3e 0214 45bf
000000b0: 8856 0c3f ad1f 45bf 733d 8f3e dbd0 523e
000000c0: 1c4a f33d 3cd7 82be ee00 0c3f 3de5 bfbe
000000d0: 89d1 183f 0854 87be fcc1 73bd f942 1ebe
000000e0: ca2b 86be b8e3 13bf 6854 41be de45 ab3e
000000f0: 358e ba3e 56da 86be 1e3c b73e acf2 373f
00000100: 9a9a adbe bfd3 0c3e 5faa c03d 705d 0ebe
00000110: bc7c 0dbe 0e10 57be 4af6 523e 47cd 903e
00000120: 1b24 05be 82a1 b0be 72b9 2a3f 55ef ad3e
00000130: 7d25 793e 143f 8e3d a26a 983e 381c bbbc
00000140: 5654 09bf 8453 b038 0aa5 b43e 14b8 993e
00000150: a566 833f 5665 5c3e cfd0 203f 9bf3 863d
00000160: 7957 23be 18a3 e5be 2b9e 1e3e ea5c 1e3f
00000170: 9a1c c73e ab08 ab3e 1a9b ee3e 6692 1dbe
00000180: 14b2 2b3e ed5f 70be d51d 23be 301a 4e3e
00000190: e825 7fbe 8857 ec3e 2af0 4abd bb6d 223e
000001a0: 921c b8be 40bf 473d 3d35 983d cd55 b5be
000001b0: e3b0 a43e 769b 1bbf 69b3 cebd 162c 973e
000001c0: f322 88bd 31b0 41be 7d09 a33e 3d7a a8be
000001d0: 59ad bc3e 441e 82bd f555 f33c 32c7 db3d
000001e0: 6c03 4e3d 84fa 15bf c9a9 19be 0cc9 943e
000001f0: 4776 a73e 0e85 fdbc abce 533e 34fa be3e
00000200: 32d4 efbd 63c5 263f 73d3 4e3f 69e1 46bf
00000210: fd2b f13e d993 3fbf 1337 353f ef10 0bbf
00000220: e357 323f e0ec e83d 9080 05bf 52e9 1a3f
00000230: 6710 30bf d2ed 323f 34f8 9ebe 11f4 1fbf
00000240: 9540 6cbe e732 f53e 6a66 43bf c70e 323f
00000250: b451 3ebf dbda 3d3f 0b2a 2cbe ff5c 083f
00000260: 28e0 0f3f 53ca fe3e 5cd6 893e 3ba8 0bbf
00000270: 4e70 13bf 1f44 973e e60f 30bf 9650 06bf
00000280: b52d 9a3e 53d4 093f e5c8 283f 15bc febe
00000290: e9db d43e 6897 37bf d5ce 593e f3d9 07bf
000002a0: a74b aa3e 8236 9e3d ed1f f5be c290 3e3f
000002b0: 46bb 1dbf c285 1a3f e29c e9be 7238 49be
000002c0: 541e 93be 97c3 ba3e d268 fdbe 8cf9 1a3f
000002d0: e225 2dbf 5bbd e13e 6284 36be cb25 a03e
000002e0: 6f65 8c3e c26e 093f b435 a93e 921d fdbe
000002f0: da6b 17bf 1ef0 933e ec5a 0fbf feab 25bf
00000300: d690 233d 0b92 273f 68db 473f 1ed0 2dbf
00000310: 0aed 1f3f c381 ffbe 07d1 ca3e db8e 46bf
00000320: 0e7d 4f3f 3baf c53e 34b2 f9be 11d5 343f
00000330: bd4a 57bf d2ba 333f b7ac 8ebe f179 e9be
00000340: c151 a6be 54db 3c3f e6e8 46bf f3ac 093f
00000350: ebd9 3cbf 92a8 933e 0147 bbbd b058 8e3e
00000360: 7e1d a33e d610 2b3f bf90 343e b06e 10bf
00000370: cbd9 27bf 3bf1 c13e e9e7 2cbf 3948 25bf
00000380: 870d 5c3e ebbb f6bc 963d 3ebc f31b 11bd
00000390: e597 193e 2f07 213d aee8 2f3e 72f4 87be
000003a0: c802 303e eb53 943e d44f bebd 3674 273e
000003b0: d7de ffbd 93cf 973e f9db b3be d981 c5be
000003c0: 7cef 78bd 916c b53e 7032 78bd 30e9 283e
000003d0: 01f6 c93e 8333 b13e 98b0 893e 8b1f 1f3f
000003e0: f810 6dbd 409c 633e 4a45 d03e 1c03 b7be
000003f0: 12fb 88be a08b a43e a9e0 113e ba31 d3bd

pool.pma.mab.fc_k.bias f4 [32]
-0.21041974 0.21841428 -0.087226756 0.093253106 -0.24755172 -0.39850777 -0.3116483 0.032704763
-0.008632122 -0.177629 0.02113282 -0.09178625 0.15333113 -0.06898774 -0.14857033 0.041844826
0.2589848 -0.011019247 -0.26516414 -0.10486792 -0.09820018 -0.13682304 -0.17855002 -0.22125277
-0.095670335 0.0011963274 -0.09226996 0.2580479 -0.10844837 0.15716037 -0.04777725 -0.32945153
00000000: 4678 57be fea7 5f3e f1a3 b2bd 7cfb be3d
00000010: 337e 7dbe 3609 ccbe 5e90 9fbe 6ef5 053d
00000020: be6d 0dbc 60e4 35be bc1e ad3c 6efa bbbd
00000030: d602 1d3e 7249 8dbd d222 18be 7b65 2b3d
00000040: a899 843e 128a 34bc 98c3 87be fec4 d6bd
00000050: 2d1d c9bd 571b 0cbe d1d5 36be 1690 62be
00000060: cfee c3bd 16ce 9c3a 08f8 bcbd db1e 843e
00000070: 2e1a debd a6ee 203e 14b2 43bd dfad a8be

pool.pma.mab.fc_v.weight f4 [32, 32]
0.1978406 -0.018023746 -0.025789952 0.011590775 -0.0423255 0.07393878 0.009193103 -0.0047921864
-0.061626263 0.06828632 -0.13372542 -0.20488293 -0.024505833 0.10206347 0.041733906 0.15100129
0.037513763 0.04004701 -0.113181636 -0.107908316 0.028893612 -0.018010346 0.2103736 -0.024613924
0.014475334 -0.051318415 -0.12096549 0.1343379 -0.1359198 -0.032050766 -0.067367695 0.18123463
-0.14609894 -0.03327767 0.0076099485 -0.017122915 0.011822672 0.08982106 -0.021882147 -0.11782683
0.15607548 -0.18650235 -0.13153166 -0.09545466 0.11567829 0.16210222 0.14176278 -0.10292218
-0.093876496 -0.059452493 0.0759542 0.14577264 0.039055593 -0.07166162 -0.054467786 -0.01327386
-0.043089304 -0.058809135 -0.03301948 0.15908064 -0.009602828 0.05944903 -0.093793735 -0.003630343
0.02131939 -0.008161039 0.09768173 0.02649763 -0.13104506 -0.10684197 0.06193481 0.12294331
0.084126726 -0.07311798 0.040891998 0.0026099377 -0.01078025 -0.11272967 0.08084723 -0.103936754
0.130582 -0.1096965 -0.006695586 0.052482523 -0.019920412 -0.07305596 0.13968906 0.040411454
0.03411782 0.21687207 -0.009475964 -0.08425799 0.063095026 0.0632231 0.017891044 0.0647195
0.0807548 -0.051535692 -0.064575166 -0.06523735 -0.069271 0.038676593 -0.01917118 0.042365264
-0.06336142 -0.044151347 -0.037278164 -0.034526877 -0.07641835 -0.033836547 0.18072793 0.02907325
0.09692547 -0.116310365 -0.14766274 -0.025212832 0.06114775 -0.17242233 -0.22247957 -0.09048665
0.12771885 0.027717222 -0.12359716 -0.013293812 -0.054811608 -0.116725296 0.04817976 -0.0043456503
-0.07100477 -0.1463112 -0.08481574 0.058150325 -0.035185773 0.07730383 -0.018739726 0.043078743
-0.077102184 -0.15465277 0.15790345 0.07542951 0.08222598 -0.164089 0.11188082 -0.020671891
0.0495079 0.00016651298 0.036162935 0.17236789 -0.045565512 0.15072027 -0.015883818 0.10712649
-0.06188357 0.12486293 0.031942144 -0.063681215 0.09504336 0.03517597 -0.096493855 0.07370509
0.1500635 -0.048118208 0.13572678 -0.03184388 -0.026122155 0.09103979 -0.13476554 -0.124633156
0.071313806 0.09714836 -0.025623962 0.07095494 0.022527456 0.03830094 0.066544935 0.006240921
-0.06281618 -0.005571523 -0.02593917 0.15186489 -0.15225433 -0.11173979 -0.046730027 -0.045415554
0.16404667 -0.04203935 -0.063275896 -0.11662774 -0.049452998 0.009303337 -0.03927657 -0.0641409
-0.03155165 0.01940295 0.149327 0.022036215 -0.053704783 0.050887026 0.01879949 -0.10109417
0.008962376 -0.01875139 0.21207656 0.16590336 -0.12179024 0.12414578 0.10320531 -0.068447374
0.14514643 0.013127166 0.16219564 -0.19633351 0.18613364 -0.09209467 -0.063535914 0.14597924
-0.06629822 -0.03345178 0.13101687 -0.09590265 -0.00581482 -0.056881215 0.18296655 -0.0998051
0.1832917 -0.12409009 -0.045342434 -0.105681494 0.14724882 0.09676983 -0.10212158 -0.16492456
-0.010583071 -0.08369461 -0.16584688 -0.06555258 -0.17343268 -0.05926747 0.02053576 0.041073892
-0.06588357 0.012511758 0.08956963 0.08249404 0.11257933 0.14615127 0.02140237 0.070079796
-0.035168353 -0.0067603523 0.055959586 -0.1272628 -0.17832093 0.18597856 0.032227047 -0.1495763
00000000: ba96 4a3e 89a6 93bc 7345 d3bc 3ce7 3d3c
00000010: 815d 2dbd 376d 973d ab9e 163c c607 9dbb
00000020: d26b 7cbd b3d9 8b3d 51ef 08be d5cc 51be
00000030: 75c0 c8bc a706 d13d 2cf1 2a3d 15a0 1a3e
00000040: 08a8 193d 5508 243d c6cb e7bd 09ff dcbd
00000050: 4cb2 ec3c 6f8a 93bc 2d6c 573e 24a3 c9bc
00000060: f429 6d3c 4233 52bd c1bc f7bd e08f 093e
00000070: 8f2e 0bbe aa47 03bd 13f8 89bd 9295 393e
00000080: f69a 15be 2b4e 08bd e05c f93b 5b45 8cbc
00000090: e1b3 413c 1bf4 b73d 3042 b3bc 314f f1bd
000000a0: 40d2 1f3e 79fa 3ebe 3cb0 06be bc7d c3bd
000000b0: bde8 ec3d 20fe 253e 432a 113e ddc8 d2bd
000000c0: 5242 c0bd 7584 73bd e08d 9b3d 6c45 153e
000000d0: c2f8 1f3d 54c3 92bd 9d19 5fbd 9b7a 59bc
000000e0: 697e 30bd d9e1 70bd 6f3f 07bd 09e6 223e
000000f0: 2e55 1dbc d380 733d ee16 c0bd 0ceb 6dbb
00000100: 00a6 ae3c e1b5 05bc 5c0d c83d 8f11 d93c
00000110: ad30 06be f6cf dabd 5baf 7d3d b4c9 fb3d
00000120: a24a ac3d e1be 95bd 5e7e 273d 7d0b 2b3b
00000130: a59f 30bc d0de e6bd 3c93 a53d cbdc d4bd
00000140: 4ab7 053e 8fa8 e0bd a566 dbbb eaf7 563d
00000150: 2230 a3bc 5d9e 95bd a60a 0f3e 7b86 253d
00000160: 21bf 0b3d b613 5e3e 1341 1bbc 748f acbd
00000170: f737 813d 1d7b 813d 3d90 923c a88b 843d
00000180: c662 a53d 1717 53bd fc3f 84bd 299b 85bd
00000190: f4dd 8dbd 596b 1e3d e10c 9dbc 3387 2d3d
000001a0: a2c3 81bd 0bd8 34bd fdb0 18bd 0e6c 0dbd
000001b0: 3981 9cbd 3198 0abd be10 393e 062b ee3c
000001c0: dc80 c63d 2134 eebd e734 17be 248b cebc
000001d0: 1076 7a3d 7b8f 30be afd1 63be 1151 b9bd
000001e0: bbc8 023e 3a0f e33c 8220 fdbd 4ace 59bc
000001f0: 2382 60bd ac0d efbd 2458 453d f565 8ebb
00000200: f36a 91bd 9ad2 15be e0b3 adbd 092f 6e3d
00000210: f51e 10bd 7851 9e3d 0e84 99bc 5673 303d
00000220: c0e7 9dbd 4c5d 1ebe 71b1 213e c97a 9a3d
00000230: 1866 a83d f206 28be c521 e53d 1958 a9bc
00000240: ccc8 4a3d fd99 2e39 961f 143d 3581 303e
00000250: e7a2 3abd 6a56 1a3e c81e 82bc 2265 db3d
00000260: a079 7dbd 23b8 ff3d c4d5 023d 4c6b 82bd
00000270: 18a6 c23d ae14 103d 929e c5bd b2f2 963d
00000280: 3faa 193e 9917 45bd f6fb 0a3e ba6e 02bd
00000290: 21fe d5bc 1273 ba3d faff 09be ab3f ffbd
000002a0: f90c 923d b8f5 c63d 58e9 d1bc d350 913d
000002b0: 808b b83c 72e1 1c3d b648 883d a480 cc3b
000002c0: c5a5 80bd 5391 b6bb 627e d4bc 7882 1b3e
000002d0: 8fe8 1bbe d5d7 e4bd fc67 3fbd a905 3abd
000002e0: dafb 273e 7431 2cbd cb96 81bd 86da eebd
000002f0: 3a8f 4abd 066d 183c 78e0 20bd 4e5c 83bd
00000300: 4e3c 01bd eff2 9e3c 2de9 183e 4b85 b43c
00000310: 8cf9 5bbd ea6e 503d 6301 9a3c 760a cfbd
00000320: eed6 123c 849c 99bc 992a 593e 92e2 293e
00000330: 296d f9bd 2540 fe3d 4e5d d33d 232e 8cbd
00000340: 44a1 143e 5313 573c 9d16 263e a70b 49be
00000350: d199 3e3e 219c bcbd 1e1f 82bd 957b 153e
00000360: 5cc7 87bd bc04 09bd 4929 063e 9c68 c4bd
00000370: 3f8a bebb 47fc 68bd 955b 3b3e 9e66 ccbd
00000380: d2b0 3b3e f222 febd fdb8 39bd 8a6f d8bd
00000390: 65c8 163e 432f c63d 1e25 d1bd fce1 28be
000003a0: 9e64 2dbc 1468 abbd c4d3 29be 6e40 86bd
000003b0: 5698 31be 72c2 72bd 9c3a a83c 193d 283d
000003c0: f7ed 86bd 1efe 4c3c 4870 b73d a3f2 a83d
000003d0: fe8f e63d aea8 153e 0654 af3c ff85 8f3d
000003e0: b10c 10bd f285 ddbb e135 653d 2e51 02be
000003f0: c399 36be 2a71 3e3e 8200 043d 882a 19be

pool.pma.mab.fc_v.bias f4 [32]
0.008429058 -0.1192505 -0.0114767505 -0.015049035 -0.10062535 -0.111713044 -0.03731751 0.07157916
-0.058898307 -0.1248118 -0.064144306 0.070659086 0.026321031 -0.01965882 0.062256582 -0.04208231
0.02741688 0.10021814 2.5295012e-05 -0.019848289 0.01071846 -0.022093665 0.059070274 -0.12173912
0.10041926 0.043399286 -0.049563874 -0.04536345 -0.08288004 0.09060968 -0.0055620577 0.037936796
00000000: 081a 0a3c 9b39 f4bd fb08 3cbc 3a90 76bc
00000010: aa14 cebd cfc9 e4bd 3fda 18bd 1898 923d
00000020: 5a3f 71bd 549d ffbd 175e 83bd b6b5 903d
00000030: 349f d73c 890b a1bc c200 7f3d 805e 2cbd
00000040: 5d99 e03c 2b3f cd3d a030 d437 e198 a2bc
00000050: 7b9c 2f3c c6fd b4bc acf3 713d 5c52 f9bd
00000060: 9da8 cd3d 73c3 313d 7d03 4bbd 06cf 39bd
00000070: 03bd a9bd 9191 b93d ec41 b6bb 9d63 1b3d

pool.pma.mab.fc_o.weight f4 [32, 32]
-0.04205239 0.09056865 0.13495727 0.047214348 -0.15798908 0.028716676 0.04567651 0.17130665
0.105592914 -0.10370314 0.16770926 0.035227515 -0.2000722 -0.07366967 -0.027168248 -0.1349858
-0.045518048 -0.07848341 0.0713231 -0.116278976 0.012269078 -0.123997346 -0.14728577 0.16282378
-0.07202667 0.12854037 0.0022946005 -0.20860954 0.021271884 -0.15375078 -0.10257198 0.11336664
0.040986605 -0.051518742 -0.11352191 0.19189997 -0.043347243 0.19269748 0.18006755 -0.00949521
0.045314323 0.16688429 0.09673276 0.11641811 -0.22845703 0.057357345 -0.14164644 -0.13286401
0.10705127 -0.028306888 0.11789285 -0.051769696 -0.12836732 -0.03815301 -0.15429807 -0.08272747
-0.19391519 0.097508565 -0.30406213 0.060168725 -0.14694749 -0.18113406 0.14155056 -0.19792841
-0.1433655 0.1651368 0.050980084 0.03208921 -0.032295894 -0.16851775 0.035453834 -0.032723144
0.006203329 -0.027188295 0.045826264 0.04952096 -0.14539753 -0.15946196 0.006710184 0.06583557
0.057337992 0.12010024 -0.046540298 0.16934896 -0.006212634 0.087108076 -0.048693545 -0.08771745
0.045978606 -0.038415413 0.098260134 0.12205971 -0.12316425 -0.04790604 -0.13383387 -0.12103668
-0.050967626 -0.12230615 0.064379714 -0.075937554 -0.09260504 0.059070386 -0.12602946 -0.17812169
-0.03949729 0.1475512 -0.11707664 0.053277746 0.07934022 -0.14584623 -0.20075315 0.05195253
0.067735426 0.0531336 -0.034865573 0.15755996 0.109200776 -0.09494724 0.04725127 0.13966545
0.119106665 0.041814625 0.0075304788 -0.07198583 -0.16081886 0.19254974 -0.028293291 -0.0058773924
0.004701495 -0.1054442 0.11342071 0.08805274 -0.06214542 0.018539654 -0.13916911 0.025903089
0.052852884 -0.16450177 0.10057885 -0.1894115 0.08572494 0.13046964 0.14604688 -0.14443572
-0.07139256 -0.080879055 0.051073737 0.24463266 0.111178935 0.1582959 0.07900614 0.012799344
0.08833893 -0.021556929 -0.09521645 -0.105624236 -0.026434269 -0.0049536815 -0.100951105 -0.047186084
0.09047453 0.14608806 -0.07698539 -0.009997837 0.081229836 -0.17550778 -0.08629613 -0.105475344
0.027483528 -0.06708082 -0.042200893 -0.18717828 0.097981 0.0777707 -0.044524595 0.0032702978
-0.15877758 0.0036553298 -0.18022026 0.026250342 0.15739053 -0.09147049 -0.14341243 -0.025127226
-0.10685481 -0.22969584 0.008004678 -0.14289305 0.058509793 0.091959655 -0.0066082706 -0.01515647
-0.16740379 0.06580398 0.15854609 0.20662709 0.0917596 0.15357912 -0.13947982 0.056361657
0.10311328 0.17955299 0.16335614 0.04816188 -0.028367572 0.08704554 0.0029361707 -0.044113617
-0.1147999 -0.2595375 0.010389575 -0.026204448 -0.23269685 -0.19440645 -0.24808027 -0.12438902
-0.24696937 -0.0056163664 0.16781463 -0.085035175 0.005898836 -0.042268015 -0.13914491 -0.13975929
-0.15857893 0.008790819 0.04690005 -0.05996645 0.023180367 -0.036916208 0.1926633 0.13574374
0.079201944 0.092405014 -0.10448021 0.072323516 -0.03269525 0.052808125 0.023076253 0.016549084
0.080999464 -0.13928227 0.06907832 -0.034749575 0.00930824 -0.07909193 0.031506352 0.094101496
-0.013610686 -0.007909896 0.041537285 0.060579676 0.130849 0.041642696 -0.07588831 0.15041755
00000000: 203f 2cbd 0e7c b93d 3d32 0a3e d563 413d
00000010: e4c7 21be 3c3f eb3c 4b17 3b3d 036b 2f3e
00000020: 1941 d83d 5062 d4bd fabb 2b3e ba4a 103d
00000030: badf 4cbe 20e0 96bd f28f debc b839 0abe
00000040: 2271 3abd e9bb a0bd d811 923d ac23 eebd
00000050: 3e04 493c 52f2 fdbd 15d2 16be 47bb 263e
00000060: b882 93bd 16a0 033e 0261 163b bd9d 55be
00000070: 6042 ae3c d870 1dbe 4211 d2bd c52c e83d
00000080: 92e1 273d 5105 53bd 2d7e e8bd 6d81 443e
00000090: e18c 31bd 7d52 453e a163 383e cc91 1bbc
000000a0: 839b 393d b7e3 2a3e d31b c63d 9e6c ee3d
000000b0: a4f0 69be 89ef 6a3d c40b 11be 810d 08be
000000c0: b23d db3d d9e3 e7bc ce71 f13d 760c 54bd
000000d0: b972 03be 5546 1cbd 5000 1ebe 056d a9bd
000000e0: b491 46be 92b2 c73d 08ae 9bbe 7b73 763d
000000f0: 6779 16be 357b 39be a1f2 103e bfad 4abe
00000100: 68ce 12be 9f19 293e 7ed0 503d fa6f 033d
00000110: b348 04bd eb8f 2cbe 0a38 113d b408 06bd
00000120: 4c45 cb3b fdb9 debc 52b4 3b3d 7dd6 4a3d
00000130: 17e3 14be ff49 23be 1ae1 db3b cdd4 863d
00000140: 3edb 6a3d 1df7 f53d 0aa1 3ebd d069 2d3e
00000150: 5a93 cbbb b865 b23d e272 47bd 35a5 b3bd
00000160: 1054 3c3d 7b59 1dbd 9c3c c93d 71fa f93d
00000170: 8a3d fcbd 2039 44bd bf0b 09be 14e2 f7bd
00000180: 6ec3 50bd a67b fabd 83d9 833d 2685 9bbd
00000190: b6a7 bdbd caf3 713d de0d 01be 8865 36be
000001a0: e9c7 21bd a917 173e e1c5 efbd c439 5a3d
000001b0: 207d a23d b758 15be 3c92 4dbe 2dcc 543d
000001c0: dfb8 8a3d 9ea2 593d 34cf 0ebd 6657 213e
000001d0: a8a4 df3d b373 c2bd 8c8a 413d 7604 0f3e
000001e0: 32ee f33d d045 2b3d 3cc2 f63b 4f6d 93bd
000001f0: b3ad 24be c22b 453e 55c7 e7bc 2497 c0bb
00000200: 000f 9a3b 21f3 d7bd 1e49 e83d ff54 b43d
00000210: 328c 7ebd 79e0 973c 5982 0ebe b732 d43c
00000220: 447c 583d 2773 28be 49fc cd3d 17f5 41be
00000230: 8f90 af3d d599 053e 508d 153e f5e6 13be
00000240: 4336 92bd eba3 a5bd b232 513d fc80 7a3e
00000250: c8b1 e33d 5218 223e f9cd a13d 57b4 513c
00000260: 0aeb b43d 2898 b0bc d800 c3bd 8551 d8bd
00000270: ae8c d8bc 7e52 a2bb 74bf cebd 3246 41bd
00000280: b64a b93d 1c98 153e 84aa 9dbd f8cd 23bc
00000290: d45b a63d 50b8 33be 07bc b0bd 7503 d8bd
000002a0: 2325 e13c ab61 89bd d8da 2cbd aaab 3fbe
000002b0: 43aa c83d 3f46 9f3d 6c5f 36bd 7e52 563b
000002c0: 9796 22be 428e 6f3b a98b 38be f50a d73c
000002d0: fc2a 213e e154 bbbd b5da 12be 9dd7 cdbc
000002e0: b2d6 dabd 6335 6bbe 0e26 033c 8e52 12be
000002f0: f7a7 6f3d 5855 bc3d 318a d8bb d852 78bc
00000300: e66b 2bbe 3dc4 863d e859 223e 0d96 533e
00000310: 75ec bb3d d843 1d3e ccd3 0ebe 7bdb 663d
00000320: 0e2d d33d bddc 373e d546 273e 6445 453d
00000330: 1c63 e8bc ef44 b23d c56c 403b 7bb0 34bd
00000340: 361c ebbd 19e2 84be 0939 2a3c b6aa d6bc
00000350: 1548 6ebe 7c12 47be c108 7ebe acbf febd
00000360: 8ae5 7cbe 7f09 b8bb 99d7 2b3e ec26 aebd
00000370: 064b c13b 3a21 2dbd 017c 0ebe 0f1d 0fbe
00000380: 8462 22be 5e07 103c 441a 403d 619f 75bd
00000390: c1e4 bd3c 7335 17bd 8749 453e 6800 0b3e
000003a0: a134 a23d d73e bd3d b8f9 d5bd 5a1e 943d
000003b0: 74eb 05bd 554d 583d 690a bd3c f291 873c
000003c0: 0ce3 a53d 03a0 0ebe ef78 8d3d 9255 0ebd
000003d0: 9781 183c f3fa a1bd ce0c 013d 49b8 c03d
000003e0: 5bff 5ebc 8298 01bc 0023 2a3d 6522 783d
000003f0: 48fd 053e 8891 2a3d 556b 9bbd 0f07 1a3e

pool.pma.mab.fc_o.bias f4 [32]
-0.10641959 0.10031166 0.07174209 -0.035490233 -0.26127 -0.1808294 -0.032479145 0.07049347
0.03396256 -0.2689322 -0.015007508 0.010988915 0.029812386 0.17140566 -0.16932368 -0.009428799
-0.041812062 -0.1724069 -0.021295937 -0.17072256 -0.024636377 -0.049486835 -0.0833827 -0.055656664
-0.14967911 -0.11812325 -0.045896534 0.04157065 -0.21852514 -0.21293634 -0.1175456 0.16118835
00000000: 84f2 d9bd 3370 cd3d 84ed 923d 355e 11bd
00000010: 2ec5 85be 582b 39be da08 05bd e15e 903d
00000020: 531c 0b3d 7bb1 89be 0de2 75bc da0a 343c
00000030: 1b39 f43c f784 2f3e 3063 2dbe 407b 1abc
00000040: 2043 2bbd 6f8b 30be d174 aebc e5d1 2ebe
00000050: 3ad2 c9bc b5b2 4abd 8dc4 aabd 3ef8 63bd
00000060: 7b45 19be 9aea f1bd 01fe 3bbd fc45 2a3d
00000070: 0ec5 5fbe fc0b 5abe bfbb f0bd 8f0e 253e

pool.lin.weight f4 [32, 32]
0.17263292 0.15462188 -0.024726052 -0.16334194 0.12698713 -0.0012854876 0.007394244 0.13877356
-0.097783275 -0.122182906 0.010783086 -0.08653719 0.1579738 -0.06022832 0.08932164 -0.17614971
0.08507338 0.043472607 0.030944321 -0.048337374 -0.015797522 -0.06298509 -0.15302941 -0.03552475
-0.07110006 0.16057332 0.17246407 0.10731102 0.05092248 0.03114126 0.05125039 -0.09980652
-0.039973576 -0.07127312 -0.03573063 -0.0651084 -0.08280408 -0.13708715 0.007801977 -0.18466415
0.103173405 -0.08608265 -0.01517552 -0.15985292 -0.023618022 -0.13516264 0.0718672 0.05129077
0.01526876 0.059948612 0.15195623 0.15069994 -0.18285947 -0.04452332 -0.083651274 0.08284229
-0.16399 -0.14190513 -0.00847965 0.10712612 -0.021010103 -0.19012828 -0.0599088 -0.10559142
-0.07120825 0.101142816 -0.035820384 0.1754077 -0.06186644 0.041697383 -0.12936212 0.07647507
0.08905598 -0.059083614 -0.039310426 0.06378878 0.13823982 -0.20209502 0.12516648 -0.07312082
-0.11191354 -0.016263649 -0.06544532 -0.087790504 -0.05496766 -0.07925892 -0.008029854 -0.17069574
0.09059514 -0.0703336 0.0891723 -0.04705723 -0.08453412 -0.060118187 0.11260408 -0.08396313
-0.24766903 0.14769277 -0.123129904 -0.05844723 0.051756054 0.1318388 -0.1416439 0.13432458
0.115047924 0.048969954 0.015702367 -0.2111223 0.03276451 -0.18742241 -0.1396516 0.10372042
-0.08919993 -0.2397534 -0.12818524 0.08009496 -0.14875787 -0.18361072 0.07975941 0.13741659
0.08208609 -0.1586995 -0.083079964 0.04480042 0.10688065 0.107846275 0.032978266 -0.07601707
-0.16144173 0.1527847 0.05712575 -0.077492364 -0.19116615 -0.087801866 -0.010017372 -0.056253064
-0.09419569 0.12560223 -0.08334119 -0.04178991 0.086551085 -0.03493018 -0.18733546 -0.07716281
-0.16622005 0.06858795 0.03878392 -0.08479333 0.0042144824 -0.11848581 -0.028593482 -0.056465738
0.1362421 0.10660377 -0.42171255 -0.0762213 -0.13391876 -0.1363645 0.022155892 0.11472604
-0.11262442 0.118152596 -0.09015089 0.019452434 0.006869328 -0.1592911 -0.20131944 -0.085213214
0.008272883 -0.21092628 -0.027747773 -0.059234697 -0.023400884 0.06494235 0.07711391 -0.013781927
0.079219885 -0.05244569 -0.1929026 0.18375176 0.03813507 -0.002248186 0.21227688 -0.096496195
0.18381622 0.044618398 -0.11445327 0.047730956 -0.05790789 0.19322467 -0.05769663 -0.108638346
0.017283974 -0.18286827 -0.1144612 0.14017054 0.06687107 0.02838527 0.14204292 -0.14683652
-0.0056798817 -0.16411473 0.04622547 -0.113941774 0.1717044 0.014491054 -0.09131846 0.05497648
0.032875787 -0.06775837 0.07632535 -0.17597295 -0.0952463 0.039970852 0.10548529 -0.08671303
0.1594446 -0.16770206 0.09875251 0.024522461 -0.11374178 0.1667799 -0.10974489 0.15784371
-0.15348427 0.105473295 0.04860835 -0.22100112 -0.015128652 -0.091887854 -0.104081444 -0.072854936
-0.11543906 0.11441799 -0.05623786 -0.0024403331 -0.15122359 0.16324563 -0.1789293 -0.075202666
0.060975846 -0.24863282 -0.1400317 0.16929252 -0.037685808 0.12822393 0.10912212 -0.07803732
0.037814863 -0.053589597 -0.22618866 0.16649203 0.029075036 -0.11028539 -0.06252594 -0.09726284
00000000: afc6 303e 3355 1e3e 4a8e cabc 1c43 27be
00000010: ea08 023e ce7d a8ba 6a4b f23b a81a 0e3e
00000020: 9942 c8bd 083b fabd 8aab 303c 693a b1bd
00000030: e2c3 213e f9b1 76bd 44ee b63d 9760 34be
00000040: f43a ae3d 5510 323d f27e fd3c 69fd 45bd
00000050: ce69 81bc 54fe 80bd beb3 1cbe 6682 11bd
00000060: e99c 91bd 556d 243e 6c9a 303e e1c5 db3d
00000070: 1794 503d f51b ff3c eeeb 513d 5c67 ccbd
00000080: 55bb 23bd a4f7 91bd 485a 12bd 8e57 85bd
00000090: 2f95 a9bd 9360 0cbe baa7 ff3b 9918 3dbe
000000a0: 944c d33d 1a4c b0bd bfa2 78bc 7cb0 23be
000000b0: 957a c1bc 1368 0abe 1c2f 933d 4516 523d
000000c0: d229 7a3c ad8c 753d 6a9a 1b3e 1651 1a3e
000000d0: 833f 3bbe 165e 36bd 5c51 abbd 38a9 a93d
000000e0: ffec 27be 944f 11be 3bee 0abc f064 db3d
000000f0: 611d acbc fdb0 42be ee62 75bd 5040 d8bd
00000100: a2d5 91bd f723 cf3d 65b8 12bd 139e 333e
00000110: aa67 7dbd e0ca 2a3d 8177 04be f69e 9c3d
00000120: fb62 b63d a901 72bd f803 21bd b1a3 823d
00000130: bd8e 0d3e fff1 4ebe a42b 003e 5ec0 95bd
00000140: ed32 e5bd 583b 85bc 3208 86bd 82cb b3bd
00000150: c525 61bd 8052 a2bd a68f 03bc ddca 2ebe
00000160: f289 b93d 100b 90bd f89f b63d 15bf 40bd
00000170: 3a20 adbd 7d3e 76bd f89c e63d ddf4 abbd
00000180: f39c 7dbe c63c 173e 882b fcbd 5d66 6fbd
00000190: 28fe 533d c000 073e 190b 11be 628c 093e
000001a0: 3f9e eb3d b894 483d 40a2 803c 7230 58be
000001b0: 1434 063d a9eb 3fbe d400 0fbe 5f6b d43d
000001c0: 74ae b6bd ea81 75be fe42 03be d408 a43d
000001d0: fc53 18be 7304 3cbe e758 a33d efb6 0c3e
000001e0: c11c a83d 1f82 22be d425 aabd a580 373d
000001f0: 3ee4 da3d 82de dc3d 3814 073d d6ae 9bbd
00000200: fb50 25be 9873 1c3e b1fc 693d 51b4 9ebd
00000210: 0fc1 43be 77d1 b3bd e71f 24bc 9d69 66bd
00000220: abe9 c0bd df9d 003e c9ae aabd e62b 2bbd
00000230: b241 b13d f312 0fbd ded4 3fbe 8907 9ebd
00000240: 9735 2abe d777 8c3d e3db 1e3d 20a8 adbd
00000250: a419 8a3b b0a8 f2bd e13c eabc 9e48 67bd
00000260: 0d83 0b3e 1453 da3d b5ea d7be ea19 9cbd
00000270: 0022 09be 23a3 0bbe 4680 b53c 7cf5 ea3d
00000280: a2a7 e6bd fdf9 f13d 08a1 b8bd b65a 9f3c
00000290: 1a18 e13b 351d 23be af26 4ebe 4484 aebd
000002a0: fc8a 073c 0ffd 57be 4c4f e3bc 15a0 72bd
000002b0: 36b3 bfbc 7f00 853d e6ed 9d3d 97cd 61bc
000002c0: 093e a23d 4bd1 56bd 4288 45be 6c29 3c3e
000002d0: 8533 1c3d 4d56 13bb 1c5f 593e cc9f c5bd
000002e0: 523a 3c3e c8c1 363d 7a66 eabd 8981 433d
000002f0: d330 6dbd b0dc 453e 4d53 6cbd c87d debd
00000300: 1f97 8d3c d241 3bbe a26a eabd de88 0f3e
00000310: b3f3 883d 3a88 e83c b373 113e 505c 16be
00000320: 4d1e babb b10d 28be eb56 3d3d 4e5a e9bd
00000330: 47d3 2f3e e36b 6d3c 2c05 bbbd 042f 613d
00000340: c3a8 063d e6c4 8abd 7750 9c3d 4132 34be
00000350: 7e10 c3bd 7ab8 233d ac08 d83d 9a96 b1bd
00000360: 7245 233e 17ba 2bbe c23e ca3d 54e3 c83c
00000370: 73f1 e8bd 5ac8 2a3e eec1 e0bd c8a1 213e
00000380: fb2a 1dbe 6202 d83d 8d19 473d 1e4e 62be
00000390: 2ade 77bc b32f bcbd a728 d5bd f834 95bd
000003a0: 506b ecbd fb53 ea3d ac59 66bd ffed 1fbb
000003b0: 5bda 1abe dd29 273e 3e39 37be db03 9abd
000003c0: cfc1 793d 9a99 7ebe 7864 0fbe 055b 2d3e
000003d0: 6f5c 1abd 224d 033e 6b7b df3d 08d2 9fbd
000003e0: c2e3 1a3d c480 5bbd 009e 67be e37c 2a3e
000003f0: c52e ee3c 4edd e1bd 9a0d 80bd bd31 c7bd
