GST-recon/checkpoints/best_grid_GST.pth (torch, 70380 bytes, 21 tensors)

conv1.weight f4 [2, 32]
000000 07 45 6d 3e 38 c1 83 3e 37 3a 76 bc ad 3d 91 3e
       0.23170863 0.25733352 -0.015028528 0.28367367
000010 21 16 a5 bd fb 96 a6 3c aa a9 2d be cf c9 7f 3e
       -0.080608614 0.020335665 -0.16959253 0.24979328
000020 a3 f8 c0 3e f8 a8 60 be 00 ab b1 3e 62 db b5 3c
       0.37689695 -0.21939456 0.34700775 0.022199336
000030 d3 95 63 3e 1e ba ce 3d 9f b0 04 3e fb ad 54 bd
       0.22225122 0.10094093 0.12958 -0.051923733
000040 c7 77 5f 3e 60 d5 d9 3d 43 99 a5 bd c4 9a df 3d
       0.21823035 0.10636401 -0.08085873 0.10918191
000050 1d 16 e5 bd 90 bf 04 be db 1e 47 be a4 9a 77 3e
       -0.111858584 -0.129637 -0.19445364 0.24180084
000060 2e 38 91 be 02 ac 1e be 58 0d 15 be 98 b5 54 be
       -0.28363174 -0.15495303 -0.14555871 -0.20772398
000070 cb 35 b8 bc 11 46 af be 73 65 c0 3e 06 bf 8e be
       -0.022486588 -0.34233144 0.375774 -0.27880114
000080 2f 23 73 3e 29 0a 2d bd 76 9c ed bd 34 2a 0b 3e
       0.2374389 -0.042246018 -0.11602108 0.13590318
000090 d8 52 29 3d a9 7e 90 3e b2 ef b8 3d 96 ce 39 be
       0.04133877 0.28221634 0.09030093 -0.18145213
0000a0 d8 9b a1 3d 5d 92 95 bd b8 13 d7 3d 80 56 a0 3e
       0.07891053 -0.07303307 0.10501808 0.31315994
0000b0 a3 eb 3b 3e 9c 3f 1a be 1f 09 55 3e 87 b9 aa 3d
       0.18351607 -0.15063328 0.2080426 0.08336168
0000c0 e4 1c 11 3e 74 d1 75 be 6b 1c 9d be da 30 30 be
       0.14171177 -0.24005681 -0.30685744 -0.17206135
0000d0 58 08 8c be 3b 13 ae 3e eb 1b 18 3e 74 3e fe 3d
       -0.27350116 0.33999047 0.148544 0.12414256
0000e0 6e b7 39 3e 18 20 38 3d ae 7a a9 3e ff 1f 90 be
       0.18136379 0.044952482 0.3310141 -0.2814941
0000f0 81 63 1d 3d fd 21 6c be f4 ef cd 3d 63 bd 89 bd
       0.038424972 -0.2305984 0.10055533 -0.06725576

conv1.bias f4 [32]
000000 96 c7 ce bd 9b 7e 0d be 65 bd 7b 3d cf 60 08 be
       -0.10096662 -0.13817827 0.061459918 -0.1331818
000010 af ba 53 3c 84 80 4b bd 7e dc 1d 3d 16 2e 4b bc
       0.012922927 -0.04968311 0.038540356 -0.012401124
000020 2c 9d 14 3c 4e b9 bb 3d 5e 4a 3d bd 4d d2 7f bd
       0.009070676 0.091662034 -0.0462135 -0.062456418
000030 85 6c db bd 53 12 44 3c 3f 46 8c bd 52 a4 a4 3b
       -0.10714058 0.011967259 -0.06849336 0.0050244713
000040 a2 3a f5 bd 43 d4 31 3d 9e 0d 1c 3e 55 7c ab 3b
       -0.11974074 0.04341532 0.1523957 0.0052333274
000050 50 0e bc 3d 9a 81 19 bd af 46 b7 3c 77 96 0e bc
       0.091824174 -0.037477113 0.022372572 -0.008702866
000060 20 89 4d 3d 99 90 17 3d 88 fb 2d bc b3 1c 13 3d
       0.0501796 0.037003133 -0.010619052 0.03591604
000070 a1 37 eb bc 23 62 5b 3d c6 3c 0f bc ca 35 b8 3d
       -0.02871305 0.053560387 -0.008742517 0.089946344

conv2.weight f4 [32, 32]
000000 79 dd c2 3d 66 37 60 bd 81 44 8c 3e 41 4e 1d be
       0.09514899 -0.054740332 0.27396014 -0.15361883
000010 2d 74 40 be 5a a2 2a be bd 34 8c 3e 72 41 93 3d
       -0.18794318 -0.16663495 0.27383986 0.07190217
000020 51 42 78 3e 3c 59 7b be c9 48 9f be cb 2a 6d be
       0.24244048 -0.24545759 -0.31110218 -0.23160855
000030 ff 8f 4f be 82 98 e3 3d cd 7a b6 3d fd d0 94 3e
       -0.20269774 0.11113073 0.08910141 0.29065695
000040 9e 6a fe bd cd c4 2f be ff e4 2d 3e 06 fa c6 bd
       -0.12422679 -0.17164917 0.16981886 -0.09715657
000050 ef 94 0b 3e 66 87 9c bd d0 02 14 3e d7 92 62 be
       0.13631032 -0.07643013 0.14454198 -0.22126327
000060 59 ac 08 be b7 f0 a7 3d 3f f7 c2 3d be 3c 88 bd
       -0.13346995 0.082002096 0.09519815 -0.06652211
000070 8e 96 38 3e 38 40 51 3e b2 0f 46 be f7 b0 07 be
       0.18026182 0.20434654 -0.19341925 -0.132511
000080 b3 07 a0 3e a6 d1 6c bd 54 f4 bf bd 3a 3c a3 be
       0.31255874 -0.057817124 -0.09372774 -0.31881887
000090 00 b6 2c be 60 09 76 3d e3 25 57 bd aa ef 86 be
       -0.16866302 0.060067534 -0.052526366 -0.26354724
0000a0 91 51 6f bd 15 71 5f be d3 71 8d be 2f f3 26 be
       -0.058427397 -0.21820481 -0.27625903 -0.16303705
0000b0 aa 83 8b be 1f b5 78 be da 09 97 3e 8b a6 b7 3d
       -0.2724889 -0.24287842 0.29499704 0.089673124
0000c0 fb d6 05 3e 05 bb 73 be 23 87 59 be 9e 46 a0 bd
       0.1307029 -0.23801811 -0.21242957 -0.07825969
0000d0 3b 66 a8 3b 18 4c 9a be 94 c8 0e be 80 fa 45 be
       0.00513914 -0.3013618 -0.13943702 -0.1933384
0000e0 7d 72 36 3c b8 d5 00 be 59 59 45 3c d6 00 4e be
       0.011135695 -0.12581527 0.012045228 -0.20117506
0000f0 1a 0f 4c be 1c 76 21 be da 4c 91 bd f8 61 7a be
       -0.19927636 -0.15767711 -0.070947364 -0.24451435
000100 e1 7c 71 3e 73 e7 8d bd 8d ca 82 3e b9 2a 9b 3d
       0.23582794 -0.06928911 0.2554516 0.07576508
000110 d2 5e 6f be f2 bd 4d 3e 5c 32 a4 bd 80 6e b8 bd
       -0.23376015 0.2009199 -0.08017418 -0.09005451
000120 59 8b 40 be 08 c7 93 be dc 8d b6 3d 77 f0 8f bd
       -0.18803157 -0.28862786 0.08913776 -0.07028287
000130 59 0c d3 3d 54 b2 54 be 8d a2 7a 3e 2f 87 62 be
       0.103050895 -0.20771152 0.2447607 -0.22121881
000140 2f 12 8e bd 13 19 49 3d 88 53 26 3e be 48 6f 3e
       -0.06937062 0.04909618 0.16242802 0.23367593
000150 aa ca 93 3e c2 a9 6a be 81 f7 81 3d a4 14 0e be
       0.28865558 -0.2291632 0.06346036 -0.13875061
000160 1d 90 87 bd 2d 65 5f be f1 5a 91 3e 88 63 57 be
       -0.06619284 -0.21815939 0.28389695 -0.21034062
000170 b0 6e 29 3e 3d f1 b8 3d 72 a9 8e 3d 64 e3 46 be
       0.1654613 0.090303876 0.06965913 -0.1942268
000180 7b c4 8f 3e 19 0d b6 3d 5f a5 71 3d fd 87 81 be
       0.2807959 0.08889217 0.0589956 -0.25299063
000190 c7 d3 06 3e a2 24 3c bd 70 da 10 be dd 53 6d 3e
       0.13166724 -0.045933373 -0.14145827 0.23176523
0001a0 ea 27 df 3b 15 11 27 be 07 72 2c be 11 8c 1d bc
       0.006810178 -0.1631511 -0.16840373 -0.009615914
0001b0 85 4d 2c 3e ee 15 d7 bd 67 2e 40 be 11 3f 81 bd
       0.16826446 -0.1050223 -0.18767701 -0.06310857
0001c0 8a b1 40 be c4 60 20 3e d4 74 7b 3e 2e d6 85 be
       -0.18817726 0.15661913 0.24556285 -0.2613997
0001d0 f5 85 af 3c 0b c7 14 3e 6c 70 bc 3c ef 38 c2 bd
       0.02142618 0.14529054 0.023002826 -0.094835155
0001e0 b1 7b 34 3e e0 66 15 3e 99 f8 1a 3e 0a 04 1f bd
       0.1762531 0.14590025 0.15133895 -0.03882221
0001f0 14 1c 9d bd 65 ad 0d 3d 8f a4 cb bc 56 22 92 bd
       -0.07671371 0.03458919 -0.024858741 -0.07135455
000200 7d c4 b5 3d e5 2b 41 3e e1 9d 42 bd 48 a8 80 3b
       0.08875368 0.188644 -0.047513846 0.0039263107
000210 6b b6 1c 3d 20 5d a0 3c 29 d4 02 3e 79 a4 ea 3d
       0.038259905 0.019575655 0.12776245 0.11457152
000220 08 4e 76 be fb 22 9e bc c3 90 7f 3e 68 a7 05 3e
       -0.24053204 -0.01930379 0.24957566 0.13052142
000230 5b 38 c2 ba 59 6d fb bd fa c2 1b be 8e ca 53 be
       -0.0014817821 -0.12276716 -0.15211096 -0.20682737
000240 1c 4d 0e be e3 65 e8 3d c6 d6 85 3e ce 70 29 3e
       -0.13896602 0.11347558 0.26140422 0.16546938
000250 2f 58 ab be 54 2c f1 bd 24 4e f0 bd 3a a3 c5 3e
       -0.33465716 -0.11776033 -0.11733654 0.38601094
000260 1d 54 46 3d dd 93 a6 bd 2b 21 18 3e 2a b0 df bd
       0.04842006 -0.081336714 0.14856403 -0.109222725
000270 11 0c 8b be 41 23 34 3e 41 dc 2d be ec b7 96 3d
       -0.27157643 0.17591573 -0.16978551 0.07359299
000280 de 11 a8 be 06 80 4d 3e 1b 36 7a 3e 6a 8a 23 3e
       -0.32826132 0.20068368 0.24434702 0.1597077
000290 02 43 57 be d5 d7 8f be 31 a3 67 be 47 75 5a 3e
       -0.21021655 -0.28094354 -0.22620846 0.213338
0002a0 c2 77 b8 3d 54 87 89 3e 2d ce 14 3e ac 9e 9d 3d
       0.09007217 0.2686106 0.14531775 0.0769628
0002b0 9e 6c b5 ba d0 80 78 be 85 2c 8b be 3d b7 75 be
       -0.0013841575 -0.24267888 -0.27182403 -0.23995681
0002c0 2a fc 29 3e 2a 81 e7 bd 81 bb 0a bd 61 3d 22 be
       0.16600099 -0.11303933 -0.033870224 -0.15843727
0002d0 59 7c c5 bd 68 89 4d be 0c 72 67 be 0d e7 0e 3e
       -0.09642858 -0.20071948 -0.22602099 0.13955326
0002e0 b5 15 80 bd 77 44 2c 3e 33 fd a6 bd 1e db 57 be
       -0.0625414 0.16822992 -0.08153763 -0.2107968
0002f0 8d b4 7e bd 8c 19 27 be 4e 57 a1 bd d7 25 81 be
       -0.062183905 -0.16318339 -0.0787798 -0.25224182
000300 72 dd 0c 3e 3d 39 89 be 4d c2 05 3e 62 ad 28 3e
       0.1375635 -0.26801482 0.13062401 0.1647239
000310 94 0a 4a 3e e3 18 49 be ec 50 77 3e c0 9e c8 bd
       0.19730598 -0.196384 0.24151963 -0.09795904
000320 f2 92 40 3e c1 77 92 3e 6f ac 62 bc 37 0c 60 bb
       0.18806055 0.2860699 -0.013835057 -0.0034186968
000330 ee e3 8f bd b9 02 55 be 84 21 1d 3e d2 61 b5 be
       -0.07025896 -0.2080182 0.15344816 -0.35426193
000340 2f b7 0f 3e ae ac 2b 3e 8f 03 94 3e ba b6 d2 bd
       0.14034723 0.16765091 0.28908965 -0.102887586
000350 38 83 38 be 94 c9 de 3d ca ec 5c 3e 85 7f 95 be
       -0.18018806 0.10878292 0.21574703 -0.29198852
000360 3b 5f 80 bd e7 b1 28 be ec 19 a8 bd 6b 0a 2d be
       -0.06268164 -0.16474114 -0.08208069 -0.16898505
000370 ee 5b 1c be ea 44 06 be 40 b1 aa be b8 c1 85 3e
       -0.15269443 -0.13112226 -0.33338356 0.26124358
000380 40 8b aa 3e 20 ae 33 3d a4 87 d3 bc c2 b4 62 be
       0.33309364 0.04386723 -0.025821514 -0.22139266
000390 f8 28 73 be 47 92 c7 be d6 b4 0c 3d d3 37 71 be
       -0.23746097 -0.38978788 0.034352146 -0.23556451
0003a0 04 e1 7b be 39 7c 64 bd c0 e3 13 be 28 c8 b6 bd
       -0.24597555 -0.05578253 -0.14442348 -0.089248955
0003b0 fb ca 25 bc 05 aa 8b bd 1e 5d f1 bd 8a b2 d2 bd
       -0.010119195 -0.06819538 -0.11785339 -0.1028796
0003c0 8e ac 32 be b6 fe 9e 3e 9f a3 2b be bb c3 c1 3d
       -0.17448637 0.31053704 -0.16761635 0.09461161
0003d0 da 6a 60 be b3 85 2f bd c7 a6 7b 3e b2 16 a4 3d
       -0.2191576 -0.042852115 0.2457534 0.08012141
0003e0 39 b1 84 be 6d d8 c2 3d e2 81 bf 3e 19 3b 35 3e
       -0.2591646 0.09513936 0.3740378 0.17698325
0003f0 d5 78 75 3e 31 cf a9 3e 7a db 85 bc 0b f1 29 bd
       0.23971875 0.33165887 -0.016340006 -0.041489642

conv2.bias f4 [32]
000000 5a 90 95 3c e7 0d a6 bc 18 12 23 3d e3 74 9b 3d
       0.018257309 -0.020270301 0.039812177 0.07590654
000010 e5 1d 88 bc 9a 47 2c 3d cd 5f 98 bc a9 1d 1e bd
       -0.016615817 0.042060472 -0.018600369 -0.038602505
000020 98 ee 02 bd d1 ae 82 3c fb 13 30 3c 79 b4 b2 3c
       -0.031965822 0.0159525 0.010746951 0.021814572
000030 80 e1 fc 3c 86 f8 ca 3c 80 cd 22 bd d3 16 4d 3d
       0.030869246 0.024776708 -0.03974676 0.050070595
000040 87 31 0a 3d 1c ec 02 3d c1 89 8e 3c 4e b7 2d 3d
       0.03373864 0.031963453 0.01739967 0.04241114
000050 41 0c bd bd a6 19 d5 3c a6 a8 a5 bd b0 1f 35 3c
       -0.09230853 0.026013207 -0.08088808 0.011054918
000060 c7 51 0b bb e2 27 11 bb cc 29 7a 3d c9 03 ba ba
       -0.002125846 -0.0022149016 0.061075017 -0.0014191802
000070 54 27 2b 3c 3e be f9 bb 52 da 10 3d 83 e3 7f 3d
       0.010446388 -0.0076215556 0.035364456 0.06247283

pool.pma.S f4 [1, 225, 32]
000000 1b ba dd bd e8 21 c0 bd 0f 6a 97 bd 47 67 f0 3c
       -0.108265124 -0.09381467 -0.07393276 0.029346121
000010 ac f9 d4 bd cf 27 ea 3d 77 ba bf bd 23 12 3e be
       -0.10399184 0.11433374 -0.09361737 -0.18561606
000020 36 27 03 be a9 f3 d5 bd 16 a8 02 3e bb da fc bd
       -0.12807927 -0.10446865 0.12759432 -0.12346407
000030 4a 97 a5 3d ae bf 02 3e 48 5e 71 3d e0 8c d7 bd
       0.08085497 0.12768432 0.058927804 -0.10524917
000040 33 06 f9 3d f2 c0 3c 3d c2 00 2e 3e ac 95 06 3e
       0.121593855 0.046082444 0.16992477 0.13143033
000050 05 3f 8c be 45 0f c7 3d f1 35 98 bd d1 c3 67 3d
       -0.2739183 0.09719709 -0.074321635 0.05658323
000060 3f a2 0b be ef ad 66 bd ab d7 08 be d1 a1 a4 3d
       -0.1363611 -0.05631822 -0.13363521 0.080386765
000070 d8 37 d5 3d 2f 16 a6 be ed 02 41 bd 31 f4 92 bd
       0.10411042 -0.324388 -0.04712193 -0.07175482
000080 5b 3c 39 3e c8 19 ee 3d 46 1e 70 3d d0 20 df bd
       0.1808943 0.11626011 0.05862262 -0.1089493
000090 77 a4 23 3e 1e a1 0f bd f5 1a 36 3e ec 75 76 3e
       0.15980707 -0.035065763 0.17783721 0.24068421
0000a0 71 99 41 3e d9 0c fb 3d 04 2d 76 be 00 ac af 3d
       0.1890619 0.1225831 -0.2404061 0.08577728
0000b0 15 30 1a be 5f 72 89 be 24 cb 81 3d 3e de 06 3e
       -0.15057404 -0.2684507 0.06337574 0.13170716
0000c0 54 2c 09 bd ac ef 9d bd a0 fe f5 bd 6f 73 16 be
       -0.03348954 -0.077117294 -0.120114565 -0.14692472
0000d0 dc f3 93 3e 20 8d 25 be 86 67 18 3e a7 81 7b be
       0.28896987 -0.16167116 0.14883241 -0.24561177
0000e0 0c b6 83 3d 58 28 55 3d b9 e7 44 3e 3d 91 5d be
       0.06431207 0.052040428 0.1922902 -0.21637435
0000f0 8e 08 ea bd e1 7d 8c 3e 3d bb e8 3c 0d ae 28 3e
       -0.11427413 0.27439788 0.028409595 0.16472645
000100 2b 46 46 bd 04 f2 12 bd 68 21 98 bd 28 1c 8c bc
       -0.04840676 -0.035875335 -0.07428247 -0.01710327
000110 d9 34 b9 bc 9a 97 ec 3d 4d 06 ec bd 45 77 4e be
       -0.022608208 0.11552353 -0.11524639 -0.20162685
000120 18 1c cf bd 0e a6 e7 bd e2 f5 e7 3d 45 b6 07 be
       -0.1011278 -0.11310969 0.11326195 -0.13253124
000130 9f 6a 98 3d ff e1 d4 3d 8d a8 c7 3d 4d 88 0b be
       0.07442211 0.10394668 0.097489454 -0.13626213
000140 63 18 09 3e f9 40 24 bc 40 c2 23 3e 5c 4f cb 3d
       0.13388209 -0.010025256 0.15992069 0.09927246
000150 47 21 9e be 0b 51 4a 3d 90 58 02 bb b3 31 96 3d
       -0.30884764 0.049393695 -0.0019889213 0.07333698
000160 76 42 08 be b5 29 87 bd 53 c8 a7 bd d7 17 15 3d
       -0.13306603 -0.06599752 -0.08192506 0.03639969
000170 5f d0 c5 3d 72 92 a9 be ae 93 9a bd 93 60 b8 bd
       0.09658884 -0.3311954 -0.07547699 -0.09002795
000180 46 d1 b4 3d 95 79 33 3d 61 05 70 3c 9d cd a2 3c
       0.08828978 0.04381712 0.01464972 0.019873435
000190 df 7a 5a 3d b2 7c 67 bd eb a5 a0 3d e1 d2 d3 3e
       0.053339835 -0.056515403 0.07844146 0.41371825
0001a0 58 af 2d 3e 9e ae aa 3d 8b aa 1e be 91 0b 27 3e
       0.1696142 0.08334087 -0.15494744 0.16313006
0001b0 67 61 00 be 1c c3 2a be ee 5d e0 bd 8d 6c 24 3e
       -0.12537156 -0.16675991 -0.10955416 0.16057034
0001c0 73 16 27 be 12 b3 0d bc a7 92 1b be ee 88 6e bd
       -0.16317157 -0.008648651 -0.15192662 -0.058236055
0001d0 2a 61 d7 3e a0 80 a3 bd 10 de 13 3d 9d c2 04 be
       0.42066318 -0.07983518 0.036100447 -0.12964864
0001e0 1d 9f 71 3e 68 de da 3d 15 1c 25 3e 89 c9 e5 bd
       0.23595853 0.10686952 0.16123994 -0.112200804
0001f0 55 70 5e bd c1 bc dc 3e 69 25 c6 3c 0e ba e8 3d
       -0.054306347 0.43112758 0.02418776 0.11363612
000200 c2 d4 99 3d 0b 6f e9 3c cc d8 1b 3c 56 32 91 bd
       0.075112835 0.028495332 0.009512138 -0.07089679
000210 69 61 3f 3b b6 c7 18 3d f8 45 dd 3c 9d 00 d0 bd
       0.0029202348 0.037299834 0.027010903 -0.10156367
000220 4b 70 90 ba 86 a9 88 bd 3c 48 52 3b bb 13 41 bd
       -0.0011019794 -0.06672959 0.0032086512 -0.047137957
000230 18 6f c6 3c 3a 10 90 bd e0 29 5e 3d 0f 03 33 bd
       0.024222896 -0.07034345 0.054239154 -0.04370409
000240 fb 39 9d 3d 09 f6 2b bd 68 13 91 3d bd 4d ba 3b
       0.076770745 -0.041982684 0.070837796 0.0056855367
000250 ed 9a e2 bd 24 8f de bc 32 e1 35 3d 05 a0 fd bc
       -0.11064706 -0.027167864 0.044404216 -0.030960092
000260 8c f8 a0 bd d3 51 45 bd cd d5 51 3c d2 b5 85 bd
       -0.078599066 -0.048173737 0.012807322 -0.0652882
000270 a5 c6 bb 3c 45 f5 b5 bd c1 67 ad bc b1 24 14 3c
       0.02292187 -0.08884672 -0.021167638 0.009041951
000280 6c da 1e be 7c c8 b0 bd bb 99 3e bd 90 3f 3c 3d
       -0.15513009 -0.08631989 -0.046533328 0.045959055
000290 0e b3 e7 bd b5 8f a0 3c f8 5f 16 be 72 ab 2f bd
       -0.11313449 0.019599775 -0.14685047 -0.042888112
0002a0 5a 9f bd bd 0f 7e 80 bd df 6b 08 3e da f4 9c bd
       -0.092589095 -0.06274044 0.133224 -0.07663889
0002b0 10 7e a4 3d 56 b0 25 3e 8d ef 90 bd 03 90 d2 bd
       0.08031857 0.16180548 -0.07076941 -0.10281374
0002c0 8f 8a 32 3d 39 6b bc 3d 36 03 28 3d 65 d3 db 3d
       0.04358917 0.092001386 0.041018687 0.1073368
0002d0 e5 70 d0 bd e1 26 ed 3d 00 50 e9 bd db a2 0b 3e
       -0.10177783 0.11579681 -0.11392212 0.13636343
0002e0 3b bc 01 bd 87 87 14 bd 75 48 16 be 2f c0 0d 3e
       -0.03167365 -0.03626206 -0.14676078 0.13842843
0002f0 43 c8 e5 3d 40 21 26 be a5 96 df bc 02 ca 8a bd
       0.112198375 -0.16223621 -0.027293513 -0.06776811
000300 93 c3 db 3c 9a 5c b5 3c 58 2b d3 bb 22 bd e7 3b
       0.026826655 0.022138882 -0.006444376 0.007072107
000310 50 8d 15 b8 2c bd a1 bc c2 a0 84 3d c4 f4 51 3e
       -3.5655976e-05 -0.019743524 0.064759746 0.20503527
000320 db fc a3 3d 8c 2a 77 3d 73 21 49 bd 9c c7 c6 3d
       0.08007213 0.06034331 -0.049104165 0.09706041
000330 b1 7e bc bc f6 a2 e1 bd b3 b6 96 bd 88 74 c6 3d
       -0.02300963 -0.110174105 -0.07359066 0.09690195
000340 01 e9 d8 bd 87 1b 85 bc 04 80 80 bd 95 7b a2 bc
       -0.10591317 -0.016248478 -0.06274417 -0.01983432
000350 b6 b4 76 3e 61 48 ad bc 60 fb fe 3a 78 38 95 bd
       0.24092373 -0.021152677 0.0019453578 -0.07286161
000360 ab b0 cc 3d 4b 90 29 3d fe 95 be 3d 5a a1 92 bd
       0.09994634 0.041397374 0.093059525 -0.071596816
000370 e6 49 e4 bc b2 b3 86 3e cf 9e ed 3c bf 43 92 3d
       -0.027867269 0.26308972 0.02900639 0.07141828
000380 3c 0f 03 bd da a3 18 bd bc 57 87 3c f3 3e 08 3e
       -0.03199695 -0.037265636 0.016521327 0.13305263
000390 fe a1 5c bc 24 c0 1a be 25 b5 92 3b ce f5 f8 3e
       -0.013466356 -0.15112358 0.0044771605 0.48625034
0003a0 d5 56 ea 3d c4 21 0b 3e 98 38 59 bd cb 07 9b 3e
       0.11442343 0.135871 -0.053032488 0.30279383
0003b0 ee 93 03 be 32 34 ce bd 26 20 86 be c3 63 6e 3e
       -0.128494 -0.10068549 -0.26196402 0.23280244
0003c0 df 7c 95 be 8c 56 f8 3d 07 55 62 be 53 44 a1 bd
       -0.29196832 0.121258825 -0.22102748 -0.0787436
0003d0 0a 57 04 3f 2c d8 b8 3d 3e d0 09 be 34 09 b2 bc
       0.5169531 0.090256065 -0.13458344 -0.021732904
0003e0 46 0f b1 3e 76 98 1a 3e 80 24 d7 3d 63 64 4e 3c
       0.34581965 0.15097222 0.10505009 0.012597176
0003f0 90 2e 16 bd d1 03 f3 3e 6e 90 49 3d bf c5 70 3d
       -0.0366655 0.4746385 0.049210005 0.058782335

pool.pma.mab.fc_q.weight f4 [32, 32]
000000 4a 55 0f bd 2d e6 08 3e 44 a9 e2 3c 57 e7 c1 bc
       -0.034993447 0.13369055 0.027668603 -0.023669882
000010 70 6d d0 3c a9 dc d1 3d e9 2f 30 3e c0 75 33 be
       0.025442809 0.10247166 0.17205776 -0.17525387
000020 52 6d c7 3d ce 0c b9 3d 52 be ba bd fb 0e a1 bd
       0.09737648 0.090356454 -0.09118332 -0.078641854
000030 16 eb 7c bd 78 03 2c be 7d 13 dd bd af 82 22 bd
       -0.061747633 -0.16798198 -0.10794733 -0.03967541
000040 cc 73 29 bd 54 8b 06 bd 6b a8 d2 3b cd 48 e1 3d
       -0.041370198 -0.032847717 0.0064287684 0.11000214
000050 61 06 ec bd 96 c7 be 3d 04 12 c8 3c 0c 37 aa bd
       -0.11524654 0.09315412 0.024422653 -0.083112806
000060 80 d2 c1 bd df 33 a6 3d d3 d0 67 3e 89 77 0a 3d
       -0.09463978 0.081153624 0.22638254 0.033805404
000070 5a d2 d3 bd cb 11 a4 3e c1 ae e5 3d 66 4b 0b be
       -0.10342856 0.32044825 0.11214972 -0.13602981
000080 d5 19 0b 3d ff 62 8c 3c 9b 1d d0 3d 21 f4 ed 3d
       0.033960182 0.017137049 0.10161897 0.116188295
000090 13 8a 09 3a 7b 95 ec bd 91 93 31 bd a9 c2 6f 3e
       0.000524671 -0.11551949 -0.04335362 0.234141
0000a0 30 5e 04 bc d9 1a e1 bd 0c 61 07 3d 04 43 73 3e
       -0.008079097 -0.10991449 0.033051535 0.23756033
0000b0 a7 bd 98 bd b1 d1 8c 3d b8 92 00 be 8d 39 65 3e
       -0.07458048 0.06875933 -0.12555969 0.22385235
0000c0 82 41 86 bd 59 51 55 bd 8c 00 e6 bc 2e 40 c2 3d
       -0.065554634 -0.052079532 -0.028076433 0.094848976
0000d0 92 c2 55 3e 5f 1c 80 bd 0f 1b 61 3d 2a d8 15 be
       0.20875004 -0.06255411 0.054957446 -0.14633241
0000e0 4e 32 60 3e 03 42 93 3d ab 93 e8 bd ac db 57 3c
       0.2189419 0.07190325 -0.113562904 0.013174932
0000f0 b2 2c 50 bc 70 f4 ad 3e bd f4 12 3e c8 b9 59 bd
       -0.012705969 0.33975554 0.14351173 -0.05315569
000100 b8 dc 8f be e4 08 53 3b 5c 46 96 3d a2 d0 69 3e
       -0.28098083 0.0032201344 0.07337639 0.22833493
000110 3f ac dc 3b bb b0 48 3e 9c 7d 29 be 9d 3d d5 3d
       0.0067344005 0.19598667 -0.16551822 0.104121424
000120 4c b4 7f be 2c 86 f6 bd e9 97 b1 3d 9d 0e ef bd
       -0.24971122 -0.1203731 0.08671553 -0.11672709
000130 56 48 d0 3d 04 8c 20 3e 63 1e 03 bd f7 d2 c5 3d
       0.10170047 0.15678412 -0.0320114 0.09659379
000140 d6 05 66 be 8a e1 9d 3d 68 dd d2 3d 83 4a 9c bd
       -0.22463164 0.07709034 0.10296136 -0.076313995
000150 2c 1d 93 3e 13 ea 25 3e bf f2 93 be d8 aa 3f 3e
       0.28733194 0.16202573 -0.28896138 0.18717515
000160 f8 e7 df 3d b9 83 9d 3c 9c 74 5e be a5 f5 7c 3e
       0.109329164 0.01922785 -0.2172417 0.24703081
000170 d2 b5 53 3e ca 9e 3f 3e 42 21 60 bd 9b b4 7c be
       0.20674828 0.18712917 -0.054719217 -0.2467827
000180 b4 f2 43 3e 6e 0f f1 3c 9d 84 88 3d 9d 44 fe 3c
       0.19135553 0.029426303 0.06665919 0.031038577
000190 6f 8f ac bc 95 d0 9a 3e a5 74 ae 3d 37 8b da bd
       -0.021064488 0.3023726 0.08518342 -0.106710844
0001a0 9b ad 15 bd 0c 1e dc 3c 42 81 a1 3d 93 b7 08 bd
       -0.036542516 0.026869796 0.07885982 -0.033378195
0001b0 26 22 b6 bd 85 13 79 3e 8a 20 3a 3e c5 4e a9 3d
       -0.08893232 0.24323852 0.18176475 0.08266977
0001c0 a1 f8 e9 3c 27 27 f4 3b 7c f7 ba bd 59 55 bf 3d
       0.028560938 0.0074509564 -0.09129235 0.09342451
0001d0 43 2c 87 be 02 50 0d be 67 30 a4 3d dd 93 83 bd
       -0.26400957 -0.13800052 0.080170445 -0.06424687
0001e0 54 b3 08 3c 8a 32 48 be 2d eb 8e 3c 17 8a bb 3a
       0.008343536 -0.19550529 0.017446125 0.0014308122
0001f0 d7 79 ea 3d 49 1e a2 be e4 80 57 3d 86 d2 95 bb
       0.1144902 -0.3166373 0.052613154 -0.0045722155
000200 52 1e 8d be 70 db d3 3d 8e cf 87 bb 66 1b 1a bd
       -0.27562195 0.10344589 -0.0041446155 -0.037623785
000210 97 4f 55 be fa 34 d0 3d 9c 91 43 3d dc 72 f9 bd
       -0.20831142 0.101663545 0.047746286 -0.12180111
000220 fe 3e 08 be 9c 76 22 be 69 19 83 3e 26 3d b3 bd
       -0.1330528 -0.15865558 0.25605324 -0.087518975
000230 10 66 d1 3c f3 d2 25 3e be 73 12 3e f5 34 24 3d
       0.025561363 0.16193752 0.14301965 0.040089566
000240 5f d0 d8 3d 7e 45 64 3e 0d 7f 6f 3d c1 77 97 3d
       0.10586619 0.22292134 0.058470774 0.07395888
000250 14 c3 24 be e4 75 38 3c 09 67 61 bd 8e 12 64 3c
       -0.16090041 0.011258576 -0.055029903 0.013920439
000260 c1 62 0e 3d e9 f4 06 be e1 6e 91 be f6 cd 90 3d
       0.034762148 -0.13179363 -0.28404906 0.07070534
000270 cc 74 75 3e 7c 0e e3 be d7 ea 5f bd d6 c6 eb bd
       0.23970336 -0.44346988 -0.05466732 -0.11512534
000280 12 54 da 3d 25 86 5a 3e 9d d1 a2 3e 2b 1d 25 be
       0.106605664 0.21340235 0.31800547 -0.16124408
000290 72 7e d7 3d 13 15 31 be 12 3b d8 bc 79 14 5d be
       0.105221644 -0.17293195 -0.026395354 -0.21589841
0002a0 9f 5a 19 3e 0e df ab bd 21 c4 26 be 6b c1 9f bd
       0.14975975 -0.08392154 -0.16285755 -0.078005634
0002b0 34 41 ec bd 3d 95 6c be cc 22 72 3e e7 9e 96 3b
       -0.11535874 -0.23103805 0.23646086 0.0045965794
0002c0 b4 ae b7 3e 9a 0d c1 be ca 02 cb bd a7 1a bd bd
       0.35875475 -0.3770569 -0.09912641 -0.09233599
0002d0 7b f3 db be 30 0c 4a be 1b c9 9c 3e 01 05 22 be
       -0.42959198 -0.19731212 0.3062218 -0.15822221
0002e0 dc da 31 be b4 84 12 3e 67 fd e8 3d ec 36 8b be
       -0.17368644 0.14308435 0.11376458 -0.2719034
0002f0 dc 65 c6 bd 0b b5 72 be 06 86 99 3e 3e 12 0b 3e
       -0.09687397 -0.23701875 0.29985064 0.13581178
000300 58 f1 98 3e 44 fa 5a 3e aa 52 10 3c b2 52 26 be
       0.2987163 0.21384531 0.008808771 -0.16242483
000310 9d b2 d5 3d 43 fb 0e be 21 e3 c8 ba 40 4f 18 bd
       0.104344584 -0.13963036 -0.0015326479 -0.037184954
000320 3e 89 a3 3d ce c7 aa 3d 44 f0 5e be ec a3 bd 3d
       0.07985161 0.08338891 -0.21771342 0.09259781
000330 71 97 d1 bd e0 25 40 be de 2e 69 3e c3 82 2d bd
       -0.10233963 -0.18764448 0.22771785 -0.042361032
000340 18 10 04 3e 5a df 01 be aa b6 9a bd bb 29 86 bd
       0.12896764 -0.12682858 -0.07554372 -0.06550928
000350 1c 14 9a bc 0e 75 20 3d ef 7a 87 3e 52 46 0e be
       -0.018808417 0.039174132 0.26460978 -0.13894013
000360 12 d2 21 3d c2 bd ad 3d 1c f9 c0 3d a4 ca 1c be
       0.03950698 0.08483459 0.09422514 -0.15311676
000370 b3 46 89 bd a9 ec db 3d c0 ac 9d 3c c8 9c 22 3e
       -0.06702938 0.10738499 0.019247413 0.1588012
000380 ce 2a 52 3d 20 44 7a bd 70 a1 9b 3d b6 18 80 be
       0.051310353 -0.061100125 0.07599151 -0.25018853
000390 57 bb 0e 3e 46 bd 1d 3e da 2e 0c 3e 02 bc 1d bc
       0.13938652 0.15404233 0.13689747 -0.009627344
0003a0 fd b6 d0 3c 93 f3 0b ba f7 62 66 be 09 a5 e6 bc
       0.02547788 -0.00053387246 -0.2249869 -0.028154867
0003b0 8f f2 30 be 43 e7 aa be 29 82 b2 bd 66 c1 7d bd
       -0.17280029 -0.33379564 -0.08716232 -0.061952017
0003c0 ae 11 1a 3e 09 9b 0b 3d 15 a2 f6 bd c4 9e d5 bd
       0.15045807 0.0340834 -0.120426334 -0.10430673
0003d0 3e 2b 3f 3e 9e f0 ac bd 72 ff 1e 3e 31 02 ad bd
       0.1866884 -0.084443316 0.15527132 -0.084476836
0003e0 aa c1 83 bd 4d 64 e6 bd d6 e4 1f 3e 0b 19 84 be
       -0.06433423 -0.112495996 0.15614638 -0.25800356
0003f0 23 d1 8b be be db cb 3d 81 92 99 bd 7d 18 24 3e
       -0.27307996 0.09954022 -0.074986465 0.16024967

pool.pma.mab.fc_q.bias f4 [32]
000000 61 d8 1a be 52 02 a3 bd 47 e5 b5 3c 93 98 2c 3d
       -0.15121605 -0.07959427 0.022204055 0.042137694
000010 14 55 71 3b 33 68 f6 3d f6 34 56 bd b2 75 3a 3e
       0.0036824392 0.12031593 -0.0522966 0.1820896
000020 64 e3 d1 3d 8e f5 0e 3e ce de 84 3d 6f 85 09 be
       0.102484494 0.13960859 0.06487809 -0.13429807
000030 39 6b 11 3e 7e d3 45 be 4c cf fc bd 1d af d7 bd
       0.14201058 -0.19318959 -0.12344226 -0.10531447
000040 a3 ac ac bd d2 d1 61 3d 40 7e 70 3d a1 23 11 be
       -0.08431365 0.05513174 0.05871415 -0.14173748
000050 8a f9 06 3e 98 bb 16 3e a3 17 c8 3d a9 b7 18 be
       0.13181129 0.14719999 0.09770133 -0.14913811
000060 29 47 16 3e 1d a0 a4 3c 63 16 03 bc 60 9c 1a be
       0.14675583 0.02009588 -0.008000943 -0.15098715
000070 78 59 19 3e 40 60 95 3b 9b ca 44 be 77 94 d3 3d
       0.14975536 0.004558593 -0.19217913 0.10331052

pool.pma.mab.fc_k.weight f4 [32, 32]
000000 26 c2 d0 3e 02 85 1b be a1 94 cd 3e 82 06 ab 3e
       0.40773124 -0.15187457 0.40152457 0.33403403
000010 35 86 a6 be 10 91 4b 3e ef 6d 10 be 85 52 96 be
       -0.32524267 0.19879556 -0.14104436 -0.29359832
000020 43 52 7d be 88 e1 07 be 5d 84 ed 3d fc 0f ae 3e
       -0.24738412 -0.13269627 0.11597512 0.3399657
000030 49 c7 ba 3e 4a 49 66 3e a9 29 7e be 9b cc 99 3c
       0.36480168 0.22488895 -0.2482058 0.018774321
000040 5a 40 9c be 59 58 d3 3c d1 fb c3 3c 5e 59 3c 3e
       -0.30517846 0.025798963 0.023923786 0.18393466
000050 9f 8a a9 be fb 5e c8 3a 35 4d 9d be 6b 97 f3 3d
       -0.33113572 0.0015287095 -0.30722967 0.11894115
000060 33 bd 1f be 12 5f 36 3e a6 11 b6 3e a1 96 a4 be
       -0.15599518 0.17809704 0.3556034 -0.3214617
000070 2c aa 1c 3e cd b7 43 3e d2 12 b9 3e 4d 62 48 3e
       0.1529929 0.19113083 0.3614717 0.19568749
000080 ea b1 4c bf e5 f5 e2 3c 69 67 68 be 0e 68 4e 3e
       -0.79958975 0.027705142 -0.22695698 0.20156881
000090 28 62 a6 3e 68 3a f1 bd 37 5e 10 3f 15 01 34 3f
       0.32496762 -0.11778718 0.5639376 0.7031415
0000a0 d1 53 4c 3e 22 c4 52 3e f0 48 8b be 35 0f af be
       0.19953848 0.20582631 -0.27204084 -0.3419129
0000b0 07 7b 11 3c 4c 3a c4 3e eb 7e 43 3e 6e 73 f1 bc
       0.00887943 0.38325727 0.19091384 -0.029473986
0000c0 c6 9b aa 3e 49 2d 4e be 2c 88 6e 3f 38 29 ee be
       0.3332197 -0.20134462 0.9317653 -0.46515822
0000d0 d7 65 2f 3e e2 8a 53 bb 0a 35 a2 3e fc 30 0d 3f
       0.17128693 -0.0032278826 0.3168109 0.5515287
0000e0 ac 03 e5 3e 35 ce bf be 06 5e da be 4d bd 59 3d
       0.44729364 -0.3746201 -0.4264986 0.053159047
0000f0 ea 72 97 be 92 eb e8 be 04 c7 05 bf b0 c3 33 3e
       -0.2957986 -0.45492226 -0.522568 0.17555118
000100 41 8b 43 bf 40 24 01 3f 53 0c 3d bf fe 21 98 be
       -0.7638436 0.5044594 -0.7384693 -0.29713434
000110 63 21 32 3f 10 05 05 bf e8 67 c1 3e fe 0c 16 3f
       0.69582194 -0.5196085 0.37774587 0.58613575
000120 0e 1e 1e 3d 69 c8 fb 3d 75 b4 18 bf 70 f3 1e bf
       0.03860288 0.122940846 -0.59650356 -0.62090206
000130 99 56 e0 be 9a d2 42 be 69 05 b4 3e d0 c5 dd 3e
       -0.4381607 -0.1902565 0.35160378 0.4331498
000140 6f fe 1c 3f cb b1 d0 3e ca 74 39 3f 76 4b 3a bf
       0.61325735 0.40760645 0.7244383 -0.72771394
000150 7b 99 bc 3e 7c d7 8a be ef 33 aa 3e ed a5 b7 3e
       0.36835846 -0.27117527 0.33242747 0.3586878
000160 dc 04 da 3e dd ec d8 be 8b 1a 02 bf 12 14 9e 3e
       0.42581832 -0.42368212 -0.5082175 0.30874687
000170 f6 78 e8 be b7 45 c0 be 75 e8 f6 be ce df 55 be
       -0.45404786 -0.37553188 -0.48224226 -0.20886156
000180 8a 92 33 3f c7 9a ae be 79 84 95 3e 73 ad 2c be
       0.70145476 -0.3410246 0.2920263 -0.1686304
000190 0e 10 2b bf 3d 6c ba 3e 9f e2 1d bf 4a bd 2c bf
       -0.6682137 0.36410704 -0.6167392 -0.6747633
0001a0 20 b9 dd bc e2 8a 27 bc d4 58 8a 3e ee e6 2a 3f
       -0.027065814 -0.010225983 0.27020895 0.6675862
0001b0 4a d2 3c 3e f7 d5 ff bc 1d 40 13 bf f1 95 0f bf
       0.18439594 -0.031229956 -0.57519704 -0.5608817
0001c0 e3 9d 50 bf 2b 9d d9 be 39 c8 26 bf ed c2 25 3f
       -0.81490916 -0.42502722 -0.65149266 0.6475056
0001d0 d5 c0 37 be 39 59 c1 3d 0c bb 98 be bd e1 15 bf
       -0.17944653 0.09440846 -0.29830205 -0.58547574
0001e0 85 a5 64 be 80 7c 87 3e 8a 99 1f 3f e1 6e 8a be
       -0.22328766 0.26462173 0.62343657 -0.2703772
0001f0 3f 77 1e 3e c1 aa c7 3e f8 23 d4 3e 00 0b f6 3d
       0.15475176 0.38997462 0.41433692 0.12013817
000200 50 42 0d bf 2f 70 1f 3f d6 cf 10 bf 2f 51 e2 be
       -0.5517931 0.62280554 -0.5656713 -0.44202563
000210 e1 0f 1f 3f 9c 56 f4 be 0a 18 36 3e 66 d5 21 3e
       0.62133604 -0.47722328 0.17782608 0.15804061
000220 04 12 8e 3d a1 f8 8e be df f7 ef be 97 e3 b4 be
       0.0693703 -0.27924064 -0.46868798 -0.35329887
000230 d7 28 02 bf 33 e5 25 be fb 7a ef 3e bd 8a 2c 3e
       -0.50843567 -0.16200714 0.46773514 0.168498
000240 69 52 b0 3e 44 bb 92 3e f4 a1 84 3e ff d3 26 bf
       0.34437874 0.28658497 0.2590481 -0.6516723
000250 15 4e dd 3e cc ac e6 be 99 a1 20 3f b7 ec 82 3e
       0.43223634 -0.4505371 0.6274658 0.25571224
000260 4d ae 8f 3e f2 1e 90 be 24 a8 f5 be 67 5c f3 3e
       0.28062668 -0.2814861 -0.47979844 0.47531435
000270 c8 16 89 be fb 04 26 be 41 f3 9e be de 98 b0 be
       -0.26775193 -0.16212837 -0.31044963 -0.34491628
000280 80 f9 db 3e 3b 77 75 3e 79 27 6f be a8 c9 de be
       0.4296379 0.23971264 -0.23354901 -0.43513227
000290 b1 a4 a2 3c 1b c7 26 bd 20 b1 2d 3e 0e a5 50 bb
       0.019853922 -0.040717226 0.16962099 -0.0031836662
0002a0 32 3b 30 be d6 17 66 be d5 47 38 be b8 6e 8c 3d
       -0.17210081 -0.2247003 -0.17996152 0.068570554
0002b0 47 65 cd 3b 8c cd 4d be 0a 7a 10 3d 14 0f 67 bd
       0.0062681767 -0.20097941 0.035272636 -0.056410864
0002c0 f1 28 50 be ea c4 26 be 59 4b 73 be 22 34 e0 3d
       -0.20328118 -0.16286054 -0.23759212 0.109474435
0002d0 02 61 0e 3d 4c a1 7c be 43 e7 90 3e 1d a6 27 be
       0.034760483 -0.24670905 0.2830144 -0.16371961
0002e0 52 08 86 3e 38 e7 f3 3d 42 c3 b8 3d bf 42 ac 3c
       0.26178223 0.11909336 0.090216175 0.02102792
0002f0 9d 27 80 bc bf 3c 63 3e 4b 95 53 3d 0d 48 a4 be
       -0.01564389 0.22191142 0.05165605 -0.3208622
000300 88 16 1e 3f ac ce b9 be b2 2b 1c 3f bf c8 25 3f
       0.6175313 -0.3629049 0.61004174 0.6475944
000310 4c a5 cb be 8b 09 ff 3e 9d 44 eb be 82 0b 2e bf
       -0.3977455 0.49811968 -0.45950785 -0.6798631
000320 8b 09 49 bd 2c 4f 2e be 67 e0 0d 3f 9f 5a 28 3f
       -0.049081367 -0.17022389 0.55420536 0.65763277
000330 83 34 b5 3e a8 94 56 3e a0 88 b9 be 8e 0c 38 be
       0.35391626 0.20955145 -0.3623705 -0.17973539
000340 4d 24 0f bf 5b ba cb bd b4 33 7c be be 7f 2d 3f
       -0.55914766 -0.09947654 -0.24629098 0.67773044
000350 0b 65 d4 be 37 69 42 3e 05 6a e9 be ec a7 68 be
       -0.4148334 0.18985449 -0.455887 -0.22720307
000360 45 3e cc be ea be af 3e d8 6f 48 3f b0 ae bc be
       -0.39891258 0.34325343 0.7829566 -0.36852026
000370 bb 52 6c 3e ec a8 a5 3e 28 b1 14 3f d8 f1 9b 3e
       0.23078434 0.3235544 0.5808282 0.3045795
000380 e1 d2 0e 3f 76 16 89 be 96 b2 06 3f 28 d7 cb 3e
       0.55790526 -0.2677495 0.5261625 0.3981259
000390 9e 17 1a bf b9 b6 be 3e 29 8c 86 be 60 02 b1 be
       -0.60192287 0.3724878 -0.2627881 -0.34572124
0003a0 c4 a1 3d bd 15 47 de 3d 7e dc ed 3e 38 88 05 3f
       -0.04629685 0.108534016 0.46457285 0.5216098
0003b0 27 54 aa 3e fb 32 dd 3d d5 62 1f bf ab 82 15 bc
       0.33267328 0.108007394 -0.6226018 -0.009125392
0003c0 5e 0c ee be 79 c7 a2 be 7e b7 a9 be fa a8 05 3f
       -0.4649381 -0.3179281 -0.33147806 0.5221096
0003d0 53 04 f2 be 81 de b1 3e 6d 57 22 bf 98 e3 1b be
       -0.47268924 0.3474007 -0.6341465 -0.15223539
0003e0 78 62 01 bf 5a e8 82 3e cd f2 03 3f 03 83 cd be
       -0.50540876 0.25567895 0.5154236 -0.40139017
0003f0 76 e3 3a 3e 45 e5 90 3e 25 45 f2 3e 14 f9 d2 3e
       0.18250832 0.2829992 0.47318378 0.41205657

pool.pma.mab.fc_k.bias f4 [32]
000000 d1 32 8b bd 45 05 c1 3e c5 c6 02 3f 49 fb 34 be
       -0.06796802 0.37699333 0.5108455 -0.17673983
000010 33 0d 46 3d 73 54 60 bd 33 f5 ec be 1e 08 74 be
       0.04835243 -0.054768037 -0.46280822 -0.23831221
000020 84 75 d7 be 20 c4 b1 bd 34 17 99 3e 86 99 08 bd
       -0.42081845 -0.08679986 0.29900515 -0.033349536
000030 6e 5a 31 3e b9 24 9d be fa 49 86 3d 7f 5d 49 be
       0.17319652 -0.3069208 0.06557079 -0.19664572
000040 3c d3 6c be 86 5a b0 bd d5 67 09 be 51 71 86 3e
       -0.23127455 -0.08611016 -0.13418515 0.2625833
000050 2c 0d a7 be 61 e1 b0 be 02 27 2a be 87 43 93 3d
       -0.32627237 -0.3454695 -0.16616443 0.07190614
000060 94 86 ee be d6 12 2a 3e c8 e0 8c 3d 74 1e ea 3c
       -0.4658705 0.16608748 0.06878811 0.028578974
000070 d4 39 c0 bd 0e 8b 05 bf 9f 5b a0 be 16 12 d1 3d
       -0.0938603 -0.52165306 -0.313199 0.10208528

pool.pma.mab.fc_v.weight f4 [32, 32]
000000 16 71 22 3e c3 b9 89 bd 87 a5 8d 3d 82 12 ea bd
       0.15863451 -0.06724884 0.069163375 -0.11429311
000010 9c 34 63 3c b0 60 12 be c4 74 e4 3d 54 b1 85 3d
       0.0138675235 -0.14294696 0.11155084 0.06527963
000020 53 13 36 be da c2 b6 3d 39 c2 98 b9 be 93 cb bd
       -0.17780809 0.08923884 -0.00029136406 -0.09940289
000030 b4 b5 7d bd 65 25 23 3e 84 2a df bd 84 be 38 3e
       -0.061940864 0.15932234 -0.10896781 0.18041426
000040 37 5d 59 3d f8 d2 66 3d 85 b7 90 bd ee 1f 8e 3d
       0.053067412 0.05635354 -0.070662536 0.06939684
000050 35 88 b9 3c 81 63 27 3e ea f6 3a be 80 86 2d bd
       0.022647956 0.16346551 -0.18258253 -0.042364597
000060 81 d9 94 bc 52 78 ff bd ef ea 3c 3d 2f 00 d5 3d
       -0.01817012 -0.12474121 0.046122488 0.10400426
000070 be 7d c8 3d 3b 98 92 bd f2 b0 ad 3d 57 b8 e3 bd
       0.097896084 -0.07157942 0.08481015 -0.111191444
000080 64 fc bb 3d 3b 8a 00 be cb 32 1c be 9c 90 83 3d
       0.09178999 -0.1255273 -0.15253751 0.064240664
000090 e2 ab a1 3c 81 74 0d 3d d6 9c 26 3e dd e2 42 3e
       0.01973528 0.034534935 0.16270766 0.19031854
0000a0 45 1c b1 3d 27 12 06 be 07 3b 75 bd 86 73 11 3b
       0.0864797 -0.13092862 -0.059870746 0.0022194101
0000b0 62 14 49 be ea f4 98 3d 4e 7b 0b 3e b1 a9 ee bc
       -0.19636682 0.07468589 0.13621256 -0.02913365
0000c0 8d 68 cf 3d 4a 3d fa bb 15 55 bd 3d 44 bd f9 3c
       0.10127363 -0.0076367008 0.09244744 0.030485757
0000d0 60 37 8a bd 98 da b3 3d 70 1c 99 bd 6c d2 f0 3c
       -0.06748843 0.08781928 -0.07476127 0.029397212
0000e0 30 f0 9c 3d bf 51 b8 bd dd d9 1b be d2 64 d5 3d
       0.07663 -0.08999967 -0.15219827 0.104196206
0000f0 7b ec 78 bd 1b 58 04 3d bf 5f 14 bd 71 66 e4 3d
       -0.0607724 0.032310586 -0.036224123 0.11152352
000100 7d 12 a8 bd 6a c1 a4 bd 82 d0 ff bd 79 07 1b 3e
       -0.08206651 -0.08044703 -0.124909416 0.1513957
000110 f6 b9 23 bc fe cc 4b 3d b2 13 26 3e 88 e9 68 bd
       -0.009993067 0.049756043 0.1621845 -0.056863338
000120 2e 92 12 be 5e 8f 48 3d 29 a6 bf bd e1 52 40 be
       -0.14313576 0.04896485 -0.093578644 -0.18781616
000130 f6 a9 cf 3c 2c bd 18 be 18 f9 fd bb f7 32 b5 bd
       0.025349598 -0.14915913 -0.0077506416 -0.088476114
000140 fa 52 b9 3d cf e0 f5 3d f1 79 23 3e 96 ef 5f 3d
       0.0904903 0.120057695 0.15964486 0.054671846
000150 67 4f 02 bd b5 de 1f bd 40 05 e6 3d 0e 68 8d 3d
       -0.031814005 -0.03903075 0.1123147 0.069046125
000160 57 e1 dd b8 22 e4 37 be 25 b9 2a be 75 70 0c bd
       -0.00010580074 -0.1795812 -0.1667219 -0.034286935
000170 c4 f8 01 bd 33 64 59 bd 4f 1e fd bd b6 a1 e5 bc
       -0.031731382 -0.053074073 -0.123592965 -0.028031211
000180 46 6e 25 3e 3a ab 36 bd 67 ec 54 ba 39 5a 5c bd
       0.16155347 -0.044596888 -0.0008122385 -0.05379698
000190 8b d1 80 3d 7b 61 63 3d ea 39 83 bd af 37 94 3d
       0.06289967 0.055512886 -0.064075306 0.07237183
0001a0 3f ab e1 3d 8d ab f8 bc bd 05 bd 3c a0 60 e8 bd
       0.11018991 -0.03035524 0.023074025 -0.11346555
0001b0 a9 38 28 3e 82 e3 71 3d 78 cf 50 be b0 d6 a4 bd
       0.16427864 0.05905486 -0.20391643 -0.08048761
0001c0 ff 1f ab bd 9a c3 c4 bd f3 33 47 3d c0 b9 89 3d
       -0.08355712 -0.096076205 0.048633527 0.06724882
0001d0 3e fe 27 3e 09 5e 33 be ba 78 08 3e e2 f8 bd 3d
       0.1640558 -0.1751634 0.13327304 0.09275986
0001e0 3b 81 78 bd 53 be b7 3d f3 46 27 bd ad d2 e3 3c
       -0.06067012 0.08971848 -0.040839147 0.027810419
0001f0 a6 65 ee 39 8d ab ba bc fa 05 de 3d a2 59 b5 3c
       0.0004547063 -0.02278688 0.10840984 0.022137467
000200 09 49 80 3c 7c b7 52 3d 60 ec c6 bd c5 11 2e 3e
       0.015659826 0.051444516 -0.09713054 0.16998966
000210 ca cf 3c 3d 6c fa 89 3d 59 f6 39 bb f9 f6 2c 3e
       0.0460966 0.06737217 -0.0028375594 0.16891088
000220 28 82 54 3d f8 8a 22 3d f9 bf 10 be 05 ec 62 bd
       0.05188194 0.039683312 -0.14135732 -0.055400867
000230 b6 48 ee bd 0d 1a 41 3e e8 d1 b6 bd 98 b9 29 3d
       -0.11634962 0.18857594 -0.08926755 0.04143676
000240 1a a0 a2 bd b5 80 bc bd a5 93 0d 3e a5 30 fe bd
       -0.07940693 -0.092042364 0.13825853 -0.12411622
000250 c8 ce 70 3d 50 72 32 3d 6d 8d 05 be a0 27 3c 3d
       0.058790952 0.04356605 -0.13042231 0.045936227
000260 2c 45 24 bc 21 53 07 be 08 e7 b9 bd 8b 77 db bc
       -0.0100262575 -0.13215305 -0.09077269 -0.026790401
000270 24 83 90 3d ff bd 78 be d2 9f 6a 3d b1 ef b4 3d
       0.07056263 -0.24291228 0.057281323 0.0883478
000280 05 18 7c 3e 10 90 1b 3e 53 77 db bd 9a 0a f5 bd
       0.24618538 0.15191674 -0.10716119 -0.11964913
000290 7f 75 57 3d 89 b8 9c bc 43 61 58 be fb e3 13 be
       0.052602287 -0.019130962 -0.21130852 -0.14442436
0002a0 9c 53 18 3e e0 f1 fd bd 28 f3 cc 3d 5a cc b4 bd
       0.14875644 -0.123996496 0.10007316 -0.088280395
0002b0 34 27 26 3e 18 a1 9f 3d 43 c9 33 3d ad cc c3 bd
       0.16225892 0.07794398 0.04389311 -0.09560523
0002c0 d2 cb 52 3d 51 e4 29 3d 10 b4 db bd 4b b9 04 be
       0.05146391 0.041477505 -0.107277036 -0.12961309
0002d0 72 63 bc bd 49 95 ac 3d 2d 00 62 bd fa 40 46 be
       -0.09198655 0.084269114 -0.05517595 -0.19360724
0002e0 0c ee c9 bd 0c ff 4d 3b d4 11 b1 3b 9e 15 4c be
       -0.09859857 0.0031432537 0.0054037366 -0.19930121
0002f0 ab b2 18 be a6 7b 33 3e 9f d6 0b bd a9 6f 79 bd
       -0.14911906 0.17527637 -0.034140225 -0.060897503
000300 18 16 12 3e a9 a6 11 be e6 de 18 be 50 fa a0 bc
       0.1426624 -0.14223732 -0.14928779 -0.019650608
000310 f7 c0 fb bb b7 0d 33 be 86 b7 16 3e 2c bc f0 bd
       -0.0076829153 -0.174857 0.14718446 -0.11754641
000320 b2 5d 53 3d b3 d0 94 3d 35 85 c2 3d 42 f6 d6 3d
       0.051603027 0.07266369 0.094980635 0.10496189
000330 9a 12 fc bd 06 30 dc bd ef f0 97 3c 57 f0 31 3b
       -0.123082355 -0.10751347 0.018547503 0.002715131
000340 ff 69 0b 3d 4e da b9 3b e8 ea 47 be 31 e0 1c 3d
       0.034036633 0.005671776 -0.19523203 0.038299743
000350 b2 3e df bd ff d9 e6 bd 34 47 af 3d 8e dd 2e bd
       -0.1090063 -0.11272048 0.08558503 -0.04269176
000360 11 dd 7a bd 8e a1 b9 3d 96 30 dc 3d 39 ee 57 be
       -0.06124598 0.09064017 0.107514545 -0.21086968
000370 10 db f0 3d 5a ee 2f 3e d8 a3 b2 bc 71 85 2f be
       0.11760533 0.17180768 -0.021806642 -0.17140748
000380 41 c5 aa 3d 69 5f 07 3e ec e9 1b be f4 75 0c be
       0.083384044 0.1321999 -0.15225953 -0.1371687
000390 4f 2f f5 bd a1 c2 67 3d 79 d6 8c 3d 08 9f 42 be
       -0.11971914 0.056582097 0.06876845 -0.19005978
0003a0 b9 62 a5 bc 58 73 d4 3d 96 a3 cb 3b 0f cd 46 bd
       -0.020188676 0.103735626 0.0062145693 -0.048535403
0003b0 b1 a3 98 3d 2f fa 80 3d b2 c4 38 bd 5c 52 93 be
       0.07453097 0.06297719 -0.04510946 -0.28773773
0003c0 ad f0 5a bd 76 dc 96 3d e9 56 14 be 0e c4 f2 3d
       -0.053452183 0.07366268 -0.14486279 0.11853801
0003d0 53 9e 13 3e e4 07 ba bd 59 1c 23 3e 00 73 19 be
       0.14415865 -0.09083536 0.15928783 -0.14985275
0003e0 bc 25 f3 bd e5 6b c6 bd 00 8b 3d be a0 8b be bd
       -0.11872432 -0.09688548 -0.18510056 -0.09303975
0003f0 f5 59 f4 bd 54 ab 22 3e de 40 87 3d 56 38 0a 3e
       -0.119312204 0.15885669 0.06604169 0.13498053

pool.pma.mab.fc_v.bias f4 [32]
000000 97 0b 05 3e 82 86 15 be a6 1a 1f be f4 2e c4 3d
       0.12992702 -0.14602092 -0.1553751 0.09579268
000010 27 d0 ae bd b7 78 2f bd bd e9 c4 bd 71 26 3f bd
       -0.08535796 -0.042839732 -0.096148945 -0.04666752
000020 cb b8 b7 bd 12 23 9a bd b0 43 31 3d 98 37 c1 3c
       -0.08970793 -0.075262204 0.043277442 0.02358608
000030 94 07 86 3d 1a 7a c1 3d 07 fe d1 3d 75 0b d7 bd
       0.06544414 0.09447117 0.1025353 -0.10500232
000040 2a 09 d8 3d 09 2d d2 3d e4 2d 8c bd f1 8b 20 bd
       0.10548623 0.10262496 -0.068446904 -0.03919596
000050 a0 7d 88 3d ea 8d c2 3c 75 b2 04 be 5f cd 0b bd
       0.06664586 0.02374931 -0.12958701 -0.034131404
000060 5c 8b 9e bc 2a 3b b4 3d 41 4d 92 3d 39 1c b2 3d
       -0.019353561 0.08800347 0.07143641 0.08696789
000070 85 5c 35 bd fe f8 c4 bd 0e 2a 0e 3e 76 20 b8 3b
       -0.044277687 -0.09617804 0.1388323 0.005619104

pool.pma.mab.fc_o.weight f4 [32, 32]
000000 aa d0 43 3d 30 5c b8 bd 78 8f 60 3c 8c 6f 55 3d
       0.04780642 -0.09001958 0.013706081 0.052108333
000010 da 77 7f bd 06 e6 01 be d8 b6 40 3d 54 46 29 3e
       -0.06237016 -0.12685403 0.047049373 0.16530734
000020 2d 09 d7 3d 49 b8 af 3d 3a dc 53 bb 80 fa da 3d
       0.10499797 0.085800715 -0.003232731 0.1069231
000030 87 1c 80 bd d8 fe ff 3d 1b c8 97 3d bf 3a 2a be
       -0.06255441 0.124997795 0.07411214 -0.16623972
000040 ca 9b 15 3e 93 9c 30 bd 48 1a f9 bd 08 fb b4 bd
       0.1461021 -0.04311807 -0.12163216 -0.08836943
000050 8b ab 2a 3e 32 97 f0 bd 91 ae 8f 3c af 87 3b bd
       0.16667001 -0.11747588 0.017539294 -0.045783695
000060 fd d2 13 be 62 c9 24 3d 63 fa 9a 3d fd 79 22 3e
       -0.14435954 0.040231116 0.07567289 0.15866847
000070 ce c7 0c be 1e cb ef 3d ba 5f fa 3d 0c e7 81 b9
       -0.13748094 0.117086634 0.1222529 -0.0002477694
000080 e4 b0 fb 3d d8 42 2b 3e 15 0c 05 be 53 5e 88 3d
       0.122895986 0.16724718 -0.1299289 0.06658616
000090 3c 3e 21 bc 7c ad 24 3d a8 da 1b 3e 80 4a 5e bd
       -0.009841498 0.04020451 0.1522013 -0.054270267
0000a0 fc 30 aa bd 34 a5 49 3e f6 4d cb 3d e8 cb bc 3d
       -0.08310124 0.19691926 0.09926979 0.092185795
0000b0 52 1b 63 3d 18 66 fd bd 22 05 d2 3b f3 05 a0 bd
       0.055445977 -0.123729885 0.0064093033 -0.07813635
0000c0 c3 68 a7 bd b2 b6 54 bd 33 ff 2c 3d 1f cb 41 bd
       -0.081742786 -0.051932044 0.042235564 -0.047312852
0000d0 0f 44 0a be a7 79 52 be 58 ad 0a be 72 ec fe 3d
       -0.13502525 -0.20554219 -0.13542688 0.12447442
0000e0 67 93 48 bd 2b 67 6d bd 24 44 a0 bd c2 5d 65 3d
       -0.0489687 -0.057959717 -0.07825497 0.055997618
0000f0 9c b5 cf bd e9 03 2a be 55 83 44 be 56 dd ac 3d
       -0.10142061 -0.16603054 -0.19190724 0.08440654
000100 71 81 48 be f3 45 28 bd 79 4b 3e 3e ba 6d f2 bd
       -0.19580628 -0.041082334 0.18583478 -0.11837335
000110 7e 05 3e 3e d2 cc 14 3e 44 47 0f 3e 1e b8 4f 3e
       0.18556783 0.14531258 0.1399203 0.20285079
000120 3b 4a 54 3e c1 2a ef bc 50 a2 3a 3d fc 96 19 3e
       0.20731442 -0.029195191 0.04556495 0.14999002
000130 96 37 de 3c 29 d6 d3 bd b2 8c 1a be 07 f4 75 bd
       0.027126115 -0.10343582 -0.15092734 -0.060047176
000140 47 7e a7 bc 54 a3 6a bd 4a dc 14 3d 39 4a d7 3d
       -0.020445956 -0.057284668 0.036342897 0.10512204
000150 89 35 ba bd a1 58 bf 3d 87 76 b5 3d 7b d7 66 3d
       -0.09092242 0.093430765 0.08860498 0.056357842
000160 c5 16 77 3c f9 81 70 3d f2 4b 31 be 32 b8 c0 bc
       0.015081112 0.0587177 -0.17314127 -0.023525331
000170 17 8a 43 bd b6 0d 38 bd ee c4 56 be 24 b6 f5 3d
       -0.047739115 -0.04493495 -0.2097356 0.11997631
000180 64 0b 23 bd b8 8b c2 bd 1a ab 9a bc 0e 2a dd bc
       -0.039805785 -0.094993055 -0.018880416 -0.026997592
000190 3c 60 ae 3d 88 7a 14 3e 2f 78 33 be 75 ca 87 3c
       0.08514449 0.14499867 -0.17526315 0.016576031
0001a0 90 81 05 3e cf 20 08 3e 69 10 8f 3d 6f ec 21 bd
       0.13037705 0.13293765 0.06985552 -0.03953212
0001b0 88 45 b8 3c 9a 72 8d 3b 2a 16 93 bc 39 05 ff 3d
       0.022494093 0.00431664 -0.017954905 0.12452168
0001c0 5b e6 8f bd bc 47 95 bd 61 ca 1a 3e ae 74 0e 3d
       -0.07026359 -0.07289073 0.15116264 0.034779243
0001d0 8a d6 2e be 41 ba 17 bb 40 23 c8 3d 4d 60 f2 3d
       -0.17074028 -0.0023151787 0.097723484 0.11834774
0001e0 da 0f 05 3e 48 93 33 be 95 3d a1 bd 66 26 0f 3d
       0.12994328 -0.17536652 -0.07873074 0.03494873
0001f0 4b 9a 0e 3e b7 9b 25 3e fe ef da 3d 87 f5 b5 3d
       0.13926046 0.16172682 0.10690306 0.08884721
000200 36 9e fb bd 60 7a 8b 3d a4 90 26 bd 12 ae e6 bc
       -0.12286036 0.068104506 -0.040665284 -0.028159175
000210 0b 47 23 bd 68 98 9c bd 17 bb 53 3d a9 ac 96 bd
       -0.039862674 -0.07646257 0.051692095 -0.07357151
000220 44 02 e8 3d 67 5f 27 be 1d 06 c7 bd e1 5e 06 be
       0.11328557 -0.16344987 -0.09717963 -0.13122131
000230 ff 34 dc 3d e3 52 ff 3d ca cb fe 3d 1c 46 3a 3e
       0.10752296 0.12466981 0.124412134 0.18190807
000240 80 0d 50 3d 10 aa 3a bc 5a ee 89 3d 87 9c 3b bc
       0.050794125 -0.011393085 0.06734915 -0.011450893
000250 83 ac 2b 3a 49 d2 fb bd f2 46 39 3e 2f 3b d6 bd
       0.00065488386 -0.12295968 0.1809347 -0.10460507
000260 a4 4b 1a 3e 81 06 78 3d b8 52 ae 3d 14 69 e4 3c
       0.15067917 0.060553078 0.08511871 0.027882136
000270 0f 34 47 3d 9f 04 9b bd d2 8b a4 bd f2 ed ff bd
       0.04863363 -0.07569241 -0.08034481 -0.12496556
000280 89 42 55 be 03 26 c2 3d 10 27 02 3d 0e 84 22 3d
       -0.20826162 0.094799064 0.031775534 0.03967672
000290 24 d0 d3 3d 18 53 2d 3d 18 cf 90 bd 0c fb a1 3d
       0.10342434 0.042315573 -0.0707075 0.079092115
0002a0 49 e4 96 bc 46 1c 08 3e e7 98 fe bd bf a1 db bc
       -0.018419402 0.13292035 -0.124315076 -0.026810525
0002b0 ae f0 3e 3c a8 46 f0 3d b2 72 9a be 3f b5 57 3c
       0.011654062 0.117322266 -0.3016563 0.013165771
0002c0 78 e0 fc 3d 3e 4e ef bd e2 83 7d 3e 5b 2c 23 be
       0.123475015 -0.116848454 0.2475734 -0.15934889
0002d0 05 de ad 3d ca 7c 6c 3c 19 8d 05 be f4 03 a8 bd
       0.084896125 0.014434049 -0.13042106 -0.08203879
0002e0 c1 37 95 3d 6c bd 50 bd 4b 53 ae bd 27 0c fe bd
       0.07286025 -0.050961897 -0.085119806 -0.124046616
0002f0 3b 55 81 3e 8e 11 12 bd b0 be aa 3c 7c 55 f8 3d
       0.25260338 -0.035661273 0.02084288 0.1212568
000300 cf bd a4 3c fd e2 73 bd 26 16 54 bc c6 93 c1 3d
       0.020110039 -0.059542645 -0.012944734 0.09452014
000310 52 ea 1b bd 5b c2 71 be b1 ed 4a be 6c 02 da 3d
       -0.038065262 -0.23609297 -0.19817235 0.10644993
000320 9d a4 11 3d da cc 3e be 2d 73 1b 3e 5c b3 96 3d
       0.035557378 -0.18632832 0.15180655 0.07358429
000330 e6 f4 66 be 8b 80 b3 3d 8e 2e bc 3b 02 20 a9 3d
       -0.22554359 0.08764752 0.0057428544 0.08258058
000340 da 85 28 3e 7b 23 23 3e 5a cc e5 3c f6 a5 94 bc
       0.1645731 0.15931503 0.028051544 -0.018145543
000350 a7 14 19 3e bb 08 74 3e e6 e4 93 bd d5 6c 2c be
       0.14949284 0.23831455 -0.07221393 -0.16838391
000360 1b d2 08 3e 9c 53 dd bd 96 7f 9c bd 98 b8 0f be
       0.13361399 -0.10806963 -0.076415226 -0.1403526
000370 5c fe f6 3c 09 48 20 3d c0 d8 b8 3c 92 a2 38 be
       0.030150585 0.039131198 0.022564292 -0.18030766
000380 44 f6 4d 3c 47 83 07 3e a8 00 22 3e 91 93 ce bc
       0.012570921 0.13233672 0.15820563 -0.02521685
000390 49 4b 26 3e 66 9d 37 bd 9a d9 1f bd b0 17 c7 3d
       0.16239657 -0.04482784 -0.03902588 0.09721315
0003a0 ca e5 45 3d 91 d7 1a 3e a3 a6 69 bc 74 80 0e be
       0.048314847 0.15121295 -0.014260921 -0.13916188
0003b0 f4 d2 06 be 74 96 88 bd 77 99 d7 bc dc 85 80 bd
       -0.1316641 -0.06669322 -0.026318295 -0.06275532
0003c0 02 0e 08 3d 83 a8 e4 bd 75 25 c2 3c e2 33 d0 3d
       0.033216484 -0.111649536 0.023699502 0.10166146
0003d0 2c 6f 02 3d f8 63 c5 3b 18 09 3e 3e 21 16 e7 3c
       0.031844303 0.00602388 0.18558156 0.028208794
0003e0 53 c9 30 be 09 67 e2 3c 27 13 09 be ed 1f 88 be
       -0.17264299 0.027637022 -0.13386212 -0.26586857
0003f0 2a c9 00 be b1 06 17 3e dc 11 21 be 58 0c 50 3c
       -0.12576738 0.14748646 -0.15729469 0.0126982555

pool.pma.mab.fc_o.bias f4 [32]
000000 d7 ed a7 bc b0 2c c5 bd 2e 5d 0a be 7c cd ef 3c
       -0.020499153 -0.09627664 -0.13512108 0.029272787
000010 4e e0 91 bd 7e af 91 3d 53 6f 04 3c 4a 49 8a be
       -0.07122861 0.071135506 0.008083182 -0.2700904
000020 05 53 af 3d 62 13 00 be 5d 75 e2 bd b6 12 f4 bd
       0.085607566 -0.12507394 -0.110575415 -0.11917631
000030 ff ee 17 3d 0d e2 83 be 96 a6 66 be 04 de a9 3d
       0.03709316 -0.257584 -0.22524485 0.08294299
000040 c4 bc 0d bd a0 2e 8f bd 8c ff 2e be dd 11 93 b9
       -0.03460385 -0.06991315 -0.17089671 -0.00028051334
000050 87 cb 8e 3d 60 55 c1 bd c3 fa da 3b c8 97 a8 3c
       0.069724135 -0.09440112 0.006682725 0.020580187
000060 70 9e 11 bd 36 54 0c 3e 86 91 04 3c 72 d3 48 bc
       -0.03555149 0.13703999 0.008091336 -0.012257444
000070 4c f3 d5 bd d1 db 24 be 9a 88 64 3b f7 5b 63 bc
       -0.10446796 -0.16099478 0.003487146 -0.013876907
