GST-recon/checkpoints/best_grid_TopkPool_0.5.pth (torch, 17362 bytes, 11 tensors)

conv1.weight f4 [2, 32]
00000000: b7b9 8d3d c118 24be 50ca d33d 039c c63d
00000010: 935f 72be a42a 8ebc 0d48 5bbe f0bf f13d
00000020: 4790 23be 81d8 a13e 0ad3 b33e b373 bbbc
00000030: fc28 8abe 24f1 8ebe 722e 66bb 3d65 0cbe
00000040: be24 333e dd2d 86be fe58 aa3e 2270 c0be
00000050: f445 8e3e 8d99 08be 2d9a 7c3e 0569 683e
00000060: 0102 253c c69a 493c f145 a03e 78f0 0c3e
00000070: 5592 6a3e 7c39 8bbe 600d ba3e 8b71 4c3e
00000080: 2db0 9e3d ba4d 473e abc5 833e e899 ca3e
00000090: 0334 bdbd 8767 64be 66ee 9ebd 61b6 45be
000000a0: ecd1 833e 8a9c 69be f43b 55bd f3dc d33e
000000b0: 78ff ad3e 6d2b 68bd f29e 03be e643 6bbc
000000c0: 2a02 3a3e eb35 b2be cefe cdbe 8708 aa3e
000000d0: 6ad1 e33e 20b5 2cbe 90c3 aabe 533f 8fbd
000000e0: 5400 0bbe 7efa 5d3d 000e f63d eba3 753e
000000f0: b381 103c d29b e93d 4249 4a3e c0c5 a7be
0.06920188 -0.16025068 0.103413224 0.096977256 -0.23669271 -0.017354317 -0.21414204 0.11804187
-0.15973006 0.31610492 0.35121948 -0.022882318 -0.26984394 -0.2791835 -0.0035122898 -0.13710494
0.17494485 -0.26206866 0.3327102 -0.3758555 0.27787745 -0.13339825 0.24668188 0.22696312
0.010071279 0.012304967 0.3130336 0.13763607 0.22907384 -0.27192295 0.3633833 0.19965188
0.077484466 0.19463244 0.25736746 0.39570546 -0.09238436 -0.22305118 -0.07760315 -0.19307853
0.25746095 -0.22813621 -0.05205913 0.41379508 0.3398397 -0.05668204 -0.12853602 -0.01435945
0.18164888 -0.3480676 -0.40233463 0.3320963 0.44495708 -0.16865969 -0.33352327 -0.069945
-0.13574344 0.054193966 0.12014389 0.23988311 0.008819985 0.114066735 0.19754508 -0.3276806

conv1.bias f4 [32]
00000000: 8b1a 753e 8e07 903c 0627 09bb 0412 8ebd
00000010: 3a9f bb3d df8c 76ba 437b 153e 42e0 f1bd
00000020: 1fec 42bc 4c85 0bbe 8b6a 893e e435 b4bd
00000030: e74c 113d eab0 8abe ac4e babd 7e82 cd3d
00000040: eed5 babb c11b 6e3e f132 18bc f5f3 863d
00000050: b3eb e3bd 4b73 58be 2384 b1bd 4be0 f9bd
00000060: 7e67 1f3d afbf c03d e9b7 573c 2d4d 843d
00000070: 6346 df3d c38c a03d 92a7 803e 9290 3fbd
0.23935907 0.017581727 -0.00209278 -0.0693703 0.091612294 -0.00094051467 0.14597802 -0.11810352
-0.011897116 -0.13625067 0.26839098 -0.08799341 0.03547373 -0.270881 -0.09097037 0.10034655
-0.005701772 0.23252775 -0.009289489 0.065895 -0.111289404 -0.21137731 -0.08667781 -0.122009836
0.038917057 0.09411561 0.013166406 0.064600326 0.10902097 0.07839348 0.25127846 -0.046768732

conv2.weight f4 [32, 32]
00000000: 81cd 44be 59cc 2f3d da79 71be 2ccd f33d
00000010: 7d44 4d3e a054 543e 2fcd 823d 795d 21be
00000020: 5555 a73e 1958 983c db51 29be a606 a23c
00000030: 2a43 14bd 5a7a 37be bdff 923e b4e8 9e3c
00000040: cf65 b13e 011d a2bd 5a29 f1bd 8b28 9abe
00000050: ebea e2bc b062 eebd 8aa6 bd3d 5a92 8e3e
00000060: 2ab1 1abe bf82 b93e 0e4e 47be efaf d2be
00000070: dc8b 69bd 1034 863d 41a9 93be 3500 c0be
00000080: e1d2 42be 3955 4c3e d4ae dc3d 7c60 843e
00000090: 6870 b6bd d566 ccbe 8227 f1bd b9fe 713d
000000a0: a08f 93bc af47 3abe b8f5 723e 937b 24be
000000b0: a190 8fbe 9985 253e 534d a8bd 35ef 6c3e
000000c0: 1d1a 2abd c556 743d fda7 aa3d 09f4 84be
000000d0: ae99 04be 9c0d acbd 222b 53be b6b8 5a3d
000000e0: 32a3 b23c fba6 22be bafd 233e 7d21 1fbe
000000f0: 46e7 2c3c 5713 f2bb ee40 7bbe e21c 90be
00000100: 0c13 473d 59b0 e93d 11f1 4fbe 9f89 833d
00000110: ae8f 9dbe a677 343e 5ecf 6b3e cfe7 c43d
00000120: b4fc 37be 1da8 4b3e 1107 973e c1fb 04be
00000130: 52d1 8dbd 462a 693d 1fdb aa3d b4a5 a6bc
00000140: f338 85be 0c07 2cbe 0315 aebb dfab ccbd
00000150: 0545 a63e d8ad bb3c 8f6f e5bd b422 83be
00000160: c768 b0be 9041 2f3e e148 b43e 5753 c5bd
00000170: d911 b6be 69cd ea3d 25e3 903e 6607 63be
00000180: a1e1 1dbe 716c fc3b f1dc 42be e42c 0abe
00000190: b4bc d83d 9b40 83be a8cf efbd e91d 16be
000001a0: dbb3 673e f8a1 8c3d 4dcc 623e 878d 79be
000001b0: 730d 7a3e 7efc cf3b 83c1 1cbe 115b 983d
000001c0: aac7 5dbe 66e5 973c 7b09 1f3e 582f 52be
000001d0: b723 ad3e 306c 0c3e 613e abbd 8851 f43d
000001e0: bfe7 ecbd 297b 2fbd b8bc dcbd 1346 d43d
000001f0: b6f0 ea3d 9a49 df3d f8cd 743e b4ae 983e
00000200: fa93 ae3e 72bb 9ebe e12b 853d 6fbe b8bd
00000210: 3ca7 3e3e d1e4 c8bd 4616 283e 7c22 8bbe
00000220: 8f93 293e 060f 943e fe07 c5bd 5021 87be
00000230: bcb2 a6be b4bf 3bbd 3037 95bc dd4a 1fbc
00000240: ee55 cdbc b5f4 5d3e 7f5e 7cbd 6330 f83d
00000250: f3f0 48be 09de 903e edb7 cc3d 9b02 4ebd
00000260: 3ed9 733e 9450 7c3d 7e72 26bd 526e acbc
00000270: 62da 2e3d 42a1 963d c06a 62be a0ec c3bc
00000280: 0ab7 0c3e a1ce 1ebe e7b5 843d eccb 80be
00000290: c51a 76be 082c 32be 7d12 5abe 7ab0 523d
000002a0: 07b6 343e 1bc1 8a3e 3b26 5f3e ce2e 283e
000002b0: f16e 3c3e 3755 c5bc 18ad 743e 9bd1 53be
000002c0: 8cf5 91bd 26f1 0dbe 2604 35be 173a 27be
000002d0: 94e7 0fbe 8e5e 4a3e 7b79 eebd fccf 9abe
000002e0: 80a9 47ba 7880 803e 8df5 20bc 8560 703d
000002f0: 6bb0 96bb 84db 813e 86de adbe 965f 473e
00000300: a122 fd3d 84e0 3a3e 2535 41be cc17 dabd
00000310: 9a01 51bb e47c 883e 6a96 873d b932 97be
00000320: e953 663e 3d59 cd3d 734a 39bd d2cd 92be
00000330: 1953 ccbe 8345 7d3e 5531 50be ea73 b7bd
00000340: 6e58 dcbd ba80 4e3e 4fb6 8bbe e307 40be
00000350: 62de 39be 0209 48be 6eb0 1a3e 9d54 563e
00000360: 74bf 0e3e b359 663e 906b 9fbe a0f3 f93c
00000370: 3ac2 97be 4d86 9c3d a9db a4be 7c61 bbbe
00000380: aed7 8d3e b56c c6bd 3313 1b3d f05c c1be
00000390: 184a a9be 31d9 ad3d 98ba d9bc 054c 4d3e
000003a0: c911 37be 4b2d 5e3e adc6 32be 628a c23e
000003b0: 97fc c13e edc5 f23d 9416 24be efb5 a33d
000003c0: 52c9 47bd a54f 54be 1af7 92bd 61d2 e7bd
000003d0: 9aad 23be bf1c 88be 7178 a33e 94ef bbbe
000003e0: 2a7b 07be e393 393d 1263 3d3e 1fe7 b83e
000003f0: cc83 8cbd 5916 fd3d 7b7c 323e a7c8 fabd
-0.19219019 0.04291949 -0.23581639 0.11904368 0.20045657 0.20735407 0.06386792 -0.15758313
0.3268229 0.018596696 -0.16535132 0.01977856 -0.036196865 -0.17917767 0.28710738 0.01939807
0.34647986 -0.07915688 -0.11775465 -0.30109057 -0.027699908 -0.11639917 0.092602804 0.27846032
-0.15106645 0.36232564 -0.19463369 -0.41149852 -0.057018146 0.06552899 -0.28840068 -0.37500158
-0.19025756 0.19954385 0.10775533 0.25854862 -0.089081585 -0.39922205 -0.11775114 0.059080813
-0.018012822 -0.18191408 0.23726547 -0.16062765 -0.2804003 0.16164245 -0.082178734 0.23138125
-0.04152881 0.059653062 0.083328225 -0.25967434 -0.12949249 -0.08401033 -0.20621923 0.05339881
0.021806333 -0.1588401 0.16014758 -0.15540119 0.010553187 -0.0073875594 -0.24536487 -0.28147036
0.04860215 0.11410589 -0.20306803 0.064227335 -0.3077368 0.17623767 0.23028323 0.096145265
-0.17967492 0.19888349 0.2949758 -0.12986661 -0.0692469 0.05692508 0.08342575 -0.020342685
-0.2602001 -0.16799563 -0.0053125634 -0.09993719 0.32474533 0.022910044 -0.11202919 -0.25612414
-0.3445494 0.17114854 0.35211852 -0.096350364 -0.35560492 0.1146496 0.28298298 -0.22170791
-0.15418102 0.007703357 -0.19029595 -0.13493687 0.10582867 -0.25635228 -0.11709529 -0.14659847
0.22627203 0.068668306 0.22148247 -0.24370395 0.24419193 0.006347238 -0.15308194 0.074392445
-0.21658197 0.018542003 0.1553096 -0.20525873 0.3381631 0.13713145 -0.08361507 0.11929613
-0.115676396 -0.042842064 -0.10778183 0.10364928 0.11471693 0.1090271 0.23906696 0.29820788
0.34097272 -0.31002384 0.0650251 -0.09020697 0.18618482 -0.09809268 0.16414747 -0.27174747
0.16560195 0.28917712 -0.09620665 -0.26392603 -0.32558239 -0.04583712 -0.018214792 -0.009722439
-0.025065389 0.2167538 -0.061613556 0.12118604 -0.19623165 0.282944 0.099960186 -0.050295454
0.2381334 0.061600283 -0.040636532 -0.021048699 0.042688735 0.07354976 -0.22111034 -0.023916543
0.13741699 -0.1550851 0.064800076 -0.2515558 -0.2403365 -0.17399609 -0.21296115 0.051437832
0.17647563 0.27100453 0.21791928 0.16424105 0.18401696 -0.024088485 0.23894155 -0.20685427
-0.071269125 -0.13861522 -0.17677364 -0.16330753 -0.14053184 0.19762632 -0.11644264 -0.30236804
-0.0007616505 0.25098014 -0.009824169 0.0586858 -0.0045986674 0.2536279 -0.33958834 0.19470057
0.123601206 0.18249708 -0.1886793 -0.1064907 -0.0031891824 0.26657784 0.06620486 -0.29530886
0.22492947 0.100267865 -0.045237016 -0.28672653 -0.39907148 0.24733548 -0.20331319 -0.08957656
-0.10759054 0.20166293 -0.27287528 -0.18753009 -0.18151239 -0.19534686 0.15106365 0.20930715
0.13940221 0.22495155 -0.3113675 0.030511677 -0.2964037 0.07642803 -0.32198837 -0.36597812
0.27703613 -0.09688703 0.037860107 -0.37766218 -0.33064342 0.084886916 -0.026578233 0.2004853
-0.17877878 0.21696965 -0.17458601 0.37996203 0.37888023 0.118541576 -0.16024238 0.079936855
-0.04877598 -0.20733507 -0.07176037 -0.113194235 -0.15984192 -0.26584432 0.31927827 -0.3670622
-0.13230577 0.04530705 0.18494824 0.3611383 -0.06861076 0.12357778 0.17430298 -0.12245303

conv2.bias f4 [32]
00000000: e11d 28bd 6e4d 3c3d 7e7e b9bc d98b 383e
00000010: 15b4 083e 6c1c 9f3d 5c97 9e3d 1cb1 85bd
00000020: 0170 233e d211 5c3e 8f5d 2ebe e6fd 7fbe
00000030: 0e3f b0bd 21a9 6cbe 9710 1d3e de4f 5b3d
00000040: 53dc f33d ae90 333e 2cb9 82bc 01e3 6fbe
00000050: 24e8 7b3d 58e3 29bd e433 24bd 6e58 ab3d
00000060: c1b5 22be cb99 043e 33a9 32bb cde7 74be
00000070: e0a0 26be b130 243d 067c cabc cd02 2abe
-0.04104412 0.04597228 -0.022643324 0.18022098 0.13349946 0.07769093 0.07743713 -0.065279216
0.15960695 0.21491173 -0.17027877 -0.24999198 -0.08605777 -0.23111393 0.1533836 0.053542964
0.11907258 0.1753566 -0.015957437 -0.23426439 0.061500683 -0.041476578 -0.04008855 0.08366476
-0.15889646 0.12949292 -0.0027261495 -0.2391655 -0.16272306 0.0400855 -0.024717342 -0.16602631

pool.weight f4 [1, 32]
00000000: 6d46 ef3d cc7e b9bb caca 2f3d 116e cebd
00000010: c9c4 b4bd 1be2 a23c b26b debd 15aa ce3c
00000020: 2065 30be 2e1d 18be 9fa5 d63d 956e fc3d
00000030: 3cf2 383d 09f6 c63d dcc8 25be 160e ddbd
00000040: 5de4 86bd 82c4 4ebe e113 02bd 01ac 633e
00000050: 880c 12be 43c8 42bd ca0d 673d 852d 88bd
00000060: 620e 2e3e 7df7 a8bd d26f 5dbd a098 7a3e
00000070: 7730 c93d db9f c1bd 9511 f9bd 6bbb 0f3e
0.116833545 -0.0056608673 0.042918004 -0.10079587 -0.08826596 0.019883206 -0.10860385 0.025227586
-0.17226076 -0.14854881 0.104808085 0.12325779 0.045152888 0.09714896 -0.16189903 -0.10793702
-0.065865256 -0.2019215 -0.03175724 0.22233583 -0.14262593 -0.047554266 0.056409635 -0.06649307
0.16997674 -0.0825033 -0.05406172 0.24472284 0.09823697 -0.09454318 -0.12161557 0.14036338

conv3.weight f4 [32, 32]
00000000: 0783 52be aad0 413e 4a67 b3be bb41 a5be
00000010: 1ffc fa3e 9aa4 033e 4d92 18be 00eb 17bd
00000020: 98e9 d93d 08d8 13be 7049 033e 39ec 703e
00000030: c128 93bd da85 dfbe 45d0 4fbe bd97 673d
00000040: 0f20 513e 5b4c 9e3d ff7b 93be c587 15be
00000050: a7cd 003e 34da 433e 3b53 673d 6e08 06be
00000060: 223c 983e 2c53 4ebe 33d9 cfbc 380c 7cbd
00000070: 063e 09bd 3e01 4ebe 5b54 2e3e bccf 943b
00000080: 7831 5b3e e66b 0dbe c27c d3bd 270e 3ebd
00000090: 3cae a93d b832 a73e 167b 313d 4dba a83e
000000a0: 4817 31bc 6c77 d5be eb79 05be d618 5d3d
000000b0: eb2e 88be 72cc 363e d8f7 6c3e 146d f8bd
000000c0: 6e93 09be e4e6 54be a066 363d 4cd9 923d
000000d0: 0262 173e 803a aebc 0d35 84be 3106 b03e
000000e0: b4b6 6c3e 0692 7abe bb07 25be 7263 b2bd
000000f0: af6c 00be 2855 81be d089 6e3e f0ea 573e
00000100: c1d1 c23d ddbf 35be 517e 87bc d7e3 193e
00000110: 538f 3f3e cdfe 1bbe 5866 c83b b7b8 e03d
00000120: c134 a63e b8bd 963e 4f34 933e af7c 5c3e
00000130: 3827 81bd b369 683e 7150 0ab8 21f8 043d
00000140: 4cac 693e f897 f6bc bdcd ae3d 2245 58bb
00000150: 12c9 28be c62a 8ebe 7e7d af3e f5fb 433e
00000160: 5425 2e3b 8993 45be 21da 983e a19e 513d
00000170: 24f3 0a3e b16a 1dbe 0cfc 433e 49af 043d
00000180: bd07 ee3e 1e18 dd3d 4d9b 8d3d 2d7e 963e
00000190: 86e9 76be 3fcb 993e 6802 a83e df0c 9e3e
000001a0: 1544 f9be c62e 80bd ef44 49be 3201 da3e
000001b0: 79bc bbbe 30f4 e43e b5b2 5d3e 471e 8cbe
000001c0: 8218 01bf 295c af3d 2e4a 463e b1f7 883e
000001d0: 8e66 6bbe 7754 723d d540 043d 064e fc3d
000001e0: 9745 bcbe f13f 103e cebd 3a3e 239b 003d
000001f0: 213c c63e 6d5e fd39 d8bf 753d 3be4 823d
00000200: c3c5 643e 9a6a 583e 2b2c ffbd c323 ff3e
00000210: 7705 b8bc 6360 f33c 39c2 c5be 4ff1 ef3e
00000220: 2ca9 dcbc 8ed3 91be 8ec2 52bd 2792 efbd
00000230: 1936 9e3e ef4f 9c3e 526f 09be c649 753e
00000240: f9ac 0dbf fe94 513d 6f2a ed3e 9158 813e
00000250: 2f80 5abe 7032 c23d b18c cf3e 38ce c1be
00000260: e193 c1be e17d a0be 9b49 ad3d e23e bc3e
00000270: 9dfa 083f 58b1 113e 17ae 453e 9d07 07be
00000280: 8f1c 4a3d 4784 c7be 8795 d8be ecca af3e
00000290: 7371 18bd 5008 f53e e040 593d 332e 87bd
000002a0: 0dc4 8bbe 4373 b8be 09cd a13e 554a 2e3e
000002b0: cb5b 50be 15cd 2e3e 1a8e fcbd bc6a 92be
000002c0: 727f b13d c970 783e 2918 0a3e 0075 70be
000002d0: c119 de3d a4bd 913e d9c3 d3be 2263 f33d
000002e0: 2ee3 9cbe 93df ddbb 4266 93be e8f2 c7bd
000002f0: a399 bc3e ccb3 19be 3eb0 b1bd 07a9 d5bd
00000300: 3f88 843e 503c a13e aa70 003e 33e3 fc3d
00000310: c924 1d3e 2210 babe acc9 a93d 0786 27be
00000320: d000 2cbe 8fc2 9cbe 4953 363d 8e8f 583e
00000330: 9893 ccbc e095 913e 5360 6a3b 7b29 87be
00000340: de86 05bf a936 b83d 2704 aa3e 5e9a 8e3e
00000350: b78c a9bd c769 82bd 102d ae3e e399 8bbe
00000360: 1d07 bebe 62a2 74be 46d5 733e 4470 b0bc
00000370: a5e4 60be 03d4 ab3d 4737 c83d 9c50 183e
00000380: fe51 a8be 7a0e bc3e 7171 ae3e 0614 3ebe
00000390: 9eb5 a83d aa7d b5be e9a2 2bbe bc3c a9be
000003a0: 4dbb d93e dddc c13e 6f3c b63d 32e2 0bbc
000003b0: 9f16 12bd f2c8 243e 6763 8e3e 559c 313e
000003c0: 3ecf a13e 3dd0 1fbe 626f a33d 8d83 18be
000003d0: febc 0bbd cae7 423e 6b93 ec3c ed31 c3bd
000003e0: dda2 b13d 348e 993b 5f9f 2dbe ab00 813e
000003f0: ca72 0e3e ec67 1cbe 0a11 16be 148b 75bd
-0.20557795 0.18927255 -0.3503974 -0.3227671 0.49020478 0.1285576 -0.1489956 -0.037089348
0.106402576 -0.14437878 0.12820983 0.23527612 -0.071855076 -0.43656808 -0.20294292 0.056541193
0.20422386 0.077294074 -0.2880554 -0.14602573 0.1257845 0.19126207 0.05647586 -0.13089153
0.29733378 -0.20148915 -0.025372123 -0.06153509 -0.033506416 -0.20117661 0.17024367 0.0045413654
0.2140559 -0.13810691 -0.1032653 -0.046400215 0.08285186 0.32655883 0.043330275 0.32954636
-0.010808773 -0.41692674 -0.1303479 0.053978764 -0.26598296 0.17851427 0.2314142 -0.1213018
-0.13435146 -0.20791203 0.044531465 0.07170352 0.14783481 -0.02126813 -0.25821725 0.34379724
0.2311657 -0.24469766 -0.1611623 -0.08710374 -0.1254146 -0.25260282 0.23294759 0.21085715
0.09512664 -0.17748971 -0.016539725 0.1502832 0.18707018 -0.15233918 0.006115716 0.109727316
0.32462123 0.2944162 0.28750846 0.21531938 -0.063063085 0.22696571 -3.297668e-05 0.032463197
0.22819632 -0.030101761 0.08535335 -0.003300019 -0.16482952 -0.2776701 0.3427543 0.19139083
0.0026572542 -0.19294561 0.2985392 0.05117667 0.13569313 -0.15372731 0.19139117 0.032393727
0.4649028 0.107956156 0.06914387 0.2939314 -0.2411252 0.30037877 0.32814336 0.30869195
-0.48684755 -0.06258921 -0.19655202 0.42579037 -0.3666723 0.4471755 0.21650203 -0.2736685
-0.5042802 0.085625 0.19364235 0.26751474 -0.2298834 0.059162583 0.03228839 0.12319569
-0.36771843 0.14086892 0.18236467 0.03139795 0.3871775 0.00048326273 0.05999741 0.06391188
0.22341065 0.21134415 -0.12459596 0.49831972 -0.022463543 0.029709047 -0.38624743 0.4686379
-0.026936136 -0.28481716 -0.051455073 -0.11697798 0.30900648 0.30529734 -0.13421372 0.23953924
-0.5534206 0.05116748 0.46321437 0.25262883 -0.2133796 0.094822764 0.40537027 -0.37852645
-0.37808135 -0.31346038 0.08461305 0.36766726 0.53507406 0.14227808 0.19304691 -0.13186498
0.04934364 -0.38968107 -0.4230158 0.34334505 -0.03721757 0.47857904 0.053040385 -0.06600609
-0.27298012 -0.36025438 0.31601742 0.17020543 -0.20347516 0.1707042 -0.12331791 -0.28597057
0.086668864 0.24261774 0.13485779 -0.23482132 0.10844756 0.28464997 -0.41360357 0.118841425
-0.30642074 -0.006771037 -0.28788954 -0.097631276 0.36835966 -0.15009993 -0.08676194 -0.1043263
0.25885198 0.31491327 0.12542978 0.12348022 0.15346064 -0.36340433 0.08290419 -0.16359721
-0.16797185 -0.30617186 0.04451302 0.21148512 -0.024972722 0.28434658 0.003576298 -0.26398835
-0.52158916 0.089948006 0.33206293 0.27852148 -0.08278792 -0.06367832 0.34018755 -0.27265844
-0.37114802 -0.23890069 0.23811826 -0.021537907 -0.21962221 0.083900474 0.09776168 0.148745
-0.32875055 0.36729795 0.34070924 -0.18562326 0.08237766 -0.35447437 -0.16761364 -0.3305415
0.42525712 0.37863818 0.088982455 -0.008537816 -0.035666104 0.1609228 0.27810213 0.17344792
0.31603426 -0.1560678 0.07980229 -0.14893933 -0.034115784 0.19033733 0.028878888 -0.09531007
0.08673642 0.0046861414 -0.16955326 0.25195822 0.13910976 -0.15274018 -0.14654937 -0.05994709

conv3.bias f4 [32]
00000000: ff9b 543a 7478 f93c 3c04 b7bc 40cf 8c3c
00000010: 783b 1c3d b12b b6bc 9c73 27bd 4672 163d
00000020: 3620 84bc 021e 1d3d cd3a b33c f756 22bd
00000030: a82c 103d 673b 2abd 2a41 50bd d891 a53c
00000040: f8b7 f23c 620b fe3b 86da 36bd d6f6 c83c
00000050: 253b 18bc 6a0d 5a3c 4108 6f3b b28c 953a
00000060: 949f 66bc 5b40 51bd 032f 05bd c126 a4bc
00000070: 8f49 e13c 790d 093b db7f 603d 47cf 233d
0.00081104034 0.030452944 -0.022340886 0.017188668 0.03814265 -0.02223763 -0.040881738 0.036730073
-0.01612864 0.038358696 0.021878624 -0.039633717 0.035198838 -0.041560557 -0.050843395 0.020211145
0.029628739 0.007752822 -0.044641994 0.024531763 -0.009291445 0.013308862 0.0036473426 0.0011409728
-0.014076132 -0.051086765 -0.032515537 -0.02003801 0.027500896 0.0020912571 0.054809432 0.039992597

conv4.weight f4 [32, 32]
00000000: 8c36 8f3e 4ed0 ee3e 888b d0bd 42ca 243e
00000010: 3cde 67be f423 433e 28d1 043e 6909 d7bc
00000020: 4471 15be e81c 4f3d 9df4 633e 2f2c b73b
00000030: 3341 5bbe 3f05 2bbe b8ba 04bd a082 0d3e
00000040: 7eb4 213e e3d8 5d3e a197 3f3e aec5 89bd
00000050: 2eb6 d8bd 64b5 68be 1e9d e63b 8e9c 983e
00000060: 4c75 d83e f57a ee3d 107e 563d aa08 85be
00000070: 0f59 b2bd 0b41 23be 68ed 6fbe 48eb 573e
00000080: 5296 563e ca16 893c 9c3f 2abe 4947 233e
00000090: 5ad0 90be c57f 63be 8156 2d3d dbab 8b3e
000000a0: c132 1c3e 91cc 9e3e a904 883e ea6e ffbd
000000b0: c858 5a3e d581 9cbe eb12 473e ae7a 9abe
000000c0: 076a dcbd 00fa ff3d ae78 ecbb 6994 a5be
000000d0: 7e6b 223e 3602 8e3e 30a7 483e 5567 523e
000000e0: 362d 0dbe 73a6 a73d 401f 92be 6343 d83c
000000f0: 7a16 e93c 6dd3 7bbe 72b0 3e3d bce7 efbd
00000100: 6438 d8bd d575 07bf 74c3 133e d632 773e
00000110: d260 943e 6350 823e 1b3f 8cbe cc1b cb3e
00000120: e963 983e ed7f 373e c63a 403e 1a4b c03d
00000130: 2fcf 393e 6d1c 15bc 790b 5dbe 6a7d b43c
00000140: 204d 81be 8b3f 5a3e b51b f13e 1185 36be
00000150: f9ff a53e 57b1 ac3c 762e 4cbe 4ec7 3f3e
00000160: 5c18 c2bc fc1b 8b3e 88ec 003e 78f8 9a3e
00000170: 37c5 343e 540b 0f3e edd9 91be 52a0 abbd
00000180: a5cb 923d 0002 373f 2db2 b03c efc1 b83d
00000190: 612f 89be ad2b 16be f540 263e b287 253e
000001a0: 482e c53d b62d e33d bcce 223e c93e 5abd
000001b0: fc84 333e 9418 b43e e835 aabb adba 44be
000001c0: 14de afbb b2e4 a33d a723 1d3e 942e b1be
000001d0: 36ef 723d 9877 ea3c 1174 a73d 2a88 213d
000001e0: 1f76 323f 8847 57bd 8eba 493e 52b0 7cbe
000001f0: f859 463e 5961 c53d b401 5dbe 12c8 0f3e
00000200: 6acc 1cbd aaaa 33bf 4300 a1bd a10b 993e
00000210: 3d1b a13e 6fb7 ea3c cc2f 34bd ca45 6dbe
00000220: 0d97 8ebd 72fb 95be ff16 93be 2bc4 603d
00000230: b33c 3f3e 0f9b aa3c 8cee 63be edb2 b4bd
00000240: bb15 283e aeb3 6d3d 7175 dd3d a188 84be
00000250: 12ed fbbd 69ca 9e3e a230 e7bd 7671 26be
00000260: 8027 5cbf 8e06 3b3e acde a23d f607 083d
00000270: f446 8d3e 3ad8 4b3e ed27 493e e935 323e
00000280: e999 9cbd 23e0 3f3e 8c13 46be 5050 0f3c
00000290: 13b8 6dbe 9391 dfbd 0f2d 27be 084e 863b
000002a0: 3fcd b93d 519f 57be 1880 bf3d 669f a93d
000002b0: e9ee 813e 8509 8a3e a835 413e a367 673e
000002c0: 4877 023d af5c a23e 3a47 cebe d32b 8b3e
000002d0: 91c1 5e3e 712d a33d 989e fcbd 23ea a7bd
000002e0: 14bd de3e 4824 9a3c 14a0 863e 649e 1a3d
000002f0: 5dc1 c83c e65a 8bbd ff57 98be 98f9 77be
00000300: 3c09 87be 0859 3bbe bdc6 43be 70b7 09be
00000310: c5b3 763e c4e8 643c 984a 5b3e 6c11 9fbe
00000320: 3297 963e d2d8 9b3e ad7b 563e e6db 9fbd
00000330: c56b cdbc 7b8d d13d c7b7 aebd 3808 3b3e
00000340: 3a6d cbbd 090a 84be e320 adbd a001 9d3e
00000350: 751a 123e 1746 fb3d 9262 823c 7109 063e
00000360: 5c08 343e 1569 06be ecab fd3d 7d39 08be
00000370: c3c8 92be 5d18 3fbe 4452 12be b367 a0be
00000380: ce0f 9cbe e6b4 1c3f debb 193d 1f19 77bc
00000390: 48d7 86be 9867 c83d 1728 8f3e a02b c73e
000003a0: caa7 72be e09d 23bd 21e1 8b3e d6c8 6e3e
000003b0: b3e4 9b3e fd84 8dbe afe0 82be 6431 16be
000003c0: c4d3 f83d a7e3 8ebe cd57 5b3c 0a67 e93d
000003d0: 8562 213e d4e2 69bd 380a 333e 4fb3 d73d
000003e0: 6b9d fe3e 2608 45be 2d35 363e 7298 493d
000003f0: d099 a3be 9501 d23d 81b3 73be 6b64 863e
0.27971303 0.466433 -0.101828635 0.1609278 -0.2264337 0.19056684 0.12970412 -0.026249604
-0.14593989 0.050564677 0.22261281 0.005589984 -0.2141159 -0.1670122 -0.03240463 0.1381936
0.15791509 0.21664767 0.18710186 -0.067271575 -0.10581623 -0.22725445 0.007037773 0.29806942
0.4227699 0.11644546 0.052366316 -0.25983173 -0.08708393 -0.1594278 -0.23430407 0.21085846
0.2095578 0.0167345 -0.16625828 0.15945162 -0.2828396 -0.22216709 0.042318825 0.27279553
0.15253736 0.31015447 0.26566055 -0.12472327 0.2132293 -0.30567804 0.1944081 -0.30171722
-0.107624106 0.124988556 -0.0072165346 -0.3233979 0.15861318 0.27736062 0.19595027 0.2054723
-0.13786778 0.081860445 -0.28539467 0.02639932 0.0284531 -0.24592371 0.04655499 -0.11714122
-0.10557631 -0.5291417 0.14430028 0.24140486 0.28980118 0.25451955 -0.27391896 0.39669645
0.29763725 0.17919894 0.1877242 0.093893245 0.1814544 -0.0091010155 -0.21586408 0.022032458
-0.25254154 0.21313302 0.4709145 -0.17824198 0.32421854 0.021080656 -0.19939598 0.18728372
-0.023693256 0.27169788 0.1259023 0.30267692 0.17653356 0.13969165 -0.28486577 -0.08380188
0.07167748 0.71487427 0.021569336 0.09021365 -0.2679396 -0.14665098 0.16235717 0.16165045
0.09627968 0.11092703 0.15899175 -0.053282533 0.17531198 0.35175002 -0.0051944144 -0.19211836
-0.00536705 0.080026045 0.15345632 -0.3460585 0.05931016 0.02862148 0.08176435 0.039436497
0.6971149 -0.052558452 0.19700071 -0.24676636 0.19370258 0.09637708 -0.21582681 0.14041165
-0.038280882 -0.7018229 -0.07861378 0.29891685 0.31466094 0.028651921 -0.043990895 -0.23171154
-0.069624044 -0.292934 -0.28728482 0.05487458 0.18675499 0.02082589 -0.22258967 -0.0882319
0.1641454 0.058032684 0.10813416 -0.2588549 -0.12301077 0.31013802 -0.11288573 -0.1625422
-0.8599777 0.18264219 0.079526275 0.033210717 0.27593195 0.19906703 0.19644137 0.17403378
-0.076465435 0.18737845 -0.19343394 0.008747175 -0.2321475 -0.10916438 -0.16325782 0.0040986575
0.09072351 -0.21056868 0.09350604 0.08282356 0.25377586 0.26960388 0.18868124 0.22598128
0.031852037 0.31711337 -0.40288717 0.27181873 0.21753527 0.07967652 -0.12334937 -0.08198955
0.4350363 0.018816128 0.26294005 0.03774871 0.024506265 -0.06804447 -0.29754636 -0.24216306
-0.26374233 -0.18295681 -0.19118781 -0.13448882 0.24092014 0.013971511 0.21415174 -0.3106798
0.29412228 0.30438858 0.20945616 -0.07805614 -0.025075803 0.102320634 -0.085311465 0.18264854
-0.09932943 -0.25788906 -0.08453538 0.30665302 0.14267905 0.12269228 0.015916143 0.13089539
0.17581314 -0.13126023 0.12386307 -0.1330318 -0.28668794 -0.18661638 -0.14289194 -0.31329116
-0.30480808 0.6121353 0.03753268 -0.015081673 -0.26336122 0.09785384 0.27960274 0.3890047
-0.23696819 -0.039945483 0.27320197 0.233188 0.3044792 -0.27640525 -0.25562045 -0.14667279
0.12149766 -0.2790806 0.013387633 0.11396606 0.15760238 -0.057101086 0.17484367 0.10532247
0.49729475 -0.1924139 0.17793722 0.04921765 -0.31953287 0.10254208 -0.23798944 0.26248488

conv4.bias f4 [32]
00000000: 01b4 86bd 013e 393d dd3f 8bbd e605 7c3d
00000010: f205 98bd 3ac9 9a3d bba0 acbd 23c6 853d
00000020: 5488 93bd 1115 b0bd fc8d b33d 9289 70bd
00000030: 1eb0 973d d6cc 96bd d99d 96bd 7b5f 99bd
00000040: 31bb 833d 1cd0 953d fb4a 59bd 1313 9b3d
00000050: 7b24 9cbd 3e56 8ebd c383 a63d f04d bcbd
00000060: b2b9 d33c 1730 95bd d78b 6cbd 979e c0bc
00000070: 7d04 bb3d 8aec 9cbd b5aa b83d 2785 9d3d
-0.06577302 0.045225147 -0.0679929 0.061529063 -0.07423009 0.07557912 -0.084290944 0.06531932
-0.07203737 -0.08597768 0.08767316 -0.058724947 0.074066386 -0.07363288 -0.07354326 -0.074889146
0.06432188 0.07315084 -0.053050023 0.075719975 -0.076241456 -0.06950043 0.081306 -0.09194553
0.025845382 -0.07284563 -0.05775055 -0.023513122 0.091317154 -0.07662304 0.09016935 0.076914124

conv5.weight f4 [32, 2]
00000000: 9ad1 863c 4b9f 19bd 05f9 4cbe 3668 f83e
00000010: fd6e ec3d fa6a e1bd f210 2c3e 5fc2 c03d
00000020: e938 ffbd 88a4 1bbe eb7c 723e 8294 a13e
00000030: 802c f9bd 8b84 78be 0734 e93e d814 72be
00000040: 4dcc 813d b685 bdbd 166f 973d 9a48 41be
00000050: d261 993e 876d 9d3e eaac 83be 7a7d 143d
00000060: d354 c33d 3599 793e 775a a8be f25e 88be
00000070: 6799 b8bc 8a8b 2ebe 2097 1fbe be3a 63be
00000080: 9fa0 4f3b 2d0c 813d 4732 273a 0006 1c3a
00000090: dd86 9f3e 68a5 8abe 8d49 5ebe f8fd b13e
000000a0: f530 6e3e 4c88 b5be c18a 4e3e edb3 68be
000000b0: 2933 893e bbe6 7d3e b5c8 8e3d 4dbe a1be
000000c0: 62c1 b3be cd77 9b3e c253 14be 3ff6 a8be
000000d0: ec77 84be cd7d d8bc 178f f43d 77b7 c4bd
000000e0: 5bca 993e a78c ae3e 8a54 55be 926d 65be
000000f0: f2b7 213e 0666 963e a24a b23d 9dfd 483e
0.016457368 -0.03750543 -0.20016868 0.48517007 0.11544607 -0.11006732 0.16803339 0.09412073
-0.124620266 -0.15199482 0.23680465 0.31558615 -0.12166691 -0.24269311 0.45547506 -0.23640764
0.063377954 -0.09254019 0.07394235 -0.18875352 0.29957443 0.30747625 -0.2571786 0.036252476
0.09537663 0.2437485 -0.3288152 -0.26634938 -0.022534085 -0.17045417 -0.15584993 -0.22190377
0.003168143 0.063011505 0.00063780363 0.0005951822 0.3115758 -0.2707932 -0.21707745 0.34764075
0.23260863 -0.3545555 0.20170118 -0.22724886 0.26796845 0.24795048 0.069718756 -0.315905
-0.35108477 0.30364838 -0.14485076 -0.3300037 -0.25872743 -0.026427174 0.11941355 -0.09605306
0.30037197 0.34091684 -0.2083303 -0.22405079 0.15792826 0.29374713 0.08705641 0.19627996

conv5.bias f4 [2]
00000000: 3bd7 ff3d a3a2 3a3e
0.12492224 0.18226103
