GST-recon/checkpoints/best_grid_TopkPool_0.25.pth (torch, 17362 bytes, 11 tensors)

conv1.weight f4 [2, 32]
0.012878927 -0.23381971 0.07066829 0.073713265 -0.09504507 0.042560402 -0.11445042 0.18052053
-0.05693834 0.24571088 0.3577265 0.05231415 -0.2164902 -0.25907922 -0.0402552 0.02985242
0.10297886 -0.32009664 0.40205994 -0.38030925 0.21041691 -0.18835782 0.23249485 0.102026604
0.1325843 0.10613571 0.26911655 0.03517583 0.2507225 -0.34975356 0.3017281 -0.043864798
0.10591539 -0.012694725 0.13336582 0.36490864 -0.06438537 -0.17440665 -0.0801698 -0.27291393
0.20253272 -0.1320615 -0.17507441 0.35733628 0.35167468 -0.0007978819 -0.08039306 -0.044815984
0.25657728 -0.38056463 -0.34231415 0.2711655 0.4235863 -0.14476533 -0.319283 -0.043843523
-0.17436375 0.0422199 0.1898477 0.15623839 0.026440984 -0.029893517 0.14354426 -0.29886022
00000000: 2302 533c 6f6e 6fbe 89ba 903d fbf6 963d
00000010: fda6 c2bd d153 2e3d fb64 eabd 60da 383e
00000020: 2d38 69bd a29b 7b3e ee27 b73e 5d47 563d
00000030: 9baf 5dbe 08a6 84be a3e2 24bd 108d f43c
00000040: 95e6 d23d b5e3 a3be cdda cd3e e5b7 c2be
00000050: 8877 573e dfe0 40be 2113 6e3e 53f3 d03d
00000060: 2ec4 073e ae5d d93d a5c9 893e 8814 103d
00000070: b35e 803e e612 b3be 1b7c 9a3e 93ab 33bd
00000080: 2bea d83d 89fd 4fbc 0d91 083e 4ed5 ba3e
00000090: 7adc 83bd a897 32be 1030 a4bd 60bb 8bbe
000000a0: bd64 4f3e 213b 07be b546 33be c8f4 b63e
000000b0: b40e b43e f328 51ba 1ea5 a4bd f790 37bd
000000c0: 195e 833e 5ed9 c2be cd43 afbe 34d6 8a3e
000000d0: 4ee0 d83e 5d3d 14be 1079 a3be 4495 33bd
000000e0: 698c 32be c6ee 2c3d 6f67 423e f5fc 1f3e
000000f0: c39a d83c 40e3 f4bc 44fd 123e 3504 99be

conv1.bias f4 [32]
-0.069326736 0.046058204 -0.05749741 -0.008933609 -0.022101335 0.027005944 -0.011007344 0.014041809
-0.023848087 0.020577265 -0.059006903 -0.019468877 -0.07815234 0.06777646 0.0503748 -0.0060384525
-0.0004305746 -0.05716513 -0.02363584 -0.08292886 0.014172784 0.032396022 0.066694304 0.041602906
-0.009802613 -0.033071484 0.0131624 -0.028524568 -0.047386624 -0.028017625 -0.07648912 -0.0070702173
00000000: 2dfb 8dbd 87a7 3c3d 6782 6bbd 465e 12bc
00000010: dc0d b5bc 923b dd3c 2658 34bc 9e0f 663c
00000020: 105d c3bc a791 a83c 39b1 71bd 327d 9fbc
00000030: 560e a0bd 62ce 8a3d ce55 4e3d 36de c5bb
00000040: bfbe e1b9 fc25 6abd f39f c1bc 9bd6 a9bd
00000050: f734 683c b1b1 043d 0697 883d cf67 2a3d
00000060: 249b 20bc f775 07bd 1ba7 573c 5bac e9bc
00000070: 7a18 42bd 3885 e5bc 54a6 9cbd 48ad e7bb

conv2.weight f4 [32, 32]
-0.07067411 -0.08623825 -0.08945329 0.08079741 0.15584931 0.22003296 -0.025848499 -0.23019266
0.231298 -0.17556302 -0.07152634 0.23738074 -0.03876174 -0.016678924 0.10100591 -0.11443845
0.15842502 -0.22079577 -0.12918516 -0.07900236 -0.1162216 0.030122798 0.2484231 0.02328907
-0.05247994 0.20344216 -0.27535582 -0.18312767 0.032563213 -0.030693194 -0.38371155 -0.23071365
-0.25665975 0.3689472 0.11412232 0.11409245 -0.24579592 -0.27078614 -0.1704864 0.05679339
-0.0619487 -0.17073931 0.180029 -0.11736364 -0.07792973 0.12498434 -0.0344824 0.22222237
0.09809567 -0.011873613 0.14339405 -0.22955804 -0.09263406 -0.2741562 -0.15805177 0.1278663
0.032945544 0.08977589 0.21605171 -0.2087198 0.13158965 -0.10632296 -0.19702286 -0.19671391
0.13996266 0.08898084 -0.13129453 0.058521792 -0.26529258 0.20656697 0.22181644 0.050870113
-0.1626905 0.1449312 0.25730273 -0.08271625 -0.101588905 0.09746968 0.033961914 -0.13101728
-0.32185277 -0.19936453 -0.013996274 -0.019603547 0.25102213 0.02884127 -0.04686592 -0.37580457
-0.29973435 0.13071941 0.23785776 0.005750468 -0.32508963 0.09047641 0.19085635 -0.19886449
-0.07071736 -0.014396257 -0.092512675 -0.11630459 0.15218413 -0.22027743 -0.12835696 -0.20648584
0.25243 0.032403007 0.15038614 -0.22970586 0.2149056 0.023657033 -0.17535484 -0.05314086
-0.27014795 0.010328077 0.14197347 -0.13811997 0.26667127 0.10434166 -0.013702607 0.0018269288
-0.06833711 -0.068436265 -0.252585 0.19772357 0.13182597 0.08787877 0.11325364 0.30957898
0.26479208 -0.24018323 0.0529136 -0.16185491 0.06248021 -0.052121118 0.093849786 -0.24956846
0.107544065 0.29096845 -0.055161003 -0.21720901 -0.17425744 -0.03608276 -0.0069240322 0.043372884
0.049271747 0.18954976 -0.01703385 0.11410343 -0.14597395 0.23314041 0.13855782 0.022753373
0.21664698 0.14227737 0.098948486 -0.09088393 0.10929527 -0.007274404 -0.13063386 0.02705027
0.065173626 -0.15268706 -0.02034057 -0.28907758 -0.27588937 -0.22330916 -0.20288345 0.12942553
0.15547766 0.29702988 0.29860502 0.14570259 0.19377446 -0.046485096 0.2513551 -0.08722319
-0.028664218 -0.12573667 -0.17885433 -0.23332636 -0.078010835 0.23550047 -0.19861192 -0.1804968
-0.047549292 0.26960674 0.12862101 -0.029305479 -0.03400161 0.2881488 -0.23268639 0.16966763
0.05960441 0.24490063 -0.196577 -0.23175861 -0.16640711 0.30184123 -0.027322143 -0.26128128
0.124076724 0.05836712 0.039710753 -0.18159254 -0.20978187 0.2965652 -0.22942378 -0.047151487
-0.04587155 0.13803504 -0.21687467 -0.15188056 -0.14524893 -0.21411803 0.20584452 0.2485646
0.15103887 0.28136718 -0.16116782 -0.0045070187 -0.18070629 -0.025559707 -0.2135724 -0.27559188
0.2201256 -0.12728304 -0.1301101 -0.18657264 -0.22429495 -0.0726418 0.08489045 0.27174154
-0.13513148 0.31835634 -0.1420098 0.22319332 0.2188458 0.026924495 -0.10764877 0.2208953
-0.034629274 -0.13713655 -0.14751798 -0.26070717 -0.08981787 -0.18441266 0.10625073 -0.26066172
-0.22462219 0.031803098 0.23420876 0.26937217 -0.27257812 0.30815893 0.20522153 -0.23330228
00000000: 96bd 90bd ae9d b0bd 4933 b7bd 1d79 a53d
00000010: f696 1f3e 5250 613e 3bc0 d3bc a0b7 6bbe
00000020: 62d9 6c3e cbc6 33be 677c 92bd f013 733e
00000030: a1c4 1ebd 3da2 88bc 30dc ce3d b55e eabd
00000040: 2b3a 223e 4918 62be 1d49 04be fdcb a1bd
00000050: 9705 eebd 16c4 f63c a062 7e3e b8c8 be3c
00000060: 35f5 56bd 2453 503e 70fb 8cbe d285 3bbe
00000070: 0161 053d 4b70 fbbc d775 c4be 3340 6cbe
00000080: e868 83be a6e6 bc3e f7b8 e93d 4da9 e93d
00000090: edb1 7bbe 7ba4 8abe fd93 2ebe 30a0 683d
000000a0: ecbd 7dbd 49d6 2ebe 8659 383e 595c f0bd
000000b0: 9f99 9fbd caf7 ff3d 6b3d 0dbd 438e 633e
000000c0: 62e6 c83d 8b89 42bc e4d5 123e 4311 6bbe
000000d0: edb6 bdbd 345e 8cbe 53d8 21be 62ef 023e
000000e0: e8f1 063d 6cdc b73d a93c 5d3e a5ba 55be
000000f0: 70bf 063e dabf d9bd 5cc0 49be 5f6f 49be
00000100: 5f52 0f3e 963b b63d 1372 06be 8cb4 6f3d
00000110: 6ed4 87be 4b86 533e d923 633e 2e5d 503d
00000120: 5798 26be d868 143e 2fbd 833e 2367 a9bd
00000130: d80d d0bd 2f9e c73d a61b 0b3d 6529 06be
00000140: e3c9 a4be 3726 4cbe a150 65bc 9e97 a0bc
00000150: f985 803e 8744 ec3c 7bf6 3fbd 7569 c0be
00000160: c876 99be 4fdb 053e fc90 733e 6c6e bc3b
00000170: 2672 a6be b24b b93d d96f 433e 22a3 4bbe
00000180: 43d4 90bd 47de 6bbc 4977 bdbd 1a31 eebd
00000190: 28d6 1b3e 6890 61be 0270 03be 0671 53be
000001a0: 813e 813e 04b9 043d d3fe 193e 0338 6bbe
000001b0: 3710 5c3e 65cc c13c 3890 33be 3baa 59bd
000001c0: d550 8abe 1837 293c 7e61 113e 526f 0dbe
000001d0: 2389 883e 15b1 d53d e680 60bc 8f75 ef3a
000001e0: 54f4 8bbd 5028 8cbd d252 81be 0c78 4a3e
000001f0: 63fd 063e c9f9 b33d 86f1 e73d 2381 9e3e
00000200: d492 873e 98f2 75be eebb 583d 4bbd 25be
00000210: 40eb 7f3d f47c 55bd 5134 c03d e08e 7fbe
00000220: 1040 dc3d d1f9 943e 81f0 61bd 0a6c 5ebe
00000230: 8b70 32be 84cb 13bd fee2 e2bb c4a7 313d
00000240: 2cd1 493d 5519 423e 938a 8bbc 0faf e93d
00000250: 327a 15be 5cbc 6e3e 1ae2 0d3e 4865 ba3c
00000260: b5d8 5d3e 29b1 113e 81a5 ca3d 5b21 babd
00000270: 33d6 df3d 205e eebb e2c4 05be 8798 dd3c
00000280: c079 853d ff59 1cbe 44a1 a6bc fa01 94be
00000290: 5f41 8dbe 28ab 64be aec0 4fbe 2088 043e
000002a0: 8935 1f3e 4d14 983e c2e2 983e 0f33 153e
000002b0: d06c 463e 2867 3ebd 9eb1 803e 12a2 b2bd
000002c0: 39d1 eabc 1dc1 00be 9725 37be 1bed 6ebe
000002d0: 25c4 9fbd 0927 713e ec60 4bbe 27d4 38be
000002e0: 0cc3 42bd e509 8a3e 3ab5 033e 0b12 f0bc
000002f0: 4645 0bbd 3d88 933e 5745 6ebe 5abd 2d3e
00000300: c123 743d 3bc7 7a3e 7b4b 49be 2152 6dbe
00000310: a066 2abe ef8a 9a3e b0d2 dfbc a9c6 85be
00000320: f01b fe3d 5c12 6f3d bea7 223d 65f3 39be
00000330: 0fd1 56be 65d7 973e 11ee 6abe eb21 41bd
00000340: cee3 3bbd 0f59 0d3e 6514 5ebe 9486 1bbe
00000350: 23bc 14be c241 5bbe e8c8 523e b887 7e3e
00000360: efa9 1a3e 5c0f 903e 2d09 25be 9daf 93bb
00000370: 120b 39be 9762 d1bc b9b2 5abe 611a 8dbe
00000380: 9b68 613e 7c56 02be 953b 05be e60c 3fbe
00000390: 93ad 65be 39c5 94bd 0bdb ad3d b521 8b3e
000003a0: e85f 0abe 9aff a23e 046b 11be ca8c 643e
000003b0: 1d19 603e c290 dc3c f576 dcbd 6132 623e
000003c0: 6dd7 0dbd 866d 0cbe f40e 17be 697b 85be
000003d0: 6ef2 b7bd acd6 3cbe fc99 d93d 7475 85be
000003e0: 5c03 66be f743 023d 6cd4 6f3e 26eb 893e
000003f0: 5c8f 8bbe 02c7 9d3e 9825 523e cbe6 6ebe

conv2.bias f4 [32]
0.06476186 -0.05443892 0.024847766 0.04145942 -0.06849759 0.050081074 -0.07021757 -0.008991536
-0.07759168 -0.06996076 0.07282504 0.06544562 0.039381582 0.074134946 -0.07670285 -0.027907694
-0.0278174 -0.04669055 -0.05143865 0.06139628 -0.063066565 0.01068974 0.004496901 -0.05120276
0.08598331 -0.015352492 0.027150678 0.08835251 0.04245909 -0.023339137 -0.014938795 0.07805952
00000000: dea1 843d 58fb 5ebd 8b8d cb3c 5ad1 293d
00000010: 7748 8cbd d021 4d3d 3bce 8fbd 3c51 13bc
00000020: 63e8 9ebd 9647 8fbd 4b25 953d 5a08 863d
00000030: 954e 213d 10d4 973d 6216 9dbd ad9e e4bc
00000040: 51e1 e3bc 973e 3fbd 55b1 52bd aa7a 7b3d
00000050: 0b29 81bd 0524 2f3c bd5a 933b fcb9 51bd
00000060: 0518 b03d 0589 7bbc 196b de3c 29f2 b43d
00000070: 95e9 2d3d b831 bfbc d9c1 74bc abdd 9f3d

pool.weight f4 [1, 32]
0.16501054 -0.16944617 0.095392525 0.105820015 -0.06063747 0.04862781 -0.15407515 -0.08137917
-0.10607436 -0.15784137 0.2012649 0.045866717 0.039405547 0.06338553 -0.22229889 -0.08196728
-0.10437509 -0.059543427 -0.031798996 0.10547111 -0.09891333 0.14812616 0.09351676 -0.19950376
0.023244996 -0.032457054 -0.013987549 0.20358936 0.022766048 -0.09658681 -0.102184825 0.17403981
00000000: 86f8 283e 4c83 2dbe 285d c33d 2ab8 d83d
00000010: ff5e 78bd f42d 473d e0c5 1dbe 1faa a6bd
00000020: 843d d9bd 2ba1 21be 6318 4e3e bdde 3b3d
00000030: b667 213d 46d0 813d 52a2 63be 76de a7bd
00000040: 9bc2 d5bd cfe3 73bd aa3f 02bd 3d01 d83d
00000050: 1293 cabd 62ae 173e b785 bf3d b74a 4cbe
00000060: 4a6c be3c b0f1 04bd 082c 65bc bb79 503e
00000070: dd7f ba3c 4ecf c5bd 4746 d1bd 7e37 323e

conv3.weight f4 [32, 32]
-0.12014041 0.420598 -0.15765776 -0.22124387 0.15372014 -0.12605041 -0.17627743 -0.027255416
0.07571314 -0.3186664 0.16894174 0.0118995495 0.17527813 -0.3210448 -0.045871366 0.23718672
-0.08646662 0.4147433 -0.04374918 0.013604043 0.15670474 -0.0682616 0.28765407 -0.3141884
0.25697014 -0.078700766 -0.03276759 0.22438146 0.07589292 -0.04443659 0.29453734 -0.012307274
0.11737708 -0.1291765 0.009971875 -0.076095186 0.32914424 0.2529778 -0.018967744 0.27062216
0.03618957 -0.28305036 -0.07607439 -0.037011683 -0.34102347 0.12527135 0.27246198 -0.21686105
-0.16430129 -0.32137308 0.12776552 0.07114056 0.17317526 -0.0904857 -0.27323243 0.30071828
0.29487723 -0.24150778 -0.12304226 -0.15290298 -0.20064089 -0.28808102 0.2152476 0.17366993
0.14172865 -0.360712 -0.074341044 0.17479853 0.15341637 0.024563016 0.08316545 0.13766786
0.26713178 0.3014045 0.19271675 0.39505494 -0.22953956 0.3043732 0.0040381053 -0.16623634
0.28834957 -0.13669698 0.025138369 -0.13126339 -0.17953105 -0.21790205 0.20290884 0.35506743
-0.031029081 -0.1408054 0.37559614 0.04916821 0.13337748 -0.264445 0.043521527 -0.028091406
0.29185805 0.31046802 0.22073387 0.065377414 -0.03043923 -0.0041098353 0.2535579 0.165371
0.059159294 0.10235255 -0.104611 0.13746567 -0.022619689 0.25255132 0.23752163 -0.08684551
-0.32366765 0.10971556 0.1607507 0.31095922 -0.3036624 -0.1396441 0.13414845 -0.16599464
-0.27658516 0.07027831 0.07771296 0.11187649 0.2001341 0.11358666 0.30915275 0.15054663
0.10327469 -0.030427199 -0.16556357 0.16904691 0.3406255 0.07567444 -0.30440974 0.23564324
0.27311918 0.036803454 -0.16547655 -0.09042936 0.244318 0.18903597 -0.05995887 0.09998914
-0.04503337 -0.24113727 0.19529673 -0.008923278 -0.30595344 0.08840326 0.1975081 -0.29248843
-0.068245485 -0.3044341 0.059836756 0.08986293 0.18743749 -0.01944107 0.31678903 -0.24426755
-0.08685098 -0.11878762 -0.16958742 0.23324823 0.1262454 0.1366575 0.035962146 -0.19964133
-0.01630261 -0.2930794 0.3673414 -0.18693945 0.099260956 0.07376899 -0.0145257665 -0.055727918
-0.075568765 0.31993344 0.25527164 -0.17442639 0.23242632 0.054672673 -0.19966756 -0.117942214
-0.20440793 0.01858224 -0.319309 0.012908315 0.25193486 0.022804119 0.15475458 -0.10173026
0.29965875 0.14396648 -0.10142079 0.11442761 0.40038425 -0.20914617 0.09604679 -0.11768643
-0.24685471 -0.1968396 0.009109159 0.32337734 -0.15187186 0.24005167 -0.12915833 -0.2608849
-0.29910722 -0.11571092 0.117969655 0.17237131 -0.15617831 0.18028332 0.19177474 -0.14142369
-0.38131964 -0.37938213 0.15954399 -0.22937636 -0.20308393 0.028094023 0.072904155 0.19856459
-0.2543088 0.20378006 0.13822892 -0.054651137 -0.03993627 -0.067257114 -0.16247885 -0.22642076
0.06296027 0.24349247 0.08337658 0.24200729 -0.29333726 0.22687279 0.21351874 0.05570335
0.2777089 -0.22938351 0.06842067 -0.18440719 -0.071118474 0.38855672 -0.086802796 0.08686045
0.014410806 0.0062240525 -0.14360516 0.123249404 0.26113853 -0.24256565 -0.3532727 -0.09175907
00000000: 2d0c f6bd 9f58 d73e 0971 21be c18d 62be
00000010: d068 1d3e 5c13 01be 1282 34be c046 dfbc
00000020: 7e0f 9b3d 3e28 a3be 10ff 2c3e 54f6 423c
00000030: 1c7c 333e fc5f a4be 9de3 3bbd 13e1 723e
00000040: 6915 b1bd 3c59 d43e 5732 33bd 7ee3 5e3c
00000050: 3577 203e bdcc 8bbd 6547 933e 4ddd a0be
00000060: 9791 833e de2d a1bd 4f37 06bd 41c4 653e
00000070: bf6d 9b3d 2403 36bd 99cd 963e 73a4 49bc
00000080: 6563 f03d d846 04be 1361 233c cbd7 9bbd
00000090: 9885 a83e 4e86 813e 3e62 9bbc fd8e 8a3e
000000a0: 843b 143d faeb 90be e4cc 9bbd 9099 17bd
000000b0: a19a aebe 2247 003e 2380 8b3e d310 5ebe
000000c0: 993e 28be 038b a4be f7d4 023e 24b2 913d
000000d0: db54 313e 9150 b9bd 1fe5 8bbe bff7 993e
000000e0: 26fa 963e d14d 77be 95fd fbbd 9992 1cbe
000000f0: ce74 4dbe 5b7f 93be de69 5c3e 88d6 313e
00000100: 5121 113e 3eaf b8be 1e40 98bd 63fe 323e
00000110: 2e19 1d3e 6138 c93c a652 aa3d cef8 0c3e
00000120: 7fc5 883e b151 9a3e 8a57 453e a444 ca3e
00000130: 6b0c 6bbe ced6 9b3e 1552 843b dc39 2abe
00000140: 8ea2 933e 4bfa 0bbe fbee cd3c e969 06be
00000150: fdd6 37be b721 5fbe 56c7 4f3e 66cb b53e
00000160: b330 febc 4a2f 10be 234e c03e 9b64 493d
00000170: 1b94 083e 5665 87be a143 323d f31f e6bc
00000180: 6b6e 953e aaf5 9e3e 0f08 623e 98e4 853d
00000190: b15b f9bc ccab 86bb 57d2 813e 0457 293e
000001a0: 0451 723d 379e d13d 4b3e d6bd cdc3 0c3e
000001b0: ed4c b9bc 684e 813e df38 733e 0fdc b1bd
000001c0: c4b7 a5be 8db2 e03d d59b 243e 0c36 9f3e
000001d0: a379 9bbe ddfe 0ebe 365e 093e 80fa 29be
000001e0: 929c 8dbe 13ee 8f3d f927 9f3d 801f e53d
000001f0: f4ef 4c3e 1fa0 e83d 4549 9e3e e528 1a3e
00000200: ae81 d33d 7642 f9bc 7f89 29be a21a 2d3e
00000210: 7766 ae3e 33fb 9a3d 98db 9bbe 764c 713e
00000220: 47d6 8b3e 38bf 163d af72 29be 0733 b9bd
00000230: 7f2e 7a3e a592 413e 6f97 75bd 1bc7 cc3d
00000240: e974 38bd b0ec 76be defb 473e f132 12bc
00000250: eea5 9cbe c50c b53d 903f 4a3e 0bc1 95be
00000260: 4ac4 8bbd c9de 9bbe 6317 753d 0e0a b83d
00000270: 9def 3f3e e142 9fbc 2c32 a23e 4621 7abe
00000280: edde b1bd ec46 f3bd 53a8 2dbe a0d8 6e3e
00000290: 7946 013e f2ef 0b3e 0b4d 133d c76e 4cbe
000002a0: 0d8d 85bc 810e 96be 2c14 bc3e 0e6d 3fbe
000002b0: 5449 cb3d 3214 973d 7bfd 6dbc f542 64bd
000002c0: ccc3 9abd 51ce a33e f7b2 823e d59c 32be
000002d0: 2a01 6e3e 74f0 5f3d a775 4cbe b08b f1bd
000002e0: 5050 51be c839 983c 787c a3be 667d 533c
000002f0: 9bfd 803e b4cf ba3c fc77 1e3e f457 d0bd
00000300: df6c 993e f36b 133e b4b5 cfbd 0659 ea3d
00000310: 2aff cc3e 6a2a 56be 2eb4 c43d 9505 f1bd
00000320: 7bc7 7cbe 5290 49be 953e 153c b791 a53e
00000330: 4c84 1bbe 1bd0 753e 1542 04be b592 85be
00000340: 9524 99be d9f9 ecbd 139a f13d 1b82 303e
00000350: 35ed 1fbe 319c 383e 9960 443e 5fd1 10be
00000360: 543c c3be 603e c2be 805f 233e a3e1 6abe
00000370: 3cf5 4fbe 7025 e63c c64e 953d 8454 4b3e
00000380: c334 82be b8ab 503e e28b 0d3e dfd9 5fbd
00000390: 3794 23bd 19be 89bd db60 26be d8da 67be
000003a0: 50f1 803d 1756 793e 57c1 aa3d c2d0 773e
000003b0: 4d30 96be 5751 683e a8a4 5a3e 3229 643d
000003c0: dc2f 8e3e 83e3 6abe 2320 8c3d 3dd5 3cbe
000003d0: 90a6 91bd e8f0 c63e aac5 b1bd e4e3 b13d
000003e0: 4d1b 6c3c 23f3 cb3b 3b0d 13be 2f6a fc3d
000003f0: f3b3 853e 2163 78be 29e0 b4be 2eec bbbd

conv3.bias f4 [32]
0.011378158 0.034685228 -0.018620731 0.027057271 0.0029319038 -0.028642472 -0.026924873 0.030562937
-0.00957934 0.01564312 0.025325056 -0.03306522 0.023024341 0.0014907867 -0.034251366 0.023324536
-0.010747182 0.020205764 -0.007789591 0.032211874 -0.020624155 0.006799933 0.026744975 -0.018833496
-0.01666784 -0.037446532 -0.019148264 0.02216497 0.03298242 0.0011113258 0.01832909 0.036603816
00000000: 746b 3a3c 1912 0e3d 818a 98bc 36a7 dd3c
00000010: 2f25 403b 9ea3 eabc 8d91 dcbc 205f fa3c
00000020: aaf2 1cbc 0026 803c 7e76 cf3c 656f 07bd
00000030: 8b9d bc3c 8066 c33a 294b 0cbd 1913 bf3c
00000040: f314 30bc 8f86 a53c d33f ffbb 99f0 033d
00000050: fdf3 a8bc f9d1 de3b 4718 db3c b448 9abc
00000060: fe8a 88bc 8961 19bd d2dc 9cbc 5093 b53c
00000070: 9318 073d e8a9 913a e326 963c e2ed 153d

conv4.weight f4 [32, 32]
0.3149062 0.12464334 -0.08350718 0.17019334 -0.20580727 0.15459795 0.12472781 -0.071702935
-0.13219805 0.04638482 0.21417695 0.016549008 -0.24979165 -0.19407192 -0.01382707 0.13642108
0.1577381 0.20329674 0.25821972 -0.05548415 -0.145663 -0.20399736 -0.009126522 0.28134617
0.093710534 0.11884236 0.06328329 -0.22914325 -0.08261592 -0.15158659 -0.25613505 0.19852293
0.16121407 0.0261705 -0.23331723 0.10955283 -0.23071745 -0.23651265 0.050626818 0.037232164
0.086902104 0.2569136 0.2872764 -0.050403666 0.21274927 -0.30629638 0.1732726 -0.30738086
-0.08262983 0.23309582 -0.08202683 -0.17427903 0.058385327 0.1754126 0.11625559 0.14503953
-0.07047484 0.086814 -0.18949279 -0.039416026 0.028890088 -0.2285536 0.060898557 -0.12156385
-0.17930472 -0.26828313 0.056076024 0.21567233 0.2895287 0.2889875 -0.284967 0.15126885
0.23616616 0.11680619 0.22373867 0.27190587 0.21879224 0.015057467 -0.24453962 0.0061889105
-0.23121375 0.3052719 0.22861351 -0.056141734 0.25046125 -0.10845287 -0.22341976 0.12507814
0.29569098 0.2579939 0.16547358 0.1435433 0.18210909 0.13328722 -0.24359183 -0.08133863
0.05958307 0.23107363 -0.028943675 0.12697844 -0.27525213 -0.15052105 0.11170845 0.074419275
0.050916772 0.027582545 0.17405604 -0.029216904 0.20244558 0.31086174 -0.03767734 -0.2260997
0.050063286 0.14103119 0.15423824 -0.2782809 -0.0200304 -0.008947591 0.10151113 -0.043804567
0.2544541 -0.07893451 0.21248594 -0.2611366 0.28316516 0.064078495 -0.17561825 0.1944878
-0.08247196 -0.18366227 -0.104233965 0.29811138 0.28367725 0.06302528 -0.03211789 -0.13477646
-0.086793445 -0.28171626 -0.32228562 -0.028757839 0.23156796 0.036102798 -0.24632686 -0.08474117
0.18305425 0.051313322 0.08299997 -0.30055177 -0.059562434 0.2793436 -0.1153719 -0.122588135
-0.2700586 0.16331044 0.07077365 0.006018449 0.22522026 0.18195556 0.16539845 0.17567132
-0.026104031 -0.11308459 -0.14657906 0.04293509 -0.246183 -0.11509627 -0.19040875 0.12030957
0.12334924 -0.18461688 0.09690726 0.017506696 0.23777379 0.23409647 0.18811727 0.21026321
0.03002558 0.25784346 -0.29184064 0.21352614 0.24623619 0.15262914 -0.09154248 -0.056864303
0.14919144 -0.0008602402 0.2139026 0.09348638 0.05010948 -0.08067412 -0.28474945 -0.23194744
-0.2760545 -0.25134996 -0.21691632 -0.06716388 0.19124058 0.06917124 0.13933615 -0.25208563
0.25470144 0.23836634 0.26010472 -0.076084785 0.02322568 0.044309087 -0.13662034 0.11090622
-0.03784229 -0.22920918 -0.09560342 0.33011845 0.115784824 0.11711568 0.062325228 0.06586865
0.13093911 -0.20228745 0.0417894 -0.12347639 -0.20554274 -0.24555893 -0.057989985 -0.26936096
-0.28638515 0.2639196 0.026337527 -0.020500349 -0.22837768 0.058695458 0.25560614 0.28439245
-0.24710639 -0.095485725 0.24498314 0.27673393 0.28983748 -0.27929914 -0.24629761 -0.14733309
0.13522361 -0.2599908 0.038156528 0.17547554 0.06487984 -0.070999235 0.13945657 0.03966078
0.16988401 -0.17935468 0.2165394 0.05331518 -0.26007703 0.096429564 -0.22333024 0.25617465
00000000: 633b a13e 0245 ff3d d005 abbd 2a47 2e3e
00000010: 24bf 52be ed4e 1e3e 4b71 ff3d fdd8 92bd
00000020: ed5e 07be 02fe 3d3d 3451 5b3e c991 873c
00000030: 62c9 7fbe caba 46be ef8a 62bc f8b1 0b3e
00000040: 1986 213e 052d 503e 6035 843e 5943 63bd
00000050: ae28 15be afe4 50be 6887 15bc 9b0c 903e
00000060: 4feb bf3d a063 f33d ab9a 813d 87a4 6abe
00000070: 8932 a9bd 8439 1bbe 2224 83be 9849 4b3e
00000080: 4d15 253e 8463 d63c b6ea 6ebe 3c5d e03d
00000090: 3241 6cbe 5f30 72be 115e 4f3d c180 183d
000000a0: bbf9 b13d 2e8a 833e e415 933e 1374 4ebd
000000b0: f2da 593e e1d2 9cbe 5f6e 313e 0661 9dbe
000000c0: d439 a9bd acb0 6e3e affd a7bd 3476 32be
000000d0: 7425 6f3d 5c9f 333e 6917 ee3d 3e85 143e
000000e0: 1d55 90bd 8acb b13d 660a 42be b372 21bd
000000f0: e8aa ec3c f409 6abe c470 793d 78f6 f8bd
00000100: a89b 37be 685c 89be f9af 653d 35d9 5c3e
00000110: 1b3d 943e 2bf6 933e 32e7 91be 39e6 1a3e
00000120: 8bd5 713e 1538 ef3d c01b 653e 3f37 8b3e
00000130: 130b 603e 98b3 763c 9868 7abe 58cc ca3b
00000140: 4cc3 6cbe 994c 9c3e a919 6a3e e0f4 65bd
00000150: 753c 803e 8a1c debd 26c8 64be 7c14 003e
00000160: cf64 973e c717 843e e871 293e 04fd 123e
00000170: ce7a 3a3e 727c 083e 2370 79be de94 a6bd
00000180: 610d 743d 919e 6c3e 491b edbc a306 023e
00000190: d9ed 8cbe 3122 1abe 66c7 e43d 2269 983d
000001a0: 1b8e 503d caf4 e13c bf3b 323e 4a58 efbc
000001b0: e54d 4f3e 4529 9f3e 8e53 1abd ae86 67be
000001c0: 290f 4d3d 7b6a 103e a1f0 1d3e d67a 8ebe
000001d0: cb16 a4bc eb98 12bc 11e5 cf3d 6b6c 33bd
000001e0: cf47 823e 6ba8 a1bd ea95 593e b2b3 85be
000001f0: 06fb 903e 963b 833d 45d5 33be cf27 473e
00000200: 0fe7 a8bd f611 3cbe 9e78 d5bd 0ea2 983e
00000210: 253e 913e 6613 813d 0c8e 03bd d702 0abe
00000220: c3c0 b1bd 1d3d 90be 9f02 a5be 8f95 ebbc
00000230: 2720 6d3e 87e0 133d 1c3d 7cbe c78c adbd
00000240: 9372 3b3e eb2d 523d e3fb a93d ece1 99be
00000250: bdf7 73bd 2006 8f3e 1a48 ecbd 7d0f fbbd
00000260: 1f45 8abe da3a 273e c7f1 903d 6936 c53b
00000270: 24a0 663e 8f52 3a3e 365e 293e 2fe3 333e
00000280: 1fd8 d5bc e598 e7bd d218 16be b4dc 2f3d
00000290: 6517 7cbe 98b7 ebbd 83fa 42be dd64 f63d
000002a0: 879e fc3d 350c 3dbe 5077 c63d 346a 8f3c
000002b0: f97a 733e fcb6 6f3e d0a1 403e 3d4f 573e
000002c0: 35f8 f53c 0f04 843e 236c 95be 99a6 5a3e
000002d0: 5725 7c3e d04a 1c3e a07a bbbd 8bea 68bd
000002e0: a4c5 183e be81 61ba 4809 5b3e ca75 bf3d
000002f0: 993f 4d3d 7938 a5bd aeca 91be a183 6dbe
00000300: 0457 8dbe f1b0 80be 501f 5ebe 378d 89bd
00000310: 92d4 433e a7a9 8d3d 23ae 0e3e 5e11 81be
00000320: 3a68 823e 4e16 743e 722c 853e 57d2 9bbd
00000330: c843 be3c 727d 353d 34e6 0bbe cd22 e33d
00000340: 8400 1bbd d0b5 6abe bacb c3bd 4905 a93e
00000350: 9820 ed3d 58da ef3d bd48 7f3d 25e6 863d
00000360: e714 063e 7124 4fbe 5d2b 2b3d 31e1 fcbd
00000370: cc79 52be cd73 7bbe e886 6dbd aee9 89be
00000380: 13a1 92be 7820 873e ccc1 d73c 59f0 a7bc
00000390: d7db 69be a66a 703d cfde 823e e39b 913e
000003a0: 7509 7dbe 058e c3bd dcdc 7a3e 12b0 8d3e
000003b0: 9465 943e 4c00 8fbe 7135 7cbe 7cde 16be
000003c0: 0f78 0a3e 841d 85be 054a 1c3d dcaf 333e
000003d0: b9df 843d 0c68 91bd b4cd 0e3e 5873 223d
000003e0: 13f6 2d3e c1a8 37be 81bc 5d3e 0561 5a3d
000003f0: d128 85be dd7c c53d afb0 64be 5329 833e

conv4.bias f4 [32]
-0.037887976 0.038559742 -0.021047134 0.042534664 -0.039840173 0.04164039 -0.042529505 0.055634208
-0.032293174 -0.02830812 0.043176502 -0.051629055 0.035652407 -0.044141542 -0.03882326 -0.040516265
0.034966536 0.030212099 -0.0029282398 0.01638158 -0.0054701264 -0.010945667 0.043267224 -0.03277064
0.013253484 -0.041772645 -0.04745942 0.024352748 0.042795382 -0.04212857 0.041891094 0.037344273
00000000: 6c30 1bbd d2f0 1d3d 0a6b acbc d438 2e3d
00000010: 732f 23bd 1d8f 2a3d 6b33 2ebd b2e0 633d
00000020: d945 04bd 6ee6 e7bc d8d9 303d fd78 53bd
00000030: 4208 123d c3cd 34bd 2405 1fbd 62f4 25bd
00000040: 1239 0f3d 5d7f f73c b6e7 3fbb aa32 863c
00000050: bf3e b3bb 7455 33bc f938 313d 823a 06bd
00000060: 2425 593c cb19 2bbd cf64 42bd 6a7f c73c
00000070: 364a 2f3d 028f 2cbd ff95 2b3d 4ff6 183d

conv5.weight f4 [32, 2]
-0.038974542 -0.07783902 0.11736725 0.3780983 0.08515636 -0.25305948 0.20817995 0.1456012
-0.1117795 -0.12209369 0.21706977 0.33611622 -0.1845558 -0.17537063 0.38267085 -0.31892818
-0.003745709 -0.14286467 0.06279161 -0.22151585 0.24982518 0.3256929 -0.3089476 0.16772173
0.048757296 0.3829276 -0.310897 -0.29504314 -0.09547081 -0.26752627 -0.14076783 -0.23800512
0.044381954 0.13677241 -0.05454284 0.029243167 0.21964327 -0.34946108 -0.11714455 0.3548207
0.16507165 -0.29849294 0.18574558 -0.32171217 0.28842023 0.22308388 0.054728977 -0.29351372
-0.19329672 0.35802835 -0.28294158 -0.34390408 -0.37277886 -0.018917732 0.14626996 -0.25218424
0.29618442 0.29227227 -0.20912358 -0.21011405 0.2389472 0.23904996 0.075598225 0.18811427
00000000: c5a3 1fbd 106a 9fbd 3e5e f03d 1a96 c13e
00000010: 7566 ae3d 0391 81be 202d 553e 7b18 153e
00000020: a7ec e4bd 420c fabd 8a47 5e3e 6d17 ac3e
00000030: 32fc 3cbe 5c94 33be 6fed c33e 8e4a a3be
00000040: 927a 75bb 1e4b 12be e398 803d 0dd5 62be
00000050: 2cd2 7f3e 38c1 a63e 612e 9ebe 3fbf 2b3e
00000060: bbb5 473d 160f c43e e42d 9fbe e50f 97be
00000070: 3386 c3bd 34f9 88be 7125 10be 9db7 73be
00000080: dac9 353d 110e 0c3e 5068 5fbd 5e8f ef3c
00000090: 2aea 603e 90ec b2be 7be9 efbd 0fab b53e
000000a0: 8b08 293e 11d4 98be 1734 3e3e 75b7 a4be
000000b0: d1ab 933e 1a70 643e 7e2b 603d 6e47 96be
000000c0: 93ef 45be 7e4f b73e b8dd 90be 3214 b0be
000000d0: dfdc bebe 5cf9 9abc cbc7 153e 4b1e 81be
000000e0: 7ca5 973e b6a4 953e 7e24 56be 2328 57be
000000f0: 93ae 743e 83c9 743e 3ed3 9a3d 07a1 403e

conv5.bias f4 [2]
0.055373855 0.05414203
00000000: b2cf 623d 09c4 5d3d
