GST-recon/checkpoints/best_grid_CapsulePool_0.8.pth (torch, 24666 bytes, 17 tensors)

conv1.weight f4 [2, 32]
00000000: e83f b3bb 8b8f 17be ab4d c13d 97d1 163e
00000010: 10b4 0dbe fda5 5dbd 792d f4bd 93fc 983d
00000020: 418b 10bd 54ff 733e 82b8 a33e 96c9 e83c
00000030: aac9 22be 2978 41be fbf3 b83c 1c10 9d3c
00000040: f451 003e 2ae9 41be 9fac 943e 3ac0 a5be
00000050: 825c 843e c546 b4bc 2e39 343e 6967 0d3e
00000060: 91b9 1a3d 7f6f c2bc 17fd e73e 2be9 f13d
00000070: 8f93 543e 058a 95be 8f76 4d3e c4b9 1b3e
00000080: 0e64 043d e113 643d a787 a63d 9d25 823e
00000090: c964 a8bb 2c4b 3dbe 9bff 52bd 5331 41be
000000a0: 858b bc3d 7393 22be 2c64 56be 76c8 8f3e
000000b0: d3d4 923e a5dd da3c cde3 a5bb 2b2a aa3c
000000c0: a753 d03d d5a8 a1be 6bf1 8abe 56ad c93e
000000d0: 17fd 733e 9dfb 86bc f1fb 5ebe 1e62 4bba
000000e0: 0649 9bbd 5b87 213c 753b b33e 643f ed3d
000000f0: 1a0a 59bd 6d1b 963c 4516 823d db19 96be
-0.0054702647 -0.14800851 0.09438642 0.1472839 -0.1383822 -0.054113377 -0.11922736 0.0747005
-0.035289053 0.23827869 0.31976706 0.028416436 -0.15897241 -0.18893494 0.022577276 0.01917272
0.12531263 -0.18936601 0.2903795 -0.3237322 0.25851828 -0.022006402 0.17599937 0.13808979
0.037774626 -0.023734806 0.4531028 0.118120514 0.20759414 -0.29206863 0.20064758 0.15207583
0.032321982 0.05568302 0.081313424 0.25419322 -0.0051389677 -0.18485707 -0.051513296 -0.18866472
0.09206299 -0.1587656 -0.2093665 0.28082627 0.28677997 0.026717016 -0.0050625564 0.02077206
0.101722054 -0.3157412 -0.27137312 0.39390057 0.23827015 -0.0164774 -0.21775796 -0.0007758456
-0.075822875 0.009858931 0.350063 0.115843564 -0.05298815 0.018323625 0.06351904 -0.293166

conv1.bias f4 [32]
00000000: b914 b33d 8e28 373e 7a8c aebd 24ee c7bd
00000010: f062 c3bc 6f1f 89bd 538f bebc b4d4 e2bc
00000020: fe6a 163e 6cc0 f83c 4c9b acbe 7943 25bd
00000030: ea3a 2f3e 7fca 6abc a04a 5cbc 00c9 00bd
00000040: f176 05bd d76e b33d 062e 02be 9200 debe
00000050: f53e 65be e03f 0a3e 5235 8bbe c8b4 fc3c
00000060: 5668 a33d c46a cabd ea33 913e 6154 92bd
00000070: bf64 5a3c 9ddb c6bd 02f6 343c d03c 8ebe
0.08744187 0.17886564 -0.085228875 -0.097622186 -0.023850888 -0.066954486 -0.023261702 -0.027689315
0.14689252 0.030365191 -0.33712232 -0.04034755 0.17112318 -0.014330505 -0.013445526 -0.03144169
-0.032584134 0.087613754 -0.12712869 -0.4335981 -0.22387297 0.13500929 -0.27189118 0.030847922
0.07978885 -0.09883645 0.2835992 -0.07145 0.013329684 -0.09709857 0.011044981 -0.2778077

conv2.weight f4 [32, 32]
00000000: c9c4 11bd 91dc 2a3d a358 b3bd a3f0 7fbd
00000010: abb7 8a3d 36d3 2d3e 18f8 653c 64f4 63bd
00000020: 46da 063e fd3a 19be caa7 e0bd 7b19 843e
00000030: 9707 a03d 88b1 a93b b86c 833d b555 28bd
00000040: 2ed0 b73e c689 5cbe f43c 333c 1d33 cdbd
00000050: 7b94 d7bd ca88 b2bd 3890 313e dde2 473e
00000060: 5169 1c3e ad88 893e a800 4abe ad57 44be
00000070: 379f 603d 1333 f1bc 3bda aabe 53a0 44be
00000080: 54df 4abe ef54 643e 2b62 183c ea28 5f3e
00000090: 1c25 57be 25fe 83be f62a 80be 7fc6 993d
000000a0: 468c 53bd e21e 4dbe 9f04 7d3e fce2 afbd
000000b0: 124e 74bd 4149 c03d d1c1 8dbd f49e 7b3e
000000c0: 434a 893d d0c8 64bd d93c 233e 5c11 6bbe
000000d0: a8db 45be c5b3 07be 8bc6 f9bd d3ed 133d
000000e0: 7910 863d 98d7 f4bd f696 2e3e 6438 11be
000000f0: 172b a23d ccf6 eabd bd44 1abe b7ff 49be
00000100: d951 213e a975 f33d eba8 09be faaa b7bc
00000110: 5ffb 85be cd6b 093e c6bf 973e 805f ce3d
00000120: 48fd 42be 9c86 0e3e 5d7e 5f3e 495f 7cbd
00000130: 9a3e a4bd cb94 c93d 323d 913b 9c5c ecbd
00000140: 4b59 5cbe ed55 3ebe ef39 4ebb 4981 53bd
00000150: 5861 453e a2e9 513b 179b d1bd c024 59be
00000160: 3065 a0bd 8ac7 103e fb9b 8c3e c7f0 d9bc
00000170: 33e5 95be 8a3a e73d 2555 073e 8cb8 41be
00000180: dbf0 24bd 8017 0e3d 954e d3bd 14c0 4ebe
00000190: ed3a 213e 6413 76be 6b7c d8bd ea77 2ebe
000001a0: 53d9 583e 5b91 8e3d a82e b73d 7315 4abe
000001b0: 0945 773e 7b6c 023c 58c5 5dbe d0c7 8bbc
000001c0: 8dbf 8bbd 8b7f 69bc 9d65 473e 3361 45be
000001d0: 2c42 623e deb8 853d 98b5 a5bd 3360 213e
000001e0: 14cc 8f3d 912d 53bd cb58 3fbe 9b4b 123e
000001f0: 87d7 e13d 2597 013e bb8b e73d fcb5 ad3e
00000200: 5a98 893e 4a5a 97be c11d b93c f4c8 b7bd
00000210: 4bba a23d e955 2a3b fb33 9a3c 2230 6ebe
00000220: 83e9 fb3d cda4 943e b10f afbc 5ac3 71be
00000230: d8de 20be 46e4 8abd 8722 6f3b 6236 9b3d
00000240: e4b4 d53c 465f 503e bace b03d 30c5 633d
00000250: a7d6 c3bd 2991 933e ebe6 263e 49de 13be
00000260: a0cd cd3d f08d 9a3d c037 283d edac 7dbd
00000270: 6253 763d 8a38 f43b 5aa0 4a3c bf7c 8b3d
00000280: c8e0 e43c 2a5d 43be 4249 26bc 079f 24be
00000290: a7ec 82be cda3 32be 6b1b 61be 1544 803d
000002a0: b505 473e c70e 8d3e 514c b13e bbd4 f93d
000002b0: 40d7 143e 84df d3bc 61ee 8a3e f27c e8bd
000002c0: 45a5 6ebe b591 dabd 72c1 80be d216 3fbe
000002d0: cba0 1abd f1d3 843e 0253 0abe ca16 a8be
000002e0: 17f8 54be 2913 813e ee3b 8b3d 0f08 343c
000002f0: 8a8a 5f3a a1fe 713e 6bc3 4cbe 97fe 1a3e
00000300: ec1c 603d 826b 3a3e f625 4cbe 2cc5 2abe
00000310: 2a5d 19be 92dd a63e 1c41 dcbd 80b1 6abe
00000320: 49b2 163e 9384 833d 5f54 993d 77cf 52be
00000330: 1893 57be 720d 8e3e feaf 52be c4be 7fbc
00000340: ff24 a4bd 7b6e 1e3e ca74 edbd 3199 29be
00000350: 9f58 dabd 6e6b 11be 65e4 6d3e 1422 a23d
00000360: 33ef 183d 7b16 5b3e 0d09 5cbe 3e07 c03c
00000370: f021 5cbe 28c1 87bc b1c2 a7bd ea67 6fbe
00000380: 897f e43d 7781 ecbd 2836 65bd a6e8 42be
00000390: 898c 58be 7973 d3bd 05ed a13d e491 6d3e
000003a0: b75e bfbd 0642 773e 8740 04be e5ae 3f3e
000003b0: 4125 6f3e 5b0e bd3d f739 86bd 691a 603e
000003c0: 869e 29be 3539 d5bd a583 43be c456 1cbe
000003d0: 3f1d f1bc fca8 5ebe 2e66 3e3e d64c 9fbe
000003e0: 8be3 98be 026b 313d ba1b 463e ae44 933e
000003f0: 622d 54be a2f5 7b3e 3ee3 723e eb80 6fbe
-0.03558806 0.041714255 -0.087571405 -0.06248535 0.06773313 0.16975102 0.014036201 -0.05565299
0.13169202 -0.14963908 -0.10969503 0.2580069 0.07813948 0.005178634 0.06417221 -0.04109736
0.35901016 -0.21536931 0.010939825 -0.10019515 -0.10526367 -0.08717497 0.17340171 0.19520135
0.1527455 0.26862088 -0.19726813 -0.1917407 0.05483934 -0.0294433 -0.33369622 -0.19201784
-0.19811755 0.22298025 0.009300749 0.21792951 -0.2101025 -0.25779834 -0.25032777 0.07508563
-0.051647447 -0.20031312 0.24708794 -0.08588216 -0.059644766 0.09388972 -0.06921733 0.24572355
0.067036174 -0.055855572 0.1594118 -0.22955841 -0.19322073 -0.1325217 -0.12196072 0.03611548
0.06546111 -0.11955184 0.17049775 -0.14181668 0.07918375 -0.11472854 -0.15065284 -0.19726454
0.15753879 0.11887676 -0.13443343 -0.022420395 -0.26168343 0.13420029 0.296385 0.10076809
-0.19041932 0.13918537 0.21825548 -0.06161431 -0.08019753 0.09842833 0.004432344 -0.11541101
-0.21518438 -0.18587466 -0.0031467637 -0.051636968 0.19275415 0.0032030125 -0.10234659 -0.21205425
-0.078318 0.14138618 0.27462754 -0.02660407 -0.29276428 0.11290462 0.13216074 -0.18918055
-0.04026876 0.03469038 -0.10317723 -0.2019046 0.15745135 -0.24030834 -0.10570606 -0.17037931
0.21176653 0.06961318 0.08944446 -0.19734745 0.24147429 0.007960434 -0.21657312 -0.017063051
-0.06823645 -0.0142516 0.19472356 -0.1927536 0.22095555 0.06529401 -0.08091277 0.15759353
0.07021347 -0.051557127 -0.18686216 0.14286654 0.11027437 0.12655313 0.11305948 0.33927906
0.26874048 -0.29561073 0.022597196 -0.08973876 0.07945689 0.0025991148 0.018823614 -0.23260549
0.12300398 0.29031983 -0.021369787 -0.23609677 -0.15710008 -0.06781821 0.0036489086 0.07578732
0.026087232 0.20348844 0.0863318 0.055607975 -0.09562426 0.28821686 0.16299026 -0.14440264
0.100489855 0.07546604 0.041068792 -0.061932493 0.060138114 0.007453029 0.012367332 0.06810903
0.027939215 -0.19078508 -0.010149302 -0.16076289 -0.25571176 -0.17445298 -0.21983115 0.062629856
0.19435771 0.27550337 0.34628537 0.12198778 0.14535236 -0.025863416 0.27134994 -0.113519564
-0.23305233 -0.10672323 -0.25147587 -0.18661049 -0.037751 0.25942948 -0.13508227 -0.32829887
-0.20797764 0.2520993 0.0679854 0.010988249 0.0008527419 0.2363229 -0.19996421 0.15136181
0.054715082 0.18205073 -0.19936356 -0.16676778 -0.14976946 0.3259092 -0.10754606 -0.22919273
0.14716448 0.06421771 0.07486796 -0.20586954 -0.21052206 0.27744633 -0.20574948 -0.015609447
-0.08014869 0.15471832 -0.11594541 -0.16562344 -0.106614344 -0.14201137 0.23231657 0.07916656
0.037337493 0.21395294 -0.21487828 0.023440953 -0.21497321 -0.016571596 -0.08191431 -0.23379484
0.11157138 -0.11548131 -0.05595985 -0.19034061 -0.2114736 -0.10324759 0.07906536 0.23200184
-0.09344237 0.2414628 -0.1291524 0.1871906 0.23354055 0.09231254 -0.06554025 0.21885075
-0.16564378 -0.10411302 -0.19093187 -0.15267473 -0.029432891 -0.2174415 0.18593666 -0.3111331
-0.29861102 0.04331494 0.19346514 0.28763336 -0.20720437 0.2460542 0.23719499 -0.23389022

conv2.bias f4 [32]
00000000: 23e1 20be d517 31bd 7034 18bc 0600 a5bd
00000010: cc45 5fbe 1dc7 47be da90 6b3e cd05 783e
00000020: c3bf 4f3e 2fb2 a23c 917c 9e3d e4db 94be
00000030: 4106 c93c c275 afbd 64e6 d5bd d4af 5f3e
00000040: c577 25be a7c3 1d3d bfd4 383e e9af 9f3e
00000050: 29df 623e cdff 453e 3143 0a3d c5fd 9c3d
00000060: 857c cf3d f02b ef3c dce1 cfbd eca0 9ebe
00000070: 5844 31bd fc95 543e 286c 23be 05bd 14be
-0.15710883 -0.04323562 -0.009289846 -0.08056645 -0.21803969 -0.1950955 0.23004475 0.24220963
0.20287995 0.019860355 0.07738603 -0.29074013 0.024539115 -0.085673824 -0.10444334 0.21844417
-0.1615897 0.038516667 0.18049906 0.31188896 0.22155441 0.19335862 0.033755485 0.0766559
0.10131172 0.029195756 -0.10150501 -0.3098215 -0.04327807 0.2076034 -0.15959227 -0.1452523

pool.gcn_transform.weight f4 [32, 32]
00000000: 9c2c db3d e282 ccbd 5435 1d3e d193 03be
00000010: 3051 053e 63b7 e93d 9f3f a6bd 85f1 e4bd
00000020: 08ab 45bd 5301 cd3d 8c91 df3d fc88 77be
00000030: c8a2 09be 828c 38bb e8e7 3f3e e048 333e
00000040: 7a25 493e cc6c 463e 23c4 6f3d 0861 3fbe
00000050: 392e 38be 27a4 12be a4cb 363e 0885 963d
00000060: 5aed b23d 9cef cc3c 4f3e 9fbe bcaf 8b3d
00000070: ebe2 cabd 71ae 8abe 45bc 993e e4f9 fd3d
00000080: d86c 473d 364a 62be 30c6 b43d d31e 62be
00000090: 72f1 5dbe b088 fd3d 367b c13c c9f0 b63d
000000a0: 4e70 8d3e 7698 af3d 61c3 95bd dbfa 1b3e
000000b0: cc4d 41be ef96 e13d d9fc 85be c3ea 8abd
000000c0: 946d 413e 5fdf 543d 4827 44be 1d0f f93d
000000d0: 739e 3e3e bc07 5e3d 5b96 f13d f0a3 b0bd
000000e0: b2b3 ec3d ffd4 efbd 99b0 453d 6d10 2f3e
000000f0: e436 18be 4eac 84bd d242 a9bd 4767 1cbe
00000100: 21eb 72be 6d4c 6e3d 8688 0d3e a301 b93e
00000110: c2cc 413e 472a 4abe 4a40 5d3e b715 7f3e
00000120: 3ee4 033e 29d1 443e 7aa5 6f3e 247b 093e
00000130: 7d58 883d 10fa 64be b6fd 9f3b 6999 76be
00000140: 3de8 743e f555 b03e 57e5 41be bed1 d93d
00000150: 2982 4b3d 82ba 62be 8e39 1c3e db5a a13e
00000160: 9221 9c3e 151e d43d 2a4b 8a3e b1c5 703e
00000170: 8e79 313e 0b0c 89be 60f8 9abd 542e c63b
00000180: d016 873e c94e 41bd 4fe8 8b3d af8f 3ebe
00000190: 7340 6bbe d7da 1a3e 3cef 513d 33da e93c
000001a0: edbd abbc 3ab9 2f3e 146d 083e 95a8 1f3e
000001b0: 2ea8 963e 2356 bcbd 8cb0 8cbe a997 4cbc
000001c0: 0064 123e aa0c 293e bdaf d9bd c432 7dbe
000001d0: 58bd 493d 0f8d bd3c 19cb 29bd 62ed 703e
000001e0: 56f5 6dbd c96f 0f3d cb47 26be 48ea a13e
000001f0: 7746 83bc 516d 82be eb50 a93e d402 23be
00000200: 1f51 11be cc6a 88bd b031 493e 3035 953e
00000210: 9635 123d 9a7f 84bd 6776 d9bd 3202 2c3b
00000220: 3c68 5ebe 49fe 84be 72bd aa3c 4ea3 0c3e
00000230: 6a6b a13c 797d c7bc 4689 66bd 88ba 0f3e
00000240: 27f3 0c3d 25b0 533d 58b7 5dbe f4e4 94bd
00000250: fe86 a73e a149 01be ef11 0ebe 05be 4ebe
00000260: 95ea 263e 57eb b03d 0a20 f0bb f7ce 803e
00000270: 188a 493e 9021 6a3e fc25 103e 7ce1 67bd
00000280: b857 25be 039a 0f3b 45b9 9abd bed7 5abe
00000290: 3dfe 00be 5a22 b9be 7527 9c3e d4a1 003e
000002a0: b00b 4abe f8ae c33d 2ad0 1ebe 7267 e13d
000002b0: 4334 8f3e e760 963e f053 ab3e e032 7fbd
000002c0: c073 de3d 9097 5ebe 38e7 213e 4098 dc3e
000002d0: 5f75 a13e eaba 9fbd 65df 70bd bac4 a43d
000002e0: 894b 1ebe 40c1 ab3e 2e6e 543d fc46 26bd
000002f0: e979 02be f66f febd e3bc 5ebe afbd 77be
00000300: 5d14 72be 2db6 5cbe c268 f5bb def1 4b3e
00000310: 5d52 9c3d dd6e 423e 8c60 76be d653 7c3e
00000320: ee14 c23e d294 4a3e 1d04 e7bd 16df 283c
00000330: 61cf 1a3d e2b5 aabd c660 b63d 2055 85bb
00000340: 5b48 89be 177a babd 1af0 d73e 53d8 403e
00000350: 03b3 063e 4d56 393e 7181 b23d b3cd 303e
00000360: f1d6 1ebe 9196 303e be5c 82bd d1fd 54be
00000370: e05b 30be f899 0cbd 1783 b3be c59c 77be
00000380: 8ceb 973e 3a68 963c a7a7 1abd dbb9 80be
00000390: 1c45 873d 95e5 673e 2d77 993e f060 90be
000003a0: f79d acbd 4968 523e 393b 243e 2920 713e
000003b0: eac8 80be 86ed 81be 6afe 1ebe 2a67 303e
000003c0: 855f 8abe 8172 fd3d 1c88 493d fca8 163d
000003d0: 8dd7 97bc b9cc 5c3e 513a 003d 6398 513e
000003e0: 7193 38be c67d 793e ee25 083e 70ea 84be
000003f0: fa21 e03d d9a5 28be f284 503e 29c5 943d
0.10701868 -0.099859014 0.15352374 -0.12849356 0.13019252 0.11411931 -0.081176035 -0.11178879
-0.04825881 0.10010018 0.10916433 -0.24173349 -0.13441002 -0.002815992 0.18740809 0.17508268
0.19643202 0.1937744 0.05853666 -0.18689358 -0.17986383 -0.14320432 0.1785112 0.073495924
0.087366775 0.025016598 -0.31102225 0.06820628 -0.099065624 -0.27086213 0.3002645 0.124011785
0.048687786 -0.22098622 0.08826864 -0.22082071 -0.21674135 0.12379587 0.023618322 0.08932645
0.27624744 0.085740015 -0.07312656 0.15232413 -0.18877333 0.110151164 -0.2616947 -0.067830585
0.18889457 0.051970836 -0.1915561 0.12161086 0.18615131 0.054206595 0.11796256 -0.086250186
0.11557712 -0.11710548 0.04826412 0.1709611 -0.14864689 -0.06478177 -0.08264698 -0.15273772
-0.23722507 0.058178354 0.13821611 0.3613406 0.18925765 -0.1974269 0.21606556 0.24910627
0.12880036 0.19220413 0.23402968 0.1342588 0.06657503 -0.22361016 0.0048825396 -0.24081959
0.23916717 0.3444058 -0.18935142 0.10635708 0.049684677 -0.2214146 0.1525633 0.3151463
0.30494362 0.103573 0.2701047 0.23512913 0.17331526 -0.26767 -0.07566905 0.006048003
0.26384592 -0.047194276 0.06831419 -0.18609498 -0.22973804 0.15122543 0.051253542 0.028546428
-0.020964587 0.17160502 0.1332286 0.15591653 0.29425186 -0.09196117 -0.27478445 -0.0124873305
0.1429596 0.16508737 -0.106292225 -0.24726397 0.049252838 0.023138551 -0.041453455 0.23528054
-0.0580953 0.035018716 -0.16238324 0.31624055 -0.016024811 -0.25474027 0.33069548 -0.15919048
-0.14191101 -0.06660995 0.1964786 0.2914214 0.035695635 -0.064696506 -0.106182866 0.0026246426
-0.2171945 -0.25975254 0.020842288 0.13734171 0.01970454 -0.024351822 -0.056283258 0.14036
0.034411576 0.051681656 -0.21651971 -0.07270232 0.32720178 -0.12625743 -0.13874029 -0.20189674
0.16300423 0.086386375 -0.007328038 0.25157902 0.19681585 0.22864366 0.1407699 -0.056611523
-0.16146743 0.0021911866 -0.075548686 -0.21371362 -0.12596984 -0.3615902 0.30498853 0.12561733
-0.19731021 0.09554857 -0.15509096 0.11006059 0.2796956 0.29370806 0.33462477 -0.062304378
0.10861921 -0.21737504 0.15810859 0.43084908 0.3153486 -0.07799323 -0.058806796 0.08045335
-0.15458502 0.33545876 0.051862888 -0.04059504 -0.12741818 -0.124236986 -0.21751742 -0.24193452
-0.2364058 -0.2155387 -0.0074892947 0.19916484 0.07632897 0.18987603 -0.24060267 0.24641356
0.37906593 0.19783333 -0.112800814 0.010307094 0.03779543 -0.08335473 0.08905177 -0.0040689856
-0.26813015 -0.09105318 0.4217537 0.18832521 0.13154225 0.18099327 0.08716095 0.17265968
-0.15511681 0.17244937 -0.063653454 -0.20799948 -0.17222548 -0.034326524 -0.3506095 -0.24180897
0.29671896 0.018360246 -0.037757542 -0.25141796 0.066049784 0.22646172 0.29973736 -0.28198957
-0.08428567 0.20547594 0.16038217 0.23547424 -0.25153285 -0.25376529 -0.15526739 0.17226854
-0.27026 0.123753555 0.04920207 0.03678225 -0.0185354 0.2156247 0.031305615 0.20468287
-0.18024994 0.24364385 0.13295719 -0.25960112 0.109439805 -0.16469516 0.20363215 0.07264168

pool.gcn_transform.bias f4 [32]
00000000: 0773 193e fdf5 c0bd e891 d2bd d5b1 9dbc
00000010: a2a0 b7bd 96bf 953d c097 17be b29d dfbd
00000020: 87fe 42be fa20 acbc 9b37 323e cae3 b6bd
00000030: 7d96 943c 4e3d d5be a049 bdbd 4390 21be
00000040: af60 103e 6ff4 d53e 2dc0 78be 6154 4dbe
00000050: 05b8 63bd 827a fdbe 70f1 9a3c f204 02bd
00000060: 22ca be3d c276 e6be 336f ae3e e36f 023f
00000070: 5824 13be 966b b6be 2a0a b83e 3bec dcbd
0.14985286 -0.094219185 -0.10281736 -0.019249836 -0.08966185 0.07311933 -0.14803982 -0.1091875
-0.19042407 -0.021011818 0.17404024 -0.08930166 0.018138165 -0.41648334 -0.092425585 -0.15777688
0.14099382 0.4178805 -0.24292059 -0.20051719 -0.055595417 -0.4950753 0.018913954 -0.031742997
0.093158975 -0.4501248 0.34069213 0.50951976 -0.14369333 -0.35628957 0.35945255 -0.10787245

pool.bn_feat.weight f4 [32]
00000000: 8b82 633f 5f65 603f 5fe4 5b3f 2e44 6e3f
00000010: 1eb5 523f 72ef 703f 296f 563f 7e07 703f
00000020: d882 413f 1397 693f 3d49 653f d027 1c3f
00000030: 8d74 503f d3ec 593f b83b 623f ba2a 6b3f
00000040: f275 733f 5cb7 393f a59e 363f e286 4d3f
00000050: 3864 423f d27a 6a3f 930f 3b3f 544c 383f
00000060: e595 463f 0d66 473f e61f 503f 0400 7c3f
00000070: 344e 6a3f 9b53 603f 61f4 563f a768 543f
0.8887107 0.8765468 0.8589534 0.93072784 0.8230761 0.94115365 0.83763367 0.9376143
0.75590277 0.91246146 0.8956488 0.6099825 0.8142784 0.8512699 0.88372374 0.9186207
0.95101845 0.7254541 0.7133582 0.8028394 0.7593417 0.9159366 0.7307064 0.7199147
0.7757247 0.7789009 0.81298673 0.98437524 0.9152558 0.8762757 0.8396664 0.82972187

pool.bn_feat.bias f4 [32]
00000000: 8798 133e 2262 523c 3d3e 6b3e b6bc b13e
00000010: e4cb 213e 4902 a7be 5953 0fbf 13e8 d73c
00000020: 1fd0 06bf ffb8 da3c c228 c63b 97a9 183f
00000030: 5cc6 493e 7847 aa3c 302f 2b3b bd66 4fbc
00000040: 7bdb 933e 5e59 cb3e e401 07bf 0994 72be
00000050: fbbd 8ebf 5dee 74be e976 c23e 40ae 7f3e
00000060: 410c 06bf 9274 7b3d 160b 1a3e 591b e13d
00000070: 3e98 bcbe a405 3ebe 89da 7abe f1cb 1a3e
0.14413653 0.0128407795 0.22972961 0.34714288 0.15800434 -0.3261893 -0.55986553 0.026355779
-0.5266132 0.026699541 0.006047339 0.59633774 0.19704574 0.020786032 0.0026120655 -0.012658772
0.28878388 0.3971662 -0.5273726 -0.23689283 -1.1151727 -0.23919053 0.37981346 0.24968815
-0.5236245 0.061390467 0.15043291 0.10991544 -0.36834902 -0.18556839 -0.24497427 0.1511686

pool.bn_feat.running_mean f4 [32]
00000000: cabf 62bd f590 db3c 1bbe 003d f314 b0bc
00000010: 2909 f43b 24f9 b3bb 25f2 203d 5e97 353d
00000020: 2f9d a13d 04f4 6a3c 10a3 9bbd fc38 d93c
00000030: b9c0 f2bb 495c fd3d 2dde 013d 9963 8c3d
00000040: a99e 7dbd a71e a6bd 84da 053e 754a c63d
00000050: a4bc 173d 2c71 fb3d f333 823c 7d97 d8bb
00000060: 4565 5cbd 400e cd3d 6dab 79bd 8ace d4bd
00000070: a61c 553c 9ebb c23d 605e d8bd efdf 863d
-0.055358686 0.02680252 0.0314313 -0.021494364 0.007447381 -0.0054923464 0.039293427 0.044333808
0.078913085 0.014340404 -0.07599461 0.02651643 -0.0074082282 0.123711176 0.031706024 0.06854934
-0.06191889 -0.08111315 0.13071638 0.0968217 0.037045136 0.12277445 0.015893912 -0.0066098557
-0.053807516 0.100124836 -0.0609545 -0.10390957 0.013007319 0.095084414 -0.105648756 0.06585681

pool.bn_feat.running_var f4 [32]
00000000: 4370 cb3a 6c6c 683a 18b2 2a3b 1571 053b
00000010: 5e42 6239 d781 0a3a c155 303b 986f 843b
00000020: 265d 933a edb2 df39 e256 9c3a f10f f63a
00000030: 45b0 c139 a0d6 5639 1864 8a3a 1a3b 5238
00000040: 3332 af3a 1ecb 163b 9f27 503b 57f5 083a
00000050: 4df0 a13b d952 323a 18e8 883a 3040 c53a
00000060: 6378 803b 2fb2 383a 74c3 723a 44a5 0c3a
00000070: dee5 ce3a fabe 973a 8fb0 3a39 e0b6 263b
0.0015521127 0.0008866254 0.0026046094 0.0020361592 0.00021577763 0.000528363 0.0026906582 0.0040416233
0.001124297 0.00042667185 0.0011927749 0.0018773061 0.0003694316 0.00020488584 0.0010558395 5.0122944e-05
0.0013366401 0.002300925 0.0031761897 0.0005224547 0.004941976 0.00068025064 0.0010445146 0.0015049037
0.003920601 0.00070455944 0.0009260692 0.00053652027 0.0015785058 0.0011577301 0.00017804115 0.0025438592

pool.score_add.weight f4 [1, 32]
00000000: 3928 a9bd dc71 473d 082e 2a3e b0f9 4c3d
00000010: 92cd fcbd 1c1f c23d ba6a 703d a80e 4dbd
00000020: e2a5 80bd 754b bc3d 5fd0 133e d36d 8fbd
00000030: 4395 ecbd 6665 283e bdd8 09be 649d 993b
00000040: 7ada 9fbd 1f4e fb3c 6e41 e5bd 6dcf df3d
00000050: 7c2d 013e c9db 02be 7892 6e3d 4272 c33c
00000060: 4675 2c3e b759 0abe 2cd8 e4bd 10f1 1fbd
00000070: b0da 05be 0223 77bd 73e1 c9bd 6f19 9c3c
-0.08259625 0.04869257 0.16619122 0.050042808 -0.12343897 0.0947859 0.058695532 -0.050062805
-0.0628164 0.0919408 0.14434956 -0.07003369 -0.11551907 0.1644493 -0.13461585 0.004687952
-0.07805343 0.0306769 -0.1119412 0.10928235 0.12615007 -0.12779154 0.058245152 0.023858193
0.16841611 -0.13510786 -0.11174044 -0.039048254 -0.13071704 -0.06033612 -0.09857454 0.019055096

conv3.weight f4 [32, 32]
00000000: 9c44 b13c 8c86 89bd 8d41 643e 26ad 1fbe
00000010: 8dfd bdbe 5e12 dc3d 705e a43e 4bef 48be
00000020: ba64 f93e 48d3 9ebe fbc5 a43e 8c2f da3d
00000030: 790f 053e e9e4 b5be 919c 82be 9d3c d93e
00000040: 9866 f1be 341b c1be 832f 2bbf a585 da3d
00000050: 739f 193e fd9e b4be 3bc5 be3e 5242 053f
00000060: 6521 74be 8a6b 313d 1a30 83bd 9b99 123e
00000070: 283c 663e e81e ae3d 6027 a63d 3e33 4dbe
00000080: 8601 473e 42a5 8abe abaa ddbe 683a 14bf
00000090: c517 a4be 1245 933e a8d9 e0bd b938 993e
000000a0: 0541 66be 9013 17bf 4a8b e1be f422 c03d
000000b0: a985 febd f926 c73e 67a8 263d 8d80 8dbe
000000c0: 9a81 c83c c4ed 983d dbb5 b73e c8de 9b3d
000000d0: 3caa e1be 8109 f23e f95c cb3e 3c1d a23c
000000e0: 87e4 c73e 1092 adbc f83b d53e e86b eebb
000000f0: 4124 4e3e 7f95 483c 3f1a aabe 9d6a 93be
00000100: e85b 21bf 072e 0a3f 705e d83e a6dc 743e
00000110: 4e05 dd3e f015 98be 8e98 aebc 9c68 fcbe
00000120: fb88 6dbe 7b9b 973f c0ba 1dbe 3038 81bb
00000130: 6471 ee3d 1687 20be c92e 493e 3fbf 0cbd
00000140: cfd6 ee3e 3b4f f33d 6b00 113f 0ce4 57bd
00000150: 3957 ff3e 3a2a 673d b169 53bd 1067 dfbe
00000160: e142 923d 0f1b a5be 48ec 503e 3326 f6bd
00000170: 5562 84be 4b3e 7bbc a6b5 a43e 1da8 4d3e
00000180: 1229 d5bd cd10 ce3d 99ca a73e 0fe9 0d3e
00000190: 258a e1be 464b e0be e56f ba3e afe0 d53d
000001a0: 8342 e13e cc40 723e a783 05be b64d 1ebd
000001b0: 101b c93e 69c7 6dbd 5496 f4be 3de2 8b3e
000001c0: e695 3d3e 8652 dcbd c42b d43d eb14 bd3e
000001d0: c5b6 8d3e 90ab e23d 1e67 38be 3f3e ef3e
000001e0: c7ef f2bd 185b 0d3f 2e75 1f3d 585f b03c
000001f0: 9b2a a73c 2e42 e4bb c605 f33e 7522 943e
00000200: 6c8f 4b3e ad8c 38be 14b2 95be f179 4abe
00000210: 6db8 893d 1e2f c43e edba a93b 7ba9 bc3c
00000220: 727c d7be 11f7 813e b380 7f3e 3d3c 79be
00000230: e191 2bbe 1d26 623e f997 bc3c e449 c9be
00000240: 4f2e 69bd bce1 c03e 78b6 543d 0d62 dcbe
00000250: 5de5 483e d7fb ae3c ff72 a5bd 54b2 45be
00000260: ace9 413e b047 9fbe b038 93be 1502 0d3c
00000270: 2451 51be baa5 e6bd 72fe 773e 5b15 c6bd
00000280: b3ed b3be 4efe ceb9 2f02 40be c732 9abc
00000290: b248 edbd 4fde 043e f5dc 9dbe 0d25 943d
000002a0: 4a82 a9bc 9272 5e3e 5bbf bc3e 1a82 98bd
000002b0: d290 b23d f15b b7bd a3ad 20be 945f 07bd
000002c0: 9829 e43c f746 9e3e fcd5 56be cb72 dbbd
000002d0: cf45 d0bc 8796 4ebe 9105 283e 5787 90be
000002e0: 69d1 84be 9177 01be 3a57 17bd 7789 4fbe
000002f0: 5430 643e e27b 8d3e 2ee5 64be 89be e9bd
00000300: cec6 f0bd 0360 003f 3524 c43d bdb6 f43d
00000310: 59cf 2bbe b91b 3f3d b126 003f 6ced a73c
00000320: bb07 723e 3237 3e3e db03 53be f83b a13e
00000330: b525 6d3e 29a6 d7bd ec27 193e d52f efbb
00000340: fff6 413f b0ed a0bd 4e8f 143f 7988 793e
00000350: dce1 c93e 3202 333d 78fb 7f3d f6c1 6dbd
00000360: 9ac4 813e 396a 973e cd02 4b3f 9e6b 253d
00000370: 3847 893e 498f 06be 77b3 a6ba 95d6 8c3d
00000380: 152f 01be 256c 103e 21ef 20be e895 bcbe
00000390: 10cb 9f3e c8b4 2e3f 2205 0bbf 0bb6 c23d
000003a0: 361d 28bf 6dcb dcbe a656 883e f9c2 003e
000003b0: 7b54 8cbe c8c2 af3e 44b9 9c3d 31c7 2e3d
000003c0: 0faa 0cbc b8f4 df3e ab88 fb3c 12b5 d4be
000003d0: aff4 0a3d 7514 1fbd 8663 99be 7134 33bf
000003e0: 13de 8d3e b121 f0bd 0e71 2fbe 8816 a03e
000003f0: 8e6e 74be b558 8a3e 02f9 8abc 0c49 6a3e
0.02163916 -0.06715116 0.2229063 -0.15593395 -0.37107506 0.10745691 0.321033 -0.19622533
0.4870966 -0.3102057 0.32182297 0.106536 0.12994184 -0.35526207 -0.25510076 0.42429057
-0.47148585 -0.37716067 -0.6686937 0.10670022 0.15002231 -0.35277548 0.3725985 0.5205432
-0.23840864 0.043315448 -0.06405659 0.14316408 0.22483885 0.08501989 0.08112979 -0.20039079
0.19434175 -0.27079207 -0.43294272 -0.5790162 -0.32049385 0.28763634 -0.10979015 0.29926088
-0.2248574 -0.59014225 -0.44051582 0.09381667 -0.124278374 0.3889692 0.040687945 -0.2763714
0.024475861 0.07467225 0.35880932 0.076108515 -0.4407519 0.47272876 0.3971937 0.01978933
0.3904154 -0.021187812 0.41647315 -0.007276047 0.20131017 0.012242674 -0.3322315 -0.28792277
-0.6303086 0.5397648 0.4225955 0.23912296 0.4316811 -0.29704237 -0.021312978 -0.4929856
-0.23196785 1.1844324 -0.1540327 -0.0039434657 0.11642721 -0.15676531 0.19646753 -0.034362074
0.4664826 0.118803464 0.5664126 -0.052707717 0.49871233 0.056436755 -0.051614467 -0.43633318
0.071416624 -0.32247207 0.20402634 -0.12019005 -0.2585627 -0.015334676 0.32169837 0.20083661
-0.10408224 0.10061798 0.32771757 0.13858436 -0.44050708 -0.4380743 0.36413494 0.104432456
0.43996057 0.2365753 -0.13038503 -0.03864833 0.3927846 -0.0580515 -0.4777094 0.27321044
0.18514213 -0.107579276 0.1035991 0.36930022 0.27678505 0.11067879 -0.18008086 0.46727178
-0.1186214 0.55217123 0.03893011 0.021529838 0.020406058 -0.006965897 0.47465342 0.2893254
0.1987893 -0.18022414 -0.29237425 -0.1977308 0.067246296 0.38317198 0.005179754 0.023030033
-0.42087132 0.2538381 0.24951439 -0.24339385 -0.16754867 0.22084852 0.023021685 -0.39314187
-0.05692893 0.37672222 0.05193183 -0.43043557 0.19618745 0.021360321 -0.080785744 -0.19306308
0.18936795 -0.3110938 -0.28754187 0.008606453 -0.20441109 -0.112620786 0.24218157 -0.09672042
-0.35142288 -0.00039480854 -0.18750833 -0.01882304 -0.11586131 0.12975429 -0.3083264 0.072336294
-0.02069201 0.21723393 0.36864743 -0.0744669 0.087190285 -0.08953083 -0.15691237 -0.033050135
0.027851865 0.30913517 -0.20980066 -0.107152544 -0.025423912 -0.20174609 0.16408373 -0.28228256
-0.25941017 -0.12643267 -0.03694842 -0.20267282 0.2228406 0.27633578 -0.2235305 -0.11413295
-0.11756669 0.501465 0.095772184 0.11948917 -0.16778316 0.046657298 0.5005904 0.020498954
0.23635761 0.18575743 -0.2060694 0.31491065 0.23158915 -0.105297394 0.14956635 -0.007299403
0.7576751 -0.07857835 0.58031166 0.24368466 0.3943013 0.043703265 0.06249568 -0.058046304
0.25345308 0.2957323 0.7930115 0.040385835 0.26812148 -0.13140596 -0.001271828 0.06876866
-0.12615617 0.14103754 -0.1571622 -0.3683312 0.31209612 0.682446 -0.5430471 0.09507378
-0.6566957 -0.43123952 0.26628608 0.12574376 -0.27408203 0.34328294 0.07652524 0.042670432
-0.008585467 0.43741393 0.030704817 -0.41544396 0.033924755 -0.03883787 -0.29958743 -0.70001894
0.27708492 -0.11725176 -0.1713297 0.3126719 -0.23870298 0.27020803 -0.01696444 0.22879428

conv3.bias f4 [32]
00000000: 9564 96bc 44b4 41bd 1a4c fdba d7c1 923d
00000010: ae43 18bc c4ed f43b fc6b 3abd 48d4 71bc
00000020: 62fa 4b3d 58a6 c4bc ab73 4f3d 040e debc
00000030: 1ac6 a23c 1afb 57bd 1163 ecbc da12 1fbc
00000040: 2669 a6bc 0443 1bbd 9d27 893b a4c2 98bc
00000050: 57dd 3d3c 2511 893c bf9a 7bbc f69c b1bd
00000060: 8730 40bd 876a 713c 5950 b9bd 2675 46bd
00000070: 7ec7 6dbc 595e c03c 3ca7 f0bb 211e 833c
-0.018358508 -0.047291055 -0.0019325048 0.07165878 -0.00929348 0.007474633 -0.04551314 -0.014760084
0.04979933 -0.0240051 0.05064742 -0.027106293 0.019869853 -0.052729703 -0.028855832 -0.009709084
-0.02031381 -0.037905708 0.0041856305 -0.0186475 0.011588416 0.016731808 -0.015356719 -0.08672516
-0.04692128 0.014734871 -0.09048528 -0.048451565 -0.014512895 0.023482488 -0.0073441546 0.016005578

conv4.weight f4 [32, 32]
00000000: 8af9 c3bb ea60 08be cdb0 393e 1906 943e
00000010: 1e4a 0cbd ec64 ecbc 5a97 30be 4c49 ac3e
00000020: 2ac0 8a3c ffb1 393e 1b64 2abe 41ab 93be
00000030: c025 ccbe 090b 593e 0452 73be b5f3 f2bd
00000040: a79e 4d3d 1050 fe3c fa70 9abc 36ee 7abd
00000050: 04ec 6abe c230 953d b446 a2be faea ccbc
00000060: 6895 153e c9ab 1abd b3fd 653e 2893 b53e
00000070: 7eb3 adbb 8b27 483e 61d7 5d3d 481e 3fbe
00000080: 55c0 43be 4807 c83e 2606 bd3d 3944 253c
00000090: 8884 d6be e2d5 6cbe 13f3 243e 75be c73e
000000a0: 5818 a83e d7e2 32be b4d5 423e 3fa3 45be
000000b0: fe12 003f 14ce e7bd c34f 313d 4329 4e3d
000000c0: c095 253e 6446 253d 8ccd bf3d 29fa 1d39
000000d0: d9e3 17be 4740 a1be f70b 873e 1f54 2bbd
000000e0: 2998 2e3d e9db c53e 232c 503e 2175 fdbe
000000f0: 5329 aa3e 7dd5 183e 607a d6bd 8668 90be
00000100: 186b 083d a937 7b3d 2d9c 80be 52e8 313e
00000110: 7440 503e bddb 40bd a575 e53c 333e b7bd
00000120: 5f27 ea3d 0283 8cbe e35d 39be 8dd3 433e
00000130: daf8 603e 7eb5 663e 1d84 9dbd 7d9c a43d
00000140: 28bc abbd 82e1 44be f2db a53e c724 813e
00000150: 41e0 b23e 50b7 533e f596 bd3e 3477 d2bd
00000160: aeb9 ec3d 9f1c 5dbb c07b 2dbe bf59 5fbe
00000170: e350 fe3d e60c 81be 9e55 803e 898b 6dbe
00000180: 221b 553e 84ab c1bd 322d 343e 7e3e f13b
00000190: a6b8 9d3e 203f a03d 041f 2fbe 0f40 afbe
000001a0: 7a69 02bf a46f 453e 6bbe 58bd 2411 83be
000001b0: bee9 ffbe 772b fabe 0663 bcbc b25e 42be
000001c0: 9e91 b9bd 2b7c 18bf df02 aebc 61bf 753e
000001d0: eede 38bd d83a 173e 5d13 52bd 5d17 ab3e
000001e0: ccd2 c3bd f4a2 2f3d ebb4 bf3d 91f9 fcbc
000001f0: 3a81 e53a 4c61 643e e619 613d cb9b cf3d
00000200: f44c 7d3e b420 93be 70c8 9a3e 71db 07be
00000210: c47e 1f3d 01e1 edbd adf5 523e 1cc8 163e
00000220: 0017 79bd 095a 8ebd f7ae a7bd 5c5d d43d
00000230: 651c 253f 70c5 9e3e 19ce 82be e5f2 e0bd
00000240: 0813 e5bd 0074 dc3e 2428 85be 6d5c aabd
00000250: 3b32 3c3e 66d4 693e 4707 de3e cd31 91be
00000260: 50a0 733e 3d47 893e e646 683d 96af d4be
00000270: 8316 993d a335 4e3e a3ac 41be ed3a cc3c
00000280: a78b 443d e4ab 0a3d 9dd0 1abe 13a8 81be
00000290: 2f8b e7be 22f3 e9bd 3ca2 693e 5ab4 c83e
000002a0: 6338 17bc 2146 b23e 4427 613d e566 00be
000002b0: ac6c 6ebd 4e44 603e 192b 32be 8357 183e
000002c0: 5e49 c2bc b980 0e3f bbaf d1be 0d89 febc
000002d0: f877 cf3d f9f6 6c3d 54a1 89be c7a4 48be
000002e0: dd50 1c3e 08b8 283e c7eb 923d da8f 08be
000002f0: 59b6 833d dc0d 2c3d 2597 a23d b592 53be
00000300: 1ad0 25bd 768a d03e 78da b8bd b500 753d
00000310: 6cba f8bd e8db 0f3e 6279 acbe aa1b ae3e
00000320: c667 813e ebf2 a73d 6f3d 2c3e e14c 80be
00000330: 0ec2 2fbe 09d2 223d 88b7 303e aafb 41be
00000340: 5e1d 8e3d 8cef 0cbf ffaa 153e f990 7d3e
00000350: c916 873d 4ea1 ca3e a09e d83e 3406 39be
00000360: a106 28bd f669 f2be 5099 d13d abc8 a0be
00000370: 3203 a93e c564 e23d f450 d13d af91 85be
00000380: 1c64 6dbe 7a30 93be 8315 823d f9e3 3d3d
00000390: e5c1 0dbe b0ee 663e 8b1d 033e c81a a6be
000003a0: 1f46 b4be c51d fc3d 94ed 4dbe a8c2 593d
000003b0: edf4 e4be e1e1 913d fb01 303e 75c3 ddbc
000003c0: b4e1 583e 766e 91be 0d20 4e3e daf0 a6bd
000003d0: 5343 10bd b605 15be f4f4 15be 6948 b53e
000003e0: 90d9 24be 8cab 15bf 9826 773e 6c0c f73e
000003f0: 5e23 493e 4022 8d3e ae9b 18bc 1316 acbe
-0.005980675 -0.1331822 0.1813385 0.28910902 -0.03425037 -0.028856717 -0.17245236 0.3364967
0.016937334 0.18134306 -0.1663975 -0.28841594 -0.3987255 0.21195616 -0.23761755 -0.1186289
0.05020013 0.031044036 -0.0188527 -0.061262332 -0.22941595 0.072846904 -0.31694567 -0.02501439
0.14607775 -0.037761483 0.2246006 0.35463834 -0.005300938 0.19546334 0.05416048 -0.18663895
-0.19116338 0.39068055 0.09229688 0.010087066 -0.41897988 -0.23128465 0.1610835 0.39012495
0.32831073 -0.17469345 0.19026834 -0.19300555 0.5002898 -0.11318603 0.043288957 0.05033232
0.16170406 0.040350333 0.09365377 0.00015065879 -0.1483301 -0.31494352 0.26376316 -0.04182827
0.04262558 0.3864434 0.20329337 -0.49503425 0.33234653 0.1492519 -0.1047256 -0.28204745
0.033305258 0.06133238 -0.25119153 0.1737378 0.20337087 -0.04708456 0.028010199 -0.089474104
0.11433291 -0.274437 -0.18102221 0.19123669 0.2196993 0.22530171 -0.07691214 0.0803766
-0.08385497 -0.1922665 0.32394367 0.2522337 0.34936717 0.20675397 0.37029234 -0.102766424
0.11558853 -0.0033738983 -0.16941738 -0.21811579 0.12417772 -0.25205153 0.2506532 -0.2319776
0.20811132 -0.09456542 0.17595366 0.007362186 0.30804938 0.0782454 -0.17101675 -0.3422856
-0.50942194 0.19280869 -0.05291597 -0.25599015 -0.4998302 -0.48861286 -0.022996437 -0.18981436
-0.090609774 -0.59564465 -0.021241603 0.23998787 -0.045134477 0.14768541 -0.051287998 0.33416262
-0.09561691 0.042880014 0.09360679 -0.030880721 0.0017509826 0.22302741 0.05495634 0.10137137
0.24736387 -0.28735888 0.30231047 -0.13267304 0.038939252 -0.11615182 0.2060153 0.14724773
-0.06081295 -0.069507666 -0.08187669 0.103693694 0.6449645 0.31010008 -0.25547865 -0.109838285
-0.111852705 0.4305725 -0.26007187 -0.0831841 0.18378536 0.2283493 0.43364927 -0.28358307
0.23791623 0.26812163 0.05670824 -0.4154021 0.07474997 0.20137648 -0.18913512 0.024930442
0.047984745 0.033855334 -0.15118642 -0.25323543 -0.45223376 -0.11423327 0.22815794 0.39200097
-0.009229752 0.3481913 0.054969087 -0.12539251 -0.058209106 0.21901056 -0.17399253 0.14877133
-0.023716625 0.55665165 -0.40954384 -0.03107121 0.10130304 0.05785272 -0.26880896 -0.19594108
0.15265222 0.16476452 0.07173877 -0.13336125 0.064312644 0.042005405 0.07938985 -0.20661433
-0.040481664 0.40730637 -0.090260446 0.059815127 -0.12144932 0.14048731 -0.33686358 0.3400548
0.25274485 0.0820063 0.1682031 -0.25058654 -0.1716387 0.039751086 0.17257512 -0.18943658
0.06939195 -0.5505302 0.14616011 0.24762334 0.06596143 0.3957619 0.4230852 -0.18068773
-0.041021947 -0.47346467 0.1023432 -0.31403098 0.3301025 0.110543765 0.10220519 -0.2608771
-0.2318272 -0.28747922 0.06351759 0.04635999 -0.13843496 0.2255199 0.12804238 -0.32442307
-0.35209748 0.123103656 -0.2011016 0.053164154 -0.44718114 0.07123161 0.17188255 -0.02707074
0.21179849 -0.28404588 0.20129414 -0.081514075 -0.035220455 -0.1455296 -0.14644223 0.35406807
-0.16098619 -0.58464885 0.24135816 0.48251665 0.19642398 0.27565193 -0.009314461 -0.3361059

conv4.bias f4 [32]
00000000: 2580 f0bc c2bf 813c b9e3 7ebd d3cf 90bd
00000010: 30bc c13d 3d99 88bd 2229 08bd 8899 9dbd
00000020: 8fcb c2bd 4afd 31bd eee3 05bd 0be6 75bd
00000030: 2d5b cc3c c619 c3bd dc59 84bd 3a66 813c
00000040: 05c9 a1bd 47a3 27bd d056 a93d c610 7ebd
00000050: 91f9 a43d 3c50 92bd 7ec4 783d cdf1 ae3d
00000060: 233f e23c 1545 1e3c df49 aa3d 1b24 adbd
00000070: a72d 9f3d 9978 8fbd 42b3 763d 24d8 8fbd
-0.02935798 0.015838508 -0.062228892 -0.07070889 0.09459722 -0.06669853 -0.033242352 -0.076952994
-0.09511482 -0.043454446 -0.032688074 -0.06003384 0.02494582 -0.095264 -0.06462452 0.015795816
-0.078996696 -0.040927198 0.08268511 -0.062027715 0.080554135 -0.0714421 0.060734265 0.085422136
0.027617997 0.009660025 0.08314871 -0.08454152 0.07772379 -0.07005424 0.060229547 -0.070236474

conv5.weight f4 [32, 2]
00000000: 3f67 043c 8c82 e1bb 110d c8be 12eb ec3e
00000010: 9be3 123e b9a9 77be f1f4 bfbd a0d4 0ebd
00000020: 611b b43e 3c8e 893e cac7 a6be bccf 7bbe
00000030: 0e35 453d 1bad aabd fc40 debe 800f 173e
00000040: 1d69 eabe b560 1abd 6e06 523e 05b9 87be
00000050: 1f52 96bb d572 e539 df3b 123d 4dc3 a6bd
00000060: 4888 a33e 6c79 1ebd 9d78 a5be 558d adbe
00000070: c49e 45bd 047d 13bd 0813 8c3d 6df8 a3bc
00000080: 45df 69be 2549 80be 24ad 023e 44f0 13bf
00000090: 0b51 08bd 822d 773e 0481 8cbe 5de7 533d
000000a0: 4923 193e 7a61 a13e 1570 6dbe f2cd d03c
000000b0: fbb7 653e 6b0c 5b3e 094d 9b3e c345 da3d
000000c0: 0f50 803d 3bd5 bbbc 2a9f 113f ff79 85be
000000d0: 6351 b6bd 9af7 aa3e 909e 89be 677f 0fbf
000000e0: 46d6 273c baae 8c3e 4391 51be bcbe aebd
000000f0: 76ec 673e b90f 84bd d077 903c b2f1 6ebd
0.008081256 -0.0068820175 -0.3907247 0.46273094 0.14344637 -0.24185838 -0.09372891 -0.034870744
0.35177138 0.2686633 -0.32574302 -0.24590963 0.0481463 -0.083337985 -0.43408954 0.14752007
-0.4578332 -0.037689883 0.20510265 -0.26508346 -0.0045874263 0.0004376384 0.03570163 -0.081427194
0.31939912 -0.038690016 -0.32318583 -0.3389689 -0.048247114 -0.036007896 0.068395674 -0.02001592
-0.22839077 -0.25055805 0.1276136 -0.5778849 -0.033280414 0.24138454 -0.2744218 0.051734317
0.14954866 0.3151968 -0.23187287 0.025488827 0.22433464 0.21391456 0.3033221 0.10657837
0.0626527 -0.022928825 0.5688349 -0.26069638 -0.08902242 0.3339203 -0.26878786 -0.56053776
0.010243958 0.27477056 -0.20465569 -0.085324734 0.22648796 -0.06448311 0.017635256 -0.058335967

conv5.bias f4 [2]
00000000: a079 133e e8af 113e
0.14401865 0.14227259
