GST-recon/checkpoints/best_ring_DiffPool.pth (torch, 24091 bytes, 12 tensors)

conv1.weight f4 [2, 32]
0.6250124 0.7662568 -0.13706346 1.0665898 -0.46966115 0.037742954 -0.5188763 0.569192
1.1231872 -0.38078362 0.7620292 0.36838523 0.70992565 0.18770024 0.16288619 -0.6422986
0.53985643 0.27658784 -0.3205147 0.5110949 -0.38222364 -0.1649105 -0.66023856 0.87047166
-0.66271126 -0.5592975 -0.34528902 -0.3724385 0.034544464 -0.6288602 0.78292984 -0.96787244
0.5784995 0.069656685 -0.55717605 0.46804476 0.5520666 0.827609 0.65475255 -0.6717454
-0.047514528 -0.71523565 0.264211 0.69108087 0.5520077 -0.6399284 0.71562207 0.47123444
0.5781747 -0.75329214 -0.9204031 -0.62810206 -0.82093847 1.0019541 0.49758473 -0.17494498
0.1800546 0.3820439 0.6320213 -0.67897147 0.5990707 0.13650158 0.011524833 -0.18936066
00000000: d000 203f 6829 443f 5d5a 0cbe 0486 883f
00000010: 6d77 f0be 5b98 1a3d 14d5 04bf 91b6 113f
00000020: 99c4 8f3f 12f6 c2be 5814 433f fd9c bc3e
00000030: b0bd 353f 7e34 403e a3cb 263e ae6d 24bf
00000040: 0834 0a3f ec9c 8d3e 811a a4be 1ed7 023f
00000050: d1b2 c3be 4cde 28be 6505 29bf 3bd7 5e3f
00000060: 72a7 29bf 1f2e 0fbf b9c9 b0be 42b0 bebe
00000070: 7f7e 0d3d fbfc 20bf 176e 483f 7dc6 77bf
00000080: 8b18 143f 2aa8 8e3d 17a3 0ebf 90a3 ef3e
00000090: 3d54 0d3f 2fde 533f dd9d 273f 82f7 2bbf
000000a0: 989e 42bd af19 37bf aa46 873e adea 303f
000000b0: 6050 0d3f 59d2 23bf 0233 373f a445 f13e
000000c0: 4203 143f c1d7 40bf 8a9f 6bbf 4ccb 20bf
000000d0: 0629 52bf 0840 803f 6dc3 fe3e c724 33be
000000e0: 3c60 383e 429b c33e 26cc 213f 13d1 2dbf
000000f0: b35c 193f 12c7 0b3e a7d2 3c3c c3e7 41be

conv1.bias f4 [32]
-0.027506752 -0.01740296 -0.01104404 -0.012339634 -0.022511136 -0.008433534 -0.014093527 -0.028797626
-0.0057219984 -0.03958013 -0.028864836 -0.008000579 0.005148487 -0.00480828 -0.006380883 -0.024963997
0.0059004696 0.03325741 -0.007767793 0.0048069325 -0.008308575 -0.014417564 -0.003159507 -0.022011084
-0.012435588 -0.011975799 -0.0052896515 0.033135872 -0.008000524 0.003239867 -0.012324513 0.015771301
00000000: d755 e1bc a790 8ebc 10f2 34bc 2d2c 4abc
00000010: 4669 b8bc ce2c 0abc 89e8 66bc 00e9 ebbc
00000020: 9a7f bbbb c61e 22bd f375 ecbc dc14 03bc
00000030: a4b4 a83b c78e 9dbb ba16 d1bb 4c81 ccbc
00000040: ba58 c13b ec38 083d f888 febb 7983 9d3b
00000050: b020 08bc a537 6cbc bb0f 4fbb 9750 b4bc
00000060: a3be 4bbc 2436 44bc d054 adbb 7bb9 073d
00000070: a114 03bc f353 543b c1ec 49bc d132 813c

conv2.weight f4 [32, 32]
0.11526145 -0.09420973 0.27429244 -0.4845159 0.052662235 -0.33756304 0.11245806 0.25272897
1.1360615 -0.4307518 -0.4212134 -0.5542868 -0.5224405 0.15845278 0.28932846 -0.691171
-0.25713536 -0.7340123 0.28753003 -0.5546559 0.33374694 -0.2623343 0.48663837 0.095028326
-0.10715213 0.16194738 0.0061956276 0.0028309568 -0.1921944 0.2722035 -0.4453882 -0.3754738
0.416367 -0.004819314 -0.15357709 -0.5272295 -0.18909271 0.018612582 -0.69482476 -0.18733479
0.52514994 -0.80520153 -0.4888798 -0.3355963 -0.5213596 -0.06730397 1.261974 -0.62479216
-0.19326377 -0.8259088 -0.20603114 -0.17363392 0.14953619 -0.37509814 0.13805668 -0.2009999
0.15938179 0.6241691 -0.009576074 0.09871348 -0.26882815 -0.32904288 -0.2775061 -0.44914335
0.2769383 0.03634875 0.17937218 0.3577187 -0.7707305 0.361389 -0.20063597 -0.33952904
-0.8566265 -0.31827158 0.18329093 0.24365538 0.45539376 -0.23183542 0.07249697 0.33377525
-0.028858462 0.5606192 -0.022172833 1.0803064 0.12569468 -0.13063064 -0.22343385 -0.7932491
-0.011836497 -0.11741625 0.4335766 -0.22403355 1.0346957 -0.009981525 0.27827442 -0.047023878
0.34608465 0.07126281 0.020165926 -0.5791499 0.25981903 -0.15272567 -0.512239 0.3631756
0.8038689 -0.505876 -0.32615253 -0.24702418 -0.14561181 -0.00085665437 0.083471395 -1.3476003
-0.39145762 -0.46468896 0.3006288 -0.52598035 0.24162304 -0.0028312549 0.3660021 0.084245756
0.2553447 0.4097139 0.081333406 0.081375994 -0.28878367 0.09256293 -0.26386905 -0.3253832
-0.10850277 -0.19108966 0.15727282 -0.07672765 0.44173965 -0.1148487 0.82641053 0.48594353
-0.37632436 0.6884894 0.41042152 0.07734185 0.01796345 -0.5892258 -0.46096283 -0.3038935
0.43064725 0.094190724 0.40360123 -0.8596657 -0.2047562 -0.24236962 -0.16499195 0.802537
-0.3446963 -0.84356076 -0.040952623 -0.7960494 -0.89125484 0.5994463 -0.08597261 0.008069825
-0.3936042 0.068876006 0.35857487 -0.083855435 0.614555 -0.47033012 0.032197453 0.49513325
0.4479228 0.43409792 0.12166427 0.012839119 -0.2535382 -0.2992419 -0.17604652 -0.66949487
0.20112324 -0.5671484 0.17455536 -1.2396299 0.06725794 -0.37130153 0.012905457 1.4687965
-0.18522516 -0.04814336 -0.33428398 -0.29018906 -1.3904685 0.026912529 -0.2614094 -0.36994725
-0.087928176 -0.5435264 0.25192505 0.23901038 0.5331602 -0.25872388 0.92469805 0.008599237
-0.09661378 1.0127696 0.12463871 0.050894614 0.053171452 -0.54076594 -0.09735662 -0.19304712
0.6423078 0.34058088 0.37644354 -0.80394554 -0.26859957 0.08660643 0.016418679 0.046882294
-0.4059336 -0.9478288 -0.10779729 -0.86684626 -0.5198517 0.18503422 -0.18984121 0.37393802
0.51498055 0.28062028 -0.12409837 -0.22280347 -0.5452138 -0.2873102 -0.58661026 -0.302234
0.008440199 -0.7643322 -0.2628131 -0.14957312 -0.12982908 0.2241363 0.15495768 -0.25805742
-0.72065794 0.13840334 -0.21721654 0.6761001 -0.100847445 0.010711849 0.44927755 -0.15942362
0.10316808 0.94283235 0.3727145 0.9267161 0.5784443 0.0020659624 -0.16038947 -0.06368663
00000000: 320e ec3d 08f1 c0bd 0f70 8c3e 7812 f8be
00000010: 5bb4 573d 10d5 acbe 6950 e63d b165 813e
00000020: 776a 913f 808b dcbe 48a9 d7be bde5 0dbf
00000030: a9be 05bf 7241 223e dc22 943e 95f0 30bf
00000040: 3fa7 83be 3be8 3bbf 2337 933e eefd 0dbf
00000050: e1e0 aa3e ae50 86be aa28 f93e 369e c23d
00000060: 9372 dbbd 89d5 253e b104 cb3b 9387 393b
00000070: 9cce 44be 425e 8b3e ec09 e4be 1a3e c0be
00000080: 0e2e d53e 56eb 9dbb 5043 1dbe 83f8 06bf
00000090: 85a1 41be 6a79 983c 09e0 31bf b1d4 3fbe
000000a0: 3a70 063f b021 4ebf 744e fabe 47d3 abbe
000000b0: d377 05bf aad6 89bd 5d88 a13f 61f2 1fbf
000000c0: f0e6 45be c26e 53bf d4f9 52be 17cd 31be
000000d0: 0420 193e dd0c c0be bb5e 0d3e ebd2 4dbe
000000e0: fb34 233e 8cc9 1f3f f7e4 1cbc 4b2a ca3d
000000f0: d8a3 89be 4f78 a8be 4815 8ebe 1ef6 e5be
00000100: dbca 8d3e 6de2 143d 57ad 373e e826 b73e
00000110: 984e 45bf fb07 b93e 8473 4dbe c0d6 adbe
00000120: e04b 5bbf 7ef4 a2be 9eb0 3b3e cc80 793e
00000130: 5f29 e93e 4466 6dbe 4b79 943d 97e4 aa3e
00000140: 9568 ecbc bd84 0f3f cda3 b5bc 7b47 8a3f
00000150: 1bb6 003e 0ac4 05be d8cb 64be 5f12 4bbf
00000160: deed 41bc ee77 f0bd c1fd dd3e 0d69 65be
00000170: e970 843f 8d89 23bc fc79 8e3e 1c9c 40bd
00000180: 0232 b13e 3cf2 913d 0333 a53c 2b43 14bf
00000190: 0007 853e 1e64 1cbe 1822 03bf 27f2 b93e
000001a0: 5aca 4d3f 1781 01bf 77fd a6be e8f3 7cbe
000001b0: 431b 15be 1a91 60ba 0df3 aa3d 2b7e acbf
000001c0: 226d c8be b6eb edbe 05ec 993e a6a6 06bf
000001d0: 086c 773e 938c 39bb a164 bb3e 0a89 ac3d
000001e0: 8abc 823e 05c6 d13e 2192 a63d 75a8 a63d
000001f0: 74db 93be a291 bd3d d819 87be a098 a6be
00000200: b336 debd 02ad 43be 200c 213e 6323 9dbd
00000210: b32b e23e cc35 ebbd a48f 533f 97cd f83e
00000220: 96ad c0be d740 303f c522 d23e 6765 9e3d
00000230: 1628 933c 81d7 16bf 5203 ecbe ee97 9bbe
00000240: cc7d dc3e 11e7 c03d d2a4 ce3e 0d13 5cbf
00000250: 9cab 51be be2f 78be a6f3 28be 1173 4d3f
00000260: 097c b0be 99f3 57bf f0bd 27bd e5c9 4bbf
00000270: 4729 64bf 5075 193f 6812 b0bd 4d37 043c
00000280: 7d86 c9be dd0e 8d3d 2097 b73e 66bc abbd
00000290: 7a53 1d3f 1ccf f0be 7ae1 033d 1b82 fd3e
000002a0: 2356 e53e 1542 de3e 1e2b f93d 2b5b 523c
000002b0: c2cf 81be 3c36 99be 8a45 34be 0464 2bbf
000002c0: 40f3 4d3e a330 11bf a4be 323e 31ac 9ebf
000002d0: 88be 893d 3c1b bebe 6971 533c 8601 bc3f
000002e0: aaab 3dbe f931 45bd 4527 abbe a993 94be
000002f0: dffa b1bf aa77 dc3c 74d7 85be ba69 bdbe
00000300: b013 b4bd 8c24 0bbf 52fc 803e 23bf 743e
00000310: 307d 083f 7577 84be 03b9 6c3f d0e3 0c3c
00000320: 72dd c5bd 6fa2 813f 9442 ff3d df76 503d
00000330: 4fca 593d a36f 0abf e862 c7bd 25ae 45be
00000340: 496e 243f 9e60 ae3e 35bd c03e 60cf 4dbf
00000350: e285 89be b65e b13d 7780 863c a607 403d
00000360: 87d6 cfbe e9a4 72bf d3c4 dcbd a3e9 5dbf
00000370: 0015 05bf 9c79 3d3e bc65 42be ce74 bf3e
00000380: c4d5 033f 76ad 8f3e 4927 febd 9826 64be
00000390: 2293 0bbf 531a 93be 172c 16bf 6abe 9abe
000003a0: c348 0a3c 46ab 43bf 708f 86be b229 19be
000003b0: eaf1 04be fc83 653e 3aad 1e3e 1a20 84be
000003c0: 0a7d 38bf 9bb9 0d3e 036e 5ebe e514 2d3f
000003d0: 1b89 cebd c080 2f3c b507 e63e f23f 23be
000003e0: c949 d33d 765d 713f 6fd4 be3e 443d 6d3f
000003f0: ed14 143f 1965 073b 233d 24be 236e 82bd

conv2.bias f4 [32]
-0.068333164 -0.01214829 0.095055185 -0.044600744 0.0031249702 0.16920303 0.0026280833 -0.017853457
0.014752275 -0.00383461 0.11190383 0.00758773 0.043922305 -0.097579874 -0.016999358 -0.0073257647
-0.01583127 0.009261873 0.006418537 -0.004813921 0.053690583 0.001883435 -0.047922906 0.00911488
0.07763038 -0.025176372 -0.039069038 -0.018283082 0.003985309 -0.05957123 -0.11528221 0.06701583
00000000: 42f2 8bbd 9f09 47bc 4bac c23d 45af 36bd
00000010: 4dcc 4c3b 8f43 2d3e ec3b 2c3b 6a41 92bc
00000020: 87b3 713c 154e 7bbb d62d e53d 7ea2 f83b
00000030: e0e7 333d f5d7 c7bd 3d42 8bbc f80c f0bb
00000040: 94b0 81bc 1cbf 173c 9752 d23b 19be 9dbb
00000050: a8ea 5b3d 97dd f63a cf4a 44bd 9456 153c
00000060: adfc 9e3d ae3e cebc db06 20bd 67c6 95bc
00000070: 3297 823b f600 74bd 1419 ecbd 983f 893d

pool.weight f4 [32, 50]
-0.41952804 -0.33892906 0.10731826 0.092176646 -0.283098 0.1083576 0.26989314 0.03483822
-0.1163559 0.24282329 0.1266188 0.39978462 -0.22677357 0.17884576 -0.25193048 0.22278601
-0.16653043 0.25042507 -0.076333776 0.045102146 -0.10937954 0.1324759 -0.09326127 -0.3116535
-0.1490885 0.6837962 -0.11766465 0.13148312 -0.15186895 0.24150279 0.09963436 0.035065524
-0.19689544 -0.26400444 -0.36577532 -0.121480376 0.2657699 0.11863502 0.12556848 0.29617292
0.20213574 0.061249994 -0.32336685 0.2266686 -0.072160825 -0.8755444 0.30537328 -0.13766998
-0.10048026 0.26365158 -0.5383978 -0.23277782 -0.0044829124 -0.03926923 0.11381413 -0.27435717
-0.19396283 -0.20381778 -0.27661356 -0.3835544 0.09697911 0.40870398 -0.22760229 0.029591762
0.053232607 0.017474163 -0.17276257 -0.07771157 0.13890608 0.15826847 -0.25600156 0.08364429
-0.06006246 0.19892988 0.2153961 0.7478556 -0.24644394 0.16788985 -0.1739679 -0.09268795
-0.24355187 -0.06663308 -0.023991657 0.0030659111 -0.08062455 -0.039991993 0.1276751 0.13959599
0.0719453 -0.01591531 0.10267008 -0.013889698 0.03844167 0.046112843 -0.24538614 -0.8312093
-0.21749806 -0.16229522 0.0059711197 -0.16810328 0.4406151 0.20156503 -0.07456911 0.22247455
0.19673643 -0.23431204 -0.19431491 -0.18382722 -0.10920671 -0.048155144 -0.012778544 -0.46614078
-0.13930646 -0.04019409 -0.061834436 0.2693977 -0.08866519 -0.21742396 0.17253238 -0.004529288
0.23338823 0.18504588 0.2658175 -0.20182377 0.16562614 -0.22316022 -0.11897878 0.26723707
0.19545735 -0.008794466 0.16444212 -0.08819558 -0.2336067 0.053310964 -0.01319825 -0.16155557
0.1646119 -0.016308224 0.26851472 0.30297318 0.117266126 -0.18661737 0.1391023 0.04291713
0.07174597 0.6621955 0.28325772 -0.07983554 -0.07039025 0.09772983 0.6083303 0.25647795
-0.12062201 0.023645556 0.10173528 -0.0116364155 0.24392828 0.043482292 -0.18255785 0.06343643
-0.121263966 -0.6008316 0.01832482 -0.23149978 -0.011297521 -0.020266881 -0.038228974 0.22826707
0.0045556705 0.20444249 0.12197136 -0.19583224 0.1039771 0.2864641 -0.12838528 -0.5626048
0.30499503 0.24426357 -0.083314694 0.16859493 -0.037479155 -0.23009431 0.03570016 0.13558984
-0.32859033 0.13374507 -0.12840863 0.4722561 0.28368798 0.18601759 0.057394348 0.111873195
-0.09153137 -0.03782038 -0.015612221 0.26681253 -0.13995169 0.21249108 0.2656128 -0.2083657
-0.12486087 0.12026134 0.26529828 0.18228067 0.27490363 -0.081705876 0.14055625 0.196307
-0.275595 -0.2595664 0.10009059 0.39202213 -0.09423794 0.0029734573 0.031988114 0.06185186
-0.13865022 0.07898501 0.21831581 -0.13777666 0.029121397 -0.028688729 0.04025389 0.3118576
0.12654671 -0.3820786 0.23245226 -0.13379656 -0.054943368 -0.010333335 -0.1841026 0.061069984
-0.13598941 0.028610785 0.55890983 0.021566615 -0.26538056 -0.7468295 0.12578407 0.21236724
-0.26677433 0.18041807 -0.1476575 0.031122586 0.24047233 0.56084794 -0.23999853 0.19261312
0.16410765 -0.003717924 0.7468835 -0.08963212 -0.11031373 -0.1673726 0.16058128 -0.17571281
00000000: 61cc d6be 1c88 adbe adc9 db3d 1cc7 bc3d
00000010: 39f2 90be 97ea dd3d 6f2f 8a3e 85b2 0e3d
00000020: 014c eebd aba6 783e 5ca8 013e 92b0 cc3e
00000030: 5537 68be 5823 373e 08fd 80be 0422 643e
00000040: f486 2abe b737 803e e254 9cbd 07bd 383d
00000050: 6102 e0bd c3a7 073e c4ff bebd 0c91 9fbe
00000060: a8aa 18be 450d 2f3f 2afa f0bd 83a3 063e
00000070: 8983 1bbe 824c 773e 190d cc3d dea0 0f3d
00000080: f59e 49be 972b 87be e746 bbbe b4ca f8bd
00000090: fe12 883e ebf6 f23d 0695 003e faa3 973e
000000a0: acfc 4e3e 46e1 7a3d 5790 a5be d01b 683e
000000b0: 0ec9 93bd ae23 60bf e359 9c3e 5cf9 0cbe
000000c0: 98c8 cdbd 57fd 863e 70d4 09bf 4f5d 6ebe
000000d0: 65e5 92bb c6d8 20bd 6217 e93d 8b78 8cbe
000000e0: 319e 46be 9cb5 50be 4ba0 8dbe 3e61 c4be
000000f0: fc9c c63d a641 d13e 9310 69be 6c6a f23c
00000100: 6f0a 5a3d fa25 8f3c ace8 30be 3e27 9fbd
00000110: 653d 0e3e 2111 223e a312 83be b34d ab3d
00000120: 0e04 76bd 46b4 4b3e cc90 5c3e 7773 3f3f
00000130: cd5b 7cbe 51eb 2b3e a424 32be 2ed3 bdbd
00000140: a965 79be ed76 88bd 278a c4bc 74ed 483b
00000150: 7c1e a5bd a5ce 23bd 43bd 023e 40f2 0e3e
00000160: 0f58 933d d360 82bc b144 d23d 9e91 63bc
00000170: 0375 1d3d d2e0 3c3d 8146 7bbe 22ca 54bf
00000180: d0b7 5ebe b830 26be 62a9 c33b 4423 2cbe
00000190: 4d98 e13e 1067 4e3e b1b7 98bd 5ed0 633e
000001a0: 4675 493e 7fef 6fbe 7dfa 46be 343d 3cbe
000001b0: c4a7 dfbd 543e 45bd 195d 51bc 01aa eebe
000001c0: 5aa6 0ebe 8fa2 24bd 1b46 7dbd 7fee 893e
000001d0: 1896 b5bd 63a4 5ebe 54ac 303e 6c6a 94bb
000001e0: 53fd 6e3e ab7c 3d3e 3b19 883e e4aa 4ebe
000001f0: e699 293e 1d84 64be 26ab f3bd 4cd3 883e
00000200: f925 483e aa16 10bc 8463 283e e29f b4bd
00000210: 9836 6fbe 995c 5a3d 793d 58bc d36e 25be
00000220: 0690 283e d398 85bc c37a 893e 4d1f 9b3e
00000230: 3929 f03d a018 3fbe d570 0e3e dfc9 2f3d
00000240: 8def 923d a585 293f 2807 913e d180 a3bd
00000250: c328 90bd 9426 c83d 89bb 1b3f 1451 833e
00000260: ac08 f7bd 53b4 c13c 965a d03d aaa6 3ebc
00000270: 56c8 793e 7d1a 323d 72f0 3abe f6ea 813d
00000280: 3e59 f8bd 1ad0 19bf ef1d 963c 470e 6dbe
00000290: 3d19 39bc bb06 a6bc fc95 1cbd d8be 693e
000002a0: bc47 953b 5f59 513e 1fcc f93d 3f88 48be
000002b0: f2f1 d43d 6cab 923e 6e77 03be de06 10bf
000002c0: 4f28 9c3e 3b20 7a3e e5a0 aabd 26a4 2c3e
000002d0: be83 19bd d89d 6bbe 553a 123d 10d8 0a3e
000002e0: fe3c a8be 78f4 083e 8d7d 03be 8dcb f13e
000002f0: 8d3f 913e 657b 3e3e 5616 6b3d c61d e53d
00000300: cd74 bbbd 8be9 1abd 67ca 7fbc a79b 883e
00000310: 7f4f 0fbe 4397 593e 67fe 873e d15d 55be
00000320: 0eb7 ffbd 944b f63d 2dd5 873e c9a7 3a3e
00000330: 2bc0 8c3e 6955 a7bd faed 0f3e b404 493e
00000340: ca1a 8dbe e3e5 84be 4cfc cc3d 20b7 c83e
00000350: d2ff c0bd 56de 423b f805 033d 6058 7d3d
00000360: 53fa 0dbe e5c2 a13d 2e8e 5f3e 5315 0dbe
00000370: ff8f ee3c a004 ebbc 43e1 243d cdab 9f3e
00000380: 7695 013e ce9f c3be f707 6e3e f701 09be
00000390: 4c0c 61bd 264d 29bc 6485 3cbe 8524 7a3d
000003a0: cf40 0bbe 2a61 ea3c b714 0f3f 78ac b03c
000003b0: f6df 87be 3830 3fbf 8acd 003e cc76 593e
000003c0: a596 88be 84bf 383e 8733 17be cbf4 fe3c
000003d0: 613e 763e bb93 0f3f 2dc2 75be 603c 453e
000003e0: d60b 283e 6aa8 73bb c233 3f3f 0c91 b7bd
000003f0: 2aec e1bd b963 2bbe 6b6f 243e 0fee 33be

pool.bias f4 [50]
0.46866342 -0.38471097 -0.9710436 -1.0104651 -0.17782134 -1.0432842 -0.77263546 -1.2739593
-0.8454464 -1.0979637 -1.0108523 0.4352455 -0.53605336 -0.37397185 -0.8785218 -1.1083993
-0.8698364 -0.9763465 -1.0170969 -0.9522884 -0.98697454 -1.0894364 -1.1418068 -0.43985468
-1.1059448 0.49645764 -1.1115257 -0.6081726 -0.71034443 -1.0797449 -0.6898772 -0.9633576
-0.98430157 -0.66059077 0.47044897 -0.66627705 -1.161709 0.4313211 -1.1527019 -1.222745
-0.83010644 -1.0637028 -0.78666526 -1.1362746 -0.7717787 0.40889388 -0.3808761 -0.58719945
-0.44964886 -1.175923
00000000: a7f4 ef3e d6f8 c4be 5096 78bf ec56 81bf
00000010: cc16 36be 568a 85bf 70cb 45bf 1911 a3bf
00000020: 2d6f 58bf 138a 8cbf 9c63 81bf 80d8 de3e
00000030: cb3a 09bf 3d79 bfbe cee6 60bf 07e0 8dbf
00000040: 99ad 5ebf d8f1 79bf 3b30 82bf 2cc9 73bf
00000050: 5daa 7cbf a772 8bbf ba26 92bf a234 e1be
00000060: 998f 8dbf b22f fe3e 7946 8ebf 33b1 1bbf
00000070: 22d9 35bf 1535 8abf cb9b 30bf 9b9e 76bf
00000080: 30fb 7bbf 7a1c 29bf b0de f03e 2291 2abf
00000090: e1b2 94bf 1fd6 dc3e bc8b 93bf e882 9cbf
000000a0: db81 54bf 6a27 88bf e562 49bf 7271 91bf
000000b0: 4a93 45bf 8a5a d13e 3102 c3be b452 16bf
000000c0: 6038 e6be a584 96bf

conv3.weight f4 [32, 32]
-0.5653675 -0.057420257 -0.037074294 0.31506154 0.38440722 -0.26778474 0.32863808 -0.13870639
0.446977 -0.32087123 -0.07632926 -0.050669253 0.13810098 0.15202974 -0.16874354 0.055485927
-0.2847942 -0.0102447085 0.17022482 -0.15482359 0.20103036 -0.17417601 0.17616105 -0.2409891
0.12387815 0.24784684 0.2616841 0.12389833 0.25780356 0.2785769 0.23731574 0.22739184
-0.29353353 0.19577634 0.010606706 -0.24303007 0.19188905 -0.1490896 0.15175 -0.3643158
0.22877075 -0.16898787 0.15658142 0.31554624 -0.360665 0.20089678 0.1919206 -0.29975232
0.052483033 0.20414452 0.21252024 -0.0438036 0.25743085 -0.05745542 -0.0025641473 0.24411425
0.22904623 0.116686516 -0.36370975 0.3389004 0.0666397 0.15911248 0.3017805 0.21394971
0.6150373 0.2559137 0.41429418 -0.017205806 0.0992588 0.09304761 0.15054226 -0.0036081674
0.0794946 0.3511016 -0.27918234 0.058295406 0.02430388 -0.23639351 -0.31690902 0.14290194
0.05115174 -0.05200179 -0.17004736 0.07708671 -0.43467698 -0.230954 -0.0792756 -0.07109225
-0.23788917 0.091707624 -0.14660114 -0.35403365 -0.1520228 -0.09429419 0.14757045 -0.32394862
0.049008388 0.23470967 -0.23868756 0.38242695 -0.26369485 -0.106079094 -0.12877184 -0.04523135
-0.10416913 -0.19444755 0.058440786 -0.14079139 0.3229259 0.21567145 0.2663285 0.20146579
0.30111897 0.4249752 0.24623828 -0.31800693 -0.0017429242 -0.046709064 0.08630462 0.09214298
0.11436418 -0.1521315 -0.30101946 -0.40540293 -0.10252183 -0.117417395 -0.1910766 -0.38158175
0.18596198 -0.00519968 -0.051059492 0.19356427 -0.08453492 0.09446675 -0.23251706 0.14053147
-0.30523735 0.26029986 0.121510975 0.0031339992 0.34644696 -0.35819975 -0.24818124 -0.21851052
-0.19246432 0.15772294 -0.21931693 0.20340167 0.15180542 -0.5038898 -0.53236187 0.076244675
0.3635588 0.0869196 0.31321454 0.1902008 -0.21259774 -0.1107511 0.16984756 0.073383175
0.09006925 0.2414169 -0.24582864 0.14175199 -0.1888674 -0.13687453 0.21784079 0.18164177
0.109179005 -0.18539323 -0.23508482 -0.103076816 -0.03093237 -0.19524625 0.41960332 0.122870415
-0.08695103 0.2645856 0.17645638 -0.16145988 0.22605467 0.04495743 0.22757451 0.42441073
0.068496555 -0.0021470496 -0.2764056 -0.30619422 0.28336337 -0.05380719 -0.09276086 -0.3009448
0.24675101 -0.05807641 0.07460681 -0.22282815 -0.52191055 0.361441 0.013688149 -0.15591663
-0.43905982 0.15265925 -0.20557714 -0.37694636 0.07198987 -0.17606063 -0.09134764 0.06586068
0.39514259 0.22695716 0.2462288 0.031423796 -0.3159558 0.023396555 -0.29893965 0.046127796
-0.1077791 -0.045099583 -0.18724945 0.060730655 0.07746923 0.3197631 -0.2274897 8.6573404e-05
-0.007288982 -0.04364998 -0.16835393 0.10257935 -0.37834576 0.4042285 -0.17185317 0.09659386
0.16144168 0.34767136 0.18207659 0.17217681 -0.0811379 -0.24971741 -0.39546433 0.12743497
0.23797995 0.14807455 -0.17129718 0.13932084 -0.22039315 -0.03269792 -0.48750395 -0.16098203
0.32200006 0.16827711 -0.03339611 -0.13504525 -0.5210493 0.3236282 -0.40986437 0.18682922
00000000: edbb 10bf 8131 6bbd 37db 17bd bf4f a13e
00000010: 06d1 c43e 151b 89be 4043 a83e 0c09 0ebe
00000020: 2bda e43e 3c49 a4be 8452 9cbd 908a 4fbd
00000030: 586a 0d3e afad 1b3e 1bcb 2cbe 3645 633d
00000040: 8cd0 91be 6cd9 27bc 6a4f 2e3e 138a 1ebe
00000050: e7da 4d3e 325b 32be 9063 343e d9c5 76be
00000060: d4b3 fd3d 90cb 7d3e 75fb 853e 68be fd3d
00000070: d4fe 833e a2a1 8e3e e602 733e 68d9 683e
00000080: 074a 96be 9879 483e c0c7 2d3c e0dc 78be
00000090: 907e 443e f2aa 18be 5a64 1b3e 9a87 babe
000000a0: e142 6a3e 280b 2dbe e156 203e 478f a13e
000000b0: 15a9 b8be e3b7 4d3e d586 443e 2379 99be
000000c0: 73f8 563d 430b 513e e89e 593e 676b 33bd
000000d0: facd 833e 6056 6bbd 410b 28bb 16f9 793e
000000e0: 188b 6a3e 57f9 ee3d 2a38 babe 5a84 ad3e
000000f0: 657a 883d 62ee 223e f982 9a3e a215 5b3e
00000100: 1673 1d3f 1f07 833e 5e1e d43e 31f3 8cbc
00000110: 3348 cb3d bf8f be3d c027 1a3e 0177 6cbb
00000120: 11ce a23d 97c3 b33e fdf0 8ebe 2ac7 6e3d
00000130: ee18 c73c 2411 72be e641 a2be e354 123e
00000140: 7d84 513d d4ff 54bd e520 2ebe a3df 9d3d
00000150: fb8d debe 357f 6cbe 3f5b a2bd d098 91bd
00000160: 3899 73be 35d1 bb3d 9c1e 16be e643 b5be
00000170: ddab 1bbe 501d c1bd b51c 173e 98dc a5be
00000180: 05bd 483d bb57 703e 836a 74be 77cd c33e
00000190: 0303 87be ff3f d9bd c4dc 03be 8244 39bd
000001a0: a056 d5bd 421d 47be 9b5f 6f3d 9e2b 10be
000001b0: 8b56 a53e fad8 5c3e 365c 883e 0c4d 4e3e
000001c0: 442c 9a3e 5996 d93e e325 7c3e ced1 a2be
000001d0: d572 e4ba 0152 3fbd 7ac0 b03d 75b5 bc3d
000001e0: c437 ea3d 5cc8 1bbe 391f 9abe f990 cfbe
000001f0: f7f6 d1bd 8878 f0bd 96a9 43be af5e c3be
00000200: d16c 3e3e 1462 aabb c223 51bd b635 463e
00000210: a520 adbd c977 c13d f418 6ebe 7be7 0f3e
00000220: 1248 9cbe 0646 853e bfda f83d c863 4d3b
00000230: 7f61 b13e f565 b7be 3923 7ebe 39c1 5fbe
00000240: 5e15 45be 1f82 213e 9e94 60be 8748 503e
00000250: e172 1b3e ecfe 00bf de48 08bf 2b26 9c3d
00000260: 6124 ba3e e702 b23d a85d a03e 00c4 423e
00000270: 39b3 59be 79d1 e2bd 85ec 2d3e eb49 963d
00000280: 3a76 b83d fe35 773e 81ba 7bbe 6f27 113e
00000290: 7566 41be d628 0cbe a811 5f3e 4d00 3a3e
000002a0: 3e99 df3d b9d7 3dbe 13ba 70be f019 d3bd
000002b0: e265 fdbc a2ee 47be 3fd6 d63e 7ca3 fb3d
000002c0: 6213 b2bd c477 873e fbb0 343e bd55 25be
000002d0: e07a 673e 4825 383d 4b09 693e 5d4c d93e
000002e0: ec47 8c3d 84b5 0cbb 0985 8dbe 7dc5 9cbe
000002f0: 0115 913e ee64 5cbd 68f9 bdbd 7015 9abe
00000300: 4cac 7c3e 88e1 6dbd 75cb 983d 102d 64be
00000310: ee9b 05bf cb0e b93e 4244 603c 9ca8 1fbe
00000320: 73cc e0be b552 1c3e d082 52be 1dff c0be
00000330: 6d6f 933d 3d49 34be 7914 bbbd f7e1 863d
00000340: 2150 ca3e 7567 683e 6723 7c3e 3db6 003d
00000350: f5c4 a1be 22aa bf3c 9e0e 99be 80f0 3c3d
00000360: 4abb dcbd 57ba 38bd 52be 3fbe b5c0 783d
00000370: 30a8 9e3d fdb7 a33e 0ff3 68be be8e b538
00000380: 6ad8 eebb 52ca 32bd f964 2cbe 1f15 d23d
00000390: 89b6 c1be 0af7 ce3e 47fa 2fbe 00d3 c53d
000003a0: f850 253e fb01 b23e 4972 3a3e 1e4f 303e
000003b0: a12b a6bd ecb5 7fbe 4d7a cabe 507e 023e
000003c0: 04b1 733e dba0 173e 8768 2fbe 1faa 0e3e
000003d0: beae 61be 41ee 05bd 1e9a f9be 79d8 24be
000003e0: 31dd a43e d650 2c3e 5cca 08bd 4d49 0abe
000003f0: 7d63 05bf 98b2 a53e bed9 d1be 2950 3f3e

conv3.bias f4 [32]
0.061864063 -0.026938697 -0.08887186 0.016600454 -0.023653166 -0.0036201829 -0.12873468 0.017546404
-0.02269037 0.09793982 0.0032693103 0.039387416 0.04939737 -0.1165694 0.0044085444 -0.015202596
-0.13734318 0.008371479 0.0004874665 0.16936922 0.014931189 0.028087327 -0.045879476 -0.031306535
-0.006159279 0.009106528 -0.028450346 -0.029171953 0.017001202 -0.0029307222 0.009788332 -0.048634604
00000000: 2c65 7d3d 8bae dcbc 7302 b6bd adfd 873c
00000010: 49c4 c1bc 9740 6dbb 06d3 03be 7abd 8f3c
00000020: 28e1 b9bc ac94 c83d ed41 563b b354 213d
00000030: e654 4a3d f0bb eebd 8d75 903b 4f14 79bc
00000040: b1a3 0cbe 8728 093c a592 ff39 206f 2d3e
00000050: f2a1 743c 6517 e63c 1eec 3bbd 483b 00bd
00000060: c7d3 c9bb 8c33 153c b310 e9bc 05fa eebc
00000070: 1b46 8b3c 5c11 40bb 3d5f 203c 1435 47bd

conv4.weight f4 [32, 32]
-0.024069898 0.04096125 0.29205757 -0.04012499 -0.033582177 -0.06221777 0.02821602 -0.10540561
0.14917225 -0.10583463 0.24861692 -0.00566194 0.02393855 0.23016126 0.07950527 0.11371936
-0.15551732 0.15829353 0.24945039 -0.25826827 -0.18889007 -0.16309662 -0.13418964 0.1279766
0.008956888 0.026346391 0.15042262 0.17267676 -0.059694003 -0.28398597 0.07919952 -0.35555613
-0.028769191 0.2659132 -0.12450051 0.09497107 0.12636231 0.20107582 0.13332388 -0.2660479
-0.23843229 -0.042119406 -0.3979903 0.079949744 -0.24770296 -0.18817966 0.13531777 0.14390075
-0.22721729 -0.26894823 -0.20955975 0.24800198 0.21239099 0.010395518 0.3230588 -0.24952556
0.34118047 -0.1665535 -0.07690528 0.21901476 -0.091284156 0.27380544 -0.12449003 0.22719541
0.16360863 0.05051269 0.11479738 -0.11744378 0.03329086 0.2899753 0.16189092 -0.42418715
0.16613482 -0.18811631 -0.20030874 0.095902234 -0.17328183 -0.2496038 0.082183585 0.16387734
0.038813077 0.049094062 -0.1636393 -0.20995857 0.26174405 -0.30333304 0.0872263 0.07414681
0.24947564 -0.12718202 -0.07378052 -0.18128753 0.19543235 -0.10863687 -0.13708155 -0.15499155
0.14183721 0.21503554 -0.001703257 0.17677632 -0.16160929 -0.104264595 -0.12586573 0.20321976
0.19225845 -0.023933072 -0.22366282 0.026115596 -0.40645397 -0.066194154 -0.13573375 -0.063627765
-0.3126841 0.2928227 -0.19308373 0.055431906 0.15454133 0.22628003 0.4714055 0.0656161
0.29689208 0.079428926 0.12831634 -0.23472065 -0.0754352 0.07537785 0.085867375 0.1171729
-0.2525959 0.11364305 0.09102778 -0.07150032 0.023055498 0.15711683 -0.24704581 0.04763128
-0.031411845 -0.16984388 0.20052016 0.3885618 -0.09307872 0.19240461 -0.22270983 0.09115254
0.10901475 -0.26784265 -0.012688619 0.122982115 -0.054329652 0.22842841 0.1350545 0.2667457
0.028597884 -0.08296817 0.06695521 -0.06734249 -0.17410111 -0.11907664 -0.30208242 -0.030066397
-0.1930125 0.094490655 -0.38315082 0.014112792 0.09886728 0.61756086 0.8201485 -0.28291532
1.2815136 -0.4611816 0.25413147 0.6068775 0.21025424 -0.09274211 -0.17123348 0.056457117
0.65940756 -0.1587441 0.16129725 -0.80400014 0.08334952 0.22875802 0.14059214 -0.24905033
-0.15600695 0.1173552 -0.46932635 -0.084763445 0.2739781 0.03416096 0.030997602 -0.50130236
-0.03760252 -0.04793319 -0.10701813 -0.21517304 0.03347838 0.044531427 0.14894943 0.12806976
-0.014266449 0.07281975 0.1096753 -0.07644774 0.08261036 -0.17084105 -0.10267097 0.09497927
0.18681386 -0.15564561 0.015636735 0.25060296 0.38149625 -0.15669326 -0.011838847 0.030251822
-0.1034326 -0.15476981 0.22094476 0.2738032 -0.15133065 0.25304157 0.084302925 0.24810855
0.16104405 -0.08496229 0.09248503 -0.11633092 -0.15921518 0.29113063 0.31104562 -0.38865882
0.24125603 0.058066625 0.056639407 0.14807591 0.0012671083 -0.08506539 0.22486769 -0.1128978
-0.05491848 -0.21368165 0.26362664 0.05660794 0.017496306 -0.04098356 0.058921754 -0.22087571
0.06671583 -0.13709235 -0.06629086 -0.02838626 -0.045584023 0.34862983 0.11124665 0.13424653
00000000: 3c2e c5bc fcc6 273d 9288 953e 1a5a 24bd
00000010: 778d 09bd 0fd8 7ebd 4825 e73c e5de d7bd
00000020: 9cc0 183e d4bf d8bd 6f95 7e3e cc87 b9bb
00000030: c71a c43c 65af 6b3e a9d3 a23d b2e5 e83d
00000040: ef3f 1fbe b317 223e ec6f 7f3e bd3b 84be
00000050: 666c 41be cd02 27be 0269 09be 4c0c 033e
00000060: e9bf 123c 63d4 d73c 6308 1a3e 2dd2 303e
00000070: b381 74bd 9c66 91be 5c33 a23d 740b b6be
00000080: 5ead ebbc c625 883e 20fa febd 3180 c23d
00000090: 1f65 013e d2e6 4d3e 0e86 083e 6e37 88be
000000a0: 9827 74be 6685 2cbd 62c5 cbbe b1bc a33d
000000b0: d8a5 7dbe 2bb2 40be be90 0a3e b85a 133e
000000c0: a6ab 68be 95b3 89be d596 56be 3bf4 7d3e
000000d0: 067d 593e f651 2a3c f767 a53e a183 7fbe
000000e0: 35af ae3e 008d 2abe 8480 9dbd 6845 603e
000000f0: 30f3 babd 3a30 8c3e a1f4 febd eaa5 683e
00000100: 0589 273e 65e6 4e3d e41a eb3d 5d86 f0bd
00000110: ff5b 083d a477 943e bcc6 253e 0f2f d9be
00000120: 3f1f 2a3e 90a1 40be bc1d 4dbe 6468 c43d
00000130: cb70 31be 2398 7fbe de4f a83d 76cf 273e
00000140: 76fa 1e3d db16 493d 1091 27be 61ff 56be
00000150: 5103 863e 784e 9bbe b4a3 b23d 48da 973d
00000160: 8b76 7f3e 013c 02be 3e1a 97bd 70a3 39be
00000170: 6b1f 483e 027d debd 1b5f 0cbe 1bb6 1ebe
00000180: c63d 113e 4732 5c3e d23f dfba da04 353e
00000190: e87c 25be ad88 d5bd f2e2 00be d718 503e
000001a0: 66df 443e 4a0f c4bc de07 65be 60f0 d53c
000001b0: bc1a d0be cd90 87bd cafd 0abe 464f 82bd
000001c0: 2118 a0be dbec 953e beb7 45be 910c 633d
000001d0: 1540 1e3e f4b5 673e 105c f13e bc61 863d
000001e0: 3d02 983e a2ab a23d 5c65 033e 9c5a 70be
000001f0: c57d 9abd b45f 9a3d 3cdb af3d 58f8 ef3d
00000200: 4054 81be b0bd e83d c66c ba3d c36e 92bd
00000210: e2de bc3c 3ce3 203e 94f9 7cbe 0419 433d
00000220: b5a9 00bd 8eeb 2dbe 2855 4d3e 92f1 c63e
00000230: 0ea0 bebd b705 453e 0c0e 64be 2fae ba3d
00000240: 2043 df3d ac22 89be ede3 4fbc 0cde fb3d
00000250: c588 5ebd 23e9 693e ba4b 0a3e e492 883e
00000260: 1c46 ea3c 37eb a9bd d01f 893d dcea 89bd
00000270: 9047 32be 74de f3bd 8caa 9abe ce4d f6bc
00000280: 12a5 45be 5184 c13d 582c c4be 5739 673c
00000290: ee7a ca3d 7818 1e3f 41f5 513f 47da 90be
000002a0: a308 a43f ff1f ecbe 851d 823e 535c 1b3f
000002b0: e34c 573e 93ef bdbd d457 2fbe 943f 673d
000002c0: efce 283f d08d 22be 1b2b 253e f4d2 4dbf
000002d0: 27b3 aa3d 8b3f 6a3e 63f7 0f3e 0d07 7fbe
000002e0: 49c0 1fbe ec57 f03d 8b4b f0be 7598 adbd
000002f0: dc46 8c3e 5dec 0b3d afee fd3c 5a55 00bf
00000300: 1a05 1abd 9855 44bd 522c dbbd 5256 5cbe
00000310: a020 093d 9666 363d 3386 183e b824 033e
00000320: d3bd 69bc 8522 953d 729d e03d a290 9cbd
00000330: 9f2f a93d f5f0 2ebe 2845 d2bd 7e84 c23d
00000340: 224c 3f3e 9061 1fbe 9c18 803c 084f 803e
00000350: 7a53 c33e 3374 20be b9f7 41bc abd2 f73c
00000360: 79d4 d3bd fa7b 1ebe 583f 623e ef2f 8c3e
00000370: 6cf6 1abe aa8e 813e 03a7 ac3d 2b10 7e3e
00000380: bbe8 243e b600 aebd cb68 bd3d e83e eebd
00000390: 4e09 23be 130f 953e 5f41 9f3e 4afe c6be
000003a0: d20b 773e 45d7 6d3d b9fe 673d 36a1 173e
000003b0: 1915 a63a c336 aebd b743 663e f636 e7bd
000003c0: 33f2 60bd 5dcf 5abe 12fa 863e badd 673d
000003d0: 6a54 8f3c 61de 27bd f057 713d 3e2d 62be
000003e0: 4fa2 883d f061 0cbe 81c3 87bd 4d8a e8bc
000003f0: 50b6 3abd 9c7f b23e 49d5 e33d ec77 093e

conv4.bias f4 [32]
0.3228924 -5.3989974e-05 0.0028878155 0.02543369 -0.042557288 -0.03238792 -0.14736749 -0.0054912674
0.043148052 0.02481537 -0.03250029 0.015165536 0.10433879 -0.019384334 -0.11137259 0.020479126
-0.096778005 0.03906557 -0.07102545 -0.00036896951 0.23853758 -0.019708117 0.030364692 -0.031921387
-0.054607883 -0.071644865 -0.039812725 -0.056131344 -0.03779868 0.10099853 -0.07517402 0.019955803
00000000: 2752 a53e 4b73 62b8 8141 3d3b 505a d03c
00000010: 8d50 2ebd 32a9 04bd 81e7 16be 17f0 b3bb
00000020: 03bc 303d 9a49 cb3c 061f 05bd de78 783c
00000030: 93af d53d e5cb 9ebc 5017 e4bd d7c3 a73c
00000040: 8c33 c6bd 3803 203d cb75 91bd 4072 c1b9
00000050: 3243 743e eb72 a1bc 60bf f83c 00c0 02bd
00000060: 84ac 5fbd 8bba 92bd ab12 23bd fbe9 65bd
00000070: cad2 1abd 51d8 ce3d d6f4 99bd 5a7a a33c

conv5.weight f4 [32, 2]
0.025131445 0.019051705 0.100514196 -0.1288553 0.327418 -0.09990903 -0.060894027 -0.10826094
-0.16666552 -0.2232566 -0.01798285 0.041080713 -0.061944705 0.114739746 -0.016652672 0.13840981
-0.0648525 -0.010080942 0.26747018 -0.21629407 -0.048009004 0.13686763 -0.08445352 -0.026200451
0.06783451 -0.14649144 0.0044683483 0.005581727 -0.012491097 -0.018500648 0.004259505 0.005137613
0.066617854 0.08953234 -0.08753349 -0.048755556 -0.2255902 0.10264449 0.10339485 -0.23786974
0.0129061295 0.023235817 0.00784107 0.061646428 0.18960223 0.34684873 0.07520254 -0.088326305
-0.13844116 -0.061617523 -0.0070651546 -0.0015588368 0.17457251 -0.23467869 0.017217442 -0.10437545
0.008109626 0.038246594 -0.0002807376 0.00018263899 -0.11790387 -0.30344662 -0.20058319 0.032242976
00000000: 76e0 cd3c 5212 9c3c 63da cd3d a5f2 03be
00000010: 55a3 a73e 1b9d ccbd 046c 79bd e9b7 ddbd
00000020: 5eaa 2abe 619d 64be c550 93bc 4044 283d
00000030: bbb9 7dbd acfc ea3d 2f6b 88bc 4dbb 0d3e
00000040: 63d1 84bd 892a 25bc daf1 883e 317c 5dbe
00000050: 17a5 44bd 0727 0c3e f8f5 acbd 54a2 d6bc
00000060: d2ec 8a3d da01 16be 396b 923b ebe6 b63b
00000070: 75a7 4cbc ac8e 97bc 5193 8b3b 6c59 a83b
00000080: f16e 883d bb5c b73d c244 b3bd e8b3 47bd
00000090: 1e01 67be 4637 d23d aec0 d33d 2094 73be
000000a0: 3b74 533c 0a59 be3c d577 003c f780 7c3d
000000b0: 1627 423e 2896 b13e ca03 9a3d 6ce4 b4bd
000000c0: 85c3 0dbe a862 7cbd d082 e7bb e251 ccba
000000d0: 23c3 323e 9c4f 70be 980b 8d3c ccc2 d5bd
000000e0: 3dde 043c 76a8 1c3d f62f 93b9 c882 3f39
000000f0: 9677 f1bd 5b5d 9bbe ae65 4dbe 3611 043d

conv5.bias f4 [2]
-0.008604639 -0.0042036436
00000000: 79fa 0cbc b8be 89bb
