GST-recon/checkpoints/best_grid_DiffPool_0.25.pth (torch, 47195 bytes, 12 tensors)

conv1.weight f4 [2, 32]
00000000: 1fea 91bd afc0 21bf dac3 f33d b602 293e
00000010: 1cd3 80be 18c3 22be f5a3 6abe 737b 0d3f
00000020: 3e9b a2be 1713 353f 05ee 353f c38a b0bd
00000030: e546 b7be a232 13bf 8a61 c13b a744 30bd
00000040: f0cc e33e f04a 0ebf 9ac7 523f 20cb 42bf
00000050: 951c 913e ea14 afbe 6942 173f ad15 353e
00000060: fb8b 823e 945d 883e a65f bf3e a33f 7bbd
00000070: 34f2 af3e 89a4 aebe b9d5 2d3e 4363 fa3e
00000080: b6e4 133e 1c95 1f3e 00d1 033e 343d ba3e
00000090: 5c30 553d 04cc b6be f329 503d 2db0 c2bd
000000a0: 130f 193e 8192 0cbf d432 c9be df9c 1f3f
000000b0: e7fa aa3e 7a98 503e b588 1d3e 627d 263e
000000c0: f3c5 783e 6821 80be 7407 d6be eeec a83e
000000d0: 4fc3 c83e f440 2e3d 3c14 6abe 273e cfbd
000000e0: ddaf c13c 252c 21be 6acb 01be de69 0d3e
000000f0: 1e1e d8ba 4a59 ba3e f615 45be 8341 85be
-0.07124733 -0.63184637 0.1190259 0.1650494 -0.25161064 -0.15894735 -0.22914107 0.55266494
-0.31759065 0.70732254 0.71066314 -0.08620217 -0.35796276 -0.57499135 0.00590152 -0.043034222
0.44492292 -0.55583096 0.8233582 -0.76091194 0.2834212 -0.34195644 0.5908571 0.1768405
0.25497422 0.26633894 0.3737766 -0.061339986 0.34364474 -0.34109905 0.1697606 0.48903856
0.14442715 0.15584224 0.12872696 0.3637482 0.052048072 -0.35702527 0.050821256 -0.09506259
0.14947157 -0.5491105 -0.3929659 0.6234874 0.33394548 0.20370665 0.15384181 0.16258767
0.24294262 -0.25025487 -0.4180256 0.32993263 0.3921151 0.042542413 -0.22859281 -0.101192765
0.023643428 -0.15739496 -0.12675253 0.13809916 -0.0016488468 0.36396247 -0.19246659 -0.26026544

conv1.bias f4 [32]
00000000: b2b7 933b 5bb7 3f3d 59c2 adbc 04e0 c43b
00000010: 07c8 bf3d c524 fdbd 4e48 ac3d 95f2 323e
00000020: fa8c ad3c da3f 8ebe 3286 87bd 0b94 893e
00000030: babb c4bc f245 f43d e3d9 033e b02c 453e
00000040: f127 083e e862 8a3d e27f 53bd e200 b0bc
00000050: 7779 503d 4d37 0c3c 9f7d 863d c983 1dbe
00000060: b4eb 563e c4ba 21be 2890 9cbe 0bf4 cfbd
00000070: 78f8 e43d c1fd 9b3e ee49 a3be a544 d23d
0.004507982 0.04680572 -0.021210836 0.00600815 0.09364324 -0.12360529 0.084122285 0.1747535
0.021185387 -0.2778309 -0.066173926 0.2687076 -0.024015296 0.119274035 0.12876086 0.19255328
0.13296486 0.06757146 -0.05163563 -0.021484796 0.050897088 0.008558107 0.06566929 -0.15382303
0.20988351 -0.15793902 -0.30578732 -0.101539694 0.11180204 0.30467036 -0.3189234 0.10266999

conv2.weight f4 [32, 32]
00000000: cc65 aebe 30d8 153e e854 d3bc dd9b 2ebe
00000010: 8339 a13d a4d8 383e 212e b9bd 93da 80be
00000020: ba77 503e 5931 10bd e0a1 49be a135 c53e
00000030: b5bc 09be 4039 0e3e 0d1a 8c3e 0c6d 9bbe
00000040: fff0 ad3e ae31 aebe ec49 263d 0f17 3f3e
00000050: 7f0a b7bd 0b7e d43d b929 483c 32ad 413d
00000060: 9854 c73d b824 b53e 147b 2abd 1180 513d
00000070: b76a bc3e 9308 29be 7937 86be ad5f 14be
00000080: 2631 d7be 0ddf 9d3e 75f1 913e beb5 0c3e
00000090: b27f 9fbe 48c7 45bf eedc 86be c9b1 29be
000000a0: 574c 4c3e 1cc4 41be 836e 4f3e 4d23 3d3c
000000b0: b5de afbe 3ce9 983e 8556 c43d 574c 3e3d
000000c0: ab1c 873e 9c40 f8bd bf37 6a3e 2dca 5e3e
000000d0: 1d71 98bd e984 333d e953 d8be 54d7 edbd
000000e0: e8a3 8b3e f2cc 1e3e dfea be3e a32a c93c
000000f0: f185 8f3e fe19 9cbe 21f4 b3be fddb 6cbf
00000100: 9175 ae3e 6d07 073d c6cf 72be d04e 1cbe
00000110: 5fdd 47be 8c68 753e 5222 bc3e cd81 c93e
00000120: 4589 33be 8b9f 2d3e 6352 af3e afca b7bd
00000130: cf7e 193d 80d8 1f3d 5763 cdbd 944f dfb9
00000140: 4408 0dbf c3e2 25bd 0d64 4dbe 2658 81be
00000150: 031e 1b3e 6027 22be 9ad9 103e 99f6 47bd
00000160: 3274 febe 3ca1 96bd 8dc8 013e ea26 45be
00000170: a4dd dcbe b96e 9f3e 2d30 393e c19d 45be
00000180: 2377 833d b241 25bb 23ba 04be 0f5c 99be
00000190: 845f 083e 5bae c6bd f2d1 893c c167 b13d
000001a0: bc4b 413e c851 7c3d 6b14 323e ccc0 e9bd
000001b0: 85a5 2f3e 8314 aa3d b7a1 95be 01bb 9fbd
000001c0: 9e0f edbe d6e9 8d3d 89ec 903d 7e00 49be
000001d0: 8cc8 753e 5896 54bd 7e64 c23d 3a30 c93e
000001e0: 660c 67be 9862 9bbe 5d5c 99be fcb5 1c3d
000001f0: d2e1 353e 1484 973e 043d 123e cfe2 da3e
00000200: de61 653d 149f 54be a523 233e a18a b2bc
00000210: 08fd e138 c504 5ebe 503b c13c e9e7 f6be
00000220: 3714 453e d2d7 933e a221 ecbd cb0a 38be
00000230: 6478 c6be 28b4 4d3d 35a3 0d3e b83d dabd
00000240: 2bf1 6d3e e182 913d 9503 253e 7082 d03e
00000250: 1303 57bd 24ae ef3e d3dd e2bd 7738 89be
00000260: c9c0 c53e 19e3 983e 10c6 573e 94db da3d
00000270: c9dd 6e3e 7e19 24be 77e6 14be 9d56 d5bd
00000280: be93 0abe 219f 07be f63e 163d 9f0e 50bd
00000290: bc5a 92be 36fb a2be 585d babe 5efb 86be
000002a0: 9352 503e b255 9d3e 6dc9 833e 7f36 2c3d
000002b0: 9450 6a3e a1e5 cfbd 3d45 c03e 66c2 abbd
000002c0: 0d1d 813e 735c 5cbe 80d9 07bd 87c8 34be
000002d0: 1719 0ebc b355 ef3e 4bf0 cabe 0967 18bf
000002e0: 9fae 363e 27d9 0b3f c9a3 733e 6d32 703e
000002f0: 21eb a7bd 9d1b 063d bcd6 51be d5f2 c93d
00000300: 6d51 01be 0f20 883e 79b4 d1bd fec1 0ebe
00000310: f6ae 3ebe 1e90 143e 260c 00be 3735 04bf
00000320: cbf3 6c3e 6807 b83d 0e51 7cbc 8046 1bbe
00000330: 7878 cdbe 3617 b53e 6d73 b5bd 0678 40be
00000340: a468 0f3e 6845 503c 2571 82bd 96fd f63d
00000350: 57e0 77bd fd94 c53b 57a1 45bc cb02 22bd
00000360: 7548 993e f82a ee3e a750 5abd 4ca4 413e
00000370: 6f3a 4dbd e47d 33be ce7d 8cbe a7e0 c6be
00000380: cb51 f23e 70d1 9dbe 2aa1 bcbe a6d6 8dbe
00000390: 5209 10bc fa3f 593e 804a 5dbb 8858 b63e
000003a0: a941 97bd 17dc 163f 1e07 d5bd 2b63 173c
000003b0: c76c 0e3f 5386 9abe 7230 79be 8c25 df3e
000003c0: 9234 0ebf 7598 69bd 65ef b3be 18e8 0dbf
000003d0: 200c a6be 16b1 febe ab85 0b3f a968 9ebe
000003e0: 45e7 01bf 5314 433d 0260 66bd 837b de3c
000003f0: 3c58 b5be 3277 063f 7102 d4bc e3a2 2d3e
-0.3406204 0.1463325 -0.025797322 -0.17051645 0.078722976 0.18051392 -0.090420015 -0.2516676
0.20358172 -0.03520331 -0.19690657 0.38517478 -0.13450892 0.13889027 0.27363625 -0.30356634
0.33972928 -0.34022278 0.04059784 0.1866114 -0.08937549 0.10375603 0.012216979 0.047284313
0.09732932 0.35379577 -0.041621283 0.051147524 0.36800167 -0.16507177 -0.26214197 -0.14489622
-0.42029685 0.30834237 0.2850453 0.13741204 -0.3115211 -0.77257204 -0.2634043 -0.16571726
0.19950996 -0.18922466 0.20257 0.011544061 -0.343496 0.29865444 0.09586815 0.046459522
0.2638906 -0.12121698 0.22872828 0.21756811 -0.0744345 0.043827925 -0.42251518 -0.11613336
0.27273488 0.15507868 0.37288567 0.024556464 0.28031877 -0.3048858 -0.35147193 -0.92523175
0.3407407 0.032966066 -0.23712072 -0.1526444 -0.1951804 0.23965663 0.36744934 0.39356843
-0.17532833 0.16955392 0.34242544 -0.08974206 0.03747445 0.03902483 -0.10028713 -0.00042593165
-0.5509074 -0.04049946 -0.20057698 -0.25262564 0.15148167 -0.15835333 0.14145508 -0.04881916
-0.49698025 -0.07354972 0.1267416 -0.19253126 -0.43137848 0.31139162 0.18084784 -0.1929846
0.06419208 -0.002521616 -0.1296163 -0.29953048 0.13317686 -0.097012244 0.016823743 0.086623676
0.18876547 0.06160143 0.17390601 -0.11413726 0.17152984 0.083046935 -0.2922494 -0.0779934
-0.46300977 0.06929366 0.070763655 -0.19629094 0.24002284 -0.05190119 0.094918236 0.39294606
-0.22563323 -0.3034866 -0.2995328 0.03825949 0.17761925 0.29592955 0.14281088 0.42751166
0.056001537 -0.20763808 0.15931566 -0.021794619 0.00010775967 -0.21681507 0.023587853 -0.48223808
0.19245993 0.28875595 -0.115298524 -0.17972867 -0.38763726 0.05022064 0.1383179 -0.10656303
0.2323653 0.07105041 0.16114648 0.40724516 -0.052493166 0.46812546 -0.11077466 -0.26800892
0.38623646 0.29860762 0.21071649 0.106864125 0.23326792 -0.1602535 -0.1454104 -0.10416911
-0.13532922 -0.13244297 0.036681138 -0.050795194 -0.2858485 -0.31832284 -0.3639934 -0.26363653
0.20344 0.30729443 0.25739613 0.04204416 0.228823 -0.1015122 0.37552825 -0.08386688
0.25217476 -0.21519642 -0.03316641 -0.1765462 -0.008672974 0.4674507 -0.39636454 -0.5953222
0.1784005 0.54628223 0.23792948 0.23456736 -0.08199144 0.032741178 -0.20492071 0.0986077
-0.12628718 0.2658696 -0.102395006 -0.1394119 -0.1862143 0.14508101 -0.12504634 -0.516437
0.23139875 0.08985788 -0.015400184 -0.15163612 -0.40130973 0.3536927 -0.08859906 -0.18795785
0.14004761 0.01271186 -0.06369237 0.120600864 -0.06051668 0.0060297237 -0.012062392 -0.039553445
0.29938093 0.46517158 -0.053299572 0.1891033 -0.050104555 -0.17528492 -0.2743973 -0.3884327
0.47328028 -0.3082385 -0.36841708 -0.27702826 -0.008791285 0.21215811 -0.003376633 0.3561442
-0.073855706 0.5892958 -0.10401748 0.009239952 0.5563473 -0.30180606 -0.24334887 0.43583333
-0.55548966 -0.05703016 -0.3514358 -0.5543227 -0.32431126 -0.4974448 0.54500836 -0.30939224
-0.50743514 0.047626805 -0.056243904 0.027158504 -0.3541888 0.5252563 -0.02588007 0.16956668

conv2.bias f4 [32]
00000000: c21d 3b3e a4b1 5abd 666a 1e3c 912f a6bd
00000010: 8967 563d 4208 a93c 6a3b ea3d 80ca b03e
00000020: f62e 153d 94ed 63bc afb3 003e 6d35 c13c
00000030: 6437 60bb 420a 353c c332 0dbe 49f5 d7ba
00000040: aeaf b6be cad6 393e 17c5 1cbe b8c7 8dbd
00000050: 5110 66bd a77b 36be 8b7b 643e 4540 8c3e
00000060: 1200 76be 894a 85be a57c 12be b338 3cbe
00000070: 5489 b7bd 0057 793e 52e9 64bd 03ca a3bd
0.1827307 -0.053392068 0.009668922 -0.08114541 0.052344833 0.02063382 0.114371136 0.34529495
0.03642174 -0.0139116235 0.12568544 0.023585046 -0.0034212703 0.011049809 -0.13788895 -0.0016476299
-0.35680908 0.18148342 -0.15309559 -0.06922859 -0.056167904 -0.17820607 0.22312753 0.27392784
-0.24023464 -0.26033428 -0.1430536 -0.18381004 -0.0896174 0.24349594 -0.055886574 -0.07997515

pool.weight f4 [32, 225]
00000000: b544 d1bd 789e 28bf a7cc 07bf de51 a0bd
00000010: 72f8 3bbf 43d6 a2be 98ec 54bf 292f 24bf
00000020: 6bba 92be abd8 61bf 298b 7fbe a8c4 11bf
00000030: fc88 93be ac98 97be a701 05bf 8869 16bf
00000040: 1f07 e7be 0c91 69bf cfbd aebe e45d a8bd
00000050: b323 e2be bce9 aebe 394d 8cbe 0960 23be
00000060: 53ba 31be 0678 babe 93f3 57be 04ad 78be
00000070: fd5e 6fbe 0260 37bf 6404 f8be 5e80 49be
00000080: 471b 40bf ae15 05bf e777 56bf 9261 f1be
00000090: 4e9a 0cbf 2ba4 95be d5c9 1cbf b9bd a9be
000000a0: 5ce5 8dbe 0834 07bf 092c 3ebd 524e 19bf
000000b0: 3603 ffbe 8606 55bf 0559 12bf 2b22 41be
000000c0: 63b0 9bbe d879 47be 4232 4bbf 0ffe 94bd
000000d0: 101f 00bf b981 05bf bcd8 28bf c95d 06bf
000000e0: cc1a 7fbe e935 b43d cbd6 54be 8554 9dbe
000000f0: 4293 24bf 6ad9 2bbf edf3 80be 57a5 56be
00000100: 45ed 0ebf 6a01 30bf e3d7 2dbf 2ddc 63bf
00000110: f5c1 88be ca4d b4be 1b97 23bf d2f8 7bbe
00000120: 14b3 0fbf 59e3 46bf ca4b 36bf 13b3 60be
00000130: 934c 3fbf e81e 8ebe 045c 51be c7d5 48bf
00000140: d22e d6be 544d 3bbf f134 20bf a2d9 2dbf
00000150: 5723 aebc 5ad3 aabe 4fac 48bf dbcc 30be
00000160: 9a23 103c 2203 fcbe 38aa c8be 9d35 aebe
00000170: b256 10bf 7d2b 58bf 3a4b e53c 8bee 13bd
00000180: ed79 ddbe 716f 3abf b9d9 3cbf 53cd 97be
00000190: 21d0 14bf eead e2be 21bc 2fbf 64bd a7be
000001a0: c10d 85be 4b93 96be a5d3 d3be 8676 49be
000001b0: 5607 37bf c344 34be f22e e5bd a130 27bf
000001c0: f770 fbbe d52d 39bf 9dfd 83be a4b3 72be
000001d0: 4dc4 cebe 1995 31bf c54e 2bbd d28b 6dbe
000001e0: 216b 1ebf 4da0 40bf 1103 03bf 425b 55bf
000001f0: 8765 02bf 3ab3 fcbe 1784 e2be 5bfb a7bd
00000200: 0e42 913c 8648 21be be1c 03bf 5648 eabe
00000210: c780 c7be af0c 23bf b32e 1fbd 1564 e2be
00000220: 5ca0 25bf 5359 07bf f0b5 ccbe c2de a3bc
00000230: 8b9d 4bbf 0b6a 88be d6a6 9cbe 1685 57bf
00000240: a04e 37bf c9ee 30bf 96b8 b2be ecd3 74be
00000250: 5cc6 3bbf fe7b 29be fd28 e6bd 95cb c4be
00000260: cd75 57bf 858d 29bf cb4b 1abf 2cb7 27bf
00000270: c5e2 a5be 2f6b a9be df25 a2be 93eb 993d
00000280: 314f f9be e73b c4be 6aef e0be 4ac8 13bf
00000290: 40b2 b6bd 6cbc 9bbe 22a9 4fbf 07ea 44bd
000002a0: 98d2 d2be 44b3 c0be fbb5 93be 68cc b0be
000002b0: 3fc0 11bf 07e5 10bf 6a4e 1ebf a0d1 90be
000002c0: 7fef 20bf b12f 32bf f773 83be ed71 a9be
000002d0: 07fa 3cbf d657 bfbd f2f8 17bf 0977 50bf
000002e0: 2302 e9bd 9024 c5bf 10c1 fcbe 4d1b b8be
000002f0: 0f11 b9be 5036 2bbf 34c4 0cbf 901c 61bf
00000300: bb5e 02bf 1110 2ebf 98f1 5bbf 048c 71be
00000310: db6e 04bf 54d4 81be d18f a2bd 2335 36bf
00000320: 5230 2cbf e44b 3fbf 0e1e ccbe 837a a6be
00000330: c907 a2be 76ac b1be e1c3 bebe 8493 33bf
00000340: a775 5bbe 70dc f3be 7f6b a6bd 034b 4cbf
00000350: 068d 57be efc3 87be 77af 04bf 5e65 a5be
00000360: 67a2 53bf 90c8 24be 7f99 04bf b0b9 22bf
00000370: 953e 7ebe f0a3 26bf 4347 9dbe 9308 28be
00000380: ceb9 d1be 1181 6f3f 1842 523f ee06 ab3f
00000390: 4d59 503f f822 8e3f 2587 a03f 3637 9c3f
000003a0: df87 a83f a7d6 433f 1bfd 273f d8f1 ba3f
000003b0: 9544 ab3f c510 bf3f d81a ac3f 05dd a73f
000003c0: fa3b 433f 38d2 a33f b6d1 0d3f 0b70 9b3f
000003d0: 1690 4c3f 3bc0 983f 70be ba3f 0429 953f
000003e0: fefa 023f 4668 503f e726 b33f f59d 663f
000003f0: 3697 a63f 7f93 973f 227f 8e3f c928 af3f
-0.10218183 -0.65866804 -0.5304665 -0.07828115 -0.7342597 -0.31804094 -0.83173513 -0.6413446
-0.2865785 -0.88221234 -0.24955429 -0.569407 -0.28815448 -0.29608667 -0.51955646 -0.5875478
-0.4512262 -0.9123695 -0.34129187 -0.08221033 -0.4416786 -0.341627 -0.27402666 -0.15954603
-0.17356233 -0.36419696 -0.2108901 -0.2428475 -0.23376079 -0.7163087 -0.4844085 -0.19677874
-0.7504162 -0.51986206 -0.83776706 -0.47144753 -0.5492295 -0.29226813 -0.6124547 -0.3315256
-0.2771405 -0.5281377 -0.046428714 -0.5988513 -0.49807137 -0.8321308 -0.57167083 -0.1886069
-0.3040801 -0.19480073 -0.7937356 -0.0727502 -0.500474 -0.52151066 -0.6595571 -0.52486855
-0.24912566 0.08799345 -0.20785062 -0.30728546 -0.642872 -0.6712862 -0.251861 -0.2096151
-0.55830795 -0.6875216 -0.6790754 -0.89007837 -0.26710477 -0.35215598 -0.63902444 -0.24606636
-0.56132627 -0.77690655 -0.71209395 -0.21943311 -0.7472622 -0.27757955 -0.20445257 -0.784512
-0.41832596 -0.7316487 -0.6258078 -0.67910206 -0.021257086 -0.33364373 -0.7838792 -0.17265646
0.008797551 -0.4922114 -0.39192367 -0.3402528 -0.56382287 -0.8444136 0.027989972 -0.036116164
-0.43257084 -0.72826296 -0.7376972 -0.29648837 -0.5813008 -0.44273323 -0.68646437 -0.3276168
-0.25987056 -0.2940925 -0.4137241 -0.1967412 -0.7149557 -0.17604356 -0.11190595 -0.65308577
-0.49109623 -0.7233556 -0.2577943 -0.2370134 -0.4038414 -0.6936813 -0.041823167 -0.23197868
-0.61882216 -0.752446 -0.51176554 -0.83342373 -0.5093617 -0.4935549 -0.44241402 -0.08202239
0.017731693 -0.15750322 -0.5121573 -0.45758313 -0.38965437 -0.6369123 -0.038862895 -0.44216982
-0.64697814 -0.5287067 -0.39982557 -0.02000368 -0.79537266 -0.26643404 -0.30596036 -0.8418745
-0.7160435 -0.6911436 -0.34906453 -0.23908967 -0.7334955 -0.16551206 -0.11238287 -0.3843657
-0.84164125 -0.66231567 -0.602719 -0.65513873 -0.32399574 -0.33089587 -0.31669518 0.07515635
-0.4869323 -0.38326952 -0.43932658 -0.5772749 -0.08920717 -0.30417192 -0.8111745 -0.04807475
-0.41176295 -0.3763677 -0.28849778 -0.3453095 -0.5693397 -0.5659947 -0.618384 -0.2828493
-0.6286544 -0.6960402 -0.25674412 -0.3309473 -0.7381901 -0.09342925 -0.59364235 -0.81431633
-0.11377361 -1.5401783 -0.49366045 -0.3595833 -0.36145827 -0.6687975 -0.5498688 -0.8793421
-0.509258 -0.67993265 -0.8591552 -0.23588568 -0.5173165 -0.25357306 -0.07937587 -0.7117483
-0.6726123 -0.74725175 -0.3986668 -0.32515344 -0.31646565 -0.3470189 -0.3725882 -0.70146966
-0.214316 -0.47629118 -0.08125972 -0.7980196 -0.2104989 -0.26516673 -0.5183024 -0.323039
-0.8266968 -0.16092134 -0.51796716 -0.63564587 -0.2482856 -0.650939 -0.3071843 -0.16409521
-0.4096207 0.93556315 0.821321 1.336149 0.8138626 1.1104422 1.2541243 1.2204349
1.3166465 0.7649941 0.65620583 1.4605055 1.3380305 1.4926993 1.3445692 1.3114325
0.7626339 1.2798529 0.5539812 1.2143568 0.7990736 1.1933664 1.4589367 1.1653142
0.51164234 0.8140911 1.3996247 0.90084773 1.3014896 1.1841887 1.1132548 1.3684322

pool.bias f4 [225]
00000000: 59ee 01bf e629 7bbe c197 3dbf e6d0 68be
00000010: f943 21bf 856b 3cbf 81ad 45bf 0234 41bf
00000020: 7815 1abf 3ec9 6dbd 3c49 58bf fa2b 38bf
00000030: eaa9 4fbf e661 4ebf 64ec 4abf 6cf7 4bbe
00000040: 5139 45bf 250e 8e3c 8ca2 2ebf 6105 07bf
00000050: a32d 31bf 2ae7 4cbf 5465 5cbf 5f7a 53be
00000060: 223a 27bf 7dd2 51bf 8536 64bf 923c 4bbf
00000070: ad91 60bf 28f4 a5be 3edb 41bf 4ad0 59bf
00000080: d026 5cbd b49f 50bf cfaf 89be 01a0 37bf
00000090: 65fa 44bf 425c 65bf 2de1 56be 996a 4fbf
000000a0: fdb0 37bf 5ed6 4bbf 0ae0 983d 9858 2fbf
000000b0: 4b41 d4bd 6612 dfbd 090d 58be c43e 5cbf
000000c0: e021 5ebf da58 42bf 1910 aabd c7c6 1c3e
000000d0: c6b3 b4be b7a7 1ebf d883 8c3e d51e 4ebf
000000e0: 1be8 46bf 21be 973f c534 33bf 8551 54bf
000000f0: 3bcc 4bbf a91a 46bf 62bc 53bf cb88 43bf
00000100: b45b 37bf 68bf 23bf 7f3d 47bf 7c7d de3d
00000110: 72e4 49bf f7f3 4fbf 8e05 44bf df4f 54bf
00000120: 8f3a 22bf 7293 e2be ad59 46bf 2cd3 3cbf
00000130: e1a6 dbbe 99b1 3abf b1cc 59bf bcc2 50bf
00000140: a7b0 4ebf 2485 1fbf ae0e 40bf db09 4cbf
00000150: 90e8 cdbe 6191 61bf 5c29 42bf 0a80 63bf
00000160: 6372 f1be 2bab 4ebf d025 32bf 46c3 64bf
00000170: 9945 43bf 36c8 4bbf 0a84 03be ea50 8cbe
00000180: b8aa ecbd 6469 11bf ad4e a83e 44c3 4cbf
00000190: 96a4 4dbf b027 4fbf 00af 2bbf c4d8 52bf
000001a0: 90f4 59bf 5c5b 8f3d 9b0a 24bf aeb7 52bf
000001b0: 0a25 4dbf 982f 59bf 0545 a5be 1f2c a4be
000001c0: 59a1 46bf a43d 58bf 9c2c 5bbf 5b37 46bf
000001d0: 8af5 59bf f25f 4bbe c226 f8be 34b5 58bf
000001e0: 21aa 46bf 1a92 58bf ec16 26bf 25a6 913d
000001f0: 6023 bebe f679 47bf ff14 c0bd 13a8 e03c
00000200: 02ac 733d 2882 50bf 4075 8abe 49d6 d3bd
00000210: 9b4b cebd caa7 02be 8bb6 05bf 24e5 23be
00000220: 45c1 40bf 1dc2 6fbe e328 52bf 6e3f 94be
00000230: 5449 23bd cba1 4ebf 9adf 51bf 3716 893e
00000240: 8d08 c0be ef53 43bf 1917 4cbf e372 3bbf
00000250: f867 bebe 2caf 38be d68d a8be f917 49bf
00000260: 34a8 8cbe 5137 61be face 29bf 3a57 1abf
00000270: fac6 3bbf 0f46 36bf 29a0 46bf 9aa1 803e
00000280: e4ba 07bf 22a2 51bf 2c04 49bf c1cb 29bf
00000290: b906 5dbf c276 51bf 809a 42bf a1c1 0dbe
000002a0: c447 23be 1645 43bf ab2a 28bf 319a 48bf
000002b0: 6648 45bf b862 98be 73e4 03bf 5575 64bf
000002c0: cb74 43bf f728 3bbe 2938 51bf c0cf 4ebf
000002d0: 1f33 9fbe e4f0 7abe 7d82 48bf 00b1 43bf
000002e0: 6461 283d 6fac ca3f 2e21 4cbf f3a8 3cbf
000002f0: 9007 43bf 3f37 35bf 98a1 4dbf 980f 85be
00000300: 3fa4 3bbf c02b 6fbe 010e 62be 3ecf 2bbf
00000310: 9e1b 49bf 43b2 5abf c87a b0be c0a3 91be
00000320: b8a0 42bf da5f 91be 8def 10be 7f4b 3fbf
00000330: c422 3fbf 9535 53bf 5aff 56bf ce30 3dbf
00000340: 1f9a 48bf 2d43 0bbf feef 14bf 6d3a 49bf
00000350: da07 6dbf 2d59 4ebf 7a3d 21bf e349 45bf
00000360: 32d5 c5bd 31bf 1abf 13ab 36bf f154 4dbf
00000370: defc 3bbf 308e 42bf c176 5abf 00bf 8abe
00000380: 91e8 d7bd
-0.50754315 -0.24527702 -0.74059683 -0.22735938 -0.62994343 -0.7360156 -0.7721787 -0.7546998
-0.6018901 -0.058053248 -0.84486747 -0.719421 -0.81118643 -0.8061813 -0.79266953 -0.19918603
-0.7704058 0.017340729 -0.68216777 -0.5274258 -0.6921026 -0.8004023 -0.86092114 -0.2065215
-0.6532308 -0.81961805 -0.8914569 -0.793893 -0.87722284 -0.3241284 -0.7572516 -0.8508345
-0.053747952 -0.8149369 -0.26891944 -0.7172852 -0.7694457 -0.895939 -0.20984335 -0.8102203
-0.7175444 -0.79623973 0.07464607 -0.6849456 -0.10364016 -0.10892181 -0.21098723 -0.8603327
-0.8677044 -0.75916827 -0.08303852 0.15310203 -0.35293406 -0.6197466 0.2744434 -0.80515796
-0.77697915 1.1854898 -0.70002395 -0.8293689 -0.79608506 -0.7738443 -0.82709324 -0.76380605
-0.716243 -0.6396394 -0.7782821 0.10863778 -0.78864205 -0.81231636 -0.76570976 -0.82934374
-0.63370603 -0.44253117 -0.77480584 -0.7375972 -0.42900756 -0.7292724 -0.8507796 -0.8154714
-0.807383 -0.6231253 -0.750224 -0.7970254 -0.40216494 -0.88112456 -0.7584436 -0.8886725
-0.47157583 -0.8072993 -0.6958895 -0.89360464 -0.7627807 -0.7960237 -0.12843338 -0.27405483
-0.115559995 -0.5680144 0.32872525 -0.7998545 -0.80329263 -0.80919933 -0.67063904 -0.8236201
-0.851388 0.06999847 -0.6407868 -0.8231152 -0.8013464 -0.8483825 -0.3227922 -0.32064912
-0.77589947 -0.84469056 -0.85614944 -0.77428216 -0.8514029 -0.19860819 -0.4846707 -0.84651494
-0.77603346 -0.84597933 -0.64878726 0.07111768 -0.37136364 -0.7792047 -0.09379005 0.027423894
0.05949021 -0.814486 -0.2704258 -0.10343606 -0.10073014 -0.12759319 -0.52231663 -0.16005379
-0.75294906 -0.23413892 -0.8209364 -0.28954643 -0.039864853 -0.80715626 -0.81981814 0.2677476
-0.37506524 -0.7629995 -0.79722744 -0.7322218 -0.37188697 -0.18035573 -0.32920712 -0.78552204
-0.2747208 -0.21993758 -0.66331446 -0.6028935 -0.7335049 -0.7120065 -0.77588135 0.25123292
-0.5301955 -0.8188802 -0.7852199 -0.6632653 -0.8633838 -0.81821835 -0.76017 -0.13843395
-0.15945345 -0.7627729 -0.65690106 -0.7836028 -0.77063596 -0.29762816 -0.5152046 -0.89241534
-0.76350087 -0.18277346 -0.8172632 -0.8078575 -0.3109369 -0.24505955 -0.7832411 -0.76441956
0.041108504 1.5833873 -0.7973813 -0.73695296 -0.76183414 -0.70787424 -0.803247 -0.2598846
-0.73297495 -0.23356533 -0.22075655 -0.671131 -0.78557765 -0.85428256 -0.34468675 -0.28445244
-0.7602649 -0.2839344 -0.14153881 -0.7472457 -0.74662423 -0.82503635 -0.83983386 -0.73902595
-0.7836017 -0.5439938 -0.581787 -0.78604776 -0.92590106 -0.8060482 -0.6298443 -0.7706587
-0.096598044 -0.60447985 -0.7135479 -0.80207735 -0.7343272 -0.7599821 -0.85337454 -0.27098846
-0.105424054

conv3.weight f4 [32, 32]
00000000: af2e 1cbd cdd6 9abd a8ce b83e 0c57 89be
00000010: cf7e e53e 8b65 50bd 6ad3 b53e 1ec9 003e
00000020: 0dd2 6f3d cc4b be3e cd68 2a3d 58ec 1f3e
00000030: b199 af3c 7829 2a3d dd16 a0be 9ccd e33c
00000040: c4aa 63bd 8ae2 25bd f6a3 db3e 1593 d23e
00000050: 6618 c8bc 354b 80bd 2ee6 acbe ecaf 82be
00000060: ae2e 5bbe bb06 ba3d ac83 98be 4730 8abe
00000070: 365a 1f3b 4778 363d adb6 493d 982d c4bc
00000080: 524b 8d3e e793 a8bd 6016 92be 07dc 933e
00000090: 01c7 54be 2da6 6dbe 63cc 69be a458 413e
000000a0: 35a5 00bb ca2b abbe c2bc ed3d c7c0 bbbc
000000b0: 91c7 073d 9f7f bcbe 6a5a d03d 63f2 9f3e
000000c0: 159d a13d a011 30be ea35 d1bd 573f 88be
000000d0: 91f6 afbc becc 0d3e 3909 903e 7010 3dbe
000000e0: 186d ba3d 8e4c 033d 70f1 673e 6de1 923e
000000f0: fe1e 8c3d 3342 aebd 6001 913d 19b1 73be
00000100: 0480 4fbe 2003 b23d 0b96 48be 5212 f23d
00000110: 5010 33be 234a 913d e246 433d b843 1e3e
00000120: f30f 10be de6f 68be aa3e 8bbd 1ca2 1fbe
00000130: 4bb4 95be a3bb 89bc 53ec 143e 0de0 a13e
00000140: d8e0 5dbe 0b72 5e3e 77c0 79be 034a 94bd
00000150: 91d5 0dbf b47d 553d f055 59bc 7f4c 1ebd
00000160: 88d2 0f3f d5f5 043e cd6a dabc c781 c7bd
00000170: 6504 9fbe 6e54 843e f9fb 26bd 14e5 a43e
00000180: bcbe b63e 446c dcbb b16b a93d b488 5d3e
00000190: dceb 8b3c 8869 413b a0e2 e1bd 7821 ccbc
000001a0: f439 81bd 2abe b83d e590 8a3e 2a37 2b3e
000001b0: def4 f93d 81f2 b1be e192 37be f0fc 98be
000001c0: 42bf b63e c289 3e3e 852d b1bd a8ea 0bbe
000001d0: 54e1 543e bfc3 60be af1a 3dbd 8fdb 743e
000001e0: 5857 eabe 56bc 19be 6af2 583d 3ddb bbbd
000001f0: b956 c53d 8699 97be 9a58 a53d 62f2 4c3e
00000200: a09c 223d adbe b53e 266e 513c a049 32bd
00000210: a23d cc3b 612d a2bd e7a8 393d c1ed a9bd
00000220: a510 6dbe 2df4 993d 6431 453e 555d c73d
00000230: c617 b13d dfbd af3e f9b0 89be 1ece 933e
00000240: af56 89bd b0df 68be d910 5fbd c8aa 8dbe
00000250: 19ef e5bd da55 333e c5cf 1cbe d905 5e3e
00000260: cacd 05be 943b 643e 2e03 4abe 67d3 8bbd
00000270: a369 81bd ffe7 5f3e 5f1b 37be 55cd d03d
00000280: 8659 863c 12a7 0f3d 7532 36be 7d49 09bd
00000290: 7d0a 563e d267 2fbe c206 97bd 1e10 e43c
000002a0: d51d 88be e5a3 153e 6501 f83d 8c6f fc3c
000002b0: 4cf2 f0bd 44ee 53be fbee 0d3d 8e6c 0a3e
000002c0: 65ca 993c fabf 8fbc eb34 3f3e ec6e 96be
000002d0: a1a7 7b3c f830 c4be 593f b93c 39ba c43d
000002e0: 93cf 9bbe c8a9 ab3d ec97 453e 4387 503d
000002f0: 7622 e03e 4721 a2be 6155 f3bd 0340 68be
00000300: e625 073e 34dc 533e 5b96 343e 4f32 f5be
00000310: 8863 353e c591 9dbe 7081 023e 3876 c93e
00000320: 2ee7 073e 2844 8f3e ed02 73be 2df6 8ebe
00000330: 887f 79be 1f7d 2b3e ad61 ad3e 5751 1a3d
00000340: 04fd dc3e 47ae da3c 7db9 07be be9d e13d
00000350: 04ce 58be 18f6 8fbe a108 86bd 1f50 883e
00000360: 2885 9a3e b7b8 9d3e 2f66 0a3e f629 31be
00000370: 1b8f 9abd 5c42 013d 2c05 90be d6e7 e13d
00000380: d470 9b3d c592 2dbe ad8b be3e fdbe 00bf
00000390: 00f2 4b3e 5b9e 88be a0a9 e5bd b0fe 4e3d
000003a0: 6a99 7fbd 8490 89bd 840c c7be 849b 11be
000003b0: 147c 5ebe cab8 87be 1ddf a83e d283 9dbe
000003c0: 3452 f63b 7db4 6e3d d592 09bd f8e0 043f
000003d0: 8e12 fbbe eb39 8ebe 2fa4 8c3d f79a 423e
000003e0: d659 973e 7f6c 20be e2ee d4bd 8884 99bd
000003f0: e2a0 32be d0fd 93bd 1a4a 8f3e 81f7 c1bd
-0.03813046 -0.07560501 0.36095166 -0.26824224 0.4482331 -0.05087809 0.3551286 0.1257672
0.05854993 0.37167203 0.041603852 0.15617502 0.02143559 0.041543454 -0.31267443 0.027808003
-0.055582777 -0.040499248 0.4289853 0.4112784 -0.024425697 -0.062643446 -0.33769363 -0.25524843
-0.21404526 0.09083315 -0.29787958 -0.26989958 0.0024315245 0.0445483 0.04924648 -0.023947522
0.27596527 -0.08231335 -0.28532696 0.28878805 -0.20779039 -0.23207922 -0.22831874 0.1888147
-0.001962972 -0.33431846 0.11608268 -0.022919072 0.033149306 -0.36816117 0.10173495 0.31239614
0.07891289 -0.17194223 -0.102153614 -0.26610824 -0.021479877 0.13847634 0.28132036 -0.18463302
0.09102839 0.03205543 0.22650695 0.2868761 0.06841849 -0.0850872 0.070803404 -0.23798026
-0.20263678 0.08692002 -0.19588487 0.118199006 -0.17486691 0.070942186 0.04767502 0.1545552
-0.14068584 -0.22698924 -0.067990616 -0.15589184 -0.29239115 -0.016813105 0.14543276 0.3161625
-0.21667802 0.21723191 -0.24389826 -0.07240679 -0.55404 0.052121833 -0.013265118 -0.03864717
0.5618062 0.12984402 -0.026662255 -0.0974155 -0.3105804 0.25845665 -0.040767644 0.32206023
0.35692394 -0.0067267735 0.08272494 0.2163418 0.01708024 0.0029512364 -0.110295534 -0.024918303
-0.06309882 0.09020646 0.2706367 0.16720262 0.12204908 -0.34755328 -0.17927124 -0.29880476
0.35692793 0.18607238 -0.0865126 -0.13663733 0.20789081 -0.21949671 -0.046168026 0.2391188
-0.45769763 -0.1501325 0.05296556 -0.09172676 0.09635682 -0.29609317 0.0807354 0.20014337
0.03970015 0.35497037 0.012782609 -0.043527246 0.006232933 -0.079188116 0.045327093 -0.08297301
-0.2315088 0.07517276 0.19257122 0.097345985 0.086471125 0.34324548 -0.26892832 0.28868192
-0.06705987 -0.2274158 -0.054459427 -0.27669358 -0.11227245 0.17513219 -0.15313633 0.21681918
-0.13066784 0.22288352 -0.19727775 -0.06827431 -0.06318977 0.21865843 -0.17881535 0.10195414
0.01640011 0.03507144 -0.17792685 -0.03351735 0.20902438 -0.17129448 -0.07374336 0.027839717
-0.2658526 0.14613302 0.12109641 0.030814908 -0.117649645 -0.2069636 0.034651738 0.13517973
0.018773267 -0.017547596 0.1867253 -0.29381502 0.01535979 -0.3831861 0.022613214 0.09605832
-0.30431804 0.083819926 0.19296235 0.050910246 0.43776292 -0.31666014 -0.11881519 -0.22680669
0.13198051 0.2068947 0.17635481 -0.47889945 0.1771375 -0.30775276 0.12744689 0.39348006
0.13271782 0.27981687 -0.23731585 -0.27922192 -0.24365056 0.16746949 0.33863583 0.037675228
0.43161786 0.02669443 -0.13254352 0.11016415 -0.21172339 -0.28117442 -0.065446146 0.26623628
0.30179715 0.3080499 0.13515542 -0.17301163 -0.075468265 0.031557426 -0.28128946 0.11030547
0.0758988 -0.1695052 0.3721594 -0.50291425 0.19916534 -0.26683316 -0.11213994 0.050535858
-0.062402166 -0.06717017 -0.38876736 -0.14219481 -0.2172702 -0.2650817 0.32982722 -0.30764633
0.0075171236 0.058277596 -0.033587296 0.51905775 -0.49037594 -0.27778563 0.06867253 0.19004427
0.29560727 -0.15666388 -0.10397126 -0.074959815 -0.17444184 -0.07226145 0.27986223 -0.09471036

conv3.bias f4 [32]
00000000: 4196 50bc 27a5 033c 9351 6d3c df76 63bc
00000010: c5c0 f33c 00be 6bbb 3968 54bc 7456 9b3c
00000020: a3dc 423d 17ed 2ebc c4d3 3fbc e2a1 e2ba
00000030: 15f6 c13b ff71 a3bb 8781 25bc 21b4 c33c
00000040: 427d 1ebb d357 46bc e098 3f3c 59fe 873d
00000050: f2a5 e9bb 6cc8 70bd 86eb b93c 370d 86bb
00000060: 61ee ba3c 912a d637 765c 4eba a18c 04bb
00000070: e6d5 2c3c 1d8c d03a 9ade b3bb 12f3 473c
-0.012731136 0.008034981 0.014484781 -0.013883322 0.029755006 -0.0035971403 -0.012964302 0.018962122
0.047573697 -0.010676644 -0.011708204 -0.0017290676 0.005919228 -0.0049879546 -0.0101016825 0.023889603
-0.0024183546 -0.0121059 0.011694163 0.0664031 -0.007130378 -0.058784887 0.022695314 -0.004090931
0.022818746 2.553061e-05 -0.0007872054 -0.0020225423 0.010549044 0.0015910898 -0.0054891827 0.012203949

conv4.weight f4 [32, 32]
00000000: 3ffb 263e f21b bc3e fbab 9dbe 10a8 d8bc
00000010: 5cc2 7c3e 966f 2a3e 0a9e 6bbe de9d 163e
00000020: 5491 85be 4b61 c0be e22c 513e 1188 9b3e
00000030: a4dc e33d 2fd3 683c be15 013e 2afb b3bd
00000040: 807f 98bd 89e9 8a3e c989 27be d5b4 1b3e
00000050: 12ed 6c3e 4025 aabd ec34 86bd 0976 66be
00000060: 5af3 7fbe 705a 053e 910f bf3b cf16 493d
00000070: 0865 5d3c a408 7dbe efb5 1f3e 4462 d4be
00000080: 8c39 2dbe 64fb 033e 7b70 313e c8e9 463c
00000090: b250 f43d cca9 66be a66c fe3d 96b0 ac3d
000000a0: 9d6c 123e 3942 333e 0a0b 613e 6d55 793e
000000b0: ffba 3c3e 439e 113e 6a03 80be 0b62 0e3e
000000c0: cc21 f9bd 73d0 b4be 0f48 60be 1e87 56be
000000d0: a79c bb3c 3d53 103c 80a9 5cbe fbb0 0d3e
000000e0: e414 a5bd 183f 8cbe e9c8 833e 58b1 c6bd
000000f0: 0280 1d3e acb4 12be 6925 2c3c 6d5a 35be
00000100: 96d0 d4bd 1227 383e ac12 363e 6f09 50bd
00000110: 0611 173e 5b9b 8a3a 7c0b b23d 4af3 8abe
00000120: 19db 83be d655 93bd 662a a6be b7cb 71be
00000130: 889b 68be 7a0c 11be 9850 febd 74e6 b23c
00000140: 69a4 063e eb7c 4e3e 33c4 213e 9549 643e
00000150: 320e 943e 1269 8fbd 2999 57be 5320 b9bd
00000160: 928e 113e 3588 59be 6284 27bd 0c9d 07be
00000170: 047c c9bd 3de6 0b3d 644e 94bd d322 c83e
00000180: 32e7 763e f03b da3d d383 293e 1393 423e
00000190: 4375 0f3e 5244 7c3d d738 c83c 56f4 25be
000001a0: c39e 54be ebb9 a33e 2ce7 d43d 60ef 0abd
000001b0: f260 93bd 9a29 aebe e6b4 a1be 413f cd3e
000001c0: bb44 8cbe fb9c 89be a384 9b3d 454b 313e
000001d0: 5c6e d83d 0fd3 a83e 62ae 6d3e 9c5d 13be
000001e0: 7cf9 293e c1e5 7ebe 2e7b b1bc 9c5b 3e3e
000001f0: 23dc b53e a98e f53d d615 b23d 4d5c 8b3e
00000200: 700c 5cbe 9080 583d 4911 1abd fae1 c6be
00000210: c75d d93d 258c 6b3e 451d 86bd 6ba4 863d
00000220: 3139 943e 3788 63be b4bc 203d 634a 6a3e
00000230: d6cd d23d cdfb 7a3e 3085 89bd 4b73 b2bd
00000240: 62bb aebe 65fb 4bbe 98e3 d93d d5ca 7d3d
00000250: ff79 633d 1811 123d 84f1 8bbc 850f 0abe
00000260: 63d5 d33e 7d97 38bd c2e3 cbbd c2e8 d93d
00000270: e741 8c3e 6f82 ac3d c997 8abd a8e7 4bbe
00000280: 4de2 e3bd f945 9c3e b80d 0e3c 5b3a 70be
00000290: ac41 87be e6ad 643d 5e4a 523e 2029 1e3e
000002a0: 71ba 783d aedb 353e a2c9 9f3d b363 b7bd
000002b0: 364e 95bd b681 ab3d d09c 03be 2d9f 1ebe
000002c0: fcb0 9c3e 519f f53c 5769 41be c722 ee3d
000002d0: a99d 2b3e dc88 9a3e 175a 32be b4df 6a3e
000002e0: 449a 5d3e 32f0 cebd 8d4a 2e3e 87fa f03d
000002f0: d3b4 a6bd 89db 39be e5ce da3b 49c4 123d
00000300: 50a5 333e ad28 9e3d c229 e33d df1c ae3b
00000310: 2479 36be 2d85 b9be 7184 8cbd 51ea 80bc
00000320: 367e 63be 5521 7c3c 217f 7f3d b456 8b3e
00000330: 0c66 6e3d d849 bcbd 6222 b6be 647b 923e
00000340: e1a2 97be 5b9b 0bbc 826d 853d 2663 193e
00000350: daa1 85be 82d0 963e bf74 38be 8d42 443e
00000360: 1cfa cabd f061 b23c 8761 6c3e 78b5 923c
00000370: 4a3a 9dbd 1533 f43c b50c 813d 3003 5d3d
00000380: 102e b0be 1804 893e f352 b1bd dcda 3cbe
00000390: 6301 11be c23b a13e 286a d7bc fe67 dcbd
000003a0: 1767 153e 96f8 a03d e4e5 0e3e 561b 9f3d
000003b0: 9f5d 79be 27aa 85bd e3c7 8d3e 1a60 dfbc
000003c0: 454b febd d4f3 e73e 18db 24be b271 adbd
000003d0: e9d9 903e f958 c0be 601c c63d 0536 9ebd
000003e0: ba1d a3be 3cd8 ac3d 9ca0 94be b500 353e
000003f0: df93 26be 209c 4ebe 5c78 da3d fe4a d9bb
0.1630678 0.3674007 -0.30795273 -0.026447326 0.24683517 0.16644129 -0.23009506 0.14708659
-0.2608744 -0.3757423 0.20427278 0.30377248 0.11126068 0.014210506 0.1260595 -0.0878814
-0.07446194 0.27131298 -0.16361155 0.152057 0.2313731 -0.08307886 -0.06553063 -0.22505964
-0.24995175 0.1302278 0.005830713 0.049094018 0.013512857 -0.24710327 0.15596746 -0.4148122
-0.16916484 0.12888867 0.17328064 0.012140699 0.11929454 -0.2252571 0.12423067 0.084321186
0.14299245 0.1750573 0.21976867 0.24348994 0.18430708 0.14220528 -0.25002605 0.13904588
-0.12164649 -0.35315284 -0.21902488 -0.2094998 0.022901846 0.008808908 -0.21549034 0.13837044
-0.08060625 -0.27391887 0.2573922 -0.097017944 0.15380862 -0.14326733 0.010506966 -0.17710276
-0.10391347 0.17983654 0.1778056 -0.050790247 0.14752588 0.0010574864 0.08693597 -0.2713874
-0.25753096 -0.07194106 -0.32454222 -0.23612867 -0.2271558 -0.14164916 -0.12417716 0.021838404
0.13148655 0.2016484 0.157975 0.22293694 0.2891708 -0.070024624 -0.2105452 -0.090393685
0.14214543 -0.21243365 -0.040897734 -0.13243502 -0.09838107 0.03415512 -0.07241514 0.3908907
0.24111632 0.106559634 0.16554193 0.19001417 0.14009576 0.061588593 0.024441166 -0.16206488
-0.20763688 0.31977782 0.10395655 -0.033919692 -0.07196225 -0.34016114 -0.31583327 0.4008732
-0.27396187 -0.2687758 0.07593658 0.1731387 0.105679244 0.32973525 0.23211053 -0.14391178
0.16599077 -0.24892332 -0.021665182 0.18589634 0.35519513 0.11990101 0.08695571 0.27218857
-0.2148912 0.05285698 -0.03761414 -0.3884428 0.1061359 0.2300268 -0.065485515 0.06574329
0.28949884 -0.2221993 0.03924246 0.22879939 0.10293166 0.24510117 -0.067148566 -0.08713397
-0.34127337 -0.19920118 0.10639113 0.061961014 0.055536266 0.035660833 -0.017082937 -0.13482483
0.4137374 -0.045066345 -0.09955551 0.10640098 0.2739403 0.08423316 -0.06767232 -0.19912589
-0.11127148 0.30522135 0.008670263 -0.23459761 -0.2641729 0.055829905 0.20536181 0.15445375
0.06072468 0.17759582 0.0780213 -0.08954563 -0.07290308 0.0837435 -0.12852788 -0.15490408
0.30603778 0.029983195 -0.1888784 0.11627727 0.16759361 0.3018254 -0.17417179 0.22936898
0.21640879 -0.10104407 0.17020626 0.11766534 -0.08139958 -0.18150152 0.006677496 0.035831723
0.1754353 0.07722602 0.11091949 0.0053135003 -0.17819649 -0.36234418 -0.06861199 -0.01573673
-0.22216114 0.015388806 0.0623771 0.27214587 0.05820279 -0.09193772 -0.35573107 0.28609765
-0.29616454 -0.008520926 0.065150276 0.14979228 -0.26100045 0.29455954 -0.18013285 0.19166012
-0.09910986 0.021775216 0.23084079 0.017908797 -0.076771334 0.029809514 0.06301252 0.053958118
-0.34410143 0.26760936 -0.086583994 -0.18442863 -0.14160685 0.31490904 -0.026295736 -0.107620224
0.14590107 0.07859914 0.13954884 0.07768886 -0.2435212 -0.065265946 0.27691564 -0.027267504
-0.124167 0.45303214 -0.16099203 -0.08468951 0.28291252 -0.3756788 0.09673381 -0.07725147
-0.31858617 0.08439681 -0.29028785 0.17676051 -0.16267346 -0.20176744 0.10667488 -0.006631254

conv4.bias f4 [32]
00000000: 2934 c9bd 602b a2bc 926f 6ebd 2d66 b4bc
00000010: 4139 a5bc 9c8a d83d 5fb0 5dbd 091f 853d
00000020: e10d 0fbc f31d 95bc 904f 583d 3e96 e93d
00000030: 3f14 bcb8 5085 c13d 4683 7f3d 700f 0bbe
00000040: 7b42 b73c 02ad a63d 9eed 333b 727b dbbc
00000050: 4f7c 2a3e c03a 63bc 10cd a33c bbe5 a1bc
00000060: 9489 b23c a596 9a3d c5a3 9bbb 08b8 2ebd
00000070: cbc7 b43c 189c da3b a085 30bd 4752 a5bd
-0.09824402 -0.019796073 -0.05821187 -0.022021377 -0.020168902 0.10573313 -0.05412328 0.0650006
-0.008731336 -0.018202757 0.05281025 0.114056095 -8.96831e-05 0.094492555 0.06238105 -0.13580108
0.022370568 0.08138467 0.0027454863 -0.026792262 0.16648982 -0.013868988 0.019995242 -0.019762864
0.021794118 0.075482644 -0.0047497475 -0.042655975 0.022067925 0.00667144 -0.043096185 -0.08072334

conv5.weight f4 [32, 2]
00000000: e697 8ebe e1ea 4c3e 9874 9fbe 90ec a0bd
00000010: d12d 8abe b770 babe 7d0c 08be c597 de3d
00000020: 2f71 73bd e872 a43d 48e9 a9bc fba6 983e
00000030: 602b 7dbd 2302 37be 6e9c 6a3d 220e 813b
00000040: e917 6c3d 8482 6d3e a571 113e 044d 4e3e
00000050: 4e78 0f3e 1871 013d d376 6abe 910e 0b3e
00000060: c7db 07be 0fa0 43bd 1139 013e ba14 0cbd
00000070: 9451 5f3e a352 923d 1cc5 9cbe eb39 ee3c
00000080: 0e35 46be b6c1 873d 245c 8abe 1453 523e
00000090: a7c9 07bd ae34 e83d 7a8e 7abc 058d cc3e
000000a0: c334 73be bc14 863e 45cd c53d 635e d03e
000000b0: 5cfe 47be 9285 3cbe eeef 183e 7260 fd3d
000000c0: ad70 263e 3a06 98bd 4d00 9a3e d641 fbbd
000000d0: 6d24 ccbd 8159 153e c34e 09be 463a f23d
000000e0: 327a 0e3d 5d60 b33e 206c 3c3d b418 733e
000000f0: 0951 58bd 4acd 38be f00d b0be 6477 513c
-0.27850264 0.20011474 -0.3114364 -0.07857621 -0.2698808 -0.3641412 -0.13286014 0.108687915
-0.059434112 0.08029729 -0.02074112 0.29814896 -0.061808944 -0.17871909 0.05727809 0.0039384523
0.05763999 0.23194319 0.14203508 0.20146567 0.14010736 0.031601995 -0.2289689 0.13579775
-0.13267432 -0.047760066 0.12619425 -0.034199454 0.21808463 0.07144668 -0.30619133 0.029080352
-0.19356176 0.06628744 -0.27023423 0.20539504 -0.033151295 0.11338173 -0.015292758 0.3995134
-0.23750596 0.26187694 0.09658293 0.4069701 -0.19530624 -0.18410328 0.14935276 0.12371911
0.1625392 -0.074230626 0.30078354 -0.122684166 -0.09967885 0.14584924 -0.13408951 0.11827521
0.034784503 0.35034457 0.046001554 0.23739892 -0.052811656 -0.18047062 -0.34385633 0.012784813

conv5.bias f4 [2]
00000000: 5bb2 993d c373 5b3d
0.07504722 0.053577196
