GST-recon/checkpoints/best_ring_GST.pth (torch, 47980 bytes, 21 tensors)

conv1.weight f4 [2, 32]
0	0x3ebdba33	0.3705612
1	0x3eed1aed	0.46309605
2	0xbe499d1a	-0.19688836
3	0x3eddd1bc	0.43324077
4	0xbde8c10e	-0.11364947
5	0x3e128eed	0.14312334
6	0xbea4a748	-0.32158875
7	0x3e92890c	0.28620183
8	0x3ebe36f4	0.371513
9	0xbeb140e2	-0.34619814
10	0x3ef855f9	0.48503092
11	0x3e3593c3	0.17732148
12	0x3eb23354	0.34804785
13	0x3e116e41	0.14202215
14	0x3e4942f8	0.19654453
15	0xbe2617fd	-0.16220088
16	0x3ecfda28	0.40596128
17	0x3daf498e	0.08558951
18	0xbe8c2f5e	-0.27379888
19	0x3e7d6c48	0.24748337
20	0xbe987f63	-0.29784688
21	0xbe186c22	-0.14885
22	0xbe74f979	-0.23923291
23	0x3eb1c7b9	0.3472269
24	0xbec9b205	-0.3939363
25	0xbe72c165	-0.23706587
26	0xbe51b506	-0.20479211
27	0xbe54da78	-0.20786464
28	0xbc608fb6	-0.013706138
29	0xbec11aa0	-0.37715626
30	0x3edcd916	0.43134373
31	0xbee18b4d	-0.4405159
32	0x3ea82ebf	0.32848164
33	0xbd71972b	-0.058982056
34	0xbe4f71b2	-0.20258215
35	0x3e6b1f91	0.2296126
36	0x3c1c9cf0	0.009558901
37	0x3ed5b452	0.41739136
38	0x3e20c2af	0.15699266
39	0xbe23882c	-0.15969914
40	0x3d169c2e	0.03677004
41	0xbe1f4a1f	-0.15555619
42	0x3e4d8725	0.20071085
43	0x3ec071b8	0.3758676
44	0x3e1c7c33	0.15281753
45	0xbe3f5aa7	-0.18686925
46	0x3eb0a5dd	0.34501544
47	0x3e52c645	0.20583446
48	0x3e724147	0.23657714
49	0xbec20d69	-0.37900856
50	0xbee9fd50	-0.45701075
51	0xbe709c1c	-0.23497051
52	0xbeb47571	-0.3524585
53	0x3eeb872d	0.46001568
54	0x3dd37875	0.1032571
55	0x3e61191f	0.21982239
56	0x3e6f3760	0.23360968
57	0x3df4bb66	0.11949806
58	0x3efb67fe	0.49102777
59	0xbee51d10	-0.44748735
60	0x3d6f50f2	0.058426805
61	0xbe9a4e39	-0.30137804
62	0xbcaa1945	-0.020764003
63	0xbde54e8f	-0.111966245

conv1.bias f4 [32]
0	0xbb12898b	-0.0022359814
1	0xbb489500	-0.003060639
2	0xbc3d8408	-0.011567123
3	0xb98d55ca	-0.00026957534
4	0x3bddea71	0.0067723324
5	0xbb97f0b6	-0.0046368493
6	0x3c885772	0.01664326
7	0x3c8b2f42	0.016990308
8	0x3ca97e8d	0.020690227
9	0x3bc73ae2	0.0060800174
10	0x3ca19e16	0.019728702
11	0x3ca72614	0.0204039
12	0xbcabcd56	-0.020971935
13	0x3c1db12d	0.0096247615
14	0x3c90575d	0.017619783
15	0xbb229813	-0.0024809882
16	0x3b76358f	0.0037568545
17	0x3b516e06	0.0031956448
18	0x3af94433	0.0019017517
19	0x3b84eed4	0.004056791
20	0x3b97de6e	0.00463467
21	0xbd02afe9	-0.031906042
22	0xbc33d46b	-0.010975937
23	0x3bba2a86	0.0056813387
24	0xbc4a09c7	-0.012331433
25	0xbd175171	-0.036942903
26	0x3b1914ca	0.0023358339
27	0x3b879351	0.0041374345
28	0xbc4d108e	-0.012516154
29	0xb920eda0	-0.00015347311
30	0x3c8126e3	0.015765613
31	0xbaf1f891	-0.0018460919

conv2.weight f4 [32, 32]
0	0x3da842c7	0.08215862
1	0xbd9d0451	-0.07666839
2	0x3e402fd3	0.18768243
3	0xbe379373	-0.17927341
4	0xbdf4c9b4	-0.11952534
5	0xbe7f820f	-0.24951957
6	0x3e9f4d3a	0.31113607
7	0x3dbf4b0b	0.09340485
8	0x3e90be10	0.28270006
9	0xbe963039	-0.29333666
10	0xbe9ff3c8	-0.31240678
11	0xbe441c69	-0.19151463
12	0xbe46c636	-0.19411549
13	0x3e1d0136	0.15332493
14	0x3dc75fa1	0.09735037
15	0x3e6cdced	0.23131151
16	0xbe02ec02	-0.12785342
17	0xbe27e4ea	-0.16395918
18	0x3dfcbada	0.123403266
19	0xbdd38444	-0.10327962
20	0x3e3faf98	0.18719327
21	0xbdb5b88e	-0.08873092
22	0x3deda526	0.11603765
23	0xbe8d6fd2	-0.27624375
24	0xbe4dd936	-0.2010239
25	0x3dafff66	0.08593635
26	0xbd2c0986	-0.04200127
27	0xbda6cf5f	-0.08145022
28	0x3e3c2d75	0.18376715
29	0x3e379649	0.17928423
30	0xbe9500f8	-0.29102302
31	0xbe35b0ae	-0.17743179
32	0x3eb04b03	0.3443223
33	0xbd84c461	-0.06482769
34	0xbe04dc8a	-0.12974754
35	0xbeba1523	-0.3634425
36	0xbe3688f6	-0.17825684
37	0x3da83970	0.0821408
38	0xbd8c9c60	-0.06865764
39	0xbe99d017	-0.30041572
40	0x3d89a289	0.06720454
41	0xbe579876	-0.21054253
42	0xbe49f4a2	-0.19722226
43	0xbe34bf8c	-0.17651194
44	0xbea78cca	-0.327246
45	0xbe52d343	-0.20588402
46	0x3eb2815d	0.3486432
47	0x3dc2b590	0.095072865
48	0x3d6e5dbe	0.05819487
49	0xbea61364	-0.3243667
50	0xbe5f615c	-0.21814483
51	0xbde77387	-0.11301332
52	0x3e105c7e	0.14097783
53	0xbe63d419	-0.22248878
54	0xbdd714e6	-0.10502033
55	0xbe27cb85	-0.1638623
56	0x3b9f174d	0.0048550726
57	0xbd933429	-0.07187683
58	0xbdfd0edc	-0.1235635
59	0xbe2a0148	-0.16602051
60	0xbe20e824	-0.15713555
61	0xbe31c287	-0.17359363
62	0xbda7137d	-0.08158014
63	0xbea2132e	-0.31655258
64	0x3e614d66	0.22002181
65	0xbdd80cf8	-0.105493486
66	0x3e7b5f9e	0.24548194
67	0x3dfba63d	0.12287567
68	0xbe8137a3	-0.2523776
69	0x3e61d596	0.22054133
70	0xbd8620e5	-0.06549243
71	0xbd9f0e31	-0.07766379
72	0xbe93af48	-0.28844666
73	0xbea51de8	-0.3224938
74	0x3daf5ca0	0.08562589
75	0xbd8f337b	-0.06992241
76	0x3e215e56	0.15758643
77	0xbe66c8db	-0.22537558
78	0x3e35f237	0.17768179
79	0xbe9073aa	-0.28213245
80	0xbc082d61	-0.0083116
81	0x3dc23d54	0.09484354
82	0x3dfc3ee3	0.12316682
83	0x3e98412a	0.29737216
84	0x3e7ffd9b	0.24999087
85	0xbe94d4e1	-0.29068664
86	0x3d8b908c	0.068146795
87	0xbe2ded64	-0.16985089
88	0xbcb81019	-0.022468613
89	0xbe922d69	-0.2855027
90	0x3eb35d71	0.35032228
91	0xbe8c4eec	-0.27403963
92	0x3dd83451	0.105568536
93	0x3d83244a	0.06403406
94	0x3dbec5c4	0.093150645
95	0xbde32c22	-0.11092402
96	0x3eaf25a0	0.34208393
97	0x3d901a00	0.07036209
98	0x3c1aa9a7	0.009439862
99	0xbea4bed8	-0.32176852
100	0x3e18de9d	0.1492867
101	0xbd6ce73e	-0.057837717
102	0xbe17eac1	-0.14835645
103	0x3e577462	0.2104049
104	0x3dd3e58d	0.10346518
105	0xbe1f8f43	-0.15581994
106	0xbdcf7693	-0.10130038
107	0xbd045089	-0.032303367
108	0x3deaee94	0.114712864
109	0xbda6814e	-0.08130132
110	0xbe006abf	-0.1254072
111	0xbcfe79f6	-0.031064015
112	0xbe57e252	-0.21082428
113	0x3dc400d6	0.09570472
114	0x3e707a45	0.23484142
115	0xbe9aff41	-0.30272868
116	0x3e328252	0.17432526
117	0x3e566a48	0.2093898
118	0x3d8447ca	0.06459005
119	0xbdb6e616	-0.08930604
120	0x3e12730a	0.14301696
121	0x3e469206	0.19391641
122	0x3c0d9abc	0.008642849
123	0xbc2ce12f	-0.010551735
124	0xbc92f043	-0.017936831
125	0x3d36aae2	0.04459656
126	0xbc248cf1	-0.010043369
127	0xbe263222	-0.16230062
128	0x3e60f562	0.21968606
129	0x3e857332	0.2606445
130	0xbb312e16	-0.0027035526
131	0xbda65f54	-0.08123651
132	0xbc3d7828	-0.011564292
133	0xbc5da9f1	-0.013529287
134	0x3d67d90c	0.056603476
135	0x3de21bbd	0.11040447
136	0xbe8a1b4f	-0.2697396
137	0xbd498215	-0.04919632
138	0x3e84a5a9	0.2590764
139	0x3d7a5055	0.061111767
140	0xbd196a8a	-0.03745512
141	0xbe3f47bd	-0.1867971
142	0xbe1280a1	-0.1430688
143	0xbe4c1e40	-0.19933414
144	0xbd5c96b1	-0.053854648
145	0x3decf474	0.11570063
146	0x3e795243	0.24347787
147	0x3da4759a	0.08030243
148	0xbe715ccb	-0.23570554
149	0xbe20e59d	-0.1571259
150	0xbcd61f90	-0.026138097
151	0x3ea37800	0.3192749
152	0x3d232ce9	0.03983775
153	0xbd9bc21c	-0.07605383
154	0x3d88630a	0.06659515
155	0xbd80a4be	-0.06281422
156	0xbe055afc	-0.13022989
157	0x3e8488fb	0.25885758
158	0xbd868947	-0.06569152
159	0xbdb608f0	-0.088884234
160	0xbe9f3eca	-0.31102592
161	0x3e381b00	0.1797905
162	0x3e75cda0	0.24004221
163	0x3e060dcc	0.130912
164	0xbe457171	-0.19281556
165	0xbeb4e3ae	-0.35329956
166	0xbe7bf1e6	-0.24603996
167	0x3e649e6f	0.22326063
168	0x3e1da26d	0.15393992
169	0x3ea2b50a	0.31778747
170	0x3e1ea89b	0.15494005
171	0x3c081511	0.008305804
172	0xbcc931d9	-0.024559902
173	0xbe863219	-0.26210096
174	0xbe5ee8e4	-0.21768528
175	0xbe379032	-0.179261
176	0x3e3f6687	0.18691455
177	0xbdec9a8b	-0.11552914
178	0xbb2fd6b9	-0.0026830866
179	0xbe79f6fe	-0.24410626
180	0xbc88b356	-0.016687077
181	0xbe19c419	-0.15016212
182	0xbe5c6991	-0.21524645
183	0x3e191cae	0.14952347
184	0xbe1d149a	-0.1533989
185	0x3e3139de	0.17307231
186	0xbe5cfc16	-0.21580538
187	0xbe31676b	-0.17324607
188	0x3c3e2a63	0.0116067855
189	0xbdddf332	-0.108374014
190	0xbcae1186	-0.02124859
191	0xbeace090	-0.33765078
192	0x3e22cccc	0.15898436
193	0xbe33f90f	-0.17575477
194	0x3e6fa0cc	0.23401183
195	0x3e2626a4	0.16225678
196	0x3e33eb40	0.1757021
197	0xbe516128	-0.20447218
198	0x3e4c686d	0.1996171
199	0xbddce7e6	-0.107864186
200	0x3dd8fb43	0.10594799
201	0x3ea9817e	0.33106607
202	0xbd6d29cf	-0.0579012
203	0xbc420dd3	-0.011844116
204	0xbd9d5809	-0.07682807
205	0xbe90b793	-0.28265056
206	0x3e2065c3	0.15663819
207	0xbe91d7d0	-0.28484964
208	0x3e3796ef	0.1792867
209	0x3e601618	0.21883428
210	0x3eb6c57e	0.3569755
211	0xbe10e3b5	-0.14149363
212	0xbe9a64b8	-0.30154967
213	0x3dc3ba34	0.09557
214	0x3e41f3f9	0.18940724
215	0xbe8bd7b0	-0.27312994
216	0xbd8b0eef	-0.06789958
217	0xbe2f3a7a	-0.17112151
218	0x3d0b0a07	0.03394511
219	0xbe043595	-0.12911065
220	0xbdcdbad0	-0.10045397
221	0xbd1d564c	-0.038412377
222	0xbe95a80a	-0.29229766
223	0x3e77e122	0.24206975
224	0x3e939821	0.28827003
225	0xbcad68b5	-0.021168092
226	0xbdb805fe	-0.08985518
227	0xbe1b2541	-0.1515093
228	0xbe84e623	-0.2595683
229	0xbea20c21	-0.3164988
230	0x3e01567f	0.12630652
231	0xbe3bba05	-0.1833268
232	0xbe4b611c	-0.19861263
233	0xbdafba3a	-0.08580442
234	0xbe1d7a10	-0.15378594
235	0xbd67939a	-0.05653725
236	0x3b97f74d	0.004637635
237	0xbcc02e60	-0.023459613
238	0xbdd44839	-0.10365338
239	0xbe40f4cc	-0.18843383
240	0xbe961720	-0.29314518
241	0x3e66e124	0.22546822
242	0xbe33aec1	-0.17547132
243	0x3dfcdd4e	0.12346898
244	0xbe01d2f4	-0.12678128
245	0xbb067c43	-0.0020520843
246	0x3e8cac8d	0.27475396
247	0x3e0919b3	0.1338871
248	0xbe6a8322	-0.22901586
249	0x3e1a4dff	0.15068816
250	0x3e98594b	0.29755625
251	0x3d55b250	0.052172005
252	0x3e3169a4	0.17325455
253	0x3e87fb61	0.26558974
254	0xbdea878d	-0.114516355
255	0x3d60413c	0.054749712

conv2.bias f4 [32]
0	0x3c25457d	0.010087368
1	0xbc344b8f	-0.011004343
2	0xbc216639	-0.009851032
3	0xbc9182c5	-0.017762551
4	0x3bc6ca7e	0.0060666194
5	0xbcb2a0a6	-0.021805119
6	0x3aacf2c1	0.0013194905
7	0xbc9b3b89	-0.018949287
8	0x3b768724	0.0037617171
9	0xbb081d25	-0.0020769325
10	0xbc4e25f4	-0.012582291
11	0x3d53f75a	0.051749565
12	0xbb29037b	-0.0025789428
13	0x3cdb7546	0.026789319
14	0xbc2253dc	-0.009907689
15	0xbc066bcf	-0.0082044145
16	0xbabb7058	-0.0014300449
17	0x3d020b5b	0.03174911
18	0xb9e99fe1	-0.00044560342
19	0x3b8e633c	0.0043453258
20	0xbbe36632	-0.006939673
21	0xbce38686	-0.027774107
22	0xbc3b3147	-0.011425323
23	0xbcbf7486	-0.023370992
24	0x3be8673f	0.007092386
25	0xbd026256	-0.03183206
26	0x3cd921c9	0.026505368
27	0x3bbad808	0.0057020225
28	0xba0a0057	-0.0005264333
29	0xba448d5c	-0.0007497871
30	0xbc604f4a	-0.013690779
31	0x3c663fdb	0.01405331

pool.pma.S f4 [1, 50, 32]
0	0xbdcb2387	-0.09918886
1	0xbdd8da7e	-0.10588549
2	0xbd577de2	-0.052610286
3	0x3cea18a6	0.028576206
4	0xbda4e909	-0.080522604
5	0x3cc32ff2	0.023826573
6	0x3c8acbb9	0.016942846
7	0xbcdf33ed	-0.02724644
8	0x3ca03ff6	0.019561749
9	0x3d963877	0.073349886
10	0xbcb4b7b7	-0.022060258
11	0xbcb85e0d	-0.022505784
12	0xbe4f4f1c	-0.20245022
13	0x3c3aaf0a	0.011394272
14	0xbe8e2317	-0.27761146
15	0x3e0c92c6	0.13727865
16	0xbd5cbcf2	-0.05389113
17	0x3d160f08	0.03663543
18	0xbdaaa8df	-0.08332991
19	0x3ccff2bb	0.025384298
20	0x3d89ba3f	0.06724977
21	0x3dce074e	0.10059987
22	0x3cd3b993	0.025845325
23	0xbd9933c2	-0.07480575
24	0xbe5483c8	-0.20753396
25	0x3e26b96c	0.1628167
26	0x3cb7bddb	0.022429397
27	0x3cec1b97	0.02882175
28	0x3d631b7f	0.055446144
29	0x3d5ee9d2	0.054422207
30	0xbd29d75e	-0.041465156
31	0x3d8c17a9	0.0684045
32	0x3d52ee01	0.05149651
33	0xbdce67b6	-0.10078375
34	0x3d0c09c0	0.034188986
35	0x3c5aaa55	0.013346274
36	0x3daf0c89	0.08547313
37	0xbc75af39	-0.01499539
38	0x3d6b34d5	0.05742343
39	0x3ddcb010	0.10775769
40	0x3d35b392	0.044360705
41	0x3cad9744	0.021190293
42	0x3d3598b2	0.044335075
43	0x3dd70c5a	0.10500403
44	0x3d0bb560	0.03410852
45	0xbe14526d	-0.14484568
46	0x3db30969	0.08742029
47	0x3d016c66	0.031597517
48	0xbd780ea2	-0.06056083
49	0x3c8dc651	0.017306479
50	0xbe2a2c74	-0.1661852
51	0xb8832795	-6.2539395e-05
52	0xbc873f19	-0.01650958
53	0x3d4380c2	0.047730215
54	0xbbc95aa7	-0.00614484
55	0xbdd308c1	-0.10304404
56	0x3d063bfa	0.03277204
57	0xbd7694b7	-0.06020042
58	0x3d175447	0.036945608
59	0xbdca5176	-0.09878819
60	0xbc959336	-0.018258672
61	0xbd2d96dd	-0.042380203
62	0xbde53a29	-0.11192734
63	0x3da8af34	0.08236542
64	0x3d96d858	0.07365483
65	0xbcd98f79	-0.02655767
66	0xbc648770	-0.013948306
67	0x3d3bc5c5	0.045842905
68	0x3da66f8b	0.08126744
69	0x3d937b0d	0.072012044
70	0xbced1e52	-0.028945122
71	0x3dbbd456	0.09171359
72	0x3c659895	0.014013429
73	0x3cacd392	0.021096978
74	0x3e022ced	0.1271245
75	0x3dae4ac3	0.085103534
76	0xbd0cf37b	-0.03441189
77	0xbc8c1e5f	-0.017104326
78	0xbd554345	-0.052066106
79	0x3d52f063	0.051498782
80	0xbdb129c1	-0.08650542
81	0xbd1d3bad	-0.03838699
82	0xbdea473c	-0.11439368
83	0x3cae6a44	0.021290906
84	0xbca78fb3	-0.020454263
85	0x3d5c36e1	0.053763274
86	0x3d4ac679	0.049505685
87	0xbbeaa811	-0.0071611484
88	0x3d065e6d	0.032804895
89	0x3c3159e4	0.010824654
90	0x3dccb05a	0.09994574
91	0xbd06d466	-0.032917403
92	0xbcdaf2fa	-0.026727188
93	0xbcf68184	-0.030091055
94	0xbdd0c5c5	-0.101939715
95	0xbccc4e4d	-0.02493968
96	0x3d631600	0.055440903
97	0xbdaebf42	-0.08532573
98	0xbca1cfe9	-0.01975246
99	0x3cf7eb0f	0.030263452
100	0x3d25a5fe	0.040441506
101	0x3db06bea	0.08614333
102	0x3c8f0a1f	0.01746088
103	0x3db1179a	0.0864708
104	0x3d9e9a58	0.077442825
105	0xbcf4a6b0	-0.029864639
106	0x3ce69f36	0.02815209
107	0xbc9b4044	-0.018951543
108	0xbd4f5678	-0.050619572
109	0xbdfd845d	-0.12378762
110	0xbe1a15d8	-0.15047395
111	0x3d766da6	0.060163163
112	0xbdc0af5b	-0.094084464
113	0xbd7d8700	-0.061896324
114	0xbe21c961	-0.15799476
115	0x3dd753aa	0.105140045
116	0xbd07491c	-0.033028707
117	0x3cf1815d	0.02948063
118	0x3c4e8e16	0.012607118
119	0xbd7700cc	-0.060303494
120	0xbd05deb0	-0.032683074
121	0x3d0d61d7	0.034517135
122	0x3e06c7f7	0.13162218
123	0xbdbb38a8	-0.09141666
124	0x3d2386ac	0.039923355
125	0x3a5ad02a	0.0008347059
126	0xbde11f18	-0.10992259
127	0x3de0bfb8	0.109740674
128	0x3e06a913	0.13150434
129	0x3c073c56	0.008254131
130	0x3e0e2d32	0.13884428
131	0x3b8f7649	0.0043781144
132	0xbd241e85	-0.04006817
133	0x3cb7ad61	0.02242154
134	0x3c581ff8	0.013191216
135	0x3ab1d3ff	0.0013567208
136	0xbbf6438f	-0.007515378
137	0xbdd95892	-0.106125966
138	0x3e25b2f9	0.16181554
139	0x3de6c76d	0.11268506
140	0x3de90983	0.11378767
141	0xbd91dac4	-0.07121804
142	0x3e498d29	0.19682755
143	0xba8d4ecc	-0.001078093
144	0x3c0b9646	0.008519715
145	0x3cb5e965	0.022206018
146	0xbcdd0dfe	-0.026984211
147	0xbcd622c2	-0.02613962
148	0xbd2a93e3	-0.041644942
149	0x3c86415a	0.016388584
150	0xbc1c5922	-0.009542735
151	0x3cf767c1	0.03020084
152	0x3d8c2e2e	0.068447456
153	0xbd50248d	-0.050816108
154	0x3cd3bdc0	0.025847316
155	0xbcb2bcca	-0.021818537
156	0xbd5678bd	-0.05236124
157	0xbcba8b96	-0.022771638
158	0xbd40b903	-0.04705144
159	0xbd1c2bd7	-0.038127746
160	0xbd5478b9	-0.051872943
161	0x3d7253b3	0.059161853
162	0x3d06413e	0.032777064
163	0xbd65dcb1	-0.05611867
164	0xbd26b244	-0.04069735
165	0xbd4cc749	-0.04999474
166	0xbdd74d6f	-0.10512816
167	0x3d680765	0.056647677
168	0xbcb46421	-0.022020401
169	0xbbd7461f	-0.0065696384
170	0x3c2f7715	0.010709544
171	0xbd5d933c	-0.05409549
172	0xbcc3c7ac	-0.023898922
173	0x3e0f3fd3	0.13989191
174	0xbd1ee972	-0.03879685
175	0xbda1c68f	-0.078992
176	0x3de7c09d	0.11316035
177	0x3dc71c4e	0.097221956
178	0xbcbb6f86	-0.022880327
179	0xbc993ed5	-0.018706718
180	0x3c4bc149	0.0124362195
181	0xbda3553c	-0.079752415
182	0x3cc57cc2	0.02410734
183	0x3d281e85	0.04104473
184	0xbbe01b14	-0.0068391655
185	0x3d9d5cc6	0.07683711
186	0xbdd5d345	-0.10440687
187	0x3dd3610e	0.10321246
188	0x3d157aad	0.036493946
189	0x3d26fa5b	0.0407661
190	0x3d2fed83	0.04295112
191	0xbd38a1aa	-0.04507605
192	0x3cd6864f	0.02618709
193	0xbda3b749	-0.07993943
194	0xbc0f510b	-0.0087473495
195	0x3c76656e	0.015038831
196	0xbc0056e8	-0.00783322
197	0x3dbb9e1e	0.09161018
198	0x3daf732b	0.085668884
199	0xbc3a4bf0	-0.011370644
200	0x3d37607c	0.04476975
201	0x3d293a7b	0.041315537
202	0x3e18f12e	0.14935753
203	0x3d90579f	0.070479624
204	0x3d8949a5	0.067035
205	0xbe058e0f	-0.13042472
206	0xbd991c7d	-0.07476137
207	0x3dfdf92a	0.1240104
208	0xbdfe3b67	-0.12413674
209	0xbdc91ee7	-0.09820347
210	0xbe04cda7	-0.12969075
211	0x3dae79d5	0.08519331
212	0xbd4d3e21	-0.05010808
213	0x3da65ba6	0.08122949
214	0xbc9c746a	-0.01909848
215	0xbd3db96e	-0.046319418
216	0xbd9fea6f	-0.078083865
217	0x3c89d1f1	0.01682374
218	0x3df6b485	0.1204615
219	0xbdc28d6e	-0.09499632
220	0xbc748a7a	-0.0149255935
221	0xbd646913	-0.05576427
222	0xbd84345f	-0.064553015
223	0x3de57149	0.11203248
224	0x3dc08b59	0.094015785
225	0xbd9f0a6e	-0.07765661
226	0x3da8873c	0.08228919
227	0x3ce4dce1	0.027937355
228	0x3c9db55a	0.019251514
229	0x3d5b741b	0.053577524
230	0xbc7ece43	-0.015552106
231	0x3d62d6ff	0.055380818
232	0xbca3fef6	-0.020019036
233	0x3c746a01	0.014917851
234	0x3dd7e015	0.10540787
235	0x3d6757c4	0.056480184
236	0xbcfcdf7f	-0.03086829
237	0xbe1d77f8	-0.15377796
238	0xbbc2c010	-0.005943306
239	0x3df38061	0.11889721
240	0xbdf67d8f	-0.12035667
241	0xbc9d92d8	-0.01923506
242	0xbe27bebf	-0.16381358
243	0x3d4f9ec0	0.050688505
244	0x3cf1d49d	0.029520327
245	0x3ddd67c0	0.10810804
246	0xbd7709ae	-0.060311966
247	0xbcb13001	-0.021629335
248	0x3ce808ca	0.028324503
249	0xbd05c38a	-0.032657184
250	0x3e07de6b	0.1326844
251	0xbd9476de	-0.072492346
252	0xbd6b7fd2	-0.057494946
253	0xbdb79182	-0.089633
254	0xbd7c1f46	-0.061553262
255	0x3d61cf8b	0.05512957

pool.pma.mab.fc_q.weight f4 [32, 32]
0	0xbe83dd4c	-0.25754774
1	0x3d5b2948	0.053506166
2	0xbc45ce3b	-0.012073095
3	0x3e3dcc73	0.18535022
4	0xbc4eb24d	-0.012615752
5	0xbe0cb722	-0.13741735
6	0x3e0698dd	0.1314425
7	0xbd5acb1f	-0.053416368
8	0x3e20118d	0.15631695
9	0xbd277144	-0.040879503
10	0xbe534026	-0.2062994
11	0xbe84d137	-0.25940868
12	0x3d043665	0.032278437
13	0x3dae856e	0.085215434
14	0xbef7b5e4	-0.4838096
15	0xbcbb244f	-0.022844462
16	0x3aa808ba	0.0012819984
17	0x3cdefaf6	0.027219277
18	0x3dd6c7d8	0.10487336
19	0xbddef028	-0.1088565
20	0x3dced423	0.100990556
21	0xbe0b137f	-0.13581656
22	0x3da18be2	0.07888009
23	0xbdf3a80e	-0.11897288
24	0xbe547a44	-0.20749766
25	0x3e98bec2	0.29833037
26	0x3d903935	0.070421614
27	0x3df863d9	0.121284194
28	0x3e8a6cba	0.27036077
29	0x3e8039a0	0.25043964
30	0x3db1e6a3	0.086865686
31	0x3da1bed2	0.07897724
32	0xbc2790b1	-0.010227368
33	0x3e64bd87	0.22337924
34	0x3e4a347f	0.19746588
35	0xbe08ca5d	-0.13358445
36	0xbd909ae6	-0.070607945
37	0xbe2048ae	-0.15652725
38	0x3d88715c	0.066622466
39	0xbe37c288	-0.17945302
40	0x3d4c6c7c	0.049908146
41	0xbd95e55d	-0.07319138
42	0x3cff92e1	0.031197967
43	0x3d02b1d0	0.031907856
44	0xbdaebea9	-0.08532459
45	0x3e284428	0.1643225
46	0x3e35bc61	0.17747642
47	0xbe433ba2	-0.19065717
48	0x3e3bb120	0.18329287
49	0x3e31fb36	0.17380986
50	0x3e237a9e	0.15964743
51	0xbdeaa73e	-0.1145768
52	0x3d9930a5	0.07479981
53	0xbddb8abf	-0.10719823
54	0xbd2f0db9	-0.042737696
55	0x3dcf3d6c	0.10119137
56	0x3e01a8f0	0.12662101
57	0x3d8eff7e	0.06982325
58	0xbe588997	-0.21146236
59	0x3e464b91	0.19364764
60	0xbdd190e9	-0.102327175
61	0x3e181b8f	0.14854263
62	0x3e298d14	0.16557723
63	0x3c42d4ec	0.011891585
64	0x3e0f153f	0.13972948
65	0x3dba66dc	0.0910165
66	0x3d977ee0	0.07397246
67	0xbd877f4c	-0.06616077
68	0x3e090d62	0.13384011
69	0x3ce8713d	0.028374309
70	0x3e0c5f9f	0.13708352
71	0xbbdf3029	-0.006811161
72	0x3e3dfc1e	0.18553206
73	0x3e18db09	0.14927305
74	0xbe2ac491	-0.16676547
75	0x3dff4b3e	0.12465523
76	0xbe52dc7c	-0.2059192
77	0xbe163c35	-0.14671405
78	0xbe7ce45d	-0.24696489
79	0x3e1bbf68	0.15209734
80	0xbe4fd9fc	-0.20297998
81	0xbcead1ab	-0.02866443
82	0xbe093c05	-0.13401802
83	0x3d64fc01	0.055904392
84	0xbe040d7b	-0.12895767
85	0xbd1f7b9d	-0.038936246
86	0x3d27b315	0.04094227
87	0xbd0a09f9	-0.033700917
88	0xbe50a7ff	-0.20376585
89	0x3decba32	0.115589514
90	0xbd318ecf	-0.043349084
91	0xbe19f0a2	-0.150332
92	0x3ce4c8f8	0.02792786
93	0xbde729d5	-0.11287276
94	0x3d2d3cd5	0.042294342
95	0xbddc6dd3	-0.10763135
96	0x3a869535	0.0010267856
97	0x3ded8ebf	0.11599492
98	0xbdb12a6a	-0.08650668
99	0x3e039cab	0.12852733
100	0xbe03d002	-0.12872317
101	0xbdb6ccf7	-0.08925813
102	0xbdf31d5b	-0.118708335
103	0xbd27dd8e	-0.040982775
104	0xbd87ecbd	-0.06636951
105	0xbe3914c2	-0.18074325
106	0x3d9c5401	0.0763321
107	0x3cc392b1	0.023873659
108	0x3e2bd251	0.16779448
109	0x3e12048b	0.14259546
110	0x3e98121c	0.29701316
111	0x3d6aee9e	0.05735647
112	0x3dad5ec7	0.08465343
113	0x3e354514	0.17702132
114	0x3e1d8c77	0.15385614
115	0xbe5a204f	-0.21301387
116	0xbd37747c	-0.044788823
117	0xbe2b2b26	-0.16715679
118	0x3b7f8ee7	0.0038995089
119	0xbda4516e	-0.08023344
120	0x3e7af8c4	0.24508959
121	0x3cc31754	0.023814835
122	0x3b8f8e2f	0.0043809633
123	0xbdde5e81	-0.10857869
124	0xbe20d303	-0.15705495
125	0x3b9df279	0.0048201648
126	0xbde1c225	-0.11023358
127	0xbded3663	-0.11582639
128	0x3e084618	0.13307989
129	0xbdd80817	-0.10548418
130	0xbd2dab89	-0.042399917
131	0x3deec770	0.116591334
132	0x3d3ed8de	0.04659354
133	0xbddac116	-0.106813595
134	0x3dccef01	0.10006524
135	0x3ded43ce	0.11585198
136	0xbdfbd182	-0.1229582
137	0x3cb6dbb5	0.022321561
138	0x3d731298	0.059343904
139	0x3b544df2	0.0032395092
140	0x3e1b7a53	0.15183382
141	0xbe172af7	-0.14762484
142	0x3e68714c	0.2269947
143	0xbbb4a712	-0.0055130804
144	0xbe671cec	-0.22569627
145	0x3e1073ea	0.14106718
146	0xbe01bf02	-0.1267052
147	0x3c871837	0.016491039
148	0x3df49397	0.11942213
149	0xbddff10b	-0.10934647
150	0xbdf4acbc	-0.11947009
151	0x3c3d6fe4	0.011562321
152	0x3e35b2a7	0.17743932
153	0xbc563a5a	-0.0130754355
154	0x3e4f8efb	0.20269386
155	0x3d544bca	0.05183009
156	0x3cf5cbfd	0.030004496
157	0xbe082f34	-0.13299257
158	0x3dced76e	0.10099684
159	0x3dc03543	0.09385159
160	0x3d7a784e	0.061149888
161	0x3d95b0f4	0.07309142
162	0xbe45752f	-0.19282983
163	0x3d284a28	0.041086346
164	0xbd27d6b0	-0.040976226
165	0x3cd59df5	0.026076296
166	0x3d731d03	0.05935384
167	0x3d227c54	0.03966935
168	0x3d3ca7c4	0.04605843
169	0xbd9d0588	-0.076670706
170	0xbdb6400f	-0.08898937
171	0x3c3e9542	0.0116322655
172	0x3d6c3269	0.057665262
173	0xbe27a9ab	-0.16373317
174	0x3e3e6059	0.18591441
175	0x3bcaf697	0.0061939466
176	0xbde94686	-0.113904044
177	0x3c7afba2	0.015318783
178	0x3d7693ea	0.060199656
179	0xbd1438a0	-0.036186814
180	0x3d922ad9	0.07137079
181	0xbdaa4bac	-0.083152145
182	0x3cff9920	0.031200945
183	0x3e3429f7	0.17594133
184	0x3e0c8701	0.13723375
185	0x3d514397	0.05108985
186	0xbd4f1a16	-0.050561987
187	0x3bfe9635	0.007769371
188	0x3d98572c	0.07438502
189	0x3d8091cf	0.06277811
190	0xbd4dfe0b	-0.050291102
191	0x3db404c1	0.08789969
192	0xbe0a19fc	-0.13486475
193	0xbd532314	-0.051547125
194	0xbe395928	-0.18100417
195	0xbe1c37b5	-0.15255626
196	0xbe3e3a75	-0.18576987
197	0x3db12c2e	0.08651005
198	0x3c9da813	0.019245183
199	0xbe0c4c9b	-0.13701098
200	0xbd42092a	-0.04737202
201	0x3cc37ae7	0.023862315
202	0xbdcfa767	-0.10139351
203	0xbdb4c300	-0.08826256
204	0xbe3a0ba4	-0.18168503
205	0x3c174a8d	0.009234083
206	0xbdcaeb7c	-0.09908196
207	0x3cf4792b	0.029842934
208	0x3ddd9b35	0.10820619
209	0x3e3208a0	0.17386103
210	0x3e27d9b2	0.16391638
211	0xbdc9a630	-0.09846151
212	0xbd4b83b2	-0.04968614
213	0x3baa9a07	0.00520635
214	0xbdb82e2d	-0.08993182
215	0x3d5d1c87	0.053982284
216	0xbdf21b4e	-0.11821614
217	0x3ba151f6	0.0049231006
218	0xbe22b7f2	-0.15890482
219	0x3e05b256	0.13056311
220	0x3e2311a3	0.15924697
221	0x3e19d273	0.15021686
222	0xbda5d580	-0.080973625
223	0x3c08e072	0.008354293
224	0x3d0359d8	0.032068104
225	0xbe0df15b	-0.13861601
226	0xbde255f1	-0.11051548
227	0x3de9ad12	0.11409964
228	0xbdf5c24b	-0.11999949
229	0x3df7c138	0.120974004
230	0x3dc15c37	0.09441417
231	0x3ddde34b	0.10834368
232	0x3e392639	0.18080987
233	0x3db23514	0.0870153
234	0x3dd5a363	0.10431554
235	0x3df400d3	0.1191422
236	0xbe174f22	-0.1477628
237	0xbe183b7a	-0.14866439
238	0xbcdf0c54	-0.027227558
239	0x3e5b3802	0.21408084
240	0x3d196b46	0.03745582
241	0x3e042de6	0.12908134
242	0xbdd09a4b	-0.10185679
243	0xbca63c07	-0.020292295
244	0xbdef9e98	-0.11700171
245	0x3e0cd4db	0.13753073
246	0xbda71170	-0.08157623
247	0xbe15532b	-0.14582507
248	0x3de83d9a	0.113398746
249	0x3d5fe653	0.054663014
250	0x3caa8e75	0.020819882
251	0xbe1c6ac1	-0.15275098
252	0xbd8b789d	-0.068101145
253	0x3e003343	0.12519555
254	0xbe6f9ec6	-0.23400411
255	0x3e38883c	0.1802072

pool.pma.mab.fc_q.bias f4 [32]
0	0xbdba4f10	-0.09097111
1	0x3c8c1e8e	0.017104413
2	0x3df69333	0.12039795
3	0x3b9ffa81	0.0048821573
4	0x3c6252a1	0.013813646
5	0x3ca689a6	0.020329308
6	0xbc89750f	-0.01677945
7	0x3e01f075	0.12689383
8	0x3d8dd316	0.06925027
9	0xbd786d82	-0.06065131
10	0x3e54ec46	0.20793256
11	0x3dd8ba21	0.10582376
12	0xbcadebc6	-0.02123059
13	0x3e2658b0	0.16244769
14	0xbccc3387	-0.024926914
15	0x3ddfdb6f	0.109305255
16	0xbdd58365	-0.10425452
17	0x3e16e096	0.1473411
18	0x3e1cf763	0.15328746
19	0xbe2c8c33	-0.16850357
20	0xbe06531c	-0.13117641
21	0xbd40924d	-0.047014523
22	0xbddc4665	-0.10755614
23	0x3cf473b3	0.029840326
24	0x3d651de7	0.05593672
25	0xbc6e8f6b	-0.014560561
26	0x3da25a6a	0.07927401
27	0xbbc4d254	-0.0060065184
28	0xbd7688b8	-0.06018898
29	0xbe2a55e4	-0.16634327
30	0x3d3d6d45	0.046246786
31	0xbe226bda	-0.15861455

pool.pma.mab.fc_k.weight f4 [32, 32]
0	0x3e44c66c	0.19216317
1	0xbd990372	-0.0747136
2	0x3c891a98	0.016736314
3	0x3dad7feb	0.08471664
4	0xbe5909e7	-0.21195184
5	0x3e758fa7	0.2398058
6	0xbdc8e9fd	-0.09810255
7	0xbeb5f864	-0.3554107
8	0xbe5d40d8	-0.21606767
9	0xbe85cb7d	-0.26131812
10	0x3dad8f72	0.08474626
11	0x3e84b22f	0.25917193
12	0xbd275c92	-0.040859766
13	0xbe3d1c15	-0.18467744
14	0xbdf2c5cc	-0.11854133
15	0xbd93b9a9	-0.07213146
16	0xbe7a7aa7	-0.2446085
17	0xbec36453	-0.3816248
18	0xbdd34b94	-0.1031715
19	0x3e9d2567	0.30692598
20	0x3d9d7915	0.0768911
21	0xbce2ee58	-0.027701542
22	0x3ddd5e10	0.108089566
23	0xbe618a60	-0.22025442
24	0x3ecbce91	0.39806035
25	0xbe0797eb	-0.13241546
26	0x3d003a00	0.031305313
27	0x3ccd1159	0.025032686
28	0xbe3e28aa	-0.185702
29	0x3e335648	0.17513382
30	0xbade6103	-0.0016966168
31	0x3e356a9f	0.17716454
32	0x3eba4130	0.3637786
33	0x3e6e4757	0.23269401
34	0xbcea3fbf	-0.02859485
35	0xbea16bc8	-0.31527543
36	0xbddd07af	-0.10792481
37	0xbde655c9	-0.11246831
38	0xbd9d60ca	-0.07684477
39	0xbe8a0850	-0.26959467
40	0x3e93692e	0.28791183
41	0xbe06515c	-0.13116974
42	0xbd88b385	-0.06674866
43	0x3e07012c	0.13184041
44	0xbea29a58	-0.3175838
45	0xbce55dfa	-0.027998913
46	0x3de2d744	0.11076215
47	0xbdbd7b94	-0.09252086
48	0xbe01e0d6	-0.12683424
49	0xbe1da181	-0.1539364
50	0xbea58e1f	-0.32334992
51	0xbe284a46	-0.16434583
52	0x3eb40aec	0.35164583
53	0xbea62c60	-0.3245573
54	0x3e735701	0.23763658
55	0xbc5728fa	-0.013132328
56	0x3e22ed5f	0.15910862
57	0x3d97891d	0.07399199
58	0xbe30ac9a	-0.17253342
59	0x3c9d39dc	0.019192629
60	0x3e6c50bf	0.23077677
61	0xbe88ffdc	-0.26757705
62	0xbea3d35d	-0.31997195
63	0xbe9bceed	-0.3043131
64	0xbcf2757d	-0.029597038
65	0xbd7a8c52	-0.061168976
66	0x3e9404b0	0.28909826
67	0x3ea6e68d	0.3259777
68	0x3d683c5f	0.0566982
69	0x3d76afc0	0.060226202
70	0x3d35a93d	0.04435085
71	0x3e639ea2	0.22228482
72	0xbde152f8	-0.11002153
73	0x3e2e66b8	0.17031372
74	0xbe880192	-0.26563698
75	0xbe05efb8	-0.13079727
76	0x3dac73ac	0.084205
77	0xbe1349e5	-0.14383657
78	0x3d239abf	0.0399425
79	0x3e2374f8	0.15962589
80	0x3ca888c0	0.02057302
81	0x3e9b96a7	0.30388376
82	0x3dd94180	0.10608196
83	0xbd7950f2	-0.06086821
84	0xbd84e8f0	-0.06489742
85	0x3e6b162f	0.22957681
86	0xbd69e3cd	-0.057102013
87	0x3e75fd4b	0.24022405
88	0x3ba22dea	0.004949321
89	0xbe1296ab	-0.14315288
90	0x3ded2e4a	0.115810946
91	0xbe61db95	-0.2205642
92	0xbde7d974	-0.11320773
93	0x3daa7c5b	0.083245
94	0x3e2ed2ef	0.17072652
95	0x3e37bda8	0.17943442
96	0x3cf6d8a6	0.030132603
97	0x3e7a2f6e	0.24432155
98	0xbd8418d9	-0.06450052
99	0xbe591a1d	-0.21201368
100	0x3db07dea	0.08617766
101	0xbdcad0d6	-0.099031135
102	0xbea61160	-0.3243513
103	0xbe14cad2	-0.14530495
104	0x3de7c527	0.11316901
105	0xbd5b1f0f	-0.053496417
106	0x3d2530d6	0.040329777
107	0x3e1fdb51	0.15611006
108	0xbe17646f	-0.14784406
109	0x3e5960c5	0.21228321
110	0xbd2ab2d2	-0.041674443
111	0xbd580b49	-0.052745137
112	0xbe4f55cb	-0.20247571
113	0xbde41d48	-0.111383975
114	0xbe1a4e05	-0.15068825
115	0xbcb01414	-0.021493949
116	0x3e35b457	0.17744575
117	0xbda081b2	-0.078372374
118	0x3e89f672	0.26945835
119	0x3c8a0a81	0.016850712
120	0xbd679ab3	-0.056544017
121	0x3e4370f9	0.19086064
122	0xbe138656	-0.14406714
123	0x3e382f5f	0.1798682
124	0x3c7f9e21	0.015601666
125	0xbdedf4f9	-0.116189905
126	0xbe9fa906	-0.31183642
127	0xbea019ff	-0.31269833
128	0xbeadfdae	-0.33982605
129	0x3cea675c	0.028613739
130	0xbc20aa81	-0.009806276
131	0x3e01d5ad	0.12679167
132	0x3e6f495a	0.23367825
133	0x3e777310	0.24164987
134	0x3e895f63	0.26830587
135	0x3d8ded8d	0.06930075
136	0x3d4edf64	0.05050601
137	0x3c13531d	0.008991984
138	0xbe23d223	-0.1599813
139	0xbcb64a53	-0.022252237
140	0x3e853a10	0.2602086
141	0xbe4ddffb	-0.20104973
142	0xbbbf310a	-0.0058347033
143	0x3e7a01dc	0.24414772
144	0x3ea4c034	0.3217789
145	0x3dbe6c56	0.09298007
146	0x3e1dbb7f	0.15403555
147	0xbe90a474	-0.28250468
148	0xbd846ff9	-0.064666696
149	0x3e56ac60	0.20964193
150	0xbd7cc5fe	-0.061712258
151	0x3dc8bb33	0.098013304
152	0xbeba272f	-0.3635802
153	0xbe76e674	-0.24111348
154	0xbe4ee4fd	-0.2020454
155	0xbe0c05ff	-0.13674162
156	0x3da1f455	0.07907931
157	0xbe08df8b	-0.13366525
158	0x3d570fcb	0.052505296
159	0xbcd6b902	-0.026211265
160	0xbcadba4b	-0.021206995
161	0xbdacf46b	-0.084450565
162	0xbdc5569a	-0.096356586
163	0xbe184cd8	-0.14873064
164	0x3d819093	0.063264035
165	0x3d8cc9ab	0.068744026
166	0x3d8fa037	0.070129804
167	0x3c1ec52e	0.009690566
168	0x3d0d6e6b	0.03452913
169	0xbc939dbc	-0.01801955
170	0x3db8c1b6	0.090213224
171	0xbde6936f	-0.112585895
172	0x3dbbd8fb	0.09172245
173	0xbe66c8d9	-0.22537555
174	0xbdd4b095	-0.10385243
175	0x3c96238d	0.018327499
176	0xbe3e23ee	-0.18568394
177	0x3c847562	0.016169254
178	0x3d6c30a6	0.057663582
179	0x3d7c74f7	0.061634984
180	0x3e67d555	0.22639973
181	0xbdbe6587	-0.092967086
182	0xbcc75c78	-0.024336085
183	0xbd75f4b4	-0.06004782
184	0xbdc65e80	-0.09685993
185	0xbd0b543b	-0.034015875
186	0xbd101fd3	-0.0351866
187	0x3e2a4ae6	0.16630134
188	0xbdcb009d	-0.09912226
189	0x3e2d0fdc	0.16900581
190	0x3d8076a9	0.06272633
191	0x3d4544f2	0.048161454
192	0x3e71acf0	0.23601127
193	0x3d1149e8	0.035470873
194	0xbbf2e07b	-0.007412014
195	0xbe6d7fc1	-0.23193265
196	0xbe951432	-0.2911697
197	0x3dcb257d	0.0991926
198	0xbd2b46f4	-0.041815713
199	0xbe9e0c9c	-0.30868995
200	0x3e83da54	0.2575251
201	0xbdd3924f	-0.103306405
202	0x3e42697f	0.18985556
203	0x3ea4dd81	0.32200244
204	0xbe0b67a4	-0.13613755
205	0x3d9528c4	0.07283166
206	0x3d5bab6d	0.05363028
207	0xbe47c59d	-0.19508977
208	0xbe65736d	-0.22407313
209	0xbe68c0d8	-0.22729814
210	0xbb3a05fa	-0.002838491
211	0x3e50f30a	0.20405212
212	0x3dd6ec91	0.1049434
213	0xbe2c046d	-0.16798563
214	0x3e246f8c	0.16058177
215	0xbe825eaa	-0.25462848
216	0x3e50a4f5	0.20375426
217	0x3c8d8167	0.017273618
218	0x3bd5a0a6	0.006519395
219	0x3d839b73	0.06426134
220	0xbd9891cc	-0.074496835
221	0x3e27af3d	0.16375442
222	0xbaab533d	-0.0013071072
223	0xbd76b810	-0.06023413
224	0xbe9e195b	-0.3087872
225	0xbe1c580d	-0.15267964
226	0x3e61fd70	0.22069335
227	0x3e8f0dba	0.2794016
228	0x3deaef48	0.114714205
229	0x3e0a811d	0.13525815
230	0x3d005c9b	0.031338315
231	0x3e9997b8	0.29998565
232	0xbd6eba44	-0.058283105
233	0x3e78410d	0.24243565
234	0xbd3d3f4d	-0.046202946
235	0xbd91ca06	-0.07118611
236	0x3eb04d63	0.3443404
237	0xbda008df	-0.07814192
238	0x3c8cfa28	0.017209128
239	0x3e6a8c25	0.22905023
240	0x3dbc414a	0.091921404
241	0x3e63ccf3	0.2224615
242	0x3e79ef93	0.24407797
243	0xbe08e444	-0.13368326
244	0xbe713844	-0.2355662
245	0x3d7a6777	0.061133828
246	0xbe976b93	-0.2957426
247	0x3e8ecfc8	0.278929
248	0x3ca4ae8a	0.020102758
249	0xbe549491	-0.20759799
250	0x3e285d57	0.16441856
251	0xbe4fb06f	-0.20282148
252	0xbda7b0a3	-0.08187988
253	0x3cfe4059	0.031036543
254	0x3d8bf956	0.068346664
255	0x3de36b8d	0.11104498

pool.pma.mab.fc_k.bias f4 [32]
0	0x3db70fab	0.08938535
1	0x3df41d29	0.11919624
2	0xbe5d8b6c	-0.21635216
3	0xbdc8adb3	-0.097987555
4	0xbe43a025	-0.19104059
5	0x3d7aea43	0.061258566
6	0x3e1bb158	0.1520437
7	0xbe483052	-0.19549683
8	0x3beaec10	0.007169254
9	0xbc5314b6	-0.012883356
10	0xbe3a69cf	-0.18204425
11	0x3c52a446	0.012856549
12	0x3e14dbc7	0.14536963
13	0x3e76a292	0.24085453
14	0x3d836b13	0.06416907
15	0xb9f4c269	-0.00046684153
16	0xbdd1765a	-0.10227652
17	0xbd31bb9a	-0.0433918
18	0xbbb69451	-0.00557188
19	0x3cc57e2b	0.024108013
20	0x3e086c97	0.13322674
21	0xbe330252	-0.17481354
22	0xbc1acdf7	-0.00944852
23	0xbdbb265f	-0.09138178
24	0xbd8214e1	-0.063516386
25	0x3e01db29	0.12681259
26	0x3c271917	0.010198853
27	0xbc32c729	-0.010911741
28	0xbce499a9	-0.027905302
29	0xbe07f5b0	-0.13277316
30	0xbe4e528a	-0.20148674
31	0x3c56cd0f	0.013110413

pool.pma.mab.fc_v.weight f4 [32, 32]
0	0xbcc4ba50	-0.024014622
1	0x3de18be1	0.11013008
2	0xbca101d4	-0.019654192
3	0x3c07ca4b	0.0082879765
4	0xbcfafa3e	-0.030636903
5	0x3da0471c	0.07826063
6	0xbd1dcd2a	-0.038525738
7	0x3da8537a	0.08219047
8	0xbd1c7478	-0.03819701
9	0x3d80ff74	0.06298724
10	0xbcb2d64a	-0.021830697
11	0x3e3f567e	0.18685338
12	0xbdb97ed3	-0.09057393
13	0xbd15138a	-0.036395587
14	0x3ddafacd	0.10692368
15	0xbc9b62ca	-0.018968005
16	0x3db4417b	0.08801552
17	0xbe143a8d	-0.1447546
18	0xbe093cc7	-0.13402091
19	0x3e864623	0.26225385
20	0xbd86060e	-0.065441236
21	0x3debe9d9	0.11519212
22	0x3e665195	0.22492059
23	0x3e0bfb24	0.13670021
24	0x3b554026	0.0032539456
25	0x3cccb09b	0.024986556
26	0xbe0fb631	-0.14034344
27	0xbdb10a44	-0.08644536
28	0xbd4f136a	-0.050555624
29	0xbdcc7aa5	-0.0998433
30	0x3df281db	0.11841174
31	0x3d38c2d0	0.045107663
32	0xbd624bdf	-0.055248138
33	0x3b014c98	0.0019729491
34	0x3e2de3ab	0.1698138
35	0x3cd831dd	0.026390964
36	0x3e47a97f	0.19498251
37	0x3e0c538e	0.13703749
38	0xbd095526	-0.03352847
39	0xbddc2e79	-0.107510515
40	0x3e050e3d	0.12993713
41	0xbdb521f6	-0.08844368
42	0x3d5a01e6	0.053224467
43	0xbe2276bf	-0.1586561
44	0x3d8fbbfb	0.07018276
45	0x3d9d81e7	0.076907925
46	0xbc7bf90e	-0.0153792035
47	0x3e2652d9	0.16242541
48	0xbe1efe43	-0.1552668
49	0xbdb7c1b7	-0.08972495
50	0xbd55e9f8	-0.052225083
51	0x3dc89b01	0.0979519
52	0x3d985cff	0.074396126
53	0x3de2a8e5	0.1106737
54	0x3d73304c	0.05937223
55	0x3e247dfa	0.16063681
56	0xbd7e55a9	-0.06209341
57	0xbcd3d3c9	-0.025857823
58	0xbd392022	-0.04519666
59	0x3d05dce2	0.032681353
60	0xbdb398ff	-0.08769416
61	0x3cd76659	0.02629392
62	0x3d32a7b3	0.04361696
63	0x3d40684a	0.046974458
64	0x3dad6370	0.08466232
65	0x3c30ee1a	0.010798955
66	0x3e201531	0.15633084
67	0xbc26dd28	-0.010184564
68	0xbe5cfddf	-0.21581219
69	0x3dd8dc11	0.10588849
70	0x3d859aa4	0.06523636
71	0x3e0990f5	0.13434203
72	0x3d071d63	0.03298701
73	0xbd5a1179	-0.05323932
74	0xbd683b74	-0.056697324
75	0xbdf9a832	-0.12190284
76	0x3d917963	0.07103231
77	0x3e362486	0.1778737
78	0xbd9c54ab	-0.07633337
79	0xbdf5d22b	-0.12002977
80	0x3d7afdcf	0.061277207
81	0xbdf7b456	-0.12094943
82	0x3cf1e7ff	0.02952957
83	0xbb6081eb	-0.0034257125
84	0xbe5bfc46	-0.21482953
85	0xbe13024f	-0.1435635
86	0xbd86e029	-0.06585724
87	0x3c2662e8	0.010155417
88	0x3dc24b89	0.094870634
89	0xbddd27de	-0.1079862
90	0x3d1ec2d2	0.038760014
91	0x3d23c115	0.03997906
92	0xbd8f8a33	-0.07008781
93	0xbd56c7b9	-0.052436564
94	0x3dcd699f	0.10029911
95	0x3b992e19	0.0046746847
96	0x3d92115f	0.071322195
97	0x3e11fcf7	0.14256655
98	0x3d255d00	0.040371895
99	0x3bce6e87	0.006299797
100	0xbd1c593c	-0.038171038
101	0xbe215ea1	-0.15758754
102	0x3c348898	0.011018895
103	0x3da72cfa	0.081628755
104	0x3da7e834	0.08198586
105	0x3bf45d89	0.0074574393
106	0x3dc11565	0.09427909
107	0xbd755d2c	-0.05990331
108	0x3d80be21	0.06286264
109	0xbd3558e7	-0.044274237
110	0xbd29b0de	-0.04142844
111	0x3e05913f	0.13043688
112	0x3db33f99	0.08752365
113	0x3cde8883	0.027164703
114	0xbd2dce81	-0.042433266
115	0xbe3358de	-0.17514369
116	0xbe28d5c2	-0.16487792
117	0xbe26a61c	-0.16274303
118	0x3d90d82c	0.070724815
119	0xbdde1559	-0.108439155
120	0xbd2cf15a	-0.04222236
121	0xbe32afe6	-0.17449912
122	0xbd7cba28	-0.06170097
123	0x3dff67b9	0.124709554
124	0x3cbeabc6	0.023275267
125	0xbd5227ca	-0.051307477
126	0x3db57b29	0.088613816
127	0x3e38faf7	0.18064485
128	0x3d9ada9b	0.07561227
129	0xbe1779eb	-0.14792602
130	0x3d2809da	0.04102502
131	0xbdcb8251	-0.09936965
132	0xbe080ec7	-0.13286887
133	0x3dfb24d2	0.12262882
134	0xbde02e64	-0.10946348
135	0xbd8be91f	-0.06831574
136	0x3d3cc463	0.046085726
137	0x3e0e6d70	0.13908935
138	0xbe14aed0	-0.1451981
139	0xbd9e0fa5	-0.07717828
140	0xbd19776e	-0.037467413
141	0x3e17add6	0.14812407
142	0x3d085f94	0.033294275
143	0x3d8cd774	0.06877032
144	0x3de4e8a2	0.11177184
145	0xbd27c23d	-0.040956724
146	0x3de295cb	0.11063727
147	0x3dbd71ff	0.09250259
148	0xbd0dd84b	-0.0346301
149	0xbda2bdcd	-0.07946358
150	0x3d162cd9	0.036663864
151	0x3cf7da4b	0.030255457
152	0xbd0d8d65	-0.034558672
153	0x3e13c3ae	0.14430115
154	0x3c375fa4	0.011192236
155	0x3cab9a41	0.020947577
156	0x3e059415	0.1304477
157	0x3d61c831	0.055122558
158	0xbd92d125	-0.071687974
159	0xbcd57ae6	-0.02605958
160	0x3da64381	0.08118344
161	0xbcda92a1	-0.026681246
162	0x3cbcd068	0.023048595
163	0x3dd21be1	0.10259224
164	0x3d6c7348	0.05772713
165	0xbd2a7840	-0.041618586
166	0xbe20c27f	-0.15699194
167	0x3e206df3	0.15666942
168	0xbc92216d	-0.017838204
169	0xbd3adefd	-0.045622814
170	0xbe01f711	-0.12691905
171	0x3e0ecfe1	0.13946487
172	0x3da22bbe	0.079184994
173	0xbdfaf123	-0.122530244
174	0xbe182a9b	-0.14860003
175	0x3e4089e2	0.18802598
176	0x3dd1e0ff	0.10247993
177	0xbcf49000	-0.02985382
178	0xbdc6a876	-0.097001
179	0x3d5edd31	0.054410163
180	0xbdcd4de3	-0.10024621
181	0x3e16bc8a	0.1472036
182	0xbe1623d3	-0.14662103
183	0xbdc8a526	-0.097971246
184	0xbe0762fe	-0.13221356
185	0x3e0ec988	0.13944066
186	0x3e0ca1d0	0.13733602
187	0xbe13075f	-0.1435828
188	0x3e07e3f9	0.13270558
189	0xbd77282e	-0.060341053
190	0xbde1a26d	-0.110173084
191	0x3d81ca74	0.06337443
192	0x3dfb8016	0.1228029
193	0x3de17109	0.11007888
194	0x3d13c89f	0.03608
195	0x3e283949	0.16428103
196	0xbe4db4a2	-0.20088437
197	0x3d6194ef	0.055073675
198	0xbd949395	-0.072547115
199	0x3b15cff2	0.002285954
200	0x3ddb0519	0.10694332
201	0xbe35c3da	-0.17750493
202	0x3e002fad	0.12518187
203	0x3b9d461c	0.0047996175
204	0x3e084340	0.13306904
205	0x3c100ea5	0.008792554
206	0x3d40554c	0.046956345
207	0x3de27394	0.11057201
208	0xbdef16fb	-0.11674305
209	0xbe449f7c	-0.19201463
210	0x3dc1cc70	0.094628215
211	0x3bcb6fce	0.0062083965
212	0x3c938c63	0.018011278
213	0x3d10401e	0.035217397
214	0xbd2ba9a7	-0.04190984
215	0x3da5ef5c	0.08102295
216	0x3dca9365	0.098913945
217	0xbc6f630a	-0.014611015
218	0x3dcbe8bf	0.09956502
219	0xbc196f65	-0.009364937
220	0x3e14ff7c	0.14550585
221	0x3d99e41f	0.07514214
222	0xbe1c18a9	-0.15243782
223	0x3d31497c	0.04328297
224	0x3dd16c1c	0.10225698
225	0x3ddb985f	0.10722422
226	0x3ccf16ca	0.025279421
227	0x3d6a19d6	0.057153545
228	0x3cacee1e	0.021109637
229	0xbd52de73	-0.051481675
230	0xbd976fc4	-0.073943645
231	0x3e15b719	0.14620627
232	0x3e18e240	0.14930058
233	0xbd805efb	-0.06268116
234	0xbe1a6ede	-0.15081355
235	0x3e26a84d	0.16275139
236	0xbe06dece	-0.1317093
237	0x3dd25c0e	0.10271464
238	0xbe2f5fbe	-0.17126366
239	0xbdd5c2ec	-0.10437569
240	0xbd4b4850	-0.04962951
241	0x3e592b0d	0.21207829
242	0xbdac0408	-0.083992064
243	0x3e3a1a25	0.18174036
244	0x3cd283ca	0.025697608
245	0x3da467b3	0.080275916
246	0x3dc52033	0.09625282
247	0x3d7355f0	0.05940813
248	0x3d5fd3e2	0.054645427
249	0xbda67129	-0.08127052
250	0xbd2186b7	-0.039435115
251	0x3d225f8c	0.0396419
252	0x3e13ce5d	0.1443419
253	0xbdcd65de	-0.10029195
254	0xbe410987	-0.1885129
255	0xbdb41d82	-0.08794691

pool.pma.mab.fc_v.bias f4 [32]
0	0x3d76e0a0	0.060272813
1	0x3e09e17a	0.13464919
2	0xbc54bed6	-0.012984952
3	0xbcefef96	-0.029289048
4	0xbd05d46b	-0.03267328
5	0xbd67e1c2	-0.056611784
6	0x3d91a033	0.07110634
7	0xbe1ebe77	-0.15502344
8	0x3dfc7a5d	0.123280264
9	0x3cd2ea02	0.02574635
10	0xbd907a36	-0.0705456
11	0xbd6c7403	-0.057727825
12	0xbdd03597	-0.101664715
13	0xbe131fd4	-0.1436761
14	0xbc841c78	-0.016126856
15	0xbd380ead	-0.04493587
16	0xbd06d2ef	-0.032916006
17	0xbd28fd7f	-0.041257378
18	0xbd1a5b4a	-0.037684716
19	0x3d2854c2	0.041096456
20	0xbdef162e	-0.11674152
21	0x3a3269c6	0.00068059226
22	0xbb1fb58f	-0.0024369692
23	0xbe23e7e5	-0.1600643
24	0x3e102314	0.14075881
25	0xbd97001a	-0.07373066
26	0x3dc6dc53	0.09709992
27	0x3dfdfc30	0.124016166
28	0xbb243324	-0.0025054896
29	0x3deed7ef	0.1166228
30	0xbe13cd84	-0.14433867
31	0xbc3e1903	-0.011602643

pool.pma.mab.fc_o.weight f4 [32, 32]
0	0xbe391c4e	-0.18077204
1	0xbe0e5479	-0.13899411
2	0x3c43b057	0.011943898
3	0x3e2e2425	0.17005976
4	0xbd88002a	-0.06640656
5	0xbd15e216	-0.036592565
6	0xbe0b4117	-0.13599049
7	0x3c8a094a	0.016850132
8	0xbe35057a	-0.1767787
9	0xbdcf7e1e	-0.10131477
10	0x3b1f704f	0.0024328416
11	0x3e3dcb6a	0.18534628
12	0x3d7f2295	0.06228884
13	0xbd3decb9	-0.046368334
14	0x3dad0c1e	0.08449577
15	0x3e437560	0.19087744
16	0x3e1d1b0a	0.15342346
17	0xbd3f9a4c	-0.04677801
18	0xbd9d1ff2	-0.07672109
19	0x3db5a44e	0.08869229
20	0x3e0372d6	0.12836775
21	0x3e118691	0.1421149
22	0x3e36f039	0.17865075
23	0xbcb7fa13	-0.022458112
24	0x3df00649	0.11719949
25	0x3d6aa1e1	0.057283286
26	0x3e120432	0.14259413
27	0x3e0fd0e6	0.14044532
28	0x3e0a5cea	0.13512006
29	0x3dae7707	0.085187964
30	0x3e2f1d32	0.17100981
31	0xbd457bfe	-0.04821395
32	0x3bc8bff8	0.0061264
33	0xbd8a48b2	-0.06752147
34	0xbd57ce9a	-0.052687265
35	0x3e4d05e3	0.20021777
36	0x3d3bb8fc	0.04583071
37	0xbd13f57b	-0.03612278
38	0xbd71a522	-0.058995374
39	0xbe29c452	-0.16578797
40	0x3c1b35d8	0.009473287
41	0x3e173f6c	0.14770287
42	0x3de9e2a6	0.11420183
43	0x3e2a17bc	0.16610616
44	0x3e28a6b8	0.16469848
45	0x3db5c869	0.08876116
46	0x3c8eb042	0.01741803
47	0xbd3ad6a0	-0.04561484
48	0x3dd341a7	0.103152566
49	0xbe1fc42f	-0.15602182
50	0xbd95b070	-0.073090434
51	0x3d59c791	0.053168837
52	0x3d9ed349	0.07755143
53	0xbd99830f	-0.074957006
54	0x3dd784eb	0.10523399
55	0xbe05d778	-0.13070476
56	0x3d67cdaa	0.05659262
57	0x3df4be76	0.1195039
58	0x3d6099b0	0.054834068
59	0xbd84f221	-0.06491495
60	0xbd9fd440	-0.07804155
61	0x3e2a9651	0.16658904
62	0x3d60b930	0.05486411
63	0xbdd67d93	-0.1047317
64	0x3e794d4f	0.24345897
65	0xbda60886	-0.081070945
66	0x3d3c23d5	0.04593261
67	0xbd012e4d	-0.031538296
68	0x3d649100	0.055802345
69	0xbe124996	-0.14285883
70	0x3da4d8b8	0.08049148
71	0xbd1a52e4	-0.037676707
72	0xbe336771	-0.17519929
73	0xbdf38c08	-0.11891943
74	0xbda6b2c2	-0.08139564
75	0x3e3b7575	0.18306525
76	0xbd89ccf2	-0.06728543
77	0x3e57e365	0.21082838
78	0x3e56f045	0.20990093
79	0xbdcf569a	-0.1012394
80	0xbdae7e60	-0.08520198
81	0x3cb2c8d7	0.021824284
82	0xbd984489	-0.07434947
83	0x3c91aae0	0.017781675
84	0xbdb22e0a	-0.087001875
85	0x3d9c12b4	0.07620755
86	0xbb8242fa	-0.0039752694
87	0x3e3096ce	0.17245027
88	0xbdf36a7a	-0.11885543
89	0xbd207a49	-0.03917912
90	0xbdc61842	-0.096725956
91	0xbd96a7bf	-0.07356214
92	0x3d731b47	0.059352186
93	0xbe09bc20	-0.1345067
94	0x3d260636	0.040533267
95	0xbe4f475c	-0.20242065
96	0x3dd0f33e	0.10202645
97	0x3d97933f	0.07401132
98	0x3e2c7147	0.16840087
99	0xbe0e426e	-0.13892528
100	0xbde8dfa6	-0.113707826
101	0x3da9ca71	0.08290566
102	0xbd374075	-0.044739205
103	0x3e327e41	0.17430975
104	0xbe6160ce	-0.22009584
105	0x3e1a9fb0	0.15099978
106	0xbde5de71	-0.11224068
107	0xbd4e23f2	-0.05032725
108	0x3cbaecfe	0.022818085
109	0x3bd5d510	0.006525643
110	0xbdf89e8b	-0.12139615
111	0x3d700486	0.058598064
112	0x3e274454	0.16334659
113	0x3dcec0a2	0.100953355
114	0x3d339f41	0.04385305
115	0xbd9eb414	-0.07749191
116	0xbd7ff5ad	-0.062490154
117	0x3e532288	0.20618641
118	0xbdc5212c	-0.09625468
119	0xbdb937f2	-0.09043874
120	0x3df3af03	0.11898615
121	0x3d91dbdd	0.07122014
122	0x3dca43bc	0.098762006
123	0xbda02a6c	-0.07820591
124	0x3e398a12	0.18119076
125	0xbe24111c	-0.16022152
126	0x3e1fd31d	0.15607877
127	0x3e0e45ab	0.13893764
128	0xbac953a4	-0.001536001
129	0x3de3efc2	0.111297145
130	0xbba68ab8	-0.0050824545
131	0xbe25ae5a	-0.16179791
132	0x3b3ddcad	0.0028970644
133	0xbdfe55c3	-0.124187015
134	0xbaed495a	-0.0018103526
135	0xbe1f139b	-0.15534823
136	0xbdb4bb53	-0.08824792
137	0xbd38f858	-0.045158714
138	0xbd8291a9	-0.06375439
139	0xbe29e5ed	-0.16591616
140	0xbda85fd3	-0.08221402
141	0xbe26b0fc	-0.16278452
142	0xbe022072	-0.1270769
143	0xbe37163e	-0.17879578
144	0xbdc30bab	-0.0952371
145	0xbd57014a	-0.052491464
146	0x3e1b4b95	0.15165551
147	0xbe0d16cd	-0.13778229
148	0xbe04c73d	-0.12966628
149	0xbe00ecb4	-0.12590295
150	0x3e1d3b77	0.15354715
151	0xbc9c3d8c	-0.019072317
152	0xbd5096c1	-0.05092502
153	0x3dc9b154	0.09848276
154	0xbde3bdaa	-0.1112016
155	0xbd3c8e16	-0.04603394
156	0x3dc76f54	0.09738031
157	0x3db014bd	0.085977055
158	0xbe0a3a31	-0.13498761
159	0xbd4d7b10	-0.05016619
160	0x3c427a4c	0.011869978
161	0x3d8c0d19	0.06838436
162	0xbd63a9f1	-0.05558199
163	0x3df09a85	0.11748222
164	0x3d8fe6d3	0.07026448
165	0xbe2c27e0	-0.16812086
166	0x3d543d3b	0.051816206
167	0xbe350ce3	-0.17680697
168	0x3cc01cdf	0.023451267
169	0xbe16ceb5	-0.1472729
170	0xbd3f352f	-0.04668158
171	0xbd28a13c	-0.04116939
172	0xbe282de7	-0.1642376
173	0xbd7eccb0	-0.062206924
174	0xbc0dee30	-0.008662745
175	0xbde2cb65	-0.11073951
176	0x3c5dff8a	0.013549695
177	0x3df0ef49	0.1176439
178	0x3c82d526	0.015970778
179	0xbe2e5e5a	-0.1702818
180	0xbbcc5efe	-0.00623691
181	0xbddaeed9	-0.10690088
182	0x3da0838f	0.07837593
183	0xbe12f951	-0.14352919
184	0xbde512e4	-0.11185244
185	0xbc53b6bf	-0.012921988
186	0x3dd7ce9e	0.10537456
187	0xbd4517bc	-0.048118338
188	0x3d1bb256	0.03801187
189	0xbbd60fe9	-0.0065326584
190	0xbe11398f	-0.14182113
191	0xbc49c0ca	-0.012314031
192	0xbcf012a9	-0.029305773
193	0x3c1ee551	0.009698228
194	0x3d4dc919	0.05024061
195	0x3d982818	0.07429522
196	0x3d995d36	0.07488482
197	0xbc226407	-0.009911544
198	0xbdce650e	-0.100778684
199	0x3e2efada	0.1708788
200	0x3df2e9a4	0.1186097
201	0x3dcab6db	0.09898158
202	0x3e15dc2b	0.14634769
203	0x3dd4e306	0.10394864
204	0x3e35c9fa	0.17752829
205	0x3e3599f2	0.17734507
206	0xbe0d97b9	-0.13827409
207	0xbe114386	-0.14185914
208	0xbd8d1b2f	-0.068899505
209	0x3dd710d8	0.105012596
210	0x3e041b8b	0.12901132
211	0xbc0532ff	-0.008129834
212	0xbde19f07	-0.1101666
213	0xbd7727b1	-0.060340587
214	0x3dc9eb88	0.09859377
215	0x3e3cf1c9	0.18451609
216	0x3c4cc41c	0.012497928
217	0xbdce09cd	-0.10060463
218	0x3e1722d4	0.1475938
219	0x3e086dd3	0.13323145
220	0xbe0bf650	-0.1366818
221	0xbdee62e2	-0.11639954
222	0x3e00b217	0.12567936
223	0xbde36688	-0.11103541
224	0x3e2e6980	0.17032433
225	0xbcb162ac	-0.021653496
226	0x3cee6f1e	0.02910572
227	0xbdddb06b	-0.10824665
228	0xbe5ed1d7	-0.21759735
229	0x3d090852	0.0334552
230	0xbd52a1d8	-0.051423877
231	0xbe0d5285	-0.1380101
232	0x3e2dbc18	0.16966283
233	0x3d4d27e5	0.050086875
234	0xbce7c156	-0.028290432
235	0xbe2524ea	-0.16127363
236	0xbddc933b	-0.107702695
237	0xbdb93ab4	-0.090444
238	0x3e091095	0.13385232
239	0xbe309d20	-0.17247438
240	0x3d8ed802	0.06974794
241	0x3e124a36	0.14286122
242	0x3dc85179	0.09781165
243	0xbe514e1c	-0.20439953
244	0x3b18f85d	0.0023341395
245	0xbdde109e	-0.10843013
246	0x3d757441	0.05992532
247	0xbc63d142	-0.013904871
248	0x3de380ad	0.11108527
249	0xbca14fef	-0.019691436
250	0x3d2675cf	0.040639695
251	0x3dbce71f	0.0922377
252	0xbe4de24d	-0.20105858
253	0x3d7846cd	0.060614396
254	0x3e1137c7	0.14181434
255	0x3dc19162	0.09451558

pool.pma.mab.fc_o.bias f4 [32]
0	0xbcae68ac	-0.021290146
1	0xbd73e5e4	-0.059545413
2	0xbe60b561	-0.2194419
3	0xbe554a8a	-0.20829216
4	0xbdebfdb9	-0.11523003
5	0xbdf9ac37	-0.121910505
6	0x3de6e201	0.112735756
7	0xbb84114e	-0.004030383
8	0xbdf66661	-0.12031246
9	0xbce7052c	-0.028200708
10	0xbd5aafaa	-0.053390183
11	0xbd8dad13	-0.06917777
12	0x3e237599	0.15962829
13	0xbe2ad14f	-0.16681407
14	0xbe5e1719	-0.21688499
15	0x3d209938	0.03920862
16	0x3e04e3b1	0.12977482
17	0xbe30812c	-0.17236775
18	0x3d31e3c3	0.0434301
19	0x3e3136aa	0.17306009
20	0xbda99080	-0.08279514
21	0xbde8d9a2	-0.11369635
22	0x3db76a00	0.08955765
23	0x3dbcc3fc	0.092170686
24	0xbce390d2	-0.027779017
25	0xbe5a63b4	-0.21327096
26	0xbccb4563	-0.02481336
27	0xbe1a5ffa	-0.15075675
28	0xbe236d62	-0.15959695
29	0x3d97fbbb	0.07421061
30	0x3e0c92e3	0.13727908
31	0x3d63025c	0.055422172
